CartPoleHighRewardIn2026/checkpoints/checkpoint_ep1000_reward139.00.pt (torch, 421267 bytes, 33 tensors)

feature_layer.0.weight f4 [128, 4]
0	0xbcde9270	-0.027169436
1	0x3d74d56b	0.059773844
2	0xbe5260f9	-0.20544805
3	0x3e1cd09a	0.1531395
4	0xbd617972	-0.05504746
5	0xbabcdefa	-0.0014409714
6	0xbf08ebc6	-0.5348476
7	0xbe780d5f	-0.2422385
8	0xbba98d6f	-0.005174331
9	0xbb9682b8	-0.0045932196
10	0xbf97bdda	-1.1854813
11	0x3c689aa3	0.0141970245
12	0xbcd97405	-0.02654458
13	0x3c6967ca	0.014245937
14	0x3e99fce8	0.30075765
15	0xbc06e79e	-0.008233933
16	0xbc81b769	-0.015834527
17	0x3bbb511a	0.005716455
18	0x3fd48dd4	1.6605783
19	0xbc540750	-0.012941197
20	0xbd588973	-0.052865457
21	0x3d427a69	0.04748002
22	0xbee91bb9	-0.45528963
23	0x3d93307f	0.07186984
24	0x3c731df8	0.014838688
25	0xbc8e85de	-0.017397817
26	0x3e61e38a	0.22059456
27	0xbd2aa441	-0.04166055
28	0xbcdb77f7	-0.026790602
29	0x3d935311	0.07193578
30	0xbe98b263	-0.29823598
31	0x3d9bfd96	0.07616727
32	0xbded980b	-0.116012655
33	0x3dd4825a	0.10376425
34	0x3eff7a7f	0.49898145
35	0x3d9ab3e7	0.07553845
36	0x3cc94b81	0.024572136
37	0xba5c7918	-0.00084103784
38	0x3e5f40fe	0.21802136
39	0x3d19e2c1	0.037569765
40	0x3cae7291	0.021294864
41	0xbcb24d59	-0.021765398
42	0xbec24869	-0.3794587
43	0x3d1f4859	0.038887355
44	0x3d493a87	0.04912808
45	0xbd292853	-0.04129822
46	0x3e021b70	0.12705779
47	0xbcf5cc21	-0.030004563
48	0x3d1ce5fa	0.03830526
49	0xbdc9fc61	-0.098625906
50	0x3d70070a	0.058600463
51	0xbdd6afee	-0.10482775
52	0xbe299668	-0.16561282
53	0x3e3ab768	0.18234026
54	0xbeac5a11	-0.33662465
55	0x3e8260b3	0.254644
56	0x3d07e115	0.03317364
57	0xbbeb02e2	-0.0071719745
58	0x3e7fc319	0.24976768
59	0xbca74a5d	-0.020421201
60	0xbc8fbd2f	-0.017546264
61	0xbd59cdb9	-0.053174708
62	0x3ed7a01f	0.4211435
63	0xbe7f57c1	-0.24935819
64	0xbdcddebe	-0.1005225
65	0xbcba9211	-0.022774728
66	0x3e59bf78	0.21264446
67	0xbc1f9776	-0.009740701
68	0xbd1b022d	-0.03784387
69	0x3d66039d	0.05615579
70	0xbf04eea3	-0.5192663
71	0x3d4226d3	0.047400307
72	0xbdcf0dc7	-0.1011005
73	0x3d02a89f	0.03189909
74	0x3fde497a	1.7366173
75	0x3db3acec	0.087732166
76	0xbb495b12	-0.0030724448
77	0xbd4b573f	-0.04964375
78	0x3f3fd4f5	0.7493432
79	0xbdf51c86	-0.11968331
80	0xbd8ab19c	-0.067721575
81	0xbbd31e8e	-0.0064428514
82	0xbfdc67ac	-1.7219138
83	0xbe1731b4	-0.14765054
84	0xbe38eebf	-0.18059824
85	0xbbd04081	-0.0063553457
86	0x3fc254d1	1.5182134
87	0x3e584080	0.21118355
88	0x3a702bfd	0.0009161828
89	0x3c30d0f6	0.010792008
90	0xbf92c167	-1.1465272
91	0x3cbc92df	0.023019252
92	0x3ce0afb8	0.02742754
93	0xbca89f0b	-0.02058365
94	0x3ef5404b	0.47900614
95	0xbd0e4787	-0.034736183
96	0x3e6e184d	0.23251458
97	0x3ead50f6	0.3385083
98	0x3f8234a9	1.0172321
99	0x3e9e2947	0.30890867
100	0xbd1525ee	-0.036413126
101	0x3d7baabb	0.06144212
102	0xbf02fdf0	-0.5116873
103	0x3dc115fc	0.09428021
104	0xbbea0b5c	-0.0071424674
105	0xbc5bf41b	-0.0134248985
106	0x3fd43ca1	1.6581002
107	0xba4dc0ec	-0.0007848877
108	0xbd7de74a	-0.061988153
109	0x3d8a214d	0.06744633
110	0xbe3cad56	-0.18425497
111	0x3d93800e	0.07202159
112	0xbe59dce5	-0.21275671
113	0xbdb439f4	-0.08800116
114	0xbfb52e78	-1.4154806
115	0xbe9b3c0d	-0.30319253
116	0xbd5c7cc6	-0.05382993
117	0x3de9f0dc	0.114228934
118	0xbd36bf83	-0.044616234
119	0x3e03369d	0.12813802
120	0xbce3b35c	-0.027795486
121	0x3ce7f2b1	0.028313966
122	0x3f0bb467	0.5457215
123	0x3e880955	0.2656962
124	0x3b5a4e56	0.0033310852
125	0x3c48a3fe	0.01224613
126	0x3fe79e9f	1.8095282
127	0x3d6a2d7c	0.057172284
128	0xbc66dde4	-0.014090989
129	0xbc443ed8	-0.011977874
130	0x3e0f3183	0.13983731
131	0xbd2b2899	-0.041786764
132	0xbb995b7b	-0.004680095
133	0x3cc3a426	0.023881983
134	0xbed5f7c2	-0.41790587
135	0x3cd733ad	0.026269758
136	0xbd514c74	-0.051098302
137	0xbca704f6	-0.020388108
138	0xbf7df338	-0.9919925
139	0xbd9d051f	-0.076669924
140	0x3ca31df9	0.019911753
141	0xbd7993d9	-0.060932014
142	0x3e06febb	0.1318311
143	0xbd450e5c	-0.048109397
144	0x3d7db402	0.061939247
145	0x3e9ff20f	0.31239364
146	0x3f51743b	0.8181798
147	0x3e9055ff	0.2819061
148	0x3dd82254	0.105534226
149	0x3e27d3b2	0.16389349
150	0x3f728051	0.94727045
151	0x3e46cd49	0.19414248
152	0xbbc1b658	-0.0059116296
153	0xba0df788	-0.0005415608
154	0x3faf443b	1.3692697
155	0xbce4b832	-0.027919862
156	0xbd296cb1	-0.04136342
157	0xb9edaf19	-0.0004533462
158	0xbef4500c	-0.4771732
159	0xbdf290fd	-0.118440606
160	0x3d5e24b0	0.054234207
161	0xbd9d5ab4	-0.07683316
162	0x3e8d7666	0.27629393
163	0xbdb23b8c	-0.08702764
164	0xbe0aefe6	-0.13568076
165	0x3e1e2a12	0.15445736
166	0x3f1cbf9e	0.61229885
167	0x3e126129	0.14294876
168	0xbee623a1	-0.44949058
169	0xbeaa0348	-0.33205628
170	0xbe83ed60	-0.2576704
171	0xbe807998	-0.2509277
172	0x3ce3a60f	0.027789144
173	0x3c77ee1e	0.015132455
174	0x3d926081	0.07147313
175	0x3d61aca0	0.05509627
176	0xbe545e3f	-0.20739077
177	0xbdcbbd11	-0.09948171
178	0xbdd241a7	-0.102664284
179	0xbd354011	-0.04425055
180	0xbc32a098	-0.010902546
181	0xbbb593cf	-0.005541302
182	0xbdbad88d	-0.09123335
183	0xbce79280	-0.028268099
184	0x3ed4cef8	0.41564155
185	0x3e4f82f5	0.202648
186	0x3f37b382	0.7175828
187	0x3e382479	0.17982663
188	0x3ea4a4f6	0.32157105
189	0xbd319230	-0.043352306
190	0x3d43e6a0	0.047827363
191	0xbccad4e2	-0.024759714
192	0xbbc543ee	-0.0060200607
193	0x3c9ab1bc	0.018883578
194	0xbfdfcf15	-1.7485071
195	0xbe399e31	-0.18126751
196	0xbcb098a4	-0.02155716
197	0x3cc33bf3	0.023832297
198	0xbfdb74f9	-1.7145072
199	0xbccd6a89	-0.025075214
200	0xbc72883e	-0.0148029905
201	0xbc60b909	-0.013715991
202	0x3fbc96ad	1.4733483
203	0x3c0f942d	0.008763355
204	0xbbb502be	-0.0055240085
205	0xbca59e07	-0.020216955
206	0xbe439b15	-0.19102128
207	0xbcba6f48	-0.022758141
208	0x3cb20270	0.021729678
209	0xbd9c9ebb	-0.07647463
210	0x3cf5b5f1	0.029993983
211	0xbe45ac0d	-0.19303913
212	0x3cdb2c4b	0.026754519
213	0xbd56ee6e	-0.052473478
214	0x3ebce553	0.3689371
215	0xbd585b8d	-0.052821685
216	0x3d38d908	0.045128852
217	0xbca4fc16	-0.020139735
218	0xbe2ec1a4	-0.17066056
219	0xbba46fe7	-0.0050182226
220	0xbd8423c8	-0.06452137
221	0x3dfc042f	0.123054855
222	0x3fcd9453	1.606089
223	0x3e89e303	0.2693101
224	0xbdb85d33	-0.09002151
225	0x3cf0739c	0.029352002
226	0xbf13f1c9	-0.5779081
227	0x3e520305	0.20508964
228	0xbd667e17	-0.056272592
229	0x3d399e65	0.045317072
230	0xbf0db444	-0.5535319
231	0x3dc2caee	0.09511362
232	0xbd2d5785	-0.042319793
233	0xbc25cdb8	-0.010119848
234	0xbfed56a3	-1.8542064
235	0xbeb5c91a	-0.3550499
236	0x3c9dcaa5	0.019261668
237	0xbd2de11f	-0.04245102
238	0x3ea3c17a	0.31983548
239	0xbdd4da77	-0.10393231
240	0xbc2cb55a	-0.010541284
241	0xbc2335df	-0.009961574
242	0xbfcc4bc1	-1.5960618
243	0xbd428c13	-0.047496866
244	0xbddad5c6	-0.10685305
245	0x3caeeef6	0.02135418
246	0x3fea8ac8	1.8323603
247	0x3dd8561f	0.10563301
248	0xbdd4563d	-0.10368011
249	0x3d0720da	0.032990314
250	0x3fce885d	1.6135365
251	0x3e0f06da	0.13967457
252	0x3ce8c010	0.028411895
253	0xbd4445ad	-0.04791801
254	0x3e10206f	0.14074872
255	0xbd7ac367	-0.061221506

feature_layer.0.bias f4 [128]
0	0xbe888110	-0.26660967
1	0xbf220e61	-0.6330319
2	0xbe92c6f3	-0.2866741
3	0xbdbf05af	-0.09327256
4	0xbeb6ef74	-0.35729563
5	0xbe428959	-0.18997706
6	0xbdcfd340	-0.101477146
7	0xbe1f12d1	-0.15534522
8	0xbebf1ab9	-0.37325075
9	0xbe232ecf	-0.15935825
10	0xbebccad8	-0.36873507
11	0xbe4b62ba	-0.1986188
12	0xbe890815	-0.2676398
13	0xbeca13f9	-0.39468363
14	0xbe00eed4	-0.12591106
15	0xbf15673c	-0.5836065
16	0x3dbea234	0.093082815
17	0xbe3ea069	-0.18615879
18	0xbed198d0	-0.409369
19	0xbe9c49b9	-0.30524996
20	0xbf058c9a	-0.52167666
21	0xbec36f90	-0.38171053
22	0xbe85e8f0	-0.2615428
23	0xbe22521c	-0.15851635
24	0xbf1de4b4	-0.616771
25	0xbe42d428	-0.19026244
26	0xbeb88d04	-0.36045086
27	0xbe2db364	-0.16962963
28	0xbef4c80c	-0.47808874
29	0xbe8cfa7d	-0.27534857
30	0xbf08f0b1	-0.53492266
31	0xbeb59c35	-0.3547074
32	0xbe1d56e7	-0.15365182
33	0xbe3cd741	-0.18441488
34	0xbf065e0c	-0.52487254
35	0xbe68ff82	-0.22753718
36	0xbec160a4	-0.37769043
37	0xbf08a452	-0.5337573
38	0xbe961166	-0.2931015
39	0xbe8d4621	-0.27592567
40	0xbe7a849d	-0.2446465
41	0xbf04d78a	-0.51891387
42	0xbf353dad	-0.70797235
43	0xbe2877b2	-0.1645191
44	0xbf2610ee	-0.6486958
45	0xbe2a6a72	-0.16642168
46	0xbf3e6376	-0.74370515
47	0xbf006159	-0.5014854
48	0xbeb97f33	-0.36229858
49	0xbef489a6	-0.47761267
50	0xbea94f73	-0.33068427
51	0xbe0969a3	-0.13419203
52	0xbefdba1f	-0.49556062
53	0xbe38109c	-0.17975086
54	0xbe200d95	-0.15630181
55	0xbf0d72c3	-0.5525324
56	0xbefb4809	-0.49078396
57	0xbe7c4b01	-0.24637987
58	0xbee7baaa	-0.452596
59	0xbe8fc345	-0.28078666
60	0xbef5b614	-0.47990477
61	0xbedb715e	-0.4285993
62	0xbed29aec	-0.4113382
63	0xbe1f300f	-0.15545677
64	0xbecd6b72	-0.40121037
65	0xbdf0b46f	-0.11753165
66	0xbeb73215	-0.35780397
67	0xbe91dbbd	-0.2848796
68	0xbf00e8fa	-0.50355494
69	0xbe353c6d	-0.17698832
70	0xbef725f3	-0.4827114
71	0xbe125d49	-0.14293398
72	0xbee77983	-0.45209894
73	0xbe3c40d6	-0.18384108
74	0xbeb21a2a	-0.34785587
75	0xbe33e545	-0.17567928
76	0xbeb2da6f	-0.34932277
77	0xbe5b4c00	-0.2141571
78	0xbf159fcd	-0.5844696
79	0xbdedda3b	-0.1161389
80	0xbee08e0c	-0.43858373
81	0xbdc8bf3f	-0.09802102
82	0xbea3e778	-0.32012534
83	0xbecf6976	-0.40510148
84	0xbf0109d3	-0.50405616
85	0xbea2d814	-0.3180548
86	0xbf193356	-0.5984396
87	0xbe21bea8	-0.15795386
88	0xbe9307ee	-0.28716987
89	0xbe982ab6	-0.29720086
90	0xbe8784d2	-0.2646852
91	0xbeb24bf1	-0.34823564
92	0xbed90360	-0.42385387
93	0xbe8413db	-0.257964
94	0xbe9bfd3e	-0.30466646
95	0xbeeb6aa5	-0.459798
96	0xbf560630	-0.8360319
97	0xbeb8651f	-0.3601465
98	0xbe4e67ab	-0.20156734
99	0xbf070192	-0.5273677
100	0xbe925b1b	-0.28585133
101	0xbe3fdf1a	-0.1873745
102	0xbe9cd502	-0.30631262
103	0xbe2a680a	-0.1664125
104	0xbf0499f1	-0.51797396
105	0xbee48c14	-0.4463812
106	0xbef38745	-0.4756414
107	0xbeb2b5e7	-0.34904405
108	0xbed6f833	-0.41986236
109	0xbe3a7b54	-0.18211108
110	0xbe2c3019	-0.16815223
111	0xbe0cc512	-0.13747051
112	0xbef04c2a	-0.4693311
113	0xbeb90ef6	-0.36144227
114	0x3d7799cb	0.060449403
115	0xbe84865e	-0.25883764
116	0xbe8785f1	-0.26469377
117	0xbe8f458e	-0.27982754
118	0x3e6e6345	0.23280056
119	0xbe20ded0	-0.15709996
120	0xbed4a7cb	-0.41534266
121	0xbe0d990f	-0.13827918
122	0xbec04039	-0.37548998
123	0xbed72774	-0.42022288
124	0xbea5aa20	-0.32356358
125	0xbeb4988c	-0.35272634
126	0xbebfdae1	-0.3747168
127	0xbe8034a7	-0.2504017

feature_layer.2.weight f4 [128, 128]
0	0xbdc94faf	-0.098296516
1	0xbf096506	-0.53669775
2	0xbe8d786f	-0.27630946
3	0x3e9432de	0.2894506
4	0x3e5b2e45	0.21404369
5	0xbd92fb10	-0.071767926
6	0x3dbc4cf3	0.091943644
7	0x3d8f986c	0.07011494
8	0x3e759c40	0.23985386
9	0x3d9279cf	0.071521394
10	0x3dde7c3f	0.10863542
11	0x3e53c78c	0.2068159
12	0x3e14e52b	0.14540546
13	0xbd2a118b	-0.041520637
14	0x3e4b8e8c	0.19878596
15	0xbdf61fc2	-0.12017776
16	0x3e772fbb	0.24139301
17	0xbce69d48	-0.02815117
18	0x3fa63fff	1.298828
19	0x3eb190a2	0.3468066
20	0xbfc7bc80	-1.5604401
21	0x3e3d37c9	0.18478312
22	0x3c998c8c	0.018743776
23	0x3e489b37	0.1959046
24	0x3e88131c	0.2657708
25	0xbca0bc4b	-0.019621035
26	0x3ec7b9a7	0.3900883
27	0xbb6da306	-0.00362605
28	0xbf1f34d3	-0.6218998
29	0xbe822462	-0.25418383
30	0xbe875d67	-0.26438448
31	0x3f06e5f3	0.52694625
32	0x3dd36dae	0.10323654
33	0xbe3d3928	-0.18478835
34	0x3bcc86ab	0.0062416396
35	0x3e1d66a1	0.15371181
36	0x3e407725	0.1879545
37	0xbd92f8cf	-0.07176363
38	0xbd5d6fc3	-0.054061662
39	0xbe9e94dd	-0.3097295
40	0xbc72b79f	-0.0148142865
41	0x3dd95fff	0.10614013
42	0xbe84931f	-0.25893494
43	0x3e5a888f	0.21341155
44	0x3eb11188	0.34583688
45	0xbc43d227	-0.01195196
46	0x3f9ac5ec	1.2091651
47	0x3f12682f	0.5719022
48	0xbf9b09db	-1.2112383
49	0xc024ac83	-2.5730293
50	0x3d8814d0	0.06644595
51	0x3d7a8509	0.06116203
52	0xbef82cf1	-0.48471788
53	0xbd8b4bf6	-0.06801598
54	0x3da742b1	0.08167017
55	0x3d8225fd	0.06354902
56	0xbdf9cb50	-0.12196982
57	0x3d3e3d93	0.04644544
58	0xc00cfb60	-2.2028427
59	0x3df40ef4	0.119169146
60	0xc04274c8	-3.0383778
61	0x3edd13e0	0.43179226
62	0x3f742585	0.9536975
63	0x3decde73	0.11565866
64	0x3f4d038e	0.8008355
65	0xbe1d7678	-0.15377223
66	0x3d7d9efc	0.061919197
67	0x3ed50792	0.41607338
68	0xbffdd562	-1.9830744
69	0x3de46056	0.11151187
70	0x3ed21c04	0.41037
71	0x3d80d0fe	0.06289862
72	0x3e1fa174	0.15588933
73	0xbd623b4a	-0.055232324
74	0x3e1b7f61	0.1518531
75	0x3f0954b5	0.5364488
76	0x3fbce240	1.4756546
77	0x3df1300b	0.117767416
78	0x3ef31c26	0.47482413
79	0x3e301328	0.17194808
80	0x3f72bc8f	0.9481897
81	0x3c8b740e	0.017023113
82	0xbdf20701	-0.11817742
83	0xbf4de26f	-0.80423635
84	0x3cb92ab5	0.022603372
85	0x3d96d413	0.07364669
86	0x3e7cc882	0.24685863
87	0x3e9d2e93	0.30699596
88	0x3e922cd1	0.28549817
89	0xbea9d721	-0.33171943
90	0xbe4c9ced	-0.19981737
91	0x3da7c984	0.08192733
92	0x3e0ebf63	0.13940196
93	0x3e118191	0.14209582
94	0x3ea81336	0.32827157
95	0xbf7ea97a	-0.9947735
96	0x3daf2a03	0.08552935
97	0x3da04fd7	0.07827728
98	0xbcd741a3	-0.026276415
99	0x3ddd97e5	0.10819987
100	0x3e1ddb03	0.15415578
101	0x3d2635d2	0.04057867
102	0x3eb0a406	0.3450014
103	0xbda8ea31	-0.082477935
104	0x3e60c3b6	0.21949658
105	0xc040516d	-3.0049698
106	0x3fc3a1b9	1.5283729
107	0xc04b4ee0	-3.1766891
108	0x3f40fb65	0.753836
109	0xbd6f8a3f	-0.05848145
110	0xbbf7f887	-0.0075674686
111	0x3d8e258d	0.06940756
112	0x3ccbc910	0.024876148
113	0xbfcb02fe	-1.5860288
114	0xbd2952f1	-0.041338865
115	0xbe649b9f	-0.2232499
116	0x3ddaf6c2	0.106915966
117	0xbeedbef4	-0.46434748
118	0x3e9d5ac9	0.30733326
119	0xbbfa3a8c	-0.007636374
120	0xbdd89368	-0.105749905
121	0x3d7c5a93	0.061609816
122	0xbf8b074e	-1.0861604
123	0x3d0af832	0.033928104
124	0xbe243c21	-0.16038562
125	0xbef35a4f	-0.47529837
126	0xbd28da00	-0.041223526
127	0xbebd4595	-0.3696715
128	0x3c718f16	0.014743587
129	0xbd9a27e7	-0.07527142
130	0xbd971b2e	-0.07378231
131	0xbe0e3225	-0.13886316
132	0x3d7366d1	0.059424225
133	0xbdc94411	-0.09827436
134	0x3d48a64e	0.048986726
135	0xbc294572	-0.010331498
136	0x3d4299dc	0.047510013
137	0x3d8c6910	0.068559766
138	0xbb850c0b	-0.0040602735
139	0xbdbae13a	-0.0912499
140	0x3cb7ff15	0.0224605
141	0x3d8dd135	0.06924669
142	0x3df6e5cd	0.1205555
143	0xbe2854ce	-0.164386
144	0xbc2763c1	-0.010216654
145	0xbd966da1	-0.07345129
146	0x3de5f002	0.112274185
147	0xbd966755	-0.07343928
148	0xbd3bf330	-0.04588622
149	0x3d1b10a0	0.03785765
150	0xbe0d133e	-0.13776872
151	0x3c636990	0.0138801485
152	0x3d8e8242	0.069584385
153	0xbd87241c	-0.06598684
154	0xbe1fe909	-0.1561624
155	0xbe404298	-0.18775403
156	0xbe02530b	-0.12726991
157	0xbe1fc5f6	-0.1560286
158	0x3d415a40	0.04720521
159	0xbd574a53	-0.052561115
160	0xbd588cdc	-0.05286871
161	0x3dbda0bf	0.092591755
162	0x3bf1ab8c	0.0073751863
163	0xbe1206a8	-0.14260352
164	0xbcae5136	-0.021278959
165	0x3d11a105	0.03555395
166	0xbd98d7ac	-0.07463011
167	0xbd286d61	-0.041119937
168	0xbd4cf494	-0.050037935
169	0xbe074edd	-0.13213678
170	0xbe1b35b2	-0.15157202
171	0xbdd7127a	-0.10501571
172	0x3d84f8a7	0.06492739
173	0x3de77b1e	0.113027796
174	0xbdfbdb3d	-0.12297676
175	0x3d8e32ac	0.06943259
176	0xbdc855d6	-0.09781997
177	0xbd527c72	-0.05138821
178	0xbb6d8f22	-0.0036248644
179	0x3d284eab	0.04109065
180	0x3cd1b66b	0.025599679
181	0xbe29fca1	-0.16600277
182	0x3c1b2f1e	0.009471683
183	0xbe2b27a9	-0.16714348
184	0x3dec97fd	0.11552427
185	0x3dd95074	0.10611048
186	0xbe22aaa2	-0.15885404
187	0x3ce9d226	0.02854259
188	0x3dacb37a	0.0843267
189	0xbde6d186	-0.11270432
190	0x3d07f017	0.033187952
191	0xbddd82c3	-0.108159564
192	0xbddeb6f0	-0.10874736
193	0xbdb830b3	-0.08993664
194	0xbd850045	-0.06494192
195	0xbe15b2e8	-0.14619029
196	0x3c1cdacb	0.009573649
197	0x3dfa9726	0.122358605
198	0x3c86f4f9	0.016474234
199	0xbca284a0	-0.019838631
200	0xbe367c85	-0.17820938
201	0xbc21f7e4	-0.009885762
202	0x3dc73368	0.09726602
203	0xbc914c5b	-0.017736604
204	0x3e17184f	0.14755367
205	0x3de94758	0.11390561
206	0x3d44f4e8	0.048085123
207	0xbe2ec09d	-0.17065664
208	0xbd68dbe2	-0.05685032
209	0xbd935f49	-0.071959086
210	0xbd582f78	-0.052779645
211	0xbdf8e03b	-0.121521436
212	0xbd98b53f	-0.07456445
213	0xbd9ff28f	-0.07809936
214	0xbd853a7f	-0.06505298
215	0xbe1e70c3	-0.15472703
216	0xbe02c57d	-0.12770648
217	0x3d3c7ee8	0.046019465
218	0x3df29a7e	0.11845873
219	0x3ded0f06	0.11575131
220	0x3d94e5e1	0.072704084
221	0xbe39f953	-0.18161516
222	0xbd6b06ca	-0.05737952
223	0xbd99e161	-0.07513691
224	0x3d228586	0.03967812
225	0x3e131c15	0.14366181
226	0x3d95969b	0.07304116
227	0x3d6f78e6	0.058464907
228	0xbdd41391	-0.103552945
229	0x3dce3c05	0.100700416
230	0xbe1e7e29	-0.15477814
231	0xbe14959a	-0.14510193
232	0x3cb1156b	0.021616658
233	0x3dc7f2ae	0.09763084
234	0x3da23030	0.07919347
235	0xbe35149a	-0.1768364
236	0x3d863445	0.06552938
237	0xbd9c91f3	-0.07645025
238	0xbc7ba5e2	-0.015359374
239	0xbdd5dff5	-0.10443107
240	0xbe0c2823	-0.13687186
241	0xbd353559	-0.04424033
242	0xbd4414fe	-0.047871582
243	0x3d7ca0cc	0.061676785
244	0xbe0a7081	-0.1351948
245	0xbd67d1b8	-0.056596488
246	0x3c43ce8c	0.0119511
247	0xbdac0ab2	-0.084004775
248	0xbe0eeac5	-0.13956745
249	0xbc500e2d	-0.012698692
250	0x3bfb6cf7	0.0076729017
251	0xbd695a50	-0.056970894
252	0xbc2b5a33	-0.010458517
253	0x3dc84214	0.097782284
254	0x3d3167d2	0.0433119
255	0x3bb8dca6	0.0056415377

feature_layer.2.bias f4 [128]
0	0x3ef972b4	0.48720324
1	0xbd8c5272	-0.06851663
2	0x3e8d776b	0.2763017
3	0x3e4fd152	0.20294693
4	0xbdbadab0	-0.091237426
5	0x3ec625a4	0.38700593
6	0x3f2d8db6	0.6779436
7	0xbe6e6463	-0.23280482
8	0x3f23682c	0.6383083
9	0xbd383594	-0.04497297
10	0xbe729bbb	-0.23692219
11	0xbd3296af	-0.043600734
12	0x3f491ef9	0.78562886
13	0xbed4368c	-0.41447866
14	0xbea088e7	-0.31354448
15	0x3f0963d1	0.5366793
16	0xbd90761e	-0.07053779
17	0xbe3b4f39	-0.1829194
18	0x3f07e6a1	0.53086287
19	0x3f050e56	0.51975
20	0xbdc986dd	-0.09840176
21	0x3f0d2fcf	0.55151075
22	0xbe7da9ea	-0.24771848
23	0x3f24fc91	0.64447886
24	0xbdca41bc	-0.09875819
25	0x3f0166ec	0.5054767
26	0x3e94b9af	0.29047915
27	0xbe09dab5	-0.13462336
28	0xbe09ac2e	-0.13444588
29	0x3ed7f210	0.42176867
30	0x3eed53a3	0.46352872
31	0x3ee494ad	0.4464468
32	0xbda3d108	-0.07998854
33	0x3e547155	0.20746358
34	0x3df18fc0	0.11794996
35	0x3e83b3ff	0.25723264
36	0xbd8d21d1	-0.068912156
37	0x3f2afebf	0.6679496
38	0x3effcd59	0.49961355
39	0xbd96d49c	-0.07364771
40	0xbf388d43	-0.7209055
41	0xbd978e3d	-0.07400177
42	0x3ec0308e	0.37537044
43	0x3f317a83	0.69327563
44	0x3ed61cf9	0.4181898
45	0xbd1d90b1	-0.038468067
46	0xbd8398c7	-0.06425624
47	0x3e8f556a	0.27994853
48	0xbe84241a	-0.25808793
49	0xbd38d5d1	-0.045125786
50	0x3e9e0396	0.3086211
51	0xbd90088e	-0.07032882
52	0x3ee55028	0.44787717
53	0x3f2108a0	0.62903786
54	0xbe6576b9	-0.2240857
55	0x3f0898cb	0.53358144
56	0xbd76dbf0	-0.060268342
57	0x3f17a079	0.59229237
58	0xbdaf8878	-0.08570951
59	0xbda3355c	-0.07969162
60	0xbed0426a	-0.4067567
61	0xbd261cc5	-0.04055478
62	0xbd90dff3	-0.07073965
63	0xbe1de252	-0.15418366
64	0x3f1b1fa7	0.6059517
65	0xbd89c652	-0.0672728
66	0xbd823815	-0.06358353
67	0x3f3a53c2	0.72784054
68	0x3ef0a50f	0.4700093
69	0x3ec3ff76	0.3828084
70	0xbe513509	-0.20430388
71	0x3efce5a1	0.49393943
72	0xbe1f115d	-0.15533967
73	0xbd870a4d	-0.065937616
74	0x3ec81e08	0.39085412
75	0x3ea5b1f9	0.32362345
76	0x3f0750cd	0.5285767
77	0x3f21e0d2	0.63233674
78	0xbde447f5	-0.11146537
79	0xbdcf550b	-0.101236425
80	0x3d979ee4	0.07403353
81	0x3f10f8d5	0.5662969
82	0xbe7c2caa	-0.24626413
83	0x3efa725b	0.4891537
84	0xbd715fb5	-0.058929164
85	0x3ef2ad71	0.4739795
86	0xbd0a5ce8	-0.03378001
87	0xbd842661	-0.06452633
88	0x3f16fd2c	0.5898006
89	0xbe0989eb	-0.13431518
90	0x3f0bc8f0	0.5460348
91	0x3ef160a9	0.47144058
92	0x3f13d090	0.57740116
93	0x3eca5a4a	0.3952201
94	0x3f223599	0.63363034
95	0x3f0a6885	0.54065734
96	0xbe8eb864	-0.27875054
97	0x3f1cacc1	0.612011
98	0xbe4eb84f	-0.20187496
99	0x3ed7395b	0.42035946
100	0x3f01ad18	0.50654745
101	0xbd085697	-0.033285704
102	0x3f228ab4	0.63492894
103	0x3f055965	0.5208953
104	0xbd6883bf	-0.056766268
105	0x3f12d254	0.57352185
106	0x3f242f3d	0.6413458
107	0x3f1854aa	0.5950419
108	0xbd20988a	-0.039207973
109	0x3f1ccb7d	0.61248
110	0xbe674592	-0.22585133
111	0xbf0f9d10	-0.56099033
112	0xbdffe343	-0.124945186
113	0x3f189728	0.59605646
114	0x3efee7bc	0.49786174
115	0xbdb0f29d	-0.08640025
116	0xbd3e1493	-0.04640634
117	0x3ee1fc04	0.44137585
118	0x3f2af9a3	0.66787165
119	0x3ef8ba45	0.48579612
120	0x3f681f57	0.9067282
121	0x3eeb83ca	0.45998985
122	0xbeb8ddd9	-0.36106756
123	0x3ed3dab5	0.41377798
124	0xbe8f7531	-0.28019097
125	0xbd7ec538	-0.0621998
126	0x3f223ea2	0.6337682
127	0x3f176f82	0.5915452

value_stream.0.weight f4 [64, 128]
0	0x3b51bd01	0.0032003524
1	0x3d64c80b	0.05585484
2	0xbda14880	-0.078751564
3	0x3c925605	0.017863283
4	0x3d912e6f	0.07088935
5	0x3e4c3513	0.19942121
6	0x3e399bfc	0.1812591
7	0xbf26c043	-0.6513712
8	0x3ee48288	0.44630837
9	0xbc8657a9	-0.016399221
10	0x3f0ade78	0.5424571
11	0x3ca34d73	0.019934392
12	0x3e0dc2bc	0.13843817
13	0xbfb16b3d	-1.3860852
14	0xbfa9ebc8	-1.327508
15	0x3ebe1df9	0.37132242
16	0x3dea36b6	0.114362165
17	0x3e78f2dd	0.24311395
18	0x3abf3739	0.0014588601
19	0x3e931a9c	0.2873124
20	0x3e1c6c4e	0.1527569
21	0x3e74bd2e	0.23900291
22	0xbf7e2917	-0.9928145
23	0x3e7f7746	0.24947843
24	0xba245898	-0.0006269305
25	0xbd8d63ca	-0.06903799
26	0xbd0b8021	-0.03405774
27	0xbd8e0a97	-0.069356136
28	0xbfa7f2af	-1.3120936
29	0x3e8690c4	0.26282322
30	0x3e1175cf	0.14205097
31	0x3daef609	0.08543021
32	0x3e24e265	0.16101988
33	0xbdb31532	-0.08744277
34	0x3ec855e2	0.39128023
35	0x3d9a1739	0.075239606
36	0xbdc9d7e9	-0.09855635
37	0x3e755347	0.23957549
38	0x3e42bbc0	0.19016933
39	0xbd69a845	-0.05704524
40	0xbdfa73c6	-0.12229113
41	0x3cc4e987	0.024037136
42	0x3e322d8c	0.17400187
43	0x3f0ee9c6	0.5582546
44	0x3caae838	0.020862684
45	0xbd2d7549	-0.04234818
46	0xbdc33907	-0.095323615
47	0x3cb684a9	0.022280054
48	0xbf7de70f	-0.9918069
49	0x3dfade73	0.1224946
50	0x3dce6a8c	0.10078916
51	0xbdd9216a	-0.10602076
52	0x3e5c2375	0.21497901
53	0x3e855324	0.26039994
54	0xbf85b010	-1.0444355
55	0x3e965afd	0.29366294
56	0xbdaeb20b	-0.08530053
57	0x3e0d8157	0.1381887
58	0xbd2e0e15	-0.0424939
59	0xbd9b7982	-0.07591535
60	0xbf824f12	-1.018038
61	0xbd89a2d6	-0.067205116
62	0xbe010aea	-0.1260182
63	0x3db443b6	0.08801977
64	0x3ed712bc	0.4200648
65	0x3ba6b6c7	0.0050877067
66	0x3d1a1063	0.037613284
67	0x3db9fede	0.09081815
68	0x3e278a6c	0.16361398
69	0xbc6b46a2	-0.014360102
70	0xbe878c30	-0.26474142
71	0x3e092f36	0.13396916
72	0xbe1c609c	-0.15271229
73	0x3d0e6855	0.034767468
74	0xbc3ea24f	-0.011635377
75	0x3e060992	0.13089588
76	0x3e85f5a2	0.26163965
77	0x3e3978b6	0.18112454
78	0x3d98ca1d	0.07460425
79	0x3d4cb97f	0.04998159
80	0x3da89c91	0.08232988
81	0x3e0bbc76	0.13646111
82	0xc010850b	-2.2581203
83	0x3eb4f126	0.35340232
84	0xbdd51922	-0.10405184
85	0x3e802004	0.25024426
86	0xbe0da5b9	-0.1383275
87	0x3dbc10f3	0.0918292
88	0x3e159050	0.14605832
89	0xbe4c4fe7	-0.19952355
90	0x3d2ec1fe	0.042665474
91	0x3e673e13	0.22582273
92	0x3e204d54	0.15654498
93	0xbda8421b	-0.082157336
94	0x3e80bfd3	0.2514635
95	0x3db90eb7	0.0903601
96	0xbdc24df1	-0.094875224
97	0x3e14ba0d	0.14524098
98	0xbb7f22c3	-0.0038930632
99	0x3bfda9b6	0.0077411784
100	0x3e539036	0.20660481
101	0xbcff1891	-0.031139644
102	0x3eb20617	0.3477027
103	0x3ecbce1b	0.39805683
104	0x3d81e2ae	0.06342064
105	0x3ecdb7cc	0.40179288
106	0x3eaac276	0.33351487
107	0x3eb978b3	0.362249
108	0x3d334dff	0.043775555
109	0x3ef21c0a	0.47287017
110	0xbf92d007	-1.1469735
111	0xbe33dd99	-0.17565002
112	0x3e2ce0b1	0.16882588
113	0x3ea4f66c	0.32219255
114	0x3e5dfbe5	0.21678121
115	0x3d0cb3a7	0.034351017
116	0xbdb1637a	-0.08661552
117	0x3e3e21bd	0.18567558
118	0x3e8ed69c	0.2789811
119	0x3cb506c5	0.022097955
120	0x3f1aa3f5	0.6040643
121	0x3e52e6fc	0.20595926
122	0xbfe20fed	-1.766111
123	0x3d3abbb2	0.045589156
124	0x3d48a2fd	0.048983563
125	0x3a527f39	0.0008029822
126	0x3ee364ec	0.44412935
127	0x3ddfcace	0.10927354
128	0x3cd68e69	0.026190953
129	0x3dcb75fa	0.099346116
130	0xbebdf20a	-0.37098724
131	0x3e750afb	0.2392997
132	0x3cfbf189	0.030754821
133	0x3d5c8b13	0.05384357
134	0x3e0a9939	0.13535012
135	0x3dee11b2	0.11624469
136	0xbd8c904e	-0.068634614
137	0xbca56ac1	-0.020192506
138	0x3f07e035	0.5307649
139	0xbd85742a	-0.06516297
140	0x3e581d14	0.21104842
141	0xbd2b75df	-0.041860458
142	0xbe17dfa0	-0.148314
143	0x3c7ed110	0.015552774
144	0xbdeab809	-0.11460883
145	0x3e5c9c51	0.21544005
146	0xbe183441	-0.14863683
147	0x3d828e2e	0.06374775
148	0xbd73a1c4	-0.059480444
149	0x3e6503c1	0.22364713
150	0x3f137b79	0.5761028
151	0xbd5590eb	-0.052140158
152	0xbdd43e6d	-0.10363469
153	0x3ccb7ace	0.024838831
154	0xbdb4cb35	-0.08827821
155	0xbe22e59e	-0.15907905
156	0xbe08d94a	-0.13364139
157	0xbe0a5ee5	-0.13512762
158	0xbe4d9cec	-0.20079392
159	0xbce87ac8	-0.02837886
160	0x3df8454b	0.121225916
161	0xbe2f3dc8	-0.17113411
162	0x3e8e6ad1	0.2781587
163	0xbe06f5c6	-0.13179693
164	0xbd998481	-0.07495976
165	0x3e705306	0.23469171
166	0x3e3a9815	0.18222077
167	0x3d83eaf6	0.064412996
168	0xbcc74af5	-0.024327734
169	0x3e3f4404	0.1867829
170	0x3e190fe4	0.14947468
171	0x3e6530c5	0.22381885
172	0x3de09616	0.109661266
173	0x3af30680	0.0018541366
174	0xbcb49659	-0.022044348
175	0xbaa9c803	-0.0012953285
176	0xbcf2a49a	-0.029619504
177	0xbd9f7d63	-0.077875875
178	0xbc77a6a8	-0.015115418
179	0xbdd41cd0	-0.10357058
180	0xbadf0be7	-0.0017017097
181	0x3e617d03	0.22020344
182	0x3d433dde	0.047666423
183	0xbd6693b7	-0.056293216
184	0xbc99b44b	-0.018762728
185	0x3e6493aa	0.22321954
186	0x3d45693b	0.04819606
187	0x3c5f7712	0.013639228
188	0x3def5741	0.11686564
189	0x3d0ea25d	0.03482281
190	0x3e0f37b6	0.13986096
191	0x3e26663c	0.16249937
192	0x3eb0e744	0.34551442
193	0x3de2d8d1	0.11076511
194	0xb9c25a7f	-0.00037069988
195	0x3e6533b1	0.22383
196	0x3d809fbd	0.06280468
197	0x3db5831b	0.08862897
198	0xbebacc54	-0.36484015
199	0xbdf2d690	-0.11857331
200	0xbd8bb0e9	-0.06820852
201	0x3df56e5d	0.11983941
202	0xbdc49d5b	-0.09600326
203	0xbe2125b4	-0.15737039
204	0x3d9aebc8	0.07564503
205	0x3e329145	0.17438228
206	0x3cc642da	0.0242018
207	0x3e50a059	0.20373668
208	0x3d8c5ad3	0.06853261
209	0x3ead5473	0.33853492
210	0x3d6764d0	0.056492627
211	0x3db23cf9	0.08703036
212	0xbe240cfd	-0.1602058
213	0x3dd65c7f	0.10466861
214	0xbda1bf25	-0.07897786
215	0xbd1c3c2a	-0.038143314
216	0x3c5c9bee	0.013464911
217	0xbe2d71df	-0.1693797
218	0xbd79683c	-0.06089042
219	0x3cda9685	0.026683101
220	0x3e31f9ed	0.17380495
221	0xbe11b3dd	-0.14228769
222	0x3dd60958	0.10451001
223	0xbc2686a0	-0.010163933
224	0xbe5f650c	-0.2181589
225	0x3e20bb00	0.15696335
226	0x3e96030d	0.29299203
227	0x3dbc3cee	0.09191309
228	0x3dd964e7	0.10614949
229	0xbcca52ee	-0.024697747
230	0x3e35ef46	0.17767057
231	0x3e395a4e	0.18100855
232	0xbdd9fe47	-0.10644203
233	0x3e92f198	0.28699946
234	0xbe0de260	-0.13855886
235	0x3e323a98	0.17405164
236	0xbdb22ade	-0.086995825
237	0x3e9c9544	0.3058263
238	0x3e7e7d1a	0.2485241
239	0xbc9a3896	-0.01882581
240	0xbd60ad55	-0.054852802
241	0x3e3de97c	0.18546098
242	0xbe06a080	-0.13147163
243	0xbbffb02f	-0.007802985
244	0xbe129743	-0.14315514
245	0xbc12e919	-0.008966708
246	0x3e89f65e	0.26945776
247	0x3cfde3a8	0.030992344
248	0x3e3a06a2	0.18166593
249	0xbe166978	-0.1468867
250	0x3e605873	0.2190874
251	0xbe50dfc8	-0.20397866
252	0x3c599d6d	0.013282162
253	0x3dc3d217	0.09561556
254	0x3e1660bd	0.1468534
255	0xbde25535	-0.11051408

value_stream.0.bias f4 [64]
0	0x3f82ae24	1.0209394
1	0x3f5de918	0.866838
2	0xbd565378	-0.052325696
3	0xbce24b66	-0.027623843
4	0x3e800b54	0.25008643
5	0x3f56b4e8	0.8386979
6	0x3f87a880	1.0598297
7	0x3f66d531	0.90169054
8	0xbca0415e	-0.01956242
9	0x3e2006e3	0.15627627
10	0x3f75e036	0.96045244
11	0xbdbbdf53	-0.09173455
12	0x3ec21a1b	0.37910542
13	0xbcb2fe4d	-0.021849776
14	0x3f5e1fc0	0.86767197
15	0x3f869f9d	1.051746
16	0x3ef96781	0.4871178
17	0x3de66f90	0.112517476
18	0xbcdc7063	-0.026909059
19	0x3f688964	0.9083464
20	0xbc84c83a	-0.016208757
21	0x3efcc939	0.4937227
22	0x3f7dc2dd	0.9912546
23	0x3d597602	0.053091057
24	0x3f834058	1.0254011
25	0x3f8197ef	1.0124491
26	0x3f84e747	1.038308
27	0xbd2c6443	-0.042087805
28	0x3e1b98d4	0.15195018
29	0x3f598962	0.84975255
30	0xbd0bd486	-0.034138225
31	0x3f839e95	1.028277
32	0xbd0b5733	-0.034018707
33	0xbcba6877	-0.02275489
34	0xbdaed5da	-0.08536883
35	0x3f0a2d66	0.5397552
36	0xbdc7d27a	-0.09756942
37	0xbd26d098	-0.040726274
38	0x3f693c86	0.91107976
39	0x3f856a8f	1.0423144
40	0xbdb7b677	-0.08970349
41	0x3f4a4081	0.79004675
42	0x3f8283fb	1.0196527
43	0x3e6a511e	0.22882506
44	0xbd120a4a	-0.035654344
45	0xbda4477c	-0.08021447
46	0x3ca4104c	0.020027302
47	0x3f849a42	1.0359576
48	0x3f80204e	1.0009859
49	0xbcf69cce	-0.030104067
50	0x3f870eb4	1.0551362
51	0xbce514c4	-0.027964003
52	0x3e8aef88	0.27135873
53	0x3e82c0f2	0.2553783
54	0x3f5d394d	0.8641556
55	0xbd3054ad	-0.043049503
56	0xbd0272ed	-0.031847883
57	0xbdb9c14f	-0.09070074
58	0xbd6ce3cd	-0.057834435
59	0x3f707914	0.9393475
60	0x3e2e5f1e	0.17028472
61	0xbc538c49	-0.012911865
62	0xbd46ab44	-0.048503175
63	0x3dd51cde	0.104058966

value_stream.2.weight f4 [1, 64]
0	0x3ecaff05	0.3964769
1	0x3dfac572	0.12244691
2	0xbe651f52	-0.22375229
3	0x3c40f40f	0.011776938
4	0xbf997989	-1.1990215
5	0x3e652258	0.22376382
6	0x3f04fe37	0.519504
7	0x3e3a4d7d	0.18193622
8	0xbe819306	-0.25307482
9	0xbfccdb30	-1.6004391
10	0x3e7e789f	0.24850701
11	0xbf27f321	-0.6560536
12	0xbfaaf210	-1.3355122
13	0xbe579884	-0.21054274
14	0x3d94b263	0.07260587
15	0x3ef91e0c	0.48655736
16	0x3ce7457d	0.028231377
17	0xbfaf5bc4	-1.369988
18	0xbe2832ec	-0.16425675
19	0x3ec0dc83	0.37668237
20	0xbe54feba	-0.20800295
21	0x3be50116	0.006988655
22	0x3eae2c90	0.34018373
23	0xbfad6670	-1.3546886
24	0x3ec75c05	0.38937393
25	0x3eb7c4b0	0.35892248
26	0x3ed7e676	0.42168015
27	0xbe807d0c	-0.25095403
28	0xbf7b3487	-0.98127025
29	0x3e6ce88f	0.23135589
30	0xb94bdce7	-0.00019441881
31	0x3ecef9aa	0.40424854
32	0x3d0149f5	0.03156467
33	0xbd00b15a	-0.031419136
34	0xbdd8a64d	-0.10578594
35	0xbb09d3ea	-0.0021030852
36	0x3b0608d6	0.0020452044
37	0xbc889afb	-0.016675463
38	0x3eb941e8	0.36183095
39	0x3efa59c6	0.48896617
40	0x3bbf3f14	0.005836377
41	0x3df9914e	0.12185918
42	0x3ec5c62c	0.38627756
43	0xbfb9a9ca	-1.450494
44	0xbe57498e	-0.21024153
45	0xbcfd6fba	-0.030937064
46	0xbdbc2a37	-0.09187739
47	0x3ecbe42c	0.3982252
48	0x3eb38f3f	0.35070226
49	0xbf33fda7	-0.7030892
50	0x3effcb33	0.49959716
51	0xbdd86f49	-0.10568101
52	0xbf964454	-1.1739602
53	0xbf8e313e	-1.1108778
54	0x3e62a025	0.22131403
55	0xbddaf2f2	-0.106908694
56	0xbfd48fe1	-1.6606408
57	0xbe07e4b1	-0.13270833
58	0xbe0e376f	-0.13888334
59	0x3eefc50e	0.46830028
60	0xbf8fc522	-1.1232035
61	0xbe47679a	-0.19473115
62	0xbdb9f6fb	-0.09080311
63	0xbf9fe998	-1.2493162

advantage_stream.0.weight f4 [64, 128]
0	0x3ee51485	0.44742218
1	0x3cba1016	0.022712748
2	0x3d65ffba	0.056152083
3	0xbb6bc9b1	-0.0035978372
4	0x3e1498bd	0.1451139
5	0xbcf21139	-0.029549228
6	0x3bb539f3	0.0055305897
7	0x3e657ecd	0.22411652
8	0x3e50a090	0.2037375
9	0xbe04996f	-0.12949155
10	0xbf9baff4	-1.2163072
11	0x3d8d3d96	0.06896512
12	0xbe95d27f	-0.29262158
13	0xbd273f8a	-0.04083208
14	0xbecccbad	-0.39999142
15	0xbd0bfe27	-0.034177925
16	0xbdfcf66f	-0.12351691
17	0xbdb20a9c	-0.0869343
18	0xc0182f1e	-2.3778758
19	0x3e8c5f29	0.2741635
20	0x3e10ae30	0.14128947
21	0xbf0f127b	-0.55887574
22	0x3f2bae2f	0.6706266
23	0xc02116b6	-2.5170112
24	0x3e3b2d72	0.18279055
25	0xbfe49dd5	-1.7860667
26	0x3cc3e3fa	0.023912419
27	0x3dc7a54a	0.09748323
28	0xbc61ebc1	-0.013789118
29	0xbfb18db5	-1.387137
30	0xc01a4df1	-2.4110072
31	0x3ee38e43	0.44444475
32	0x3e151b1b	0.14561121
33	0xbe95cb1b	-0.2925652
34	0x3e514136	0.20435032
35	0xbf357282	-0.7087785
36	0xbd441a6e	-0.047876768
37	0xbf9b7e0e	-1.2147844
38	0xbfc84ac3	-1.5647815
39	0x3b878ff1	0.004137032
40	0xbd1786a6	-0.036993645
41	0x3e253981	0.16135217
42	0xbe8ed02a	-0.27893192
43	0x3e1a4a98	0.15067518
44	0xc002bd32	-2.0427976
45	0xbdd52b33	-0.1040863
46	0xbdbfebaa	-0.09371121
47	0x3e96842d	0.29397717
48	0x3da13ea5	0.078732766
49	0x3c294154	0.010330517
50	0xbf3cb8c3	-0.73719424
51	0xbd24fa56	-0.0402778
52	0xbfc2d207	-1.5220345
53	0x3e5d758e	0.21626875
54	0xbeef25eb	-0.46708617
55	0xbe9f748f	-0.31143615
56	0xbe193635	-0.14962085
57	0xbfaab09b	-1.3335146
58	0x3d4c9198	0.049943537
59	0xbc449227	-0.011997736
60	0x3e7beaf0	0.2460134
61	0x3d66e2fd	0.056368817
62	0x3ddd283c	0.1079869
63	0x3e7b0ce8	0.24516642
64	0xbede3bea	-0.43405086
65	0x3e13790c	0.14401644
66	0x3d1e418f	0.03863674
67	0x3daf8b92	0.08571543
68	0x3ed66ec7	0.4188139
69	0xbec793e3	-0.38980016
70	0xbfa7d6e1	-1.3112451
71	0x3ee6bdd2	0.45066696
72	0xbe0f6cfd	-0.1400642
73	0xbdc650a8	-0.09683353
74	0xbe71c963	-0.23611979
75	0xbfa7ecf2	-1.3119185
76	0xbe7ca73c	-0.2467317
77	0xbff54180	-1.9160614
78	0xbd48a67e	-0.048986904
79	0xbe18b8d2	-0.14914253
80	0xbf408270	-0.7519903
81	0x3ee43a70	0.44575834
82	0xbd5f44b1	-0.05450887
83	0x3e53617d	0.20642658
84	0x3e3197f5	0.17343123
85	0xbfa82c6b	-1.3138555
86	0xbccf5f9e	-0.025314149
87	0xbe0ba3e8	-0.13636744
88	0xbf6dc91c	-0.92884994
89	0x3e12339f	0.14277504
90	0xbd680fff	-0.05665588
91	0xbfc8fd24	-1.5702252
92	0xc029fd89	-2.6560996
93	0xbf8e234c	-1.1104522
94	0x3e844dee	0.25840706
95	0xbf9c1d31	-1.2196409
96	0x3f0f74c4	0.56037545
97	0xbfff6adb	-1.9954485
98	0xbecc454a	-0.39896613
99	0x3d7a6ae3	0.06113709
100	0xc01b2f00	-2.4247437
101	0x3dc1f883	0.09471228
102	0xbf8e8425	-1.1134077
103	0xbf935a02	-1.1511843
104	0x3e2ab5e2	0.16670945
105	0xbf2f4bd2	-0.6847507
106	0xbf39c94b	-0.72572774
107	0xbdabca09	-0.083881445
108	0xbe09d1b9	-0.13458909
109	0x3cb0c218	0.021576926
110	0xbe28fe6e	-0.16503307
111	0xbea1cdda	-0.31602365
112	0xbe0e7663	-0.13912348
113	0xc0229d79	-2.5408614
114	0xbf02f26d	-0.5115116
115	0x3e26310b	0.16229646
116	0x3e0de6de	0.138576
117	0xbe125f25	-0.14294107
118	0xbf9378a0	-1.1521187
119	0xbf3af181	-0.73024756
120	0xbf776f2f	-0.9665403
121	0xbd9f25c1	-0.07770873
122	0x3e8e17f2	0.27752644
123	0xc03f00c8	-2.9844227
124	0x3e577c3c	0.21043485
125	0xbd7df00b	-0.0619965
126	0x3d3ac37f	0.045596596
127	0xc021132b	-2.516795
128	0xbe28c5b5	-0.16481669
129	0x3c759e20	0.014991313
130	0x3e225ba1	0.15855266
131	0x3e1867c7	0.14883338
132	0xbd2ab3a8	-0.04167524
133	0x3d35e0da	0.04440389
134	0xbe32692b	-0.17422931
135	0xbdeefd4a	-0.11669405
136	0x3e010f30	0.1260345
137	0x3cc49f51	0.02400175
138	0x3d272328	0.040805012
139	0x3ca4d6ca	0.02012195
140	0xbd8d831e	-0.06909774
141	0x3e0b66bf	0.13613413
142	0x3e208053	0.15673952
143	0x3d8991e7	0.06717282
144	0x3e210f47	0.15728484
145	0x3d476707	0.04868224
146	0x3e02aa4b	0.12760274
147	0xbdf7a07a	-0.12091155
148	0x3d746d13	0.059674334
149	0xbe08b4a7	-0.13350163
150	0xbcfa2afe	-0.030538078
151	0xbe01835f	-0.1264777
152	0x3d6bc759	0.05756316
153	0xbe3580ff	-0.1772499
154	0xbd6f742f	-0.05846041
155	0xbd8bd88a	-0.06828411
156	0x3de0caf3	0.109762095
157	0xbe187d78	-0.14891613
158	0xbdbd0950	-0.09230292
159	0x3e14412f	0.1447799
160	0x3d9bedcd	0.07613716
161	0x3ddb84fb	0.107187234
162	0x3e21c7a6	0.15798816
163	0xbdd60bc1	-0.10451461
164	0x3d326a93	0.04355867
165	0xbe0ce560	-0.13759375
166	0xbd96078a	-0.07325657
167	0xbcfcfe3a	-0.030882943
168	0xbdb5a18b	-0.088687025
169	0x3d168f48	0.036757737
170	0x3d010f69	0.031508837
171	0x3ce70769	0.028201776
172	0x3db5dfe1	0.08880592
173	0xbc989b89	-0.018628852
174	0x3e0df18f	0.13861679
175	0xbc920b28	-0.017827585
176	0x3ddf8242	0.109135166
177	0x3e082a86	0.13297471
178	0x3e20fbf0	0.15721107
179	0xbdae9b53	-0.085257195
180	0xbd963e78	-0.07336134
181	0xbe136f31	-0.14397885
182	0xbda50182	-0.08056928
183	0x3e22e986	0.15909395
184	0xbc8b47d6	-0.017002027
185	0xbdd0b8e2	-0.101915136
186	0xbe11f9a2	-0.14255384
187	0xbe0abf8a	-0.13549629
188	0xbdd96f7a	-0.106169656
189	0x3d732d80	0.059369564
190	0xbdc5b628	-0.09653884
191	0xbd885fb2	-0.066588774
192	0xbe1bca92	-0.15213993
193	0xbe1b89ca	-0.15189281
194	0xbdd2ca8e	-0.102925405
195	0xbe2f613c	-0.17126936
196	0xbc979c81	-0.018507244
197	0xbd9575cc	-0.072978586
198	0xbdae12be	-0.084996685
199	0xbde50b2d	-0.11183772
200	0x3d671699	0.056418035
201	0x3d8c96e0	0.068647146
202	0xbd1d28c7	-0.038368966
203	0x3d383e6b	0.0449814
204	0x3e1f9547	0.15584289
205	0xbd6542f6	-0.055972062
206	0xbdd0ee6d	-0.10201726
207	0x3dcd367c	0.10020158
208	0xbd34a394	-0.044101313
209	0xbd96601c	-0.0734255
210	0x3dd9d582	0.106364265
211	0x3d47a5e0	0.048742175
212	0xbdf70678	-0.12061781
213	0x3d1c3479	0.03813598
214	0x3d9c5f57	0.07635372
215	0x3e296df4	0.1654585
216	0xbdda084c	-0.10646114
217	0x3db7003e	0.08935593
218	0xbd6a0361	-0.05713213
219	0x3c98b091	0.01863888
220	0xbe2a5d89	-0.16637243
221	0xbe296753	-0.16543321
222	0x3dc08f43	0.09402325
223	0xbb563bab	-0.0032689373
224	0x3d9d17a0	0.07670522
225	0xbde4192b	-0.11137613
226	0x3e02890f	0.12747596
227	0xbd90e86e	-0.070755824
228	0xbde74240	-0.11291933
229	0x3e19eb77	0.15031229
230	0xbddd3c94	-0.1080257
231	0xbe0b7550	-0.1361897
232	0xbe14f0e1	-0.14545013
233	0x3d955baf	0.07292878
234	0xbc69f6db	-0.014280046
235	0xbc1a4ab6	-0.009417227
236	0x3d3f633a	0.04672549
237	0xbd63319e	-0.05546724
238	0x3cd9ae79	0.026572453
239	0xbdc86168	-0.09784204
240	0xbd39f1b3	-0.045396518
241	0x3dbed5c8	0.09318119
242	0x3cafe2cc	0.02147045
243	0x3df93d7b	0.121699296
244	0x3e28dfc7	0.16491614
245	0x3df58527	0.119882874
246	0xbd982db3	-0.074305914
247	0xbe19cf2f	-0.1502044
248	0xbda3288c	-0.07966718
249	0xbcac25b2	-0.021014068
250	0x3e2022e5	0.15638311
251	0x3c4dc6f8	0.012559645
252	0xbce65b1a	-0.028119612
253	0x3e02dccf	0.12779544
254	0x3d898de4	0.067165166
255	0x3e0bde20	0.13658953

advantage_stream.0.bias f4 [64]
0	0x3e251244	0.16120249
1	0xbb65d411	-0.0035069028
2	0xbd827a5c	-0.063709944
3	0x3e1717bf	0.14755152
4	0x3c63b70c	0.013898622
5	0x3d295f43	0.041350614
6	0xbd0d4ce3	-0.034497153
7	0xbe0df377	-0.13862406
8	0xbb098983	-0.0020986504
9	0x3e9e64e0	0.30936337
10	0x3f0c5ba9	0.5482736
11	0xbdb1ac0c	-0.086753935
12	0x3f01161c	0.5042436
13	0xbdeb32f3	-0.11484327
14	0xbd639dfb	-0.055570584
15	0xbd1e85f4	-0.038701966
16	0xbcbad42f	-0.022806255
17	0xbd4541df	-0.048158523
18	0xbde6063a	-0.112316564
19	0xbd889fcf	-0.06671106
20	0xbd1735f4	-0.036916688
21	0xbd87aaa2	-0.066243425
22	0x3e15fac8	0.14646447
23	0xbea6ae22	-0.32554728
24	0xbd7262f9	-0.05917642
25	0xbd861a5a	-0.06547995
26	0xbd3ab541	-0.045583013
27	0xbc39f011	-0.01134874
28	0xbce32b6e	-0.02773067
29	0x3e2c584b	0.16830556
30	0xbe27b578	-0.16377819
31	0x3e2a7de8	0.16649592
32	0xbe3da8bf	-0.18521403
33	0xbdc4c7c1	-0.096084125
34	0xbd631ba4	-0.055446282
35	0x3db1a694	0.086743504
36	0xbe9e540c	-0.30923498
37	0xbe097fe3	-0.13427691
38	0xbdaf6ba8	-0.08565456
39	0x3e276e97	0.1635078
40	0xbda192f2	-0.07889356
41	0xbdbee116	-0.093202755
42	0x3efa7106	0.48914355
43	0xbe6b3fd6	-0.2297357
44	0x3d9dbccf	0.07702028
45	0x3e446d3b	0.19182293
46	0x3e591cb7	0.2120236
47	0x3dd3d899	0.10344047
48	0xbd0671bc	-0.03282331
49	0xbe245a55	-0.16050084
50	0xbe9bd88b	-0.30438647
51	0xbe57be32	-0.21068648
52	0xbea0952c	-0.3136381
53	0xbd325cb7	-0.04354545
54	0xbd0e3c69	-0.03472558
55	0xbd9798b8	-0.07402176
56	0xbe6b4b39	-0.22977914
57	0x3dfaea21	0.12251688
58	0xbca578ba	-0.020199168
59	0xbda9f91d	-0.08299468
60	0xbc94959e	-0.01813775
61	0xbd9770af	-0.073945396
62	0xbe0ac2be	-0.13550851
63	0xbd44c458	-0.04803881

advantage_stream.2.weight f4 [2, 64]
0	0x3f7e3e30	0.9931364
1	0x3d846947	0.064653926
2	0x3bbc82cd	0.0057528974
3	0x3f1605c6	0.5860256
4	0xbe2dace0	-0.16960478
5	0xbe979adf	-0.29610345
6	0xbe4f3800	-0.20236206
7	0x3e1a05c1	0.15041257
8	0x3e8fecb1	0.2811027
9	0x3f9119c5	1.1335989
10	0x3f82a38d	1.0206162
11	0xbd99d057	-0.07510441
12	0xbf9edd08	-1.2411203
13	0x3c1b4fc8	0.009479471
14	0xbcd8d29f	-0.02646762
15	0x3cc89f74	0.024490096
16	0xbceade96	-0.02867059
17	0xbce66d55	-0.028128305
18	0xbd868e83	-0.06570151
19	0xbe570504	-0.20998007
20	0xbe357143	-0.17718987
21	0xbdc255df	-0.09489035
22	0x3fa1f563	1.2653011
23	0xbc56c3c2	-0.013108196
24	0xbe495f5e	-0.19665286
25	0x3dbf6379	0.09345145
26	0x3e4ed3a3	0.2019792
27	0x3ddd0e65	0.10793761
28	0xbe65dfc1	-0.22448637
29	0xbfac0313	-1.3438438
30	0xbcc97a6f	-0.024594514
31	0x3ea50657	0.322314
32	0x3e0d6907	0.13809596
33	0x3e021cb1	0.12706257
34	0xbe35a5f2	-0.17739084
35	0xbf3997cd	-0.72497255
36	0x3e3c86dc	0.1841082
37	0x3e7a025d	0.24414964
38	0x3e008bd3	0.12553339
39	0x3f915963	1.1355404
40	0xbce1c873	-0.027561402
41	0x3e254e24	0.1614309
42	0x3f8d391e	1.1033056
43	0x3ed9d305	0.42543808
44	0x3f2df0b9	0.6794544
45	0x3f2f2d51	0.6842852
46	0xbf912d98	-1.1342039
47	0xbf34e896	-0.706674
48	0x3db00d53	0.085962914
49	0xbe1e4cca	-0.1545898
50	0xbe833c3d	-0.25631896
51	0xbd0f814e	-0.035035424
52	0x3e493415	0.19648774
53	0x3e3b3050	0.18280149
54	0xbe9f3277	-0.3109319
55	0xbd206898	-0.03916225
56	0x3e4ebb6d	0.20188685
57	0x3e8b5b42	0.27218062
58	0x3d1c0fae	0.03810089
59	0xbd6a0225	-0.05713095
60	0xbd528675	-0.05139776
61	0x3e20426b	0.15650336
62	0x3f335df0	0.7006521
63	0xbceecd73	-0.0291507
64	0xbef2ad59	-0.4739788
65	0xbe820fb1	-0.25402597
66	0x3ca624ae	0.020281162
67	0xbf519936	-0.81874406
68	0x3e011433	0.12605362
69	0x3e73845f	0.23780964
70	0xbe1a90c3	-0.15094285
71	0x3e264c8e	0.16240141
72	0x3b9e5e5a	0.004833025
73	0xbf8bafc3	-1.0913013
74	0xbf852f52	-1.0405066
75	0x3d323407	0.04350665
76	0x3fc33d34	1.5253053
77	0x3cc5fa1d	0.024167115
78	0x3b7f7a48	0.0038982797
79	0x3b264579	0.0025370999
80	0xbd9024cc	-0.070382684
81	0xbd27069e	-0.040777795
82	0xbdd7019b	-0.10498353
83	0x3e32c833	0.17459182
84	0xbe28dcf3	-0.16490535
85	0x3d4ba043	0.049713384
86	0xbf8869e3	-1.0657314
87	0xbd559d51	-0.05215198
88	0x3e12ee7b	0.14348786
89	0x3dc58b07	0.09645658
90	0x3d9b3d35	0.07580034
91	0x3df5d923	0.12004306
92	0x3e89f3de	0.26943868
93	0x3fb7acdf	1.4349631
94	0x3d0b3aef	0.03399175
95	0xbe364b68	-0.17802203
96	0x3de37dde	0.11107992
97	0x3e019ff3	0.12658672
98	0xbe54c158	-0.2077688
99	0x3f5648ff	0.83705133
100	0xbe829e19	-0.25511244
101	0x3e63f4bf	0.22261332
102	0xbd9df854	-0.077133805
103	0xbf8085d7	-1.0040845
104	0x3e905d40	0.28196144
105	0x3e86466f	0.26225612
106	0xbf8366a0	-1.0265694
107	0xbda4ec38	-0.08052868
108	0xbf28424b	-0.65726155
109	0xbf924ca5	-1.142964
110	0x3fac3406	1.3453376
111	0x3eeb95a1	0.46012595
112	0xbe5b1a69	-0.21396793
113	0xbe1b210a	-0.15149322
114	0xbe81ba07	-0.2533724
115	0xbd64dc38	-0.05587408
116	0x3e478879	0.19485654
117	0x3e6c0c7c	0.23051637
118	0xbe8f787e	-0.28021616
119	0xbdae9389	-0.08524234
120	0x3e7f96f3	0.24959926
121	0xbf04ed3d	-0.51924497
122	0x3b3f13a7	0.0029156
123	0xbd1ba24d	-0.03799658
124	0xbdd32c5d	-0.10311196
125	0xbe12a909	-0.14322294
126	0xbec57e00	-0.38572693
127	0xbdd53d76	-0.10412113

advantage_stream.2.bias f4 [2]
0	0xbd95a333	-0.073065184
1	0x3d95a333	0.073065184

exp_avg f4 [128, 4]
0	0x80000004	-6e-45
1	0x80000004	-6e-45
2	0x00000004	6e-45
3	0x00000004	6e-45
4	0xa6a90e76	-1.173065e-15
5	0xa6502ded	-7.222674e-16
6	0xa4d6681e	-9.298409e-17
7	0xa6b5c784	-1.2613477e-15
8	0x80000004	-6e-45
9	0x80000004	-6e-45
10	0x80000004	-6e-45
11	0x80000004	-6e-45
12	0x00000004	6e-45
13	0x00000004	6e-45
14	0x00000004	6e-45
15	0x80000004	-6e-45
16	0x80000004	-6e-45
17	0x00000004	6e-45
18	0x00000004	6e-45
19	0x80000004	-6e-45
20	0x80000004	-6e-45
21	0x00000004	6e-45
22	0x80000004	-6e-45
23	0x80000004	-6e-45
24	0x00000004	6e-45
25	0x80000004	-6e-45
26	0x00000004	6e-45
27	0x80000004	-6e-45
28	0x00000004	6e-45
29	0x80000004	-6e-45
30	0x00000004	6e-45
31	0x00000004	6e-45
32	0x80000004	-6e-45
33	0x00000004	6e-45
34	0x00000004	6e-45
35	0x80000004	-6e-45
36	0x80000004	-6e-45
37	0x80000004	-6e-45
38	0x00000004	6e-45
39	0x00000004	6e-45
40	0x00000004	6e-45
41	0x80000004	-6e-45
42	0x80000004	-6e-45
43	0x00000004	6e-45
44	0x00000004	6e-45
45	0x80000004	-6e-45
46	0x80000004	-6e-45
47	0x00000004	6e-45
48	0x00000004	6e-45
49	0x80000004	-6e-45
50	0x80000004	-6e-45
51	0x80000004	-6e-45
52	0x80000004	-6e-45
53	0x80000004	-6e-45
54	0x00000004	6e-45
55	0x00000004	6e-45
56	0x80000004	-6e-45
57	0x80000004	-6e-45
58	0x00000004	6e-45
59	0x00000004	6e-45
60	0x80000004	-6e-45
61	0x80000004	-6e-45
62	0x80000004	-6e-45
63	0x80000004	-6e-45
64	0x3972bfab	0.0002315032
65	0xb9c5081a	-0.00037580804
66	0xb770109c	-1.4308982e-05
67	0x38d3dd67	0.000101025034
68	0x80000004	-6e-45
69	0x00000004	6e-45
70	0x80000004	-6e-45
71	0x80000004	-6e-45
72	0xb1c0873d	-5.6033103e-09
73	0x325fb948	1.30224365e-08
74	0x32bc2dcd	2.1906908e-08
75	0x33ad1488	8.059675e-08
76	0x80000004	-6e-45
77	0x80000004	-6e-45
78	0x00000004	6e-45
79	0x80000004	-6e-45
80	0x2fe4de15	4.1630757e-10
81	0x2fbba503	3.413235e-10
82	0x2e045669	3.0090073e-11
83	0x2fb386ea	3.2655773e-10
84	0xb76c1472	-1.40714565e-05
85	0x39061b99	0.00012789517
86	0xb6d64087	-6.385209e-06
87	0xb962c050	-0.00021624682
88	0x80000004	-6e-45
89	0x80000004	-6e-45
90	0x80000004	-6e-45
91	0x00000004	6e-45
92	0x00000004	6e-45
93	0x00000004	6e-45
94	0x00000004	6e-45
95	0x80000004	-6e-45
96	0x3ae30508	0.0017320225
97	0x3b59800d	0.0033187896
98	0x388001f7	6.1038816e-05
99	0xba1b9d78	-0.00059362454
100	0x00000004	6e-45
101	0x00000004	6e-45
102	0x80000004	-6e-45
103	0x80000004	-6e-45
104	0x80000004	-6e-45
105	0x80000004	-6e-45
106	0x00000004	6e-45
107	0x00000004	6e-45
108	0x80000004	-6e-45
109	0x00000004	6e-45
110	0x00000004	6e-45
111	0x00000004	6e-45
112	0x360f1a9f	2.1324156e-06
113	0x35dd6744	1.6495837e-06
114	0x325f95c4	1.3014361e-08
115	0x36050fac	1.9827667e-06
116	0x00000004	6e-45
117	0x00000004	6e-45
118	0x00000004	6e-45
119	0x80000004	-6e-45
120	0x00000004	6e-45
121	0x00000004	6e-45
122	0x00000004	6e-45
123	0x00000004	6e-45
124	0xb7a7019a	-1.9908697e-05
125	0x38a49276	7.84741e-05
126	0x379c8212	1.8657218e-05
127	0xb4a4fd59	-3.0731715e-07
128	0x00000004	6e-45
129	0x80000004	-6e-45
130	0x00000004	6e-45
131	0x00000004	6e-45
132	0x00000004	6e-45
133	0x00000004	6e-45
134	0x80000004	-6e-45
135	0x80000004	-6e-45
136	0x80000004	-6e-45
137	0x80000004	-6e-45
138	0x80000004	-6e-45
139	0x80000004	-6e-45
140	0x80000004	-6e-45
141	0x80000004	-6e-45
142	0x00000004	6e-45
143	0x00000004	6e-45
144	0x3a08f6da	0.0005224772
145	0x3aab42d8	0.0013066186
146	0x38c7b6c1	9.5231e-05
147	0xb9ded768	-0.0004250363
148	0x00000004	6e-45
149	0x00000004	6e-45
150	0x00000004	6e-45
151	0x00000004	6e-45
152	0x80000004	-6e-45
153	0x00000004	6e-45
154	0x00000004	6e-45
155	0x80000004	-6e-45
156	0x31992150	4.4566733e-09
157	0x3138e8f6	2.6907947e-09
158	0xaecdc675	-9.357574e-11
159	0x31b83d31	5.3620615e-09
160	0x00000004	6e-45
161	0x80000004	-6e-45
162	0x80000004	-6e-45
163	0x00000004	6e-45
164	0x80000004	-6e-45
165	0x00000004	6e-45
166	0x00000004	6e-45
167	0x00000004	6e-45
168	0xb9895c94	-0.00026199652
169	0xba1253cf	-0.00055819465
170	0x3788b95f	1.6298784e-05
171	0xb7dc36fc	-2.6251648e-05
172	0x00000004	6e-45
173	0x80000004	-6e-45
174	0x80000004	-6e-45
175	0x00000004	6e-45
176	0x80000004	-6e-45
177	0x80000004	-6e-45
178	0x80000004	-6e-45
179	0x80000004	-6e-45
180	0x00000004	6e-45
181	0x80000004	-6e-45
182	0x80000004	-6e-45
183	0x80000004	-6e-45
184	0xbcb91f75	-0.022598008
185	0x3ca891a1	0.020577254
186	0x3a0c51e1	0.0005352777
187	0xbcc8f5c0	-0.024531245
188	0xbc449adb	-0.011999811
189	0x3c6d8924	0.014498029
190	0x38fbea76	0.000120122844
191	0xbc93aab0	-0.018025726
192	0xbb5c0928	-0.0033574793
193	0x3cf831c0	0.03029716
194	0x3b19a5a8	0.0023444686
195	0xbcbe9cec	-0.023268186
196	0x80000004	-6e-45
197	0x80000004	-6e-45
198	0x80000004	-6e-45
199	0x80000004	-6e-45
200	0x80000004	-6e-45
201	0x80000004	-6e-45
202	0x00000004	6e-45
203	0x00000004	6e-45
204	0x00000004	6e-45
205	0x00000004	6e-45
206	0x80000004	-6e-45
207	0x80000004	-6e-45
208	0x80000004	-6e-45
209	0x80000004	-6e-45
210	0x00000004	6e-45
211	0x80000004	-6e-45
212	0x80000004	-6e-45
213	0x80000004	-6e-45
214	0x00000004	6e-45
215	0x80000004	-6e-45
216	0x00000004	6e-45
217	0x80000004	-6e-45
218	0x80000004	-6e-45
219	0x00000004	6e-45
220	0xacf53790	-6.9694875e-12
221	0x2e341079	4.0941892e-11
222	0x2e4b98e8	4.6292664e-11
223	0x2f2ce123	1.5723294e-10
224	0x80000004	-6e-45
225	0x80000004	-6e-45
226	0x80000004	-6e-45
227	0x00000004	6e-45
228	0x80000004	-6e-45
229	0x80000004	-6e-45
230	0x80000004	-6e-45
231	0x00000004	6e-45
232	0xbd1fbdbc	-0.038999304
233	0xbc636752	-0.013879614
234	0x3b98b4a9	0.0046602082
235	0x3c882650	0.016619831
236	0x80000004	-6e-45
237	0x80000004	-6e-45
238	0x00000004	6e-45
239	0x80000004	-6e-45
240	0x00000004	6e-45
241	0x00000004	6e-45
242	0x80000004	-6e-45
243	0x80000004	-6e-45
244	0xb1feed37	-7.419341e-09
245	0x3315c8e5	3.487448e-08
246	0x32cd0c3e	2.3870708e-08
247	0x338595ad	6.220521e-08
248	0xb18860cc	-3.9691255e-09
249	0x321e8ba6	9.228563e-09
250	0x328552f7	1.5520966e-08
251	0x33753e84	5.7100365e-08
252	0x00000004	6e-45
253	0x80000004	-6e-45
254	0x00000004	6e-45
255	0x00000004	6e-45
