CartPoleHighRewardIn2026/checkpoints/checkpoint_ep500_reward101.00.pt (torch, 421217 bytes, 33 tensors)

feature_layer.0.weight f4 [128, 4]
0.07156998 -0.072202235 -0.45897236 0.11797202 0.17401753 0.13420409 0.17871109 0.07408158
-0.16805719 0.06677562 -0.76486516 -0.14401212 0.021510754 -0.073743515 0.33386624 -0.041051697
0.035883043 -0.1374168 0.77717483 -0.06472881 -0.09430123 0.085939124 -0.4410031 0.023564694
-0.020508267 0.022291273 0.19884905 0.0045200256 -0.10874602 0.108810715 -0.21906935 0.10428244
-0.19293685 0.03870428 0.36895955 0.042304974 0.21255536 -0.064777985 -0.35367945 -0.12212878
0.09776762 -0.10446455 0.05813072 -0.06686435 0.20081748 -0.03193415 0.31187654 -0.00671531
-0.07232836 -0.023529585 0.56874794 0.06774939 -0.04244273 0.07328132 -0.6279742 0.099280976
-0.017927166 0.021854278 -0.09360542 0.005927815 0.027324088 -0.03136448 0.5919604 -0.2250693
0.014227619 -0.048270755 0.38629884 -0.0023592205 -0.24256927 0.03347872 0.05913887 0.042629365
0.007557144 -0.001018776 0.8616409 0.112268396 -0.042038303 -0.03156623 0.815322 -0.09459534
0.0024478503 0.0034474407 -0.89173406 -0.10799425 0.011554581 0.02629194 0.4642257 0.23396388
0.2184894 -0.12156823 -0.7188438 -0.106615104 -0.014885385 0.0052123335 0.59796566 -0.06690376
0.066512816 0.011072848 0.94016063 0.17377825 -0.008670046 0.03723525 0.771772 0.10618124
-0.1504614 -0.017865108 0.76420885 -0.05666183 -0.07360023 0.06105842 -0.03432261 0.056096915
0.24335524 0.12236963 0.15210816 0.050532788 -0.06621561 0.08921185 0.40946305 0.025614973
0.35811362 -0.05889253 0.42583838 0.013533002 -0.002522948 0.0140257785 0.7862541 0.12504107
0.015298416 -0.03188972 0.11414682 -0.26112992 0.105284974 -0.0509872 -0.42197764 -0.10481197
-0.06092194 -0.14081603 -0.6916905 -0.1619304 0.190798 -0.12882866 0.24082333 -0.18471138
-0.19669288 0.008614984 0.04929702 0.022008566 -0.09195593 0.08720983 0.55858654 0.06776616
0.11397137 -0.025157452 0.9607698 -0.0059371954 0.0107472055 -0.07448602 0.60697705 -0.19456358
-0.018527454 -0.03832472 0.18218368 -0.25446853 0.026923532 0.090468235 0.7760048 0.1903451
0.0074452152 -0.0076578697 -1.0575074 -0.12960215 0.12107833 0.033735108 0.15169 0.003506571
-0.08745221 -0.12573017 0.028076319 0.22057809 -0.09410706 -0.11653365 -0.14297166 -0.123040415
0.21533726 -0.13752028 0.1491868 0.020707788 -0.0713173 -0.16411418 0.36062694 -0.07546978
-0.10204986 0.025718128 -0.929608 -0.025747221 0.018341845 -0.007808347 -1.0829126 -0.13599418
0.039728608 -0.044074487 0.7094489 0.18543756 -0.08507341 0.024151715 -0.28570938 -0.13213542
0.17190534 -0.089177534 -0.3278143 -0.30297804 -0.16243635 0.18933886 0.3666742 -0.26721945
0.05669323 -0.10005905 -0.3017282 0.02122435 0.027127944 0.0193994 0.28804085 0.37164977
-0.111178786 -0.12799898 0.07490492 0.13449112 0.17711082 0.20316316 -0.39750388 0.1192993
0.015348562 -0.04588037 -1.009718 -0.17635565 0.030054105 -0.039910883 0.66157 -0.23631221
0.22094342 0.060147204 -0.5795465 -0.057272654 -0.020790787 0.03260412 0.786907 0.09530047
0.0132627515 -0.004106275 0.7964382 0.10035777 0.08923957 -0.037353005 0.5403566 0.028280647
00000000: 4893 923d c4de 93bd 6dfe eabe 509b f13d
00000010: a731 323e cc6c 093e 0a00 373e 15b8 973d
00000020: 2f17 2cbe a8c1 883d 34ce 43bf ea77 13be
00000030: 5237 b03c d706 97bd 84f0 aa3e d325 28bd
00000040: 19fa 123d fdb6 0cbe eef4 463f 8a90 84bd
00000050: 0121 c1bd da00 b03d 29cb e1be bf0a c13c
00000060: f400 a8bc 309c b63c 169f 4b3e b91c 943b
00000070: 3cb6 debd 27d8 de3d b753 60be 0892 d53d
00000080: 3d91 45be 6188 1e3d 44e8 bc3e fb47 2d3d
00000090: 1da8 593e 52aa 84bd 7915 b5be a71e fabd
000000a0: 643a c83d 83f1 d5bd 7a1a 6e3d 2df0 88bd
000000b0: 19a3 4d3e 62cd 02bd 48ae 9f3e 1a0c dcbb
000000c0: e420 94bd 1ec1 c0bc 7799 113f 31c0 8a3d
000000d0: 6ed8 2dbd 8414 963d ebc2 20bf d353 cb3d
000000e0: fedb 92bc be07 b33c 33b4 bfbd 1e3e c23b
000000f0: c4d6 df3c 0a78 00bd b78a 173f 9178 66be
00000100: f61a 693c 8eb7 45bd f6c8 c53e 279d 1abb
00000110: 1464 78be fb20 093d 9a3b 723d 219c 2e3d
00000120: eba1 f73b 7388 85ba 7f94 5c3f f9ec e53d
00000130: 5b30 2cbd 974b 01bd f1b8 503f 34bb c1bd
00000140: 1d6c 203b 75ee 613b af48 64bf 172c ddbd
00000150: 6d4f 3d3c 3262 d73c feae ed3e 3a94 6f3e
00000160: afbb 5f3e c4f8 f8bd 2606 38bf 0559 dabd
00000170: d4e1 73bc 39cc aa3b 4714 193f d704 89bd
00000180: df37 883d e46a 353c 5eae 703f edf2 313e
00000190: cf0c 0ebc fd83 183d da92 453f 8d75 d93d
000001a0: 8e12 1abe d959 92bc 31a3 433f 3c16 68bd
000001b0: b8bb 96bd 6518 7a3d dd95 0cbd e1c5 653d
000001c0: 1e32 793e ee9c fa3d 3ec2 1b3e 78fb 4e3d
000001d0: 0d9c 87bd b4b4 b63d 24a5 d13e 7ed6 d13c
000001e0: ab5a b73e 4b39 71bd 7d07 da3e 86b9 5d3c
000001f0: 0b58 25bb 61cc 653c f347 493f c40a 003e
00000200: 35a6 7a3c cc9e 02bd cfc5 e93d d2b2 85be
00000210: a69f d73d f4d7 50bd 740d d8be a8a7 d6bd
00000220: 4989 79bd 1432 10be a112 31bf 15d1 25be
00000230: 8d60 433e a9eb 03be 649a 763e fb24 3dbe
00000240: dc69 49be dd25 0d3c aceb 493d 4f4b b43c
00000250: 6453 bcbd 119b b23d 87ff 0e3f fcc8 8a3d
00000260: d269 e93d 0017 cebc 02f5 753f ce8c c2bb
00000270: 0c15 303c 208c 98bd d962 1b3f ad3b 47be
00000280: e3c6 97bc 62fa 1cbd 5c8e 3a3e b349 82be
00000290: bd8e dc3c 6947 b93d 40a8 463f d3e9 423e
000002a0: fef6 f33b deee fabb 675c 87bf 6db6 04be
000002b0: eaf7 f73d d32d 0a3d a054 1b3e 80ce 653b
000002c0: 251a b3bd 69bf 00be 4f00 e63c 39df 613e
000002d0: 34bb c0bd 32a9 eebd 2a67 12be 9dfc fbbd
000002e0: 5f81 5c3e 1ed2 0cbe 6dc4 183e 61a3 a93c
000002f0: ce0e 92bd 8c0d 28be 18a4 b83e e68f 9abd
00000300: 84ff d0bd d3ae d23c cafa 6dbf d6eb d2bc
00000310: a341 963c 2add ffbb e19c 8abf 0f42 0bbe
00000320: 77ba 223d 7387 34bd 719e 353f 58e3 3d3e
00000330: f83a aebd d1d9 c53c 8048 92be 824e 07be
00000340: f407 303e b6a2 b6bd 47d7 a7be f01f 9bbe
00000350: b755 26be 0ce2 413e b9bc bb3e fdd0 88be
00000360: 2937 683d c2eb ccbd 1e7c 9abe b0de ad3c
00000370: 6c3b de3c 7eeb 9e3c 177a 933e e148 be3e
00000380: b4b1 e3bd 2a12 03be c067 993d 0ab8 093e
00000390: 8a5c 353e 010a 503e a185 cbbe 3153 f43d
000003a0: 8978 7b3c 0eed 3bbd 703e 81bf 9396 34be
000003b0: 0734 f63c 9879 23bd a75c 293f d4fb 71be
000003c0: fe3e 623e ea5c 763d 295d 14bf bb96 6abd
000003d0: 7151 aabc e68b 053d bd72 493f e52c c33d
000003e0: 034c 593c ee8d 86bb 60e3 4b3f 6088 cd3d
000003f0: 3cc3 b63d 77ff 18bd cf54 0a3f d1ac e73c

feature_layer.0.bias f4 [128]
0.12632138 -0.42916468 -0.17245528 0.17492421 0.054420777 0.0658065 -0.03518128 -0.104836464
0.122419275 0.12101004 -0.13620722 0.069434814 0.15857881 0.10767717 -0.060253255 0.08945963
0.19565284 -0.11570642 -0.17297284 0.14600909 -0.17581832 -0.22406891 -0.17926857 0.13058478
-0.15770422 -0.13454813 -0.11762796 -0.19516467 -0.4329599 -0.23598446 -0.30476117 -0.16569637
-0.17756222 0.18513021 -0.23063852 -0.18946345 -0.40584004 0.2432367 -0.15082096 0.012387418
-0.014449287 -0.15905572 -0.21972176 0.04962209 -0.30602282 0.07312717 -0.16859047 -0.104215264
-0.15555385 -0.21656449 -0.16022393 0.056845814 -0.1831689 -0.24264146 0.1614065 -0.26333848
-0.17495885 0.082506046 -0.21784708 0.08701755 -0.15721008 -0.12400771 -0.15498447 0.11818914
-0.15132096 0.12150765 -0.16632846 0.13328224 -0.16264276 0.14300342 -0.1810883 -0.024443181
-0.006735281 0.07795936 -0.12948485 -0.17752379 -0.17097995 0.079529285 -0.12179705 -0.066182666
-0.19434418 -0.21208118 0.07720341 0.21568488 -0.18607345 0.17548884 -0.023554366 -0.022185475
-0.06562802 -0.09699709 -0.26584452 0.047759216 -0.09213667 0.12166175 -0.5229711 -0.21503429
-0.6049672 -0.124092504 -0.12596132 0.022344353 0.033341933 -0.07076256 -0.16922669 0.07507207
0.09756909 -0.07048635 -0.20537588 -0.19042936 -0.19125997 0.016992476 0.124830924 0.1299775
0.018813115 -0.18593064 0.22897293 0.16757555 0.048299264 -0.2995364 0.2152554 -0.092571564
-0.024910199 -0.16499652 -0.060630314 -0.16782792 0.105753 -0.1600465 -0.040520836 -0.39331272
00000000: 645a 013e 79bb dbbe 1e98 30be 551f 333e
00000010: 52e8 5e3d 8fc5 863d 3f1a 10bd 80b4 d6bd
00000020: f5b6 fa3d 1dd4 f73d e879 0bbe d733 8e3d
00000030: 7c62 223e d985 dc3d 1ecc 76bd 9c36 b73d
00000040: 3859 483e 7df7 ecbd cb1f 31be 6883 153e
00000050: b809 34be 5272 65be 2e92 37be 04b8 053e
00000060: 377d 21be fcc6 09be eee6 f0bd 3fd9 47be
00000070: ecac ddbe e9a5 71be a809 9cbe 4fac 29be
00000080: dfd2 35be c692 3d3e 812c 6cbe b502 42be
00000090: 44ca cfbe 0b13 793e cf70 1abe 99f4 4a3c
000000a0: b4bc 6cbc 81df 22be befe 60be 8840 4b3d
000000b0: 06af 9cbe b3c3 953d fba2 2cbe d06e d5bd
000000c0: 8249 1fbe 15c3 5dbe be11 24be 28d7 683d
000000d0: a190 3bbe 0177 78be bf47 253e 4dd4 86be
000000e0: 6a28 33be eef8 a83d 4e13 5fbe 4236 b23d
000000f0: aefb 20be c1f7 fdbd 40b4 1ebe 260d f23d
00000100: e2f3 1abe 01d9 f83d 0252 2abe 247b 083e
00000110: d38b 26be 7d6f 123e 366f 39be 113d c8bc
00000120: a2b3 dcbb 28a9 9f3d ad97 04be ccc8 35be
00000130: 5e15 2fbe 40e0 a23d bb70 f9bd c78a 87bd
00000140: 2902 47be cf2b 59be d21c 9e3d 7fdc 5c3e
00000150: 0a8a 3ebe 59b3 333e 16f5 c0bc 50be b5bc
00000160: fc67 86bd 69a6 c6bd c61c 88be 2b9f 433d
00000170: 27b2 bcbd cc29 f93d 6fe1 05bf f331 5cbe
00000180: 21df 1abf 3624 febd 01fc 00be 810b b73c
00000190: 8d91 083d f6eb 90bd c349 2dbe 63bf 993d
000001a0: 4ed2 c73d 265b 90bd 0e4e 52be eaff 42be
000001b0: a7d9 43be ce33 8b3c 5ba7 ff3d d218 053e
000001c0: f61d 9a3c 9a64 3ebe e177 6a3e ed98 2b3e
000001d0: 73d5 453d d65c 99be e96b 5c3e 2996 bdbd
000001e0: 7910 ccbc d9f4 28be 7e57 78bd 15db 2bbe
000001f0: 0795 d83d 3be3 23be 2df9 25bd 4960 c9be

feature_layer.2.weight f4 [128, 128]
-0.14638144 -0.31113043 -0.06272286 0.36048463 0.30771878 -0.05647917 0.07010405 0.09617278
0.27802056 -0.03977069 0.11481619 0.097630374 0.1987346 -0.1823285 0.090054974 -0.082416974
0.34131423 0.06718955 1.2481931 0.504425 -1.1688584 -0.05313396 0.15569423 0.29806975
0.17520441 -0.14577933 0.3059706 -0.062213764 -0.2884185 -0.06648498 -0.11432182 -0.02948966
-0.011108958 -0.088508025 -0.41880393 0.046179198 -0.22425732 0.25413337 -0.08732399 -0.102774225
0.121951625 0.6516923 -0.60267013 0.17980425 0.082800776 0.020292576 -0.16640563 0.07396667
-1.306307 -1.5439442 0.15815236 0.14033873 -0.07336847 -0.43483552 -0.01675749 0.14327785
-0.04072831 0.16350646 -1.1997577 0.22005667 -0.33043218 0.18814495 0.7709969 0.17077456
0.13450478 -0.09016234 -0.19008312 0.28685677 -0.20178758 0.07090349 0.29325712 0.15670842
0.051623367 -0.01671971 0.39790553 0.9202062 1.3769137 -0.13393597 0.11453762 0.15700619
0.20908672 0.030715648 -0.07421868 -0.048509497 0.026523113 0.3128718 -0.13525373 0.018827211
0.027408525 -0.27886355 -0.3310848 -0.15599957 0.03505649 0.02094791 0.3270189 0.11644246
-0.03153849 0.055970952 -0.077580556 0.07370088 0.12226014 -0.08052469 0.35525253 -0.24580425
0.19234367 -0.07155924 1.4225723 -1.5685705 0.24996746 -0.36157948 0.030126194 0.1488147
-0.053056724 -0.677712 0.13582115 0.07701581 -0.025777327 -0.3555484 0.28699303 -0.08525936
0.13861097 -0.115481935 0.118049234 -0.088939875 0.14341523 0.01830588 0.11945839 -0.3193328
0.04116644 -0.13796023 -0.009888609 -0.043202236 0.07063385 -0.11152003 0.051191762 0.02425862
0.17115885 0.08935392 0.020578567 -0.027052006 0.09051312 0.1363438 0.091436446 -0.17228453
0.11773211 0.04124139 -0.62256646 0.013592812 -0.674291 -0.017914657 -0.31267935 0.038036168
-0.080485255 -0.20979482 -0.11637219 -0.17998476 -0.113328 -0.1963915 -0.009870561 -0.20399284
0.025905991 0.14154173 -0.10351116 -0.11292771 -0.5356076 0.14871436 -0.5438933 -0.0076493556
-0.13605216 -0.56078905 -0.4743683 -0.051427826 0.030364364 0.18689348 -0.06803518 0.1540528
-0.793984 -0.8421492 -0.07189481 -0.026188174 0.028940583 -0.011965356 0.048796795 -0.23082271
0.16504657 0.3104797 -0.55560774 -0.06545733 -0.09616824 -0.17184058 -0.40802702 -0.047317445
-0.194983 0.0027403664 -0.31622174 -0.019250274 -0.07377329 0.16424648 -0.05064663 -0.020030962
-0.08012796 0.047163524 -0.25269517 -0.6262503 -0.64178693 0.11227084 -0.11540659 -0.11467508
-0.065584764 -0.26203915 -0.012490258 -0.0024192657 -0.033238083 0.008424763 0.062255982 -0.05105861
-0.0897385 -0.03419355 0.3236022 0.10777044 0.048446506 -0.17258589 -0.4021059 -0.0754459
-1.0691322 0.2346108 0.13385624 0.1846779 -0.09516621 0.14987491 -0.57768786 -0.10450652
0.120796315 0.12813523 -0.66719145 -1.2022396 -0.05367109 -0.041271154 0.022351615 -0.048890814
-0.12007834 -0.4658972 0.081705615 0.09348109 -0.03506205 0.14140004 0.15168208 -0.094941005
-0.13129032 0.014053422 -0.21527964 0.010071939 0.016541267 0.043189015 0.06901678 -0.08211048
00000000: 04e5 15be 7d4c 9fbe d874 80bd 7191 b83e
00000010: 518d 9d3e b456 67bd b692 8f3d 3cf6 c43d
00000020: b658 8e3e 97e6 22bd c024 eb3d 6ff2 c73d
00000030: 1581 4b3e 53b4 3abe be6e b83d 3bca a8bd
00000040: bdc0 ae3e ad9a 893d cbc4 9f3f ff21 013f
00000050: 279d 95bf ffa2 59bd 4f6e 1f3e 999c 983e
00000060: c968 333e 2d47 15be 2ea8 9c3e dcd3 7ebd
00000070: 97ab 93be 4729 88bd 8f21 eabd 4d94 f1bc
00000080: 5902 36bc b243 b5bd 786d d6be 6626 3d3d
00000090: b6a3 65be c51d 823e ecd6 b2bd 4b7b d2bd
000000a0: c6c1 f93d 4ed5 263f 9748 1abf 9b1e 383e
000000b0: 7493 a93d 9e3c a63c 3d66 2abe d67b 973d
000000c0: 1135 a7bf f79f c5bf b1f2 213e f5b4 0f3e
000000d0: 3542 96bd c3a2 debe 0147 89bc 6eb7 123e
000000e0: bad2 26bd 3d6e 273e a991 99bf 8956 613e
000000f0: 682e a9be 12a9 403e 0e60 453f 87df 2e3e
00000100: 9fbb 093e 08a7 b8bd 26a5 42be e4de 923e
00000110: 67a1 4ebe d935 913d cc25 963e 2c78 203e
00000120: 0673 533d c6f7 88bc 46ba cb3e a292 6b3f
00000130: b53e b03f 8326 09be b392 ea3d 3bc6 203e
00000140: d41a 563e 629f fb3c f7ff 97bd e5b1 46bd
00000150: 0047 d93c bc30 a03e f47f 0abe 863b 9a3c
00000160: d887 e03c 34c7 8ebe f283 a9be 5abe 1fbe
00000170: 6597 0f3d f49a ab3c 056f a73e 6279 ee3d
00000180: 812e 01bd cc41 653d 8ee2 9ebd 7df0 963d
00000190: 8663 fa3d 21ea a4bd a9e3 b53e 1cb4 7bbe
000001a0: bdf5 443e a78d 92bd d916 b63f ebc6 c8bf
000001b0: 78f7 7f3e f220 b9be 35cb f63c e162 183e
000001c0: 0252 59bd 897e 2dbf b314 0b3e 77ba 9d3d
000001d0: f92a d3bc 710a b6be c0f0 923e 769c aebd
000001e0: 09f0 0d3e cb81 ecbd ccc3 f13d 1c26 b6bd
000001f0: 71db 123e 36f6 953c 9aa6 f43d 977f a3be
00000200: 249e 283d 7245 0dbe d503 22bc d4f4 30bd
00000210: 7ba8 903d 9d64 e4bd 74ae 513d 03ba c63c
00000220: 4444 2f3e 30ff b63d 6294 a83c 2b9c ddbc
00000230: f15e b93d b69d 0b3e 0843 bb3d 5b6b 30be
00000240: 881d f13d bbec 283d 8460 1fbf 63b4 5e3c
00000250: 569e 2cbf c2c1 92bc 8217 a0be d0cb 1b3d
00000260: 74d5 a4bd 74d4 56be 8b54 eebd ed4d 38be
00000270: 8318 e8bd da1a 49be 22b8 21bc 80e3 50be
00000280: cd38 d43c 51f0 103e a9fd d3bd a546 e7bd
00000290: 941d 09bf 9448 183e 973c 0bbf 72a7 fabb
000002a0: 4251 0bbe df8f 0fbf 67e0 f2be fca5 52bd
000002b0: b0be f83c 0161 3f3e 0756 8bbd 04c0 1d3e
000002c0: 8942 4bbf 1797 57bf 963d 93bd 9588 d6bc
000002d0: cd14 ed3c 570a 44bc 26df 473d ca5c 6cbe
000002e0: f801 293e 32f7 9e3e 4f3c 0ebf 7e0e 86bd
000002f0: dbf3 c4bd faf6 2fbe ebe8 d0be f0cf 41bd
00000300: a0a9 47be b897 333b d1e7 a1be c0b2 9dbc
00000310: 7316 97bd 3b30 283e d772 4fbd f917 a4bc
00000320: 211a a4bd 8a2e 413d 4361 81be f151 20bf
00000330: 264c 24bf 41ee e53d 4a5a ecbd c5da eabd
00000340: 4e51 86bd ff29 86be f0a3 4cbc 8b8c 1ebb
00000350: a824 08bd 0408 0a3c 2100 7f3d d522 51bd
00000360: d2c8 b7bd 890e 0cbd 30af a53e c0b6 dc3d
00000370: d86f 463d 5bba 30be d3e0 cdbe 6183 9abd
00000380: 53d9 88bf d03d 703e 9c11 093e 341c 3d3e
00000390: 80e6 c2bd cf78 193e 5ae3 13bf 8407 d6bd
000003a0: 0f64 f73d e235 033e 0fcd 2abf fde2 99bf
000003b0: 38d6 5bbd f10b 29bd bc1a b73c bc41 48bd
000003c0: a2eb f5bd 148a eebe 4655 a73d 0473 bf3d
000003d0: 399d 0fbd 2ccb 103e 8c52 1b3e 6e70 c2bd
000003e0: f870 06be 5340 663c 4472 5cbe c604 253c
000003f0: 8d81 873c f7e6 303d ab58 8d3d 8a29 a8bd

feature_layer.2.bias f4 [128]
0.24500498 0.2726814 0.26205835 0.21807258 -0.048016693 0.27455655 0.24751294 -0.18227866
0.29850027 0.21252124 0.24344413 -0.010108553 0.261983 -0.103172235 -0.02659646 0.31149337
-0.048221357 -0.12544112 0.23437065 0.29086372 -0.041927088 0.2400444 0.09623998 0.2834128
-0.04734911 0.29127464 0.2971647 -0.03505492 -0.10811389 0.32897586 0.29288787 0.26605994
-0.016210046 0.20232828 0.21486573 0.3251235 -0.024396503 0.2310382 0.2584842 -0.03704124
-0.024484787 0.25533345 0.11571072 0.21396185 0.2750924 0.21813124 -0.01988885 0.12843505
-0.109677754 -0.053624902 0.25396135 -0.017290143 0.23383507 0.18062443 -0.03917379 0.28745335
-0.3268967 0.26683593 -0.009132685 0.11613906 -0.09878583 -0.03174411 0.14253664 -0.115352996
0.1573115 -0.0063366457 -0.018118031 0.24883306 0.25970873 0.3116431 -0.11371167 0.27817792
-0.015792891 -0.010194236 0.2169189 0.28968775 0.2364578 0.25297558 -0.038155284 -0.035830017
0.30187368 0.2772538 -0.099901706 0.29232845 -0.013221993 0.29945192 -0.17539288 -0.039494503
0.30690485 -0.024497602 0.28881845 0.26059726 0.2749375 0.3125515 -0.048032604 0.24818113
-0.041685287 0.2922821 0.15303202 0.2792978 0.28641176 0.13686071 -0.030570317 0.2879502
-0.0308733 0.2439036 0.265864 0.23868588 -0.07993729 0.26887292 -0.09775876 -0.13718088
-0.025671842 0.31010345 0.2850233 -0.13175365 -0.018495385 0.28738084 0.26778707 0.18677561
0.1987523 0.2697881 -0.16016038 -0.03725056 -0.10796621 -0.013301435 0.30706075 0.263304
00000000: 96e2 7a3e e59c 8b3e 832c 863e 6b4e 5f3e
00000010: 27ad 44bd ad92 8c3e 0874 7d3e 42a7 3abe
00000020: 07d5 983e 2b9f 593e 6b49 793e 589e 25bc
00000030: a322 863e f74b d3bd d2e0 d9bc 0f7c 9f3e
00000040: c283 45bd a373 00be dcfe 6f3e 17ec 943e
00000050: bdbb 2bbd 33ce 753e 7719 c53d 7c1b 913e
00000060: 24f1 41bd f321 953e f925 983e bf95 0fbd
00000070: d16a ddbd 866f a83e 66f5 953e 0239 883e
00000080: eeca 84bc 252f 4f3e c305 5c3e 9676 a63e
00000090: 2ddb c7bc 4795 6c3e 0b58 843e 8eb8 17bd
000000a0: 5294 c8bc 11bb 823e bef9 ec3d d118 5b3e
000000b0: e9d8 8c3e cc5d 5f3e f1ed a2bc 7a84 033e
000000c0: bb9e e0bd c9a5 5bbd 3907 823e 0fa4 8dbc
000000d0: 7672 6f3e 9cf5 383e b274 20bd 162d 933e
000000e0: 015f a7be b89e 883e 42a1 15bc 51da ed3d
000000f0: 3a50 cabd 1d06 02bd 20f5 113e 313e ecbd
00000100: 4416 213e a3a3 cfbb 446c 94bc 18ce 7e3e
00000110: 8bf8 843e af8f 9f3e aae1 e8bd 566d 8e3e
00000120: 1860 81bc ba05 27bc fd1f 5e3e f451 943e
00000130: fe21 723e 0486 813e b748 1cbd 7fc2 12bd
00000140: 308f 9a3e 36f4 8d3e 4499 ccbd 13ac 953e
00000150: 0fa1 58bc c351 993e 319a 33be fdc4 21bd
00000160: a222 9d3e 32af c8bc 03e0 933e 016d 853e
00000170: 9cc4 8c3e c006 a03e d6bd 44bd 3223 7e3e
00000180: 31be 2abd 00a6 953e 6db4 1c3e 1f00 8f3e
00000190: 90a4 923e 3725 0c3e 9a6e fabc 356e 933e
000001a0: 01ea fcbc dec1 793e 541f 883e 126a 743e
000001b0: 29b6 a3bd b6a9 893e bf35 c8bd 2579 0cbe
000001c0: c14d d2bc e1c5 9e3e 93ee 913e 6eea 06be
000001d0: a283 97bc 9523 933e 631b 893e 1b42 3f3e
000001e0: b985 4b3e aa21 8a3e 1501 24be 0b94 18bd
000001f0: 631d ddbd 43ee 59bc 1137 9d3e c8cf 863e

value_stream.0.weight f4 [64, 128]
-0.02730455 0.18604301 0.039016575 0.053001422 0.07211719 0.25889266 0.09376926 -0.09212846
0.34483027 0.1581068 0.1633938 0.016970428 0.028317945 0.10727895 -0.16463424 0.24079536
0.095933415 0.12240882 -0.08405401 0.27176884 0.14175034 0.08812621 -0.10699337 0.096286595
0.01888779 -0.039989747 0.085579365 -0.06271274 -0.9066894 0.28935412 0.1151238 -0.03198926
0.17250997 0.24651691 0.14362235 0.19673948 -0.11559085 0.0056879255 0.12343822 -0.0892362
0.14273311 0.031880394 0.14721118 0.3103641 0.01843642 0.04762417 -0.10737996 0.05736374
-0.19284545 0.1787992 0.13654894 -0.11049066 0.20412391 0.10645533 0.18660498 0.26995838
-0.5952111 0.029030677 -0.0647166 -0.0036828176 -0.6369385 -0.11176064 -0.04817782 0.035755657
0.18771437 0.020638442 0.01661775 -0.06080977 0.013601444 0.039335568 -0.4700494 -0.004654973
0.024807433 -0.024054917 -0.077409424 0.20833738 0.18162154 0.110523954 0.061984807 3.157591e-05
0.19243366 -0.015792497 0.041189354 0.30078858 -0.11280725 0.24642745 0.026847223 0.07720054
0.047889538 -0.07161357 0.049264915 0.20494054 0.059407793 0.026107606 0.04949207 -0.016628623
-0.10292285 0.06870025 -0.079746835 0.018574916 0.13117333 0.08426465 0.035189472 0.34875774
0.08654375 0.26148292 0.22959785 0.12020078 0.05671538 0.31522125 -0.13957302 -0.1038244
0.14692543 0.25810534 0.16102108 -0.08484783 -0.067835666 0.16056854 0.09141571 0.043504484
0.18005437 0.14957145 -0.07184829 -0.026210424 -0.37823987 0.05346052 0.34556377 -0.06281714
0.0025315396 0.19426492 -0.10257843 0.14013456 0.040647812 0.2306727 0.099803716 0.0014240507
-0.014401383 0.14788866 0.23996623 -0.060076237 0.24761273 -0.025082726 -0.09823873 0.038761433
-0.13460277 0.07733583 -0.08222903 0.19707869 -0.05246404 0.15572931 0.1567584 -0.054427754
-0.086235516 0.21026501 0.021303296 -0.15567137 -0.8187677 -0.016810622 -0.07019126 0.014945326
0.14085485 0.24946952 0.12587167 0.14503643 -0.08577003 0.13685025 0.19629623 0.035739947
0.19111326 0.18420985 0.10707044 0.016174095 0.19230017 0.06506195 -0.029608222 0.17030099
-0.19005926 -0.031705454 0.16540393 -0.10682625 0.07959976 0.06601705 0.37242624 0.00093194435
-0.5309108 0.2320582 0.039557848 0.07594554 -0.6038126 -0.0023361577 0.21303682 0.113551445
0.26017877 0.12598523 8.538598e-05 0.24037962 0.06706246 0.24220541 -0.551457 -0.10108598
0.07478838 0.06323255 -0.008164243 0.060734093 0.14070074 0.19596377 0.038300533 0.15351644
0.28921428 0.18704528 -0.04909307 0.08922398 -0.1324813 0.17151164 0.089629486 -0.052644297
0.052921213 -0.0787559 0.10228106 0.159395 0.2306351 0.023953058 0.046218697 -0.004760567
-0.15634815 0.2402272 0.14468515 0.25379965 0.19586201 0.0917935 0.033324525 0.2375639
-0.0816178 0.21866347 -0.094329014 0.08678218 -0.07747427 0.19839197 0.121631995 0.056361463
-0.06603422 0.27619162 -0.085228175 -0.11237748 -0.1222474 0.06134078 0.20964211 0.09374662
-0.0888251 -0.055531494 0.002212673 -0.09578335 -0.41598025 0.1384546 0.20410831 -0.13035907
00000000: cbad dfbc 0f82 3e3e d8cf 1f3d 0518 593d
00000010: 2db2 933d 948d 843e 190a c03d d9ad bcbd
00000020: 988d b03e c0e6 213e b450 273e 9105 8b3c
00000030: 09fb e73c 11b5 db3d e195 28be 0f93 763e
00000040: bd78 c43d 7ab1 fa3d 8224 acbd 4925 8b3e
00000050: 0027 113e 847b b43d 571f dbbd e831 c53d
00000060: 91ba 9a3c 4acc 23bd 3c44 af3d 896f 80bd
00000070: cc1c 68bf 3926 943e 07c6 eb3d 2c07 03bd
00000080: 74a6 303e ee6e 7c3e bd11 133e 1376 493e
00000090: e5ba ecbd c761 ba3b 2dcd fc3d 78c1 b6bd
000000a0: a128 123e 0495 023d 87be 163e 0be8 9e3e
000000b0: fa07 973c 9011 433d 06ea dbbd 3ef6 6a3d
000000c0: 4779 45be 2317 373e 7cd3 0b3e ed48 e2bd
000000d0: dc05 513e 4105 da3d 6015 3f3e fc37 8a3e
000000e0: c15f 18bf bed1 ed3c 238a 84bd 6d5b 71bb
000000f0: 670e 23bf c3e2 e4bd 1b56 45bd 8674 123d
00000100: 3238 403e f311 a93c f321 883c aa13 79bd
00000110: 97d8 5e3c 551e 213d 51aa f0be be88 98bb
00000120: f538 cb3c d10e c5bc d588 9ebd 6556 553e
00000130: fffa 393e 625a e23d c8e3 7d3d 6070 0438
00000140: 540d 453e 445f 81bc 2bb6 283d f600 9a3e
00000150: 7d07 e7bd 7a57 7c3e b5ee db3c 511b 9e3d
00000160: d227 443d 23aa 92bd 02ca 493d efdb 513e
00000170: 9655 733d 9edf d53c 32b8 4a3d c038 88bc
00000180: 37c9 d2bd b7b2 8c3d 4f52 a3bd 6c2a 983c
00000190: 4d52 063e f292 ac3d d622 103d 6090 b23e
000001a0: d93d b13d 17e1 853e b31b 6b3e d42b f63d
000001b0: 634e 683d ae64 a13e 3bec 0ebe e3a1 d4bd
000001c0: 9f73 163e 6226 843e b6e2 243e b3c4 adbd
000001d0: 6ded 8abd 146c 243e 2938 bb3d c231 323d
000001e0: 2c60 383e 4229 193e 3225 93bd 3eb7 d6bc
000001f0: a8a8 c1be 6bf9 5a3d bced b03e 46a6 80bd
00000200: 30e8 253b 62ed 463e a414 d2bd 6f7f 0f3e
00000210: 527e 263d 7735 6c3e e465 cc3d 36a7 ba3a
00000220: c7f3 6bbc 2070 173e b5b9 753e 8012 76bd
00000230: 318e 7d3e 4a7a cdbc 6331 c9bd 4fc4 1e3d
00000240: 4fd5 09be 3f62 9e3d b267 a8bd ffce 493e
00000250: 89e4 56bd 8177 1f3e 4685 203e a3ef 5ebd
00000260: 3f9c b0bd b64f 573e 4084 ae3c 5168 1fbe
00000270: c39a 51bf 6eb6 89bc 6fc0 8fbd 3edd 743c
00000280: 413c 103e f074 7f3e 81e4 003e 6e84 143e
00000290: 33a8 afbd 7922 0c3e e101 493e 0d64 123d
000002a0: 32b3 433e 82a1 3c3e bf47 db3d 897f 843c
000002b0: 56ea 443e 333f 853d f18c f2bc 6263 2e3e
000002c0: e59e 42be 94dd 01bd a65f 293e b9c7 dabd
000002d0: 3305 a33d f233 873d a7ae be3e ba4d 743a
000002e0: c5e9 07bf aaa0 6d3e 6907 223d 5689 9b3d
000002f0: 7693 1abf 391a 19bb 5326 5a3e a98d e83d
00000300: 2736 853e 4602 013e 4011 b338 1326 763e
00000310: 0b58 893d b204 783e 492c 0dbf 2b06 cfbd
00000320: a62a 993d 1180 813d 51c3 05bc 50c4 783d
00000330: db13 103e baaa 483e 05e1 1c3d 6a33 1d3e
00000340: e513 943e cc88 3f3e d115 49bd 10bb b63d
00000350: 2ea9 07be bfa0 2f3e aa8f b73d 8ca1 57bd
00000360: eac3 583d c64a a1bd bb78 d13d 7138 233e
00000370: 9c2b 6c3e 3439 c43c d14f 3d3d 88fe 9bbb
00000380: bb19 20be 1efe 753e 5828 143e 07f2 813e
00000390: 0d90 483e 3bfe bb3d 4c7f 083d f343 733e
000003a0: 3c27 a7bd 51e9 5f3e 922f c1bd dbba b13d
000003b0: d4aa 9ebd 4427 4b3e 321a f93d 47db 663d
000003c0: f33c 87bd fd68 8d3e 1c8c aebd 2a26 e6bd
000003d0: d85c fabd 7840 7b3d 6cac 563e 3afe bf3d
000003e0: efe9 b5bd fe74 63bd 7e02 113b 102a c4bd
000003f0: 5dfb d4be 0bc7 0d3e c501 513e d97c 05be

value_stream.0.bias f4 [64]
0.40800798 0.375884 -0.028699104 -0.039175913 -0.017869847 0.3558725 0.39967495 0.3672548
-0.043882318 -0.012794068 0.3840196 0.04171763 -0.006005485 0.12917502 0.42114636 0.399641
0.3486544 0.039774917 -0.05640529 0.39196348 0.03887602 0.414154 0.38628694 -0.038142957
0.3926931 0.3908415 0.39722386 -0.011195169 -0.008468502 0.38341558 -0.025106601 0.39385784
-0.03199484 -0.031687822 -0.05600573 0.35530528 -0.05131123 -0.018473674 0.39305177 0.41324335
-0.018884433 0.38914344 0.41804036 -0.05552101 -0.0132645285 0.038489744 -0.010810478 0.4027252
0.4169902 -0.021619111 0.39865267 -0.012899606 0.0052687475 0.05511954 0.3812046 -0.05421304
-0.012194906 0.0 -0.028703393 0.35934514 0.058709696 -0.036195595 -0.02761607 0.028027648
00000000: 6ce6 d03e de73 c03e 621a ebbc ec76 20bd
00000010: c963 92bc ec34 b63e 32a2 cc3e d208 bc3e
00000020: f2bd 33bd 369e 51bc 389e c43e 1be0 2a3d
00000030: a9c9 c4bb 7546 043e 7fa0 d73e bf9d cc3e
00000040: d482 b23e 06eb 223d 3c09 67bd 70af c83e
00000050: 763c 1f3d fe0b d43e 67c7 c53e ca3b 1cbd
00000060: 120f c93e 611c c83e ed60 cb3e f16b 37bc
00000070: 79bf 0abc 0c4f c43e 5cac cdbc bca7 c93e
00000080: 050d 03bd 17cb 01bd 4466 65bd 93ea b53e
00000090: b92b 52bd 1a56 97bc 153e c93e a294 d33e
000000a0: 87b3 9abc cf3d c73e 6309 d63e 006a 63bd
000000b0: 7753 59bc 6ca7 1d3d 6e1e 31bc ff31 ce3e
000000c0: bd7f d53e 901a b1bc 341c cc3e de58 53bc
000000d0: 75a5 ac3b 07c5 613d 402d c33e 7e0e 5ebd
000000e0: 25cd 47bc 0000 0000 6123 ebbc 16fc b73e
000000f0: 9479 703d d541 14bd 193b e2bc 3d9a e53c

value_stream.2.weight f4 [1, 64]
0.25963902 0.1640203 -0.24923652 0.0015710691 -0.17446975 0.23500438 0.40470874 0.14736867
-1.5697455 -0.118485756 0.20816444 -0.77634615 -0.14061312 -1.6751406 0.18232116 0.3929375
0.08540128 -0.7776208 -1.5821027 0.4067393 -0.77374315 0.2501952 0.20637988 -0.05179405
0.2921007 0.26399416 0.3339605 -0.2740107 -0.18060018 0.36559886 -0.012935296 0.2909273
-0.024146521 -0.027965123 -0.13776383 0.167583 -0.07433332 -0.11358657 0.38145977 0.34027418
-0.9185805 0.20872787 0.31607023 -0.12422462 -0.23108917 -0.62358576 -0.27662364 0.3360866
0.30258977 -1.4888234 0.37932378 -0.11788443 -1.2063215 -0.79663354 0.2620187 -0.07722443
-0.07711462 -0.22217159 -0.17014764 0.4758903 -0.71626425 -0.1890618 -0.10339584 -0.6607745
00000000: 68ef 843e f0f4 273e dc37 7fbe 55ec cd3a
00000010: 33a8 32be fda4 703e fc35 cf3e d0e7 163e
00000020: 6ced c8bf a9a8 f2bd 0f29 553e 9fbe 46bf
00000030: e3fc 0fbe 026b d6bf 66b2 3a3e 1b2f c93e
00000040: dee6 ae3d 2812 47bf 5782 cabf 2240 d03e
00000050: 0814 46bf 9619 803e 3f55 533e ff25 54bd
00000060: 398e 953e 3e2a 873e dffc aa3e 214b 8cbe
00000070: 41ef 38be c62f bb3e 90ee 53bc 6cf4 943e
00000080: edce c5bc 1d17 e5bc f611 0dbe e19a 2b3e
00000090: 113c 98bd 13a0 e8bd b24e c33e 6b38 ae3e
000000a0: 1728 6bbf c2bc 553e f5d3 a13e 7a69 febd
000000b0: a4a2 6cbe 51a3 1fbf 9da1 8dbe 8b13 ac3e
000000c0: 0ced 9a3e c491 bebf ba36 c23e 646d f1bd
000000d0: be68 9abf 2df0 4bbf 5127 863e d827 9ebd
000000e0: 45ee 9dbd f380 63be 2f3b 2ebe e5a7 f33e
000000f0: 185d 37bf 6b99 41be 33c1 d3bd 8528 29bf

advantage_stream.0.weight f4 [64, 128]
0.2209992 -0.97754073 -0.28902158 -0.2409922 0.15269266 -0.35781953 -0.0768426 0.014795754
-0.5937807 0.09013435 -0.18803282 0.06823375 -0.055138763 0.14435467 0.11082562 -0.77123684
-0.108468294 -0.08173646 -0.43716633 -0.1286667 0.15064064 -0.34843162 0.21221912 -1.0034313
0.1968317 -0.08110855 0.114551246 0.11206292 1.2647045 -0.20356983 -0.6057796 -0.81422627
0.13875632 -0.19163412 -0.32608697 -0.04512497 -0.013128988 -0.40606204 -0.24079141 0.0056495494
0.13254854 -0.113524884 0.04883637 0.26869848 -0.18433644 -0.3455654 -0.0857968 -0.5758672
1.9061896 0.036820263 0.08687602 -0.022100002 -0.31897876 -0.15761404 -0.13367052 0.063966215
-0.3024622 -0.49243125 0.03552564 0.29590344 1.1133616 0.06255223 -0.48006642 0.15016972
0.07383736 0.14934562 0.05131221 -0.26756936 -0.9986782 0.011415622 -0.02713985 0.083233066
-0.12623113 -0.10955505 0.07109844 -0.9488912 -0.22143751 0.04021656 -0.028665721 -0.1605305
-0.83979267 0.18076535 0.56532454 -0.43468416 0.16830103 -0.048570126 0.1595892 -0.09404411
-0.25195405 0.087873265 -0.7637315 -0.8468728 -0.69226867 -0.32542333 -0.097083926 -0.6214373
0.17835233 -0.21774854 0.09494938 -1.2187562 -0.37600273 0.1305979 -0.15972117 -0.1507812
0.17912535 0.023957053 -1.1434606 -0.057225406 -0.11289979 0.02738671 0.14682162 -0.15316533
-0.13668363 -0.7486878 -0.17495443 0.3644841 0.13044007 0.058712754 -0.14015914 -0.13617587
-1.0403107 -0.3566871 1.0997561 -0.08797177 0.118323565 -0.073568724 -0.39350936 -0.56382304
-0.18518695 -0.013179665 0.14959206 0.15316598 -0.043350752 -0.0065778634 -0.16812634 -0.10689675
0.0823669 -0.029852476 0.04455369 0.024381865 -0.09505638 0.14856495 0.17222981 0.025290819
0.15903579 0.04937078 0.11525331 -0.17134133 0.060135316 -0.17466538 -0.053917322 -0.17505513
0.06442172 -0.19370686 -0.055782788 -0.07085748 0.11790137 -0.17057997 -0.099824734 0.1223581
0.08169123 0.090616174 0.11187763 -0.12563515 0.04051009 -0.17911741 -0.12276992 -0.031495146
-0.093794666 0.022528699 0.02203844 0.0006615675 0.088997275 -0.028014917 0.14142352 -0.05266963
0.12363328 0.1437956 0.14006063 -0.085257195 -0.09470785 -0.14291434 -0.07003234 0.16157603
-0.046706904 -0.15171467 -0.12826195 -0.165159 -0.089014195 0.059369564 -0.123975776 -0.09863134
-0.1787485 -0.16378975 -0.09331161 -0.18725097 -0.036667556 -0.068716094 -0.08194964 -0.13496962
0.0571723 0.08182308 -0.0799039 0.0010412153 0.115172535 -0.060023572 -0.10458022 0.11562709
-0.10008292 -0.1044096 0.122878425 0.0076833647 -0.13464223 0.035026446 0.05041805 0.16237877
-0.106697075 0.08935593 -0.08117415 -0.008165223 -0.1787589 -0.16826758 0.09072993 -0.04522825
0.074041374 -0.1556254 0.09803577 -0.12029448 -0.12310912 0.13143104 -0.11072384 -0.120377526
-0.1514779 0.06814251 -0.029529693 -0.043512724 0.05134722 -0.08661391 0.03447429 -0.12610053
-0.042647522 0.04293495 0.040439446 0.12288504 0.17171684 0.113165006 -0.12715937 -0.14394747
-0.08525786 -0.04555329 0.17353891 0.026691606 -0.027382018 0.12544772 0.018188242 0.12583335
00000000: 9d4d 623e 1c40 7abf a3fa 93be a9c6 76be
00000010: 775b 1c3e 1f34 b7be a75f 9dbd e469 723c
00000020: 0302 18bf 5c98 b83d ad8b 40be 23be 8b3d
00000030: 2fd9 61bd b6d1 133e 8bf8 e23d c76f 45bf
00000040: a024 debd 7265 a7bd 44d4 dfbe 34c1 03be
00000050: 8a41 1a3e a165 b2be f84f 593e 7070 80bf
00000060: 408e 493e 3d1c a6bd d899 ea3d 3f81 e53d
00000070: d6e1 a13f 9c74 50be 5f14 1bbf 2271 50bf
00000080: 2316 0e3e bc3b 44be dff4 a6be f6d4 38bd
00000090: f81a 57bc 5de7 cfbe 0692 76be db1f b93b
000000a0: ceba 073e bc7f e8bd a508 483d d992 893e
000000b0: b1c2 3cbe f3ed b0be 3cb6 afbd 086c 13bf
000000c0: 05fe f33f d8d0 163d 0eec b13d 100b b5bc
000000d0: 2f51 a3be 9365 21be ede0 08be b800 833d
000000e0: 53dc 9abe f31f fcbe 5583 113d a880 973e
000000f0: a282 8e3f 621b 803d 44cb f5be 17c6 193e
00000100: 0b38 973d 0fee 183e c02c 523d dafe 88be
00000110: 60a9 7fbf 9708 3b3c 6454 debc 1976 aa3d
00000120: bc42 01be 665e e0bd 0f9c 913d 89ea 72bf
00000130: 84c0 62be 1fba 243d 60d4 eabc 1b62 24be
00000140: a7fc 56bf 8d1a 393e 1cb9 103f ec8e debe
00000150: 1b57 2c3e 78f1 46bd 5a6b 233e 339a c0bd
00000160: 1f00 81be e6f6 b33d e883 43bf a8cc 58bf
00000170: 8538 31bf e39d a6be f0d3 c6bd 8416 1fbf
00000180: fea1 363e 79f9 5ebe d274 c23d 3400 9cbf
00000190: 6e83 c0be 75bb 053e f28d 23be 6366 1abe
000001a0: a36c 373e 9541 c43c eb5c 92bf 3065 6abd
000001b0: 0138 e7bd 185a e03c 6858 163e 5fd7 1cbe
000001c0: cbf6 0bbe 01aa 3fbf 4127 33be a99d ba3e
000001d0: 1592 053e c97c 703d e185 0fbe b071 0bbe
000001e0: e728 85bf b19f b6be cfc4 8c3f 8b2a b4bd
000001f0: a053 f23d 33ab 96bd 0f7a c9be b556 10bf
00000200: a6a1 3dbe 86ef 57bc a92e 193e 8bd7 1c3e
00000210: 8f90 31bd 1e8b d7bb 5029 2cbe afec dabd
00000220: faaf a83d 2e8d f4bc ee7d 363d 7abc c73c
00000230: ebac c2bd 6921 183e 035d 303e b12e cf3c
00000240: 47da 223e 0439 4a3d ed09 ec3d 1a74 2fbe
00000250: 7350 763d 7bdb 32be 69d8 5cbd a741 33be
00000260: 89ef 833d 175b 46be 7e7c 64bd ba1d 91bd
00000270: 4676 f13d 84ac 2ebe e970 ccbd e296 fa3d
00000280: bb4d a73d f994 b93d 1920 e53d 80a6 00be
00000290: e8ed 253d 8e6a 37be cc6e fbbd 0e01 01bd
000002a0: 6b17 c0bd 1b8e b83c f589 b43c 0b6d 2d3a
000002b0: 3444 b63d 8a7f e5bc 54d1 103e 1cbc 57bd
000002c0: 7233 fd3d 273f 133e 0e6c 0f3e 539b aebd
000002d0: 30f6 c1bd 2358 12be 1e6d 8fbd 3074 253e
000002e0: bd4f 3fbd 175b 1bbe 1a57 03be 711f 29be
000002f0: 134d b6bd 802d 733d 03e7 fdbd 3aff c9bd
00000300: d909 37be 80b8 27be 281a bfbd b8be 3fbe
00000310: b830 16bd 06bb 8cbd 36d5 a7bd 7a35 0abe
00000320: 802d 6a3d dc92 a73d a8a4 a3bd 6379 883a
00000330: 94df eb3d 47db 75bd 282e d6bd e5cd ec3d
00000340: 46f8 ccbd b3d4 d5bd afa7 fb3d bcc4 fb3b
00000350: a7df 09be e477 0f3d 2883 4e3d 9f46 263e
00000360: ff83 dabd 3e00 b73d a23e a6bd 6dc7 05bc
00000370: 930c 37be 564e 2cbe 9dd0 b93d 4241 39bd
00000380: 01a3 973d 445c 1fbe fac6 c83d f45c f6bd
00000390: a220 fcbd dc95 063e 2ec3 e2bd 7e88 f6bd
000003a0: 061d 1bbe 4d8e 8b3d 41e8 f1bc 663a 32bd
000003b0: 7651 523d a262 b1bd ea34 0d3d 7f20 01be
000003c0: 2baf 2ebd 8fdc 2f3d d5a3 253d 27ab fb3d
000003d0: 8ad6 2f3e 0ec3 e73d 1136 02be f766 13be
000003e0: ac9b aebd 1696 3abd 2fb4 313e 5ba8 da3c
000003f0: 4150 e0bc 5e75 003e 82ff 943c 75da 003e

advantage_stream.0.bias f4 [64]
-0.13289608 -0.05035701 0.03519141 0.07840492 0.10259902 -0.008180151 0.02928896 0.052072372
-0.04151204 -0.114736244 0.0921725 0.0683956 0.05194911 0.020983336 -0.026338695 0.07684658
0.19104667 0.045975324 0.08863657 0.22479746 -0.05392383 -0.03338656 -0.015822306 -0.028479733
-0.043681137 0.02242781 -0.024578802 0.004285958 0.046457987 0.04537575 0.08093191 -0.021156562
0.024281217 -0.01913465 0.047954362 -0.00081900385 0.06774288 -0.035922963 0.040429227 -0.015331176
0.02703419 0.05478915 0.0035624644 0.035538126 -0.0067046606 0.035672944 0.011105109 0.03614056
-0.02677049 0.22293976 0.06634274 0.035417948 0.07321614 -0.043130886 0.13091372 0.07461147
-0.04673361 -0.024698768 0.069546424 -0.03422588 0.08451315 0.052569207 0.036857557 -0.02970735
00000000: e915 08be 2743 4ebd de24 103d c292 a03d
00000010: 6f1f d23d 0a06 06bc 67ef ef3c d749 553d
00000020: 8708 2abd d6fa eabd f0c4 bc3d fe12 8c3d
00000030: 97c8 543d 3fe5 ab3c 3fc4 d7bc bd61 9d3d
00000040: bda1 433e 9f50 3c3d 1787 b53d 4e31 663e
00000050: 3cdf 5cbd 58c0 08bd c89d 81bc 544e e9bc
00000060: feea 32bd 87ba b73c 7c59 c9bc 3971 8c3b
00000070: bb4a 3e3d ecdb 393d a1bf a53d 8750 adbc
00000080: 67e9 c63c 45c0 9cbc cb6b 443d 6bb2 56ba
00000090: c7bc 8a3d f523 13bd 1e99 253d 9d2f 7bbc
000000a0: ce76 dd3c 966a 603d 3c78 693b 6d90 113d
000000b0: c5b2 dbbb cb1d 123d 34f2 353c 2008 143d
000000c0: c94d dbbc 524a 643e b4de 873d 6912 113d
000000d0: 58f2 953d 03aa 30bd 3f0e 063e e6cd 983d
000000e0: be6b 3fbd 1255 cabc 5b6e 8e3d 7030 0cbd
000000f0: 3b15 ad3d cf52 573d f3f7 163d d45c f3bc

advantage_stream.2.weight f4 [2, 64]
-0.36822596 0.05813019 0.16862617 0.22697006 -0.4778722 -0.75176954 -0.32526422 0.762609
0.2515037 0.15414895 0.7392744 0.29934856 -0.656257 -0.06564198 -0.035795484 0.33770218
0.8087151 0.18595931 0.26548374 -0.9409506 -0.19495966 -0.06583703 0.17751944 0.013932788
-0.21396811 0.038065664 0.1423421 -0.6439838 -0.3063845 -0.8981032 0.3452994 0.18078873
-0.08286971 0.09084699 -0.04619105 -0.85333896 0.36175975 -0.51228833 0.3467908 0.061903194
0.040131886 -0.035640024 0.5456148 1.0433735 0.01800311 0.633526 -0.8010753 -0.38049227
0.083355285 0.71060115 -0.55341005 -0.3231571 0.98906106 0.18421459 0.071461484 -0.7880249
0.2239517 0.0062545487 -0.8104087 0.13477851 0.7257743 1.0393059 0.9382629 -0.024053244
0.88738614 -0.24750187 -0.14258914 -0.45968693 0.43432224 0.69347346 -0.028040841 -0.44979382
0.03443208 -0.111855306 -0.75916624 -0.33094618 0.9404488 0.09928893 0.013226144 -0.3106781
-0.9077697 -0.25486666 -0.4361642 0.9055641 -0.14713557 0.020659832 0.022058489 -0.07919345
0.16080324 0.15184312 0.13543764 0.87196416 0.35133672 0.98922056 -0.33590224 -0.036496937
0.33204934 0.16280253 -0.33897138 0.9654286 -0.43276152 0.9790523 -0.29839134 0.069546334
0.21427992 0.4593278 -0.46888644 -0.698461 0.004188969 -1.092202 1.0122089 0.13395993
-0.21136014 -1.0166873 0.043710615 0.23224697 -0.59771425 0.2291039 -0.6626105 0.66361845
0.22753185 -0.25331905 0.8514261 -0.22990566 -0.88028216 -1.0260249 -0.6233391 -0.10921848
00000000: 1d88 bcbe ec19 6e3d 57ac 2c3e d76a 683e
00000010: aaab f4be f873 40bf 0889 a6be 583a 433f
00000020: 18c5 803e 39d9 1d3e 1641 3d3f 3744 993e
00000030: 7500 28bf 4d6f 86bd 499e 12bd 4de7 ac3e
00000040: f407 4f3f 1e6c 3e3e 7ced 873e 23e2 70bf
00000050: 81a3 47be 91d5 86bd a8c7 353e 5946 643c
00000060: 751a 5bbe beea 1b3d 21c2 113e 1fdc 24bf
00000070: 6ede 9cbe 17ea 65bf 15cb b03e ae20 393e
00000080: 98b7 a9bd fd0d ba3d d432 3dbd 6c74 5abf
00000090: 9338 b93e 5425 03bf 908e b13e 348e 7d3d
000000a0: 5561 243d 46fb 11bd 69ad 0b3f 438d 853f
000000b0: 427b 933c c32e 223f 4513 4dbf e2cf c2be
000000c0: 2db6 aa3d f5e9 353f 48ac 0dbf d974 a5be
000000d0: 1b33 7d3f c0a2 3c3e 665a 923d 00bc 49bf
000000e0: 9853 653e f5f2 cc3b f276 4fbf 6103 0a3e
000000f0: 58cc 393f fa07 853f ff31 703f 4f0b c5bc
00000100: bd2b 633f 2171 7dbe e302 12be 165c ebbe
00000110: 7c5f de3e 7a87 313f e8b5 e5bc 604b e6be
00000120: a708 0d3d 6514 e5bd b858 42bf c771 a9be
00000130: 41c1 703f ff57 cb3d 78b2 583c 3311 9fbe
00000140: 9863 68bf e27d 82be ea50 dfbe 0dd3 673f
00000150: b5aa 16be cf3e a93c 01b4 b43c 2d30 a2bd
00000160: 9ba9 243e c37c 1b3e 2ab0 0a3e 0b39 5f3f
00000170: 68e2 b33e 8f3d 7d3f 61fb abbe d07d 15bd
00000180: 5f02 aa3e b5b5 263e a88d adbe 5426 773f
00000190: eb92 ddbe 2ca3 7a3f c0c6 98be 4f6e 8e3d
000001a0: 326c 5b3e 032d eb3e e211 f0be 57ce 32bf
000001b0: 9e43 893b 46cd 8bbf 1090 813f cb2c 093e
000001c0: cb6e 58be cf22 82bf e709 333d 26d2 6d3e
000001d0: cd03 19bf 369a 6a3e d7a0 29bf e6e2 293f
000001e0: 1cfe 683e 09b3 81be 10f7 593f 646c 6bbe
000001f0: 2c5a 61bf c954 83bf 2793 1fbf f0ad dfbd

advantage_stream.2.bias f4 [2]
-0.034142762 0.034142762
00000000: 48d9 0bbd 48d9 0b3d

exp_avg f4 [128, 4]
-0.0028007182 -0.00062095677 0.0026449969 0.006240238 0.00057783106 -0.00079154444 -7.965275e-06 0.00043241744
0.0032281873 0.0021952176 0.0006973662 0.0016424634 -0.008289194 -0.0032219938 0.00037895248 -0.00097422814
-0.0023038017 -0.00041426354 -0.0008374741 -0.0019033845 -0.001582261 0.0002322305 0.00078510545 0.0007948002
-6.401933e-05 -0.00011404318 -8.818074e-05 -0.00014939868 0.00019688062 -1.3442921e-05 -8.150662e-06 -2.1664207e-05
-0.0031935466 -0.0018003596 -0.00020410199 -0.0007152254 0.00023406922 0.0019554435 0.00076564256 -5.687552e-05
6e-45 6e-45 6e-45 6e-45 8.498996e-05 -0.0034570794 -0.0013870485 -0.0019896775
-0.006103117 -0.001889195 0.000208452 -0.00011363847 -0.0031046455 -6.664789e-05 0.0030651006 0.007275488
-6e-45 6e-45 6e-45 -6e-45 -0.0003204171 -0.003445481 -0.0029737242 -0.005311379
-0.009201406 -0.0037270118 0.0003318071 -0.00074338884 -0.0010480647 -0.00083201565 -0.00020816921 -0.0004820812
0.0002219882 0.010202404 -0.009761851 -0.03881932 -0.003892446 -0.0056913313 -0.0026338988 -0.003730728
0.0002679465 -0.016027123 -0.0016594513 -0.002670593 0.00021981214 0.002414323 -0.00060449576 -0.004147594
-0.0012149028 -0.0025819298 -6.3429194e-05 -0.00022960923 -0.004803889 -0.0039073415 -0.0012410764 -0.0029667213
0.0019264116 0.0036544302 -0.0029542022 -0.011122497 3.3826567e-05 0.0022062187 -0.0019087316 -0.0074157463
0.002636266 0.002157662 -0.00076520344 -0.0021274192 -6e-45 6e-45 6e-45 6e-45
0.001101261 -6.4250664e-05 9.378238e-05 0.0004282631 4.9257505e-05 -4.6117468e-05 -4.7239855e-06 2.9430125e-06
0.00034870597 -0.0002416923 3.7358226e-05 0.0003780389 0.00050781935 0.002222201 -0.0024545742 -0.009124431
-0.00049815775 -1.6173064e-05 0.00022625588 6.6506094e-05 -0.0063427575 -0.0035015675 0.0029697185 0.0068925573
0.0033412152 0.0032609596 0.0004382286 -0.0010421604 -0.00020253389 -0.0002996529 -3.236873e-06 8.070912e-05
0.0056160083 0.003207681 8.2027924e-05 0.000878995 -0.012082499 -0.0055318 3.7700927e-05 -0.001639853
0.00037447608 -0.006040128 -0.005584061 -0.009443893 -0.0003384779 -0.0014443506 -0.0007943599 -0.0010644533
0.00053415657 -0.0011963359 -0.00051983865 -0.0004771534 0.0030586387 0.0053445036 -0.0066561187 -0.024167595
-0.0064647286 -0.031088578 -0.004100246 -0.0063328207 -9.36507e-05 -0.001284606 -0.00031525013 -0.0004025124
0.0014929157 0.0026319697 -7.177272e-05 -0.0016065522 -0.004395984 -0.0030244384 0.0014649632 0.0033078254
0.00019960286 0.00013989447 6.0143875e-06 -3.4507284e-05 -0.00017547654 -0.0008875568 0.00037514887 0.0025773568
0.01919871 0.008164618 0.004320948 0.00821322 -0.0072324853 -0.036328338 -0.003975068 -0.008822183
0.00075153937 0.0021764725 -0.0012823588 -0.0054695536 -0.0006737767 -0.0014344947 -0.0002756194 -0.0008507266
-0.0007211302 -0.0012385946 0.0003922421 0.0012141415 0.00026457856 0.0008269574 3.198257e-05 -0.0007477549
-0.005594364 -0.0032684868 0.0019433962 0.0038997065 0.00013307037 0.0029714368 -0.000768491 -0.0053914976
0.00046660512 0.00057749555 -0.000105881256 -0.0002766049 -0.00046609013 0.0015847272 0.0012982733 0.0016923582
-0.00045478385 -0.013102288 -0.00068281277 -0.0017851392 -0.00037217003 -0.0034803844 -0.0031590934 -0.005873618
0.0010848016 0.0018225439 0.00057978666 0.0009955544 0.00010218289 0.0018245691 -0.0019126557 -0.0073922058
-1.0848907e-05 0.0061937575 -0.005774236 -0.022837242 -0.0003179334 0.0012385385 0.00037962495 0.0020327272
00000000: 418c 37bb b4c7 22ba af57 2d3b e97a cc3b
00000010: 9679 173a a67f 4fba 98a2 05b7 16b6 e239
00000020: ff8f 533b a4dd 0f3b 74cf 363a ed47 d73a
00000030: 66cf 07bc 1628 53bb 24ae c639 5863 7fba
00000040: 61fb 16bb 8331 d9b9 ef89 5bba fc7a f9ba
00000050: de63 cfba e682 7339 89cf 4d3a 235a 503a
00000060: 1e42 86b8 772a efb8 aded b8b8 e7a7 1cb9
00000070: bd71 4e39 e888 61b7 d4be 08b7 88bb b5b7
00000080: d24a 51bb 0bfa ebba 3604 56b9 f77d 3bba
00000090: 7a70 7539 e626 003b 67b5 483a a08d 6eb8
000000a0: 0400 0000 0400 0000 0400 0000 0400 0000
000000b0: a33c b238 2b90 62bb a0cd b5ba 4065 02bb
000000c0: a8fc c7bb dd9e f7ba e893 5a39 3051 eeb8
000000d0: 4f77 4bbb 50c5 8bb8 dbdf 483b 3867 ee3b
000000e0: 0400 0080 0400 0000 0400 0000 0400 0080
000000f0: a8fd a7b9 94cd 61bb d0e2 42bb 140b aebb
00000100: 7ec1 16bc e240 74bb 65f6 ad39 fbdf 42ba
00000110: 375f 89ba a01b 5aba ff47 5ab9 d8bf fcb9
00000120: 81c5 6839 fc27 273c 2cf0 1fbc 0201 1fbd
00000130: 6818 7fbb 597e babb 7d9d 2cbb 3b7f 74bb
00000140: 2c7b 8c39 504b 83bc f281 d9ba 1e05 2fbb
00000150: 5f7d 6639 9e39 1e3b 0677 1eba 8ae8 87bb
00000160: 603d 9fba 9835 29bb 4a05 85b8 42c3 70b9
00000170: f169 9dbb 2809 80bb 9dab a2ba 536d 42bb
00000180: a67f fc3a 2a7f 6f3b 4a9b 41bb 223b 36bc
00000190: 00e1 0d38 3596 103b 682e faba caff f2bb
000001a0: 34c5 2c3b 9067 0d3b ef97 48ba 2c6c 0bbb
000001b0: 0400 0080 0400 0000 0400 0000 0400 0000
000001c0: 3058 903a 50be 86b8 08ad c438 8088 e039
000001d0: d899 4e38 416e 41b8 ba82 9eb6 9280 4536
000001e0: 86d2 b639 c86e 7db9 17b1 1c38 8633 c639
000001f0: 2e1f 053a 59a2 113b ecdc 20bb a37e 15bc
00000200: cd96 02ba 64ab 87b7 1a3f 6d39 3079 8b38
00000210: e8d6 cfbb 8e7a 65bb 9c9f 423b f6da e13b
00000220: 4af8 5a3b d3b5 553b 0cc2 e539 1a99 88ba
00000230: 475f 54b9 bb1a 9db9 0e39 59b6 6142 a938
00000240: 7e06 b83b f537 523b 6806 ac38 5b6c 663a
00000250: adf5 45bc 1a44 b5bb 1021 1e38 56f0 d6ba
00000260: 5455 c439 44ec c5bb 80fa b6bb 8fba 1abc
00000270: bc75 b1b9 5d50 bdba 973c 50ba 2085 8bba
00000280: a406 0c3a 5fce 9cba c845 08ba 722a fab9
00000290: 7173 483b f220 af3b 921b dabb 1ffb c5bc
000002a0: 13d6 d3bb 79ad febc 5b5b 86bb 8d83 cfbb
000002b0: 5666 c4b8 3a60 a8ba 2848 a5b9 4d08 d3b9
000002c0: f0ad c33a 207d 2c3b b084 96b8 f292 d2ba
000002d0: 300c 90bb a835 46bb 0204 c03a 1ac8 583b
000002e0: 7c4c 5139 a3b0 1239 32cf c936 eabb 10b8
000002f0: 2000 38b9 eeaa 68ba a1af c439 dfe8 283b
00000300: 9d46 9d3c e4c4 053c bd96 8d3b be90 063c
00000310: 7cfe ecbb 06cd 14bd 4a41 82bb eb8a 10bc
00000320: f402 453a 26a3 0e3b d214 a8ba f139 b3bb
00000330: 64a0 30ba a805 bcba 0281 90b9 4c03 5fba
00000340: 3b0a 3dba 5758 a2ba d8a5 cd39 d423 9f3a
00000350: 22b7 8a39 2cc8 583a 0625 0638 fb04 44ba
00000360: ed50 b7bb 1c34 56bb 8eb9 fe3a 3892 7f3b
00000370: ce88 0b39 70bc 423b 8f74 49ba 29ab b0bb
00000380: aea2 f439 1263 173a 910c deb8 4805 91b9
00000390: 8f5d f4b9 9fb6 cf3a d32a aa3a 1ed2 dd3a
000003a0: 0e70 eeb9 fbaa 56bc cafe 32ba 55fb e9ba
000003b0: d11f c3b9 2917 64bb cb08 4fbb 7b77 c0bb
000003c0: e72f 8e3a 6de2 ee3a d3fc 173a 437d 823a
000003d0: 054b d638 6126 ef3a 13b2 faba 513a f2bb
000003e0: b303 36b7 01f5 ca3b cd35 bdbb 2b15 bbbc
000003f0: 4cb0 a6b9 7556 a23a 6608 c739 8137 053b
