CartPoleHighRewardIn2026/checkpoints/checkpoint_ep500_reward18.00.pt (torch, 421167 bytes, 33 tensors)

feature_layer.0.weight f4 [128, 4]
0	0x3c9947fd	0.018711084
1	0x3ce0130a	0.027352829
2	0xbeef89ad	-0.46784726
3	0x3db40223	0.0878947
4	0x3ccbc67d	0.02487492
5	0xbc804b88	-0.015661016
6	0xbf518ef0	-0.8185873
7	0xbd956a27	-0.072956376
8	0xbe0a795f	-0.13522862
9	0xbc144651	-0.009049968
10	0xbf676f3a	-0.90404093
11	0xbdc85e8e	-0.0978366
12	0x3c7f3249	0.015575954
13	0xbdb91e2a	-0.090389565
14	0x3e9d8190	0.3076291
15	0xbd9d7fbc	-0.07690379
16	0x3ccd752c	0.025080286
17	0xbd252c75	-0.0403256
18	0x3f5c571d	0.86070424
19	0x3cf55d25	0.029951641
20	0x3e5e24e6	0.21693763
21	0x3d5dccac	0.05415027
22	0xbe8ab555	-0.2709147
23	0x3c3995ab	0.0113271875
24	0xbce2670c	-0.027637027
25	0x3afd38d1	0.0019319301
26	0x3e12cd25	0.14336069
27	0x3c5c76d9	0.01345607
28	0xbddc8ed0	-0.10769427
29	0x3d950249	0.072758265
30	0xbdecda61	-0.1156509
31	0x3da8c9e7	0.08241635
32	0xbe5bac0e	-0.21452352
33	0x3e377536	0.17915806
34	0x3e5c2ee4	0.21502262
35	0x3de170c1	0.11007834
36	0x3dc71ffd	0.09722898
37	0xbd818fdb	-0.063262664
38	0xbe6b10a6	-0.2295557
39	0xbe043429	-0.12910523
40	0x3dba88ab	0.091080986
41	0xbdd75135	-0.10513536
42	0x3d0ac08c	0.033875033
43	0xbd12d8e5	-0.035851378
44	0x3daf142e	0.08548771
45	0x3d3ed79c	0.04659234
46	0x3f31cc56	0.69452417
47	0xbbe1af68	-0.006887365
48	0xbdb58c1d	-0.08864615
49	0x3c9184fb	0.017763605
50	0x3ed708fe	0.41999048
51	0x3ba1cb27	0.0049375477
52	0xba9a4acd	-0.001177156
53	0x3cccd3ff	0.025003431
54	0xbf1dfdd2	-0.61715424
55	0x3e679d72	0.22618654
56	0x3c8463ba	0.016160835
57	0xbc3f3b31	-0.011671827
58	0xbc837a09	-0.016049402
59	0xbc2bfe4d	-0.010497642
60	0xbdb7c5cf	-0.08973276
61	0xbd7ee0d1	-0.06222612
62	0xbdc3abd8	-0.09554261
63	0xbea082d2	-0.31349808
64	0xbc5dba2f	-0.013533159
65	0xbd377d06	-0.044796966
66	0x3e8f24a9	0.27957657
67	0xbd1e6f34	-0.03868027
68	0xbe4126aa	-0.18862405
69	0x3e668b9b	0.22514193
70	0x3dc8ed9a	0.09810944
71	0x3db7a82d	0.08967624
72	0x3bb61549	0.0055567366
73	0x3c0cb1cd	0.008587313
74	0xbf633a1f	-0.8876056
75	0xbdaca9ac	-0.084308
76	0x3e7ec1e8	0.24878657
77	0xbc029683	-0.007970455
78	0x3ebaf4e5	0.36514965
79	0xbeb86051	-0.36010984
80	0x3cd8c3a0	0.026460469
81	0xbc756da4	-0.014979754
82	0xbf4e5f26	-0.80613935
83	0xbdaa388c	-0.08311567
84	0xbc376888	-0.011194356
85	0x3c30dcc8	0.010794826
86	0x3f4919d6	0.7855505
87	0x3e020753	0.12698106
88	0x3e097c79	0.13426389
89	0xbc97d63c	-0.018534772
90	0xbf158dcc	-0.5841949
91	0xbd6e6cb8	-0.05820915
92	0xbc8bce36	-0.017066102
93	0xbcd46c37	-0.025930507
94	0x3f23e89c	0.6402681
95	0xbd5e929b	-0.054339033
96	0xbce22312	-0.027604613
97	0x3c7c7d9b	0.015410806
98	0x3f4b6e1f	0.79464906
99	0x3dd3a78b	0.10334691
100	0xbc88e054	-0.01670853
101	0x3caeab03	0.02132178
102	0xbd21ebf8	-0.039531678
103	0x3d36d8a9	0.044640217
104	0xbdf6629a	-0.120305255
105	0xbc0fe149	-0.0087817395
106	0xbf1446c1	-0.5792046
107	0xbbc35bbb	-0.005961863
108	0xbd996495	-0.074898876
109	0x3d818456	0.06324069
110	0x3d3e2b48	0.046427995
111	0x3e6cc988	0.23123753
112	0x3d55ab74	0.052165464
113	0x3ddae51f	0.10688233
114	0xbe8ba14d	-0.272715
115	0xbdb2c3ae	-0.08728729
116	0xbcd62210	-0.02613929
117	0x3d06de50	0.032926857
118	0x3f6d500f	0.92700285
119	0xbd218b65	-0.039439578
120	0x3e8ea412	0.2785955
121	0xbe73cd19	-0.23808707
122	0x3ec01921	0.37519172
123	0xbbad2e20	-0.0052850395
124	0x3ccbcd0e	0.024878051
125	0x3d49032b	0.049075287
126	0x3f822c33	1.0169739
127	0x3e035ada	0.12827626
128	0x3e03758e	0.12837812
129	0xbd8b4dd9	-0.06801958
130	0x3e8a5c94	0.27023757
131	0xbe540df9	-0.20708455
132	0x3d6864ef	0.056736883
133	0xbc63373d	-0.01386815
134	0xbe54ff1b	-0.2080044
135	0xbcbd04d0	-0.023073584
136	0xba9b92c8	-0.0011869306
137	0xbe44469e	-0.19167563
138	0xbf4d21d0	-0.8012972
139	0xbe41c99b	-0.18924563
140	0x3dfa24e4	0.122140676
141	0xbd312433	-0.043247413
142	0xbda85eb8	-0.08221191
143	0x3d0e7132	0.03477592
144	0x3c15e6e2	0.009149285
145	0xbd20f23b	-0.03929351
146	0x3ec23d85	0.3793756
147	0xbe95eb5f	-0.29281136
148	0x3dacad90	0.08431542
149	0x3d644bba	0.05573628
150	0x3ee9d1a8	0.45667768
151	0x3d6dc829	0.058052216
152	0x3cfff181	0.031243088
153	0xbd05aabf	-0.03263354
154	0x3f7c56ae	0.9856976
155	0x3d9ac989	0.07557971
156	0xbddc403d	-0.1075444
157	0x3e762827	0.24038754
158	0x3f572712	0.8404399
159	0xbd9bcfc6	-0.07607989
160	0x3e43563d	0.19075866
161	0xbdae24c4	-0.08503106
162	0x3eac474d	0.33648148
163	0xbe3990a8	-0.18121588
164	0x3e6bb36f	0.23017667
165	0x3e09b30d	0.13447209
166	0xbed6d564	-0.4195968
167	0x3ddb18cf	0.10698091
168	0x3ce18583	0.027529484
169	0xbc205e74	-0.009788144
170	0xbf81334c	-1.009378
171	0xbdead5f5	-0.1146659
172	0x3d9ad6ff	0.075605385
173	0x3e2c9153	0.16852312
174	0xbe8c4792	-0.27398354
175	0x3e1cb45a	0.15303174
176	0xbc9a7fba	-0.018859733
177	0xbd592f9a	-0.053023912
178	0x3ee6cef8	0.4507978
179	0x3e4abe32	0.19799116
180	0x3cad4601	0.021151545
181	0xbdca8e73	-0.09890451
182	0xbec16dfb	-0.3777922
183	0xbdc8146f	-0.097695224
184	0x3d92e339	0.071722455
185	0xbd3e276b	-0.04642431
186	0xbd0622f3	-0.032748174
187	0x3ca9f8e1	0.020748558
188	0xbd8c4d86	-0.06850724
189	0xbe1f8e24	-0.15581566
190	0x3ed3ca54	0.41365302
191	0xbd9e2add	-0.07723019
192	0xbde13cad	-0.10997901
193	0x3d58a2ad	0.052889515
194	0xbf1b53d8	-0.6067481
195	0xbd329405	-0.043598194
196	0x3d30dba4	0.043178216
197	0xbc17e159	-0.009270036
198	0xbf83c4ae	-1.0294397
199	0xbdef419d	-0.116824366
200	0x3e57ebc9	0.21086039
201	0xbe05828e	-0.13038084
202	0x3f0a8f2a	0.541247
203	0x3dc4c989	0.09608752
204	0xbd30d3d0	-0.04317075
205	0x3d6caf2b	0.05778424
206	0xbdf8d6da	-0.12150355
207	0x3d2e8200	0.042604446
208	0x3e6bc83c	0.23025602
209	0xbbdf3598	-0.006811809
210	0xbe686523	-0.2269483
211	0xbe603107	-0.21893702
212	0xbd078b54	-0.033091858
213	0x3d9fcd5f	0.07802843
214	0x3ebd6f3d	0.3699893
215	0xbe2d2c4e	-0.16911432
216	0x3daa3f88	0.08312899
217	0xbdc00776	-0.09376423
218	0xbe4d4a4a	-0.2004787
219	0xbcfad2c0	-0.030618072
220	0xbd8ddcd7	-0.069268875
221	0x3d50ab9f	0.05094492
222	0x3f4465b8	0.7671771
223	0x3e468576	0.19386849
224	0xbce7a17e	-0.028275248
225	0xbd9071a3	-0.070529245
226	0x3da7d590	0.08195031
227	0x3e151233	0.14557724
228	0xbd5dc3e7	-0.054141905
229	0x3e05a62a	0.13051668
230	0xbec0aafc	-0.3763045
231	0x3db03a0a	0.0860482
232	0x3d4d8fcf	0.050185975
233	0xbd055344	-0.03255011
234	0xbf74adb3	-0.95577544
235	0xbe2c4272	-0.16822222
236	0x3b68d05e	0.0035524587
237	0xbd0b6e92	-0.034040995
238	0x3eb6e68b	0.35722765
239	0xbea03c3e	-0.3129596
240	0x3e37b1f7	0.17938982
241	0xbc974f2b	-0.018470367
242	0xbf3c2abc	-0.7350271
243	0xbdeaaf79	-0.1145925
244	0xbe190f7c	-0.14947313
245	0xbb54e0f0	-0.0032482706
246	0x3f3c08d0	0.73450947
247	0xbc07b7fa	-0.0082836095
248	0xbe4535cb	-0.19258802
249	0xbe03427d	-0.12818332
250	0xbe7cb297	-0.24677502
251	0xbdc15db5	-0.09441701
252	0x3b3f221a	0.0029164613
253	0xbcb7e066	-0.022445869
254	0x3f520a64	0.82047105
255	0x3d4eb915	0.050469477

feature_layer.0.bias f4 [128]
0	0xbc822dfa	-0.015891064
1	0xbe2663f6	-0.1624907
2	0xbe206120	-0.1566205
3	0x3e517d83	0.20458035
4	0xbde066da	-0.109571174
5	0xbcab793d	-0.020931834
6	0x3e39f70f	0.18160652
7	0x3e4e9b36	0.20176396
8	0xbc9c9db8	-0.019118175
9	0x3e349a60	0.17637014
10	0xbe5a90c6	-0.21344289
11	0xbd787b29	-0.06066433
12	0x3e44ad65	0.1920677
13	0x3d4444e7	0.047917273
14	0xbcea7689	-0.028620975
15	0xbe94f15f	-0.29090402
16	0x3e55f4d2	0.20894173
17	0xbe4e418c	-0.20142192
18	0xbe26fc99	-0.16307296
19	0x3d019d37	0.031644072
20	0xbe256258	-0.16150796
21	0xbe231b7b	-0.15928452
22	0xbdb0cfa4	-0.08633354
23	0x3e0ff28b	0.14057367
24	0xbe23247d	-0.15931888
25	0xbe063da4	-0.13109452
26	0xbe5e2c85	-0.2169667
27	0x3d4f146a	0.050556578
28	0xbc90e309	-0.017686384
29	0xbd7ab25a	-0.061205246
30	0xbd271c6d	-0.040798593
31	0xbdc69728	-0.096967995
32	0x3b92c54d	0.0044790865
33	0x3b2d2436	0.0026419288
34	0xbe384855	-0.17996342
35	0xbcd25d27	-0.025679184
36	0x3bb19252	0.005419054
37	0x3e20d14f	0.15704845
38	0xbe273313	-0.16328077
39	0xbe13896e	-0.14407894
40	0x3bd30b4b	0.006440555
41	0xbe82f13c	-0.25574672
42	0xbe4e1bd9	-0.2012781
43	0xbdc9e88f	-0.0985881
44	0xbe90275d	-0.28155032
45	0x3ce357b7	0.027751787
46	0xbe103565	-0.14082868
47	0x3d107deb	0.035276335
48	0x3e5ca775	0.21548255
49	0xbe54efd3	-0.2079461
50	0xbe40b6bb	-0.18819706
51	0xbd85c1cc	-0.065311044
52	0xbe6a5299	-0.22883071
53	0xbce1e248	-0.02757372
54	0x3db78ad4	0.08962026
55	0xbe304536	-0.17213902
56	0xbe5fd745	-0.21859463
57	0xbc83e855	-0.016101995
58	0xbe64b192	-0.22333363
59	0xbc63daab	-0.013907115
60	0xbe38338b	-0.17988412
61	0xbdbfaad3	-0.09358754
62	0xbee938c0	-0.4555111
63	0xbdf08c2b	-0.11745485
64	0xbe210879	-0.15725888
65	0x3e674a0f	0.22586845
66	0xbe19f480	-0.15034676
67	0x3d9dcc4c	0.07704982
68	0xbe2b1101	-0.16705705
69	0x3e0e2cbd	0.13884254
70	0xbd82d330	-0.06387937
71	0x3dcf0c64	0.10109785
72	0xbb22151c	-0.002473182
73	0x3e291027	0.16510068
74	0xbd93029e	-0.071782336
75	0xbe1580ff	-0.1459999
76	0xbe1cd878	-0.15316951
77	0x3e1bd590	0.15218186
78	0xbd92f6aa	-0.07175954
79	0x3d08024e	0.033205323
80	0xbe0aafe3	-0.13543658
81	0x3e0ac41f	0.13551377
82	0x3e2eaf61	0.17059089
83	0x3d3e1f0e	0.046416335
84	0x3ca6b85a	0.020351578
85	0x3e3f300d	0.18670674
86	0x3b113058	0.002215406
87	0xbcfb1f06	-0.030654442
88	0xbd17d434	-0.037067607
89	0xbde8f28e	-0.11374389
90	0xbe2562f2	-0.16151026
91	0xbd7421ea	-0.059602655
92	0xbdf79b37	-0.12090152
93	0x3e2226c5	0.15835102
94	0xbedd1731	-0.43181756
95	0xbe41cb34	-0.18925172
96	0xbe5be983	-0.21475796
97	0xbdc2720b	-0.09494408
98	0xbe30bb99	-0.17259063
99	0xbe4e6c92	-0.20158604
100	0x3e02e106	0.12781152
101	0x3dd51a48	0.104054034
102	0xbe2336d1	-0.1593888
103	0x3d4dcd4d	0.05024462
104	0x3dd669ae	0.104693756
105	0xbded0675	-0.11573497
106	0xbe4af455	-0.19819768
107	0xbe210e29	-0.15728058
108	0xbdc2aec3	-0.095059894
109	0xbdd07664	-0.10178831
110	0x3e0e84b5	0.13917811
111	0x3e1c5e06	0.15270242
112	0x3dbd5cca	0.09246214
113	0xbe391300	-0.18073654
114	0x3e21fada	0.15818349
115	0x3df68b61	0.12038303
116	0xbdc765b9	-0.09736199
117	0xbd853ec4	-0.06506112
118	0xbe05c219	-0.13062324
119	0x3d1e7aa1	0.038691167
120	0xbab8a01f	-0.0014085806
121	0xbddfb010	-0.10922253
122	0xbe3274bd	-0.17427345
123	0xbe64497f	-0.22293662
124	0x3ca767fb	0.020435324
125	0xbe235246	-0.15949354
126	0x3dc25e54	0.09490648
127	0xbe286f1c	-0.16448635

feature_layer.2.weight f4 [128, 128]
0	0xbe76c5e7	-0.24098931
1	0xbe1e13db	-0.15437262
2	0xbdc7470e	-0.097303495
3	0x3eb4da9f	0.35323045
4	0x3ebb61cd	0.36598054
5	0x3cec7732	0.02886543
6	0x3e3b998c	0.18320292
7	0x3da7be59	0.08190603
8	0x3d0d9c2f	0.034572776
9	0xbd4ed6aa	-0.05049769
10	0x3d72a667	0.059240725
11	0x3ccd369b	0.025050452
12	0x3e56d466	0.20979461
13	0xbecc5924	-0.3991176
14	0x3e006d9c	0.12541813
15	0xbe8f0eb7	-0.27940914
16	0x3e9d0555	0.3066813
17	0xbe029757	-0.12753044
18	0xbf2df591	-0.6795283
19	0x3d9d6ed9	0.07687158
20	0xbea4d18e	-0.32191128
21	0x3ee2da6f	0.44307277
22	0x3e74676a	0.23867574
23	0x3e96ac82	0.29428488
24	0x3ed95647	0.42448637
25	0xbe232e11	-0.15935542
26	0x3e57b36c	0.21064538
27	0xba1009a1	-0.0005494599
28	0x3e0565bb	0.13027088
29	0x3def8756	0.11695735
30	0x3e563db2	0.20921972
31	0x3f09ce76	0.5383066
32	0x3d57bf03	0.052672397
33	0xbe3a0f71	-0.18169953
34	0xbe5a1f87	-0.21301089
35	0xbc6078f0	-0.013700709
36	0xbca78aa1	-0.020451846
37	0x3e7db94c	0.24777716
38	0x3f44a0b7	0.7680773
39	0xbee57b04	-0.44820416
40	0x3d8837bf	0.06651258
41	0xbe1fb544	-0.15596491
42	0xbef32f75	-0.47497144
43	0x3c920436	0.017824274
44	0x3e661b06	0.22471246
45	0xbd80128c	-0.062535375
46	0xbdadbbce	-0.084830865
47	0x3d00fc29	0.03149048
48	0xbe3529c9	-0.17691721
49	0xbf43e190	-0.76516056
50	0x3e9ea0e8	0.30982137
51	0x3e02d7d3	0.12777643
52	0x3d50c045	0.050964613
53	0xbe1f6990	-0.15567613
54	0xbd2612db	-0.040545326
55	0x3f1927ee	0.5982655
56	0x3d733ce1	0.05938423
57	0x3d4a27a1	0.0493542
58	0xbf2c425d	-0.6728876
59	0x3d0ec9c0	0.034860373
60	0xbd3b348c	-0.04570441
61	0x3de8fae9	0.11375982
62	0xbe93aefd	-0.28844443
63	0x3ef002cd	0.46877137
64	0x3eeba337	0.4602296
65	0xbd9159fa	-0.0709724
66	0xbe83921d	-0.25697413
67	0x3e750172	0.23926333
68	0xbe7ab322	-0.24482396
69	0x3d620f23	0.055190217
70	0x3ee60270	0.44923735
71	0x3e7aa41a	0.24476662
72	0x3cc8e23e	0.024521943
73	0xbd1506cf	-0.036383446
74	0x3df6cc97	0.12050741
75	0x3f6b4d7f	0.91915125
76	0x3f516764	0.81798387
77	0x3deb06f1	0.11475933
78	0x3ecb8a2d	0.39753857
79	0x3d6413a8	0.05568281
80	0x3f314d04	0.6925814
81	0x3d53c1c3	0.051698457
82	0xbdbd7313	-0.09250464
83	0xbe00a88d	-0.12564297
84	0xbcbfa596	-0.023394387
85	0x3eb95c11	0.36203054
86	0xbe36ac84	-0.17839247
87	0xbc9435e8	-0.01809211
88	0x3e0759eb	0.13217895
89	0xbe4e9e6f	-0.20177625
90	0xbb1e7d5a	-0.0024183602
91	0x3e15bf9d	0.14623876
92	0x3e082a01	0.13297273
93	0xbc869ad1	-0.016431244
94	0x3ce80643	0.028323298
95	0xbdf073d4	-0.117408425
96	0x3dcd847f	0.10035037
97	0x3ee293e5	0.4425346
98	0xbe5601ce	-0.20899126
99	0x3efbeb8e	0.4920315
100	0x3e395ed8	0.18102586
101	0x3cbd29c5	0.023091206
102	0xbe128fd2	-0.14312676
103	0xbe62d78e	-0.2215254
104	0x3e60ec1d	0.2196507
105	0xbda1abca	-0.07894094
106	0x3f6c70a2	0.92359364
107	0xbe98b44c	-0.29825056
108	0x3e421b68	0.18955767
109	0xbd7c8d6f	-0.06165832
110	0x3d322893	0.043495726
111	0x3dce58ba	0.10075517
112	0x3e30bb52	0.17258957
113	0xbf33cfd0	-0.7023897
114	0x3d984f97	0.074370556
115	0x3cf60460	0.030031383
116	0x3d808e65	0.062771596
117	0x3c3322fa	0.010933632
118	0x3ef76a47	0.4832327
119	0xbde365ac	-0.11103377
120	0xbe38cab4	-0.18046075
121	0xbee5a7b3	-0.44854507
122	0xbe204c77	-0.15654169
123	0x3cf5a7d3	0.029987251
124	0xbc88dc6b	-0.016706666
125	0xbdf349ad	-0.11879287
126	0x3e838eeb	0.25694975
127	0xbef4378b	-0.47698626
128	0xbde249c1	-0.11049224
129	0xbebffb7e	-0.3749656
130	0xbdeb955c	-0.115030974
131	0xbbcb49eb	-0.00620388
132	0x3e0685bf	0.13136958
133	0xbd72b047	-0.059250142
134	0x3e0c7394	0.13715965
135	0x3df2a84d	0.11848507
136	0x3e1a793f	0.15085314
137	0x3e1356b8	0.1438855
138	0x3cb97116	0.022636931
139	0xbdb8126e	-0.0898789
140	0x3df8e334	0.121527106
141	0xbd97fe87	-0.07421594
142	0x3dc0addf	0.09408163
143	0xbe672de1	-0.22576095
144	0x3e2b2e5e	0.16716906
145	0x3c20879c	0.009797957
146	0xbefb3b84	-0.49068844
147	0x3d8908a2	0.066911
148	0xbf121d31	-0.5707579
149	0x3e00b95d	0.1257071
150	0xbdff925c	-0.12479088
151	0x3e04899a	0.12943116
152	0x3dec83fa	0.1154861
153	0xbc71caab	-0.014757792
154	0xbe223dc6	-0.15843877
155	0xbe3431b5	-0.17597087
156	0xbd84cbb5	-0.064841665
157	0xbd3c1f11	-0.045928065
158	0x3e36b161	0.17841102
159	0x3ce235b7	0.027613504
160	0x3ca16ca2	0.01970512
161	0x3d5fe8eb	0.054665487
162	0xbe43278b	-0.19058053
163	0xbe0729b5	-0.13199504
164	0x3d91fe83	0.071286224
165	0x3e1c1fcb	0.15246503
166	0xbe7d9d0c	-0.2476694
167	0xbd85903b	-0.065216504
168	0xbc349fa9	-0.011024394
169	0xbe1bbe4a	-0.15209308
170	0xbed7d3e0	-0.42153835
171	0xbdce3a44	-0.10069707
172	0x3dc8229e	0.09772228
173	0x3da8771d	0.08225844
174	0xbd9d515d	-0.076815344
175	0x3de839fd	0.113391854
176	0xbc988a59	-0.018620657
177	0xbf339e78	-0.7016368
178	0x3db67303	0.089086555
179	0x3cc0902c	0.023506247
180	0xbd9c7729	-0.076399155
181	0xbdd870e8	-0.1056841
182	0x3cea0b04	0.028569706
183	0xbd2779ed	-0.04088776
184	0x3e124ebd	0.14287849
185	0x3df3adc8	0.118983805
186	0xbef05823	-0.46942243
187	0x3df6a3a2	0.12042929
188	0xbe95bfa4	-0.29247773
189	0xbd25d30f	-0.040484484
190	0xbf574878	-0.84094954
191	0x3c456dba	0.012050087
192	0xbd80db9e	-0.06291889
193	0xbcb5b72d	-0.022182072
194	0xbeaa4a28	-0.33259702
195	0xbda8de14	-0.08245483
196	0xbe62ddea	-0.22154966
197	0x3e174e19	0.14775886
198	0x3db0b458	0.08628148
199	0x3da35e87	0.07977014
200	0xbd1b76b7	-0.037955012
201	0x3d9e3825	0.077255525
202	0x3e0c7218	0.13715398
203	0xbd6b3aa4	-0.05742897
204	0xbc908c06	-0.017644893
205	0x3e070d43	0.13188653
206	0x3e386601	0.18007661
207	0xbe941d4e	-0.28928608
208	0xbde13af2	-0.10997571
209	0xbd82c7ef	-0.063857906
210	0x3d05daa8	0.03267923
211	0xbe16581b	-0.14682047
212	0x3d0a85b1	0.033818904
213	0x3de65af8	0.1124782
214	0xbd81a126	-0.06329565
215	0xbe1bca54	-0.15213901
216	0xbdc784ef	-0.09742152
217	0xbd7b50c0	-0.061356306
218	0x3e679f70	0.22619414
219	0x3e077770	0.13229156
220	0x3e1165b5	0.14198954
221	0xbe1a72aa	-0.15082803
222	0xbf10b4ae	-0.56525695
223	0xbe9b5e7f	-0.30345532
224	0x3d9ca2c7	0.07648235
225	0x3e1a0cb1	0.15043904
226	0xbcdcc329	-0.026948528
227	0x3e3d7e51	0.18505217
228	0xbc047511	-0.008084551
229	0x3e45b509	0.1930734
230	0x3d76d706	0.060263656
231	0xbe5df6c6	-0.21676168
232	0x3d7c6f18	0.061629385
233	0xbe2e9c3b	-0.17051785
234	0xbdb82cf2	-0.08992948
235	0xbf474449	-0.7783857
236	0x3deaa3af	0.114570014
237	0xbd65720d	-0.05601697
238	0x3d23285f	0.039833423
239	0xbac2a212	-0.0014849326
240	0x3b6b9359	0.003594598
241	0xbf30a497	-0.69001144
242	0x3cd56d6d	0.026053155
243	0x3d81df6c	0.063414425
244	0xbd077b4d	-0.033076573
245	0xbe0b5c58	-0.13609445
246	0x3e0dd26f	0.13849805
247	0xbdf6f974	-0.12059298
248	0x3b2aaa07	0.0026041286
249	0xbe34012d	-0.17578574
250	0xbe64eaae	-0.22355148
251	0xbde47ef0	-0.11157024
252	0x3d3c180f	0.04592138
253	0xbe3ebec5	-0.1862746
254	0x3ddd2f72	0.10800065
255	0xbf1935dc	-0.5984781

feature_layer.2.bias f4 [128]
0	0x3e6a8dc8	0.22905648
1	0x3e689845	0.22714336
2	0x3e7cb7f9	0.24679555
3	0x3e3bb7c1	0.18331815
4	0xbc0465cf	-0.008080914
5	0x3e79a322	0.24378636
6	0x3e6026f1	0.21889855
7	0xbce953e4	-0.028482385
8	0x3ea4ac79	0.32162836
9	0xbd575b90	-0.052577555
10	0x3e6ade29	0.2293631
11	0xbc394f8c	-0.011310469
12	0x3e64588e	0.22299406
13	0xbddb1a5f	-0.10698389
14	0xbc4a4bea	-0.012347201
15	0x3e87f3dd	0.2655324
16	0xbd5b9d09	-0.053616557
17	0xbdacef86	-0.08444123
18	0x3e865cf5	0.26242796
19	0x3e853470	0.2601657
20	0xbc2e70fd	-0.010647056
21	0x3e7d948f	0.24763702
22	0xbdaf50e2	-0.08560349
23	0x3e7ce010	0.24694848
24	0xbd2a82a0	-0.04162848
25	0x3e339d2c	0.17540425
26	0x3e4a677a	0.19766036
27	0xbc46fe03	-0.012145522
28	0xbda95eaf	-0.082700126
29	0x3e98c600	0.29838562
30	0x3ea0937e	0.31362528
31	0x3e8fa6b0	0.2805686
32	0xbcf40eef	-0.029792277
33	0x3e48fbcc	0.19627303
34	0x3e727ac7	0.23679648
35	0x3e820200	0.2539215
36	0xbdab5637	-0.083660536
37	0x3e713a7b	0.23557465
38	0x3e888533	0.26664123
39	0xbc609c94	-0.013709206
40	0xbc8f6b63	-0.01750726
41	0xbd25b2b5	-0.04045363
42	0x3dea0c9a	0.11428185
43	0x3e545d2d	0.20738669
44	0x3e2e2355	0.17005666
45	0x3e1084cc	0.14113158
46	0xbe15dcd0	-0.14635015
47	0xbcfd06bd	-0.030887002
48	0xbe101730	-0.14071345
49	0xbc73df2a	-0.014884749
50	0x3e70d748	0.23519623
51	0xbd011cd5	-0.031521637
52	0x3e7dde4e	0.24791834
53	0x3e3c9c14	0.18418914
54	0xbda15586	-0.078776404
55	0x3e7e5b5a	0.24839535
56	0xbc8297ca	-0.01594152
57	0x3e7cd908	0.24692166
58	0xbc21f06a	-0.009883979
59	0xbbd5ff25	-0.0065306597
60	0xbdc39622	-0.0955012
61	0xbcc7c528	-0.024386004
62	0xbc61afb9	-0.013774806
63	0xbdc7abca	-0.09749563
64	0x3e4ae74d	0.19814797
65	0x3e97904f	0.29602286
66	0xbd8215c6	-0.06351809
67	0x3e7f4843	0.2492991
68	0x3ea1a961	0.31574538
69	0x3e77a1a0	0.24182749
70	0xbc8c0d7e	-0.017096277
71	0x3e73a341	0.23792745
72	0xbcaa567b	-0.02079319
73	0xbc626ad6	-0.013819417
74	0x3e881303	0.26577005
75	0x3e65a51b	0.22426264
76	0x3e33c010	0.17553735
77	0x3e19952a	0.14998308
78	0xbd79c074	-0.060974553
79	0x3e108a00	0.14115143
80	0x3e7d0d36	0.24712071
81	0x3e89f2fd	0.26943198
82	0xbd99e580	-0.07514477
83	0x3e638a7a	0.22220793
84	0xbd65a754	-0.05606778
85	0x3e8b3a2c	0.2719282
86	0xbddfe002	-0.10931398
87	0xbdf5b91a	-0.11998196
88	0x3e82a3a5	0.25515476
89	0x00000000	0.0
90	0x3e71986c	0.235933
91	0x3e9af4cb	0.30264887
92	0x3e46056c	0.19338006
93	0x3e478717	0.19485126
94	0xbe3e49f3	-0.18582897
95	0x3e349780	0.17635918
96	0xbc5c3055	-0.013439258
97	0x3e8527e5	0.26007
98	0x3e7393d1	0.23786856
99	0x3e9e5860	0.309268
100	0x3e937f16	0.28807896
101	0xbd537731	-0.05162734
102	0xbe0dad98	-0.13835752
103	0x3e8d71b0	0.276258
104	0xbcb60c91	-0.022222789
105	0x3e5c4e6f	0.21514295
106	0x3e8df595	0.27726427
107	0x3e9e692a	0.3093961
108	0xbd2b3771	-0.04180092
109	0x3e64c68f	0.22341369
110	0xbdd9d524	-0.106363565
111	0xbdb0ac54	-0.08626619
112	0xbd38113f	-0.044938322
113	0x3ea7521e	0.32679838
114	0xbd3683a7	-0.044559147
115	0xbd42c4fa	-0.047551133
116	0xbd21c44b	-0.03949384
117	0x3e8529a3	0.2600833
118	0x3e5aeeb0	0.21380115
119	0x3e1a39f6	0.15061173
120	0x3e807596	0.2508971
121	0x3e83474e	0.2564034
122	0xbdd1107f	-0.102082245
123	0xbd109435	-0.03529759
124	0xbde8ba66	-0.11363678
125	0xbc18b34f	-0.009320094
126	0x3e9345ed	0.28764287
127	0x3e60bd71	0.21947266

value_stream.0.weight f4 [64, 128]
0	0xbe1c8510	-0.15285134
1	0x3e35872a	0.17727342
2	0x3d50e7c6	0.051002286
3	0x3d667fb1	0.05627412
4	0x3d9e1c88	0.07720286
5	0x3e8e0f93	0.27746257
6	0x3d547918	0.051873296
7	0xbd3e3729	-0.046439324
8	0x3ea9135a	0.33022577
9	0x3c032e71	0.008006678
10	0x3db25ec9	0.08709485
11	0x3d2256e7	0.039633658
12	0x3d0ae571	0.03391022
13	0xbfa04c7e	-1.2523344
14	0xbe07d890	-0.13266206
15	0x3e5ccd2f	0.21562646
16	0x3da98938	0.082781255
17	0x3dbbc88e	0.09169112
18	0xbb837cea	-0.0040126937
19	0x3e934388	0.2876246
20	0x3e350ab8	0.1767987
21	0x3dee1eaa	0.116269425
22	0xbf8bddbe	-1.0927045
23	0x3e03633f	0.12830828
24	0x3d8475c5	0.06467775
25	0xbd9d6437	-0.0768513
26	0x3cf0ff44	0.029418595
27	0xbdac7bda	-0.0842206
28	0xbe6964de	-0.22792384
29	0x3e954a0c	0.29158056
30	0x3e300e47	0.17192946
31	0x3d1a6291	0.037691657
32	0x3e2c8498	0.16847456
33	0x3d891d55	0.06695048
34	0x3dba2a80	0.090901375
35	0x3dac09bd	0.08400295
36	0xbdeb6163	-0.114931844
37	0x3d3260bb	0.04354928
38	0x3e0bb24f	0.13642238
39	0xbd5fbaa4	-0.054621354
40	0x3e0047fe	0.12527463
41	0x3c8d787c	0.017269365
42	0x3dc7efda	0.09762545
43	0x3e6d124d	0.23151512
44	0xbc9d3d47	-0.019194258
45	0x3e479810	0.19491601
46	0xbe189fc7	-0.149047
47	0xbe5b94a6	-0.21443424
48	0xbf9c4cd1	-1.2210943
49	0x3df20058	0.11816472
50	0x3e0d8c26	0.13822994
51	0xbd335549	-0.043782506
52	0x3e723778	0.23653972
53	0xbd7ca44c	-0.061680123
54	0x3d99e401	0.075141914
55	0x3e56b770	0.20968413
56	0xbdc13fbb	-0.09435984
57	0x3cada2fb	0.02119588
58	0xbd84ac54	-0.064781815
59	0xbda195ed	-0.07889924
60	0xbf17adfe	-0.59249866
61	0xbd4d7790	-0.05016285
62	0xbf17e251	-0.59329706
63	0xbf5ca42f	-0.86188024
64	0x3e16ee92	0.14739445
65	0x3e15e4da	0.14638081
66	0xbb2d6fba	-0.00264643
67	0xbdcdd337	-0.10050052
68	0x3de9b44d	0.11411343
69	0x3bef1e83	0.0072973385
70	0xbd3505ad	-0.044194866
71	0xbaeddbd1	-0.0018147175
72	0x3b8877d2	0.0041646743
73	0xbcc7a926	-0.024372648
74	0xbd46bc95	-0.04851969
75	0x3e45a4d0	0.19301152
76	0x3e355f39	0.17712106
77	0x3db60f5e	0.0888965
78	0x3dcd7424	0.10031918
79	0x3d7769fe	0.060403816
80	0x3df2ab95	0.11849133
81	0xbdf46579	-0.11933417
82	0xbf469aa3	-0.77579707
83	0x3e7691b4	0.24079019
84	0xbda1e38b	-0.079047285
85	0x3e7d8f83	0.24761777
86	0xbf1e28f2	-0.6178123
87	0xbed5b295	-0.4173781
88	0x3d6efd15	0.058346827
89	0xbdca8c8c	-0.098900884
90	0x3d193408	0.037403136
91	0x3e8f7473	0.2801853
92	0xbb816328	-0.003948588
93	0xbd7a9bba	-0.06118367
94	0xbcdb02d2	-0.026734743
95	0xbd86a4c2	-0.06574394
96	0xbd98edd0	-0.07467234
97	0x3cb21356	0.021737736
98	0xbccfd71b	-0.025371125
99	0x3c9b7126	0.018974852
100	0x3e58483f	0.2112131
101	0x3c58d788	0.01323498
102	0xbf02be0a	-0.51071227
103	0x3e992b57	0.29915878
104	0x3cdfa278	0.02729915
105	0x3e88e866	0.26739806
106	0x3e9369c4	0.2879163
107	0x3e35c4b7	0.17750822
108	0x3de3956d	0.11112485
109	0x3e813169	0.2523301
110	0xbf3be6ad	-0.7339886
111	0xbf0f3a47	-0.559483
112	0x3e0b579c	0.13607639
113	0x3e74f75d	0.23922487
114	0x3d8e79b8	0.0695681
115	0x3d1ba0c3	0.03799511
116	0xbda7ec35	-0.0819935
117	0x3e40033e	0.18751237
118	0x3d9ff991	0.07811273
119	0x3d109db4	0.035306647
120	0x3e7c8ab6	0.24662289
121	0x3e4bc761	0.19900276
122	0xbf3e2368	-0.74272776
123	0xbd1670a0	-0.0367285
124	0xbf52d489	-0.8235555
125	0x3d7771a7	0.06041112
126	0x3ed36a08	0.41291833
127	0x3c95ee86	0.018302213
128	0xbc52efa4	-0.012874518
129	0x3e40551e	0.1878247
130	0xbdc2c796	-0.09510724
131	0x3e4eaff3	0.20184307
132	0x3d272005	0.04080202
133	0x3e819135	0.25306097
134	0x3dcd98e1	0.10038925
135	0x3d698104	0.057007805
136	0xbcb2ce30	-0.021826833
137	0xbc04b262	-0.00809917
138	0x3e491c50	0.19639707
139	0xbd656f11	-0.056014124
140	0x3e78f8e7	0.24313699
141	0xbc28e3ad	-0.010308188
142	0xbd97f70f	-0.074201696
143	0x3c8bb0b8	0.01705204
144	0xbe0f0137	-0.13965307
145	0x3d1cf4da	0.038319446
146	0xbb98dbed	-0.004664889
147	0x3e5716be	0.21004769
148	0xbc5f19df	-0.013617008
149	0x3e441f74	0.19152623
150	0x3d68e7a3	0.05686153
151	0xbd2335a7	-0.03984609
152	0xbd1eb902	-0.038750656
153	0x3e2ac6f1	0.16677453
154	0x3caae563	0.020861333
155	0xbe32040b	-0.17384355
156	0xbcb93d4a	-0.022612233
157	0xbc55ee22	-0.013057264
158	0xbc0f8c97	-0.008761547
159	0x3dacd2db	0.08438655
160	0x3ddcb837	0.10777324
161	0x3d46f485	0.048573036
162	0x3d972378	0.07379812
163	0x3d601271	0.054705087
164	0xbd85f2ea	-0.06540473
165	0x3e309de2	0.17247728
166	0x3e6ffd6f	0.23436521
167	0x3d8cc671	0.06873787
168	0x3e33b456	0.17549261
169	0x3e3a7781	0.1820965
170	0x3d386c7a	0.045025326
171	0xbb32531d	-0.0027210184
172	0x3e41eb05	0.18937309
173	0x3e5be7a7	0.21475087
174	0xbbe57ade	-0.0070031723
175	0xbdb04d4d	-0.08608494
176	0xbf62b000	-0.88549805
177	0xbdaf5126	-0.085604
178	0x3e2508ad	0.16116591
179	0xbd227b04	-0.039668098
180	0x3ddbdb88	0.10735232
181	0xbc2e5988	-0.010641463
182	0x3eb23530	0.34806204
183	0xbcc5dd28	-0.024153307
184	0xbccd4c7e	-0.025060888
185	0x3e6169d6	0.2201303
186	0x3d21125c	0.03932415
187	0x3c850aac	0.01624044
188	0x3ca572e2	0.020196382
189	0x3d5e627e	0.05429315
190	0xbdc44d19	-0.09585018
191	0xbf3d457c	-0.7393415
192	0x3e7d61c6	0.24744329
193	0x3e64e882	0.2235432
194	0xbcfd7ed8	-0.030944273
195	0x3e489f6b	0.19592063
196	0x3e39c9e7	0.18143426
197	0x3e69771c	0.22799343
198	0xbe1a428c	-0.15064448
199	0xbde5e04c	-0.11224422
200	0x3d6a49c8	0.05719927
201	0x3d828bf4	0.0637435
202	0x3c9cd67c	0.019145243
203	0x3cbe91f8	0.023262963
204	0x3e2b55ac	0.167319
205	0x3e481af3	0.1954153
206	0x3d913d47	0.07091766
207	0x3e9ec8e1	0.31012633
208	0x3eae4428	0.34036374
209	0x3e219bad	0.15782042
210	0xbe94d0a7	-0.2906544
211	0x3d1c51b6	0.038163863
212	0xbe055d72	-0.13023928
213	0x3e3e7cc6	0.18602285
214	0xbf0397b5	-0.5140336
215	0xbf09a6c4	-0.5377009
216	0x3d569625	0.052389283
217	0xbdd21fd5	-0.10259978
218	0x3d957c41	0.0729909
219	0x3e754a06	0.23954019
220	0x3e185def	0.14879583
221	0xbd33047c	-0.04370545
222	0x3c8ab2c6	0.016930949
223	0xbd75afef	-0.059982236
224	0xbe06b513	-0.13155012
225	0x3e4aa7d5	0.19790585
226	0x3e75a26a	0.23987737
227	0x3e83f0ea	0.2576974
228	0x3e8b34fc	0.2718886
229	0x3b317d64	0.0027082795
230	0xbeffe977	-0.49982807
231	0x3e33b2b2	0.17548636
232	0xbe09fb15	-0.13474686
233	0x3e7d66a8	0.24746192
234	0xbd1b6ebf	-0.037947413
235	0x3e23d797	0.1600021
236	0xbcc2ec3e	-0.02379429
237	0x3e3cfe56	0.18456396
238	0x3dd6d132	0.104891196
239	0xbeb23372	-0.34804875
240	0xbd871742	-0.06596233
241	0x3e876372	0.26443058
242	0xbe20698c	-0.15665263
243	0xbbad25bd	-0.00528404
244	0xbe063c1e	-0.1310887
245	0x3e0160b6	0.12634549
246	0x3e39a293	0.18128423
247	0x3dadbcb4	0.08483258
248	0xbc9450d7	-0.018104954
249	0xbc3a76f4	-0.0113809
250	0xbd831d68	-0.06402093
251	0xbdd4646d	-0.10370717
252	0xbe516542	-0.20448783
253	0x3e193ace	0.14963838
254	0x3e8817a0	0.26580524
255	0xbd85fe70	-0.06542671

value_stream.0.bias f4 [64]
0	0x3eb0087d	0.34381476
1	0x3ea287de	0.31744283
2	0xbd18a67b	-0.037268143
3	0xbcdda0a8	-0.027054146
4	0xbcc57204	-0.024102218
5	0x3eaafe62	0.33397204
6	0x3eabb722	0.33538157
7	0x3e9bacee	0.30405372
8	0xbc808916	-0.015690368
9	0xbc1acbe5	-0.009448026
10	0x3ea4a36a	0.32155925
11	0x3d0e5e49	0.034757886
12	0xbbc4c9c0	-0.006005496
13	0xbd21b4a3	-0.03947891
14	0x3ebf3685	0.37346283
15	0x3eab735f	0.3348646
16	0x3e9ec7e9	0.31011894
17	0x3db4623d	0.088078
18	0xbc869f59	-0.016433405
19	0x3ea7b12b	0.32752356
20	0xbcb2847c	-0.02179169
21	0x3ea5b7c3	0.32366762
22	0x3ea63721	0.32463935
23	0x3d80db26	0.06291799
24	0x3ea95668	0.33073735
25	0x3ea80d42	0.32822615
26	0x3eab9a8f	0.33516356
27	0xbc288d49	-0.010287591
28	0xbcdbc21f	-0.026825963
29	0x3eaf81ae	0.34278625
30	0xbcf1b28e	-0.029504087
31	0x3ea998d3	0.33124408
32	0xbd07505a	-0.033035614
33	0xbc8bae30	-0.017050833
34	0xbcce8815	-0.025211373
35	0x3ea4808a	0.32129318
36	0xbc89e9ea	-0.016835172
37	0xbd3090e9	-0.043106947
38	0x3ebdefb4	0.3709694
39	0x3eb47c72	0.35251194
40	0x3cdc6981	0.026905777
41	0x3ea83645	0.32853904
42	0x3eaae0c0	0.33374596
43	0xbd45f2f4	-0.0483274
44	0xbcfb78e3	-0.030697292
45	0x3da31ee7	0.079648785
46	0xbc2f37d6	-0.010694465
47	0x3ead4a4f	0.33845755
48	0x3eb23410	0.34805346
49	0xbc82db7e	-0.015973803
50	0x3eab9dcd	0.3351883
51	0xbc82f8e5	-0.015987823
52	0x3c88f9c7	0.016720666
53	0x3d8a4fb3	0.06753483
54	0x3ea146ee	0.31499428
55	0xbd162120	-0.036652684
56	0xbc65a707	-0.014016873
57	0xbd01f5a3	-0.031728398
58	0xbd053514	-0.032521322
59	0x3eaf21f1	0.34205583
60	0x3cd7e893	0.026356017
61	0x3db9b398	0.09067458
62	0xbd11a808	-0.035560638
63	0x3d81623b	0.06317564

value_stream.2.weight f4 [1, 64]
0	0x3ea22146	0.3166601
1	0x3e2dd281	0.16974832
2	0xbe7d85f6	-0.24758133
3	0x3cb0140c	0.021493934
4	0xbe2e7888	-0.17038167
5	0x3e70f129	0.23529495
6	0x3ed04508	0.40677667
7	0x3e0be209	0.13660444
8	0xbe80d452	-0.25161988
9	0xbdfd7cc2	-0.12377311
10	0x3e4a6ecb	0.19768827
11	0xbf53dc0c	-0.8275764
12	0xbe0ffcc9	-0.14061274
13	0xbe482879	-0.19546689
14	0x3e48d7e7	0.1961361
15	0x3ec79f14	0.38988554
16	0x3dfccfc9	0.123443194
17	0xbf659072	-0.8967353
18	0xbe3af63f	-0.18257998
19	0x3edbdf47	0.42943785
20	0xbe6e68ef	-0.23282216
21	0x3e1b840b	0.15187089
22	0x3e535c95	0.20640786
23	0xbfbf090d	-1.4924637
24	0x3e975716	0.2955863
25	0x3e83fa16	0.25776738
26	0x3eae23f5	0.34011808
27	0xbe8d0fdd	-0.27551165
28	0xbe2a5334	-0.16633302
29	0x3e8dd452	0.2770105
30	0xbc9f1ebb	-0.019423833
31	0x3e957f63	0.2919875
32	0xbcc1ac10	-0.023641616
33	0xbd368811	-0.044563357
34	0xbe29757a	-0.1654872
35	0x3e17f67d	0.14840122
36	0xbdd87698	-0.10569495
37	0xbd1717d6	-0.036887966
38	0x3ebc2226	0.36744803
39	0x3eb74b53	0.35799655
40	0xbfabe2e8	-1.3428621
41	0x3e611fa7	0.2198473
42	0x3e6a26f1	0.22866417
43	0xbe24747b	-0.16060059
44	0xbe6bcb72	-0.23026827
45	0xbf810270	-1.0078869
46	0xbe8d9c8f	-0.27658507
47	0x3ea83ed0	0.32860422
48	0x3e984f82	0.2974816
49	0xbe94d6fa	-0.29070264
50	0x3eca0ab8	0.39461303
51	0xbdeee952	-0.11665596
52	0xbf95bd64	-1.1698422
53	0xbf50e816	-0.81604135
54	0x3e83765d	0.25676242
55	0xbd391946	-0.04519012
56	0xbd8c5242	-0.06851627
57	0xbe490969	-0.19632496
58	0xbe2b24d1	-0.16713263
59	0x3ecb7bf3	0.39743003
60	0xbf98ae43	-1.192818
61	0xbf704133	-0.93849486
62	0xbd9382a3	-0.07202651
63	0xbf44153b	-0.76594895

advantage_stream.0.weight f4 [64, 128]
0	0x3eef07ac	0.4668554
1	0x3d898852	0.06715454
2	0xbd5d98dc	-0.054100856
3	0x3e187ce1	0.14891388
4	0x3e0ff9af	0.1406009
5	0xbd927eea	-0.07153113
6	0x3e25a33d	0.16175552
7	0x3cb3becf	0.02194157
8	0xbe3ea07a	-0.18615904
9	0xbe08dffc	-0.13366693
10	0x3dcbba37	0.09947627
11	0x3d637198	0.055528253
12	0xbe4d9759	-0.20077266
13	0xbdda8784	-0.10670379
14	0x3db60612	0.088878766
15	0xbe02c653	-0.12770967
16	0xbd497088	-0.049179584
17	0xbe1902be	-0.14942452
18	0xbe90eb35	-0.2830445
19	0x3e0c4436	0.13697895
20	0x3e3a2e0a	0.18181625
21	0xbcedde43	-0.029036647
22	0x3e85d280	0.2613716
23	0xbd088420	-0.03332913
24	0x3e42414f	0.18970226
25	0xbdb270d3	-0.08712926
26	0x3eacdcbb	0.33762154
27	0x3dc44b7d	0.09584711
28	0xbb613985	-0.003436656
29	0xbe8218b4	-0.25409472
30	0xbda8eed7	-0.0824868
31	0xbcddf6f5	-0.027095297
32	0x3dedaacb	0.11604842
33	0xbed07941	-0.4071751
34	0xbfa09e9f	-1.2548407
35	0x3e38af63	0.18035655
36	0xc0099893	-2.1499374
37	0xbea1addf	-0.31577966
38	0x3e1d637b	0.1536998
39	0x3c21420e	0.009842409
40	0x3dfdfc80	0.12401676
41	0x3e20eca6	0.15715274
42	0x3d84536c	0.06461224
43	0x3ec607a1	0.38677695
44	0x3d6e454e	0.058171563
45	0xbf422fdb	-0.7585427
46	0xbdf4fa4c	-0.11961803
47	0xbebe2ea3	-0.37144956
48	0xbf45e02c	-0.77295184
49	0x3be36261	0.006939218
50	0xbe047c85	-0.12938125
51	0x3c7fcfd9	0.01561352
52	0xbcd62d2d	-0.026144588
53	0x3e9fa471	0.31180146
54	0x3c4fb9d7	0.012678585
55	0x3ea19efe	0.31566614
56	0xbe1615a9	-0.146567
57	0x3dd75a62	0.10515286
58	0x3d142aec	0.036173746
59	0xbb2c7840	-0.0026316792
60	0x3ef4a166	0.47779387
61	0x3dc92178	0.09820837
62	0xbde16462	-0.110054746
63	0x3df4d05b	0.11953803
64	0xbe13c9a1	-0.14432384
65	0x3cabd839	0.020977126
66	0xbe104a87	-0.1409093
67	0xbe0e649e	-0.1390557
68	0xbfcc0c4d	-1.5941254
69	0x3e6c393d	0.2306871
70	0xbcd4dd9b	-0.025984576
71	0x3e4399ea	0.19101682
72	0xbe10d118	-0.14142263
73	0xbdbfbbd0	-0.09361994
74	0xbced08f6	-0.028934937
75	0xbd95b8d2	-0.07310642
76	0x3e1952a6	0.14972934
77	0x3d9f870b	0.07789429
78	0xbc280b17	-0.01025655
79	0x3e7566ca	0.23964992
80	0x3e9d75e3	0.30754003
81	0x3ee3b05e	0.44470495
82	0xbecbd58c	-0.3981136
83	0x3ce9144f	0.028452067
84	0x3e106dd6	0.14104399
85	0x3e5561f1	0.20838143
86	0x3dffd7b7	0.12492316
87	0xbd124b3c	-0.03571628
88	0x3da4ffcc	0.08056602
89	0x3db3f6e6	0.087873265
90	0x3c837ff9	0.016052233
91	0xbec9811e	-0.3935632
92	0x3d485ea1	0.04891837
93	0xbd93ba20	-0.07213235
94	0xbdefa85b	-0.11702033
95	0x3d9c3cb0	0.07628763
96	0x3e1e54b8	0.15462005
97	0xbd89db03	-0.06731226
98	0xbd837747	-0.06419235
99	0xbe8c8fc5	-0.27453437
100	0xbe54c2ab	-0.20777385
101	0x3dad7c7a	0.08471008
102	0xbec95e1b	-0.3932961
103	0x3e756181	0.23962976
104	0x3e32a368	0.17445147
105	0x3e257c6d	0.16160746
106	0xbe167a3d	-0.14695068
107	0xbfcb2a0e	-1.5872209
108	0xbe0803fc	-0.1328277
109	0x3e8d2c06	0.2757265
110	0x3ecb585c	0.3971585
111	0xbe4d9bc2	-0.20078948
112	0xbe19c55d	-0.15016694
113	0xbf198209	-0.5996404
114	0xbdb41509	-0.08793075
115	0x3de96a7d	0.11397264
116	0x3da34530	0.07972181
117	0x3ea73378	0.32656455
118	0x3dbb1709	0.09135253
119	0x3e20fa96	0.15720591
120	0xbeb45976	-0.35224503
121	0xbf48547e	-0.78253925
122	0x3eca01b1	0.39454415
123	0xbdb6050c	-0.08887681
124	0x3ef68842	0.4815083
125	0xbce3784c	-0.027767323
126	0xbdf65010	-0.120269895
127	0xbe5295f7	-0.2056502
128	0xbe59b373	-0.2125986
129	0x3b166da2	0.002295353
130	0x3e0e2769	0.13882221
131	0x3e0beb62	0.1366401
132	0xbd1c8f49	-0.038222585
133	0x3cb55cf5	0.022139052
134	0xbe4df300	-0.20112228
135	0xbdef9fae	-0.11700378
136	0x3dce111f	0.10061859
137	0x3cd21147	0.025643004
138	0x3c0179c1	0.007902564
139	0x3cd37b07	0.0258155
140	0xbdff30c2	-0.12460472
141	0x3e11d7e2	0.14242509
142	0x3e2e202c	0.1700446
143	0x3d41d54a	0.04732255
144	0x3e323ba1	0.17405559
145	0x3d3bbed0	0.04583627
146	0x3dd55e40	0.104183674
147	0xbe0787f3	-0.13235454
148	0x3d7b57f2	0.061363168
149	0xbe258995	-0.16165765
150	0xbcda070d	-0.02661469
151	0xbe1baba4	-0.15202194
152	0x3d91d3dd	0.07120488
153	0xbe428f81	-0.19000055
154	0xbdb98148	-0.090578616
155	0xbd90074d	-0.070326425
156	0x3e10e630	0.1415031
157	0xbe2559ae	-0.16147491
158	0xbe07f68b	-0.13277642
159	0x3e02e491	0.12782504
160	0x3d903e73	0.07043161
161	0x3e1a5ffc	0.15075678
162	0x3df82f51	0.121184
163	0xbe0bcbc3	-0.13651948
164	0x3d626050	0.055267632
165	0xbe25f029	-0.16204895
166	0xbdd57dfd	-0.10424421
167	0xbd0fcb2a	-0.03510586
168	0xbda2bf9e	-0.07946704
169	0x3d168f48	0.036757737
170	0xbc4f909b	-0.012668754
171	0xbce06c2a	-0.027395327
172	0x3d058934	0.03260155
173	0xbd78b5fd	-0.060720433
174	0x3e241c35	0.16026385
175	0xbd49fd29	-0.049313698
176	0x3df75cf3	0.120782755
177	0x3e031a2a	0.1280295
178	0x3e04afa9	0.12957634
179	0xbdae9b53	-0.085257195
180	0xbdb9090f	-0.09034931
181	0xbe16393f	-0.14670275
182	0xbd9df273	-0.07712259
183	0x3e06311c	0.13104671
184	0xbca4c0e8	-0.020111516
185	0xbe08999f	-0.13339852
186	0xbe03e024	-0.12878472
187	0xbe16e7f2	-0.14736918
188	0xbdcdfcad	-0.1005796
189	0x3d732d80	0.059369564
190	0xbdcab605	-0.09897999
191	0xbc5c2fc1	-0.01343912
192	0xbe2b02ae	-0.16700241
193	0xbe4674b4	-0.19380456
194	0xbde047ec	-0.10951218
195	0xbe54d476	-0.20784172
196	0xbcf74ac0	-0.03018701
197	0xbdd6cbf7	-0.10488122
198	0xbdb3eb78	-0.087851465
199	0xbe0efe8b	-0.13964288
200	0x3d925df1	0.07146824
201	0x3da660d7	0.081239395
202	0xbd8af196	-0.0678436
203	0x3d26fad0	0.040766537
204	0x3e14223f	0.14466189
205	0xbd94dc7a	-0.07268615
206	0xbdd931c4	-0.10605195
207	0x3da652c9	0.08121259
208	0xbda04256	-0.078251526
209	0xbdd6375e	-0.10459779
210	0x3de5e2e1	0.11224914
211	0x3d353d1b	0.044247728
212	0xbdfa649b	-0.1222622
213	0xb98fe6ea	-0.0002744713
214	0x3e0c7642	0.13716987
215	0x3e691f68	0.22765887
216	0xbdf231d0	-0.11825907
217	0x3db7003e	0.08935593
218	0xbd562b42	-0.052287348
219	0xbb799c53	-0.0038087561
220	0xbe4bf483	-0.19917493
221	0xbe52c482	-0.20582774
222	0x3e01b308	0.12665951
223	0xbd597656	-0.05309137
224	0x3d94a3a6	0.07257776
225	0xbe190716	-0.1494411
226	0x3dbdecec	0.09273705
227	0xbdd76f1e	-0.10519241
228	0xbe1c268d	-0.15249081
229	0x3e187470	0.14888167
230	0xbe2d07a6	-0.16897449
231	0xbdfff2c5	-0.124974765
232	0xbe1ddf0f	-0.15417121
233	0x3d86fa3f	0.065906994
234	0xbc93159b	-0.017954638
235	0xbcdd7eda	-0.027038027
236	0x3d44f353	0.048083615
237	0xbdaf2cf6	-0.085534975
238	0x3cecd965	0.028912256
239	0xbd3d593c	-0.04622768
240	0xbd3454f8	-0.044026345
241	0x3d84869e	0.06470989
242	0x3d41a63b	0.04727767
243	0x3def354f	0.1168009
244	0x3e27155f	0.16316746
245	0x3db40a90	0.08791077
246	0xbdc59278	-0.09647077
247	0xbe466745	-0.19375332
248	0xbdf15da2	-0.11785437
249	0xbd4540e5	-0.04815759
250	0x3e2b4ea2	0.16729215
251	0x3cdaa5ed	0.026690448
252	0xbced0d7c	-0.028937094
253	0x3df12743	0.11775067
254	0x3cf29fc8	0.029617205
255	0x3dcf0f81	0.10110379

advantage_stream.0.bias f4 [64]
0	0x3e2ae561	0.16689064
1	0xbd0958b5	-0.033531863
2	0x3d9c7b96	0.0764076
3	0x3d2d311a	0.042283155
4	0xbd251bb7	-0.040309634
5	0x3c2e21a0	0.010628134
6	0x3cda60da	0.02665751
7	0xbc5581fc	-0.013031479
8	0xbd30b826	-0.043144368
9	0x3d90adc4	0.07064393
10	0x3db520a1	0.08844114
11	0x3dc1c121	0.094606645
12	0xbceedf0e	-0.029159095
13	0xbc6e52a4	-0.01454607
14	0xbd2d63c1	-0.04233146
15	0x3daec5cb	0.0853382
16	0x3dac0319	0.08399028
17	0xbc8fe703	-0.01756621
18	0xbc881525	-0.016611645
19	0xbcba6fba	-0.022758354
20	0xbcb76961	-0.022389116
21	0xbd553890	-0.052055895
22	0xbc2f10ce	-0.010685159
23	0xbca8f724	-0.020625658
24	0x3e08b20d	0.13349171
25	0xbd2b4785	-0.041816253
26	0xbc04afdd	-0.00809857
27	0x3bf031b6	0.0073301448
28	0x3c51b667	0.012799836
29	0xbc88f985	-0.016720543
30	0x3de047c6	0.1095119
31	0xbd27e532	-0.040990062
32	0xba95776c	-0.0011403388
33	0xbd026ac0	-0.031840086
34	0x3dd55181	0.10415936
35	0x3e2f1984	0.17099577
36	0x3e3d83f6	0.1850737
37	0x3c90137f	0.017587421
38	0x3dcb15c1	0.099162586
39	0xba1262fa	-0.00055842067
40	0xbdccc9b9	-0.09999413
41	0xbd0f9bcb	-0.035060685
42	0xbc67cfa3	-0.014148626
43	0x3d53385e	0.051567428
44	0x3db24a6a	0.087055996
45	0x3d4b3198	0.049607843
46	0x3deb92cb	0.11502608
47	0xbbd4aad6	-0.006490092
48	0xbd2052eb	-0.039141577
49	0xbd03106d	-0.031998087
50	0x3c8c9111	0.017159017
51	0x3c7ea6f5	0.015542735
52	0x3d9ac8aa	0.07557805
53	0x3df60c21	0.12014032
54	0xbd2d1955	-0.042260487
55	0xbd76f012	-0.060287543
56	0x3ba31413	0.0049767583
57	0xbc112231	-0.0088582495
58	0x3dbe280c	0.09284982
59	0x3d3df2d6	0.046374165
60	0x3d93a784	0.072096854
61	0xbd3a3598	-0.045461267
62	0xbc760093	-0.015014785
63	0x3e11e6c7	0.14248191

advantage_stream.2.weight f4 [2, 64]
0	0xbe916762	-0.28399187
1	0x3cb3023e	0.021851655
2	0x3ec32a2f	0.3811812
3	0x3f35160e	0.7073678
4	0xbe4bc18c	-0.19898051
5	0xbee544f7	-0.44779179
6	0xbf0170b6	-0.5056261
7	0x3e3e9762	0.18612435
8	0x3e87e768	0.26543736
9	0x3f4f8241	0.81058127
10	0x3e9e09a4	0.3086673
11	0x3e8b2e78	0.2718389
12	0x3e0a99b2	0.13535193
13	0xbdffff6b	-0.12499889
14	0xbcdb1175	-0.026741723
15	0x3ea8402f	0.32861468
16	0x3e1160b8	0.14197052
17	0x3de9c7c1	0.11415053
18	0x3ccbf6f3	0.024898028
19	0xbe8ebe12	-0.27879387
20	0xbe266ae3	-0.16251712
21	0xbd7201fd	-0.059083927
22	0x3e4fdc8e	0.20298979
23	0x3d803c0c	0.06261453
24	0xbfb291c5	-1.3950735
25	0x3d6e55d8	0.058187336
26	0x3dc93206	0.09823994
27	0xbe2aa942	-0.16666129
28	0xbed89cec	-0.42307222
29	0xbd67f675	-0.056631524
30	0x3ebeff73	0.37304267
31	0x3e5bf601	0.21480562
32	0xbe5fa5e1	-0.21840622
33	0x3dfd6c9e	0.12374233
34	0x3ddc6065	0.10760573
35	0xbf87ae99	-1.0600158
36	0x3e862bc6	0.2620527
37	0x3d4751a2	0.048661835
38	0x3edda002	0.4328614
39	0x3d6330ce	0.055466466
40	0xbedc4cc2	-0.43027312
41	0x3e17896e	0.14798519
42	0x3d68f3cc	0.056873128
43	0x3e8e0105	0.27735153
44	0x3e1e1308	0.15436947
45	0x3f14318c	0.578881
46	0x3f12c34c	0.5732925
47	0xbee22fc7	-0.44177076
48	0x3eede17e	0.464611
49	0xbdb720b4	-0.089417845
50	0xbf08b710	-0.5340433
51	0xbeef8d6e	-0.4678759
52	0xbf69ead4	-0.91373944
53	0xbe65d10c	-0.22443026
54	0xbe93cda4	-0.2886783
55	0xbd81ba87	-0.063344054
56	0xbd26127f	-0.040544983
57	0x3cc103da	0.023561407
58	0xbf8c23a7	-1.094838
59	0x3f73eae3	0.95280284
60	0x3f3dc931	0.7413512
61	0x3e50b500	0.20381546
62	0x3e8d9fa9	0.27660874
63	0x3ecdc7e9	0.40191582
64	0x3f4d9b60	0.8031521
65	0xbe584afd	-0.21122356
66	0xbeb5d5c1	-0.35514644
67	0xbf70a972	-0.94008553
68	0x3e1f2929	0.15543045
69	0x3ec76c3b	0.3894976
70	0x3e1bf982	0.15231898
71	0x3e01baed	0.12668963
72	0x3ca7ecd8	0.020498678
73	0xbf44ae7f	-0.7682876
74	0xbea838f4	-0.32855952
75	0xbe9b5be2	-0.3034354
76	0x3e186860	0.14883566
77	0x3e227437	0.15864645
78	0x3b88b842	0.004172356
79	0xbe9a6a1f	-0.3015909
80	0xbe76cf1a	-0.2410244
81	0xbe3b732f	-0.18305658
82	0xbe4845da	-0.19557896
83	0x3e793f5f	0.2434058
84	0xbe37e353	-0.17957811
85	0x3c63d921	0.013906748
86	0xbb5f9c6d	-0.0034120337
87	0xbe02f1ba	-0.12787524
88	0x3fabc3a5	1.3419081
89	0x3e06e1e0	0.13172102
90	0x3e37d94c	0.17953986
91	0x3eca0e7c	0.39464176
92	0x3eefa0ee	0.46802467
93	0x3e174bf1	0.14775063
94	0xbeba2fc3	-0.36364564
95	0xbd9069a1	-0.07051397
96	0x3eef6705	0.46758285
97	0x3e050661	0.12990715
98	0xbefc4bff	-0.4927673
99	0x3f96078d	1.1721054
100	0xbeaa861e	-0.33305448
101	0x3ed610b1	0.4180961
102	0xbec4d828	-0.38446164
103	0x3d9b9d0d	0.075983144
104	0x3f2f4732	0.6846801
105	0x3e8d28dc	0.27570236
106	0x3ca2ac42	0.01985753
107	0x3d8a5dd5	0.06756178
108	0xbe07596c	-0.13217705
109	0xbf84ce9d	-1.0375553
110	0xbeb96ca4	-0.362157
111	0x3e47eb99	0.19523467
112	0xbf17b5ce	-0.59261787
113	0xbe5dde0a	-0.21666732
114	0x3cc7833d	0.024354571
115	0x3ec1017e	0.3769645
116	0x3fa70cc6	1.3050773
117	0x3f2343e0	0.63775444
118	0xbe9add51	-0.30246976
119	0xbd7a1b01	-0.06106091
120	0x3efbeb4d	0.49202958
121	0xbe8a8f7a	-0.2706259
122	0x3f9163a5	1.1358534
123	0xbf86227e	-1.0479276
124	0xbf655759	-0.89586407
125	0xbe431b9c	-0.19053501
126	0x3d1cee6d	0.038313318
127	0xbf090230	-0.5351896

advantage_stream.2.bias f4 [2]
0	0x3d9cbdf6	0.0765342
1	0xbd9cbdf6	-0.0765342

exp_avg f4 [128, 4]
0	0xba268498	-0.00063521555
1	0xba42c998	-0.00074305525
2	0xb7b583de	-2.1638287e-05
3	0xb98d4899	-0.00026947705
4	0x3b1ecf25	0.0024232354
5	0xbc463730	-0.012098119
6	0xbb284c97	-0.0025680417
7	0x3a97121f	0.0011525786
8	0xba9bcb30	-0.0011886116
9	0xbb512db8	-0.003191812
10	0xb93704ac	-0.0001745398
11	0x3b18d013	0.0023317381
12	0xbac5ea30	-0.00150997
13	0xbbf24b3c	-0.0073942225
14	0xbad3a84c	-0.0016148179
15	0xbae1d84e	-0.0017230602
16	0x39bdb632	0.00036184635
17	0x3bad0977	0.0052806693
18	0x3ac9fd17	0.001541051
19	0x3a5cd268	0.0008423687
20	0xb5ab0740	-1.2742603e-06
21	0xb9bdcf15	-0.00036203177
22	0xb72251fe	-9.675043e-06
23	0x396fc49a	0.00022866056
24	0xba2d3ef0	-0.00066088047
25	0xbbb2bba6	-0.0054544983
26	0xbaafc8b3	-0.0013411253
27	0xbad60087	-0.0016327061
28	0xbb24088e	-0.0025029513
29	0xbc14babe	-0.009077726
30	0xbb0cfc7e	-0.0021512802
31	0xbb447d6e	-0.0029981988
32	0xbb398ab1	-0.0028311426
33	0xbafe137d	-0.001938447
34	0xb8895359	-6.548194e-05
35	0xb99d8ca2	-0.00030050153
36	0xbb02023b	-0.0019837755
37	0xbc450e9b	-0.012027408
38	0xbb29a2a5	-0.0025884297
39	0xb906a232	-0.00012839658
40	0x80000004	-6e-45
41	0x80000004	-6e-45
42	0x80000004	-6e-45
43	0x00000004	6e-45
44	0xbb1cf7bc	-0.0023951372
45	0xba05dc46	-0.00051063707
46	0x3a9ce62d	0.0011970453
47	0x3b6b80b0	0.0035934858
48	0x3a3eb99c	0.0007275583
49	0xb9d7fe28	-0.00041197357
50	0xba39de16	-0.00070902833
51	0xbb0e7731	-0.0021738524
52	0xbb1ef1d6	-0.0024253032
53	0xbb837fa6	-0.0040130196
54	0xb9f195e8	-0.0004607879
55	0xb9f33c8e	-0.00046393689
56	0x80000004	-6e-45
57	0x80000004	-6e-45
58	0x80000004	-6e-45
59	0x80000004	-6e-45
60	0xba5cd564	-0.00084241317
61	0xbb4c7774	-0.003119913
62	0x39fdbc06	0.0004839601
63	0x3b90bdb9	0.004417148
64	0xbb3ff712	-0.0029291552
65	0xbc1e8f0a	-0.009677658
66	0xbafd3c61	-0.0019320362
67	0xbb0149a4	-0.001972773
68	0x392b43a2	0.00016333026
69	0x39d8aa0c	0.00041325425
70	0x37a6e8a1	1.9897068e-05
71	0xb8d8ba77	-0.000103344144
72	0x3b65798b	0.0035015072
73	0xbb8abe7e	-0.004234134
74	0xba8491dc	-0.001011427
75	0x3b0592dc	0.0020381724
76	0x39e96374	0.00044515321
77	0xbbb3d4b1	-0.0054880013
78	0xbb095efe	-0.002096116
79	0xbb208bec	-0.0024497462
80	0x3acee3d4	0.0015784451
81	0xbcac6dcd	-0.02104845
82	0xbb8dfa1c	-0.004332794
83	0x3a931864	0.0011222479
84	0xb93be308	-0.00017918285
85	0x3b6904bb	0.0035555798
86	0x3a71e194	0.0009227034
87	0xb9152470	-0.00014223321
88	0xbb4d30c1	-0.0031309577
89	0xbba3c5aa	-0.0049979286
90	0xb98b39db	-0.00026555252
91	0x3a7b12fe	0.000957772
92	0x3ad23825	0.0016038461
93	0x3b027402	0.0019905572
94	0x3941829c	0.0001845457
95	0xb9ac4e0b	-0.00032864543
96	0x3ac6694e	0.0015137584
97	0x3c2ce620	0.010552913
98	0x3b3578e6	0.002769047
99	0x3a2dc0a2	0.0006628131
100	0x00000004	6e-45
101	0x00000004	6e-45
102	0x00000004	6e-45
103	0x00000004	6e-45
104	0xbb3e7920	-0.0029063895
105	0x3891ec80	6.95819e-05
106	0x394edbb4	0.00019727537
107	0xb9217f1c	-0.00015401508
108	0x3822cd20	3.8814847e-05
109	0xba0e88f4	-0.0005437278
110	0xb92b037c	-0.00016309129
111	0xba3922d7	-0.00070623815
112	0x39919190	0.00027765008
113	0xba7a77ec	-0.0009554613
114	0x37f8bcf9	2.9651901e-05
115	0x3aa3990a	0.0012481522
116	0xbb02dc75	-0.0019967828
117	0x3b1f9c41	0.002435461
118	0x3b60ecd8	0.0034320857
119	0x3c2fbc8b	0.0107261045
120	0x3a3f1092	0.0007288541
121	0x3b2f8b44	0.002678589
122	0x3a16bff7	0.0005750651
123	0x39e145dc	0.00042967394
124	0xbaa795d9	-0.0012785747
125	0x3bb6824b	0.0055697314
126	0x3b2a3c56	0.0025975904
127	0x3b53a5eb	0.003229494
128	0x38f8f4e0	0.00011871173
129	0xba26c05e	-0.00063610624
130	0xb8bafe7d	-8.916573e-05
131	0x3a1e8a07	0.00060477894
132	0x3a9272e9	0.0011173162
133	0x3ab56053	0.0013837911
134	0x39194442	0.00014616645
135	0x396afe0d	0.0002241062
136	0x3c0a1027	0.008426703
137	0x3c0a6817	0.0084476685
138	0x39ab1cfd	0.0003263726
139	0x3b2192f1	0.0024654234
140	0xba02e5dd	-0.0004993359
141	0xb63eef24	-2.8451404e-06
142	0x391580c9	0.00014257724
143	0xb94d8316	-0.00019599157
144	0xbaada0a0	-0.0013246723
145	0xba95d853	-0.0011432267
146	0xb844b43e	-4.6897905e-05
147	0xb9934d81	-0.0002809577
148	0x3a51ac62	0.00079984043
149	0x3b8b5dad	0.0042531104
150	0x3a9bb582	0.0011879655
151	0x3a5a9de6	0.0008339569
152	0x3b352d1f	0.0027645302
153	0x3ccc7527	0.024958206
154	0x3c0d6aec	0.008631449
155	0x3c4131f2	0.011791693
156	0x398a7784	0.00026410457
157	0x3af6ac4c	0.0018819659
158	0x3a713a30	0.0009202091
159	0x3b59f0fd	0.0033255212
160	0x39012d4d	0.00012319275
161	0xb9a4fc45	-0.00031468473
162	0xb8ef4b64	-0.00011410451
163	0x37dd794f	2.6401742e-05
164	0xbb7dd1fa	-0.0038729892
165	0xbba6353d	-0.0050722645
166	0xb9122126	-0.00013935994
167	0x3a69bda8	0.00089165056
168	0x3b1831d7	0.0023223066
169	0xbb7b885a	-0.0038380832
170	0xbaa663b4	-0.0012694509
171	0xb9516520	-0.00019969465
172	0x39869954	0.0002567271
173	0xba2bec6f	-0.00065583637
174	0xb924cdef	-0.00015716975
175	0x3925a568	0.00015797245
176	0x3983dfc6	0.0002515299
177	0x3999cf31	0.00029336804
178	0x38c0ad29	9.187527e-05
179	0xb9cd31d5	-0.00039137775
180	0xbb5fa66b	-0.0034126292
181	0xbbd6c223	-0.0065539046
182	0xb9fc70ed	-0.00048149322
183	0x3a3e4b67	0.00072591606
184	0x20c02a28	3.2553962e-19
185	0x1fbbf640	7.960497e-20
186	0x1f1a0944	3.2618433e-20
187	0x20afdeae	2.979351e-19
188	0xbb7d3a57	-0.003863951
189	0xbb90f67c	-0.0044239145
190	0xb9c7936d	-0.0003806608
191	0xba4796a5	-0.00076136953
192	0xbbd64701	-0.006539226
193	0xbcc684fd	-0.024233336
194	0xbbb7d921	-0.0056106006
195	0xbb892f3f	-0.0041865404
196	0x3bf1a942	0.0073749134
197	0xbada5cbc	-0.0016659717
198	0xbaa1cb4f	-0.0012343916
199	0x3b2d5c5e	0.002645276
200	0x3934d1ac	0.00017244247
201	0x3a5dfa2c	0.00084677595
202	0x390aff02	0.00013255703
203	0xba811f72	-0.000985129
204	0x00000004	6e-45
205	0x00000004	6e-45
206	0x00000004	6e-45
207	0x00000004	6e-45
208	0xbb605f99	-0.0034236668
209	0xbb8f4361	-0.004372046
210	0xb9c6a723	-0.0003789003
211	0xb9b3c06a	-0.000342849
212	0x3a9d8544	0.0012017866
213	0x3b1ea325	0.0024206128
214	0x39a37fd4	0.00031185022
215	0xb915ec6e	-0.00014297824
216	0xbb615a68	-0.0034386162
217	0xbbcf30aa	-0.00632294
218	0xba3f4f02	-0.0007297845
219	0xb9fa0b66	-0.00047692208
220	0xb8fe2460	-0.00012118439
221	0x3bae409c	0.0053177606
222	0x3ad25cef	0.0016049425
223	0x39ad2548	0.00033024908
224	0x3a275174	0.0006382682
225	0x3aa17423	0.0012317937
226	0x38968260	7.1768416e-05
227	0xb9cc22e2	-0.00038935902
228	0x3a849f52	0.0010118282
229	0xba2a838b	-0.0006504587
230	0xba09a9b5	-0.00052514236
231	0xba453290	-0.0007522488
232	0x3b17535c	0.0023090458
233	0xba9a59f9	-0.0011776082
234	0xb93c9d22	-0.00017987614
235	0x3aef6504	0.0018264358
236	0xbb217c82	-0.0024640863
237	0xbb1ccb2c	-0.002392481
238	0x38701e40	5.724863e-05
239	0xb8bc050c	-8.9654786e-05
240	0xbc98f5fb	-0.01867198
241	0xbcbea020	-0.023269713
242	0xbaa719be	-0.0012748761
243	0x39d91bd0	0.00041410187
244	0x3bc44e50	0.005990781
245	0x3c06b620	0.008222133
246	0x3ab2d7c3	0.0013644624
247	0x3b5ce788	0.003370734
248	0x3b83ecf8	0.0040260516
249	0x3ce82ffa	0.02834319
250	0x3b792188	0.003801437
251	0x3ba2b733	0.0049656867
252	0xb9ab22f7	-0.00032641712
253	0x3ba15946	0.0049239723
254	0x3ad0a12d	0.0015917175
255	0x3a6335e0	0.0008667391
