CartPoleHighRewardIn2026/checkpoints/checkpoint_ep800_reward500.00.pt (torch, 421217 bytes, 33 tensors)

feature_layer.0.weight f4 [128, 4]
00000000: 7b75 46bd 9e35 f53c f0e9 08bf d185 4c3d
00000010: e72c 7dbc f24c 893e 408c 273f 9c35 123e
00000020: 3427 82bd 8a1f 923c ad78 acbf 96f7 2cbe
00000030: d0fc 2c3c 498d 33bd ef6b d13e b384 2abd
00000040: d7e3 ae3c d680 a9bc d5d7 423f 321c 87bb
00000050: 04e9 4fbc 8517 85bb d22b 8abe 1129 2ebd
00000060: 36e2 87bc 4b2e b43c 4a16 94bc d25e 4b3b
00000070: a40a 25bd acb1 883d 19a6 cebe 013d bc3d
00000080: d68d d7bb 0ae6 0d3c 0175 ff3e 2e2f 10bc
00000090: 5fb8 133d 3df0 e3bd 9f0a 05bf 719e 14be
000000a0: 199c 013d ace2 71bd 6513 8cbf 477d 0fbe
000000b0: 0761 81bd 7917 6a3d adb7 f43e 7cf8 293c
000000c0: f06c 30bc 9e34 b4bc b30f 553e 3b13 cbbc
000000d0: d629 efbc 5099 563d 7d17 01bf e5ad 863d
000000e0: 252a 8d3a 0271 86bb 3d67 13be a547 98bb
000000f0: 838e dbbc 72ec 13bd 4448 543f 69f7 66be
00000100: 4ce6 9bbc 7048 74bb 2bd5 093f 0fe6 993d
00000110: 5d3c 46be d2df c03c 4812 45bc a117 273d
00000120: 3912 dfbc 6300 863c 8991 b4bf d565 edbd
00000130: c61b 5b3d da93 cfbd a2e6 273f 05dc ebbd
00000140: 5298 b338 0a97 203b 51a7 b3bf c16e 34be
00000150: 704e 933c 6cc1 7f3c 92fa 1b3f cf0e bf3e
00000160: 979f 843e aacd 063d 3af5 8cbd 9d42 b43b
00000170: 62ac a43c 9713 12bd f062 113f 1779 80bd
00000180: 879f 69bc ae45 8b3b 8d0e b13f 72d8 5b3e
00000190: 55b2 23bd cb71 673d e056 d33c 01c5 9f3d
000001a0: dab3 b13b 7973 34bb b173 e53d a7f7 d33b
000001b0: ac31 5dbd c1d3 bc3d 9d3f f43c f296 c93d
000001c0: c277 413e f322 243e 2d37 753f 49ce 8c3e
000001d0: 6808 0abd 6ed4 f23c 7009 f5be 6820 133d
000001e0: 2a6c 1c3e 60f4 0fbe f0a5 1a3d 5342 76bd
000001f0: debc 82bc eb3f 343c d42b ba3f 4ac1 133e
00000200: 87f5 6e3c d958 b63c 984b 4c3f f6fe 9cbe
00000210: 7097 bfbb 36a6 553c 5512 34be b505 dabb
00000220: 9ae8 bbbc 9fb1 1dbd 3da6 96bf c5aa 2cbe
00000230: a00a fb3c 4331 24bd 81fe d43e 1d18 93bc
00000240: c49b f7bc 8080 5e3c d309 9b3f 823c 6fbd
00000250: f76e 3bbd 7cee b0bd efec 063f 360d 40bc
00000260: f3e8 913d c56a 23bc 7298 9c3f 9b6a 143e
00000270: 85b5 eb3b 418c bbbc 32cc 923f a90b a2be
00000280: 229a 823d 215f c0bd 0f08 623f 49cc f0bd
00000290: 3cb5 343e 0e91 173e 64c7 803f 5681 803e
000002a0: 8d75 61be 9266 203e 1abd b1be 5906 43be
000002b0: 1713 09bd 30dc c93c 49d0 313a 6174 f13c
000002c0: 9483 8bbe 762a 883d 2b80 41bd 115e b83e
000002d0: ffeb 7bbc 56ea cabc d1f6 1dbe 96b7 79bd
000002e0: 8178 ad3d c4b8 b8bd 4eb2 ab3e d58d 1fbd
000002f0: 47de 373d 47a1 6cbd 3078 aa3e e031 e5bd
00000300: 2d79 afbd 6593 083e d414 56bf 1cb6 a43d
00000310: 6e46 1dbc c6f0 c4ba e2cc cdbf 0f47 4bbe
00000320: 77ed 493d 2289 8cbd 9e7a 633e bdfc af3d
00000330: 5e7d 993b 5cba 373b 02c7 debd a025 0bbc
00000340: 5659 8b3e f707 463e 4a3c 243f 8d9f 2f3e
00000350: 40af 8d3b 0036 5bbd fffc d73e a7e0 9cbd
00000360: 2c56 723d 5925 10bd 2fa5 e23c 35a4 69bd
00000370: 4094 43bc 3ffc 043b 6032 ba3f 82c6 123e
00000380: be96 8dbc 2b0a 9e3d 8cfe a03e 6ce0 353e
00000390: 24ed 7abd 7638 d03d 9718 10bf 9ef6 8b3d
000003a0: 598c 85bb af1a b5bb f2a7 c6bf f3e9 6abe
000003b0: f13b 0cbc 41af f539 b62a 343f e63a b1bd
000003c0: 5d91 ecbb 50b5 4abb aee4 c3bf 5f5b 42be
000003d0: e832 d0bb bce3 9f3b 51bb 8d3f b4bc f63b
000003e0: b5fe 123c ccaa 0f3c 3b3d ac3f e8e8 79bb
000003f0: bf72 393b 02bd 8539 0d62 b13f 6bcb 243e
-0.04845188 0.029932793 -0.5348196 0.049932305 -0.0154526 0.26816517 0.6544838 0.14278263
-0.06355134 0.017837305 -1.3474327 -0.16891322 0.010558322 -0.043835912 0.4090266 -0.041630458
0.021348877 -0.020691317 0.76110584 -0.004123234 -0.012689833 -0.0040616416 -0.26986557 -0.042519633
-0.016587358 0.02199473 -0.018077035 0.003103186 -0.04029335 0.06674513 -0.40361097 0.09191323
-0.0065781875 0.008660803 0.49893954 -0.008800311 0.0360645 -0.11129806 -0.5196933 -0.14513566
0.031643007 -0.05905406 -1.0943419 -0.14012633 -0.063173346 0.05715129 0.47796384 0.010374185
-0.01076816 -0.021997746 0.2080677 -0.024789443 -0.029194754 0.052392304 -0.50426465 0.065761365
0.0010770006 -0.004102827 -0.14394851 -0.0046472126 -0.026801353 -0.036114164 0.8292277 -0.22555317
-0.019030713 -0.0037274621 0.53840894 0.07514583 -0.19358964 0.023544226 -0.012028284 0.04079402
-0.027230369 0.016357606 -1.4106914 -0.115916885 0.053493284 -0.10135622 0.6558629 -0.11516575
8.563757e-05 0.0024504089 -1.4035436 -0.17620374 0.017981738 0.01561008 0.60929215 0.37315986
0.25903007 0.03291098 -0.06882711 0.005501105 0.02010173 -0.035663214 0.5679159 -0.06273096
-0.014259226 0.00425025 1.3832566 0.21469286 -0.039964993 0.056505006 0.025798261 0.078012474
0.0054230513 -0.0027534647 0.11203707 0.0064687314 -0.05400245 0.09220076 0.02981549 0.09843244
0.1889334 0.16028957 0.95787317 0.27501133 -0.033699423 0.02964231 -0.47858763 0.035919577
0.15275636 -0.14058065 0.037755907 -0.060121845 -0.0159592 0.011001567 1.4544625 0.14429203
0.0145849055 0.022259163 0.79802847 -0.3066327 -0.00584691 0.013040116 -0.17585118 -0.0066535124
-0.022938062 -0.03849947 -1.1769482 -0.16862018 0.030644715 -0.040086042 0.4160042 -0.017955834
-0.030225642 0.0135804415 1.2112373 -0.058407314 -0.04576012 -0.08639237 0.5270528 -0.0117219
0.0712451 -0.009974186 1.2234023 0.14493792 0.0071932697 -0.022894027 1.1468565 -0.3164952
0.06377055 -0.093931444 0.88293546 -0.11757714 0.1764726 0.14801428 1.0060849 0.25098675
-0.22017498 0.15664127 -0.34714586 -0.1904539 -0.03346547 0.024641126 0.0006783051 0.02947444
-0.27248824 0.06648724 -0.04724137 0.36009267 -0.01537609 -0.024769943 -0.15426184 -0.060966097
0.0847025 -0.09019616 0.33534473 -0.03895362 0.044889715 -0.057770994 0.3329482 -0.111911535
-0.08568034 0.13337477 -0.8362553 0.08042547 -0.009599311 -0.0015025369 -1.607815 -0.19851325
0.04929873 -0.068620935 0.22214743 0.08593128 0.0046841344 0.0028034663 -0.108778015 -0.008492857
0.27216595 0.19338976 0.64154494 0.17150708 0.00432387 -0.053518295 0.42185208 -0.076600365
0.05916421 -0.035191868 0.027666656 -0.057041366 -0.011937201 0.0020291952 1.4546623 0.14333537
-0.017283794 0.07716783 0.31444204 0.17761391 -0.06126131 0.10167019 -0.5628752 0.06834148
-0.0040755686 -0.0055268626 -1.5520003 -0.22940807 -0.008559213 0.00046860616 0.7037767 -0.08653812
-0.007219477 -0.0030930825 -1.5304163 -0.18980168 -0.0063537247 0.004879443 1.107279 0.0075298194
0.00897186 0.0087687485 1.3456186 -0.0038133208 0.0028297154 0.0002550856 1.3858048 0.16093223

feature_layer.0.bias f4 [128]
00000000: cc28 49be 3edd c5be 42f4 edbd fe2d febc
00000010: bcee 53be a756 25be c7d5 c7bd 707f 36be
00000020: 3c7f 00be 434a 853e a2ca dfbe c92d 91be
00000030: ea58 cdbd 01fb 16be 3f4f 2dbd bb53 1a3d
00000040: 53ad 873e 4c71 65bd 3b6a 96be a5e7 f7bd
00000050: 7b03 99be c5e7 00bf d4b2 21bf d8c4 2bbe
00000060: 2df1 9abe caa4 84be e33e f9bd fa3c 86be
00000070: 3cfe 13bf a020 34be 6d9b f6be f41e 9ebe
00000080: e1d2 233d 925a eabd 36f9 87be 2e57 20be
00000090: a9f1 f1bd cedb 353d 8501 55be 366b 9fbe
000000a0: 7d40 a3be 3b63 f6be beb0 24bf 58fa 00be
000000b0: c3d4 c4be 7fe5 2bbe 0f09 abbe e92c 7fbe
000000c0: 903b 103e ad3d a7be 55f2 eabe 8d79 59bd
000000d0: 32c1 26bf 5055 6ebe f04f 61be bb29 9abe
000000e0: 150f f3be 298b 37be fc48 b1be b701 6dbe
000000f0: 0b0b a1be b1e7 7bbe 0819 56be c356 83be
00000100: 19c1 91be cea3 423d 2a48 c7be 5506 65be
00000110: 2669 46be 5524 b23d 4530 9bbe 19c9 3abe
00000120: 4f50 dfbe c3ab 46be 2e77 53be 8a23 87be
00000130: 7ba3 8dbe 8070 aebe 8be9 0ebf 25e7 56be
00000140: ee0a 93be 6468 38be 7a71 d9bd 7318 6cbe
00000150: a76a 79be be05 17be 894b 57bf 1f9a c8bd
00000160: 3e42 2fbe b4be 46be 4f72 c3be a3ec 2ebe
00000170: 767c 31bf b414 ebbd 27e0 e2be 5224 adbe
00000180: b1db b5be dcbd 87be 2df8 9cbe e77f 86be
00000190: e35c 80be f0a6 57bd 9694 89be a8a4 cdbd
000001a0: 5786 dabd 40c9 2fbe 7499 b0be b4f3 95be
000001b0: 3d83 a4be 6a0d e8bd 0f8e 3bbe 13db b1be
000001c0: 161f 88be e188 98be 3d9b 8c3e f1b2 38be
000001d0: ab65 c2be a0be 8fbe 18c5 633d 419c 3bbe
000001e0: 7329 03bf 0f78 78be 3a5f 2bbf a299 cfbe
000001f0: 1950 93be 53d3 f5be 73b0 8bbe 2de2 92be
-0.19644469 -0.38645357 -0.11618854 -0.03102779 -0.20696539 -0.16146336 -0.09757572 -0.17822051
-0.12548536 0.2603322 -0.43709284 -0.28355244 -0.10026725 -0.14744188 -0.042311903 0.037677508
0.26499423 -0.05601625 -0.29377922 -0.121047296 -0.29885468 -0.5035365 -0.63163495 -0.16774309
-0.30262128 -0.25906974 -0.12170198 -0.26218396 -0.57809806 -0.1759057 -0.48165455 -0.3088299
0.03999603 -0.11443056 -0.2655732 -0.15658256 -0.11813671 0.044399075 -0.20801361 -0.31136483
-0.31885138 -0.48122582 -0.6433219 -0.12595499 -0.38443574 -0.16786765 -0.3340535 -0.24919476
0.14085221 -0.32664242 -0.4588801 -0.053094435 -0.6513854 -0.23274732 -0.2200315 -0.30109963
-0.47472444 -0.17924179 -0.34625995 -0.23145185 -0.31453738 -0.24600102 -0.20907986 -0.2565213
-0.28467634 0.047519498 -0.38922244 -0.22365697 -0.19376048 0.08698336 -0.30310264 -0.18240775
-0.43615958 -0.1940146 -0.20650932 -0.26394302 -0.27663788 -0.34070206 -0.5582511 -0.20986612
-0.28719276 -0.18008572 -0.10617347 -0.23056202 -0.24357091 -0.14748284 -0.8409963 -0.09795021
-0.17115113 -0.19408685 -0.38173148 -0.17082457 -0.6933054 -0.11478558 -0.4431164 -0.33816773
-0.35519174 -0.2651204 -0.30658093 -0.26269457 -0.25070867 -0.05264944 -0.26871175 -0.10041171
-0.106701545 -0.17166615 -0.34492075 -0.29287493 -0.32131377 -0.113306835 -0.1831591 -0.34737453
-0.26586217 -0.2979193 0.27462187 -0.1803701 -0.37968192 -0.28075123 0.055607885 -0.18321325
-0.5123512 -0.24264549 -0.6694218 -0.405469 -0.28772047 -0.4801279 -0.27283058 -0.28688183

feature_layer.2.weight f4 [128, 128]
00000000: b9ab 6e3d 9acc 3e3e 4f3a 803d f63a 7d3e
00000010: 7773 293e bf3c 09bd 4b40 4b3d 897d b7bd
00000020: ca44 363d 481e 2b3d 61ab d7bf 08cc 4d3d
00000030: d6ec 543d 338b 04be 6c5c 023e 9549 6b3d
00000040: 3b79 963e 316c 29be c8fd e0bf f76b 9e3e
00000050: 475f 69c0 34fa 9c3e dc02 70be 18ce 153e
00000060: 8aaa d03e 47dd 81bd 0e56 e23d 4937 73bd
00000070: fdce 5f3e 2e55 3abe 7073 cf3d 5e69 123f
00000080: 2f92 3d3e 87be 163c cfad 95be 90c2 aa3d
00000090: 669e c43e e86c d6bc 36c9 9a3c 221b d6be
000000a0: e474 ffbd 4a72 a23e f3b8 8dbd 63e6 053e
000000b0: cfc5 bd3e c3b2 0a3e c59a cbbc d674 d7bd
000000c0: ea72 60bd 2e62 9bc0 4741 263e 2ab1 ff3d
000000d0: 1503 4fbe 8a2f 47be 5710 3b3a 04de 793e
000000e0: 7f8d a03e 6a5e e03d e6dd 43c0 3449 603e
000000f0: 6e05 94c0 bf08 8c3e aaaa 643f 796f 413e
00000100: 991d 773f 672f bfbc 5eb4 333c 7065 6f3d
00000110: 444e b13e 7031 813e 7573 043f b2b0 5a3e
00000120: c7f3 43be b39d f4bc 2ecd 4c3d 480c 633f
00000130: a8b8 a63f 295f b0bd 2f5f 193d 2b35 02bd
00000140: 2840 9d3c a7e0 82bc 94ea aabd 40c2 8b3d
00000150: 4f2f 5bbd 0ac1 ad3d 913b c2be 2152 2dbd
00000160: a3cb 87bb 0003 c43a 11af 56bd ebd8 f7bb
00000170: b484 5bbf 54e5 8bba aebb 6d3e f103 adbd
00000180: e30f b63e 4f3e d83c 861b 00bf 48de be3e
00000190: 5240 283d 2086 c0bd 4d3d 453f 14d1 7c3e
000001a0: d605 b83d 4d80 213f c281 8d3f 498c 92c0
000001b0: f25d 463f 7919 e93b c5a7 b73d b231 6d3d
000001c0: 17d0 af3d c66d b2bf 88bf 2a3e d9d1 e73d
000001d0: 6833 613e 6952 20bd 8c73 af3d dc7c 913b
000001e0: 7bea 1dbe ee24 9c3e b9d0 783e 40d5 fabe
000001f0: 78ac 073e 876f ba3e 7393 633e b778 b2bf
00000200: bb52 9fbb 0a31 aabd 0bd9 ac3d 0d2d 34be
00000210: a804 853c 8f25 a2bd 6086 463d 5355 4bbd
00000220: 0635 acbc e075 033d b810 bc3b 1440 1abe
00000230: 10c4 c8bc 7155 583d 9fb6 f03d 91cc 7ebd
00000240: e4d2 e0bc 4d56 793d d6de 023e c881 18be
00000250: c4a9 40bd 2c3b 5f3d 95cd 0cbe b533 aebc
00000260: 1803 553d e69d 3cbd 4010 81be 5291 6dbe
00000270: 6727 cabd 90ce f6bd 54c8 983d 2344 91bd
00000280: ee9f eebc e8fc 763d 17ec 0c3e 07b0 0fbe
00000290: 01cb cabd fe4d 87bd aac1 92bd 5031 df3a
000002a0: 2362 bbbc 7c97 0abe 83ef 35bd e1ec 23bd
000002b0: 2e15 8e3d dde3 773e 91e5 04be 5ab1 ca3d
000002c0: 8c5f 18be 63d5 ddbc 9cdf 483c 3f54 5e3d
000002d0: 5574 4c3d dfa8 6bbe aa9e e1bc 9976 42be
000002e0: cdab 063e 35fc c93d 0d00 11be 33c5 933c
000002f0: a177 c03d 2017 1dbe 51dd c2bc c242 35be
00000300: 26ae 13be 245f b5bd ac22 80bd d7a5 47be
00000310: c19f 163c c306 a03d 7188 51bc ac0c 35bc
00000320: 7c53 42be 9744 91bd a94e 123e f09d 21bd
00000330: aa3c d13d 8314 5b3d 375a d03d fcc4 40be
00000340: 746e 97bd 857c 92bd 851d 86bd c31b 02bd
00000350: ae21 97bc 886e 48be d089 113c 8e3b 24be
00000360: 9fcb aabd 187d 493d 6544 4d3d 1e74 a53d
00000370: ad5b 563d 904d 7cbe fbd5 9e3d 7282 7dbd
00000380: b688 a4bc 4eed ce3d 5089 f13d fd92 9a3d
00000390: cdc3 32bd bc0e f63d 4d81 69be 17cf 1abe
000003a0: 9d94 a53c e0a6 1b3e 8054 ea3c 844d 37be
000003b0: c08f 8a3c 6a40 e0bd 1b83 033d 1062 02be
000003c0: 7d34 bfbd 49ad 5dbd d24e 50bd 5d2f ec3b
000003d0: e0e9 bebc d9eb 88bd d5da 26bd 3873 cdbd
000003e0: 18b6 91bd c758 cf3d 715d 5e3d 8797 54bd
000003f0: fe87 f1bc 24db 2e3e b2bf b33c e8d8 a43b
0.058269236 0.18632737 0.062611215 0.24729523 0.16547953 -0.033505198 0.04962186 -0.08959491
0.044499196 0.041776925 -1.6849176 0.050243407 0.051983677 -0.12943725 0.12730569 0.05744322
0.29389367 -0.16545178 -1.7577448 0.30941746 -3.6464403 0.3065964 -0.23438591 0.146294
0.4075511 -0.063410334 0.1105157 -0.059378896 0.21856304 -0.18196556 0.1012944 0.5719203
0.18512796 0.009200699 -0.29234168 0.08337891 0.38402098 -0.026174977 0.018894773 -0.41817576
-0.12473467 0.3172782 -0.06920042 0.13076167 0.37064978 0.13544755 -0.024854073 -0.105203316
-0.05479709 -4.855735 0.16235839 0.12484963 -0.2021602 -0.19451728 0.0007135919 0.24401098
0.31357953 0.10955508 -3.0604186 0.21902925 -4.625663 0.27350423 0.8932291 0.1889018
0.9652954 -0.023338033 0.010968296 0.058446348 0.34630024 0.2523303 0.51738673 0.21356466
-0.19135962 -0.029860353 0.050000362 0.88690615 1.3025103 -0.086119 0.03744429 -0.031788986
0.019195631 -0.015976263 -0.083455235 0.068241596 -0.053511914 0.08484085 -0.3793607 -0.042314652
-0.0041441484 0.0014954507 -0.05241305 -0.0075637004 -0.85749364 -0.0010673204 0.23216125 -0.084480174
0.35558996 0.026396899 -0.50042 0.37278962 0.041076966 -0.09400582 0.7704666 0.24689132
0.08985488 0.63086396 1.1055224 -4.5796247 0.774871 0.0071136323 0.089675464 0.05790872
0.08584612 -1.393975 0.16674626 0.11319322 0.21992266 -0.039141092 0.08566961 0.004439933
-0.15421478 0.30496925 0.24298371 -0.48990822 0.13249385 0.36413214 0.22224216 -1.3943089
-0.004862157 -0.08310135 0.08439835 -0.1759531 0.016237572 -0.0791732 0.048467994 -0.04964192
-0.021021377 0.032094836 0.0057392977 -0.15063506 -0.024507552 0.05281586 0.11753582 -0.06220681
-0.02744431 0.06087332 0.12780318 -0.14893258 -0.0470369 0.05449979 -0.13750298 -0.02126489
0.052004904 -0.04604902 -0.2520771 -0.23199967 -0.09870797 -0.120511174 0.074600846 -0.07093074
-0.029128995 0.060299784 0.13761936 -0.14031993 -0.09902001 -0.06606673 -0.07165845 0.0017028246
-0.022873944 -0.13534349 -0.04441787 -0.040020827 0.069376335 0.24208017 -0.12978198 0.098971084
-0.14880198 -0.02707929 0.012260344 0.054279562 0.04991563 -0.23013638 -0.027541477 -0.18990554
0.13151474 0.09862558 -0.14160176 0.018038368 0.093978174 -0.15340853 -0.023787173 -0.17701247
-0.14421901 -0.08856037 -0.06256613 -0.19496857 0.009193362 0.0781379 -0.012788878 -0.0110503845
-0.1897716 -0.070931606 0.14287819 -0.03945726 0.10216649 0.05348636 0.10173457 -0.18825144
-0.07394114 -0.071526565 -0.06548599 -0.031764757 -0.018448677 -0.19573414 0.008882955 -0.16038343
-0.08339619 0.049191564 0.050114054 0.08078788 0.052333523 -0.24638963 0.07755657 -0.06189198
-0.02008472 0.10103856 0.117937684 0.07547567 -0.04364376 0.12014529 -0.2280323 -0.15118061
0.020212466 0.15200377 0.028604746 -0.17900664 0.016914248 -0.10949786 0.032107454 -0.1273272
-0.09336183 -0.054120336 -0.05085642 0.0072077946 -0.02330488 -0.06685609 -0.04073604 -0.10031742
-0.0711481 0.10124355 0.05428833 -0.05190232 -0.029483791 0.17075783 0.021941993 0.00503074

feature_layer.2.bias f4 [128]
00000000: df95 043f 9952 c9bd 486c bc3e f309 afbc
00000010: f647 9cbd 0a0d b33e 79af f43e 7860 cdbc
00000020: 245e d83e 1816 99bd 5583 383e 7cb4 1fbd
00000030: 061c 013f 659c ccbe 5c4a c7bc ebaa e33e
00000040: 688e b4bc 18e6 523c f0ee 093f 2168 e73e
00000050: 3307 2dbd 45a4 d53e 5f2c 703d d2d0 fa3e
00000060: 3c51 e9bd 9298 a83e f25e f23e 8677 8abd
00000070: a317 73be f806 733e e7a5 ea3e 69fa d63e
00000080: 60c8 87bd 3df7 993e d341 0e3f 5c26 093f
00000090: 1844 ef3c 9f1b cb3e 39eb f93e bb03 87bd
000000a0: a606 89bd bdb8 33bd bbe5 8bbe 2640 553e
000000b0: d87b f53e 7c91 d63e d3f2 5dbe 09e0 4c3e
000000c0: 82fb 88bd cb25 56bc 4ecb ca3e c974 01bd
000000d0: b995 0b3f f2bd 64bd 37b1 97bd 3368 0e3f
000000e0: 39d0 83bd 06f5 a03e 5c03 adbd 835f 14bd
000000f0: 8ff1 e4be b66d a4bd 5c5a 9cbd 2185 2fbe
00000100: 75b8 5a3e 54a0 6cbd 0456 02bd af19 083f
00000110: 9117 d73e e40b f33e ba3d 8dbe 2142 0c3f
00000120: 974a 87bd b1eb 1ebd 07bb ef3e 2947 d43e
00000130: 0fdc 0c3f ffc2 853e a08a 92be 0785 e5bd
00000140: 7b0e e43e 55b8 0d3f 25fb 9cbe 4e3f dd3e
00000150: 005a 82bd cb8b 073f b559 9abe b7f3 e73e
00000160: 9365 083f d9f8 8ebd b7ec 083f 0ce7 fe3e
00000170: 73bf a23e f589 d93e 7723 9abd 2566 cf3e
00000180: 6943 2ebd 8f4f d33e 91d3 493e 1704 ed3e
00000190: 7795 e43e 876b a9bc dadc 50bd 0f1d 063f
000001a0: 55e5 4fbd b848 b43e 84ab e43e ce9f 033f
000001b0: 4cbd 6bbd 3c40 dc3e 1fc9 dbbb df0b b3be
000001c0: 44ca ebbd e5b7 e83e 4cf3 b2bd 7885 2abe
000001d0: 2cb3 3ebd a282 0f3f 2da6 d43e f3cb f23e
000001e0: a61e fc3e b0d5 e73e 7d76 00bf 2d58 c33e
000001f0: 8238 79be a8c7 bcbc a6eb e23e 3c49 033f
0.51791185 -0.098302074 0.36801362 -0.021367049 -0.07630913 0.34970886 0.47790125 -0.025070414
0.42259324 -0.07474917 0.18018849 -0.038990483 0.50433385 -0.3996307 -0.02432745 0.44466338
-0.02204056 0.012872241 0.53880215 0.45196632 -0.042243194 0.4172689 0.058636066 0.48987442
-0.11392447 0.32928902 0.47338063 -0.067610785 -0.23739485 0.23733127 0.45829698 0.41987923
-0.066300154 0.3007144 0.5556919 0.53574157 0.029207274 0.3966951 0.48812273 -0.065925084
-0.06690721 -0.043877352 -0.27323708 0.20825252 0.47946048 0.4190787 -0.21674661 0.20007338
-0.06688596 -0.013070534 0.39608234 -0.031605516 0.54525334 -0.05584521 -0.07406848 0.55627745
-0.064362 0.31436938 -0.084479064 -0.0362239 -0.44715545 -0.08028738 -0.07634422 -0.17140628
0.21359427 -0.05777009 -0.031820312 0.5316419 0.42010167 0.4747001 -0.27586156 0.54788405
-0.06606024 -0.03879899 0.46822378 0.4146054 0.5502328 0.26125333 -0.28621387 -0.112070136
0.44542298 0.55359393 -0.30660358 0.4321236 -0.063648224 0.5294768 -0.30146566 0.45303127
0.5327999 -0.06981058 0.534862 0.4978565 0.3178669 0.42488065 -0.07526296 0.40507618
-0.042544756 0.41271636 0.19709612 0.46292183 0.44645283 -0.020681156 -0.05099187 0.5238809
-0.050755817 0.3521173 0.44662106 0.5141572 -0.057553574 0.43017757 -0.006707325 -0.34969994
-0.115131885 0.454528 -0.087378114 -0.16652477 -0.04655759 0.56058705 0.41533032 0.47421226
0.49242133 0.45280218 -0.501808 0.3815321 -0.24337962 -0.023044422 0.4432041 0.5128362

value_stream.0.weight f4 [64, 128]
00000000: 37ce 4d3e 9484 823d ee58 d53c 91c1 5c3d
00000010: 209e 6e3d 5c65 733e c41a 503e 923a 853f
00000020: b1fe 7f3e af03 0f3c c2eb 0cbc a59d 963c
00000030: a41b e93d d17a a6c0 34b7 21be 673d 923e
00000040: fa84 053e 14ac 9eba f792 1f3e f4eb 903e
00000050: 2507 183e d68c 3f3e 25a9 c3be d778 763e
00000060: 7d54 4a3d f367 f0bd 8e65 113e c824 24bd
00000070: ab8b 86bf 8555 1d3e 98eb 4f3e 771f dbbc
00000080: a98d 1b3e 417c 3c3e 6db0 4d3e 3b4c 953e
00000090: 066f 4bbe dc8b a6bc 3421 813e 231d 28bd
000000a0: 6c14 163e 70a8 943b 2958 9ac0 e5c5 213e
000000b0: aa52 103e df2a 4e3e 233f 4ebf aae4 cabe
000000c0: 69df 6e3d b377 083e aeac 183e ed75 f3bd
000000d0: f225 cd3e 750d d7be 76b8 a2be fd48 d53e
000000e0: a63f 6dbd d5bc 21bd bec6 3dbd 26c6 43bd
000000f0: a9aa 8bc0 f20c 41bd e4db b7bd b83e f5be
00000100: 0283 f23e 279d a5bb a968 953e d984 a83c
00000110: afe8 ae3d a0e9 de3d bb92 e7bf 6143 153e
00000120: 28d4 1e3d b15a abbc bb55 ae3d 490a 523e
00000130: 9b04 923e d91b fc3d 5ea4 cb3d 553b 353b
00000140: a7ca 9c3e fdff db3d 3558 a0bf 8a08 813e
00000150: 13e9 5dbd 1cd9 cb3e f7f0 2cbf d6fc 853e
00000160: 6d01 f73d a6ac 89bd 8ca9 303e fe03 863e
00000170: d8ab 693c 9dfe a43d 8911 623d 9804 933d
00000180: 1a0e a0bd 8743 9c3c e8c1 31bd 7db7 9a3d
00000190: 2079 2f3e fb8f dcbc 8f53 143d bcce d83e
000001a0: 828d 8e3d 0ae4 a13e f073 a33e 635d d13d
000001b0: 26b4 183d d07c b73e c101 3dbf 2768 ffbf
000001c0: 9faa 203e 399b 593e 2d2c 993d 0ee0 00c0
000001d0: ca8b 8abd 2fec b93e 3265 c13d d8f1 823e
000001e0: 64c6 c53e 15e9 6e3e 9ad7 f9c0 0b73 0f3d
000001f0: 5f19 b2be 0a16 313d c476 b63e b708 1c3e
00000200: d6cb 393e c6c6 d33d 9219 40be 4a8b 203e
00000210: 7ed3 fa3c c362 db3d 0f69 a13d 2547 203f
00000220: fcd3 3fbe b620 a23b 502c ad3c a00f abbd
00000230: d3b7 1c3e ef99 3bbe f3f8 ccbd 9f99 15bd
00000240: 24d1 d1bd ad94 10bd e968 673d c1bd dc3d
00000250: 77fb 44bd 46f1 ff3d 51b0 703e 01b1 77bd
00000260: 2aeb 87bd ed4e 843d 6659 3fbd 4437 fabd
00000270: ff33 96be e709 5cbe 5779 afbd 5eb5 33bd
00000280: 64b2 f83d 0990 573d e1fe e43d 6cf3 833d
00000290: 087f 73be 60ca 113d e6b9 423e 00cc a03d
000002a0: 6541 3e3e 30f5 2d3e 2d6c 9d3c a37f 66be
000002b0: 566e 343e 5c44 0e3e 35c7 10be adce d0be
000002c0: db30 433d a71c 9bbd ffeb 843d de8d f7bd
000002d0: c466 093e a670 04be a394 fb3d b269 013c
000002e0: 6e8c 31bc fceb 9f3d 1b1c 7b3d f36e 303d
000002f0: 24cc 273d 7878 613d b1f6 5b3e 1160 c8be
00000300: 0f4d c73e 2d41 d53d 93e6 853e 7565 713e
00000310: c4cd 2c3d 8d81 3c3e 3374 9ebf f710 cebd
00000320: a271 b83d bd07 863d 3594 b13b 81d4 b3bc
00000330: 87fc 3f3e 7792 943d 4ad8 073d df7e 243e
00000340: 1591 9c3e 3ff1 453e ad5a 443e f720 5cbc
00000350: 76ed d3bd c19b 583e 9693 1bbf d82e 6fbd
00000360: bc64 033c 8ea6 96bd c62f 803d b53d 1d3e
00000370: 095a ce3d acb6 45bd af01 763d 4fef f2bc
00000380: ce27 09be 241e c23d 228c b53d 8cb9 583e
00000390: 9d28 063e 6ab2 40bd 709e ce3c 3bd9 143e
000003a0: 134c cdbd 163c 1c3e cca8 91bd 27c4 cd3c
000003b0: 5497 d5bd 0681 0a3e 330b 183e 482c a8bf
000003c0: dd00 91bd 4113 1e3e e9c7 3abe 9d3c c0bd
000003d0: 7092 00be 5dbf c43d aa4b 0c3e 3fd2 5a3e
000003e0: 71d9 7a3c c8f5 b5bd 5ce2 02bf 2a84 24be
000003f0: fe33 6bbd 8ed6 e33d e7d1 e93d 9250 7bbd
0.20098196 0.063729435 0.026043382 0.053895537 0.05825627 0.23769134 0.2032271 1.0408499
0.24999501 0.008728906 -0.008601131 0.018385718 0.11382225 -5.202492 -0.15792543 0.2856247
0.13039008 -0.0012105727 0.15583406 0.28305018 0.14846475 0.18706068 -0.38214985 0.24069534
0.04939698 -0.11738577 0.14198896 -0.04007414 -1.0511373 0.15364654 0.20304716 -0.026748402
0.15190758 0.18406774 0.20086832 0.29159722 -0.19866571 -0.020330362 0.25220644 -0.041043412
0.14656228 0.004536681 -4.8232617 0.15798147 0.14094034 0.20133542 -0.8056509 -0.39627582
0.05831853 0.13326912 0.14909622 -0.11887727 0.40068012 -0.42002454 -0.31781358 0.41657248
-0.057922028 -0.039486725 -0.046332113 -0.04779639 -4.3645825 -0.047131486 -0.08977488 -0.47899413
0.47365576 -0.0050541344 0.29181412 0.02057116 0.085404746 0.10884404 -1.8091654 0.14576484
0.038776547 -0.020917268 0.085124455 0.20511736 0.2851914 0.12309999 0.0994346 0.0027653773
0.3062336 0.10742185 -1.2526919 0.25201827 -0.054177355 0.3981408 -0.67555183 0.2616946
0.12060819 -0.06722383 0.17252177 0.2617492 0.014262162 0.08056376 0.055192504 0.071786106
-0.0781519 0.019075168 -0.043397814 0.07554529 0.1713605 -0.026924124 0.0362125 0.42345226
0.06960584 0.31619292 0.3192439 0.1022289 0.037281178 0.35837412 -0.738308 -1.995366
0.15690087 0.21250619 0.07479129 -2.0136752 -0.06764944 0.36313006 0.094431296 0.25575137
0.38627923 0.23331101 -7.8075686 0.035021823 -0.34784982 0.04323391 0.35637486 0.152377
0.18144163 0.103406474 -0.18759754 0.15678135 0.030618425 0.10712197 0.078813665 0.6260856
-0.1873321 0.004947747 0.021139294 -0.083525896 0.15304498 -0.1832044 -0.10008421 -0.036523458
-0.102449685 -0.03529804 0.056496534 0.1077838 -0.048091378 0.12497191 0.2350476 -0.06047154
-0.06636651 0.064603664 -0.046716116 -0.12217572 -0.29336545 -0.21488152 -0.085680656 -0.043874137
0.121434 0.052627597 0.11181427 0.064429134 -0.23778927 0.03559339 0.19016227 0.0785141
0.18579634 0.16988063 0.019216621 -0.22509627 0.17620215 0.13893265 -0.14138491 -0.4078268
0.047654014 -0.075738244 0.06490325 -0.12087606 0.13418108 -0.12933597 0.122842096 0.007898735
-0.010836704 0.07808682 0.0613061 0.04307456 0.040966168 0.05504653 0.21480824 -0.39135793
0.3892598 0.10412822 0.26152477 0.23573859 0.04218842 0.18408795 -1.2379211 -0.100618295
0.09006049 0.06544445 0.005419279 -0.021951916 0.18748675 0.072544985 0.033165254 0.16064022
0.3057944 0.1933031 0.19175215 -0.013435594 -0.103480265 0.21153165 -0.60772073 -0.058394283
0.008019622 -0.073559865 0.06259112 0.1535557 0.100757666 -0.048269913 0.0600602 -0.029655127
-0.1339409 0.09478405 0.08864619 0.2116453 0.1310143 -0.04704515 0.025222033 0.14535992
-0.10024276 0.15257296 -0.071122736 0.025117947 -0.10429254 0.13525781 0.14848022 -1.3138514
-0.07080243 0.15437032 -0.18240322 -0.09386561 -0.12555861 0.09606812 0.13700739 0.21369265
0.015310631 -0.0888477 -0.51126647 -0.16066042 -0.05742263 0.111249074 0.11416989 -0.061356135

value_stream.0.bias f4 [64]
00000000: 3ae5 413f dc0c 1c3f e1ad 27bd 71b1 b63b
00000010: ad24 95bd 4fe7 3b3f a0be 393f f17b aa3e
00000020: cd01 b0bc 0a84 3dbd a3de 273f e801 0abd
00000030: 5b21 28bd ba88 4abc 8fb6 463f ffd6 383f
00000040: c007 993e e932 d83e 48ff b2bd a748 413f
00000050: 0fa8 a0bd e967 373f fbff 393f 8cf4 a5bd
00000060: c207 333f f645 313f c241 363f 7cc4 94bd
00000070: 7989 afbd f033 4a3f a5ba bdbd 27e8 323f
00000080: 7018 adbd 904c 00bd 0f65 69bd 1840 173f
00000090: 3e7c a5bd b1ad 81bd fed5 3d3f 7aec 473f
000000a0: 8c66 153c c38f 263f 2dc5 423f 73a9 6fbd
000000b0: 1950 44bd 7847 90bc f5da 0fbd 2409 3b3f
000000c0: fe94 443f 2500 babd 438c 2b3f 88f1 8ebd
000000d0: 13d8 e13d 7c61 693d 0ede 2d3f 078b a2bd
000000e0: aebc aabd be0e aebd 2545 7abd 8f91 3c3f
000000f0: 57cf 8d3d a754 f0bc e663 02bd c3a9 1cbe
0.75740397 0.6095712 -0.04093731 0.005575352 -0.07282386 0.73399824 0.72556496 0.33297685
-0.021485234 -0.0462685 0.6557409 -0.033693224 -0.041047435 -0.0123617 0.7762231 0.7220306
0.29888725 0.4222634 -0.08740097 0.75501484 -0.07844555 0.7164293 0.7265622 -0.08103284
0.6993371 0.69247377 0.7119409 -0.07264039 -0.08571143 0.789855 -0.09264115 0.69885486
-0.08451927 -0.031323016 -0.056981143 0.59082174 -0.08080338 -0.06331957 0.7415465 0.7809521
0.009118687 0.6506311 0.76082116 -0.05851121 -0.04792795 -0.017612204 -0.035120923 0.7306082
0.76789844 -0.09082059 0.670109 -0.06979662 0.11027541 0.056977734 0.67916954 -0.079366736
-0.08336769 -0.084989056 -0.061101098 0.73659605 0.069243126 -0.02933724 -0.03183355 -0.15299134

value_stream.2.weight f4 [1, 64]
00000000: c7fb ff3e 80f6 d13d 3333 7bbe e859 6e3f
00000010: fefc 19bc 49ba ed3e 4a86 d33e c071 4bbb
00000020: eab6 62be 645b b4bd 3891 253e 429e 87bf
00000030: 2566 bdbd ccb7 67be 74dc a23e 9b86 c83e
00000040: 0e4c 543c dccd d3bf 4060 ba3c 238a 103f
00000050: 7400 44be 84c8 c73e 6cc3 e63e dbd6 9abb
00000060: 482f 933e 4728 883e 65c1 a43e b650 acbf
00000070: 648c d1bd 004a f63e 1407 a73c afbb 913e
00000080: 35d7 0bbc 21d3 32bc a7df a4bd 92e7 623d
00000090: 0d09 32bd 4df8 babc d15a 093f 18e1 0e3f
000000a0: 2de7 4abf d8d9 5e3e 6de3 de3e d6d8 12be
000000b0: 3f02 7ebc 40d8 efbc ed61 5bbe 9dc4 123f
000000c0: 7782 d73e 874e 57be a092 bf3e 4ca5 b7bd
000000d0: 6b18 70bf f9df 85bf 098a 743e 1bf8 29bd
000000e0: 6cc5 28bc 2067 12bf dfb0 17be 241f d53e
000000f0: 70d7 89bf 709a 8e3c 4c48 87bd 6a4b 9fbf
0.49996778 0.10252094 -0.2453125 0.93105936 -0.009398697 0.46431187 0.41313392 -0.0031043142
-0.22140089 -0.08806494 0.16168678 -1.0595171 -0.09247998 -0.22628707 0.31808817 0.39165196
0.012957586 -1.6547198 0.022750974 0.5646078 -0.19140798 0.3902017 0.4507097 -0.00472532
0.2874701 0.2659323 0.32178798 -1.3462131 -0.102318555 0.48103333 0.020389117 0.28463504
-0.008535196 -0.010914595 -0.08050471 0.055396624 -0.043465663 -0.022823477 0.536542 0.55812216
-0.79258996 0.21762788 0.43532887 -0.14340529 -0.015503465 -0.02927792 -0.21424074 0.5733126
0.42091724 -0.2102605 0.37416553 -0.08967075 -0.9378726 -1.0458976 0.23880781 -0.041496377
-0.010300975 -0.57188606 -0.14813565 0.4162532 -1.0768871 0.017407626 -0.066055864 -1.244489

advantage_stream.0.weight f4 [64, 128]
00000000: acdc f13e 261f 7b3a 5fe0 843e 335e a63b
00000010: 96ed 0d3e c91a ef3d 9b27 cc3e 734e 8dbd
00000020: 87c6 a23e 7d5e 23be ed31 0cbd d855 8e3d
00000030: 7549 133f 5350 aa3e 5f08 c03d 3264 353d
00000040: a2b8 f0bd c080 cbbe 6854 c83d a4f4 fa3e
00000050: c7e6 053e a22a 4b3e 90e0 ce3e 0602 923e
00000060: d577 693e fda1 00c0 f0c0 1d3f 4968 d03d
00000070: 49e4 b33e f546 80bf 1a6c d03e 6a2c 0f3f
00000080: d384 0c3e 21b8 a83b b663 51c0 4689 fd3e
00000090: 973d 27bf cce1 3a3e b934 b53e b647 adbb
000000a0: a06e 1c3e 358b e43d d072 a83e 9130 583f
000000b0: a2bb b93e c4b7 04c0 1125 acbd 8f15 b43e
000000c0: 89b6 673e 85d5 8ebb abc9 ca3e 100b b5bc
000000d0: f2ee a73e 9cd4 053f f460 bf3c 3f27 073f
000000e0: b22d 3cbe 5aff c33e cac6 2a3d 8a24 58bc
000000f0: 03d1 2d3f 09de 873d 5af2 a63e 59b8 82be
00000100: 7e81 12bf d717 183e bcc4 92be 0b0a 3fc0
00000110: 63f3 dcbe fbae 133f 6478 48bd 305c 023f
00000120: a852 a7bd b712 dabd c725 f23e 1ced fb3e
00000130: 2dce 53c0 b7b7 033f 1c79 54be ca2e e1bd
00000140: cd92 e93e 8249 203f d1f5 483f cb3b 86be
00000150: f22c 303e 33a2 db3e 1b48 293e 8a12 683e
00000160: 547c 853e e6f6 b33d 4795 a63e 9481 c6bd
00000170: 5703 6a3e 1ccb a43e 89d1 cebd 3a40 d03e
00000180: ec77 153e 4aa6 8d3e 2f85 983e 48c3 b33e
00000190: 65ac 503e 7fda cd3d 30cb 24be 6cb1 0d3f
000001a0: 437d 0d3e 9c41 f23e 4d52 0d3f 4633 81c0
000001b0: c8ef 1abe 3e95 043f 6081 dd3e 2df9 9cbe
000001c0: 1bd0 24be 4132 a53e 9e1c 17be b9a0 933f
000001d0: d059 263e ffb2 183f f8ed 1c3f c9f7 9c3e
000001e0: 82f2 2fc0 1bb1 993e 486c 683e 44a6 7c3e
000001f0: 4645 f13d f401 60bd 9724 af3e f459 693e
00000200: ad40 5abe d052 9a3c 78c9 e33d 3537 253e
00000210: 2b62 2fbd b7ec f5bc 35ae 3dbe f348 e5bd
00000220: b4f3 943d c4ef dc3c 56af 2c3c 130b dd3c
00000230: c186 fbbd 3a88 143e bbed 363e 5e55 15bc
00000240: d009 2a3e eefd 4f3d 6480 933d 8c6b 0abe
00000250: e81f 6d3d db4c 3abe 8bd0 e6bc 9dc3 35be
00000260: 4c53 843d 5842 43be 56d2 08be 252d 82bd
00000270: f788 e53d fc4f 33be 6b7c 02be 0401 c23d
00000280: fe7e a83d e419 db3d 25b4 df3d 1d0c 1ebe
00000290: ecac edbc 4c23 52be aa3b ecbd a1e0 e0bc
000002a0: 1116 b5bd 488f 163d 822d ea3c 666a b5ba
000002b0: 3890 273d 61b7 8ebd 0086 0e3e f21c 46bd
000002c0: 267d 033e b74d 113e 7cb0 e33d 539b aebd
000002d0: 6b53 f1bd a58e 0fbe ef2b cabd 12d0 f13d
000002e0: 40be 51bc 1207 1fbe e571 03be 86b9 0abe
000002f0: 2ee3 c7bd 802d 733d d048 b8bd 38ec 72bd
00000300: bb7d 1bbe c686 2bbe 96ac cabd ce6d 5bbe
00000310: 72df c9bd 517e b3bd 7aca acbd 38cc 2abe
00000320: e85c 803d 59c0 a43d 4577 98bd 4d5e ea3b
00000330: 2bef 953d cad1 96bd 823a d3bd 91b8 ec3d
00000340: 4423 f7bd f44a c6bd 95fc e53d 82f7 bebc
00000350: e53b f4bd 110e 18bc 2fef 9d3d 5f0f ba3d
00000360: 57fc 12be 3e00 b73d 5b98 52bd 1976 77bd
00000370: 44a8 62be 427e 5cbe c570 c03d 81db 9abd
00000380: 77ca ac3d c90b 2abe d99e 6a3d 0520 e7bd
00000390: 8e21 2ebe aa22 1a3e 0b87 d4bd 91ad 21be
000003a0: 16c6 16be cd81 1d3b 3307 94bd 4e56 80bd
000003b0: 0030 713d d895 a7bd 0cda 023d eb38 c7bd
000003c0: a0ec 30bd 4c75 1a3d e48c 5a3d 6110 f83d
000003d0: c6b3 303e 947b cd3d 88f2 05be 3b8f 2bbe
000003e0: 3fa0 07be 896c 85bd df6c 2f3e a6bf 11bd
000003f0: 7f01 72bd ff4d 063e 3563 a23c 25ad dc3d
0.47238672 0.00095795316 0.25952432 0.0050771474 0.13860163 0.11675031 0.39873967 -0.068997286
0.3179209 -0.15954013 -0.0342273 0.06949967 0.5753396 0.33264408 0.09376597 0.044285007
-0.11753966 -0.39746666 0.09781724 0.4901477 0.13076316 0.19840482 0.40405703 0.2851717
0.22799619 -2.009887 0.61622524 0.10176141 0.35135105 -1.0021654 0.40707475 0.55927145
0.13722543 0.005148903 -3.2717109 0.49518794 -0.65328354 0.18250197 0.35391787 -0.0052880896
0.15276575 0.11159364 0.32900095 0.84449106 0.36275965 -2.0737162 -0.08405507 0.35172698
0.22628225 -0.0043589496 0.39606985 -0.022100002 0.32799488 0.5227754 0.02336166 0.5279426
-0.18376806 0.38280755 0.041693486 -0.013192305 0.6789705 0.06634147 0.32606775 -0.2553127
-0.5722884 0.14852844 -0.2866572 -2.984988 -0.4315444 0.57688874 -0.04894294 0.50921917
-0.08170062 -0.10648101 0.47294447 0.49204338 -3.309459 0.514522 -0.20749325 -0.109952524
0.45619813 0.62612164 0.78500086 -0.26217493 0.17204645 0.42897186 0.16531412 0.22663322
0.26071417 0.087873265 0.32535765 -0.09692684 0.22852837 0.3218621 -0.100985594 0.40674
0.14596528 0.2766593 0.2978911 0.35109925 0.20378263 0.100514404 -0.16093135 0.5534885
0.13817315 0.4731568 0.55203706 -4.037509 -0.15130532 0.51790226 0.43262768 -0.30658856
-0.16095011 0.32264903 -0.1475701 1.1533424 0.16245198 0.59648126 0.6130061 0.30657795
-2.7491765 0.30017933 0.22697556 0.246728 0.11780791 -0.054689363 0.34207603 0.2278822
-0.21313734 0.018838316 0.111224115 0.16134341 -0.04281823 -0.030020101 -0.18523486 -0.111955546
0.07273045 0.026969798 0.01053985 0.02698282 -0.12281562 0.14505091 0.17864124 -0.009114591
0.16605306 0.050779276 0.07202223 -0.13517588 0.057891756 -0.1819338 -0.028175613 -0.17750402
0.064612 -0.19068277 -0.13361487 -0.06356267 0.112077646 -0.1751098 -0.12742774 0.0947285
0.08227347 0.106982976 0.10923032 -0.15434308 -0.02901312 -0.20521277 -0.115348175 -0.027450861
-0.088420995 0.036757737 0.028586153 -0.0013840913 0.040909022 -0.069685705 0.13918304 -0.04836745
0.12840709 0.14189802 0.11117646 -0.085257195 -0.11783489 -0.14019258 -0.09871661 0.118072644
-0.012801707 -0.15530041 -0.12836416 -0.13547334 -0.09760128 0.059369564 -0.08998263 -0.059307307
-0.15184681 -0.1675063 -0.098961994 -0.21428606 -0.09857072 -0.08764327 -0.08437057 -0.16679466
0.062677205 0.080445 -0.07444624 0.007152355 0.07321008 -0.07364233 -0.10313894 0.11558641
-0.12067273 -0.09682265 0.11229817 -0.02331138 -0.119254865 -0.009280697 0.07711636 0.09084963
-0.14354073 0.08935593 -0.05141483 -0.06041536 -0.221345 -0.21532539 0.09396509 -0.07561398
0.084370546 -0.16606058 0.057280395 -0.11285404 -0.17004988 0.15052286 -0.1037732 -0.15788867
-0.14724001 0.0024033666 -0.07227936 -0.06266461 0.058883667 -0.08182877 0.031946227 -0.09727653
-0.043194413 0.03770952 0.05335702 0.12112499 0.17256078 0.10033336 -0.130808 -0.16753857
-0.13244723 -0.06514842 0.17131375 -0.03558316 -0.059083458 0.1311569 0.019822696 0.10775212

advantage_stream.0.bias f4 [64]
00000000: 49f9 893e ab2d 9dbd 46fa 67be 26c6 f93e
00000010: a2ea 3a3e 999f 653e 0755 643e 0796 193c
00000020: fecd 6ebd 2564 b23d 303b 8a3e 16f9 37bd
00000030: 3c69 afbd 9d98 cbbd 24c4 413e a0fb 54bd
00000040: c588 1b3e 4c57 173e 0ec9 19bd eac3 4cbd
00000050: ff8c 70bd 8af3 2cbd 0ee2 c2bc c0f6 f3bc
00000060: e32c 10bd a083 8bbd 0651 80bd 9a36 f1bc
00000070: 4d1c 713e febf 42bd 204b 20bb a5de 85bb
00000080: aca5 943d 6025 4c3e 4402 3abe 4f46 573e
00000090: f830 d03d 9d71 a2bb 551b c43e d7c0 4bbd
000000a0: 2646 84bd c2a7 493e aba8 22bd 8dc8 9bbc
000000b0: 1ca1 4fbd f017 8b3e cdad 563e 030c 393e
000000c0: 6e9d 93bd 4c7e 9fbd 25ef 783e 0a71 423e
000000d0: bc5b 403e e58c 12bd 0bfc f2bc 039d 6c3e
000000e0: d413 663e e654 abbc 4ab6 5e3e 0cd3 573e
000000f0: e963 8dbd c649 bfbc 82c8 f5bd 32c3 723e
0.26948002 -0.07674726 -0.22654065 0.48783988 0.18253568 0.22424163 0.2229806 0.009374148
-0.05830192 0.08710507 0.2699828 -0.04491528 -0.08564994 -0.09941218 0.18922478 -0.05199778
0.15188892 0.14779395 -0.037545256 -0.049991526 -0.058728214 -0.042224444 -0.023789432 -0.029780746
-0.035199057 -0.06812215 -0.06265454 -0.029444981 0.23545952 -0.04754638 -0.002445884 -0.004085379
0.07258162 0.19936132 -0.18164927 0.21022914 0.1016559 -0.0049573914 0.38302103 -0.049744453
-0.06458692 0.19692901 -0.039711636 -0.019016529 -0.050690755 0.271667 0.20964737 0.18070988
-0.07207762 -0.07787761 0.24309976 0.18988433 0.18784994 -0.0357789 -0.0296612 0.2310677
0.22468501 -0.020914506 0.21749225 0.21076602 -0.06903822 -0.023350608 -0.120011345 0.23707274

advantage_stream.2.weight f4 [2, 64]
00000000: 0530 36bf 91fd 9f3b 4619 85bc 0c44 2d3f
00000010: f6c4 8cbf 0339 97be d888 a8be 4db9 003f
00000020: 7758 8d3e 7bea 7e3f bd18 ce3e c7f9 0b3e
00000030: 41a5 153e af38 0d3d a265 77bf f89e 2b3e
00000040: 1d38 523f c99d 983f 0c20 30bd 9d8a 79be
00000050: 1659 43be 623a b5bd d88b 5b3f 4b0e 1abd
00000060: 9ced 5fbe 560e a43d 3ad2 073e eeac fa3d
00000070: 65d9 64be 33e9 16bd 2d8d cf3e 1b4d 843e
00000080: 8820 de3d ed65 e6be c9ea 46be 8cba 3abf
00000090: 984c 543f 8514 863e 511d 843f 690b 2c3d
000000a0: 886b f63d 6936 d03d 024a 053d 1a8f 683f
000000b0: 9bfb c13d ddbe f63e 29fc b7bd c75b 71be
000000c0: 6f0f 223d e4b7 213a b18e e2be f8bc 4abe
000000d0: 0921 e43d 7856 333e 73fd a6be 3343 aebf
000000e0: 9994 58bc aa82 623e 601c bfbf 04b9 833f
000000f0: 358d 9bbc 8c24 4a3e 1045 863f 5894 003f
00000100: e28b 9d3f b2ea 46be 4532 2d3d 8ed7 68bf
00000110: 1a32 873f 67c0 723e 5cae c5bc 8692 42be
00000120: f3b5 213c f116 74bf 7947 d8be d554 2cbe
00000130: ef5c 0d3e 7bc8 59ba 9e9e 713f 36f3 0fbe
00000140: c993 6bbf bd6f a1bf 14bf 02be f84d 553e
00000150: 25f5 1abe 3169 313d 4a74 28bf a980 e2bc
00000160: c97c 293e 4ce0 e03d 16a0 143e a03a d83d
00000170: d470 893e a808 033e 81bd cabe 26b2 e9bd
00000180: d217 103e 1f22 343f f37b 43be 3a6c 573f
00000190: e079 66bf 39cf 513e 0ed7 7bbf bc2f b73d
000001a0: c04d 093e 3cdf a43e fbff 343d e842 10bf
000001b0: 2f88 94bd c1cb 70bf 9d18 9a3e 788c 31bc
000001c0: 9b97 2bbe d307 9dbe e79c 89bd 9e4a db3d
000001d0: 0856 8f3e 56e6 733e 82ad 87be 7756 9e3f
000001e0: 8ced ed3e 98be efbe 765c c43f 12e6 8fbf
000001f0: 0bc6 0abe 298b 3cbe f0eb 3bbf 7db2 22bf
-0.7116702 0.0048825224 -0.016247403 0.67681956 -1.0997608 -0.29535684 -0.32916903 0.50282747
0.27606556 0.9957654 0.4025325 0.13669501 0.1461382 0.034477886 -0.96639454 0.1675986
0.8211687 1.1923152 -0.042999312 -0.24369283 -0.19076952 -0.08849026 0.8576026 -0.037611287
-0.21867985 0.08010547 0.13263789 0.12240015 -0.22348554 -0.03684349 0.40537396 0.25840077
0.108460486 -0.44999638 -0.19425501 -0.729409 0.8292937 0.2618753 1.0321447 0.04200307
0.12032229 0.10166628 0.032541282 0.90843356 0.09471818 0.48192492 -0.089836426 -0.23570167
0.0395655 0.00061690644 -0.4424949 -0.19798648 0.111391135 0.17513454 -0.3261524 -1.3614258
-0.013219022 0.22120157 -1.4930534 1.0290837 -0.018988231 0.19740504 1.0489826 0.50226355
1.2308314 -0.19425467 0.04228427 -0.9095391 1.0562165 0.23706208 -0.024130993 -0.19001207
0.00987004 -0.95347506 -0.4224203 -0.16829236 0.13804983 -0.0008307767 0.94382656 -0.14057621
-0.9202238 -1.2612225 -0.12768203 0.20830524 -0.15132578 0.04331321 -0.65802443 -0.02764924
0.16551508 0.10980281 0.14514193 0.10558057 0.26843894 0.12796271 -0.39597705 -0.11410932
0.14071587 0.70364565 -0.19090252 0.84149516 -0.90029716 0.20489205 -0.9837502 0.089446515
0.13408566 0.32201564 0.044189434 -0.5635209 -0.072525375 -0.94060904 0.30096903 -0.010836713
-0.16757052 -0.30670032 -0.0671938 0.107075915 0.27995324 0.23818335 -0.26499563 1.2370137
0.46470296 -0.468251 1.5340717 -1.1242087 -0.1355211 -0.1841246 -0.7340689 -0.635536

advantage_stream.2.bias f4 [2]
00000000: 230d c1bd 230d c13d
-0.09426334 0.09426334

exp_avg f4 [128, 4]
00000000: 0400 0080 0400 0080 0400 0080 0400 0000
00000010: 3db1 5f3a ab39 0d3a 83d0 3038 473d f438
00000020: f480 27bb b0c8 ebb9 b2c6 2bba 6416 fdba
00000030: 05d2 ecb9 1854 e3ba 90be 7b39 60b0 d23a
00000040: 0400 0000 0400 0000 0400 0000 0400 0000
00000050: 0400 0000 0400 0000 0400 0080 0400 0080
00000060: 0400 0080 0400 0000 0400 0000 0400 0000
00000070: 0400 0080 0400 0080 0400 0080 0400 0000
00000080: 0400 0080 0400 0080 0400 0000 0400 0080
00000090: 48de 703b eb19 a2bb cc62 863a 6aba 6c3b
000000a0: 78af cc1e b118 811e 857c 6f9d b331 0a9f
000000b0: 0400 0080 0400 0000 0400 0000 0400 0080
000000c0: 0400 0080 0400 0080 0400 0000 0400 0080
000000d0: d9af 82b0 dec6 5c2f ba4a 46af fdac 0f30
000000e0: 0400 0000 0400 0000 0400 0080 0400 0080
000000f0: a709 23bb 0de8 02bb 688f 3aba 6c10 a4ba
00000100: 0829 cc3b 52d6 88bc 2085 713a baed 483c
00000110: 8e1a 5c3a 37f4 fe3a 1636 8ab9 82e4 4abb
00000120: 10c8 4f3a f2ff ae3b acbb 7239 e945 28bb
00000130: cb84 653a 7acb b4b9 60e6 4438 04e5 6db9
00000140: 0c95 073c b6a0 713c 2cba f739 2bd7 29bb
00000150: 6ba1 e8b9 a2b1 a0bb 11da 033a 40ff c93b
00000160: 20db c9bc a04c e3bb c767 ef38 3dce ce3b
00000170: 0400 0080 0400 0080 0400 0000 0400 0080
00000180: 7d99 ea39 d617 44bb fd88 4e39 709c 973b
00000190: 0400 0080 0400 0080 0400 0000 0400 0000
000001a0: 0400 0080 0400 0080 0400 0000 0400 0000
000001b0: 0400 0080 0400 0080 0400 0000 0400 0000
000001c0: 698e e4bb f431 ff39 2a51 0738 e597 40bb
000001d0: 0400 0080 0400 0000 0400 0080 0400 0080
000001e0: 0400 0000 0400 0080 0400 0000 0400 0000
000001f0: 026a f239 80f1 cbbb dc25 6339 9caf ed3b
00000200: 89b3 78b9 c431 d2ba 30c8 703a 09de a33b
00000210: 0400 0000 0400 0000 0400 0080 0400 0080
00000220: 0654 29bb e497 18ba 43dc e7b9 8e98 05bb
00000230: 0400 0000 0400 0000 0400 0080 0400 0080
00000240: 8b19 823a ca99 133b 3d41 fbb8 b823 07bb
00000250: 0273 49bb c320 b2bb d5e7 d3b9 6fff 39ba
00000260: beee b03a 4c49 01bc 5e23 213a 15eb 163c
00000270: 5a47 df38 706b 5bb8 fbb5 58b7 947a b1b7
00000280: 0400 0000 0400 0000 0400 0000 0400 0080
00000290: 4dba 843c 96ea aa3b 6e8c b338 2cb0 443b
000002a0: ced9 8b38 bfd7 94b7 0fb4 4c36 e614 2c37
000002b0: 0400 0080 0400 0080 0400 0080 0400 0000
000002c0: 4293 33bb 8dca d2bb bd0b 4039 4bec b13b
000002d0: 0400 0080 0400 0080 0400 0080 0400 0080
000002e0: 0400 0000 0400 0000 0400 0000 0400 0080
000002f0: 0400 0000 0400 0000 0400 0000 0400 0080
00000300: 30fb 2eb9 ee13 c33a 0856 3539 029f d1b9
00000310: c2fe 3b3c dfdd 603c 1419 bd39 d8c0 90ba
00000320: 0400 0000 0400 0080 0400 0080 0400 0000
00000330: 0400 0000 0400 0000 0400 0080 0400 0080
00000340: 46cc d2bd f4d0 7d3b 67fc 2e3b 0c63 28bb
00000350: 0400 0080 0400 0080 0400 0000 0400 0080
00000360: 0400 0000 0400 0000 0400 0080 0400 0080
00000370: 2057 5239 442d d5bb 78fb 9139 b6b2 eb3b
00000380: 0400 0080 0400 0080 0400 0000 0400 0000
00000390: bcb0 e838 ad8c 2fb8 7c51 a236 f0b5 0238
000003a0: 95eb ac3b 28a3 4e3c ccd9 033a 810a 6ebb
000003b0: 0400 0080 0400 0000 0400 0000 0400 0080
000003c0: e0db 603c 043f 9c3c e464 413a f25a 1ebb
000003d0: 0400 0080 0400 0080 0400 0000 0400 0000
000003e0: 7247 863b 60d9 053c 96ba 97ba 1e2c 07bc
000003f0: fa34 183b 0324 21ba 48dd 2738 b0ba 493b
-6e-45 -6e-45 -6e-45 6e-45 0.00085331855 0.00053873163 4.215586e-05 0.000116462405
-0.002555904 -0.00044972217 -0.000655274 -0.0019309041 -0.00045169904 -0.0017343787 0.00024008215 0.0016074292
6e-45 6e-45 6e-45 6e-45 6e-45 6e-45 -6e-45 -6e-45
-6e-45 6e-45 6e-45 6e-45 -6e-45 -6e-45 -6e-45 6e-45
-6e-45 -6e-45 6e-45 -6e-45 0.0036753584 -0.0049469373 0.0010252832 0.0036121854
2.1671912e-20 1.3668618e-20 -3.1695762e-21 -2.9263747e-20 -6e-45 6e-45 6e-45 -6e-45
-6e-45 -6e-45 6e-45 -6e-45 -9.508724e-10 2.0079535e-10 -1.8034543e-10 5.226893e-10
6e-45 6e-45 -6e-45 -6e-45 -0.002487758 -0.0019974739 -0.0007116706 -0.0012517101
0.0062304772 -0.016703758 0.00092132576 0.01226371 0.0008396291 0.0019451444 -0.00026361708 -0.0030958955
0.0007926235 0.0053405697 0.00023148832 -0.0025676435 0.00087554444 -0.00034483877 4.6944595e-05 -0.00022687396
0.008275282 0.014747789 0.0004725022 -0.0025915604 -0.00044370754 -0.004903988 0.0005029748 0.0061644614
-0.02464062 -0.0069366246 0.00011415738 0.0063112066 -6e-45 -6e-45 6e-45 -6e-45
0.00044746316 -0.0029921434 0.00019696723 0.004626803 -6e-45 -6e-45 6e-45 6e-45
-6e-45 -6e-45 6e-45 6e-45 -6e-45 -6e-45 6e-45 6e-45
-0.0069749844 0.00048674608 3.2262098e-05 -0.0029387411 -6e-45 6e-45 -6e-45 -6e-45
6e-45 -6e-45 6e-45 6e-45 0.0004623682 -0.0062238574 0.0002166251 0.0072536003
-0.00023718005 -0.001603656 0.00091851037 0.005000834 6e-45 6e-45 -6e-45 -6e-45
-0.0025837435 -0.00058209733 -0.0004422386 -0.002038512 6e-45 6e-45 -6e-45 -6e-45
0.0009925825 0.0022522085 -0.00011980764 -0.0020620655 -0.0030738716 -0.0054360344 -0.00040417784 -0.00070952525
0.0013498885 -0.0078910105 0.0006146933 0.009211321 0.00010646759 -5.2313728e-05 -1.2916974e-05 -2.1157124e-05
6e-45 6e-45 6e-45 -6e-45 0.016202116 0.005215953 8.561542e-05 0.0030012233
6.668606e-05 -1.774344e-05 3.0503177e-06 1.0256865e-05 -6e-45 -6e-45 -6e-45 6e-45
-0.0027401005 -0.0064328373 0.0001831492 0.0054297796 -6e-45 -6e-45 -6e-45 -6e-45
6e-45 6e-45 6e-45 -6e-45 6e-45 6e-45 6e-45 -6e-45
-0.00016687508 0.0014883259 0.00017293554 -0.00039982056 0.011474313 0.013724773 0.00036067574 -0.00110438
6e-45 -6e-45 -6e-45 6e-45 6e-45 6e-45 -6e-45 -6e-45
-0.10292868 0.0038729282 0.0026700736 -0.0025693802 -6e-45 -6e-45 6e-45 -6e-45
6e-45 6e-45 -6e-45 -6e-45 0.00020059617 -0.00650564 0.00027843914 0.007192935
-6e-45 -6e-45 6e-45 6e-45 0.000110955414 -4.1854266e-05 4.8374623e-06 3.1163858e-05
0.005277107 0.012612142 0.00050297077 -0.0036322179 -6e-45 6e-45 6e-45 -6e-45
0.013724297 0.019073017 0.00073773996 -0.0024163094 -6e-45 -6e-45 6e-45 6e-45
0.0040978724 0.008169502 -0.0011575993 -0.008250264 0.0023224936 -0.0006147029 4.0021987e-05 0.003078144
