CartPoleHighRewardIn2026/checkpoints/checkpoint_ep1000_reward131.00.pt (torch, 421267 bytes, 33 tensors)

feature_layer.0.weight f4 [128, 4]
00000000: 7216 403c 791b ecbc 0ca4 0dbf 7378 073d
00000010: 93e6 cf3c 49b2 cbbc b8bf b3bf 4fa3 5ebd
00000020: cbe7 d43d 8837 89bd f351 9abf 4159 06bd
00000030: bae4 773d 645c 26be c0ea 693e 86eb d5bd
00000040: 3531 283d 30c0 4cbd c233 ab3f a428 9bbd
00000050: 617f a03e 77df 7d3e 8cd0 da3e d225 173e
00000060: 2102 8e3b 9c11 f2bb 4074 383e a0e2 f9bb
00000070: 5c32 19b9 2a03 fd3a 08f7 dfbd 03a1 953c
00000080: 15e5 43be 29f7 583c d5b2 45bc 026e 933d
00000090: 4488 863d d102 73bd 206c b4bd 0650 51bd
000000a0: ab88 ba3d 3551 d7bd 8cc0 0a3d e5d8 12bd
000000b0: 6c84 973d c9d7 c2bc a557 333f f32d 1e3d
000000c0: 07da 5b3d b18f 2ebd 134a b03e 7830 b7bd
000000d0: 6bf0 15bc 5293 493c 02bf 7dbf 42b7 133e
000000e0: ba63 843c 313b 3fbc 097a 83bc 4dfe 2bbc
000000f0: 0937 f6bc df01 edbd 4634 0dbf 7064 debe
00000100: 7a5c ea3d 5967 78bc dc0e e63e 63ff ce3c
00000110: 765e debd 046d 313e a856 413e a907 1e3e
00000120: 00dd 143d 0c71 fcbc f3b5 bebf 64ff 0abe
00000130: 2d8e 0b3e ef55 e4bd 44fa e23e 2734 2abe
00000140: 6cbe fc3c cf08 50bb 4a18 babf fd9c c6bd
00000150: eb96 cdba df61 943c c73e 9a3f 35d8 f73c
00000160: 8d85 173d 1462 573c 5ae7 48bf 137c 403c
00000170: 3ee8 c53d b3de c1bd 622f 1f3f d861 94bd
00000180: d791 683d 96d7 23bc e392 a03f f3d6 eb3d
00000190: 54e0 88bc 03ab ae3c f8eb 21bd a9d8 363d
000001a0: 2115 a0be 7e9e 36be 6451 dcbe 6558 e7bd
000001b0: f50b 86bc 3d1c 5a3d 44e8 5dbe 7f57 813d
000001c0: f4f5 c2bc a72a 3f3d 6e86 7bbe 95d2 be3c
000001d0: eb85 3cbb e492 933b 6be6 dd3f 1a2d f73c
000001e0: 3964 b93e 6c69 d2be 5585 2c3e 208d 8fbe
000001f0: 3a81 983c 9466 25bc fec7 bc3f ba3b 553c
00000200: bc29 a43d 29d9 a7bd a147 ab3e 9b6c 9bbd
00000210: af7b a4bb 5bfe 1c3c 351d 14be a13e ecbc
00000220: d78d 723d ea2a 0bbd 59b8 afbf e2e2 a3be
00000230: 2879 b03d b4f4 37bd bee6 a5bd c66a 74bc
00000240: 582f 9e3d aebb a6bd 7679 ce3e c6f9 bfbd
00000250: 5ae5 5d3d c75f 20bd dbc8 dd3e 409e 6fbd
00000260: 54a1 583c 4d94 473a 5316 bb3f 91e7 f83d
00000270: 05b7 203d 1566 073c 303a 943f 2048 f63d
00000280: 6bee d23d 9352 d9bd 8d19 c33e a92a b5bd
00000290: 16a1 a43e 44ba a93e 4020 353f 2f1d 753e
000002a0: 3f17 cabc 125c 403c a003 cebf 1fb1 83be
000002b0: 4b8b ca3d 0d7b 633e c1b4 153f e97d 6a3e
000002c0: d676 873d 3c10 7abc 8691 533f 2ff7 883e
000002d0: 09a7 bc3c f2ec fdbc 2f8c 63be 8ddd 87bc
000002e0: cd55 823d e08c 3fbd 63d0 2bbd fb24 803c
000002f0: 8ca7 103e fd3c fbbd adcb e03e 512c d8bd
00000300: 05ce 28bc 6ca8 033d 2777 52bf 5c32 cdbd
00000310: 887e 333c 0dd5 a63b 92dc e1bf 8dce 4abe
00000320: f3ce 173e 49bf c7bd a740 bd3e db64 c43d
00000330: 7224 4cbd 9562 343d b6ac 4cbe 5c48 873d
00000340: aef3 d23e 54ae 033e 1d6f 273e e62a 8f3d
00000350: f2e8 923c f3cc cabc f0f2 803e 2c22 b6bd
00000360: d137 4d3c 4359 0ebc 75c1 983c dbaa a13c
00000370: ff04 f13c ab5b b0bc 43cb 933f 315d 113e
00000380: 3fb0 423e 9582 67bd 9dbf 80bd b077 453d
00000390: 8c54 97bc bb97 af3d 30b3 22bf c69a 3a3e
000003a0: bb52 193d 91a3 56bc e0a5 e1bf dc4d 23be
000003b0: 6319 a53d 0524 a2bd 97e0 bc3e 6033 01be
000003c0: bc16 c73e ee8e 103e 8341 8cbd 4566 013d
000003d0: 0dda 6fbe 9b70 4abd 7801 303e 6904 813b
000003e0: 9f31 16be e872 99be 3a76 25bf 7950 b3be
000003f0: 756d 183d 2a2b 21bd db39 ae3f 3537 78bd
0.011724101 -0.028821694 -0.5532844 0.033073854 0.025378501 -0.024865286 -1.4042883 -0.054354962
0.103957735 -0.06700045 -1.2056259 -0.032799963 0.060520865 -0.16246182 0.22843456 -0.10445313
0.041062552 -0.04998797 1.337517 -0.07576111 0.31347182 0.24792276 0.42737234 0.14760521
0.00433375 -0.007387353 0.18013096 -0.0076258928 -0.00014609977 0.0019303311 -0.10935789 0.018265253
-0.19130357 0.013242521 -0.012066563 0.07198717 0.06568959 -0.059328858 -0.08809686 -0.051101707
0.091080986 -0.10513536 0.033875033 -0.035851378 0.07398304 -0.023784535 0.7005561 0.03861804
0.053674724 -0.042617504 0.34431514 -0.089447916 -0.009151558 0.01230319 -0.9911958 0.14425376
0.016160835 -0.011671827 -0.016049402 -0.010497642 -0.03005554 -0.115726225 -0.5515789 -0.43436003
0.1144342 -0.015161359 0.44933212 0.025268262 -0.10857861 0.17326742 0.18880713 0.1543261
0.036343575 -0.030815624 -1.4899276 -0.13573986 0.13628455 -0.11149203 0.44331563 -0.16621457
0.030852519 -0.0031743532 -1.4538662 -0.09697912 -0.0015685236 0.018113075 1.2050408 0.030254463
0.0369926 0.013145942 -0.78478014 0.011748332 0.09663437 -0.09466305 0.62181675 -0.07245225
0.05677971 -0.01000013 1.2544826 0.11515608 -0.01670853 0.02132178 -0.039531678 0.044640217
-0.3126612 -0.17833897 -0.43030846 -0.11296157 -0.016363123 0.053249586 -0.21670634 0.06315517
-0.02379892 0.046671536 -0.24563 0.023293773 -0.0028766345 0.0045035947 1.7335943 0.030172873
0.36209276 -0.41096056 0.16847737 -0.28037357 0.018616308 -0.010095257 1.4748533 0.013014728
0.08015773 -0.08195717 0.33453086 -0.07589074 -0.005019627 0.009582127 -0.14464267 -0.028838458
0.0592173 -0.033976473 -1.3728133 -0.32009035 0.08616859 -0.0449111 -0.08100651 -0.014918035
0.07723874 -0.08141266 0.40327042 -0.093738124 0.054173805 -0.03915384 0.43317303 -0.05850053
0.013222057 0.0007613346 1.4616188 0.12153543 0.03923704 0.008264084 1.1580257 0.120254755
0.10299381 -0.10611453 0.3810543 -0.088460274 0.3215415 0.33149922 0.70752335 0.23936914
-0.024669288 0.011740701 -1.6094856 -0.2572107 0.09889849 0.22214909 0.58478934 0.22899593
0.06614463 -0.01526266 0.82643926 0.26751086 0.023028867 -0.030996773 -0.22221445 -0.016585136
0.063640215 -0.04676521 -0.04194678 0.015642634 0.14126414 -0.12267492 0.43905392 -0.10555328
-0.010303025 0.03214304 -0.8221306 -0.10019371 0.01095546 0.0050913156 -1.7645438 -0.19805355
0.14825039 -0.097532816 0.36963388 0.09589549 -0.049839444 0.044039328 -0.19987759 0.06605598
0.41201538 0.1285947 0.1635098 0.06990604 0.017933343 -0.02475593 0.25185347 -0.088932365
0.012525515 -0.008688274 0.018646935 0.01973479 0.029421328 -0.021528086 1.1546406 0.14195706
0.19012545 -0.056521017 -0.06286547 0.048209846 -0.018472932 0.08573862 -0.6355467 0.18223104
0.037432414 -0.013100521 -1.7628746 -0.1594767 0.08061483 -0.079170264 0.36890098 -0.12617254
0.38884532 0.14117023 -0.06848433 0.031591672 -0.23423024 -0.049423795 0.1718806 0.0039372933
-0.14667366 -0.2997048 -0.64633524 -0.35022333 0.03721376 -0.039347805 1.3611406 -0.060599525

feature_layer.0.bias f4 [128]
00000000: aeed 5abe 57af b4be 3b3d babe 7bd6 683e
00000010: 5046 a1be bb3a 11bd ef8d 4cbd 9644 39bd
00000020: 5460 0fbf c73a f9bd c690 5abe 06c0 b7be
00000030: 5f3b 06be 848e edbd 8976 eabc 1061 07bf
00000040: dd46 8b3e 596a 01bf 01ae a3be b4e2 82be
00000050: 8650 a0be 4bd7 a4be 9ccb 80be de75 35be
00000060: 241d d0be a43d 06be bb03 33bf bb40 4fbe
00000070: 7467 24be 2c0f b1be 2161 96be dcbc a8be
00000080: 7da2 39be 67de d7bd 7251 8dbe 3bfa 45be
00000090: 3980 53be acb2 0fbe f102 d9be fe4b c5be
000000a0: 9fbc 70be 4335 b0be df25 e6be 3d87 dcbd
000000b0: 388f 14bf ccb8 c0bd 36ff 13be e42c 69be
000000c0: 9269 9f3e 5d70 c2be b421 02bf a492 4bbe
000000d0: 948a 0bbf 3335 37be bfc4 adbd ec8b bebe
000000e0: 80d2 dfbe ab80 cabe f2f9 bfbe 98c5 2cbe
000000f0: b1d8 e5be e45c 10bf 6839 09bf 3c15 97be
00000100: f2be c5be 9778 9c3e 0a4b 2dbe 1b81 80be
00000110: 89bc aebe 2436 fbbd d83d c6be 0d61 66be
00000120: 15f1 89be 874f 42be 3ada acbe 7e99 a4be
00000130: c02d debe 44a2 78be 18c7 3bbe 9457 1dbe
00000140: 79d9 b5be 4b53 ebbd 163f 07be bbcc f0bd
00000150: 1be3 9fbe b896 0cbe c81f 4cbe b2fe 96bd
00000160: b9ac 81be e219 aebe 038a 1cbf c320 59be
00000170: a60e a2be f4c2 78bd 6a69 5dbf de64 b8be
00000180: c1d7 05bf cd0d f9bd 2b60 07bf 6d45 e3be
00000190: 636f 37be da74 c7bd 9b9f 30be 80e3 75be
000001a0: 5fe3 debd 002f 42be 02fa eabe e88c 9dbe
000001b0: eaf6 6bbe 973d cdbe 5056 15be f70a 16be
000001c0: 775d 28be 3473 b1be 46e4 17be eb4c f9bd
000001d0: 1fe6 5abe ad0d 93be f130 c3be 68d9 0abe
000001e0: f497 c1be d1d1 40be 282c a3be ca31 26bf
000001f0: 5a99 dfbe b4b5 8abe bc67 6abe dcd8 41be
-0.2137973 -0.35290024 -0.3637484 0.22738068 -0.31498957 -0.0354564 -0.049940046 -0.045231424
-0.5600636 -0.12169414 -0.21344289 -0.3588869 -0.13108586 -0.11599448 -0.028620975 -0.5288248
0.27202502 -0.505529 -0.31968692 -0.25563586 -0.31311435 -0.32195505 -0.25155342 -0.17720744
-0.40647233 -0.13109452 -0.6992757 -0.20239536 -0.16055089 -0.34581888 -0.29370978 -0.32956588
-0.1812839 -0.10540467 -0.276012 -0.19333737 -0.20654382 -0.14033002 -0.42385057 -0.3853454
-0.23509453 -0.34415635 -0.44950768 -0.10767982 -0.58031034 -0.09410247 -0.14452824 -0.2277103
0.3113523 -0.3797635 -0.50832677 -0.19880158 -0.5450833 -0.17891388 -0.08484792 -0.37216127
-0.43715286 -0.3955129 -0.3749538 -0.16872251 -0.44891885 -0.5639174 -0.5360322 -0.29508388
-0.38622242 0.30560753 -0.16923156 -0.250985 -0.34128216 -0.12266186 -0.38719058 -0.2249796
-0.26941743 -0.1897565 -0.33760244 -0.32148355 -0.4339428 -0.2428065 -0.18337667 -0.1536544
-0.3551748 -0.11490496 -0.13207659 -0.11757799 -0.31227955 -0.1372937 -0.19933999 -0.07372798
-0.2532709 -0.34004122 -0.6114809 -0.21203904 -0.316518 -0.060732797 -0.86488974 -0.36014456
-0.5228234 -0.121608354 -0.52881116 -0.44388905 -0.17913584 -0.097390845 -0.17248385 -0.24012566
-0.10883211 -0.18963242 -0.45893866 -0.30771565 -0.23043409 -0.40086052 -0.14583707 -0.1465262
-0.16441904 -0.34658206 -0.14833173 -0.12172874 -0.21376847 -0.2872137 -0.38123277 -0.13559496
-0.37811244 -0.18830039 -0.31869626 -0.6491972 -0.43671685 -0.27091753 -0.22891134 -0.18930382

feature_layer.2.weight f4 [128, 128]
00000000: 6461 20be 378d 50be 6b55 d7bd cab9 b33e
00000010: 6611 663e 8e79 443d 89a9 e83d 3c5c df3c
00000020: 63e1 653e f2d6 a6bd 67a6 723d 5d5b 003d
00000030: 222b 3b3e 44a3 29bf 9c6d 003e e547 42be
00000040: b0c5 a03e d1fb 45be a82e 3abf 522a 453d
00000050: 952f 8dbe 2519 b7bc 31b1 b43d d4bd 3d3e
00000060: aaac 3a3a 112e 23be e308 be3d 24da ac3d
00000070: 7256 0c3d cbe0 dbbd 6905 613e 869e 913d
00000080: 599c ea3c 191f 2ebe 6fc2 22be 6c51 dabd
00000090: de68 5ebd bfba 4d3e 7310 4e3f 5725 02bf
000000a0: 715b af3d edb8 6fbe af13 2cbf a9f3 48bd
000000b0: 6194 f43d 570c 75bd 02d8 afbd e9b7 08bd
000000c0: 5d49 29be e0ee 73bf aaf5 b6bd 856d df3d
000000d0: 8dcb 6d3c 80ac 18be 5a0d b1bc 8215 8a3e
000000e0: 45a9 a7bd 9228 b93d e555 5bbf e889 8bbd
000000f0: 0210 1d3e 8b1f 8fbd 0bf9 a13e e688 fc3d
00000100: 3fc6 9e3d b4bd 6cbd c4a7 d5bd f6d0 183e
00000110: e57a 0bbf f049 ddbb e12e a13c 3b98 413e
00000120: d8f9 2c3e 9dd4 74bd e7a9 b53d edfa 333f
00000130: 993e 773f db59 fd3d ccf3 bb3e abc3 703d
00000140: fc90 393f f854 f4bc 8d28 01be 8b54 16be
00000150: bd60 1ebd 64d7 b43e b97a ceba ae7f 75bd
00000160: 2864 5d3e bbd3 4bbe 6a99 493d 5ad0 143e
00000170: f3d8 45be 8eed 66bd 53bd c83e f10f ddbe
00000180: d3b8 b4bc b302 853e 9fac d8be 7903 0d3e
00000190: d32e 643e 2f84 6bbc 9924 25be 98c0 1abf
000001a0: 74cb 333e 64e7 32bf 8a07 843f 6fef 16bf
000001b0: f3c0 e2bc 9a22 8ebd ae20 673c 13af 59bb
000001c0: 33db e73d 66aa 93bf bc3e bd3c e378 2fbd
000001d0: a3c6 0a3d b53f 103e 2f7e a93d c3de 0fbe
000001e0: 0970 5ebe 0c9b 8bbf 6f25 bfbe 8780 83be
000001f0: e37b 223c 2c99 adbe 2341 03be bd61 89be
00000200: 407a 2ebe 681e 04bf 149f 91bd 9455 42be
00000210: d3d3 043a 665d 3dbe e424 ed3b b730 38bd
00000220: 92dc 06bd 47c9 5f3e 1671 b93c ccc2 02bd
00000230: 3e48 503d 7291 62bd dfad c03d a904 ab3e
00000240: 0209 193e d7a4 3cbd 5981 ebbe 0d8f 8b3e
00000250: 43e7 13bf 8d05 dbbd d52d 12be 9f88 bd3d
00000260: ca3b 2fbe abca 71bc a5e7 95bc fe5c 29be
00000270: 27af 0fbc d84f 54be b8a4 db3e 671c 87be
00000280: 93b3 c1bd 3836 3e3d d604 44be 5846 14be
00000290: 9294 8f3d 4739 dfbd c4a9 93be 89fd 65be
000002a0: 77a3 8cbd 0b8c 33bd 9225 98be 4180 83bd
000002b0: fd32 be3d cdec 8b3d 0c95 a1bd c09c 3fbd
000002c0: b476 88be 12d9 17bf 1b12 99be e457 36bc
000002d0: bd36 b2be 3d96 c4bd 9090 c2bc 2329 21be
000002e0: 3bf1 ed3d 73bb 543e b3ae 11bf 8bb6 003e
000002f0: 1f5b 21bf 3fac 20bf 04d4 9f3f 4a2d b7be
00000300: e6ef c2be fdb1 9dbe 68cb babf 795f 2abe
00000310: 98c0 e1be 389d c83d 14dd 873d e437 6dbd
00000320: 13f3 dfbe c425 603d ffa2 50be bdf5 7bbe
00000330: 9249 a9bb 631b bdbd 1e35 b43e c3f7 cdbe
00000340: 89e0 9abe 9126 2ebe 984a 89be 3da9 45be
00000350: 8edb 5ebf 1cc7 6cbd e5a4 01bf 4a5d 32be
00000360: 9ad3 4d3e 2721 073e a4cb 633f 153d 2abe
00000370: d4f9 06be 5a6c 0bbe 60a5 2fbe d966 c0be
00000380: 8b6e 023f e1c9 a63e 86c9 8d3e f152 583d
00000390: 8d68 403d 35c3 d63d 076f 28bf d89a 87be
000003a0: 9a03 6abd 24a3 c8be 5090 74bc 07c9 67bf
000003b0: 79ef 5f3e d572 f63d 21cb e3bd 2324 98bd
000003c0: da94 25bf 9e10 88bf 495e 2a3d 3b81 f63d
000003d0: 797c b9bc 202d 74bf 2825 b03c bd2c 1abe
000003e0: ea48 6cbe 1123 023f f695 44be 5e87 333f
000003f0: e243 9b3e 89f0 b3be 47cd 5fbd 39d6 adbf
-0.15662152 -0.20366369 -0.10514339 0.35102683 0.22467574 0.047967486 0.11360461 0.02726566
0.2244926 -0.08146466 0.059240725 0.03133713 0.18278173 -0.6626475 0.12541813 -0.18972738
0.31400824 -0.19334342 -0.7272744 0.048136063 -0.27575365 -0.022350857 0.08822859 0.18529445
0.0007121066 -0.15935542 0.09279039 0.084400445 0.03426213 -0.10736235 0.2197472 0.07110314
0.028639005 -0.1700405 -0.15894483 -0.10660061 -0.054299228 0.20090769 0.8049385 -0.50838226
0.08562363 -0.23410387 -0.67217535 -0.049060497 0.119423635 -0.05982622 -0.08586122 -0.033378515
-0.16531892 -0.9528637 -0.089335755 0.10909561 0.014513862 -0.14909554 -0.021612812 0.26969534
-0.081865825 0.09040941 -0.8567794 -0.06813413 0.15338138 -0.06988438 0.31635317 0.12330799
0.07752656 -0.057798102 -0.104323894 0.14923462 -0.544844 -0.006753199 0.019675674 0.18905728
0.16892183 -0.059773076 0.08870297 0.7030476 0.9657989 0.12370654 0.3670944 0.058780354
0.72486854 -0.029825673 -0.12613125 -0.14680688 -0.038666476 0.3532058 -0.0015753127 -0.059936218
0.21620238 -0.19904988 0.049218573 0.14532605 -0.19321041 -0.056378894 0.39206943 -0.43176225
-0.022060787 0.25978622 -0.423192 0.13770856 0.22283487 -0.014374777 -0.16127242 -0.60450125
0.1755808 -0.69884324 1.0314801 -0.58959097 -0.027679896 -0.069401935 0.014106913 -0.0033215925
0.11321106 -1.1536376 0.023101203 -0.042839896 0.03388084 0.14086802 0.08276021 -0.1404982
-0.21722426 -1.0906692 -0.37333247 -0.25683996 0.009917232 -0.33905923 -0.12817816 -0.2683238
-0.17038822 -0.51608896 -0.0711042 -0.18977958 0.00050669647 -0.1849266 0.0072370637 -0.044968333
-0.032925196 0.21854125 0.022636931 -0.031924054 0.050850146 -0.05531449 0.09408163 0.33401993
0.14944842 -0.04605564 -0.45997122 0.27257577 -0.5777475 -0.10694418 -0.14275296 0.09254574
-0.17112651 -0.014757792 -0.018298933 -0.1653938 -0.008769787 -0.20733583 0.42899108 -0.26388857
-0.09458079 0.046438426 -0.1914247 -0.14479959 0.070107594 -0.10899597 -0.28840458 -0.22459997
-0.06867116 -0.043834727 -0.29716164 -0.06420947 0.09287069 0.068322755 -0.078897566 -0.046780348
-0.26653063 -0.593156 -0.29896626 -0.011129353 -0.34807387 -0.09598968 -0.023750573 -0.15738349
0.11618277 0.20774631 -0.56907195 0.12569635 -0.63029665 -0.62762827 1.2486577 -0.3577674
-0.38073653 -0.30799857 -1.4593325 -0.16637982 -0.4409225 0.09795612 0.06633964 -0.05791463
-0.43740138 0.054723516 -0.20374678 -0.2460546 -0.005166241 -0.09233739 0.35196775 -0.4022809
-0.30249432 -0.170069 -0.26814723 -0.1930284 -0.87053764 -0.057807073 -0.50642234 -0.174184
0.20100251 0.1319624 0.88982606 -0.16624863 -0.1318124 -0.13615552 -0.1715293 -0.37578467
0.50949925 0.32575896 0.27692813 0.052813474 0.046974707 0.104864515 -0.65794414 -0.26485324
-0.05713234 -0.39186966 -0.014926985 -0.9054112 0.21868695 0.12033621 -0.11122728 -0.074287675
-0.64680254 -1.0630071 0.041593824 0.120363675 -0.022642361 -0.95381355 0.021502092 -0.15056129
-0.2307469 0.5083476 -0.1919783 0.7012843 0.30325228 -0.3514445 -0.054639127 -1.3581

feature_layer.2.bias f4 [128]
00000000: fff8 183f 4c82 8d3e 4ec9 703e 85fc b13d
00000010: de30 6abd 72a7 0c3f 9b30 ea3e 0a67 75bd
00000020: b6bd 393f 7a79 acbd 7443 163f 12d2 07bd
00000030: 7d65 233f a56b c3be 6cd8 8abd b43b 0e3f
00000040: 099d 5bbd eedf edbd 3873 1a3f d5d9 1e3f
00000050: 7880 2cbd 0cd5 083f 3738 07be fab8 1b3f
00000060: 6237 96bd 20eb 343e 1489 2e3e b910 98bd
00000070: e880 a8be 59a1 283f a187 2c3f e3d5 1c3f
00000080: abdf a3bd 0cf3 f53e ec10 083f 0b35 143f
00000090: af8a 80be 5e9b f93e fa4a 133f 3333 75bd
000000a0: 89d0 49bd b5b2 25bd 1357 033e eaab 213f
000000b0: 1695 d7bd 4bc6 153f a2bc 07be 4306 9ebe
000000c0: 478e 9cbe 6fe3 3ebd f433 eb3d 040d 47bd
000000d0: b83d 0e3f 4278 f23e 210a d7bd 3245 dc3e
000000e0: c767 70bd fb70 cf3e 2512 02be f10a 8fbd
000000f0: 7637 47bb c37d 64bd e7e5 c5bd 7d7a 9cbe
00000100: 71e3 013f f7e0 223f ae10 0dbe 6c11 443e
00000110: 900e 4f3f 4be2 093f bcdd a0bd 9439 5c3e
00000120: ab0f 84bd 293c 65bd 0ffe 1e3f 249e f93e
00000130: 81db ca3e e202 e23d 74c0 79bd 8716 8b3e
00000140: fc64 0b3f 45ab 183f f9b2 f2bd 0002 de3e
00000150: 743f f2bd fdaa 203f a396 c5be 1681 6ebe
00000160: bf03 0b3f 5719 e9bc 5d7e cf3e 64da 293f
00000170: 8737 363e 1508 9d3e db3c 35be 23d2 05be
00000180: 5530 5cbc e643 1b3f 6f5e 173f 893c 313f
00000190: b2b4 253f 3177 53bd f3d3 a5be 5d84 213f
000001a0: 3bc4 b6bd 122d 033f 1f97 283f ba70 433f
000001b0: d550 8ebd ad16 003f 7f48 07be 180f 54be
000001c0: 97c2 bcbd 09e5 343f dfb0 cdbd 6bd5 afbd
000001d0: 4bc4 21bd 3132 273f fb0d 983b a817 ccbd
000001e0: 9c22 163f deef 253f 34a8 03be 6f8e a4bd
000001f0: d288 08be e9b5 933d c886 363f 290e e53e
0.5975494 0.2763847 0.23514292 0.086907424 -0.05717551 0.54943 0.45740208 -0.05991272
0.725551 -0.08421607 0.58696675 -0.033159323 0.63826734 -0.38168064 -0.067795604 0.5555985
-0.053616557 -0.11614977 0.6033206 0.62051135 -0.042114705 0.53450084 -0.13205038 0.60829127
-0.07334782 0.17667818 0.17044479 -0.074250646 -0.32910848 0.65871197 0.67394453 0.61263865
-0.08001646 0.48036993 0.5315082 0.5789344 -0.25105807 0.48751348 0.5753628 -0.05986328
-0.04927114 -0.04045363 0.12826185 0.63152945 -0.10526483 0.58505696 -0.13255551 -0.30864152
-0.305773 -0.046603616 0.11484519 -0.048596397 0.55562925 0.47357374 -0.10499979 0.43021542
-0.05869272 0.40515885 -0.12702234 -0.06984509 -0.0030398048 -0.055784 -0.09662991 -0.305622
0.50737673 0.6362452 -0.13775894 0.19147271 0.80881596 0.5386092 -0.078547925 0.2150634
-0.06448301 -0.055965576 0.6210641 0.48753464 0.39620593 0.11035706 -0.060974553 0.27165624
0.54450965 0.59636337 -0.118505426 0.433609 -0.11828509 0.6276091 -0.3859149 -0.2329143
0.5430259 -0.028454466 0.40526095 0.6634886 0.1779462 0.3067023 -0.17698996 -0.13068442
-0.013439258 0.6065048 0.5912847 0.69232994 0.64728844 -0.05162734 -0.32388267 0.63092595
-0.08924147 0.51240647 0.6585559 0.7634388 -0.06949011 0.500346 -0.13211249 -0.20708883
-0.092168026 0.7066198 -0.10043501 -0.08585628 -0.03949384 0.6531096 0.0046403385 -0.099654496
0.5864656 0.64819133 -0.12857133 -0.080349796 -0.13333443 0.07212431 0.7129941 0.44737366

value_stream.0.weight f4 [64, 128]
00000000: a51f 54bb dee8 de3e b028 6c3d 17ab a0bd
00000010: 10cd 2d3d 85dc e63e c332 253e 541b 71bd
00000020: f911 ec3e 8702 1a3d 6e58 423e a74d b43c
00000030: 25c0 0a3e a4f9 35c0 eb6c 02be cee9 b73e
00000040: 3889 a93d 0953 ed3d e3f1 793c 4a2d a03e
00000050: 0ceb 2a3e 1460 873e 226f edbf ef46 8b3e
00000060: ff57 983d 54a3 30be 150a da3d 6b9c a1bd
00000070: 94eb 40be 92ac d93e 6c85 783e efed a63d
00000080: df3d 393e a2f6 db3d bd42 973d 8120 4f3e
00000090: 14ec 75bd 5577 0d3e 6563 8a3e a3a8 cabc
000000a0: 2a2c 203e 7c78 8d3c 0aee d53d 650f 573e
000000b0: 31ec 37bd 92ca b03d d017 32be 3a6f fabe
000000c0: 53cc d7bf 61db 0f3e 9e46 513d 5817 88bd
000000d0: d3b0 b13e a237 e93d e6b8 47bc c44e 2b3e
000000e0: 1870 81bd 2972 ac3c 2101 52bd ef7d d2bd
000000f0: 01ea 84bf 0b7a 7abd d98d 88be 6b8f 85bd
00000100: 61ae a53e 154b 363e aa36 8e3b bb1e e8bd
00000110: 85a9 9e3e 5912 213e 0097 8ebd bd73 a23d
00000120: 546c 883c 6f71 8ebd 8785 3dbc 892e 5e3e
00000130: c0de a33e 3822 443e 2474 cd3d 6b20 6f3d
00000140: c81d 4e3e e878 a6bc 7600 d6bf fd42 c63e
00000150: 8a21 bfbd 4794 c33e 22a7 4e3c 7d7e 8b3d
00000160: 3f29 9d3d 56d6 9fbd 8550 f6bc 63bd cc3e
00000170: db41 cdbd 8ddd 0f3d bd21 89bd b1d5 adbe
00000180: d0ed 98bd 527e 3a3e 6291 103d a94e ef3d
00000190: d723 363e 88d7 583c 0d5a 5cbf 6722 e13e
000001a0: 3a60 093d 861d cd3e 88f1 a83e 2c94 be3e
000001b0: 00ea 6b3d 6f3f d43e 38f7 e6bf 9db6 82bd
000001c0: 0353 283e 73be b43e cbf5 8f3d 0394 423d
000001d0: 35ec a7bd 2afd 7c3e 2da7 2dbe fa8e b0bd
000001e0: 54e2 b03e 83cc 7f3e f1b9 acbf 1c28 31bd
000001f0: fa5b ecbf 9ba4 49bd ca74 ac3e 6a68 a83d
00000200: c426 943c c7d7 af3e aef1 1ebe d961 c53d
00000210: 6ec9 383c 75c9 b53e 3c18 973d 0153 483d
00000220: a361 043d 62b2 04bc ee37 453e 981e 94bd
00000230: cf23 813e 7b95 18bf d82c 8bbd a127 9c3d
00000240: 3701 0fbe 6d1a 6e3d 72e3 90bd fa67 213e
00000250: 160c a0bc c421 743e 58ef cb3d 2bb2 113c
00000260: 35d4 06bd 68bf edba 782d cd3d 6216 2fbe
00000270: 1fa0 cb3b 93bc 353d 59e3 52bc 547c 4d3d
00000280: da2d f53d 6a0d 603c e0ba 9ebc 7dd4 433d
00000290: 16c4 9bbd 1889 373e c703 913e af87 c13d
000002a0: 34e9 523e 8177 3a3e 9e2f 3abd 7790 fbbd
000002b0: 2299 fe3d 052f 703c 6f32 33bd 28c4 cebe
000002c0: 303d 53bf 298f 8cbd b920 183c 2c1f 84bd
000002d0: 901a 023e 5405 ac3d 5ebf c23e 7aeb 2cbe
000002e0: d8b8 133c adfb 0e3e 5d45 b43d 771f 17bc
000002f0: 427e 28bd 87db 433d f04a 943e d5d1 5e3d
00000300: 5f52 ab3e d16c 353e 08fa 98bc e5e6 cd3d
00000310: 0420 9a3e 9331 973e bda1 15be f5ac 02be
00000320: b1e5 9b3d 5495 943c d92c a5bc 917a 9cbd
00000330: 62b0 803e 2bfd d63d 473d 913d b190 5d3e
00000340: 0866 b43e 0853 133e 1d07 e6be 2b46 ec3d
00000350: bb7b 15be 50f8 653e f8d3 e63d c8ca 64bd
00000360: 6c43 ecbb 8657 b1bd b162 11be f11b 913e
00000370: 9d9e a5bc fe89 2ebe d791 15bd af16 c6be
00000380: 13b5 06be 73c0 873e 0cd3 633e 852b 903e
00000390: b5ec 243e 647d 313b e47a f8bf 305c 703e
000003a0: cd21 01be 1317 9f3e 147d 8ebd 2277 753e
000003b0: 6a2b 9fbd 6d81 7d3e fa42 d8be 9760 0b3e
000003c0: 7789 b8bd 2d5e 9b3e fbfa 1fbe 51b3 c03b
000003d0: 1e3c 06be cf45 ca3d 8c40 17be a88a 693c
000003e0: 3645 fcbc d67b 0dbd 5f4e 6dbe 4b55 dbbd
000003f0: 2763 35bf 8f8f 0c3c 2fa7 f23d e556 d7bd
-0.0032367494 0.4353704 0.05765599 -0.07845133 0.04243189 0.45090118 0.16132645 -0.058863953
0.46107462 0.037600067 0.18979046 0.022009684 0.1354986 -2.8433619 -0.12736861 0.35920566
0.082781255 0.11588103 0.015255424 0.31284553 0.16691226 0.2644049 -1.854954 0.27202556
0.07438659 -0.17249805 0.10646454 -0.078911625 -0.18839866 0.42514473 0.24269646 0.08150851
0.18090008 0.10740401 0.07385776 0.20227243 -0.060039595 0.13815053 0.27028957 -0.024738615
0.15641847 0.017269365 0.10445793 0.21001966 -0.044902984 0.08632387 -0.17391896 -0.48912984
-1.685923 0.1404853 0.051092736 -0.066450775 0.3470522 0.11387564 -0.012190079 0.16729265
-0.06320208 0.02105053 -0.051270608 -0.10277926 -1.0383912 -0.061151545 -0.2667072 -0.065214954
0.32359603 0.17802079 0.0043400126 -0.11333986 0.30988708 0.15729655 -0.06962395 0.079322316
0.016653217 -0.069552295 -0.01156748 0.21697439 0.32005882 0.19153678 0.10031918 0.058380526
0.20128548 -0.020321324 -1.6718891 0.38722983 -0.09332569 0.38199064 0.01261309 0.06811235
0.07673883 -0.07804553 -0.030067692 0.3998824 -0.100223266 0.035123397 -0.06695888 -0.33952096
-0.07467234 0.1821225 0.035294898 0.11684925 0.1778711 0.01323498 -0.86074907 0.4397156
0.033539034 0.40061587 0.32996774 0.3722242 0.057596207 0.41454646 -1.8044195 -0.06382487
0.16437916 0.3530155 0.07029303 0.047504436 -0.0819935 0.2470595 -0.16958304 -0.086210206
0.34547675 0.24980359 -1.3494245 -0.043251142 -1.8465569 -0.049229246 0.33682853 0.082230404
0.018084891 0.34344313 -0.15521881 0.096378036 0.011278493 0.35505262 0.07377669 0.048907284
0.032319676 -0.00809917 0.19259617 -0.07232398 0.25222632 -0.5960309 -0.06795663 0.07624746
-0.13965307 0.05813067 -0.07074632 0.1576232 -0.019537013 0.23841006 0.099577606 0.008892576
-0.03291722 -0.0018138709 0.10018438 -0.17098382 0.0062141563 0.04436929 -0.012871587 0.050167397
0.11971636 0.013675073 -0.019376218 0.047810066 -0.0760576 0.17923391 0.28323194 0.09449708
0.20596772 0.1820965 -0.045455568 -0.12283414 0.124315515 0.014659648 -0.04374927 -0.4038403
-0.8251524 -0.06863243 0.009285145 -0.06451258 0.12705445 0.08399454 0.38036627 -0.16886702
0.009016238 0.13963194 0.088022925 -0.00922381 -0.041136034 0.04781678 0.28963423 0.05439933
0.33461282 0.17717291 -0.018673912 0.10053805 0.3010255 0.2953001 -0.1461248 -0.1276129
0.076121695 0.018137611 -0.020162987 -0.07640565 0.2513457 0.10497507 0.07091766 0.21637227
0.35234094 0.14387143 -0.44927302 0.11536821 -0.1459798 0.22458005 0.112708986 -0.05585745
-0.0072101858 -0.08659272 -0.14197804 0.2834163 -0.020217234 -0.17044827 -0.036516037 -0.3868918
-0.13155012 0.26514015 0.22248477 0.28158203 0.16105922 0.0027082795 -1.9412503 0.23472667
-0.1261055 0.31072292 -0.069574505 0.23971227 -0.077719525 0.24756403 -0.422386 0.13611065
-0.09010594 0.30345288 -0.15623085 0.005880751 -0.1310887 0.09876596 -0.14770716 0.01425425
-0.030794721 -0.034541927 -0.23174427 -0.10709628 -0.7085442 0.008579149 0.11848294 -0.10514621

value_stream.0.bias f4 [64]
00000000: af4f 7a3f 3153 533f 7ba6 18bd a8a0 ddbc
00000010: aa28 cabd d7b2 683f 426f 753f 744f 443f
00000020: a30e 7abd 8260 28bd d098 5c3f ac6e 24be
00000030: c0c9 c4bb a3b4 21bd 1321 703f b2ad 743f
00000040: 4936 1e3f 2d4e 62bb 39a8 30bd 0f7e 713f
00000050: 7c84 b2bc 050a 563f 1f84 603f e425 e23d
00000060: c4fa 6d3f 5814 6a3f b6ba 713f 142f 2cbd
00000070: 1fc2 dbbc 2556 683f 4afd 79bd adb8 6e3f
00000080: 7cd3 25bd e34d 7ebd 73d2 68bd ed59 4e3f
00000090: 971f 46bd e990 30bd b7f4 813f 336f 773f
000000a0: 6b92 5d3d 9486 643f c3fd 683f 7fc8 bebd
000000b0: e378 fbbc b99b 943c 83d8 2cbd fae2 713f
000000c0: 4500 7b3f 7edb 82bc b316 753f e5f8 82bc
000000d0: bb9b 3f3e 613d 413d 25a8 633f 2021 16bd
000000e0: c3dd 3abd 6cfd 81bd 3b8f 83bd d952 763f
000000f0: 5f70 413e 9c83 343d 08a8 11bd bade 5abd
0.9777784 0.82548815 -0.037268143 -0.027054146 -0.09871037 0.9089789 0.9587289 0.76683736
-0.061049115 -0.041107662 0.86170673 -0.16057843 -0.006005496 -0.03947891 0.9380047 0.9557754
0.6180158 -0.003453146 -0.04312918 0.94332975 -0.02179169 0.8360904 0.877016 0.11042383
0.9296076 0.9143729 0.94425523 -0.042037085 -0.026825963 0.90756446 -0.06103257 0.9325054
-0.04048489 -0.062085997 -0.056841325 0.80605966 -0.04836997 -0.043106947 1.0152806 0.9665405
0.054094713 0.8926785 0.9101221 -0.09315585 -0.030697292 0.01814066 -0.04219867 0.94486964
0.98047286 -0.015973803 0.9573776 -0.015987823 0.1871175 0.047177676 0.88928443 -0.036652684
-0.045621645 -0.063471645 -0.064238034 0.96220165 0.18890522 0.044070825 -0.035560638 -0.053435065

value_stream.2.weight f4 [1, 64]
00000000: e630 cf3e 0207 483e f685 7dbe 0c14 b03c
00000010: ea44 f2bd d0a9 873e 42db ef3e bfff f43d
00000020: 32eb 61be 13eb c6bd 386d 623e 9a39 10bf
00000030: c9fc 0fbe 7928 48be 1636 8f3e 7128 e83e
00000040: 4157 91bc 13e8 bfbf 9e5c 27be d039 093f
00000050: ef68 6ebe 5c89 2c3e 1baf 563e aa51 b4bf
00000060: ddfb ac3e 236f 973e f61e c33e 8a29 7abe
00000070: 3453 2abe 5624 a83e 221b 473c e113 b63e
00000080: 9874 e8bb b63d 70bb b3c6 0fbe 4d48 0c3e
00000090: bc8e 9abd d617 17bd d6f3 eb3e b1c2 d13e
000000a0: 761c bfbf 6aa7 733e cfa7 8a3e 326b f3bd
000000b0: 72cb 6bbe 1b1b a2bf 559d 82be e9da bb3e
000000c0: 7aaf c73e fad6 94be 5c17 ee3e 52e9 eebd
000000d0: aa5e d2bf b547 80bf 6901 953e 4619 39bd
000000e0: 67a5 24bd e2c6 28be 60d4 0abe 4367 e23e
000000f0: e2b8 d7bf 2710 67bf a382 93bd 6757 60bf
0.40466994 0.19533923 -0.24758133 0.021493934 -0.118295506 0.26496744 0.46846968 0.11962842
-0.22062376 -0.097128056 0.22111976 -0.56337893 -0.14061274 -0.19546689 0.27970952 0.45343354
-0.017741801 -1.4992698 -0.16343924 0.5360384 -0.23282216 0.16849273 0.20965235 -1.4087422
0.33785906 0.29576978 0.3810956 -0.24429908 -0.16633302 0.32840222 0.012152465 0.3556204
-0.007093977 -0.0036657876 -0.14040641 0.13699456 -0.07546756 -0.036887966 0.4608447 0.4096885
-1.493056 0.23794332 0.27081153 -0.1188568 -0.23026827 -1.2664522 -0.2551066 0.36690453
0.39001065 -0.29070264 0.46502197 -0.11665596 -1.6435139 -1.0021883 0.29102638 -0.04519012
-0.040196802 -0.16482118 -0.13557577 0.44219407 -1.6853297 -0.9025902 -0.07202651 -0.87633365

advantage_stream.0.weight f4 [64, 128]
00000000: c9ff de3e b96e 4f3e 692a 31bd f98c 203e
00000010: aff9 0f3e 4aa0 24be 8632 b03d cfbe b33c
00000020: 74d9 e8bd fcdf 08be af65 813d 9871 633d
00000030: fe16 bcbf a865 a1be 1206 b63d fbfc 0cbe
00000040: 8870 49bd be02 19be 1107 b0be 2083 903e
00000050: 00b8 483e 7aea afbd 2d10 f53e b827 373e
00000060: 4f41 423e 12af fcbe a7e3 a03e 7d4b c43d
00000070: d128 093d 9d91 1a3e b72e 333e 7418 613e
00000080: 3381 153e 6bbb 28bf d367 27c0 fb13 cf3d
00000090: 1b8f 13c0 0f2f 2fbe f8e1 903e 0e42 213c
000000a0: 80fc fd3d a6ec 203e f20a a93e de65 f73e
000000b0: 927d 0fbe 1f4e 2dbf 4cfa f4bd 4bd6 04bf
000000c0: 4241 99bf 6162 e33b de7f 5b3e d9cf 7f3c
000000d0: f075 c53d 8202 903e fb95 e6bd cd0f fb3e
000000e0: a915 16be 2b20 3e3e 23da 8d3c 4078 2cbb
000000f0: 2b1f f23e 7821 c93d 16f0 133f 5bd0 f43d
00000100: cbab 39be 0d72 073e 874a 10be 2a24 a7bf
00000110: b41e 4ec0 4454 683e 18c9 68bd 09cf 9a3e
00000120: 18d1 10be d0bb bfbd 1055 f23c 62c5 50be
00000130: c57d 0d3e d5eb 12bf 170b 28bc c3e0 853e
00000140: 06b2 bd3e 0e25 013f 1500 d53e 3e2d d4bd
00000150: d66d 103e 17af c23e b7d7 ff3d 3c4b 12bd
00000160: e5ba 2d3e e6f6 b33d 5776 253d b089 a23b
00000170: 9b88 dc3d 48a6 febe 5ba8 efbd 1059 06be
00000180: b854 1e3e 296e c13c d556 243d 44d4 b53b
00000190: 67eb 5fba 7a7c ad3d 6faa 8dbf 4d9b bf3e
000001a0: 8a83 773e b02e 1a3f 01db ac3c 4c37 4fc0
000001b0: 2266 f1bd 7820 a83e 22c0 c63e c29b 4dbe
000001c0: 5dc5 19be c64e f1be 0915 b4bd 7d6a e93d
000001d0: 3045 a33d b24e cd3e 6e6f 393e 3ff2 bd3e
000001e0: 28a8 e6be b983 dabf 5656 ef3e 0c05 b6bd
000001f0: 6a39 033f 39aa 37be ebb3 4a3d b1c7 343e
00000200: f0cc 75be a26d 163b 6927 0e3e 62eb 0b3e
00000210: 498f 1cbd 5640 79bc ef21 86be ae9f efbd
00000220: 25ae 5b3d 4711 d23c c179 013c 077b d33c
00000230: 5133 42be c62b ec3d 2c20 2e3e 6e2e 823c
00000240: a13b 323e d0be 3b3d 405e d53d f387 07be
00000250: f257 7b3d a2e0 48be 0d07 dabc 75c8 40be
00000260: ddd3 913d 818f 42be f07d b8bd 4d07 90bd
00000270: 5ac3 fc3d 094a 50be ddaf 2bbe 91e4 023e
00000280: 733e 903d fc5f 1a3e 512f f83d 3323 1ebe
00000290: aa21 0a3d 932a 84be ad49 48be 2acb 0fbd
000002a0: 9ebf a2bd 488f 163d 9b90 4fbc 2a6c e0bc
000002b0: 4d18 373c fdb5 78bd 1b3d 1c3e 8934 9fbd
000002c0: f35c f73d 2a1a 033e a9af 043e 539b aebd
000002d0: 4170 0dbe c482 35be 73f2 9dbd 1c31 063e
000002e0: e8c0 a4bc e802 69be 24e0 03be f2e7 16be
000002f0: adfc cdbd 802d 733d 05b6 cabd c12f 5cbc
00000300: fca0 4cbe b474 46be ec47 e0bd 49ef 71be
00000310: c250 7fbd 2848 15be 78eb b3bd 8bfe 0ebe
00000320: f15d 923d d760 a63d 5c35 c7bd d0fa 263d
00000330: 0447 f03d ec13 cfbd c431 d9bd c952 a63d
00000340: 5642 a0bd 5e37 d6bd e1e2 e53d 7fcd d13b
00000350: 9b64 fabd 438c ffbd 4276 0c3e 681f 693e
00000360: d031 f2bd 3e00 b73d 422b 56bd 2dce 40bd
00000370: 83f4 4bbe 0164 86be 9a25 e53d 6db2 febd
00000380: a6a3 943d 0eb9 72be ecec bd3d 4014 10be
00000390: 8d26 1cbe 7074 183e a607 2dbe 1a91 2dbe
000003a0: 0fdf 1dbe d4d7 d43c 9b15 93bc bbeb 7fbd
000003b0: 53f3 443d 8aa5 f1bd 65d9 ec3c c6b4 60bd
000003c0: f854 34bd 587c 10bc 3ba6 413d 4f35 ef3d
000003d0: 5f15 273e 900a b43d 1c63 04be 4567 46be
000003e0: 663a 36be e540 45bd a24e 2b3e eda5 da3c
000003f0: 7c0d edbc 4327 f13d c89f f23c 62c2 143d
0.43554524 0.20257081 -0.043253336 0.15678777 0.1406009 -0.1607677 0.086033866 0.02194157
-0.11369601 -0.13366693 0.06318223 0.055528253 -1.4694517 -0.3152287 0.088878766 -0.1376838
-0.049179584 -0.14942452 -0.3438039 0.2822504 0.1960144 -0.08589645 0.47863904 0.17886245
0.18970226 -0.49352318 0.31423685 0.09584711 0.03348619 0.1509461 0.17498289 0.21981984
0.14600067 -0.6591098 -2.615712 0.10111233 -2.3056095 -0.17107795 0.282974 0.009842409
0.12401676 0.15715274 0.33016163 0.48319906 -0.14012745 -0.6769733 -0.11961803 -0.51889485
-1.197304 0.006939218 0.21435496 0.01561352 0.096416354 0.28126913 -0.11259075 0.49035493
-0.146567 0.18566959 0.01731593 -0.0026316792 0.47289404 0.09820837 0.5778822 0.11953803
-0.1813194 0.132271 -0.1409093 -1.3057911 -3.220624 0.22688395 -0.056832403 0.3023608
-0.14142263 -0.09361994 0.029581577 -0.20387796 0.13817509 -0.573911 -0.01025655 0.26148042
0.37049884 0.50447166 0.41601625 -0.10360192 0.14104399 0.38024208 0.12492316 -0.03571628
0.16965826 0.087873265 0.04039606 0.0049602613 0.10768243 -0.49736238 -0.11702033 -0.13119912
0.15462005 0.023612099 0.040121872 0.0055489857 -0.00085418526 0.08471008 -1.1067637 0.37423173
0.24171272 0.6022749 0.021100523 -3.23775 -0.117870584 0.32837272 0.3881846 -0.20078948
-0.15016694 -0.47130412 -0.08793075 0.11397264 0.07972181 0.40099102 0.18108913 0.37098882
-0.45050168 -1.7071449 0.46745557 -0.08887681 0.5125948 -0.17936029 0.04948799 0.17654301
-0.24003959 0.002295353 0.13882221 0.1366401 -0.038222585 -0.015213093 -0.26197764 -0.11700378
0.053632874 0.025643004 0.007902564 0.0258155 -0.18964888 0.115317866 0.1700446 0.01589128
0.17405559 0.04583627 0.104183674 -0.13235454 0.061363168 -0.1961694 -0.02661469 -0.18826468
0.07120488 -0.19000055 -0.09008396 -0.070326425 0.12341948 -0.20340742 -0.16766305 0.12782504
0.07043161 0.15075678 0.121184 -0.15443115 0.03372351 -0.25813732 -0.19559355 -0.03510586
-0.07946704 0.036757737 -0.012668754 -0.027395327 0.011175227 -0.060720433 0.15257685 -0.07773692
0.120782755 0.1280295 0.12957634 -0.085257195 -0.13812353 -0.17725664 -0.07712259 0.13104671
-0.020111516 -0.22755015 -0.12878472 -0.14736918 -0.1005796 0.059369564 -0.09897999 -0.01343912
-0.19983286 -0.19380456 -0.10951218 -0.23626436 -0.062332876 -0.14578307 -0.087851465 -0.13964288
0.07146824 0.081239395 -0.09726974 0.040766537 0.11732295 -0.10111222 -0.10605195 0.08121259
-0.078251526 -0.10459779 0.11224914 0.006402671 -0.1222622 -0.12477925 0.13716987 0.22765887
-0.11825907 0.08935593 -0.052287348 -0.047071625 -0.19917493 -0.26248172 0.111888126 -0.12436376
0.07257776 -0.23703405 0.09273705 -0.14070225 -0.15249081 0.14888167 -0.16897449 -0.16949883
-0.15417121 0.025981821 -0.017954638 -0.06248067 0.048083615 -0.11799152 0.028912256 -0.0548599
-0.044026345 -0.008818708 0.04727767 0.1168009 0.16316746 0.08791077 -0.12928432 -0.19375332
-0.17795715 -0.04815759 0.16729215 0.026690448 -0.028937094 0.11775067 0.029617205 0.03631819

advantage_stream.0.bias f4 [64]
00000000: 7ae6 f73d fa0f 9cbd a751 81bd 7138 7c3c
00000010: b71b 25bd 0fe1 6abd 5456 5cbe fc81 55bc
00000020: 26b8 30bd 851c 733d b1b7 84bb e6fb f5bd
00000030: 8cf9 8dbd 6b71 13be c163 2dbd 8a81 9ebd
00000040: 5f6d 8dbd c847 4dbd abcb 44bd a1ec 70bd
00000050: 6169 b7bc 1726 fbbd a9fc 2bbd d556 b2bd
00000060: 9de5 3e3e cfd7 3dbd ddaf 04bc 6b76 3ebe
00000070: f4d5 083d 85f9 88bc 6c71 42bc 32e5 27bd
00000080: 3e29 9dbd a85a 66bd 64aa 4abd 62c6 db3d
00000090: 3505 d53e bdfd 1c3e c066 db3d fa62 12ba
000000a0: a8f9 49be cb9b 0fbd da9b edbc 1a5b c4bd
000000b0: 16a6 0dbe 7e82 02bd b2bb e43e f0bf 5abe
000000c0: cfe3 68be 6d10 03bd fd9d 3bbe a576 1c3c
000000d0: e87f bf3d 406f 1f3e 5519 2dbd 12f0 76bd
000000e0: e20c 2bbe 3122 11bc 6c72 fa3d 5c2a 043e
000000f0: dca1 c1bc 8523 9ebd 8cba d0bc 6894 063e
0.12104507 -0.07620235 -0.06314402 0.015394316 -0.040309634 -0.05734354 -0.21517307 -0.013031479
-0.043144368 0.05935337 -0.004050218 -0.120109364 -0.06932363 -0.14398734 -0.04233146 -0.07739551
-0.069056265 -0.050117284 -0.048045795 -0.058819417 -0.022389116 -0.122631244 -0.041989002 -0.08707968
0.18642278 -0.04634839 -0.00809857 -0.1859986 0.033407167 -0.016720543 -0.011867862 -0.040990062
-0.07673882 -0.0562388 -0.049478903 0.10731198 0.41605535 0.15331168 0.107129574 -0.00055842067
-0.19724143 -0.035060685 -0.02900498 -0.09587689 -0.13832888 -0.03186273 0.4467445 -0.21362281
-0.22743152 -0.031998087 -0.18321986 0.009549771 0.09350568 0.15569782 -0.042260487 -0.060287543
-0.16704133 -0.0088582495 0.122288555 0.12906784 -0.02363675 -0.077216186 -0.025479577 0.1314255

advantage_stream.2.weight f4 [2, 64]
00000000: 69fb 0ebf 9cdc 77bc 9af3 9dbd 854e 213f
00000010: 8cc1 4bbe 3d65 3fbe b68e 46be 6297 3e3e
00000020: 68e7 873e 7671 3d3f 82b4 643d 149d b3bb
00000030: 872c 1e3e 7e3c 8b3b 7511 dbbc f1b9 483c
00000040: 7db5 8bbd fbd4 3f3d f8f3 0bbb 23e8 46be
00000050: e36a 26be 317e 40be b1aa 3e3e efce 06bd
00000060: 9c16 babf 294b 8c3d 0632 c93d 797b f93d
00000070: 5a77 3fbe 75f6 67bd 1172 303c 01f6 5b3e
00000080: 1d5f 973e 4b9b 1b3e c455 5bbe 1e84 71bf
00000090: ae7e 823f 99b9 dabe 4515 013e ce30 633d
000000a0: e795 39bd 6e89 173e 4062 a43c 0960 303e
000000b0: bd18 0a3d 511e d43e 4583 de3f 9236 e2bd
000000c0: dde5 423f b420 b7bd 6f93 76be 5a35 78be
000000d0: fc2b 93bf 75c2 f4be a4cd 93be 87ba 81bd
000000e0: 2d3b 693e da03 c13c baf6 a5bf 5512 c33f
000000f0: 14c3 2f3f e4a6 303e d545 813e e941 823e
00000100: 40f1 893f ff6c 32be 8545 d33d ede1 5cbf
00000110: 2929 1f3e 18b4 033e 103b 23be edba 013e
00000120: d8ec a73c b49d 32bf 1518 9bbd 5ded d5bc
00000130: 91d5 043e 97d4 f03c 42b8 883b ca0d 723c
00000140: a19b fcbc 3309 edbd 2b97 2cbe 62ab 223e
00000150: 53e3 37be 3d3b 123e 1a37 5b3c ed7f 04bd
00000160: 7c48 b33f 7ea3 f83d 4cd9 373e 016d d93d
00000170: 727f 6d3e f14b 173e 98e7 b3ba a169 90bd
00000180: 495c 3ebd c642 d03d 8e11 2fbe 051a 873f
00000190: 3a95 8bbf 04da 643f 880b 9fbd 0d9d 9b3d
000001a0: a573 993e dc28 8d3e ce18 683d 6bd1 303e
000001b0: e7c8 3cbc 427a 5fbf 117d c3bf 8d58 0bbe
000001c0: f5aa 63bf 0ade 5dbe 0dac 89be 161e 1b3e
000001d0: 9043 c53f 7b30 643f 51dd 9abe 011b 7abd
000001e0: 9e16 653e 7a8f 8abe b836 ab3f 373f cfbf
000001f0: 3c51 57bf 800d 23be 2abd 7f3d 557e c6be
-0.5585237 -0.015128281 -0.07712479 0.63010436 -0.19898051 -0.18690963 -0.19390377 0.18612435
0.26543736 0.7400125 0.05583621 -0.0054813717 0.15446673 0.0042491546 -0.026741723 0.012251363
-0.068217255 0.046833973 -0.0021355134 -0.1942449 -0.16251712 -0.18798138 0.18619801 -0.03291219
-1.453815 0.06850273 0.09823994 0.12181754 -0.18697873 -0.056631524 0.010769383 0.21480562
0.29564753 0.15195958 -0.21419436 -0.9434222 1.019491 -0.42719725 0.1260577 0.055466466
-0.045308974 0.14798519 0.02006638 0.17224135 0.033715 0.4142938 1.738381 -0.11045565
0.76131994 -0.089417845 -0.24079679 -0.24239102 -1.1497798 -0.4780461 -0.2886783 -0.063344054
0.2277648 0.023561407 -1.296592 1.523997 0.6865704 0.17251164 0.2524859 0.2544091
1.0776749 -0.17424391 0.10315994 -0.86282235 0.15543045 0.12861669 -0.159405 0.12668963
0.020498678 -0.69771886 -0.07572953 -0.02611416 0.12972094 0.029398246 0.004172356 0.014773795
-0.030835928 -0.1157402 -0.16854541 0.1588569 -0.17957811 0.1428041 0.013379836 -0.032348562
1.4006495 0.12140559 0.17953986 0.10616494 0.23193148 0.14775063 -0.0013725637 -0.07051397
-0.04647473 0.10168986 -0.1709654 1.0554816 -1.0904915 0.89395165 -0.07765871 0.075983144
0.29971042 0.27570236 0.05666428 0.17267387 -0.011522508 -0.87295926 -1.5272542 -0.13607998
-0.88932735 -0.21666732 -0.26889077 0.15148196 1.5411243 0.89136475 -0.30246976 -0.06106091
0.22371909 -0.2706259 1.3376074 -1.6191167 -0.8410833 -0.15923119 0.06243626 -0.3876826

advantage_stream.2.bias f4 [2]
00000000: e21e 483d e21e 48bd
0.048857577 -0.048857577

exp_avg f4 [128, 4]
00000000: 0400 0000 0400 0000 0400 0080 0400 0000
00000010: 669a 9f38 1db4 c939 72c3 1eb9 1cd8 3dba
00000020: 0400 0000 0400 0000 0400 0080 0400 0080
00000030: 004f 12b9 cba7 47bc 90fd 9bb8 49c9 b13b
00000040: 0400 0000 0400 0000 0400 0000 0400 0080
00000050: b74c 9d39 3f8a 84bb 6839 cb39 24f0 643b
00000060: 0400 0000 0400 0000 0400 0000 0400 0080
00000070: 0400 0000 0400 0000 0400 0080 0400 0000
00000080: 0400 0080 0400 0080 0400 0000 0400 0000
00000090: 0400 0000 0400 0080 0400 0080 0400 0080
000000a0: 0400 0080 0400 0080 0400 0080 0400 0000
000000b0: 0400 0000 0400 0000 0400 0000 0400 0080
000000c0: 0400 0080 0400 0000 0400 0000 0400 0080
000000d0: 95cc 643a dc49 57b9 0b8c c938 d220 2739
000000e0: 0400 0080 0400 0080 0400 0080 0400 0080
000000f0: bfed 83bc e663 373c e1ae bf39 498e 57bc
00000100: 0a0d f9bb 74a1 93bb 0d88 7a39 e5a8 a5ba
00000110: 0400 0080 0400 0000 0400 0000 0400 0000
00000120: 384a 5e3a a24f 71ba a161 99b8 a35e cd39
00000130: 0400 0080 0400 0080 0400 0080 0400 0080
00000140: 8a3d 9a3a 8bf0 0bb9 9e37 4ab9 57b3 02ba
00000150: 0400 0080 0400 0080 0400 0000 0400 0000
00000160: 0400 0000 0400 0080 0400 0080 0400 0000
00000170: 0400 0000 0400 0000 0400 0000 0400 0000
00000180: 0400 0000 0400 0000 0400 0000 0400 0000
00000190: 0400 0000 0400 0000 0400 0000 0400 0000
000001a0: 2e93 ab3b ac79 ab3b 52e6 4aba c236 b3bb
000001b0: 0400 0080 0400 0080 0400 0080 0400 0000
000001c0: 0400 0080 0400 0000 0400 0080 0400 0080
000001d0: 2882 66ba 51a1 1fbc 4b8a 10ba ba32 e83a
000001e0: 90da 5eb8 6c76 003b f33d 8739 d58b 84ba
000001f0: 0400 0000 0400 0000 0400 0000 0400 0080
00000200: 0400 0000 0400 0080 0400 0080 0400 0080
00000210: 0400 0000 0400 0080 0400 0080 0400 0000
00000220: 0136 c2bc 1d99 813c 21ac f139 2faa a7bc
00000230: 0400 0000 0400 0000 0400 0000 0400 0080
00000240: 0400 0000 0400 0000 0400 0000 0400 0080
00000250: 0400 0000 0400 0000 0400 0000 0400 0080
00000260: 0400 0080 0400 0080 0400 0000 0400 0000
00000270: 0400 0080 0400 0080 0400 0080 0400 0080
00000280: 0400 0000 0400 0080 0400 0080 0400 0080
00000290: 41ab 643b 1b9a a2bb 1ec4 0239 2acf 773b
000002a0: 53d4 93bc 6682 5f37 d2f4 4e39 6854 26bc
000002b0: 257c 153b 3267 1cbb e5cf 35b9 8d92 813a
000002c0: 0400 0080 0400 0080 0400 0080 0400 0000
000002d0: 0400 0080 0400 0080 0400 0080 0400 0000
000002e0: 0400 0000 0400 0080 0400 0000 0400 0000
000002f0: 0400 0000 0400 0080 0400 0080 0400 0080
00000300: 75f9 5e3c 2e9f 343c c5f9 01bb 777d 67bc
00000310: b620 673c de89 4fbc d094 c337 d717 423c
00000320: 0400 0000 0400 0000 0400 0000 0400 0000
00000330: 0400 0000 0400 0000 0400 0000 0400 0000
00000340: 5700 793a cb24 3a3a ff67 3938 1849 2c3a
00000350: 0400 0080 0400 0080 0400 0080 0400 0080
00000360: 0400 0000 0400 0080 0400 0080 0400 0080
00000370: 0400 0080 0400 0080 0400 0000 0400 0000
00000380: 0400 0000 0400 0000 0400 0000 0400 0000
00000390: 0400 0000 0400 0000 0400 0080 0400 0000
000003a0: 8e0d 23b8 d746 053a 69f1 32b9 8a46 5aba
000003b0: 0400 0080 0400 0080 0400 0080 0400 0080
000003c0: c7e8 923a 775e 7537 537b b338 911a 3c3a
000003d0: 3180 923a 9e47 183a da0b b3b9 217a 09bb
000003e0: fc04 a5bb 3401 d8bb 2b89 44ba a21e 2c39
000003f0: 0400 0080 0400 0080 0400 0000 0400 0000
6e-45 6e-45 -6e-45 6e-45 7.61047e-05 0.00038471902 -0.00015140863 -0.00072419806
6e-45 6e-45 -6e-45 -6e-45 -0.00013953075 -0.012186001 -7.438206e-05 0.0054256064
6e-45 6e-45 6e-45 -6e-45 0.0003000253 -0.0040448005 0.00038761948 0.0034933174
6e-45 6e-45 6e-45 -6e-45 6e-45 6e-45 -6e-45 6e-45
-6e-45 -6e-45 6e-45 6e-45 6e-45 -6e-45 -6e-45 -6e-45
-6e-45 -6e-45 -6e-45 6e-45 6e-45 6e-45 6e-45 -6e-45
-6e-45 6e-45 6e-45 -6e-45 0.0008727995 -0.00020531513 9.610512e-05 0.00015938588
-6e-45 -6e-45 -6e-45 -6e-45 -0.016104577 0.011193251 0.00036560654 -0.013156482
-0.0076004313 -0.0045053307 0.00023892541 -0.0012638835 -6e-45 6e-45 6e-45 6e-45
0.00084796874 -0.00092052866 -7.313793e-05 0.00039171157 -6e-45 -6e-45 -6e-45 -6e-45
0.0011767608 -0.00013345682 -0.0001928494 -0.000498583 -6e-45 -6e-45 6e-45 6e-45
6e-45 -6e-45 -6e-45 6e-45 6e-45 6e-45 6e-45 6e-45
6e-45 6e-45 6e-45 6e-45 6e-45 6e-45 6e-45 6e-45
0.005236051 0.0052330103 -0.0007740009 -0.005469174 -6e-45 -6e-45 -6e-45 6e-45
-6e-45 6e-45 -6e-45 -6e-45 -0.00087931985 -0.009743051 -0.00055137713 0.0017715313
-5.3132477e-05 0.0019601835 0.00025795362 -0.0010112474 6e-45 6e-45 6e-45 -6e-45
6e-45 -6e-45 -6e-45 -6e-45 6e-45 -6e-45 -6e-45 6e-45
-0.023707392 0.01582008 0.00046095348 -0.020466892 6e-45 6e-45 6e-45 -6e-45
6e-45 6e-45 6e-45 -6e-45 6e-45 6e-45 6e-45 -6e-45
-6e-45 -6e-45 6e-45 6e-45 -6e-45 -6e-45 -6e-45 -6e-45
6e-45 -6e-45 -6e-45 -6e-45 0.0034892114 -0.0049622185 0.00012470825 0.0037812688
-0.01804558 1.33221965e-05 0.00019736894 -0.01015196 0.0022809592 -0.002386522 -0.00017338952 0.0009885594
-6e-45 -6e-45 -6e-45 6e-45 -6e-45 -6e-45 -6e-45 6e-45
6e-45 -6e-45 6e-45 6e-45 6e-45 -6e-45 -6e-45 -6e-45
0.01360928 0.0110242795 -0.0019832712 -0.014129034 0.01410692 -0.012667147 2.3315108e-05 0.011846504
6e-45 6e-45 6e-45 6e-45 6e-45 6e-45 6e-45 6e-45
0.0009498647 0.00071008195 4.420429e-05 0.0006572171 -6e-45 -6e-45 -6e-45 -6e-45
6e-45 -6e-45 -6e-45 -6e-45 -6e-45 -6e-45 6e-45 6e-45
6e-45 6e-45 6e-45 6e-45 6e-45 6e-45 -6e-45 6e-45
-3.8874852e-05 0.00050841033 -0.00017065335 -0.0008326551 -6e-45 -6e-45 -6e-45 -6e-45
0.0011208289 1.4625132e-05 8.558356e-05 0.00071755896 0.001117712 0.00058090116 -0.0003415037 -0.0020977336
-0.0050359946 -0.0065919403 -0.0007497246 0.0001641461 -6e-45 -6e-45 6e-45 6e-45
