CartPoleHighRewardIn2026/checkpoints/checkpoint_ep900_reward90.00.pt (torch, 421167 bytes, 33 tensors)

feature_layer.0.weight f4 [128, 4]
-0.027169436 0.059773844 -0.20544805 0.1531395 -0.06419176 -0.06312878 -0.49152476 -0.3012237
-0.005174331 -0.0045932196 -1.1854813 0.0141970245 -0.04695121 0.012455227 0.3696656 0.013949588
-0.016024517 0.006965976 1.6613344 -0.01353464 -0.052865457 0.04748002 -0.45528963 0.07186984
0.014838688 -0.017397817 0.22059456 -0.04166055 -0.10103718 0.011805041 -0.2146127 0.0167177
-0.116012655 0.10376425 0.49898145 0.07553845 0.024572136 -0.00084103784 0.21802136 0.037569765
0.021294864 -0.021765398 -0.3794587 0.038887355 0.04912808 -0.04129822 0.12705779 -0.030004563
0.03830526 -0.098625906 0.058600463 -0.10482775 -0.1247502 0.27043658 -0.31541952 0.23558652
0.03317364 -0.0071719745 0.24976768 -0.020421201 -0.017546264 -0.053174708 0.4211435 -0.24935819
-0.03775183 0.06556797 0.43655497 0.08866633 -0.03784387 0.05615579 -0.5192663 0.047400307
-0.016752932 -0.017876351 1.6510569 0.15333073 0.029241644 -0.13093396 0.8353143 -0.056418777
-0.017774306 -0.017684639 -1.6593072 -0.19418441 -0.05442603 0.1002623 1.4296947 0.34130317
0.0009161828 0.010792008 -1.1465272 0.023019252 0.02742754 -0.02058365 0.47900614 -0.034736183
0.21495767 0.3244874 0.7838055 0.27528945 -0.036413126 0.06144212 -0.5116873 0.09428021
-0.0071424674 -0.0134248985 1.6581002 -0.0007848877 -0.061988153 0.06744633 -0.18425497 0.07202159
-0.10847955 -0.054101784 -1.2616023 -0.24112327 -0.05382993 0.114228934 -0.044616234 0.12813802
-0.027795486 0.028313966 0.5457215 0.2656962 -0.0031322099 -0.0019764223 1.725461 0.02004214
-0.014090989 -0.011977874 0.13983731 -0.041786764 -0.004680095 0.023881983 -0.41790587 0.026269758
-0.051098302 -0.020388108 -0.9919925 -0.076669924 0.019911753 -0.060932014 0.1318311 -0.048109397
0.09761023 0.32654753 0.8568004 0.31243742 0.12063319 0.18278569 0.9875474 0.12651438
-0.0059116296 -0.0005415608 1.3692697 -0.027919862 -0.017002027 0.004945195 0.17153005 -0.12493176
0.054234207 -0.07683316 0.27629393 -0.08702764 -0.13568076 0.15445736 0.61229885 0.14294876
-0.35106543 -0.30261147 -0.5381427 -0.32416204 0.027789144 0.015132455 0.07147313 0.05509627
-0.20739077 -0.09948171 -0.102664284 -0.04425055 -0.010902546 -0.005541302 -0.09123335 -0.028268099
0.39027178 0.17701209 0.67647636 0.16845818 0.31378067 -0.03982926 0.23221974 -0.03245618
0.009861931 -0.02143336 -1.4192526 -0.038510766 -0.0464771 -0.031886484 -1.7109149 -0.12872565
-0.0148029905 -0.013715991 1.4733483 0.008763355 -0.0055240085 -0.020216955 -0.19102128 -0.022758141
0.021729678 -0.07647463 0.029993983 -0.19303913 0.026754519 -0.052473478 0.3689371 -0.052821685
0.045128852 -0.020139735 -0.17066056 -0.0050182226 -0.056909915 0.013699047 1.4680741 0.35880426
-0.09002151 0.029352002 -0.5779081 0.20508964 -0.056272592 0.045317072 -0.5535319 0.09511362
-0.03426691 -0.05202817 -1.7739952 -0.20777602 0.019261668 -0.04245102 0.31983548 -0.10393231
-0.02712386 -0.006031377 -1.6742104 -0.16779925 -0.103687726 0.041056562 1.7871482 0.14846808
-0.017865835 0.004846198 1.5834985 0.16232562 0.028411895 -0.04791801 0.14074872 -0.061221506
00000000: 7092 debc 6bd5 743d f960 52be 9ad0 1c3e
00000010: f876 83bd a949 81bd 22a9 fbbe fe39 9abe
00000020: 6f8d a9bb b882 96bb dabd 97bf a39a 683c
00000030: e94f 40bd 0211 4c3c cf44 bd3e d08c 643c
00000040: d945 83bc d842 e43b 9ba6 d43f 65c0 5dbc
00000050: 7389 58bd 697a 423d b91b e9be 7f30 933d
00000060: f81d 733c de85 8ebc 8ae3 613e 41a4 2abd
00000070: 95ec cebd ee69 413c 6ec3 5bbe 8ff3 883c
00000080: 0b98 edbd 5a82 d43d 7f7a ff3e e7b3 9a3d
00000090: 814b c93c 1879 5cba fe40 5f3e c1e2 193d
000000a0: 9172 ae3c 594d b2bc 6948 c2be 5948 1f3d
000000b0: 873a 493d 5328 29bd 701b 023e 21cc f5bc
000000c0: fae5 1c3d 61fc c9bd 0a07 703d eeaf d6bd
000000d0: 087d ffbd aa76 8a3e ab7e a1be 983d 713e
000000e0: 15e1 073d e202 ebbb 19c3 7f3e 5d4a a7bc
000000f0: 2fbd 8fbc b9cd 59bd 1fa0 d73e c157 7fbe
00000100: aaa1 1abd 8048 863d 2284 df3e b196 b53d
00000110: 2d02 1bbd 9d03 663d a3ee 04bf d326 423d
00000120: 723d 89bc 6d71 92bc d555 d33f bb02 1d3e
00000130: 2c8c ef3c 8d13 06be 28d7 553f 6017 67bd
00000140: 6c9b 91bc 60df 90bc 2e64 d4bf 47d8 46be
00000150: d4ed 5ebd 5256 cd3d 3c00 b73f 4abf ae3e
00000160: fd2b 703a f6d0 303c 67c1 92bf df92 bc3c
00000170: b8af e03c 0b9f a8bc 4b40 f53e 8747 0ebd
00000180: dd1d 5c3e 3623 a63e 7aa7 483f bdf2 8c3e
00000190: ee25 15bd bbaa 7b3d f0fd 02bf fc15 c13d
000001a0: 5c0b eabb 1bf4 5bbc a13c d43f ecc0 4dba
000001b0: 4ae7 7dbd 4d21 8a3d 56ad 3cbe 0e80 933d
000001c0: 872a debd d599 5dbd 2f7c a1bf 05e9 76be
000001d0: c67c 5cbd dcf0 e93d 83bf 36bd 9d36 033e
000001e0: 5cb3 e3bc b1f2 e73c 67b4 0b3f 5509 883e
000001f0: c345 4dbb dd86 01bb e8db dc3f 6a2f a43c
00000200: e4dd 66bc d83e 44bc 8331 0f3e 9928 2bbd
00000210: 7b5b 99bb 26a4 c33c c2f7 d5be ad33 d73c
00000220: 744c 51bd f604 a7bc 38f3 7dbf 1f05 9dbd
00000230: f91d a33c d993 79bd bbfe 063e 5c0e 45bd
00000240: dfe7 c73d 3d31 a73e 4557 5b3f ccf7 9f3e
00000250: 890e f73d 2c2c 3b3e e8cf 7c3f fc8c 013e
00000260: 58b6 c1bb 88f7 0dba 3b44 af3f 32b8 e4bc
00000270: d647 8bbc 4d0b a23b 93a5 2f3e 39dc ffbd
00000280: b024 5e3d b45a 9dbd 6676 8d3e 8c3b b2bd
00000290: e6ef 0abe 122a 1e3e 9ebf 1c3f 2961 123e
000002a0: d9be b3be e4ef 9abe b8c3 09bf 91f8 a5be
000002b0: 0fa6 e33c 1eee 773c 8160 923d a0ac 613d
000002c0: 3f5e 54be 11bd cbbd a741 d2bd 1140 35bd
000002d0: 98a0 32bc cf93 b5bb 8dd8 babd 8092 e7bc
000002e0: b4d1 c73e a842 353e 8e2d 2d3f 4d80 2c3e
000002f0: dca7 a03e 0224 23bd 03cb 6d3e c5f0 04bd
00000300: f093 213c 0495 afbc 12aa b5bf 77bd 1dbd
00000310: c65e 3ebd 679b 02bd 42ff dabf a8d0 03be
00000320: 3e88 72bc 09b9 60bc ad96 bc3f 2d94 0f3c
00000330: be02 b5bb 079e a5bc 159b 43be 486f babc
00000340: 7002 b23c bb9e 9cbd f1b5 f53c 0dac 45be
00000350: 4b2c db3c 6eee 56bd 53e5 bc3e 8d5b 58bd
00000360: 08d9 383d 16fc a4bc a4c1 2ebe e76f a4bb
00000370: 5f1a 69bd f871 603c dae9 bb3f 31b5 b73e
00000380: 335d b8bd 9c73 f03c c9f1 13bf 0503 523e
00000390: 177e 66bd 659e 393d 44b4 0dbf eeca c23d
000003a0: 765b 0cbd 7e1b 55bd 4612 e3bf 3dc3 54be
000003b0: a5ca 9d3c 1fe1 2dbd 7ac1 a33e 77da d4bd
000003c0: db32 debc dba2 c5bb 874c d6bf 91d3 2bbe
000003d0: 3b5a d4bd ed2a 283d 46c1 e43f 0408 183e
000003e0: 5f5b 92bc dbcc 9e3b 14b0 ca3f b038 263e
000003f0: 10c0 e83c ad45 44bd 6f20 103e 67c3 7abd

feature_layer.0.bias f4 [128]
-0.26660967 -0.5258857 -0.2866741 0.193894 -0.3565589 -0.18997706 -0.101477146 0.04630973
-0.37325075 -0.15935825 -0.36873507 -0.1986188 -0.2676398 -0.2046155 -0.12591106 -0.5836065
0.23845379 -0.18615879 -0.33203942 -0.21925317 -0.38671666 -0.3198246 -0.2615428 -0.15851635
-0.61126673 -0.19026244 -0.36045086 -0.16962963 -0.462069 -0.27534857 -0.53492266 -0.2977085
-0.15365182 -0.18441488 -0.52487254 -0.22753718 -0.39660144 -0.47428858 -0.2931015 -0.035168655
-0.2446465 -0.51891387 -0.72735494 -0.1645191 -0.6486958 -0.16642168 -0.7369536 -0.46366948
-0.24798496 -0.3593487 -0.33068427 -0.13419203 -0.49556062 -0.17975086 -0.15630181 -0.5025535
-0.49078396 -0.24637987 -0.32903862 -0.28078666 -0.36035848 -0.34955004 -0.32456583 -0.15545677
-0.35586786 -0.11753165 -0.37901285 -0.2848796 -0.45099118 -0.17698832 -0.42329976 -0.14293398
-0.43366346 -0.18384108 -0.34785587 -0.15290244 -0.28571278 -0.2141571 -0.53989094 -0.1161389
-0.36870432 -0.09802102 -0.32012534 -0.33528835 -0.50405616 -0.22084361 -0.5984396 -0.19232012
-0.23834632 -0.29720086 -0.2646852 -0.23384888 -0.36683762 -0.257964 -0.30466646 -0.3981147
-0.73938245 -0.3601465 -0.20156734 -0.43415824 -0.28585133 -0.1873745 -0.23980749 0.047394283
-0.28775263 -0.4463812 -0.38887972 -0.34904405 -0.37559852 -0.18211108 -0.16815223 -0.13747051
-0.4693311 -0.28566712 0.21258636 -0.25883764 -0.03819385 -0.27982754 0.18949515 -0.15709996
-0.41534266 -0.13827918 -0.37548998 -0.42022288 -0.21986942 -0.26732433 -0.3747168 -0.2504017
00000000: 1081 88be 72a0 06bf f3c6 92be 268c 463e
00000010: e38e b6be 5989 42be 40d3 cfbd 45af 3d3d
00000020: b91a bfbe cf2e 23be d8ca bcbe ba62 4bbe
00000030: 1508 89be ba86 51be d4ee 00be 3c67 15bf
00000040: 3b2d 743e 69a0 3ebe 1201 aabe e783 60be
00000050: baff c5be 0dc0 a3be f0e8 85be 1c52 22be
00000060: fa7b 1cbf 28d4 42be 048d b8be 64b3 2dbe
00000070: 4f94 ecbe 7dfa 8cbe b1f0 08bf 406d 98be
00000080: e756 1dbe 41d7 3cbe 0c5e 06bf 82ff 68be
00000090: 580f cbbe f4d5 f2be 6611 96be 020d 10bd
000000a0: 9d84 7abe 8ad7 04bf ef33 3abf b277 28be
000000b0: ee10 26bf 726a 2abe fea8 3cbf 1666 edbe
000000c0: c5ef 7dbe 8efc b7be 734f a9be a369 09be
000000d0: 1fba fdbe 9c10 38be 950d 20be 59a7 00bf
000000e0: 0948 fbbe 014b 7cbe c077 a8be 45c3 8fbe
000000f0: e880 b8be 39f8 b2be 7e2d a6be 0f30 1fbe
00000100: 5034 b6be 6fb4 f0bd f90d c2be bddb 91be
00000110: 51e8 e6be 6d3c 35be bfba d8be 495d 12be
00000120: 2309 debe d640 3cbe 2a1a b2be 7592 1cbe
00000130: f248 92be 004c 5bbe 4b36 0abf 3bda edbd
00000140: d0c6 bcbe 3fbf c8bd 78e7 a3be eaaa abbe
00000150: d309 01bf d424 62be 5633 19bf 91ef 44be
00000160: 0f11 74be b62a 98be d284 87be 1576 6fbe
00000170: 24d2 bbbe db13 84be 3efd 9bbe b1d5 cbbe
00000180: 2b48 3dbf 1f65 b8be ab67 4ebe fd49 debe
00000190: 1b5b 92be 1adf 3fbe 1890 75be 8220 423d
000001a0: 5054 93be 148c e4be 3e1b c7be e7b5 b2be
000001b0: 734e c0be 547b 3abe 1930 2cbe 12c5 0cbe
000001c0: 2a4c f0be f642 92be 3db0 593e 5e86 84be
000001d0: 2871 1cbd 8e45 8fbe 040b 423e d0de 20be
000001e0: cba7 d4be 0f99 0dbe 3940 c0be 7427 d7be
000001f0: 7325 61be bcde 88be e1da bfbe a734 80be

feature_layer.2.weight f4 [128, 128]
-0.098296516 -0.32890853 -0.27630946 0.28345186 0.21402863 -0.071767926 0.091943644 0.09399534
0.23985386 0.071521394 0.10863542 0.2068159 0.14540546 -0.046171267 0.19878596 -0.12017776
0.2451954 -0.02815117 1.264182 0.3791332 -1.7556959 0.14902362 0.018743776 0.1959046
0.122092254 -0.019621035 0.3900883 -0.00362605 -0.27135906 -0.25418383 -0.26438448 0.4921651
0.10323654 -0.18478835 0.0062416396 0.15371181 0.21261059 -0.13602759 -0.054061662 -0.31088868
-0.0148142865 0.10614013 -0.063282624 0.21341155 0.34583688 -0.01195196 1.1984388 0.5647877
-1.0288913 -2.7637827 0.06644595 0.06116203 -0.48471788 -0.06801598 0.08167017 0.048805255
-0.12196982 0.04644544 -2.179402 0.119169146 -3.0766945 0.49844566 0.96772337 0.11565866
0.94667524 -0.15377223 0.029128527 0.41607338 -1.9830744 0.11151187 0.5072568 0.06289862
0.22772624 -0.055232324 0.1518531 0.48835272 1.4639157 0.117767416 0.5190398 0.17194808
0.93018484 0.017023113 -0.11817742 -0.78646284 0.022603372 0.10302114 0.24685863 0.28753898
0.31744057 -0.33171943 -0.19981737 0.16497062 0.09322135 0.14209582 0.32827157 -0.9947735
0.37075138 0.07827728 -0.026276415 0.17410265 0.15415578 0.04057867 0.3721083 -0.079410315
0.33409345 -3.0049698 1.4830076 -3.1766891 0.6636136 -0.05848145 -0.0075674686 0.06940756
0.024876148 -1.6018846 -0.02012288 -0.2232499 0.21226677 -0.46434748 0.28666353 -0.007636374
-0.105749905 0.061609816 -1.0861604 0.033928104 -0.023694899 -0.38850403 -0.041223526 -0.3696715
0.014743587 -0.07527142 -0.07378231 -0.13886316 0.059424225 -0.09827436 0.048986726 -0.010331498
0.047510013 0.068559766 -0.0040602735 -0.0912499 0.0224605 0.06924669 0.1205555 -0.164386
-0.010216654 -0.07345129 0.112274185 -0.07343928 -0.04588622 0.03785765 -0.13776872 0.0138801485
0.069584385 -0.06598684 -0.1561624 -0.18775403 -0.12726991 -0.1560286 0.04720521 -0.052561115
-0.05286871 0.092591755 0.0073751863 -0.14260352 -0.021278959 0.03555395 -0.07463011 -0.041119937
-0.050037935 -0.13213678 -0.15157202 -0.10501571 0.06492739 0.113027796 -0.12297676 0.06943259
-0.09781997 -0.05138821 -0.0036248644 0.04109065 0.025599679 -0.16600277 0.009471683 -0.16714348
0.11552427 0.10611048 -0.15885404 0.02854259 0.0843267 -0.11270432 0.033187952 -0.108159564
-0.10874736 -0.08993664 -0.06494192 -0.14619029 0.009573649 0.122358605 0.016474234 -0.019838631
-0.17820938 -0.009885762 0.09726602 -0.017736604 0.14755367 0.11390561 0.048085123 -0.17065664
-0.05685032 -0.071959086 -0.052779645 -0.121521436 -0.07456445 -0.07809936 -0.06505298 -0.15472703
-0.12770648 0.046019465 0.11845873 0.11575131 0.072704084 -0.18161516 -0.05737952 -0.07513691
0.03967812 0.14366181 0.07304116 0.058464907 -0.103552945 0.100700416 -0.15477814 -0.14510193
0.021616658 0.09763084 0.07919347 -0.1768364 0.06552938 -0.07645025 -0.015359374 -0.10443107
-0.13687186 -0.04424033 -0.047871582 0.061676785 -0.1351948 -0.056596488 0.0119511 -0.084004775
-0.13956745 -0.012698692 0.0076729017 -0.056970894 -0.010458517 0.097782284 0.0433119 0.0056415377
00000000: af4f c9bd b366 a8be 6f78 8dbe 9a20 913e
00000010: 522a 5b3e 10fb 92bd f34c bc3d a180 c03d
00000020: 409c 753e cf79 923d 3f7c de3d 8cc7 533e
00000030: 2be5 143e 151e 3dbd 8c8e 4b3e c21f f6bd
00000040: 8114 7b3e 489d e6bc b7d0 a13f bf1d c23e
00000050: a5ba e0bf a699 183e 8c8c 993c 379b 483e
00000060: 810b fa3d 4bbc a0bc a7b9 c73e 06a3 6dbb
00000070: 93ef 8abe 6224 82be 675d 87be 10fd fb3e
00000080: ae6d d33d 2839 3dbe ab86 cc3b a166 1d3e
00000090: 97b6 593e d14a 0bbe c36f 5dbd cd2c 9fbe
000000a0: 9fb7 72bc ff5f d93d 529a 81bd 8f88 5a3e
000000b0: 8811 b13e 27d2 43bc 7166 993f ed95 103f
000000c0: b6b2 83bf d1e1 30c0 d014 883d 0985 7a3d
000000d0: f12c f8be f64b 8bbd b142 a73d 05e8 473d
000000e0: 50cb f9bd 933d 3e3d 537b 0bc0 f40e f43d
000000f0: 90e8 44c0 4534 ff3e b8bc 773f 73de ec3d
00000100: 4f59 723f 7876 1dbe f39e ee3c 9207 d53e
00000110: 62d5 fdbf 5660 e43d 95db 013f fed0 803d
00000120: 1131 693e 4a3b 62bd 617f 1b3e 5e09 fa3e
00000130: 9761 bb3f 0b30 f13d cbdf 043f 2813 303e
00000140: 9820 6e3f 0e74 8b3c 0107 f2bd a155 49bf
00000150: b52a b93c bffc d23d 82c8 7c3e 4f38 933e
00000160: 9287 a23e 21d7 a9be ed9c 4cbe 0fee 283e
00000170: d6ea be3d 9181 113e 3613 a83e 7aa9 7ebf
00000180: 20d3 bd3e d74f a03d a341 d7bc f747 323e
00000190: 03db 1d3e d235 263d fb84 be3e e0a1 a2bd
000001a0: 4c0e ab3e 6d51 40c0 31d3 bd3f e04e 4bc0
000001b0: 95e2 293f 3f8a 6fbd 87f8 f7bb 8d25 8e3d
000001c0: 10c9 cb3c 8e0a cdbf bdd8 a4bc 9f9b 64be
000001d0: 765c 593e f4be edbe 90c5 923e 8c3a fabb
000001e0: 6893 d8bd 935a 7c3d 4e07 8bbf 32f8 0a3d
000001f0: ce1b c2bc 00ea c6be 00da 28bd 9545 bdbe
00000200: 168f 713c e727 9abd 2e1b 97bd 2532 0ebe
00000210: d166 733d 1144 c9bd 4ea6 483d 7245 29bc
00000220: dc99 423d 1069 8c3d 0b0c 85bb 3ae1 babd
00000230: 15ff b73c 35d1 8d3d cde5 f63d ce54 28be
00000240: c163 27bc a16d 96bd 02f0 e53d 5567 96bd
00000250: 30f3 3bbd a010 1b3d 3e13 0dbe 9069 633c
00000260: 4282 8e3d 1c24 87bd 09e9 1fbe 9842 40be
00000270: 0b53 02be f6c5 1fbe 405a 413d 534a 57bd
00000280: dc8c 58bd bfa0 bd3d 8cab f13b a806 12be
00000290: 3651 aebc 05a1 113d acd7 98bd 616d 28bd
000002a0: 94f4 4cbd dd4e 07be b235 1bbe 7a12 d7bd
000002b0: a7f8 843d 1e7b e73d 3ddb fbbd ac32 8e3d
000002c0: d655 c8bd 727c 52bd 228f 6dbb ab4e 283d
000002d0: 6bb6 d13c a1fc 29be 1e2f 1b3c a927 2bbe
000002e0: fd97 ec3d 7450 d93d a2aa 22be 26d2 e93c
000002f0: 7ab3 ac3d 86d1 e6bd 17f0 073d c382 ddbd
00000300: f0b6 debd b330 b8bd 4500 85bd e8b2 15be
00000310: cbda 1c3c 2697 fa3d f9f4 863c a084 a2bc
00000320: 857c 36be e4f7 21bc 6833 c73d 5b4c 91bc
00000330: 4f18 173e 5847 e93d e8f4 443d 9dc0 2ebe
00000340: e2db 68bd 495f 93bd 782f 58bd 3be0 f8bd
00000350: 3fb5 98bd 8ff2 9fbd 7f3a 85bd c370 1ebe
00000360: 7dc5 02be e87e 3c3d 7e9a f23d 060f ed3d
00000370: e1e5 943d 53f9 39be ca06 6bbd 61e1 99bd
00000380: 8685 223d 151c 133e 9b96 953d e678 6f3d
00000390: 9113 d4bd 053c ce3d 297e 1ebe 9a95 14be
000003a0: 6b15 b13c aef2 c73d 3030 a23d 9a14 35be
000003b0: 4534 863d f391 9cbd e2a5 7bbc f5df d5bd
000003c0: 2328 0cbe 5935 35bd fe14 44bd cca0 7c3d
000003d0: 8170 0abe b8d1 67bd 8cce 433c b20a acbd
000003e0: c5ea 0ebe 2d0e 50bc f76c fb3b 505a 69bd
000003f0: 335a 2bbc 1442 c83d d267 313d a6dc b83b

feature_layer.2.bias f4 [128]
0.45902538 -0.06851663 0.32135662 0.29794458 -0.091237426 0.44652286 0.6499025 -0.21123485
0.6210976 -0.04497297 -0.141518 -0.043600734 0.71030533 -0.38271302 -0.26852542 0.53438485
-0.07053779 -0.1130851 0.55468416 0.5135054 -0.09840176 0.5374345 -0.15150286 0.6353555
-0.09875819 0.50452906 0.3498741 -0.13462336 -0.20378183 0.43442756 0.48472446 0.45647264
-0.048233427 0.14478832 0.15215963 0.38471025 -0.068912156 0.6456372 0.5001865 -0.07364771
-0.55237216 -0.07400177 0.3825608 0.6668507 0.45045748 -0.038468067 -0.032498628 0.278153
-0.1738313 -0.045125786 0.39265522 -0.07032882 0.4588452 0.6011685 -0.17007986 0.5332945
-0.060268342 0.57796705 -0.08570951 -0.07969162 -0.26813787 -0.04055478 -0.07073965 -0.37565166
0.586148 -0.045632202 -0.06358353 0.6912919 0.48763815 0.4109717 -0.080073215 0.49624968
-0.044328853 -0.065937616 0.44670668 0.40245524 0.4996894 0.6109322 -0.04718722 -0.06949552
0.18168645 0.5485672 -0.32274178 0.47863588 -0.058929164 0.48496196 -0.100755684 -0.06452633
0.5811375 -0.13431518 0.5366186 0.513082 0.57485944 0.4199359 0.5831354 0.5373207
-0.1403698 0.60083723 -0.08641684 0.4485069 0.5090611 -0.033285704 0.60825 0.51151264
-0.056766268 0.55922216 0.620086 0.58892447 -0.039207973 0.5921569 -0.17750056 -0.49870595
-0.07700909 0.5850184 0.5072204 -0.08640025 -0.045961957 0.46641827 0.64831764 0.46017405
0.85498863 0.49636573 -0.3710645 0.4727706 -0.13486059 -0.0129704485 0.6225395 0.5860455
00000000: 6005 eb3e 7252 8cbd db88 a43e 318c 983e
00000010: b0da babd a59e e43e 0360 263f f34d 58be
00000020: 4100 1f3f 9435 38bd 18ea 10be af96 32bd
00000030: 92d6 353f f6f2 c3be 2a7c 89be 72cd 083f
00000040: 1e76 90bd 2999 e7bd c8ff 0d3f 1775 033f
00000050: dd86 c9bd 4f95 093f 9123 1bbe a8a6 223f
00000060: bc41 cabd d128 013f b322 b33e b5da 09be
00000070: 2fac 50be 4a6d de3e ce2d f83e c8b6 e93e
00000080: 6a90 45bd 6443 143e bccf 1b3e bef8 c43e
00000090: d121 8dbd 7b48 253f 390c 003f 9cd4 96bd
000000a0: 4368 0dbf 3d8e 97bd 02df c33e bab6 2a3f
000000b0: 5da2 e63e b190 1dbd 481d 05bd 126a 8e3e
000000c0: d500 32be d1d5 38bd 1b0a c93e 8e08 90bd
000000d0: c2ed ea3e 2ee6 193f 6a29 2ebe fd85 083f
000000e0: f0db 76bd a6f5 133f 7888 afbd 5c35 a3bd
000000f0: 5e49 89be c51c 26bd f3df 90bd 6a55 c0be
00000100: cc0d 163f d5e8 3abd 1538 82bd 82f8 303f
00000110: b5ab f93e e26a d23e 6dfd a3bd 7014 fe3e
00000120: 2c92 35bd 4d0a 87bd bdb6 e43e 9d0e ce3e
00000130: 4ad7 ff3e 0d66 1c3f 6347 41bd ab53 8ebd
00000140: 030c 3a3e e66e 0c3f 693e a5be c30f f53e
00000150: b55f 71bd ef4c f83e ff58 cebd 6126 84bd
00000160: 6dc5 143f eb89 09be d65f 093f 5859 033f
00000170: fd29 133f d701 d73e 5d48 153f d98d 093f
00000180: 1abd 0fbe 78d0 193f 50fb b0bd b2a2 e53e
00000190: d451 023f 9756 08bd 46b6 1b3f 7ef2 023f
000001a0: bf83 68bd 2f29 0f3f f5bd 1e3f c1c3 163f
000001b0: 8a98 20bd 9897 173f b5c2 35be 6356 ffbe
000001c0: f1b6 9dbd c4c3 153f 32d9 013f 9df2 b0bd
000001d0: 9b42 3cbd 60ce ee3e 25f8 253f ef9b eb3e
000001e0: 89e0 5a3f a623 fe3e 2bfc bdbe fd0e f23e
000001f0: e518 0abe 0182 54bc c05e 1f3f 1407 163f

value_stream.0.weight f4 [64, 128]
-0.014010678 0.05585484 -0.12565404 0.1683699 0.07088935 0.20386665 0.16035329 -0.49132997
0.42918447 -0.016399221 0.4462839 0.019934392 0.12619804 -1.3860852 -1.2440617 0.35186186
0.114362165 0.12830296 -0.005560368 0.27485958 0.1527569 0.22728878 -0.99192846 0.2355082
-0.0006269305 -0.0793442 -0.016124563 -0.069356136 -1.1662555 0.2599273 0.13534993 0.07642191
0.1922361 -0.07029216 0.37578228 0.07798525 -0.09855635 0.22675315 0.1755305 -0.05704524
-0.125484 0.024037136 0.2527979 0.5423499 0.014779327 -0.04234818 -0.11640809 0.018018747
-0.83888894 0.1224946 0.10414181 -0.10602076 0.20868646 0.2508231 -0.89419544 0.2779217
-0.08530053 0.12718445 -0.0424939 -0.07591535 -1.1033093 -0.067205116 -0.1260182 0.09608147
0.3990599 0.037431832 0.037613284 0.06969352 0.14561717 -0.021179622 -0.15423295 0.10799388
-0.22837731 0.034767468 -0.010025126 0.1369653 0.26920882 0.1655923 0.057148658 0.018524902
0.33849826 0.10657616 -2.0297413 0.3261968 -0.10405184 0.23928988 -0.10282479 0.0918292
0.1269091 -0.19952355 0.028180793 0.22395532 0.14839499 -0.08612653 0.23863697 0.09248484
-0.22292939 0.1327472 -0.0053314054 0.011307513 0.20035875 -0.031139644 0.33293384 0.38208324
0.06342064 0.3926999 0.31888726 0.33846763 0.043775555 0.45948687 -1.0200744 -0.20936301
0.14996457 0.30634782 0.20534414 0.034351017 -0.086641125 0.19112812 0.26645717 0.01382727
0.5831836 0.19754142 -1.5604887 0.040855944 0.01379478 0.05863036 0.43022648 0.09577216
0.042892538 0.099346116 -0.3817054 0.38105607 0.030754821 0.0921338 0.14760429 0.18580632
-0.04852763 -0.020192506 0.4589762 -0.06516297 0.23568104 -0.05533983 -0.12337672 0.03351735
-0.11460883 0.1011708 -0.11891646 0.08802202 -0.059480444 0.24595255 0.56836873 -0.029131068
-0.10363469 0.0487341 -0.040864922 -0.15907905 -0.05531554 -0.10389217 -0.17066565 -0.00036507027
0.15158327 -0.13621767 0.2964995 -0.092940874 -0.07495976 0.25664195 0.20136735 0.064412996
-0.026925975 0.1867829 0.2306924 0.24066512 0.13843912 0.0018541366 -0.03591393 0.03030225
0.057596263 -0.077875875 0.023979882 -0.10357058 0.025715183 0.24326602 0.12986036 -0.038716815
-0.018762728 0.2462059 0.04819606 0.013639228 0.055714913 0.03482281 0.13986096 0.1734052
0.361449 0.14122309 -0.00037069988 0.23984604 0.08185555 0.11789065 -0.25334957 -0.10721675
-0.14251854 0.11983941 -0.058215637 -0.11609642 0.11981369 0.19329615 0.026913127 0.17284532
0.34403372 0.34347007 0.12372053 0.09468967 -0.1602058 0.12807801 -0.041820336 -0.038143314
0.028929448 -0.1693797 -0.038679212 0.061413914 0.20259109 -0.113375105 0.12863371 0.02543286
-0.34154 0.18159348 0.28906792 0.13100025 0.1368455 -0.024697747 0.19991766 0.19863538
-0.10644203 0.31144205 -0.11643639 0.18747807 -0.086995825 0.32539585 0.28958416 -0.05134845
-0.08176206 0.20676374 -0.110359065 -0.007802985 -0.14316548 0.028623711 0.29102618 0.054160852
0.19799526 -0.11883039 0.23925814 -0.17193271 -0.021439053 0.15011486 0.16963792 -0.0870189
00000000: 0b8d 65bc 0bc8 643d 74ab 00be 2969 2c3e
00000010: 6f2e 913d 6bc2 503e a733 243e 9a8f fbbe
00000020: 11be db3e a957 86bc 537f e43e 734d a33c
00000030: 0f3a 013e 3d6b b1bf 6a3d 9fbf 3d27 b43e
00000040: b636 ea3d da61 033e bf33 b6bb 65ba 8c3e
00000050: 4e6c 1c3e 64be 683e 06ef 7dbf 1029 713e
00000060: 9858 24ba 367f a2bd a917 84bc 970a 8ebd
00000070: dc47 95bf 3115 853e 2c99 0a3e 1783 9c3d
00000080: 8ad9 443e 56f5 8fbd 8966 c03e bbb6 9f3d
00000090: e9d7 c9bd fa31 683e 44be 333e 45a8 69bd
000000a0: e17e 00be 87e9 c43c ba6e 813e 71d7 0a3f
000000b0: fe24 723c 4975 2dbd 5d67 eebd 0d9c 933c
000000c0: 6dc1 56bf 73de fa3d 4d48 d53d 6a21 d9bd
000000d0: e7b1 553e e36b 803e fee9 64bf c14b 8e3e
000000e0: 0bb2 aebd a43c 023e 150e 2ebd 8279 9bbd
000000f0: 3d39 8dbf d6a2 89bd ea0a 01be 5dc6 c43d
00000100: 9451 cc3e 1f52 193d 6310 1a3d 7abb 8e3d
00000110: ab1c 153e e380 adbc 3eef 1dbe e52b dd3d
00000120: bedb 69be 5568 0e3d 6d40 24bc a240 0c3e
00000130: bdd5 893e 0791 293e b614 6a3d 89c1 973c
00000140: a54f ad3e 9a44 da3d 48e7 01c0 4403 a73e
00000150: 2219 d5bd 6808 753e ce95 d2bd f310 bc3d
00000160: 76f4 013e e74f 4cbe 68db e63c 8b54 653e
00000170: dbf4 173e 1b63 b0bd 405d 743e b168 bd3d
00000180: 9a47 64be e2ee 073e 12b3 aebb 2643 393c
00000190: d82a 4d3e 9118 ffbc 4e76 aa3e 6aa0 c33e
000001a0: aee2 813d f60f c93e 3145 a33e a14b ad3e
000001b0: ff4d 333d dd41 eb3e cc91 82bf 4263 56be
000001c0: 5090 193e 9fd9 9c3e bc45 523e a7b3 0c3d
000001d0: e770 b1bd 17b7 433e 136d 883e c68b 623c
000001e0: 854b 153f 4c48 4a3e 18be c7bf 9058 273d
000001f0: 8003 623c 6326 703d a546 dc3e 3224 c43d
00000200: 16b0 2f3d fa75 cb3d e46e c3be c819 c33e
00000210: 89f1 fb3c a5b0 bc3d 9425 173e 0344 3e3e
00000220: e8c4 46bd c16a a5bc eefe ea3e 2a74 85bd
00000230: 5f56 713e 05ac 62bd efac fcbd 7d49 093d
00000240: 09b8 eabd a332 cf3d 798a f3bd e444 b43d
00000250: c4a1 73bd fcda 7b3e 9d80 113f 47a4 eebc
00000260: 6d3e d4bd 689d 473d fa61 27bd 9ee5 22be
00000270: 8c92 62bd 6bc5 d4bd fac2 2ebe e766 bfb9
00000280: a538 1b3e a57c 0bbe c8ce 973e c957 bebd
00000290: 8184 99bd 9366 833e 3e33 4e3e f6ea 833d
000002a0: dd93 dcbc 0444 3f3e a13a 6c3e eb70 763e
000002b0: fcc2 0d3e 8006 f33a 7c1a 13bd 6d3c f83c
000002c0: 0fea 6b3d 637d 9fbd 7571 c43c d01c d4bd
000002d0: a6a8 d23c ba1a 793e 1dfa 043e 8695 1ebd
000002e0: 4bb4 99bc 661d 7c3e 3b69 453d 1277 5f3c
000002f0: 5235 643d 5da2 0e3d b637 0f3e 2291 313e
00000300: d80f b93e c99c 103e 7f5a c2b9 339a 753e
00000310: e2a3 a73d a770 f13d 09b7 81be 7594 dbbd
00000320: 61f0 11be 5d6e f53d 8573 6ebd f6c3 edbd
00000330: e160 f53d 6def 453e eb78 dc3c 5dfe 303e
00000340: 3025 b03e 4fdb af3e 3061 fd3d a8ec c13d
00000350: fd0c 24be e226 033e cd4b 2bbd 2a3c 1cbd
00000360: 73fd ec3c df71 2dbe 186e 1ebd 288d 7b3d
00000370: 0a74 4f3e 3531 e8bd 8eb8 033e 9358 d03c
00000380: 55de aebe a4f3 393e b600 943e ee24 063e
00000390: 3a21 0c3e ee52 cabc 37b7 4c3e 1367 4b3e
000003a0: 47fe d9bd 5575 9f3e 3476 eebd 40fa 3f3e
000003b0: de2a b2bd 499a a63e 6044 943e c152 52bd
000003c0: de72 a7bd e0b9 533e ef03 e2bd 2fb0 ffbb
000003d0: f999 12be 467c ea3c 6201 953e c5d7 5d3d
000003e0: 45bf 4a3e 595d f3bd 1600 753e 210f 30be
000003f0: f4a0 afbc b6b7 193e 90b5 2d3e f736 b2bd

value_stream.0.bias f4 [64]
0.9649634 0.8473589 -0.052325696 -0.026228812 0.17967604 0.79444367 0.9976923 0.8669158
-0.01956242 0.046013698 0.91513616 -0.091230124 0.43449223 -0.021849776 0.86579454 0.99072206
0.5186176 0.04279554 -0.026396774 0.85228235 -0.016208757 0.4937227 0.93935466 0.081659414
0.9686144 0.95749754 0.9798914 -0.042087805 0.12918779 0.80542326 -0.034138225 0.97075397
-0.034018707 -0.02275489 -0.08536883 0.54913926 -0.09076893 -0.040726274 0.8601813 0.9822287
-0.08970349 0.7642533 0.961859 0.36473975 -0.035654344 -0.0511063 -0.026813338 0.9786688
0.94804287 0.13674071 0.9936377 -0.027964003 0.2422693 0.22164522 0.8231352 -0.043049503
0.0051028496 -0.09070074 -0.057834435 0.8836619 0.14530686 -0.012911865 -0.048503175 0.075823046
00000000: d707 773f 83ec 583f 7853 56bd cedd d6bc
00000010: fffc 373e a960 4b3f c368 7f3f 32ee 5d3f
00000020: 5e41 a0bc dc78 3c3d 5d46 6a3f dcd6 babd
00000030: c475 de3e 4dfe b2bc b6a4 5d3f f69f 7d3f
00000040: 1fc4 043f 604a 2f3d 0c3e d8bc 2d2f 5a3f
00000050: 3ac8 84bc 39c9 fc3e 8c79 703f 0d3d a73d
00000060: 1df7 773f 8f1e 753f 2ada 7a3f 4364 2cbd
00000070: ce49 043e 3830 4e3f 86d4 0bbd 5583 783f
00000080: 3357 0bbd 7768 babc dad5 aebd 6494 0c3f
00000090: 10e5 b9bd 98d0 26bd d734 5c3f 5773 7b3f
000000a0: 77b6 b7bd 1ba6 433f 643c 763f 2bbf ba3e
000000b0: 4a0a 12bd d754 51bd a5a7 dbbc 0a8a 7a3f
000000c0: f0b2 723f c205 0c3e 0a5f 7e3f c414 e5bc
000000d0: 7215 783e f7f6 623e fdb8 523f ad54 30bd
000000e0: ce35 a73b 4fc1 b9bd cde3 6cbd ab37 623f
000000f0: 52cb 143e 498c 53bc 44ab 46bd 1d49 9b3d

value_stream.2.weight f4 [1, 64]
0.3904498 0.15406674 -0.22375229 0.04372744 -1.2650084 0.2402969 0.50824153 0.19496776
-0.25307482 -1.5881723 0.2524827 -0.62698525 -1.3484391 -0.21054274 0.1295588 0.47517064
-0.0034741552 -1.3723477 -0.16224806 0.38051355 -0.20800295 0.006988655 0.3367476 -1.3225694
0.3812443 0.3509899 0.4133481 -0.25095403 -1.0611352 0.25086668 -0.00019441881 0.39426836
0.03156467 -0.031419136 -0.10578594 -0.0044364925 -0.0013291249 -0.016675463 0.36510077 0.48002124
0.005836377 0.16161679 0.3809939 -1.5087022 -0.21024153 0.0006801501 -0.1835301 0.39174154
0.3442305 -0.7843 0.4882157 -0.10568101 -1.2099198 -1.1392639 0.23785876 -0.106908694
-1.6422118 -0.13270833 -0.13888334 0.46580997 -1.0719311 -0.19473115 -0.09080311 -1.1816821
00000000: 09e9 c73e acc3 1d3e 521f 65be 8b1b 333d
00000010: cceb a1bf 6410 763e 1e1c 023f a1a5 473e
00000020: 0693 81be 3b49 cbbf 6a45 813e 1b82 20bf
00000030: a799 acbf 8498 57be 10ab 043e 9149 f33e
00000040: a7ae 63bb 17a9 afbf 5b24 26be acd2 c23e
00000050: bafe 54be 1601 e53b 2e6a ac3e f449 a9bf
00000060: 7432 c33e f3b4 b33e 5da2 d33e 0c7d 80be
00000070: 47d3 87bf 9971 803e e7dc 4bb9 8bdd c93e
00000080: f549 013d 5ab1 00bd 4da6 d8bd ff5f 91bb
00000090: 0836 aeba fb9a 88bc 7dee ba3e 58c5 f53e
000000a0: 143f bf3b df7e 253e a211 c33e 271d c1bf
000000b0: 8e49 57be 1a4c 323a 51ef 3bbe 5992 c83e
000000c0: fb3e b03e e3c7 48bf 69f7 f93e 496f d8bd
000000d0: a7de 9abf 66d3 91bf 3f91 733e f2f2 dabd
000000e0: ff33 d2bf b1e4 07be 6f37 0ebe a57e ee3e
000000f0: 0a35 89bf 9a67 47be fbf6 b9bd 5c41 97bf

advantage_stream.0.weight f4 [64, 128]
0.50044155 0.022712748 0.056152083 -0.0035978372 0.1451139 0.08786417 0.05427268 0.22411652
0.2537368 -0.12949155 -1.1332177 0.06896512 -0.2414775 -0.04083208 -0.39999142 0.026489425
-0.12351691 -0.0869343 -2.3479798 0.31373462 0.14128947 -0.5004719 0.6706266 -2.4713354
0.18279055 -1.7860667 0.05352024 0.09748323 -0.013789118 -1.2890012 -2.3566623 0.49627185
0.14561121 -0.2925652 0.26037398 -0.69657564 -0.047876768 -1.1356441 -1.4807788 0.004137032
-0.036993645 0.16135217 -0.27893192 0.20515323 -1.935122 -0.1040863 -0.09371121 0.34901908
0.078732766 0.010330517 -0.73719424 -0.0402778 -1.4823341 0.2732798 -0.46708617 -0.26499295
-0.14962085 -1.2904147 0.049943537 -0.011997736 0.2460134 0.056368817 0.1079869 0.24516642
-0.37642968 0.14401644 0.03863674 0.14482549 0.4730207 -0.31723022 -1.3195809 0.50203705
-0.1400642 -0.09683353 -0.18161237 -1.2621174 -0.20737521 -1.827682 -0.017364806 -0.14914253
-0.7519903 0.4970266 -0.05450887 0.26304716 0.17343123 -1.2100854 -0.028483858 -0.13636744
-0.8612946 0.14277504 -0.02184342 -1.5228628 -2.6196897 -1.0587213 0.31075573 -1.1630434
0.6416331 -1.9338111 -0.39896613 0.0909368 -2.4247437 0.09471228 -1.0750186 -1.0670028
0.16670945 -0.6211443 -0.7420009 -0.030861199 -0.13458909 0.08053273 -0.16503307 -0.31602365
-0.13912348 -2.4836497 -0.46333194 0.16229646 0.138576 -0.090374224 -1.1289954 -0.6487546
-0.9112679 -0.04559558 0.27752644 -2.9766042 0.21043485 -0.0619965 0.0799576 -2.4759972
-0.16481669 0.014991313 0.15855266 0.14883338 -0.04167524 0.04440389 -0.17422931 -0.11669405
0.1260345 0.02400175 0.040805012 0.02012195 -0.06909774 0.13613413 0.15673952 0.06717282
0.15728484 0.04868224 0.12760274 -0.12091155 0.059674334 -0.13350163 -0.030538078 -0.1264777
0.05756316 -0.1772499 -0.05846041 -0.06828411 0.109762095 -0.14891613 -0.09230292 0.1447799
0.07613716 0.107187234 0.15798816 -0.10451461 0.04355867 -0.13759375 -0.07325657 -0.030882943
-0.088687025 0.036757737 0.031508837 0.028201776 0.08880592 -0.018628852 0.13861679 -0.017827585
0.109135166 0.13297471 0.15721107 -0.085257195 -0.07336134 -0.14397885 -0.08056928 0.15909395
-0.017002027 -0.101915136 -0.14255384 -0.13549629 -0.106169656 0.059369564 -0.09653884 -0.066588774
-0.15213993 -0.15189281 -0.102925405 -0.17126936 -0.018507244 -0.072978586 -0.084996685 -0.11183772
0.056418035 0.068647146 -0.038368966 0.0449814 0.15584289 -0.055972062 -0.10201726 0.10020158
-0.044101313 -0.0734255 0.106364265 0.048742175 -0.12061781 0.03813598 0.07635372 0.1654585
-0.10646114 0.08935593 -0.05713213 0.01863888 -0.16637243 -0.16543321 0.09402325 -0.0032689373
0.07670522 -0.11137613 0.12747596 -0.070755824 -0.11291933 0.15031229 -0.1080257 -0.1361897
-0.14545013 0.07292878 -0.014280046 -0.009417227 0.04672549 -0.05546724 0.026572453 -0.09784204
-0.045396518 0.09318119 0.02147045 0.121699296 0.16491614 0.119882874 -0.074305914 -0.1502044
-0.07966718 -0.021014068 0.15638311 0.012559645 -0.028119612 0.12779544 0.067165166 0.13658953
00000000: f01c 003f 1610 ba3c baff 653d b1c9 6bbb
00000010: bd98 143e 21f2 b33d 084d 5e3d cd7e 653e
00000020: cae9 813e 6f99 04be 470d 91bf 963d 8d3d
00000030: e145 77be 8a3f 27bd adcb ccbe 5a00 d93c
00000040: 6ff6 fcbd 9c0a b2bd 4d45 16c0 d3a1 a03e
00000050: 30ae 103e ed1e 00bf 2fae 2b3f 5c2a 1ec0
00000060: 722d 3b3e d59d e4bf 0a38 5b3d 4aa5 c73d
00000070: c1eb 61bc fefd a4bf 8ed3 16c0 5817 fe3e
00000080: 1b1b 153e 1bcb 95be bd4f 853e c852 32bf
00000090: 6e1a 44bd c95c 91bf 298a bdbf f18f 873b
000000a0: a686 17bd 8139 253e 2ad0 8ebe b013 523e
000000b0: 14b2 f7bf 332b d5bd aaeb bfbd a1b2 b23e
000000c0: a53e a13d 5441 293c c3b8 3cbf 56fa 24bd
000000d0: 20bd bdbf 54eb 8b3e eb25 efbe 28ad 87be
000000e0: 3536 19be 4f2c a5bf 9891 4c3d 2792 44bc
000000f0: f0ea 7b3e fde2 663d 3c28 dd3d e80c 7b3e
00000100: 64bb c0be 0c79 133e 8f41 1e3d 224d 143e
00000110: c52f f23e 006c a2be 07e8 a8bf 8085 003f
00000120: fd6c 0fbe a850 c6bd 98f8 39be 108d a1bf
00000130: 2b5a 54be 7cf1 e9bf a340 8ebc d2b8 18be
00000140: 7082 40bf 457a fe3e b144 5fbd 1eae 863e
00000150: f597 313e 14e4 9abf fb56 e9bc e8a3 0bbe
00000160: ce7d 5cbf 9f33 123e f9f0 b2bc 2bed c2bf
00000170: ffa8 27c0 2e84 87bf 601b 9f3e 9bde 94bf
00000180: 1142 243f 1f87 f7bf 4a45 ccbe 133d ba3d
00000190: 002f 1bc0 83f8 c13d 369a 89bf 8c93 88bf
000001a0: e2b5 2a3e 5003 1fbf c5f3 3dbf a0d0 fcbc
000001b0: b9d1 09be 58ee a43d 6efe 28be dacd a1be
000001c0: 6376 0ebe 1ef4 1ec0 d839 edbe 0b31 263e
000001d0: dee6 0d3e 1f16 b9bd ec82 90bf c814 26bf
000001e0: da48 69bf 6ec2 3abd f217 8e3e af80 3ec0
000001f0: 3c7c 573e 0bf0 7dbd cfc0 a33d bd76 1ec0
00000200: b5c5 28be 209e 753c a15b 223e c767 183e
00000210: a8b3 2abd dae0 353d 2b69 32be 4afd eebd
00000220: 300f 013e 519f c43c 2823 273d cad6 a43c
00000230: 1e83 8dbd bf66 0b3e 5380 203e e791 893d
00000240: 470f 213e 0767 473d 4baa 023e 7aa0 f7bd
00000250: 136d 743d a7b4 08be fe2a fabc 5f83 01be
00000260: 59c7 6b3d ff80 35be 2f74 6fbd 8ad8 8bbd
00000270: f3ca e03d 787d 18be 5009 bdbd 2f41 143e
00000280: cded 9b3d fb84 db3d a6c7 213e c10b d6bd
00000290: 936a 323d 60e5 0cbe 8a07 96bd 3afe fcbc
000002a0: 8ba1 b5bd 488f 163d 690f 013d 6907 e73c
000002b0: e1df b53d 899b 98bc 8ff1 0d3e 280b 92bc
000002c0: 4282 df3d 862a 083e f0fb 203e 539b aebd
000002d0: 783e 96bd 316f 13be 8201 a5bd 86e9 223e
000002e0: d647 8bbc e2b8 d0bd a2f9 11be 8abf 0abe
000002f0: 7a6f d9bd 802d 733d 28b6 c5bd b25f 88bd
00000300: 92ca 1bbe ca89 1bbe 8eca d2bd 3c61 2fbe
00000310: 819c 97bc cc75 95bd be12 aebd 2d0b e5bd
00000320: 9916 673d e096 8c3d c728 1dbd 6b3e 383d
00000330: 4795 1f3e f642 65bd 6dee d0bd 7c36 cd3d
00000340: 94a3 34bd 1c60 96bd 82d5 d93d e0a5 473d
00000350: 7806 f7bd 7934 1c3d 575f 9c3d f46d 293e
00000360: 4c08 dabd 3e00 b73d 6103 6abd 91b0 983c
00000370: 895d 2abe 5367 29be 438f c03d ab3b 56bb
00000380: a017 9d3d 2b19 e4bd 0f89 023e 6ee8 90bd
00000390: 4042 e7bd 77eb 193e 943c ddbd 5075 0bbe
000003a0: e1f0 14be af5b 953d dbf6 69bc b64a 1abc
000003b0: 3a63 3f3d 9e31 63bd 79ae d93c 6861 c8bd
000003c0: b3f1 39bd c8d5 be3d cce2 af3c 7b3d f93d
000003d0: c7df 283e 2785 f53d b32d 98bd 2fcf 19be
000003e0: 8c28 a3bd b225 acbc e522 203e f8c6 4d3c
000003f0: 1a5b e6bc cfdc 023e e48d 893d 20de 0b3e

advantage_stream.0.bias f4 [64]
0.21572056 -0.0035069028 -0.02347551 0.14944 0.017085576 0.016021043 -0.034497153 -0.13862406
-0.0020986504 0.31087103 0.46754113 -0.086753935 0.52503526 -0.11484327 -0.055570584 0.07756188
-0.022806255 -0.021401556 0.020209247 -0.06671106 -0.036916688 -0.066243425 0.18412602 -0.32554728
-0.05917642 -0.06547995 -0.045583013 -0.01134874 0.095868096 0.11035237 -0.10064521 0.1547027
-0.18521403 -0.096084125 -0.02383638 0.09483413 -0.23672055 -0.13427691 -0.058071494 0.22678427
-0.029407913 -0.093202755 0.41160223 -0.080150835 0.114709824 0.14703636 0.18141256 0.14764535
-0.03282331 -0.008494237 -0.05235281 -0.21068648 -0.044145353 -0.04354545 -0.03472558 -0.07402176
-0.08869259 0.09265302 -0.020199168 -0.051515914 -0.01813775 -0.073945396 -0.08944868 -0.04803881
00000000: dae5 5c3e 11d4 65bb b64f c0bc cd06 193e
00000010: 0df7 8b3c 903e 833c e34c 0dbd 77f3 0dbe
00000020: 8389 09bb 7d2a 9f3e 8d61 ef3e 0cac b1bd
00000030: b668 063f f332 ebbd fb9d 63bd c3d8 9e3d
00000040: 2fd4 babc 5152 afbc dd8d a53c cf9f 88bd
00000050: f435 17bd a2aa 87bd 888b 3c3e 22ae a6be
00000060: f962 72bd 5a1a 86bd 41b5 3abd 11f0 39bc
00000070: 7e56 c43d 6c00 e23d 131f cebd 626a 1e3e
00000080: bfa8 3dbe c1c7 c4bd 8344 c3bc 6538 c23d
00000090: df66 72be e37f 09be 60dc 6dbd 233a 683e
000000a0: dde8 f0bc 16e1 bebd 87bd d23e 1f26 a4bd
000000b0: fcec ea3d b390 163e 37c4 393e 5830 173e
000000c0: bc71 06bd 6a2b 0bbc e66f 56bd 32be 57be
000000d0: c2d1 34bd b75c 32bd 693c 0ebd b898 97bd
000000e0: 76a4 b5bd dec0 bd3d ba78 a5bc 5a02 53bd
000000f0: 9e95 94bc af70 97bd df30 b7bd 58c4 44bd

advantage_stream.2.weight f4 [2, 64]
1.0331517 0.064653926 0.013567306 0.5832143 -0.24519235 -0.32193145 -0.20236206 0.15041257
0.2811027 1.1367624 0.8396907 -0.07510441 -1.2248297 0.009479471 -0.02646762 0.11785964
-0.02867059 -0.046016816 -0.07282063 -0.20998007 -0.17718987 -0.09489035 1.2652222 -0.013108196
-0.19665286 0.09345145 0.2019792 0.10793761 -0.36391544 -1.2937917 -0.0130846305 0.35150275
0.13809596 0.12706257 -0.20899642 -0.743839 0.23157388 0.24414964 0.18221577 1.1365933
0.01939091 0.1614309 1.0411489 0.6151091 0.6759923 0.69445384 -1.104849 -0.70581335
0.085962914 -0.119565874 -0.32159454 -0.035035424 0.13030604 0.18280149 -0.3109319 -0.03916225
0.20308523 0.16083872 0.03810089 -0.08279844 -0.05139776 0.15650336 0.80918354 -0.0291507
-0.5139954 -0.25402597 0.012466783 -0.81593275 0.20164117 0.26363656 -0.15094285 0.16240141
0.004833025 -1.0944648 -0.8595824 0.04350665 1.5090146 0.024167115 0.0038982797 -0.09083267
-0.070382684 -0.0228896 -0.09786433 0.17459182 -0.16490535 0.049713384 -1.0656525 -0.05215198
0.14348786 0.09645658 0.07580034 0.12004306 0.40886766 1.384911 0.022481868 -0.20720974
0.11107992 0.12658672 -0.17616323 0.8559178 -0.3025784 0.22261332 -0.13381629 -1.0051376
0.23501106 0.26225612 -0.9644072 -0.27019835 -0.6537995 -1.1531264 1.3159827 0.45926636
-0.21396793 -0.18651798 -0.18809488 -0.05587408 0.26103804 0.23051637 -0.28021616 -0.08524234
0.24840088 -0.40790236 0.0029156 -0.012329096 -0.10311196 -0.14322294 -0.4942566 -0.10412113
00000000: 513e 843f 4769 843d 6849 5e3c 884d 153f
00000010: b413 7bbe 33d4 a4be 0038 4fbe c105 1a3e
00000020: b1ec 8f3e 6e81 913f f8f5 563f 57d0 99bd
00000030: 38c7 9cbf c84f 1b3c 9fd2 d8bc 6560 f13d
00000040: 96de eabc 217c 3cbd fc22 95bd 0405 57be
00000050: 4371 35be df55 c2bd cdf2 a13f c2c3 56bc
00000060: 5e5f 49be 7963 bf3d a3d3 4e3e 650e dd3d
00000070: 2053 babe f79a a5bf eb60 56bc 2bf8 b33e
00000080: 0769 0d3e b11c 023e 2803 56be 3c6c 3ebf
00000090: b421 6d3e 5d02 7a3e c596 3a3e e47b 913f
000000a0: b0d9 9e3c 244e 253e 5e44 853f ca77 1d3f
000000b0: d50d 2d3f bac7 313f b16b 8dbf 2fb0 34bf
000000c0: 530d b03d f4de f4bd 0aa8 a4be 4e81 0fbd
000000d0: f26e 053e 5030 3b3e 7732 9fbe 9868 20bd
000000e0: 93f5 4f3e e8b2 243e ae0f 1c3d 3a92 a9bd
000000f0: 7586 52bd 6b42 203e a726 4f3f 73cd eebc
00000100: 3495 03bf b10f 82be 7a41 4c3c f8e0 50bf
00000110: 067b 4e3e 5ffb 863e c390 1abe 8e4c 263e
00000120: 5a5e 9e3b 6c17 8cbf 980d 5cbf 0734 323d
00000130: 6427 c13f 1dfa c53c 487a 7f3b 7b06 babd
00000140: cc24 90bd f882 bbbc 186d c8bd 33c8 323e
00000150: f3dc 28be 43a0 4b3d 4d67 88bf 519d 55bd
00000160: 7bee 123e 078b c53d 353d 9b3d 23d9 f53d
00000170: 1a57 d13e c344 b13f e52b b83c ca2e 54be
00000180: de7d e33d f39f 013e 2264 34be 6e1d 5b3f
00000190: 8eeb 9abe bff4 633e 2307 09be 59a8 80bf
000001a0: bda6 703e 6f46 863e 64e3 76bf 7057 8abe
000001b0: 675f 27bf a599 93bf 1f72 a83f f624 eb3e
000001c0: 691a 5bbe 92fe 3ebe f29b 40be 38dc 64bd
000001d0: c7a6 853e 7c0c 6c3e 7e78 8fbe 8993 aebd
000001e0: cd5c 7e3e 94d8 d0be a713 3f3b faff 49bc
000001f0: 5d2c d3bd 09a9 12be 330f fdbe 763d d5bd

advantage_stream.2.bias f4 [2]
-0.123725556 0.123725556
00000000: d363 fdbd d363 fd3d

exp_avg f4 [128, 4]
-6e-45 -6e-45 6e-45 6e-45 -0.0009850665 -0.0006076626 -3.1651318e-05 -0.0011005905
-6e-45 -6e-45 -6e-45 -6e-45 0.005907913 0.001746373 0.00081683364 0.0029278244
-6.2933746e-32 3.4110723e-31 1.0193525e-31 -8.5361355e-32 -6e-45 6e-45 -6e-45 -6e-45
6e-45 -6e-45 6e-45 -6e-45 -0.00107746 -0.0008882268 8.667254e-05 -0.00052066875
-6e-45 6e-45 6e-45 -6e-45 -6e-45 -6e-45 6e-45 6e-45
6e-45 -6e-45 -6e-45 6e-45 6e-45 -6e-45 -6e-45 6e-45
6e-45 -6e-45 -6e-45 -6e-45 -0.00012864619 -0.0018384448 -0.00028053863 0.00031402527
-6e-45 -6e-45 6e-45 6e-45 -6e-45 -6e-45 -6e-45 -6e-45
0.019404747 -0.00092755025 0.0023959256 0.0071461424 -6e-45 6e-45 -6e-45 -6e-45
0.017938018 0.00036498407 -0.0015717353 -0.00094864285 -0.001004092 0.00027005485 -0.00010325694 -0.00020073744
-0.005543464 -0.0025222301 2.4623243e-05 -0.0039998563 0.001735823 0.0008381244 -0.0004750387 -0.00039289647
-6e-45 -6e-45 -6e-45 6e-45 6e-45 6e-45 6e-45 -6e-45
-0.0027611263 -0.01889814 -0.0037246689 0.0012459018 6e-45 6e-45 -6e-45 -6e-45
-6e-45 -6e-45 6e-45 6e-45 -6e-45 6e-45 6e-45 6e-45
-0.0024000767 -0.0014733343 -7.727693e-05 -0.0026912105 6e-45 6e-45 6e-45 -6e-45
6e-45 6e-45 6e-45 6e-45 0.0054232925 -0.00037434115 -0.00080564985 -0.00018568929
6e-45 -6e-45 6e-45 6e-45 6e-45 6e-45 -6e-45 -6e-45
-6e-45 -6e-45 -6e-45 -6e-45 -6e-45 -6e-45 6e-45 6e-45
0.0007524473 0.0015556192 0.00012658091 -0.00034575694 -0.0009614814 -0.002185917 -0.00019199016 -2.3712024e-05
-6e-45 6e-45 6e-45 -6e-45 -6.7329944e-05 -0.0020856024 -0.0002741632 -0.0007666501
6e-45 -6e-45 -6e-45 6e-45 -6e-45 6e-45 6e-45 6e-45
-0.004949473 -0.010062329 -0.00024398968 -0.0016527605 6e-45 -6e-45 -6e-45 6e-45
-6e-45 -6e-45 -6e-45 -6e-45 6e-45 -6e-45 -6e-45 -6e-45
-0.029377334 0.013835663 -0.003958266 -0.014600866 -0.009338721 0.008061048 -0.0012372807 -0.0067039803
-0.0048881774 -0.001183736 0.00043507028 0.0025620216 -0.006462103 -0.0039740484 -0.0002111027 -0.007231854
-6e-45 -6e-45 6e-45 6e-45 6e-45 6e-45 -6e-45 -6e-45
-6e-45 -6e-45 6e-45 -6e-45 -6e-45 -6e-45 6e-45 -6e-45
6e-45 -6e-45 -6e-45 6e-45 -0.00032313788 0.0006542492 -2.794414e-06 -0.00039058132
-6e-45 -6e-45 -6e-45 6e-45 -6e-45 -6e-45 -6e-45 6e-45
-0.003852617 -0.0014598598 1.13723145e-05 -0.0039947582 -6e-45 -6e-45 6e-45 -6e-45
-0.010362866 -0.0044206446 0.000100760044 -0.0067098537 0.004316256 0.002760879 -0.0011703068 -0.00081878784
0.0070649637 0.0037055002 -0.002112877 -0.0016610614 6e-45 -6e-45 6e-45 6e-45
00000000: 0400 0080 0400 0080 0400 0000 0400 0000
00000010: 591d 81ba 8c4b 1fba 58c1 04b8 b041 90ba
00000020: 0400 0080 0400 0080 0400 0080 0400 0080
00000030: 2b97 c13b 8ee6 e43a c720 563a bee0 3f3b
00000040: a662 a38b 2964 dd0c cc51 040c 5a9c dd8b
00000050: 0400 0080 0400 0000 0400 0080 0400 0080
00000060: 0400 0000 0400 0080 0400 0000 0400 0080
00000070: 8f39 8dba e4d7 68ba f7c3 b538 7d7d 08ba
00000080: 0400 0080 0400 0000 0400 0000 0400 0080
00000090: 0400 0080 0400 0080 0400 0000 0400 0000
000000a0: 0400 0000 0400 0080 0400 0080 0400 0000
000000b0: 0400 0000 0400 0080 0400 0080 0400 0000
000000c0: 0400 0000 0400 0080 0400 0080 0400 0080
000000d0: 33e5 06b9 f9f7 f0ba 4215 93b9 c2a3 a439
000000e0: 0400 0080 0400 0080 0400 0000 0400 0000
000000f0: 0400 0080 0400 0080 0400 0080 0400 0080
00000100: b4f6 9e3c d826 73ba f604 1d3b 302a ea3b
00000110: 0400 0080 0400 0000 0400 0080 0400 0080
00000120: c0f2 923c 555b bf39 af02 ceba 58ae 78ba
00000130: bd9b 83ba 2696 8d39 a68b d8b8 0c7d 52b9
00000140: f2a5 b5bb 004c 25bb 038e ce37 3a11 83bb
00000150: 8e84 e33a 94b5 5b3a 9d0e f9b9 acfd cdb9
00000160: 0400 0080 0400 0080 0400 0080 0400 0000
00000170: 0400 0000 0400 0000 0400 0000 0400 0080
00000180: 03f4 34bb 46d0 9abc 9319 74bb 874d a33a
00000190: 0400 0000 0400 0000 0400 0080 0400 0080
000001a0: 0400 0080 0400 0080 0400 0000 0400 0000
000001b0: 0400 0080 0400 0000 0400 0000 0400 0000
000001c0: 9b4a 1dbb e51c c1ba bc0f a2b8 055f 30bb
000001d0: 0400 0000 0400 0000 0400 0000 0400 0080
000001e0: 0400 0000 0400 0000 0400 0000 0400 0000
000001f0: e0b5 b13b 3843 c4b9 3f32 53ba 97b5 42b9
00000200: 0400 0000 0400 0080 0400 0000 0400 0000
00000210: 0400 0000 0400 0000 0400 0080 0400 0080
00000220: 0400 0080 0400 0080 0400 0080 0400 0080
00000230: 0400 0080 0400 0080 0400 0000 0400 0000
00000240: e23f 453a ebe5 cb3a ceba 0439 b646 b5b9
00000250: ed0b 7cba 9a41 0fbb f750 49b9 2fe9 c6b7
00000260: 0400 0080 0400 0000 0400 0000 0400 0080
00000270: 7d33 8db8 9aae 08bb 90bd 8fb9 04f9 48ba
00000280: 0400 0000 0400 0080 0400 0080 0400 0000
00000290: 0400 0080 0400 0000 0400 0000 0400 0000
000002a0: 302f a2bb 77dc 24bc 7bd7 7fb9 71a1 d8ba
000002b0: 0400 0000 0400 0080 0400 0080 0400 0000
000002c0: 0400 0080 0400 0080 0400 0080 0400 0080
000002d0: 0400 0000 0400 0080 0400 0080 0400 0080
000002e0: bca8 f0bc faae 623c 58b4 81bb 7838 6fbc
000002f0: 6f01 19bc 7c12 043c 402c a2ba 10ad dbbb
00000300: 012d a0bb 9727 9bba 251a e439 97e7 273b
00000310: 0dc0 d3bb bc38 82bb 735b 5db9 30f9 ecbb
00000320: 0400 0080 0400 0080 0400 0000 0400 0000
00000330: 0400 0000 0400 0000 0400 0080 0400 0080
00000340: 0400 0080 0400 0080 0400 0000 0400 0080
00000350: 0400 0080 0400 0080 0400 0000 0400 0080
00000360: 0400 0000 0400 0080 0400 0080 0400 0000
00000370: d56a a9b9 ec81 2b3a ab87 3bb6 f0c6 ccb9
00000380: 0400 0080 0400 0080 0400 0080 0400 0000
00000390: 0400 0080 0400 0080 0400 0080 0400 0000
000003a0: 307c 7cbb c458 bfba b8cb 3e37 76e6 82bb
000003b0: 0400 0080 0400 0080 0400 0000 0400 0080
000003c0: 03c9 29bc 0edb 90bb 234f d338 55de dbbb
000003d0: 616f 8d3b ddef 343b fb64 99ba eca3 56ba
000003e0: 3681 e73b fad7 723b 3278 0abb f9b7 d9ba
000003f0: 0400 0000 0400 0080 0400 0000 0400 0000
