CartPoleHighRewardIn2026/checkpoints/checkpoint_ep650_reward400.00.pt (torch, 421217 bytes, 33 tensors)

feature_layer.0.weight f4 [128, 4]
-0.04326288 0.042989552 -0.18887594 0.19165322 0.022074573 -0.023441141 -0.0038717943 -0.32323232
-0.012163307 0.027084457 -1.0637542 0.019006664 0.049334478 -0.05033736 0.41628394 -0.020976562
0.014732818 -0.00457655 1.3256346 0.020643337 -0.03842263 0.0900757 -0.5216962 -0.02541833
0.009449293 -0.008577092 0.22914179 -0.009975768 -0.026123133 0.11557433 -0.06646566 0.1249787
-0.116012655 0.10376425 0.49898145 0.07553845 0.18691224 -0.03908767 -0.2320504 -0.09684809
0.021294864 -0.021765398 -0.3794587 0.038887355 0.04912808 -0.04129822 0.12705779 -0.030004563
0.08909421 -0.17385572 0.29796284 -0.09001918 -0.059933186 0.2044917 -0.49349076 0.16340429
0.03317364 -0.0071719745 0.24976768 -0.020421201 -0.094819315 -0.018075917 0.29790312 -0.28320944
0.040207345 -0.010843025 0.41297656 0.016958991 -0.03784387 0.05615579 -0.5192663 0.047400307
-0.0067586657 -0.0048191813 1.1782111 0.13249442 0.013148824 -0.10910254 0.9606015 -0.1020241
-0.020115232 -0.01311145 -1.0613292 -0.15063213 -0.00081054284 0.008354066 1.0100108 0.1794682
-0.015550075 0.013374237 -1.0149255 0.020607622 0.032704026 -0.03521048 0.45193154 -0.06820852
0.26137182 0.206146 0.50729436 0.16248186 -0.06300078 0.0030663116 -0.44693094 0.3685573
-0.044073053 0.03506919 1.3066338 0.100045 -0.061988153 0.06744633 -0.18425497 0.07202159
-0.012275906 -0.01966033 -0.66847384 -0.26501936 -0.05382993 0.114228934 -0.044616234 0.12813802
0.120534234 -0.11483108 0.31903812 0.21411638 -0.0014265465 0.017534787 1.2860743 0.008646218
-0.014090989 -0.011977874 0.13983731 -0.041786764 0.0040710005 -0.0023772072 -0.4433428 0.0077019823
-0.07402394 -0.20590438 -0.8573893 -0.24871074 0.044702154 -0.055479053 0.10958256 -0.07781191
0.20129028 0.15714277 0.5171139 0.108536296 0.022800222 0.09289087 0.6935458 0.043218378
0.07433717 -0.051122326 1.1745422 0.013197135 0.0053813835 0.011903727 0.2535399 -0.25931793
0.054234207 -0.07683316 0.27629393 -0.08702764 -0.12952198 0.19194797 0.5851537 0.21096301
-0.2846707 -0.20248576 -0.8193974 -0.20894586 0.027789144 0.015132455 0.07147313 0.05509627
-0.22059345 -0.10830487 -0.046576638 -0.025557145 0.020787012 -0.037228767 -0.12213687 -0.059999984
0.30624345 -0.002461176 0.5157337 0.016824687 0.31652394 -0.13166744 0.24808182 -0.094203286
-0.02595902 -0.0034639302 -1.155435 0.0008189207 0.0001482382 -0.016093276 -1.3030446 -0.11120939
0.0046108225 -0.013624001 1.1656218 0.12601553 0.016712967 -0.013090779 -0.21700801 -0.03388896
0.058149822 -0.06351783 -0.009405146 -0.26360834 0.025176182 -0.054662038 0.37355116 -0.055932164
0.045128852 -0.020139735 -0.17066056 -0.0050182226 -0.015689434 0.017477777 0.9710642 0.27195305
-0.17702606 0.0072771306 -0.3348035 0.23144332 -0.033275496 0.07319937 -0.5880501 0.07266945
0.017403329 -0.03352879 -1.2339302 -0.16396883 0.043306097 -0.10090228 0.32341728 -0.3048916
0.001486415 0.0010472359 -1.1839029 -0.134005 0.00043588196 0.0038508677 1.2921003 0.15725273
0.0026607036 -0.00511959 1.1480393 0.103534564 0.033505317 -0.06164728 0.14837746 -0.04745157
00000000: 6b34 31bd d015 303d b268 41be be40 443e
00000010: bcd5 b43c a307 c0bc eebd 7dbb b57e a5be
00000020: 9b48 47bc 39e0 dd3c 1929 88bf ddb3 9b3c
00000030: f312 4a3d 8c2e 4ebd 2b23 d53e 0ad7 abbc
00000040: eb61 713c e2f6 95bb 65ae a93f 371c a93c
00000050: 0c61 1dbd 9c79 b83d e28d 05bf 1a3a d0bc
00000060: 35d1 1a3c ee86 0cbc 25a4 6a3e 6771 23bc
00000070: 2e00 d6bc 3cb2 ec3d 261f 88bd d5f4 ff3d
00000080: 0b98 edbd 5a82 d43d 7f7a ff3e e7b3 9a3d
00000090: ec65 3f3e 651a 20bd 9f9e 6dbe 4b58 c6bd
000000a0: 9172 ae3c 594d b2bc 6948 c2be 5948 1f3d
000000b0: 873a 493d 5328 29bd 701b 023e 21cc f5bc
000000c0: 0677 b63d 3c07 32be 968e 983e fa5b b8bd
000000d0: 807c 75bd 4666 513e d2aa fcbe 7453 273e
000000e0: 15e1 073d e202 ebbb 19c3 7f3e 5d4a a7bc
000000f0: a130 c2bd f213 94bc c286 983e d400 91be
00000100: 75b0 243d f1a6 31bc aa71 d33e 95ed 8a3c
00000110: 2d02 1bbd 9d03 663d a3ee 04bf d326 423d
00000120: cc77 ddbb 39ea 9dbb 9fcf 963f 9eac 073e
00000130: 2a6e 573c 2771 dfbd fbe9 753f 03f2 d0bd
00000140: b3c8 a4bc 68d1 56bc a3d9 87bf 4f3f 1abe
00000150: 9c7a 54ba 7edf 083c 0948 813f 83c6 373e
00000160: bec5 7ebc 9e1f 5b3c 14e9 81bf 51d1 a83c
00000170: a8f4 053d dd38 10bd 9263 e73e e9b0 8bbd
00000180: 87d2 853e f017 533e 0bde 013f a561 263e
00000190: 8e06 81bd 2cf4 483b 22d4 e4be 8bb3 bc3e
000001a0: f285 34bd b6a4 0f3d c73f a73f 65e4 cc3d
000001b0: 4ae7 7dbd 4d21 8a3d 56ad 3cbe 0e80 933d
000001c0: e220 49bc b30e a1bc 1a21 2bbf 9eb0 87be
000001d0: c67c 5cbd dcf0 e93d 83bf 36bd 9d36 033e
000001e0: a7da f63d 8f2c ebbd f758 a33e 5341 5b3e
000001f0: f5fa baba 1da5 8f3c 159e a43f dea8 0d3c
00000200: e4dd 66bc d83e 44bc 8331 0f3e 9928 2bbd
00000210: 0766 853b ebca 1bbb d4fd e2be e960 fc3b
00000220: dd99 97bd 99d8 52be dd7d 5bbf 07ae 7ebe
00000230: 9b19 373d 013e 63bd d26c e03d da5b 9fbd
00000240: 0a1f 4e3e 09ea 203e 9461 043f 4748 de3d
00000250: 88c7 ba3c 923d be3d 388c 313f c105 313d
00000260: 163e 983d a565 51bd 6657 963f cc38 583c
00000270: 5156 b03b da07 433c fbcf 813e 52c5 84be
00000280: b024 5e3d b45a 9dbd 6676 8d3e 8c3b b2bd
00000290: 69a1 04be 028e 443e a2cc 153f b006 583e
000002a0: 5cc0 91be 6d58 4fbe 07c4 51bf e7f5 55be
000002b0: 0fa6 e33c 1eee 773c 8160 923d a0ac 613d
000002c0: 40e3 61be f2ce ddbd 25c7 3ebd 385d d1bc
000002d0: 8649 aa3c 317d 18bd e522 fabd 8bc2 75bd
000002e0: f1cb 9c3e ae4b 21bb 2007 043f edd3 893c
000002f0: 6d0f a23e d4d3 06be 2909 7e3e a7ed c0bd
00000300: 03a8 d4bc 1b03 63bb 4be5 93bf d6ac 563a
00000310: 6470 1b39 0cd6 83bc 2aca a6bf c0c1 e3bd
00000320: 6216 973b 3437 5fbc 1833 953f 370a 013e
00000330: a2e9 883c b57a 56bc 5937 5ebe 26cf 0abd
00000340: 822e 6e3d a315 82bd 0b18 1abc acf7 86be
00000350: 483e ce3c 4de5 5fbd 1942 bf3e 2019 65bd
00000360: 08d9 383d 16fc a4bc a4c1 2ebe e76f a4bb
00000370: 2187 80bc 8e2d 8f3c aa97 783f 6e3d 8b3e
00000380: 5246 35be ff74 ee3b 5d6b abbe 7aff 6c3e
00000390: e34b 08bd 8de9 953d 748a 16bf b8d3 943d
000003a0: 6d91 8e3c 7c55 09bd 6df1 9dbf 72e7 27be
000003b0: bc61 313d dba5 cebd f396 a53e c01a 9cbe
000003c0: d0d3 c23a 6843 893a 218a 97bf 9b38 09be
000003d0: 1687 e439 d75e 7c3b 8b63 a53f dc06 213e
000003e0: 335f 2e3b 3cc2 a7bb f4f2 923f ee09 d43d
000003f0: df3c 093d dc81 7cbd 43f0 173e 945c 42bd

feature_layer.0.bias f4 [128]
-0.13752185 -0.34547442 -0.20116055 0.30735093 -0.19714053 0.04451276 -0.057059724 0.27100462
-0.37325075 -0.024649894 -0.36873507 -0.1986188 -0.028462376 -0.033752695 -0.12591106 -0.38726345
0.30964184 -0.18615879 -0.23589657 0.14676209 -0.2691694 -0.24354763 -0.19559169 -0.11898963
-0.5725007 -0.029234344 -0.2666101 -0.16962963 -0.3642564 -0.27534857 -0.32483125 -0.1977399
-0.15365182 -0.10253807 -0.25223997 -0.18597639 -0.370903 -0.20207183 -0.12479894 -0.05838922
-0.2446465 -0.23313661 -0.5936981 -0.1645191 -0.42834422 -0.13470839 -0.53013563 -0.1491279
-0.1443766 -0.25355145 -0.2254108 -0.1117786 -0.41665128 -0.17618486 -0.15630181 -0.32710028
-0.31829497 -0.20882486 -0.24470638 -0.018964674 -0.24992204 -0.26630446 -0.22295484 -0.14458852
-0.26909998 -0.08199382 -0.21354327 0.03394156 -0.2239902 0.093803965 -0.31718835 -0.14293398
-0.27321747 0.2298403 -0.22865762 -0.10533948 -0.1965351 -0.2141571 -0.2908414 -0.1161389
-0.28007776 -0.09802102 -0.19175103 -0.18694144 -0.33907264 -0.12727638 -0.3236995 -0.13443078
-0.12325252 -0.15622501 -0.2646852 -0.1945149 -0.24780467 -0.18545322 -0.30116722 -0.22739649
-0.5871655 -0.22359042 -0.20156734 -0.2995201 0.048312236 -0.0036241694 -0.15565889 0.067701735
-0.17121238 -0.26452482 -0.29155964 -0.22103952 -0.27947593 -0.15038049 -0.16815223 -0.13747051
-0.31798255 -0.21132304 0.3076559 -0.25883764 -0.15727626 -0.17597863 0.20841797 -0.15709996
-0.26871186 -0.13889894 -0.20981967 -0.23720203 0.0192854 -0.11238754 -0.30808696 -0.19570528
00000000: 87d2 0cbe 06e2 b0be 08fd 4dbe 1a5d 9d3e
00000010: 35df 49be 0353 363d 75b7 69bd 1ec1 8a3e
00000020: b91a bfbe 93ee c9bc d8ca bcbe ba62 4bbe
00000030: ee29 e9bc 4440 0abd d4ee 00be 6547 c6be
00000040: 6089 9e3e 69a0 3ebe df8e 71be cd48 163e
00000050: 92d0 89be 8d64 79be 3049 48be d6b0 f3bd
00000060: 688f 12bf dd7c efbc 1e81 88be 64b3 2dbe
00000070: d17f babe 7dfa 8cbe 4850 a6be 547c 4abe
00000080: e756 1dbe 7bff d1bd 9925 81be 9870 3ebe
00000090: ffe6 bdbe ebeb 4ebe 9696 ffbd 8929 6fbd
000000a0: 9d84 7abe 5dbb 6ebe 99fc 17bf b277 28be
000000b0: ef4f dbbe fff0 09be f8b6 07bf fcb4 18be
000000c0: 76d7 13be 7fd1 81be 17d2 66be 2eec e4bd
000000d0: 5153 d5be ce69 34be 950d 20be b079 a7be
000000e0: 8ff7 a2be 2fd6 55be 4f94 7abe ce5b 9bbc
000000f0: 90eb 7fbe 0f59 88be 464e 64be 030f 14be
00000100: 79c7 89be 60ec a7bd 16ab 5abe 4e06 0b3d
00000110: b05d 65be 4b1c c03d 8366 a2be 495d 12be
00000120: 29e3 8bbe 415b 6b3e 3925 6abe 3abc d7bd
00000130: 7f40 49be 004c 5bbe 2ae9 94be 3bda edbd
00000140: 5a66 8fbe 3fbf c8bd 625a 44be 946d 3fbe
00000150: ee9a adbe bd54 02be f1bb a5be 39a8 09be
00000160: d16b fcbd 73f9 1fbe d284 87be ea2e 47be
00000170: 82c0 7dbe 73e7 3dbe 9732 9abe a0da 68be
00000180: 7a50 16bf e3f4 64be ab67 4ebe b35a 99be
00000190: 0de3 453d 7983 6dbb 0b65 1fbe 35a7 8a3d
000001a0: 4c52 2fbe cc6f 87be 4e47 95be 2f58 62be
000001b0: 7817 8fbe 58fd 19be 1930 2cbe 12c5 0cbe
000001c0: 9cce a2be 1165 58be 1385 9d3e 5e86 84be
000001d0: 070d 21be be33 34be 856b 553e d0de 20be
000001e0: 9a94 89be 863b 0ebe f8da 56be 17e5 72be
000001f0: 6afc 9d3c 702b e6bd 93bd 9dbe f766 48be

feature_layer.2.weight f4 [128, 128]
-0.19736922 -0.41732976 -0.2777165 0.39827052 0.23930657 -0.17302683 0.11599313 0.11347244
0.23985386 -0.017065724 0.10863542 0.2068159 0.11341287 -0.1239276 0.19878596 -0.0773222
0.3200588 -0.02815117 0.9079359 0.47307777 -2.11518 -0.1211266 -0.074705005 0.13836043
-0.34656814 0.0033866966 0.20689976 -0.00362605 -0.5795205 -0.25418383 -0.18690571 0.5080923
0.10323654 -0.20266874 -0.07196475 0.17564121 0.039242677 -0.061680183 0.1530054 -0.25253105
-0.0148142865 -0.024002738 -0.0730671 0.21341155 0.36173844 -0.022295559 0.3715705 0.4781958
-1.3200005 -2.903341 0.090502866 0.03688571 -0.4447545 -0.0628955 0.08167017 -0.07025889
-0.07426941 0.05345534 -1.6748608 0.046662446 -2.794608 0.24438696 0.7958842 0.116857305
0.5517163 -0.17749995 -0.050602276 0.29717892 -1.4997926 0.05869643 0.29195517 0.06289862
0.13182183 -0.033922344 0.42941824 0.6218912 1.7882916 0.117767416 -0.029263392 0.17194808
0.9084676 0.017023113 -0.4837855 -0.41651198 -0.08706611 -0.10216772 0.03900719 0.22838251
0.16225766 -0.2701659 -0.19981737 -0.0188908 0.0037112664 0.08998232 0.3797335 -0.8459757
0.4310465 0.16941038 -0.026276415 -0.06915896 0.18498927 0.060386803 0.37020117 -0.1476228
0.32746387 -2.8165257 0.80180866 -3.248201 0.43836898 -0.05153717 -0.0075674686 0.06940756
0.020727323 -1.7104552 0.09093443 -0.2232499 0.13520125 -0.74881494 0.25928345 -0.007636374
-0.051688377 0.062968045 -1.036502 -0.13408813 0.17310509 -0.014464366 -0.016183738 -0.25344214
0.014743587 -0.07527142 -0.07378231 -0.107483685 0.059424225 -0.09827436 0.048986726 0.02116915
0.047510013 0.068559766 -0.0040602735 -0.0912499 0.0224605 0.1007276 0.1205555 -0.164386
0.021218184 -0.07345129 0.112274185 -0.07343928 -0.04588622 0.03785765 -0.13776872 0.0138801485
0.069584385 -0.06598684 -0.1561624 -0.18775403 -0.12726991 -0.1560286 0.04720521 -0.052561115
-0.05286871 0.092591755 0.0073751863 -0.14260352 -0.021278959 0.03555395 -0.07463011 -0.009947901
-0.050037935 -0.13213678 -0.15157202 -0.10501571 0.06492739 0.113027796 -0.12297676 0.06943259
-0.09781997 -0.05138821 -0.0036248644 0.04109065 0.025599679 -0.16600277 0.009471683 -0.16714348
0.11552427 0.10611048 -0.15885404 0.02854259 0.0843267 -0.11270432 0.033187952 -0.108159564
-0.10874736 -0.08993664 -0.06494192 -0.14619029 0.009573649 0.122358605 0.016474234 -0.019838631
-0.17820938 0.021543218 0.09726602 -0.017736604 0.14755367 0.11390561 0.048085123 -0.17065664
-0.05685032 -0.071959086 -0.052779645 -0.121521436 -0.07456445 -0.07809936 -0.06505298 -0.15472703
-0.12770648 0.046019465 0.11845873 0.11575131 0.072704084 -0.18161516 -0.05737952 -0.07513691
0.03967812 0.14366181 0.07304116 0.058464907 -0.103552945 0.100700416 -0.15477814 -0.14510193
0.021616658 0.09763084 0.07919347 -0.1768364 0.06552938 -0.07645025 -0.015359374 -0.10443107
-0.13687186 -0.04424033 -0.016321635 0.061676785 -0.1351948 -0.056596488 0.043455847 -0.084004775
-0.13956745 -0.012698692 0.029695945 -0.056970894 -0.010458517 0.12743807 0.0433119 0.0056415377
00000000: 281b 4abe 3fac d5be db30 8ebe 1dea cb3e
00000010: c80c 753e f22d 31be ce8d ed3d 3d64 e83d
00000020: 409c 753e 6bcd 8bbc 3f7c de3d 8cc7 533e
00000030: 0245 e83d c1cd fdbd 8c8e 4b3e 1a5b 9ebd
00000040: bfde a33e 489d e6bc 7d6e 683f 4037 f23e
00000050: 1c5f 07c0 3911 f8bd f0fe 98bd 5bae 0d3e
00000060: 6171 b1be 57f3 5d3b 88dd 533e 06a3 6dbb
00000070: 755b 14bf 6224 82be 3664 3fbe 5612 023f
00000080: ae6d d33d 6588 4fbe 4162 93bd 4adb 333e
00000090: eebc 203d 5ca4 7cbd 73ad 1c3e c04b 81be
000000a0: 9fb7 72bc 64a1 c4bc 34a4 95bd 8f88 5a3e
000000b0: c835 b93e 2da5 b6bc 7d3e be3e 14d6 f43e
000000c0: c7f5 a8bf 57d0 39c0 9159 b93d 7815 173d
000000d0: ddb6 e3be 5bcf 80bd b142 a73d e5e3 8fbd
000000e0: 8f1a 98bd fdf3 5a3d d761 d6bf 1f21 3f3d
000000f0: dcda 32c0 9340 7a3e 11bf 4b3f e252 ef3d
00000100: 483d 0d3f 8cc2 35be 5544 4fbd d627 983e
00000110: 34f9 bfbf ab6b 703d 267b 953e fed0 803d
00000120: 4dfc 063e 28f2 0abd b5dc db3e 4334 1f3f
00000130: bde6 e43f 0b30 f13d c8b9 efbc 2813 303e
00000140: 5591 683f 0e74 8b3c bcb2 f7be 0f41 d5be
00000150: b74f b2bd 4f3d d1bd 01c6 1f3d 1bdd 693e
00000160: df26 263e 2f53 8abe ed9c 4cbe e1c0 9abc
00000170: b838 733b a748 b83d 6e6c c23e dd91 58bf
00000180: 20b2 dc3e ea79 2d3e a341 d7bc 36a3 8dbd
00000190: d46d 3d3e 2758 773d 028b bd3e 6e2a 17be
000001a0: 58a9 a73e f541 34c0 5543 4d3f 86e2 4fc0
000001b0: e671 e03e a418 53bd 87f8 f7bb 8d25 8e3d
000001c0: 59cc a93c 32f0 dabf d53b ba3d 9f9b 64be
000001d0: 3272 0a3e 56b2 3fbf cdc0 843e 8c3a fabb
000001e0: 31b7 53bd 64f5 803d 19ac 84bf 664e 09be
000001f0: 7642 313e f3fb 6cbc c293 84bc 2bc3 81be
00000200: 168f 713c e727 9abd 2e1b 97bd 6820 dcbd
00000210: d166 733d 1144 c9bd 4ea6 483d ed6a ad3c
00000220: dc99 423d 1069 8c3d 0b0c 85bb 3ae1 babd
00000230: 15ff b73c 464a ce3d cde5 f63d ce54 28be
00000240: c2d1 ad3c a16d 96bd 02f0 e53d 5567 96bd
00000250: 30f3 3bbd a010 1b3d 3e13 0dbe 9069 633c
00000260: 4282 8e3d 1c24 87bd 09e9 1fbe 9842 40be
00000270: 0b53 02be f6c5 1fbe 405a 413d 534a 57bd
00000280: dc8c 58bd bfa0 bd3d 8cab f13b a806 12be
00000290: 3651 aebc 05a1 113d acd7 98bd 85fc 22bc
000002a0: 94f4 4cbd dd4e 07be b235 1bbe 7a12 d7bd
000002b0: a7f8 843d 1e7b e73d 3ddb fbbd ac32 8e3d
000002c0: d655 c8bd 727c 52bd 228f 6dbb ab4e 283d
000002d0: 6bb6 d13c a1fc 29be 1e2f 1b3c a927 2bbe
000002e0: fd97 ec3d 7450 d93d a2aa 22be 26d2 e93c
000002f0: 7ab3 ac3d 86d1 e6bd 17f0 073d c382 ddbd
00000300: f0b6 debd b330 b8bd 4500 85bd e8b2 15be
00000310: cbda 1c3c 2697 fa3d f9f4 863c a084 a2bc
00000320: 857c 36be 677b b03c 6833 c73d 5b4c 91bc
00000330: 4f18 173e 5847 e93d e8f4 443d 9dc0 2ebe
00000340: e2db 68bd 495f 93bd 782f 58bd 3be0 f8bd
00000350: 3fb5 98bd 8ff2 9fbd 7f3a 85bd c370 1ebe
00000360: 7dc5 02be e87e 3c3d 7e9a f23d 060f ed3d
00000370: e1e5 943d 53f9 39be ca06 6bbd 61e1 99bd
00000380: 8685 223d 151c 133e 9b96 953d e678 6f3d
00000390: 9113 d4bd 053c ce3d 297e 1ebe 9a95 14be
000003a0: 6b15 b13c aef2 c73d 3030 a23d 9a14 35be
000003b0: 4534 863d f391 9cbd e2a5 7bbc f5df d5bd
000003c0: 2328 0cbe 5935 35bd f3b4 85bc cca0 7c3d
000003d0: 8170 0abe b8d1 67bd c2fe 313d b20a acbd
000003e0: c5ea 0ebe 2d0e 50bc e944 f33c 505a 69bd
000003f0: 335a 2bbc 207f 023e d267 313d a6dc b83b

feature_layer.2.bias f4 [128]
0.32545054 -0.03683999 0.38148296 0.27150598 -0.03607565 0.38606268 0.45951363 -0.08368591
0.47227705 -0.04497297 0.03340276 -0.043600734 0.46115974 -0.19391473 -0.17542069 0.4012434
-0.017164623 -0.14504641 0.4295041 0.40885252 -0.09840176 0.38376886 -0.17687164 0.46941108
-0.09875819 0.41958356 0.33461004 -0.10285819 -0.13258427 0.37353772 0.4121877 0.38204876
-0.034028437 0.12457853 0.16876325 0.3898348 -0.037411306 0.43263695 0.39622897 -0.041891314
-0.4307283 -0.048110943 0.2351345 0.44443768 0.3956603 -0.038468067 -0.032498628 0.19760408
-0.13278201 -0.0139002735 0.4003846 -0.038567103 0.38669223 0.37350526 -0.1408057 0.4183016
-0.060268342 0.41506475 -0.05403768 -0.047944136 -0.20533748 -0.028764574 -0.028145246 -0.1550001
0.41066867 -0.045632202 -0.03254535 0.45167902 0.3962346 0.3801361 -0.07118369 0.3984419
-0.04237698 -0.049418245 0.3859386 0.3929677 0.32985634 0.47074953 -0.04718722 -0.03785128
0.23438494 0.4038814 -0.21330196 0.37954047 -0.058929164 0.3923448 -0.21928087 -0.06452633
0.4495735 -0.09194986 0.42859146 0.42878947 0.43464652 0.3698906 0.3269284 0.37215856
-0.09448759 0.4342717 -0.047223352 0.40407726 0.44640768 -0.033285704 0.45840982 0.3896207
-0.056766268 0.39443198 0.45203975 0.44005582 -0.039207973 0.39860883 -0.08411741 -0.3513758
-0.049982574 0.46017915 0.4300343 -0.05519 -0.019785618 0.33929726 0.43551368 0.38906372
0.5627507 0.41773176 -0.22837497 0.39049393 -0.12527816 -0.0129704485 0.46895978 0.4567897
00000000: 74a1 a63e 88e5 16bd bc51 c33e d502 8b3e
00000010: 10c4 13bd 02aa c53e 5f45 eb3e 8563 abbd
00000020: 4cce f13e 9435 38bd 55d1 083d af96 32bd
00000030: 211d ec3e 9591 46be 7ba1 33be c66f cd3e
00000040: d39c 8cbc 0c87 14be f6e7 db3e 1e55 d13e
00000050: dd86 c9bd 5a7d c43e d71d 35be a656 f03e
00000060: bc41 cabd a8d3 d63e 0252 ab3e 51a7 d2bd
00000070: 2cc4 07be 5640 bf3e 440a d33e e59b c33e
00000080: 6761 0bbd 0723 ff3d 46d0 2c3e 6d98 c73e
00000090: 993c 19bd 9782 dd3e 86de ca3e 3a96 2bbd
000000a0: 6b88 dcbe fb0f 45bd 19c7 703e 568d e33e
000000b0: fd93 ca3e b190 1dbd 481d 05bd b958 4a3e
000000c0: 02f8 07be f9bd 63bc 36ff cc3e 8af8 1dbd
000000d0: 86fc c53e 153c bf3e 5f2f 10be a12b d63e
000000e0: f0db 76bd 5e83 d43e 9d56 5dbd 1261 44bd
000000f0: fd43 52be afa3 ebbc dc90 e6bc 59b8 1ebe
00000100: 2a43 d23e d5e8 3abd 464e 05bd 7942 e73e
00000110: 43df ca3e 33a1 c23e c1c8 91bd 9400 cc3e
00000120: 7c93 2dbd c96a 4abd bf99 c53e 1033 c93e
00000130: eee2 a83e 1506 f13e 6347 41bd f209 1bbd
00000140: 9b02 703e 8bc9 ce3e d46b 5abe 2153 c23e
00000150: b55f 71bd 6be1 c83e 2a8b 60be 6126 84bd
00000160: 7f2e e63e 3550 bcbd 5770 db3e 4b8a db3e
00000170: fd89 de3e 4d62 bd3e 2963 a73e 918b be3e
00000180: b682 c1bd dc58 de3e 466d 41bd 37e3 ce3e
00000190: 8c8f e43e 9756 08bd b1b4 ea3e 5d7c c73e
000001a0: bf83 68bd fdf2 c93e c171 e73e ff4e e13e
000001b0: 8a98 20bd 7516 cc3e c045 acbd 87e7 b3be
000001c0: 87ba 4cbd 9a9c eb3e 752d dc3e e90e 62bd
000001d0: 7315 a2bc 5fb8 ad3e a6fb de3e 5c33 c73e
000001e0: 6e10 103f f0e0 d53e 21db 69be d2ee c73e
000001f0: eb48 00be 0182 54bc 7f1b f03e 57e0 e93e

value_stream.0.weight f4 [64, 128]
-0.10806562 0.053678 0.039083384 0.14775912 0.04946749 0.23775548 0.11447954 -0.19112597
0.35852405 -0.016399221 0.19518895 0.019934392 0.099480055 -1.3524348 -0.9843731 0.25868067
0.10195112 -0.1324535 -0.030338224 0.23867144 0.1527569 0.17774963 -0.77330893 0.20906983
-0.0006269305 -0.06765127 -0.010087007 -0.038001504 -0.79654086 0.25556028 0.15895414 0.035890874
0.17542168 -0.030572254 0.2372019 0.07737789 -0.11777064 0.17441759 0.13924257 -0.025743343
-0.46130937 0.0018918808 0.17371158 0.43257985 0.0021716033 -0.04234818 -0.11640809 -0.072564386
-0.5624951 0.13538347 0.13514116 -0.13463016 0.2134017 0.14411838 -0.5789629 0.23260237
-0.08530053 0.092238456 -0.06362064 -0.100014895 -0.92942315 -0.07329828 -0.14099771 -0.0087142885
0.29450923 0.037431832 0.04287364 0.01768092 0.022450263 -0.031135129 -0.08078261 -0.042795792
-0.0055895434 -0.013885533 -0.022265581 0.16237105 0.2694747 0.16747564 0.057148658 0.02449132
0.33548865 -0.07342572 -1.1124319 0.23082215 -0.10405184 0.2321257 0.08940314 0.0918292
0.08657449 -0.13343675 -0.02899214 0.22219868 0.10753482 -0.07016427 0.17942877 0.050390188
0.044251107 0.11137626 -0.13018927 -0.029937878 0.18865308 -0.031139644 0.27650973 0.319576
0.06342064 0.3437059 0.27323008 0.23942879 0.043775555 0.37621868 -0.78833705 -0.3306532
0.15466161 0.26007226 0.16954407 0.032980084 -0.088173926 0.19936821 0.21725126 0.049462505
0.5115235 0.1673728 -1.1701969 0.06412757 0.12576266 0.05863036 0.34617105 0.07518691
-0.013597401 0.09835446 -0.15579885 0.31317163 0.009514279 0.17371565 0.14596808 0.2565806
-0.044631027 -0.020192506 0.24755447 -0.06516297 0.28200343 -0.47115386 -0.21158206 0.011408137
-0.12117404 -0.15717591 -0.06985266 0.12584318 -0.059480444 0.23270255 0.2902674 0.018783635
-0.10363469 0.12571311 -0.016142853 -0.12828375 -0.05054219 -0.06953596 -0.07332637 0.033096623
0.13998511 -0.070134796 0.20591868 -0.019454185 -0.086893864 0.26447544 0.20387082 0.095056
-0.35344276 0.16851702 0.16674405 0.16909324 0.17073384 0.0018541366 -0.03591393 0.000841867
0.069882825 -0.07113443 0.12142448 -0.12851085 0.06723631 0.17449525 0.14153983 -0.038388576
-0.018762728 0.2640267 0.032955762 -0.004257534 -0.27308825 0.031928197 0.13016525 0.073961005
0.32827237 0.14122309 0.0021906674 0.26109785 0.030705186 0.16184035 -0.1673947 -0.18572399
0.051259506 0.07041259 0.0035663834 -0.035925202 0.19313417 0.24991487 0.026913127 0.17571183
0.38726926 0.19343664 0.100387074 0.035133794 -0.1602058 0.16107155 0.15627985 -0.038143314
0.046692267 -0.103978805 -0.022226151 0.13417448 0.23644765 -0.052206077 0.14083599 0.04140429
-0.042304315 0.23445392 0.16535616 0.16336429 0.19905655 -0.024697747 0.21776277 0.17914389
-0.10644203 0.3098833 -0.087694645 0.16251065 -0.086995825 0.2750719 0.20472096 -0.16255483
-0.07946325 0.23484513 -0.09941723 -0.0083803125 -0.1437876 0.09189442 0.306043 0.12622239
0.20030767 -0.07490027 0.15831171 -0.07487833 0.09491745 0.15011486 0.16010395 -0.03326454
00000000: 8251 ddbd 76dd 5b3d e615 203d 2b4e 173e
00000010: 6c9e 4a3d 2c76 733e 4074 ea3d 87b6 43be
00000020: 7790 b73e a957 86bc 9ddf 473e 734d a33c
00000030: 33bc cb3d 951c adbf e0ff 7bbf cb71 843e
00000040: c0cb d03d e4a1 07be de87 f8bc 4966 743e
00000050: 4e6c 1c3e 0004 363e 93f7 45bf 6716 563e
00000060: 9858 24ba c08c 8abd f943 25bc 77a7 1bbd
00000070: 1aea 4bbf ccd8 823e e0c4 223e 4f02 133d
00000080: bea1 333e aa72 fabc 0ee5 723e 4d78 9e3d
00000090: bc31 f1bd 869a 323e 9b95 0e3e b4e3 d2bc
000000a0: be30 ecbe fcf8 f73a 73e1 313e 1b7b dd3e
000000b0: 7551 0e3b 4975 2dbd 5d67 eebd a39c 94bd
000000c0: aeff 0fbf f7a1 0a3e 7262 0a3e 7ddc 09be
000000d0: fa85 5a3e c593 133e ea36 14bf 512f 6e3e
000000e0: 0bb2 aebd 84e7 bc3d 8a4b 82bd 9cd4 ccbd
000000f0: adee 6dbf 691d 96bd b461 10be 60c6 0ebc
00000100: eac9 963e 1f52 193d 459c 2f3d 94d7 903c
00000110: 9de9 b73c 190f ffbc 5a71 a5bd a44a 2fbd
00000120: 7d28 b7bb 2680 63bc 4f66 b6bc 9944 263e
00000130: 96f8 893e bc7e 2b3e b614 6a3d 05a2 c83c
00000140: 2bc5 ab3e 3960 96bd 2b64 8ebf a45c 6c3e
00000150: 2219 d5bd 5cb2 6d3e fe18 b73d f310 bc3d
00000160: f74d b13d a5a3 08be ed80 edbc 0d88 633e
00000170: 373b dc3d 49b2 8fbd 2dbc 373e f165 4e3d
00000180: a640 353d 3d19 e43d 5650 05be 4840 f5bc
00000190: 462e 413e 9118 ffbc af92 8d3e 779f a33e
000001a0: aee2 813d 38fa af3e d0e4 8b3e d22c 753e
000001b0: ff4d 333d bc9f c03e 75d0 49bf 604b a9be
000001c0: 9d5f 1e3e 3128 853e f69c 2d3e 2016 073d
000001d0: 8894 b4bd 2e27 4c3e 1d77 5e3e 3299 4a3d
000001e0: 34f3 023f c663 2b3e 03c9 95bf 5155 833d
000001f0: edc7 003e 6326 703d 553d b13e 98fb 993d
00000200: a2c7 5ebc 106e c93d bc89 1fbe 0858 a03e
00000210: c7e1 1b3c 84e2 313e a878 153e 885e 833e
00000220: 06cf 36bd c16a a5bc eb7e 7d3e 2a74 85bd
00000230: c162 903e 143b f1be f8a8 58be 32e9 3a3c
00000240: 182a f8bd b9f2 20be e90e 8fbd 09dd 003e
00000250: c4a1 73bd 9449 6e3e ee9d 943e 23e0 993c
00000260: 6d3e d4bd f0ba 003e 043e 84bc d15c 03be
00000270: 5405 4fbd df68 8ebd 232c 96bd 5390 073d
00000280: 4258 0f3e d5a2 8fbd 59dc 523e 625e 9fbc
00000290: 69f5 b1bd 5369 873e 83c3 503e b8ac c23d
000002a0: 73f6 b4be ba8f 2c3e f4be 2a3e c726 2d3e
000002b0: dad4 2e3e 8006 f33a 7c1a 13bd bdb0 5c3a
000002c0: ba1e 8f3d eeae 91bd 66ad f83d 5998 03be
000002d0: 31b3 893d e2ae 323e d1ef 103e 573d 1dbd
000002e0: 4bb4 99bc 822e 873e 9ffc 063d c982 8bbb
000002f0: 39d2 8bbe 24c7 023d 0a4a 053e de78 973d
00000300: 5113 a83e c99c 103e 4d91 0f3b 9eae 853e
00000310: 7189 fb3c 7ab9 253e 8469 2bbe 6e2e 3ebe
00000320: 7df5 513d 7a34 903d fcb9 693b 4e26 13bd
00000330: f7c4 453e afe9 7f3e eb78 dc3c cded 333e
00000340: 2848 c63e 4114 463e bd97 cd3d 74e8 0f3d
00000350: fd0c 24be f1ef 243e d307 203e 2a3c 1cbd
00000360: 6440 3f3d d7f2 d4bd 9e13 b6bc 0965 093e
00000370: 551f 723e 0ad6 55bd 4f37 103e 8b97 293d
00000380: 4a47 2dbd b014 703e 2053 293e f848 273e
00000390: 7bd5 4b3e ee52 cabc 34fd 5e3e 7f71 373e
000003a0: 47fe d9bd 06a9 9e3e 4099 b3bd 3169 263e
000003b0: de2a b2bd 39d6 8c3e 5fa2 513e c674 26be
000003c0: a1bd a2bd 3e7b 703e 439b cbbd 944d 09bc
000003d0: 0e3d 13be 2433 bc3d abb1 9c3e 7140 013e
000003e0: 741d 4d3e 5065 99bd 771c 223e cf59 99bd
000003f0: 1464 c23d b6b7 193e 4af2 233e 6640 08bd

value_stream.0.bias f4 [64]
0.6151634 0.55952966 -0.052325696 0.0 0.06485109 0.503764 0.6196351 0.55929893
-0.01956242 -0.050160244 0.5832536 -0.06485022 0.42174098 -0.021849776 0.58733153 0.616017
0.5315788 0.07213658 -0.026396774 0.529131 -0.016208757 0.47444463 0.6066611 0.035060816
0.60629267 0.60059375 0.6123752 -0.042087805 0.24445282 0.5060727 -0.034138225 0.6068329
-0.029666815 -0.02275489 -0.053741343 0.47614563 -0.039080296 -0.040726274 0.5427636 0.6236427
-0.08970349 0.4877412 0.60956556 0.38934824 -0.035654344 -0.0511063 -0.010969767 0.614226
0.60475093 0.13401036 0.61768013 -0.027964003 0.057354644 0.08293398 0.51236033 -0.043049503
0.1571111 -0.05895051 -0.057834435 0.5436701 0.07495529 -0.012911865 -0.016782837 0.07037878
00000000: 597b 1d3f 563d 0f3f 7853 56bd 0000 0000
00000010: a6d0 843d adf6 003f 68a0 1e3f 372e 0f3f
00000020: 5e41 a0bc d474 4dbd 1c50 153f 31d0 84bd
00000030: 6fee d73e 4dfe b2bc 5c5b 163f 4ab3 1d3f
00000040: 8c15 083f 58bc 933d 0c3e d8bc 2175 073f
00000050: 3ac8 84bc 68ea f23e 244e 1b3f ee9b 0f3d
00000060: ff35 1b3f 83c0 193f 9fc4 1c3f 4364 2cbd
00000070: d751 7a3e fb8d 013f 86d4 0bbd 6759 1b3f
00000080: d207 f3bc 7768 babc e21f 5cbd 5cc9 f33e
00000090: a912 20bd 98d0 26bd 8ef2 0a3f 0ca7 1f3f
000000a0: 77b6 b7bd 37b9 f93e 7d0c 1c3f a758 c73e
000000b0: 4a0a 12bd d754 51bd 8aba 33bc ea3d 1d3f
000000c0: f5d0 1a3f 033a 093e 4920 1e3f c414 e5bc
000000d0: b4ec 6a3d 4ad9 a93d 0c2a 033f ad54 30bd
000000e0: bbe1 203e 1776 71bd cde3 6cbd f72d 0b3f
000000f0: 2982 993d 498c 53bc 297c 89bc c022 903d

value_stream.2.weight f4 [1, 64]
0.34913665 0.1629566 -0.22375229 0.043993235 -1.2791064 0.2593312 0.44749245 0.17512709
-0.25307482 -1.280144 0.22057584 -0.69802094 -1.2610893 -0.21054274 0.17065816 0.4120733
0.1172809 -1.5326649 -0.16224806 0.37725186 -0.20800295 0.12612505 0.29786217 -1.2005677
0.32729873 0.29677567 0.3624614 -0.25095403 -1.2072761 0.26540864 -0.00019441881 0.3310423
-1.7966635e-05 -0.031419136 -0.13684188 0.12863779 -0.06534195 -0.016675463 0.3612944 0.4300065
0.005836377 0.20400156 0.33284014 -1.4587694 -0.21024153 0.0006801501 -0.27710074 0.34388718
0.29978308 -0.7239876 0.42407295 -0.10568101 -1.2034909 -1.1338153 0.23862039 -0.106908694
-1.0633464 -0.16440567 -0.13888334 0.45412594 -0.9771011 -0.19473115 -0.12237446 -1.0243543
00000000: 0ac2 b23e 18de 263e 521f 65be 4032 343d
00000010: c2b9 a3bf 0fc7 843e bb1d e53e 8454 333e
00000020: 0693 81be c2db a3bf a2de 613e 80b1 32bf
00000030: 606b a1bf 8498 57be 03c1 2e3e 46fb d23e
00000040: f830 f03d 5d2e c4bf 5b24 26be 2827 c13e
00000050: bafe 54be ed26 013e 6481 983e 34ac 99bf
00000060: b393 a73e fbf2 973e 8a94 b93e 0c7d 80be
00000070: 0688 9abf a4e3 873e e7dc 4bb9 607e a93e
00000080: 0eb7 96b7 5ab1 00bd 4720 0cbe a0b9 033e
00000090: 00d2 85bd fb9a 88bc 94fb b83e d029 dc3e
000000a0: 143f bf3b c9e5 503e 066a aa3e f5b8 babf
000000b0: 8e49 57be 1a4c 323a 26e0 8dbe fb11 b03e
000000c0: 2b7d 993e 4057 39bf 1720 d93e 496f d8bd
000000d0: fd0b 9abf dc20 91bf e758 743e f2f2 dabd
000000e0: bc1b 88bf f659 28be 6f37 0ebe 3283 e83e
000000f0: 4c23 7abf 9a67 47be 769f fabd 0b1e 83bf

advantage_stream.0.weight f4 [64, 128]
0.28045514 0.022712748 -0.24488582 -0.033961367 0.1451139 -0.034806676 -0.022950191 0.063502386
0.071869336 -0.12949155 0.10454688 0.06896512 -0.0261555 -0.04083208 -0.13191834 -0.15136117
-0.12351691 -0.0869343 -0.48889378 0.22087803 0.14128947 -0.26175937 0.0786588 -0.5605713
0.18279055 -0.31870827 0.17212474 0.09748323 -0.010308426 -0.2782092 -0.2029488 0.17993912
0.14561121 -0.20846628 -0.12005378 -0.25262147 -0.02418085 -0.38313705 -0.16026406 0.004137032
0.17937112 0.16135217 -0.094385885 0.2027132 -0.24566773 -0.1040863 -0.09371121 0.13320069
-0.033096977 0.010330517 -0.19203538 -0.07018727 -0.113635994 0.20161092 -0.31042933 0.07976961
-0.14962085 -0.10095352 0.049943537 -0.011997736 -0.0014991339 0.06574836 0.1079869 0.21615191
-0.37625226 0.14401644 0.03863674 0.114588745 0.18459071 -0.12160788 -0.120308556 0.24313954
-0.12592888 -0.09683353 -0.28650072 -0.34915578 0.096245 -0.22425932 -0.017364806 -0.14914253
-0.39977396 0.278215 -0.18095547 0.0046745776 0.17343123 -0.110179745 0.18100704 -0.13636744
-0.15523076 0.14277504 -0.0018976033 -0.5403187 -0.34717214 -0.24119881 0.032587193 -0.18036994
0.44981074 -0.29621312 -0.24208078 0.007720164 -0.4438805 0.09471228 -0.39161125 -0.068362035
0.16670945 0.095793076 -0.38080445 -0.13226932 -0.13458909 0.06354926 -0.084557705 -0.07103726
-0.13912348 -0.5370017 -0.012788074 0.16470884 0.138576 0.064396426 -0.10892285 0.04056677
-0.4967478 -0.010168631 0.17574352 -0.48530942 0.21043485 -0.0619965 0.0337569 -0.60185045
-0.16481669 0.014991313 0.15855266 0.14883338 -0.04167524 0.04440389 -0.17422931 -0.11669405
0.1260345 0.02400175 0.040805012 0.02012195 -0.06909774 0.13613413 0.15673952 0.06717282
0.15728484 0.04868224 0.12760274 -0.12091155 0.059674334 -0.13350163 -0.030538078 -0.1264777
0.05756316 -0.1772499 -0.05846041 -0.06828411 0.109762095 -0.14891613 -0.09230292 0.1447799
0.07613716 0.107187234 0.15798816 -0.10451461 0.04355867 -0.13759375 -0.07325657 -0.030882943
-0.088687025 0.036757737 0.031508837 0.028201776 0.08880592 -0.018628852 0.13861679 -0.017827585
0.109135166 0.13297471 0.15721107 -0.085257195 -0.07336134 -0.14397885 -0.08056928 0.15909395
-0.017002027 -0.101915136 -0.14255384 -0.13549629 -0.106169656 0.059369564 -0.09653884 -0.066588774
-0.15213993 -0.15189281 -0.102925405 -0.17126936 -0.018507244 -0.072978586 -0.084996685 -0.11183772
0.056418035 0.068647146 -0.038368966 0.0449814 0.15584289 -0.055972062 -0.10201726 0.10020158
-0.044101313 -0.0734255 0.106364265 0.048742175 -0.12061781 0.03813598 0.07635372 0.1654585
-0.10646114 0.08935593 -0.05713213 0.01863888 -0.16637243 -0.16543321 0.09402325 -0.0032689373
0.07670522 -0.11137613 0.12747596 -0.070755824 -0.11291933 0.15031229 -0.1080257 -0.1361897
-0.14545013 0.07292878 -0.014280046 -0.009417227 0.04672549 -0.05546724 0.026572453 -0.09784204
-0.045396518 0.09318119 0.02147045 0.121699296 0.16491614 0.119882874 -0.074305914 -0.1502044
-0.07966718 -0.021014068 0.15638311 0.012559645 -0.028119612 0.12779544 0.067165166 0.13658953
00000000: d197 8f3e 1610 ba3c 59c3 7abe 131b 0bbd
00000010: bd98 143e 7291 0ebd 0a02 bcbc 8a0d 823d
00000020: 3b30 933d 6f99 04be ad1c d63d 963d 8d3d
00000030: 0f44 d6bc 8a3f 27bd 9a15 07be 6cfe 1abe
00000040: 6ff6 fcbd 9c0a b2bd 4950 fabe da2d 623e
00000050: 30ae 103e 5305 86be dd17 a13d 9a81 0fbf
00000060: 722d 3b3e bb2d a3be 7841 303e 4aa5 c73d
00000070: ace4 28bc 7071 8ebe cfd1 4fbe f641 383e
00000080: 1b1b 153e 2f78 55be c2de f5bd 9a57 81be
00000090: eb16 c6bc 8a2a c4be 431c 24be f18f 873b
000000a0: 10ad 373e 8139 253e 634d c1bd 0d94 4f3e
000000b0: 5290 7bbe 332b d5bd aaeb bfbd c365 083e
000000c0: b290 07bd 5441 293c eca4 44be 58be 8fbd
000000d0: fdb9 e8bd 1873 4e3e 98f0 9ebe 405e a33d
000000e0: 3536 19be b8c0 cebd 9891 4c3d 2792 44bc
000000f0: 967e c4ba 13a7 863d 3c28 dd3d ed56 5d3e
00000100: 23a4 c0be 0c79 133e 8f41 1e3d 81ad ea3d
00000110: 5905 3d3e 8d0d f9bd 5564 f6bd 92f9 783e
00000120: 80f3 00be a850 c6bd 39b0 92be 8cc4 b2be
00000130: 191c c53d 3ca4 65be a340 8ebc d2b8 18be
00000140: 2caf ccbe 3272 8e3e 644c 39be 332d 993b
00000150: f597 313e eba5 e1bd e959 393e e8a3 0bbe
00000160: d0f4 1ebe 9f33 123e 00b9 f8ba 5452 0abf
00000170: 8cc0 b1be d2fc 76be 267a 053d e6b2 38be
00000180: 984d e63e 3fa9 97be 06e4 77be 6ef9 fc3b
00000190: 4e44 e3be 83f8 c13d 4581 c8be 6501 8cbd
000001a0: e2b5 2a3e 292f c43d cdf8 c2be 9c71 07be
000001b0: b9d1 09be 1d26 823d 972c adbd fc7b 91bd
000001c0: 6376 0ebe f278 09bf 1285 51bc 6fa9 283e
000001d0: dee6 0d3e 46e2 833d f112 dfbd 5729 263d
000001e0: ba55 febe 549a 26bc 1cf6 333e 7a7a f8be
000001f0: 3c7c 573e 0bf0 7dbd ad44 0a3d df12 1abf
00000200: b5c5 28be 209e 753c a15b 223e c767 183e
00000210: a8b3 2abd dae0 353d 2b69 32be 4afd eebd
00000220: 300f 013e 519f c43c 2823 273d cad6 a43c
00000230: 1e83 8dbd bf66 0b3e 5380 203e e791 893d
00000240: 470f 213e 0767 473d 4baa 023e 7aa0 f7bd
00000250: 136d 743d a7b4 08be fe2a fabc 5f83 01be
00000260: 59c7 6b3d ff80 35be 2f74 6fbd 8ad8 8bbd
00000270: f3ca e03d 787d 18be 5009 bdbd 2f41 143e
00000280: cded 9b3d fb84 db3d a6c7 213e c10b d6bd
00000290: 936a 323d 60e5 0cbe 8a07 96bd 3afe fcbc
000002a0: 8ba1 b5bd 488f 163d 690f 013d 6907 e73c
000002b0: e1df b53d 899b 98bc 8ff1 0d3e 280b 92bc
000002c0: 4282 df3d 862a 083e f0fb 203e 539b aebd
000002d0: 783e 96bd 316f 13be 8201 a5bd 86e9 223e
000002e0: d647 8bbc e2b8 d0bd a2f9 11be 8abf 0abe
000002f0: 7a6f d9bd 802d 733d 28b6 c5bd b25f 88bd
00000300: 92ca 1bbe ca89 1bbe 8eca d2bd 3c61 2fbe
00000310: 819c 97bc cc75 95bd be12 aebd 2d0b e5bd
00000320: 9916 673d e096 8c3d c728 1dbd 6b3e 383d
00000330: 4795 1f3e f642 65bd 6dee d0bd 7c36 cd3d
00000340: 94a3 34bd 1c60 96bd 82d5 d93d e0a5 473d
00000350: 7806 f7bd 7934 1c3d 575f 9c3d f46d 293e
00000360: 4c08 dabd 3e00 b73d 6103 6abd 91b0 983c
00000370: 895d 2abe 5367 29be 438f c03d ab3b 56bb
00000380: a017 9d3d 2b19 e4bd 0f89 023e 6ee8 90bd
00000390: 4042 e7bd 77eb 193e 943c ddbd 5075 0bbe
000003a0: e1f0 14be af5b 953d dbf6 69bc b64a 1abc
000003b0: 3a63 3f3d 9e31 63bd 79ae d93c 6861 c8bd
000003c0: b3f1 39bd c8d5 be3d cce2 af3c 7b3d f93d
000003d0: c7df 283e 2785 f53d b32d 98bd 2fcf 19be
000003e0: 8c28 a3bd b225 acbc e522 203e f8c6 4d3c
000003f0: 1a5b e6bc cfdc 023e e48d 893d 20de 0b3e

advantage_stream.0.bias f4 [64]
0.06586406 -0.0035069028 0.06849973 0.12502153 0.018308703 -0.0029266363 -0.034497153 -0.054652434
-0.0020986504 0.28205815 0.3203209 -0.057998046 0.34185943 -0.09908709 -0.026159909 0.13024805
0.006859217 0.14108205 0.12830147 -0.06671106 -0.02549507 -0.066243425 0.13739912 -0.13816294
-0.05917642 -0.06547995 -0.045583013 -0.01134874 -0.016660426 0.12066722 0.1335212 0.17114428
-0.18521403 -0.04494782 0.103575274 0.09800443 -0.08508348 -0.13427691 -0.052495785 0.13211499
-0.027034832 -0.07322267 0.30699515 -0.06626795 0.089174494 0.16882773 0.14832656 -0.09681777
-0.03282331 0.060758587 -0.037742697 -0.025415417 -0.013570543 -0.031493213 -0.03472558 -0.07402176
-0.047224183 -0.004958342 -0.020199168 0.10561812 0.020252217 -0.073945396 -0.08550612 -0.04803881
00000000: bce3 863d 11d4 65bb 9649 8c3d a505 003e
00000010: 22fc 953c cfcc 3fbb e34c 0dbd 3bdb 5fbd
00000020: 8389 09bb ed69 903e 1a01 a43e 5c8f 6dbd
00000030: 3308 af3e 2cee cabd 4e4d d6bc bf5f 053e
00000040: 48c3 e03b d077 103e 7661 033e cf9f 88bd
00000050: 09db d0bc a2aa 87bd 5bb2 0c3e 967a 0dbe
00000060: f962 72bd 5a1a 86bd 41b5 3abd 11f0 39bc
00000070: 727b 88bc 6020 f73d c8b9 083e 7240 2f3e
00000080: bfa8 3dbe 351b 38bd 461f d43d 8cb6 c83d
00000090: 3f40 aebd e37f 09be d205 57bd 2749 073e
000000a0: 2778 ddbc c4f5 95bd 782e 9d3e 7eb7 87bd
000000b0: 1ea1 b63d 2de1 2c3e ebe2 173e 6548 c6bd
000000c0: bc71 06bd ffdd 783d 1698 1abd fe33 d0bc
000000d0: fc56 5ebc 07ff 00bd 693c 0ebd b898 97bd
000000e0: 256e 41bd 9679 a2bb ba78 a5bc 504e d83d
000000f0: fae7 a53c af70 97bd d51d afbd 58c4 44bd

advantage_stream.2.weight f4 [2, 64]
0.5414854 0.064653926 0.24062349 0.6215323 -0.38098422 -0.4253237 -0.20236206 0.18230787
0.2811027 1.0669932 0.87858754 -0.0932804 -0.7752826 0.01938041 -0.01726687 0.30071148
-0.056054026 0.195969 0.15272234 -0.20998007 -0.16948824 -0.09489035 1.1638595 0.11403599
-0.19665286 0.09345145 0.2019792 0.10793761 -0.19238512 -1.3479226 0.21421662 0.4580772
0.13809596 0.18972996 -0.078313656 -0.8940898 0.43194112 0.24414964 0.18371904 1.0211641
-0.07772123 0.15682921 1.0025611 0.73183316 0.6553145 0.63338596 -1.1805342 -0.1560352
0.085962914 0.22911012 -0.47527316 -0.23186715 -0.051454738 0.17202313 -0.3109319 -0.03916225
0.039037284 0.01765181 0.03810089 0.056106754 -0.075212814 0.15650336 0.8753804 -0.0291507
-0.022324197 -0.25402597 -0.21459022 -0.8542508 0.3374345 0.3670288 -0.15094285 0.13050617
0.004833025 -1.0246956 -0.8984793 0.06168265 1.0594708 0.014266173 -0.0053024683 -0.27368793
-0.042999234 -0.2648763 -0.3234044 0.17459182 -0.17260699 0.049713384 -0.96428865 -0.1792956
0.14348786 0.09645658 0.07580034 0.12004306 0.23733701 1.4390419 -0.2048192 -0.3137855
0.11107992 0.06391932 -0.3068464 1.0061655 -0.5029414 0.22261332 -0.13531956 -0.88970906
0.33212745 0.26685777 -0.92582995 -0.38692623 -0.63312167 -1.0920577 1.391668 -0.090500824
-0.21396793 -0.535197 -0.034416154 0.14095677 0.4427987 0.24129476 -0.28021616 -0.08524234
0.41244835 -0.26471633 0.0029156 -0.15123425 -0.079296924 -0.14322294 -0.5604577 -0.10412113
00000000: ca9e 0a3f 4769 843d 0166 763e be1c 1f3f
00000010: 5d10 c3be 07c4 d9be 0038 4fbe eaae 3a3e
00000020: b1ec 8f3e 3c93 883f 1deb 603f cb09 bfbd
00000030: ec78 46bf aac3 9e3c 4073 8dbc dbf6 993e
00000040: e898 65bd 19ac 483e 3f63 1c3e 0405 57be
00000050: 538e 2dbe df55 c2bd 59f9 943f b38b e93d
00000060: 5e5f 49be 7963 bf3d a3d3 4e3e 650e dd3d
00000070: 9b00 45be ba88 acbf 9a5b 5b3e 1889 ea3e
00000080: 0769 0d3e 9248 423e e962 a0bd 12e3 64bf
00000090: 6327 dd3e 5d02 7a3e d820 3c3e 81b5 823f
000000a0: 4f2c 9fbd d697 203e ec53 803f 6b59 3b3f
000000b0: b1c2 273f 9525 223f bf1b 97bf b1c7 1fbe
000000c0: 530d b03d d89b 6a3e 0157 f3be 956e 6dbe
000000d0: 34c2 52bd d526 303e 7732 9fbe 9868 20bd
000000e0: 8fe5 1f3d 879a 903c ae0f 1c3d 32d0 653d
000000f0: 2d09 9abd 6b42 203e ee18 603f 73cd eebc
00000100: 3ce1 b6bc b10f 82be 8abd 5bbe 2eb0 5abf
00000110: 37c4 ac3e 33eb bb3e c390 1abe 69a3 053e
00000120: 5a5e 9e3b 3a29 83bf bd02 66bf f2a6 7c3d
00000130: bd9c 873f abbc 693c 54c0 adbb d320 8cbe
00000140: f71f 30bd de9d 87be 4395 a5be 33c8 323e
00000150: e3bf 30be 43a0 4b3d 9fdb 76bf 4499 37be
00000160: 7bee 123e 078b c53d 353d 9b3d 23d9 f53d
00000170: 7908 733e 8632 b83f 20bc 51be 7ea8 a0be
00000180: de7d e33d 22e8 823d f91a 9dbe 08ca 803f
00000190: c5c0 00bf bff4 633e 3691 0abe f9c3 63bf
000001a0: 9c0c aa3e 95a1 883e 3103 6dbf 321b c6be
000001b0: 4314 22bf 8cc8 8bbf 2d22 b23f 7f58 b9bd
000001c0: 691a 5bbe ac02 09bf f4f7 0cbd f956 103e
000001d0: 83b6 e23e f915 773e 7e78 8fbe 8993 aebd
000001e0: 6e2c d33e e688 87be a713 3f3b 27dd 1abe
000001f0: 6d66 a2bd 09a9 12be 287a 0fbf 763d d5bd

advantage_stream.2.bias f4 [2]
-0.051300693 0.051300693
00000000: ad20 52bd ad20 523d

exp_avg f4 [128, 4]
-0.00044416814 -0.0001360511 -3.742039e-05 7.72808e-05 0.0001081126 0.00022901653 -2.0797659e-05 -0.0003055127
5.5071454e-05 -7.3935425e-06 -0.000938002 -0.0018029613 -0.050136242 -0.053786542 -0.00064468675 0.014715888
0.0060980334 -0.0012518035 -0.00070195866 -0.002945677 -0.00031712154 -0.00062463386 -0.00014890016 0.00035351614
-2.0241493e-12 3.0517097e-12 -3.990761e-13 -5.128985e-13 -0.037827704 -0.040507827 -0.0005975089 0.011118037
-6e-45 6e-45 6e-45 -6e-45 0.003256125 0.0031663144 -2.5751042e-06 -5.0235132e-05
6e-45 -6e-45 -6e-45 6e-45 6e-45 -6e-45 -6e-45 6e-45
-0.0011370139 -0.0011832451 4.351828e-05 0.0002490491 -0.0036354172 -0.001850051 0.00032219844 0.0028920472
-6e-45 -6e-45 6e-45 6e-45 -0.00056752394 9.054975e-07 -5.0083595e-06 -0.0004780499
-0.0500921 -0.054389045 -0.00060923724 0.015099189 -6e-45 6e-45 -6e-45 -6e-45
0.013742964 0.010682004 -0.0014618696 -0.014905376 -0.0088239 -0.010663283 -0.0004914947 0.0018733216
0.0016570746 0.00376609 -0.0016143998 -0.004599959 0.00061306 -0.0023653468 -0.00033072106 0.0010329852
-0.0010789747 -0.0023011263 -0.0005764451 0.0002177813 1.0461596e-06 -3.621549e-06 1.1469596e-06 6.7635256e-07
0.06133095 0.08678387 0.0014522334 -0.020284941 -0.0006997537 -0.0031125068 -0.0006640445 -0.00040964963
0.0035287826 0.0016883456 0.00029642682 -0.00037280013 -6e-45 6e-45 6e-45 6e-45
-1.190656e-05 0.00012787565 8.598729e-06 -9.177124e-05 6e-45 6e-45 6e-45 -6e-45
-0.0003872905 -0.0010194355 -6.8179966e-06 0.001083649 0.008863416 -0.00067613745 -0.0007753149 -0.0041456283
6e-45 -6e-45 6e-45 6e-45 6e-45 6e-45 -6e-45 -6e-45
0.0046618395 0.0032142827 -0.00040113996 -0.0025100422 6e-45 -6e-45 -6e-45 6e-45
0.0032689245 0.0033070897 0.00017595623 3.9780105e-05 0.0007805352 0.00059939054 -6.360469e-05 -8.432744e-05
-0.0017086881 0.0022625215 6.886889e-05 -0.0032899366 0.0019217576 0.0013249596 0.00068142056 0.0015817895
6e-45 -6e-45 -6e-45 6e-45 -0.00018447987 -0.00084386196 -0.00011338275 -1.0044605e-05
0.049636457 0.050593067 0.00017588271 -0.020307831 6e-45 -6e-45 -6e-45 6e-45
0.008002533 0.0077228877 -0.00032533176 -0.004564193 6e-45 -6e-45 -6e-45 -6e-45
0.0013153683 0.017187156 0.0012436779 -0.0028616744 0.003458624 0.0033186227 0.000117170974 -0.0003569087
0.005210887 0.0154081695 -0.0029479668 -0.0075762346 -0.0013887099 -0.0029502558 -0.0035513877 0.0011774185
0.001697648 -0.002482091 -0.00037801758 0.0012897685 6e-45 6e-45 -6e-45 -6e-45
1.5669408e-09 3.1192812e-08 -3.4780014e-09 -4.9677645e-08 -1.5153146e-06 -5.5116916e-06 1.0048687e-06 -5.6339913e-06
6e-45 -6e-45 -6e-45 6e-45 0.0014388771 -0.0042711333 -0.0002583914 0.0035106998
0.009300105 0.0060333107 -0.00026802777 -0.0027938352 6e-45 6e-45 -6e-45 6e-45
-0.0004150686 0.004005145 -8.197434e-05 -0.00021121498 0.00057358475 0.00020560162 0.00055579375 0.0013586923
-0.00058444875 0.006696197 -0.00084544945 -0.002698663 0.0017093675 -0.0040178476 -0.0003135704 0.0031931524
0.007449111 0.005295573 -0.0011595318 -0.009582054 -2.856703e-08 1.01373594e-07 -7.660354e-09 2.5103876e-08
00000000: 3ddf e8b9 f0a8 0eb9 d6f3 1cb8 d011 a238
00000010: 83ba e238 2824 7039 a276 aeb7 382d a0b9
00000020: 86fc 6638 0c16 f8b6 40e4 75ba 5851 ecba
00000030: a95b 4dbd 474f 5cbd 3200 29ba e81a 713c
00000040: 03d2 c73b 8e13 a4ba a603 38ba 420c 41bb
00000050: 5543 a6b9 78be 23ba 1522 1cb9 2258 b939
00000060: d56f 0eac b7be 562c eda8 e0aa 3b5e 10ab
00000070: 39f1 1abd 89eb 25bd 25a2 1cba 6d28 363c
00000080: 0400 0080 0400 0000 0400 0000 0400 0080
00000090: b664 553b f181 4f3b f4cf 2cb6 90b3 52b8
000000a0: 0400 0000 0400 0080 0400 0080 0400 0000
000000b0: 0400 0000 0400 0080 0400 0080 0400 0000
000000c0: db07 95ba 1e17 9bba 6687 3638 ce92 8239
000000d0: 2e40 6ebb 697d f2ba beec a839 8088 3d3b
000000e0: 0400 0080 0400 0080 0400 0000 0400 0000
000000f0: e3c5 14ba 5011 7335 7b0d a8b6 c5a2 fab9
00000100: 602d 4dbd 0cc7 5ebd 38b5 1fba 9762 773c
00000110: 0400 0080 0400 0000 0400 0080 0400 0080
00000120: 2b2a 613c 9203 2f3c 349c bfba ae35 74bc
00000130: 1e92 10bc 0db5 2ebc a7d7 00ba 3e8a f53a
00000140: 3232 d93a 81d0 763b 459a d3ba 41bb 96bb
00000150: c3b5 203a ef03 1bbb a164 adb9 3b65 873a
00000160: 626c 8dba 7ece 16bb 931c 17ba 395c 6439
00000170: c569 8c35 bd09 73b6 3bf1 9935 988e 3535
00000180: 2a36 7b3d bebb b13d de58 be3a 9b2c a6bc
00000190: ad6f 37ba 33fb 4bbb 4613 2eba 3ec6 d6b9
000001a0: 2643 673b 7a4b dd3a bc69 9b39 6374 c3b9
000001b0: 0400 0080 0400 0000 0400 0000 0400 0000
000001c0: 49c2 47b7 5c16 0639 4343 1037 4f75 c0b8
000001d0: 0400 0000 0400 0000 0400 0000 0400 0080
000001e0: 400d cbb9 949e 85ba 25c6 e4b6 3a09 8e3a
000001f0: dc37 113c d13e 31ba 813e 4bba 0dd8 87bb
00000200: 0400 0000 0400 0080 0400 0000 0400 0000
00000210: 0400 0000 0400 0000 0400 0080 0400 0080
00000220: 58c2 983b b7a6 523b 1850 d2b9 857f 24bb
00000230: 0400 0000 0400 0080 0400 0080 0400 0000
00000240: 743b 563b c2bb 583b e480 3839 90d9 2638
00000250: d59c 4c3a 6b20 1d3a 8263 85b8 f3d8 b0b8
00000260: 0ff6 dfba d046 143b b46d 9038 fa9b 57bb
00000270: 7ce3 fb3a 44aa ad3a 5ca1 323a 0c54 cf3a
00000280: 0400 0000 0400 0080 0400 0080 0400 0000
00000290: f070 41b9 9e36 5dba e7c7 edb8 4085 28b7
000002a0: 994f 4b3d ad3a 4f3d 286d 3839 9c5c a6bc
000002b0: 0400 0000 0400 0080 0400 0080 0400 0000
000002c0: 0e1d 033c 4710 fd3b 4a91 aab9 3a8f 95bb
000002d0: 0400 0000 0400 0080 0400 0080 0400 0080
000002e0: 7068 ac3a 14cc 8c3c e802 a33a ee8a 3bbb
000002f0: 15aa 623b 407d 593b b0b9 f538 7a1f bbb9
00000300: 17c0 aa3b 8c72 7c3c ad32 41bb 1042 f8bb
00000310: 5f05 b6ba 1459 41bb 66be 68bb 9c53 9a3a
00000320: 9d83 de3a 94aa 22bb a930 c6b9 730d a93a
00000330: 0400 0000 0400 0000 0400 0080 0400 0080
00000340: d45b d730 dcf8 0533 a601 6fb1 265d 55b3
00000350: d061 cbb5 12f1 b8b6 07df 8635 9e0b bdb6
00000360: 0400 0000 0400 0080 0400 0080 0400 0000
00000370: b498 bc3a ddf4 8bbb b578 87b9 c513 663b
00000380: 785f 183c 14b3 c53b 1486 8cb9 c718 37bb
00000390: 0400 0000 0400 0000 0400 0080 0400 0000
000003a0: 919d d9b9 973d 833b a4e9 abb8 9779 5db9
000003b0: 9f5c 163a c496 5739 b0b2 113a 2616 b23a
000003c0: b135 19ba c66b db3b 27a1 5dba 0ddc 30bb
000003d0: db0c e03a 26a8 83bb b566 a4b9 3544 513b
000003e0: ac17 f43b 7c86 ad3b 6efb 97ba 0cfe 1cbc
000003f0: 9063 f5b2 b9b2 d933 989a 03b2 02a4 d732
