CartPoleHighRewardIn2026/checkpoints/checkpoint_ep50_reward43.00.pt (torch, 421117 bytes, 33 tensors)

feature_layer.0.weight f4 [128, 4]
00000000: 740b 0c3d 31bd 0cbe 669f 3dbe 1424 4c3d
00000010: f224 a53d dbe9 2f3e a629 d9bd 3967 a1bd
00000020: d896 00be 4493 8a3d ad41 47be c8f6 3cbe
00000030: 369f 58bd bf84 d1bd 203a 123e 2504 9cbd
00000040: 0871 173d 0dc3 09be 83e4 1d3e e603 133e
00000050: e67f 4f3d af98 a13d 45e0 46be 5a71 1bbe
00000060: 54fd f338 f885 85bb 0987 903d e38a 8b3d
00000070: e739 a3bb df6a e43d 7ca3 25bd 3cda d03d
00000080: 8f5d 4ebe 6014 f23d 480b 633e b75f 503c
00000090: 9c4d 013e 58fb 0fbe 61dc b4bc c8c2 8abd
000000a0: ece1 183b a60d 94bd 00ee 173e c37c c1bd
000000b0: ec92 8f3d 19ea f43d 31ee 433e daae 283e
000000c0: df90 01be 5710 ecbc 420b 153e 1db2 5c3d
000000d0: 3d66 0d3e 8fae af3d a25d 72be 6bdf a63d
000000e0: f18f 303e d55c cc3d 8af1 bebd ce0c 3abd
000000f0: 2165 b3bd a0d0 2c3d 3cd7 e63d 8700 11be
00000100: 0208 073c 1524 00bd e2d2 173e eb04 f2bc
00000110: e4fb 0ebe 477b f03d 0693 babd 0f22 4cbc
00000120: a787 2ebd 2994 d23d e895 81bd 55ad 523d
00000130: 80c1 16be 847b 11bd 6bc0 513e 9fb2 f8bd
00000140: 4c78 2bbd 6c8c d8bc c591 e83c bd33 9ebd
00000150: 3cee b13d 7102 88bd 66d0 873c 82fd 4c3e
00000160: cf44 433e 4399 87bd a5e8 eebd b56d 04be
00000170: a5bc 2cbd 694c 0a3c 132c 8d3d 5638 9bbd
00000180: a258 e63d a77c c63a 1b63 363d 3127 443e
00000190: b87d ae3c 3f41 573c e3ea 85bd d8ef 173e
000001a0: 5c41 2bbe b545 afbd 72ec 813c 9cec d93d
000001b0: c766 50be 91a2 e6bc 1ab4 0d3d e153 373e
000001c0: f1de 923d c110 213e a08e 6bbc ec36 34be
000001d0: e073 9c3c fdfd f73d b7a9 943c 1b1b 603d
000001e0: 6a44 4c3e ed17 52be cf3e 213d 267e 8e3d
000001f0: d7df 243d 0c9f 45bd 34a0 b1bd 4ebe f03d
00000200: a9dc 463d 48f4 6f3d dd97 9dbb 690d 0ebe
00000210: 1f79 9e3d 7b89 03be adb6 f8bd 6305 b0bd
00000220: e045 4ebe 45a2 53be 2a25 1dbb ef47 38be
00000230: 7bd7 333e 1fd8 1abe ad15 7f3d a1be 993d
00000240: 6a75 e7bd 8978 b43c b2af 663e 8fa3 36be
00000250: 38c2 f4bc aff6 0f3e a2b6 6d3e ef96 833d
00000260: ab12 473e b5ac cdbd e2a1 3e3e 1742 953c
00000270: 357e 15be a62c 003e 0d09 3a3e b693 33be
00000280: 0954 df3d b8a3 5e3d 2abe 3e3e 8610 4ebe
00000290: fcc2 c43d baf8 323e 80e9 28bd 1e8e c63d
000002a0: 0077 3cbe e40e 443d 92ec 14be d321 4cbe
000002b0: 37f0 db3d e1cd 003e b341 e63d 990d 1a3e
000002c0: cdcd 90bd c14f 22be fd34 0c3e 26e7 363e
000002d0: 8150 23be 31f5 45be 06f0 0cbe 961f f2bd
000002e0: 9847 1c3e 5e62 43be 358d 863d 459e e63c
000002f0: 2942 21be 4759 3cbe 6836 263e 53c1 0bbe
00000300: 0fb8 1dbe 564f fb39 06f2 3cbe cc9b 713c
00000310: 82c8 53bd 9b18 aabd 3bc1 44be 40d8 06be
00000320: ac57 333e 3a8a f9bd 6480 b03d 5cdd 143e
00000330: 1cb4 13b8 d2da d63d 9954 12be 29b3 22be
00000340: eb9c 0b3e 36ab c63d 4155 413d 65a4 efbd
00000350: 0f9f bebd 02c5 3f3e a0ac 583e 02c9 2ebe
00000360: a463 d53d 82e2 02be 6fc5 4abd 38bc 8bbc
00000370: f27f 23be 7fa0 d43b d949 71bd 78f2 353e
00000380: ada2 c6bd ddff 26be f6c8 ee3c c795 533e
00000390: b72a 5a3e 2cdd c63d e496 68be 0fe9 d43d
000003a0: 6feb 56bd 9fc1 27be e821 8cbd d93f 48be
000003b0: 54e3 ffbd a9ac 7c3d a914 5e3e c1cf 19be
000003c0: c0c9 343d c50f c33c d0bb d2bd 4100 8dbc
000003d0: 2da1 0ebe 7b54 0fbe d780 343e ef20 4b3e
000003e0: e8ea 853d 5f68 1fbd c722 a6bd eabd 6f3d
000003f0: cc46 42be 4a7a 09be 4bbd ce3d 9c80 093e
0.03419061 -0.13744046 -0.18517837 0.049839094 0.080636874 0.17179053 -0.10603647 -0.07881016
-0.12557542 0.0676637 -0.19458647 -0.18453515 -0.05288621 -0.102303974 0.14279985 -0.07617978
0.03697303 -0.13453312 0.15419202 0.14356956 0.050659083 0.0789045 -0.1942149 -0.15179959
0.00011634329 -0.004074808 0.07057006 0.068136 -0.0049812677 0.111531965 -0.040439114 0.10197875
-0.20152877 0.118202925 0.22172272 0.012718133 0.12627262 -0.14060724 -0.022077741 -0.06775433
0.002332802 -0.07229166 0.14836884 -0.094476245 0.07010445 0.11958713 0.19133832 0.1647295
-0.1265292 -0.028816385 0.14555076 0.0538808 0.13808532 0.08578216 -0.2366853 0.08148082
0.1724241 0.09978644 -0.09323414 -0.045422368 -0.08759523 0.042191148 0.112715214 -0.14160357
0.008241655 -0.03128441 0.14826539 -0.02954336 -0.13963276 0.11742263 -0.09110074 -0.012459292
-0.042609837 0.102821656 -0.063274205 0.051434834 -0.14722252 -0.035518184 0.20483558 -0.12143444
-0.04186277 -0.026434146 0.02838982 -0.07724712 0.08688018 -0.06641091 0.016578864 0.2001858
0.19069217 -0.06621029 -0.11665467 -0.12932475 -0.042172093 0.008441069 0.06893172 -0.075791046
0.11247374 0.001514335 0.044528108 0.19155575 0.021300182 0.0131381145 -0.06538942 0.14837587
-0.16724151 -0.085582174 0.015859816 0.10640833 -0.20351706 -0.02815369 0.034595586 0.17903091
0.07171429 0.15729047 -0.014377266 -0.17599076 0.019098222 0.12108991 0.018147333 0.05471335
0.19947973 -0.2051694 0.03936654 0.06957655 0.040252533 -0.048247382 -0.086731344 0.11755048
0.04855028 0.058582574 -0.0048093633 -0.13872303 0.07737946 -0.12845413 -0.12144218 -0.085947774
-0.20143843 -0.2066737 -0.002397845 -0.1799619 0.17562668 -0.15121506 0.06227653 0.07507063
-0.11301692 0.022030132 0.2252796 -0.1783583 -0.029877767 0.14058946 0.232142 0.06425273
0.19440715 -0.10042707 0.18616441 0.01821999 -0.14598925 0.12517032 0.18167515 -0.17536816
0.109047 0.054355353 0.1862723 -0.2012349 0.09607503 0.17477694 -0.041238308 0.096950755
-0.1840477 0.047865763 -0.1454337 -0.19934778 0.10739177 0.12578537 0.11243 0.1504425
-0.070705034 -0.15850736 0.13692088 0.17861614 -0.15948679 -0.19331814 -0.13763437 -0.11822431
0.15261686 -0.19080493 0.06569902 0.02815164 -0.15747894 -0.18393432 0.16231692 -0.13647966
-0.15402244 0.0004793356 -0.184517 0.0147466175 -0.05170489 -0.08305474 -0.19214337 -0.1316843
0.17513913 -0.12184568 0.086182386 0.14537567 -3.521527e-05 0.104909554 -0.14290084 -0.15888657
0.13634078 0.09700625 0.047200445 -0.11701278 -0.09307682 0.18727496 0.21159601 -0.17068866
0.104193956 -0.12781718 -0.049504694 -0.017057523 -0.15966776 0.006488859 -0.058908317 0.17768276
-0.09698997 -0.16308542 0.02914856 0.20662604 0.21305357 0.09710154 -0.2271381 0.10396015
-0.05247062 -0.16382454 -0.068424046 -0.19555606 -0.12494531 0.0616881 0.21687569 -0.15020658
0.044137716 0.02381123 -0.10289729 -0.017212035 -0.13928671 -0.1399707 0.17627273 0.19836782
0.065389454 -0.038917895 -0.08112102 0.058530726 -0.1897232 -0.13425556 0.100946985 0.13427967

feature_layer.0.bias f4 [128]
00000000: 98a8 193d 53df 003c 392b 6e3c 6445 373d
00000010: 68fe e23c 82af 253d e888 293d 2ab8 213d
00000020: 3988 353d 7714 2b3d 017a 26bc 368f 2e3d
00000030: 10d8 2f3d 807f d53c 5423 233d e5a2 8a3c
00000040: d5ca 343d 666b fb3c 2c63 5bbc 83cb cf3c
00000050: b460 0bbc 2526 2fbb d3e6 103d 32c1 213d
00000060: e559 f23c b01e 263b 86ed eb3c fc68 2b3d
00000070: 1a52 53bc a0ea c63c e7ea 68bc 26f8 123c
00000080: fbe6 1f3d c630 d93c e52e d9bc 161a 183d
00000090: 8caa 403c 5ab6 3a3d 7191 823c 1b4f 083d
000000a0: d373 233d 99aa 76bc ad16 fbbc 0077 343d
000000b0: e6ee dcbc 5150 353d 6169 1a3d de79 0a3d
000000c0: 47bc 49bc 8c11 a7bc 3fcb 963a ae73 273d
000000d0: 955d 50bc 784f 143d 0e49 2e3d 9b41 df3b
000000e0: 9e38 f2bb 60c0 3e3d 6eba f1bc 00b7 b23c
000000f0: 299f 49bc b28f f53c 41e6 dabc 1986 063d
00000100: 7afb 69bc a92d 2e3d 92c9 75bb f0a3 3c3d
00000110: 9428 153d 0a2a 273d 6525 033d 86b1 273d
00000120: 1d8b 013d 732f 113d 257e 88bb 0611 e3bc
00000130: 9bea e7bc 8aa1 2a3d 2914 d7bc 135f 233d
00000140: e0d3 0e3d 9541 223d 268d 1a3d 7db3 df3c
00000150: 2960 f53c 1343 133d da6d aa3c d1d4 313d
00000160: cb66 243d 0a59 563b fdb1 97bc 3e83 1f3d
00000170: 128a 153d 253f bd3c 9b23 1bbd 95f9 073d
00000180: a9a0 00bd 3e12 c73b 31fe ea3c 0c58 003d
00000190: 0469 2a3d 4f0a 233d 6815 c8bc ffb2 173d
000001a0: c55b 213d 95e3 c03a 6bc8 9dbc 963d b3bc
000001b0: 82a8 f93c d925 183d d489 323d 1242 193d
000001c0: 318f 073d 64ba b2bc 25df 193d e3f9 fe3c
000001d0: 839e 053d 0627 f3bc a36d 213d 471c 303d
000001e0: c231 033d 1285 5b3c 0405 96bc dfae fcbc
000001f0: f0c9 3e3d c596 3f3c d9ba fe3c d790 d4bc
0.0375143 0.007865745 0.014536672 0.04474391 0.027709201 0.04045058 0.04139033 0.039482273
0.044319365 0.041767564 -0.010160924 0.042617045 0.042930663 0.026061773 0.039828613 0.016923377
0.04413875 0.03069086 -0.013390344 0.025365597 -0.008506943 -0.0026725617 0.03537638 0.039490886
0.02958388 0.002534788 0.028799783 0.041848168 -0.0128979925 0.0242818 -0.014216161 0.008970296
0.03903864 0.026512515 -0.026511619 0.037134252 0.011759412 0.04558406 0.015938492 0.033278566
0.03990538 -0.015055322 -0.030650461 0.0440588 -0.026969384 0.04426605 0.037698153 0.033807628
-0.012312955 -0.02039411 0.0011504664 0.040881805 -0.012717624 0.0362086 0.04255014 0.0068132407
-0.007392003 0.04657018 -0.029507842 0.021815777 -0.012306013 0.029975746 -0.026721122 0.03284273
-0.014281148 0.042524014 -0.0037504178 0.04605478 0.03641565 0.040811576 0.032018084 0.040940784
0.03162681 0.03544564 -0.004165428 -0.027718078 -0.02831011 0.041657962 -0.02625473 0.03988559
0.03487003 0.039613325 0.037732266 0.027307266 0.02995308 0.03595264 0.020804334 0.04341585
0.040137094 0.003270688 -0.018517489 0.03894352 0.036508627 0.023101399 -0.037875753 0.033197004
-0.031403217 0.0060751727 0.028685661 0.031333968 0.041604057 0.039804753 -0.02442427 0.03703594
0.03939416 0.0014716262 -0.019260606 -0.021879952 0.030475859 0.03714547 0.043588474 0.037416525
0.033095542 -0.021817394 0.037566323 0.031125015 0.03262187 -0.029681694 0.0394112 0.042995717
0.032029875 0.013398426 -0.018312939 -0.030845104 0.0465793 0.011693661 0.031094955 -0.025947971

feature_layer.2.weight f4 [128, 128]
00000000: b8ad e9bc a1c9 9f3d 2903 49bd f00a 0b3e
00000010: 388c 863d 99a1 afbd 6fb9 533d b72b 9b3c
00000020: 6c0a c73c 58fa 81bd af84 a73d 06bc 443d
00000030: 1526 993c ed2e 8cbd 0e5a 1a3e 14af f9bd
00000040: 92e3 b73d dee9 fcbd 4ab9 ccbd 92ed 993d
00000050: 1fb7 e93c 4778 94bb 557e 853d f60b 743b
00000060: 9e43 953d 4e44 e2bd 0f10 c53d 37e1 94bc
00000070: 5f61 c83d f24a edbd 8c33 123d 0671 f7bc
00000080: 1ba7 843d 1475 c8bd 92a1 efbd fed1 8f3d
00000090: a15a 5f3b b38d acbd 087a bcbd 7fc1 d6bd
000000a0: 8d99 2c3d 1844 9c3d bee3 9ebd 5502 003e
000000b0: 6414 f03d 163b 183d 51ab 98bd 0312 b7bd
000000c0: c957 66bd 3fd0 ccbd 6943 733d 0e71 d53d
000000d0: 0baa 0d3e 9d49 7bbd 342e 55bd 9afc 233d
000000e0: f526 2fbc fac1 ef3d 2169 14be bf0c ba3d
000000f0: 1949 bbbb ad3f 193e 31b6 e4bc 08dd 9f3d
00000100: 2131 603d 842c 9bbd c4fb aebd 9f90 f43d
00000110: 8763 8bbd 6435 073e 0d39 3e3d c34a fd3c
00000120: 94a7 e13d f10c b5bc 3237 b8bc 9816 983d
00000130: 05a7 533d f57f c43d 7d17 fb3d 5d96 1c3e
00000140: c396 ee3d 4cb2 833c 3041 02be efde 28bd
00000150: 85e0 85bc 5005 233d 1fb0 9fbd 2813 13bd
00000160: 352b 083e c36e 99bd 23ff bb3c 8210 583d
00000170: 8bfa 043d fbc4 e43c 6369 253e 7104 e73d
00000180: a105 e53d a6c5 fdbc 0c43 e5bd 207a 023e
00000190: ab7a b7bd cb81 71bd db6a 64bd 7108 7d3c
000001a0: aecf 823d 3c78 a63d af09 4d3d 9f33 e3bd
000001b0: c7e2 853d eda3 8bbd 0851 bb3d 4416 cbbd
000001c0: 4f3a 403d e294 19be 4a70 fb3d 6ce9 7f3d
000001d0: 07d5 4abb 1f7a c4ba b0f0 a53c 56dd a7bd
000001e0: a32d c1bd 557c 423c d1b2 033e 0c34 933d
000001f0: da10 e73d 8ee0 f03d 2fce 8d3d 54aa c7bd
00000200: 4d4a 2b3d 8d72 6fbd 5d15 c8bb 4286 39bd
00000210: 1365 883d b724 72bd 457d be3d df9d 8f3d
00000220: 3aec e43d 70cb 003e d00a 323d b79f 87bd
00000230: 30ed 7f3d 5d6d 163e 52fc 0a3e a424 b0bd
00000240: 0668 bd3d bb44 c4bc 83db e83d 99d8 0ebd
00000250: d9ff 75bc 506e 263d 8353 e2bd 5ade 7b3d
00000260: fc7d 9b3d 2cc4 1ebd cf9b 16be d82d 1ebe
00000270: aff8 cbbd 1be9 e0bd 29eb 783d a68f 38bd
00000280: 5792 5ebc f434 083e 63a1 0e3d c3f5 e6bd
00000290: e357 223d ef35 c53d d5dc 98bd 7e91 5d3d
000002a0: f0a5 12bd 266d 0ebe a1ea 9bbd de8e a9bd
000002b0: 76a9 a23d 253a 323e 526d d6bd e59a f83d
000002c0: db92 2abd bfff 36bc 22a2 c83a ebcd 833d
000002d0: 2756 163d 2184 fbbd 816d 383d 47a1 21be
000002e0: 02e7 0e3e 0d8c 303e f5cd 02be bfc5 a93d
000002f0: 1b6e f83d d0fa cfbd 8c54 9b3c e4ec 9fbd
00000300: bef7 f2bd 63b8 ddbc d1b8 8cbd 501b b2bd
00000310: 7c1a d33c 5999 233e 9bb7 e53c b5d6 d33c
00000320: 6dad 02be 9756 a13d fe43 083e 2574 07bd
00000330: b4aa 023e aab0 193e 0eaa 253d 6853 0dbe
00000340: bc95 02bd b909 2bbd 2a7e e13c 228c 07bd
00000350: 2998 f5bc 4b6d babc f558 233c 1e3a f5bd
00000360: f06a 7ebd 9fe0 7e3d 593b 073e f8df 073e
00000370: 2d17 cc3d 4758 e2bd 0a31 19bd cc10 07bd
00000380: 468e 533d ff9e 133e 961c f03d d095 e13d
00000390: c311 50bd a5b0 1f3e 5c40 d7bd 1ef2 eebd
000003a0: 54b6 843d 1f63 f93d 9bc4 883d 1c61 11be
000003b0: 4d21 a13d 1d01 54bd 626f 3c3d e0fb 88bd
000003c0: 3685 98bd 5427 0cbd 9f40 193d 6de7 c93d
000003d0: 31e0 5bbd 7815 6cbd ce31 b63d 8e64 1dbd
000003e0: 6676 c0bd 540b b63c 0087 833d ed34 65bc
000003f0: 513f 363d bb0d 233e 05c3 c33d 6467 173c
-0.028525218 0.078021295 -0.04907528 0.13578391 0.06569713 -0.08575744 0.051690515 0.018941743
0.024296962 -0.063465774 0.08179604 0.048030876 0.018694917 -0.06844888 0.15073416 -0.121915966
0.089789525 -0.12349294 -0.099962786 0.07516016 0.028529702 -0.0045309397 0.065182365 0.0037238575
0.072882876 -0.11048184 0.096222036 -0.018173797 0.09784197 -0.1158656 0.03569369 -0.030205261
0.06477185 -0.09787956 -0.11700739 0.07022475 0.0034081119 -0.084254645 -0.09202963 -0.10486125
0.042138625 0.07630175 -0.07758282 0.1250089 0.11722639 0.037165724 -0.07454551 -0.08938982
-0.056236062 -0.10000657 0.05939046 0.10421954 0.13834397 -0.0613495 -0.052046016 0.04003582
-0.01069044 0.1170692 -0.14493228 0.090844624 -0.005715501 0.14965697 -0.027918907 0.0780583
0.054734353 -0.0757685 -0.08544114 0.11941647 -0.06806093 0.1320396 0.046441127 0.030919438
0.11018291 -0.022100898 -0.022487257 0.074261844 0.051672954 0.09594718 0.122603394 0.15291734
0.11649849 0.01607623 -0.1272018 -0.04122823 -0.01634241 0.03979999 -0.07797264 -0.03590694
0.13297732 -0.07491829 0.022948807 0.052750118 0.0324655 0.027925959 0.16153483 0.11280144
0.11182714 -0.030978035 -0.11194429 0.127419 -0.08958944 -0.05896167 -0.055765968 0.015443907
0.06387268 0.08128402 0.050058063 -0.1109383 0.06537395 -0.06818376 0.09146315 -0.09916356
0.046930607 -0.149982 0.12277277 0.062478468 -0.0030949728 -0.0014990008 0.02025637 -0.08196513
-0.09432533 0.011870463 0.12861182 0.071876615 0.11282511 0.117615804 0.06924092 -0.097492844
0.041818906 -0.058458854 -0.0061060623 -0.045294054 0.066599034 -0.059117045 0.09301237 0.070125334
0.11177869 0.12577605 0.043467343 -0.0662226 0.06248206 0.14690156 0.13572815 -0.08600739
0.092483565 -0.023958554 0.113699935 -0.034874532 -0.015014612 0.040632546 -0.11051085 0.061491348
0.07592389 -0.038761303 -0.14707874 -0.15447176 -0.09959542 -0.10981961 0.06077114 -0.04505887
-0.013584695 0.1330145 0.03482188 -0.11277344 0.039634597 0.09629428 -0.07463995 0.05409383
-0.03580278 -0.13908824 -0.07613111 -0.08279203 0.07942478 0.17404993 -0.1047007 0.12138919
-0.04164396 -0.011169373 0.0015307108 0.0643576 0.036703255 -0.12281061 0.045026306 -0.15784179
0.1395531 0.17240925 -0.12773879 0.0828967 0.12130376 -0.101552606 0.018961214 -0.07808855
-0.11863659 -0.027065462 -0.068711884 -0.08696616 0.025769465 0.15976466 0.028041651 0.025859216
-0.12761469 0.07877844 0.13307187 -0.03306975 0.1276043 0.15008798 0.04044538 -0.13801348
-0.03188108 -0.04175732 0.02752598 -0.033092625 -0.029979782 -0.022757193 0.0099699395 -0.119739756
-0.062113702 0.062225934 0.13206233 0.13269031 0.09965358 -0.11051994 -0.037400283 -0.032975003
0.051649354 0.14416121 0.11724202 0.110149026 -0.05079819 0.15594728 -0.105103225 -0.11667274
0.06480089 0.12177109 0.066781245 -0.141972 0.0786768 -0.051758874 0.04600466 -0.06688666
-0.07447283 -0.034217194 0.037415143 0.09858594 -0.053680602 -0.05763766 0.08896218 -0.038425975
-0.09397583 0.022222199 0.064222336 -0.013989669 0.044493977 0.15923207 0.095586814 0.009240959

feature_layer.2.bias f4 [128]
00000000: a821 823c 0d4b 0e3d dd84 153d 3309 003d
00000010: 81a9 47bc 51ec 293d 4eb3 053d 9c89 82bc
00000020: ee07 2f3d 112f 64bc d171 b53c 2f12 09bc
00000030: 07ab 093d edec 8bbc 9dcf 6bbc 5144 283d
00000040: ee72 2cbc c1ce 58ba adde 1f3d 0ab2 123d
00000050: e37e 26bc 80d4 143d b20f c63b 361d 1d3d
00000060: cd8b aabc 5d17 0a3d 72a2 133d edeb 2bbc
00000070: 1de1 94bc 5f5d 243d 88d3 313d 1ef5 013d
00000080: 4a94 51bc b27d 103d e1f3 223a bd7d 053d
00000090: bb33 aabc 10a9 1b3d 47f0 223d 6cba 5fbc
000000a0: 4586 50bc c7df cd3c af25 64bc 7194 0f3d
000000b0: c4e7 133d 37d0 323c 7ebe 7ebc 3573 163d
000000c0: 91e4 b7bc c91c 37bc f9c8 993c 0000 0000
000000d0: 2ab3 213d 1874 643c 9e3e 20bb 4338 1b3d
000000e0: 4e5e 33bc 652b 1e3d 5040 15bc 6468 ffbb
000000f0: daff 003a 0000 0000 77ea 51bc 2f55 b03a
00000100: a828 d53c 42ff cebb 93e8 1fbc 8de5 103d
00000110: 5089 0e3d 9d5a 103d d776 4fbc 01e7 023d
00000120: 5ea0 1ebc ef97 26bc d10d 293d 2488 273d
00000130: 85c4 863c 3aad 103d 954a 90bc 9855 c4bb
00000140: 1f7c f13c 58c8 1b3d c9ad b5bc 549a cc3c
00000150: 6085 14bc 3bbf 2a3d d2dc eebc 1694 fdbb
00000160: 168e 2a3d 0000 0000 4548 203d 47aa 253d
00000170: 9c76 073d ce5c 153d e6db 6bbc edf7 083d
00000180: 5d92 0ebc 6bc7 273d 4558 fa3c 38a5 213d
00000190: 23f7 0c3d 22f5 8fbc c6e9 a5bb 893d 263d
000001a0: 5585 2fba f1eb 193d 6e44 283d 5e55 1e3d
000001b0: 1f69 0abc 8eab 153d 1e21 88bc 2e05 6fbc
000001c0: 7cd3 89bc e6e3 263d efef bc3c 1c66 b9bc
000001d0: d804 5cbc 4990 163d 50df 243d fe8f e5bb
000001e0: 9e89 243d e49e 143d 79d6 73bc c49e 26bb
000001f0: 610c d3bc 7be5 b7bb 2079 193d 0b7c 1f3d
0.01588519 0.034739543 0.03650366 0.031258773 -0.012186409 0.041485135 0.0326417 -0.015934758
0.04273217 -0.013927237 0.022148998 -0.008366152 0.03361037 -0.017080748 -0.014392761 0.041080777
-0.010525448 -0.0008270555 0.03903072 0.035814323 -0.010162088 0.03633547 0.0060443515 0.038357936
-0.020818615 0.033713687 0.03604359 -0.010493261 -0.018173749 0.040128108 0.043414623 0.031727903
-0.0127917025 0.035276122 0.00062161504 0.032590616 -0.02077662 0.038003027 0.039779928 -0.013655286
-0.012727325 0.02513112 -0.013925 0.035053674 0.0361097 0.0109139 -0.015548347 0.036730964
-0.022447856 -0.0111762965 0.018772589 0.0 0.039477505 0.0139436945 -0.0024451385 0.037895452
-0.010947777 0.038615603 -0.009109572 -0.0077944268 0.00049209374 0.0 -0.012812248 0.0013453121
0.026020363 -0.00631705 -0.00976004 0.035375167 0.03479892 0.035242666 -0.012662611 0.031958584
-0.009681789 -0.01016806 0.041272942 0.04090132 0.01645113 0.03532145 -0.017613688 -0.005991649
0.02947813 0.03803286 -0.022177594 0.024975933 -0.009065002 0.041686278 -0.02915803 -0.0077386005
0.04163941 0.0 0.03913142 0.040445592 0.0330721 0.03646546 -0.01439569 0.033439565
-0.008701888 0.040961664 0.030559668 0.039464206 0.034415375 -0.017572943 -0.0050632684 0.04058603
-0.0006695588 0.037578527 0.041080885 0.03865563 -0.008447914 0.03654056 -0.016617354 -0.014588637
-0.016824476 0.040744685 0.023063628 -0.022631697 -0.013428889 0.036758695 0.04025203 -0.0070056906
0.040170304 0.036284342 -0.014882677 -0.0025424222 -0.025762739 -0.005612073 0.03746903 0.038936656

value_stream.0.weight f4 [64, 128]
00000000: 435a 2bbe 3381 de3d 2676 b0bc d2c8 763d
00000010: 7fd3 953d 69ca 323e 12ae acbb e918 4dbd
00000020: 34e5 393e c723 55bb 4292 093d dffc d03c
00000030: a662 53bd ae72 db3d 537c 09be 807b d63d
00000040: dbe3 cf3d 12de e23d a2cb debd 2e75 183e
00000050: 613d 273e 8964 5d3c 1df9 1bbe cc81 603b
00000060: faf6 703c dfa9 05be f02b 70ba 88c1 4abd
00000070: d25a 20be c674 1f3e 7e90 6a3d 4e2b 84bd
00000080: 3467 303e 4f94 3e3c 8ca6 aa3c 33d3 143d
00000090: 5469 f9bd 012b 7dbd 5049 3a3d 9612 63bd
000000a0: 8568 dd3d f63e 073d ad87 3b3d fa79 3d3e
000000b0: 1577 7cbd 1f13 04bc b6c7 d9bd baee 15be
000000c0: 5be8 693d 2c1a 0a3e 582b 933d 9a46 0ebe
000000d0: ab92 0e3e 42c6 17be 5ea4 e9bd 4547 303e
000000e0: a028 91bd 6f14 92bd 8a95 84bd c35b 9dbd
000000f0: c37c 7f3d bbd3 bebd a681 28be 73e6 33bd
00000100: b13c f23c b2d3 a83c 632d fc3b d98f 1bbe
00000110: 5007 1ebd e00f b8bd e669 48bd eccb b2bd
00000120: d342 4d3b e437 c5bc db9f 15be e1a5 df3d
00000130: 2cf3 983d 9dd7 733d e3c7 a63d 94cc 34bb
00000140: d740 303d 914a 25be c582 f33d 5a79 1c3e
00000150: 59a4 8fbd 88f0 233e d418 56bd 2662 a93d
00000160: cc38 07bd 8c8c cabd 27b0 89bd 5bd5 103e
00000170: 68d2 1abd 0c7a 02be 8d3e 0f3d 2b73 c1bd
00000180: c2b5 d2bd 0daf a6bd af95 c4bd 28b0 bfbd
00000190: 0442 7f3d 1151 47bd 0d66 463d 2e5f 373e
000001a0: b195 6f3d 390b 3a3e 4c50 2c3e 1bab e03c
000001b0: 32a4 b53d a22e 393e 257a fbbd 34d9 efbd
000001c0: 0a71 0f3e f2b5 e53d 1658 c73d 31fc 073d
000001d0: 8f2f bcbd 4589 a03d ea25 283c 5002 563c
000001e0: af0c 343e 3b57 d83d 333b 553c 3608 0bbd
000001f0: e6e6 bdbd c5f3 a73d 56d8 473e be04 8cbd
00000200: a0ed f2bd 0a41 0e3e 6f0b 0fbe 4fee 2e3e
00000210: 2f71 273d da5c 2c3e 546e af3c 9c8b 543d
00000220: 9cb6 1ebe 39f5 49bc b7fc 073e cbd5 72bd
00000230: 95cd 413e 2ea9 c6bc 6842 9abd eb85 9abd
00000240: 73fd fbbd 5c26 573d 2cf2 aabd 4b36 c53d
00000250: 9bf6 0ebd 1651 d43d 3690 083e 6552 febd
00000260: 47b7 b8bd 1150 103e 3392 2fbd eb26 0bbe
00000270: 42c5 c5bd 52b3 03be 50c7 d3bd 35af d23b
00000280: 7207 103e 9c63 0a3d ad17 e83c 4b39 c73b
00000290: 9a78 b3bd 0b6e bd3d 4e84 0f3e 9547 8b3d
000002a0: 3403 263e 271e 543e 6550 d13c ecbf b3bd
000002b0: 92c3 0a3e 0e67 0a3d 56de ecbc 689e 82bc
000002c0: 3f95 2a3d 9f87 97bd 3aa0 fb3d a287 09be
000002d0: 1847 173d 8481 29be 7bcd 943d a2fa 9bbd
000002e0: 55e7 5cbb 6a70 1d3e 8df0 213d 6bf6 953c
000002f0: 00e3 a63d d0e9 4a3c 73c6 063e cee0 a03c
00000300: f0c7 f43d 69fa 003e a75a 74bc d408 303e
00000310: f38a 1a3d 7591 083e 99ca 22be 6cc9 25be
00000320: 6960 713d cc75 813d 84c2 5bbd 237e 8ebc
00000330: 99a9 6e3d 8e97 2a3e 30aa 5e3d eb59 1b3e
00000340: 6ddc 243e 2581 793d cafc 953c 6275 14bd
00000350: 799f edbd 3f0b db3d 625b c1b9 46c0 7cbd
00000360: a102 d5bb d51f d2bd e328 f73b 1191 f13d
00000370: 5f77 1f3e fe15 ddbd 1ccf 2a3d b2b2 79bd
00000380: 390b 22be ab9c e53d 0c52 183e 92c7 263e
00000390: e9f1 193e a493 3dbd ddd1 4b3d 5ef4 b43d
000003a0: 91b0 d8bd 0da9 243e d57e 08be 7e87 753c
000003b0: da67 33bd 3499 ad3d c5fa 0b3e f2bb b93c
000003c0: 4ee9 89bd 3fd7 1c3e a0c8 02be 7d8d 16bc
000003d0: 173d 14be b9f9 583b 6b0e 1a3e b4ea ab3d
000003e0: 38fe 8ebd f7b6 9dbd acc7 8f3d 0c3e d1bd
000003f0: b8e1 0ebe dbc7 1f3e d5bf 9c3d 7f3d e8bd
-0.16733651 0.108644865 -0.021540713 0.06025011 0.0731573 0.17460026 -0.0052697742 -0.050072584
0.1815384 -0.0032522546 0.033586748 0.025511203 -0.05160775 0.10715233 -0.13426332 0.104727745
0.10150882 0.11077513 -0.108786836 0.1488845 0.16332008 0.013512739 -0.15231748 0.0034257052
0.014707321 -0.13053082 -0.00091618206 -0.049500972 -0.15659645 0.1557189 0.057266705 -0.06453572
0.17226869 0.011632039 0.020831369 0.036334228 -0.12178293 -0.06180859 0.045480072 -0.055437647
0.10810951 0.03301903 0.045783687 0.18503562 -0.061637003 -0.008061199 -0.10633795 -0.14641848
0.057106357 0.13486546 0.071860015 -0.1389412 0.13923137 -0.14821723 -0.11408304 0.17214687
-0.07087827 -0.07132804 -0.06473835 -0.07683518 0.06237484 -0.09317728 -0.16455707 -0.043920945
0.029569956 0.020608757 0.00769584 -0.15191592 -0.038581192 -0.08987403 -0.048929118 -0.08730301
0.0031320348 -0.024074502 -0.14611761 0.10920311 0.07468256 0.059531797 0.08143594 -0.0027587758
0.043030586 -0.16141726 0.11890177 0.15280667 -0.07013769 0.16009724 -0.05226977 0.082706735
-0.03301315 -0.098900884 -0.067230515 0.14143889 -0.037798315 -0.1274187 0.034971762 -0.09445795
-0.10288574 -0.08138857 -0.095988624 -0.09359771 0.062318817 -0.048661295 0.048437167 0.17907402
0.058492366 0.18168344 0.16827506 0.02742534 0.088692084 0.18084195 -0.122791566 -0.1171135
0.14007965 0.11216344 0.09733598 0.033199493 -0.091887586 0.07838682 0.010262946 0.013062075
0.17582963 0.10563513 0.0130146025 -0.033943377 -0.09272556 0.08200792 0.1951612 -0.06836842
-0.118617296 0.13891998 -0.13969205 0.17083095 0.040879425 0.16832295 0.021414913 0.051890954
-0.15499347 -0.012326532 0.13279997 -0.05928592 0.1892608 -0.024250593 -0.07532197 -0.07545074
-0.12304201 0.052526817 -0.08346972 0.09629496 -0.03490315 0.103670284 0.13336262 -0.12418059
-0.090193324 0.14093043 -0.042864036 -0.13589065 -0.096567646 -0.12861374 -0.1034075 0.0064295777
0.1406534 0.0337864 0.028331602 0.006079828 -0.08763237 0.09249505 0.14015314 0.068007626
0.1621216 0.20714627 0.02555103 -0.087768406 0.13551167 0.033789687 -0.028914612 -0.015944675
0.04164624 -0.073989145 0.1228642 -0.13430646 0.036933035 -0.16553313 0.07265755 -0.07616164
-0.003370722 0.15374914 0.039536048 0.018305978 0.081487656 0.012384847 0.1316164 0.019638445
0.119521976 0.12595524 -0.014914191 0.17190868 0.03773017 0.13336737 -0.15897597 -0.16190118
0.058929835 0.06321296 -0.0536523 -0.017394131 0.05826721 0.16659376 0.054361522 0.1517102
0.16099711 0.060914177 0.018309016 -0.036244757 -0.116026826 0.106955044 -0.00036879914 -0.061706804
-0.0065005575 -0.10259978 0.007542716 0.11795247 0.1557288 -0.1079521 0.04170142 -0.060961433
-0.15824594 0.11211523 0.14875048 0.16287068 0.15033688 -0.04628338 0.049760688 0.08835672
-0.10580552 0.16080113 -0.13329633 0.014985917 -0.043800212 0.08476487 0.1366988 0.022672627
-0.067339525 0.15316485 -0.12771845 -0.009189007 -0.14476429 0.003310783 0.15044563 0.083943754
-0.06982082 -0.077009134 0.07020506 -0.102169126 -0.13953292 0.15603583 0.076537766 -0.113398544

value_stream.0.bias f4 [64]
00000000: eede 253d 3209 0c3d 2755 c4bb 0000 0000
00000010: d7a3 84bc 039f 0d3d ce44 073d 3738 0b3d
00000020: d64c 54bc 5e08 26bc 4fd8 093d aecb f6bc
00000030: 7055 c4bb 0103 12bc ea26 323d fe92 063d
00000040: 1b09 133d b814 85bc 93b2 6cbc ac59 273d
00000050: 5517 48bc 5a74 203d e14b 0e3d 436a 82bc
00000060: ee46 073d 4178 073d ab83 093d 82eb 36bc
00000070: c968 0abc f0d0 173d 09eb 26bc 3cf5 073d
00000080: ec54 c4bb df56 8cbc f43c 43bc bfbd 173d
00000090: 222d 88bc d5fd 41bc 9c6a 1c3d a525 283d
000000a0: db0d acbc 462d 123d 4fc1 143d e25e 36bc
000000b0: ff55 1dbc 218d 87bc dba4 30bc a9f3 093d
000000c0: ea47 163d 27df 5abc b5c0 063d e9bc 52bc
000000d0: 4a48 84bc 2a63 bcbc 06c7 173d 261d 3abc
000000e0: 31c7 2ebc 0000 0000 1122 8ebc f17f 133d
000000f0: 4337 aebc e146 2bbc d84a 6ebc 7c5d dcbc
0.040495805 0.034188457 -0.0059915963 0.0 -0.016191406 0.034575474 0.0330246 0.033989158
-0.012957772 -0.010133831 0.033653554 -0.030126419 -0.0059916303 -0.008911849 0.043494143 0.032855026
0.035897356 -0.016245231 -0.014446872 0.040857002 -0.012212594 0.03917346 0.034740333 -0.01591981
0.03302663 0.033073667 0.033572834 -0.011164548 -0.008447834 0.037064493 -0.010187873 0.033192858
-0.005991569 -0.017131267 -0.011916388 0.03704619 -0.016623084 -0.011840303 0.038187608 0.041051526
-0.0210027 0.035687707 0.036317166 -0.01113102 -0.009603023 -0.016546788 -0.010781492 0.033679638
0.036689676 -0.013358868 0.032898623 -0.0128624225 -0.016147751 -0.022996504 0.037055038 -0.011359489
-0.010667608 0.0 -0.017350229 0.036010686 -0.021266585 -0.010453911 -0.014544211 -0.026900046

value_stream.2.weight f4 [1, 64]
00000000: 633f 173e 1dbb a23d 149b 8ebe 4032 343d
00000010: afdd 32be 66f1 f03d a82f 9b3e a54a 7d3d
00000020: 6e72 8fbe 62ad f8bd 30eb d93d 6ec0 8ebd
00000030: 8100 10be ddfe 67be 62c6 753c 549c 8e3e
00000040: 45f9 083d 3b2d 86be 4cfc 3abe 22ad 4c3e
00000050: 587d 72be 6561 8a3d 0ebf f53d e30a 89bd
00000060: 1444 4b3e 964d 253e d26b 773e ef4e 8cbe
00000070: 8af4 38be be97 223e 90c7 1cbd 4c39 393e
00000080: fb6f 63bd afd9 36bd cfd9 38be e302 5c3d
00000090: bf43 d8bd 1c62 85bd 8a74 293e a867 6b3e
000000a0: 23d5 5dbc c91a 023e 682e fe3d 112d 3dbe
000000b0: c228 6dbe 9183 f2bc e3a4 8dbe fc26 693e
000000c0: 11ed ed3d 051f 95be 86ec 8d3e d87c f1bd
000000d0: 8e4d 8fbb 2fd1 81bd 68da 133e ca3f 0ebe
000000e0: 1089 a1bd f380 63be 6672 3abe ce09 983e
000000f0: ec71 2fbc 5c36 47be 97d7 fcbd b48f 69bd
0.14770274 0.07945845 -0.2785269 0.043993235 -0.17467378 0.11764793 0.30309796 0.061838765
-0.2801699 -0.12142445 0.106405616 -0.06970297 -0.14062692 -0.22655816 0.015000911 0.27853644
0.033440847 -0.26206383 -0.18260306 0.1998792 -0.23680627 0.06756858 0.119993314 -0.066915296
0.19850188 0.16142878 0.24162224 -0.27403972 -0.18062034 0.15878198 -0.038276255 0.18088263
-0.055526715 -0.044641193 -0.18051837 0.05371369 -0.105597965 -0.065128535 0.16548362 0.2298876
-0.013539585 0.1270553 0.12411195 -0.18474223 -0.23160079 -0.029603751 -0.2766486 0.22768778
0.116174825 -0.2912523 0.27719516 -0.1179139 -0.004373259 -0.06338727 0.14438784 -0.13891521
-0.07887471 -0.22217159 -0.18207702 0.2969498 -0.010708313 -0.1945433 -0.12345808 -0.05702181

advantage_stream.0.weight f4 [64, 128]
00000000: 364d 293e 68d2 943c d829 8fbd e6d2 b5bd
00000010: fd55 1c3e 761b ee3b 0d0c 13bd 935d 743c
00000020: 1672 843d 02f9 04be 27bb 2cbe 18c4 8b3d
00000030: ee8f 843d c063 45bd 6092 b33d f7e9 cabd
00000040: 322b debd 014c a7bd d2b2 19be f629 233e
00000050: 6f3c 1a3e 92f4 b1bd f93a 803d d418 adbd
00000060: 32fa 303e 34e9 f7bd 2a06 303e 7074 e53d
00000070: 20c5 0a3d 9766 abbd 3979 0f3e 3c65 ae3d
00000080: 5d19 0e3e 0e48 05be a783 1bbe dbb3 4bbd
00000090: bb06 58bc dbac 23be d048 0bbd 0cc7 b83b
000000a0: 3cb7 073e 0d2b 313e 301b 343d 26f0 243e
000000b0: 958c 23be c888 e2bd 45b8 afbd c672 c8bd
000000c0: 5d79 c5bd 4f53 8dbb 3913 cb3b 100b b5bc
000000d0: cc29 a6bd 9890 113e b85e 9ebd da92 943d
000000e0: 093a 1bbe d19b a43d 8b94 113d 3861 61bc
000000f0: 635f 26bc 621b 803d 52c7 c23d adcf 193e
00000100: d9d0 32be 5de7 183e 0740 523d 0eb9 093d
00000110: 5cd2 f53c c9af b53d 1563 debc e063 9b3d
00000120: 4149 01be ab55 e0bd 5000 863d 7326 36be
00000130: 9f77 373e 6535 b63c 5823 ebbc ac5e 24be
00000140: 976a bf3c e5bd 1c3e 0e54 1abe 3f78 e5bc
00000150: 595c 2c3e cb24 a83d 1d70 233e 6805 9bbd
00000160: 2f4c 92bb e6f6 b33d 6915 6abd 14aa 1abe
00000170: e8a0 173e 08b5 35be 0ad3 c6bd 65b5 31bc
00000180: 8b9e 363e d198 6dbd 2730 15be a11a b2bc
00000190: df56 10be 726e d53d 948b 23be b30e 8a3d
000001a0: b660 373e f0c6 d73d c42d 10bd 1809 a13d
000001b0: 109a 1fbe 5540 863d 0493 943c a329 24be
000001c0: c9fe 0bbe 0d88 e6bd f95c f7bd 30de 233e
000001d0: 6696 053e 52dd c53d 1faf fd3d c8be f7bc
000001e0: d8c3 3bbe 0f05 183d 1d37 013d 5c24 b4bd
000001f0: eaf2 f03d a39f 96bd a0d8 c2bb 1219 12be
00000200: eb8e 12be 4d79 453c 04c3 253e 4534 2c3e
00000210: a47b 31bd 2cee 493d d476 23be 93f6 dabd
00000220: bb80 023e bbb4 de3c 287a 363d b2ac c73c
00000230: afa3 9dbd f51d 183e c55a 303e 242e 8e3d
00000240: 92dd 223e 2445 4a3d fe0d 063e 99fe e9bd
00000250: 9055 763d daa7 04be 0254 dcbc 3500 f6bd
00000260: 5dea 833d c4de 33be a7c4 40bd 3e1f 91bd
00000270: b875 f13d c25b febd 031a b8bd fa12 143e
00000280: 8e44 a73d 618d 0c3e 24c8 2b3e ef8f d4bd
00000290: c704 263d b6e4 0abe edff 86bd 24f7 00bd
000002a0: 7111 c0bd 488f 163d b722 003d 1837 1e3d
000002b0: 2daf cc3d 01fc 84bc acd1 103e ea22 66bc
000002c0: 1930 fd3d 293c 133e e5a8 223e 539b aebd
000002d0: 4d09 92bd a221 09be e76d 8fbd 7998 2b3e
000002e0: f7ff 75bc d5d5 cdbd 7d5b 03be 42cd 0abe
000002f0: b958 b6bd 802d 733d 0d04 bdbd dafd 88bd
00000300: e41c 16be e3b4 27be 1c26 bfbd 4851 23be
00000310: 3f44 85bc 5e81 61bd 4ad7 a7bd b40c e0bd
00000320: b63e 6a3d 7a89 a73d 435d 16bd 459b 6f3d
00000330: a669 203e ee35 53bd 1d30 d6bd afc6 ec3d
00000340: 7bc0 39bd d967 88bd 019d fb3d d8f0 603d
00000350: 15dc 09be ce50 3b3d e444 a83d 6e4b 263e
00000360: 6117 babd 3e00 b73d 4c61 f6bc 546c 8f3c
00000370: 9bdf 25be a743 21be 9cd3 b93d 432f fe3b
00000380: c9aa 973d 6d0e ddbd 37eb 103e aa7d 89bd
00000390: dac4 dbbd 0997 1a3e 81ba e2bd 1d83 cebd
000003a0: 271d 1bbe bbf7 ae3d 9d9c 35bc 19f1 ffbb
000003b0: f056 523d fa16 39bd 2327 0d3d 4ee5 c1bd
000003c0: 8dab 2ebd 9655 c23d b212 633d c9a4 fb3d
000003d0: ccd2 2f3e b2bd 003e bfac 91bd 49ff 12be
000003e0: 51ec 9cbd 4105 a1bc e9b0 313e 7d8b da3c
000003f0: 443e e0bc 2073 003e f8a5 913d f8d2 163e
0.1653336 0.018166736 -0.06990403 -0.08878116 0.15267177 0.007266457 -0.035900164 0.014914888
0.06467073 -0.12985614 -0.16868268 0.06824511 0.06472765 -0.048190832 0.08768153 -0.099079065
-0.108480826 -0.081687935 -0.15009621 0.15933976 0.15062116 -0.08689226 0.06261248 -0.08452001
0.17282942 -0.12105027 0.17189851 0.11203849 0.0338794 -0.08369177 0.14011087 0.08515403
0.13876863 -0.13015768 -0.1518694 -0.04973207 -0.013185198 -0.15983908 -0.034004986 0.0056389626
0.13253492 0.17301579 0.04397124 0.16107234 -0.15971597 -0.11061245 -0.085800685 -0.09787516
-0.09642289 -0.0043129097 0.00619736 -0.022100002 -0.08113441 0.14215314 -0.0773291 0.07254572
-0.15158857 0.08037532 0.035542052 -0.013756089 -0.010154578 0.06255223 0.095106736 0.15020628
-0.17462482 0.14932008 0.051330592 0.033623748 0.030007534 0.08871419 -0.027146855 0.07587409
-0.126256 -0.1095384 0.06543028 -0.17788105 0.17916726 0.022242257 -0.028703377 -0.1605174
0.023366256 0.15306814 -0.15071127 -0.02801144 0.16832103 0.08210143 0.15960737 -0.075693905
-0.004464648 0.087873265 -0.057149325 -0.15103942 0.14807475 -0.17744839 -0.09708221 -0.0108464705
0.17833917 -0.058007065 -0.1456915 -0.021741213 -0.14095639 0.104214564 -0.15971214 0.06741085
0.17907986 0.10535991 -0.035199896 0.078630626 -0.15586114 0.06555239 0.018136509 -0.16031508
-0.13671412 -0.112564184 -0.1207828 0.16002727 0.13045654 0.09661354 0.12386917 -0.030242339
-0.18336427 0.0371142 0.0315467 -0.087959975 0.11765082 -0.07354667 -0.005946234 -0.14267376
-0.14312331 0.012052846 0.16187674 0.16816814 -0.043330804 0.049299404 -0.15963298 -0.106915615
0.1274442 0.027185788 0.04455009 0.02437434 -0.07697236 0.14855178 0.17222126 0.069423944
0.15904835 0.049382344 0.13091275 -0.11425514 0.060140193 -0.12954655 -0.026895527 -0.12011758
0.064411856 -0.17565447 -0.047062542 -0.07086037 0.11790031 -0.12419845 -0.08989336 0.14460364
0.08167373 0.13725807 0.16775566 -0.10379016 0.0405319 -0.13563809 -0.06591783 -0.03148569
-0.09378327 0.036757737 0.031283107 0.03862676 0.0999435 -0.016233446 0.14142483 -0.01404641
0.123626895 0.14378418 0.1588474 -0.085257195 -0.0713068 -0.13391736 -0.07003384 0.16757382
-0.01501464 -0.10050551 -0.12827869 -0.13554862 -0.08903641 0.059369564 -0.09229288 -0.06689043
-0.14659458 -0.16377597 -0.09333441 -0.15948975 -0.016267894 -0.055055015 -0.0819536 -0.10939923
0.057188712 0.081805184 -0.036710035 0.058497686 0.15665302 -0.051565103 -0.10458396 0.115613334
-0.04534958 -0.06660432 0.122858055 0.054917186 -0.13462861 0.04573136 0.08216265 0.16239712
-0.090864904 0.08935593 -0.030075692 0.01750771 -0.1619858 -0.15748464 0.090735644 0.007757099
0.074056216 -0.10793767 0.14152227 -0.06713422 -0.10730906 0.15096678 -0.11070729 -0.100836016
-0.1514784 0.085433446 -0.011084703 -0.0078107235 0.05135244 -0.045187928 0.03446115 -0.094675645
-0.042644072 0.094889805 0.05543775 0.1228729 0.17170256 0.12572363 -0.07113027 -0.14355196
-0.07662261 -0.019655826 0.17352642 0.026677841 -0.02737344 0.12543917 0.07111734 0.14728916

advantage_stream.0.bias f4 [64]
00000000: 533b 68bc d8e9 3dbc c3bd dd3b 06a3 7c3b
00000010: 8155 c4bb 09fa 55bc a8b2 af3b f2b6 493c
00000020: 4db0 0f3c a960 003c 3460 123c 4eeb 9e3b
00000030: b0ab 063a 595a fbbb 198b 073b 860c d43b
00000040: dcd4 9e3b fcfa 173c 14bf bb3a 5a50 84bc
00000050: 0000 0000 9e3d 86bc 41cb 773b cf90 bb3b
00000060: 872f ffbb d319 1dbc 57b4 cfbb 8e9c 0a3c
00000070: 41bc f2bb a92d c8bb afe8 dd3b b345 953a
00000080: dc1b f5bb 0000 0000 c1a9 ec3b 4880 9ebb
00000090: 409c 6b3c c8ec f0ba cac5 a83b ac19 f4bb
000000a0: 0a5e 0db9 a32f 39bb f38d 133b baf8 a33b
000000b0: 9293 b63b cc4f 933b 6629 cf3b c1e5 f2bb
000000c0: 8cdb 47ba ffee ba3a 1041 54bc be1e a3bb
000000d0: 04ff 62bc ed3b 4dbc f88f b63c 6f6f 033b
000000e0: 37b6 20bc ca54 c4bb f952 ec3a 8033 23bb
000000f0: 8b23 c6ba 7cd3 1c3c e828 1ebc 6d50 86bc
-0.0141743 -0.011591397 0.006767006 0.0038549318 -0.005991638 -0.013060101 0.0053618737 0.012311684
0.008770061 0.007835546 0.008934069 0.004849828 0.0005137278 -0.0076706824 0.0020682274 0.0064712195
0.004847152 0.009276148 0.0014323913 -0.016151596 0.0 -0.016386803 0.0037810358 0.0057240496
-0.007787648 -0.0095886765 -0.006338637 0.008460177 -0.0074076955 -0.0061089587 0.006772123 0.001138857
-0.0074801277 0.0 0.0072223847 -0.0048370697 0.014380515 -0.0018381113 0.0051505314 -0.0074493494
-0.0001348184 -0.0028257153 0.0022515028 0.0050040158 0.005571791 0.0044955965 0.0063220738 -0.0074126427
-0.00076239626 0.00142619 -0.012954965 -0.00497803 -0.013854746 -0.012526494 0.022285447 0.0020055433
-0.009809068 -0.005991553 0.0018030099 -0.0024902523 -0.0015116794 0.009571906 -0.0096533075 -0.016395772

advantage_stream.2.weight f4 [2, 64]
00000000: 8f95 803e 131f 8a3d 6ffe 833e 97ba 6a3d
00000010: 7190 55be c1a2 85be 0e84 7bbe 2c6d 763e
00000020: 6d41 9a3e bbb8 993d af75 323e 939c 253e
00000030: 8d04 1a3e 8927 90bd 8b02 3eba 8818 2b3e
00000040: de70 9d3d 84ec 123e 4395 de3c 22ba 81be
00000050: 1aa0 3ebe d94f 01be 3665 543e 9553 973d
00000060: cd88 7dbe 0fc0 6f3d 72bd eb3d af27 a43d
00000070: 2ac9 6cbe 3bbc 7cbd d657 2a3e 7139 863e
00000080: 06eb dc3b 20f7 923d c06f 18be 86e3 95bd
00000090: 7e80 943d 7cba 303e 6a9c 643e 00c5 6a3d
000000a0: b09f a23d acea f83d 6169 8a3d 7423 893e
000000b0: e156 713d 392b 44be 1808 653d 31c9 85be
000000c0: bfb7 f93d 02f8 71bd b66f 90be afde 85be
000000d0: cb87 453e eba8 2e3e 8c8d a6be f782 71bd
000000e0: 4890 5a3e 4505 d53c 8c7e ba3c 8160 313e
000000f0: 0502 2c3d b702 783e 83e4 933e eb04 41bc
00000100: f539 893e 1e7d 83be c353 6dbe 2b7e 94be
00000110: 0ef8 283e 0a94 4f3e 5a89 dcbd 47ca 933d
00000120: 2668 7bbc ac35 06bd 2fd4 46be a1f7 45be
00000130: a1fd 083e 1110 d53d 3cf3 b2bc 726c 0fbe
00000140: cc26 34be d47b 59be a099 4abe a137 5f3e
00000150: 1cae 1fbe e719 a63d 8a71 00bc 787d 0ebe
00000160: f317 473e 4587 063e 9193 263e e65f 173e
00000170: 8568 8d3e 5e7d 1c3e 74b8 20be 6c63 f1bd
00000180: 2441 783e 2041 3a3e c7f7 71be 06b9 3d3e
00000190: 35f5 12be ed9d 963e c80c 33be ecd2 973d
000001a0: 6134 333e cbb2 9a3e e4dc 153c cfd3 9d3d
000001b0: d270 16bd 3dc2 88be a3f1 1e3e 8deb 713c
000001c0: 99ef 7fbe 6bf0 7cbe 130d 69be 84a5 2e3e
000001d0: bf34 4b3e e393 783e 691d 88be 5106 86bd
000001e0: b8c1 733e 8ecf 8bbe 4683 953c b864 89be
000001f0: 2a38 49be 5269 6abe 018e d53c 1ad0 f8bd
0.25114104 0.06744208 0.25780055 0.057306852 -0.20855881 -0.26100734 -0.24562094 0.24065083
0.3012804 0.07505938 0.17427705 0.1617301 0.15040798 -0.07038791 -0.0007248304 0.16708577
0.07687543 0.14348036 0.027170783 -0.2533732 -0.18615761 -0.12628116 0.20741734 0.07388989
-0.24759217 0.05853277 0.11510743 0.080153815 -0.23123613 -0.061702948 0.16635069 0.262157
0.006741884 0.071760416 -0.14886379 -0.07318787 0.072510704 0.17258638 0.22325292 0.05731678
0.07940614 0.12154135 0.06758381 0.2678486 0.058920745 -0.19157113 0.055915922 -0.2613006
0.1219325 -0.05907441 -0.2821023 -0.26146457 0.19290082 0.17056625 -0.32529867 -0.05896279
0.21344101 0.02600349 0.02276542 0.1732197 0.041994113 0.24219786 0.28885278 -0.011780958
0.2680203 -0.25681394 -0.23176484 -0.2900251 0.16500875 0.20271316 -0.10768385 0.07216316
-0.015344655 -0.03276603 -0.19416879 -0.19332744 0.13378002 0.10403455 -0.021844499 -0.14006212
-0.17592925 -0.21238643 -0.19785166 0.21798564 -0.15593761 0.08110409 -0.00783957 -0.1391505
0.1944273 0.13137539 0.1626723 0.14782676 0.27618805 0.15282199 -0.15695363 -0.11786541
0.24243599 0.18188906 -0.23629676 0.18527612 -0.14351352 0.29417363 -0.17485344 0.07413277
0.1750045 0.30214533 0.009146903 0.07706415 -0.036728688 -0.26710692 0.15521865 0.014765632
-0.24993743 -0.24701087 -0.22758894 0.17055327 0.1984434 0.24275164 -0.26584938 -0.065441735
0.23804367 -0.2730679 0.018251073 -0.26834655 -0.19650331 -0.22891739 0.02606869 -0.12149067

advantage_stream.2.bias f4 [2]
00000000: d080 ef3b d080 efbb
0.007309057 -0.007309057

exp_avg f4 [128, 4]
00000000: 8263 4338 c47e 9239 78eb 87b8 3b3f 1aba
00000010: 61a1 9338 6508 5e3a e426 0db9 57b5 c7ba
00000020: 7586 bb38 d3e1 983a f00c b5b8 f200 deba
00000030: 639f 67b9 0612 07bb 2d49 7739 9ee0 4a3b
00000040: 0c25 7ab8 85e9 13ba 4053 c738 ae3b 843a
00000050: c02e 73b8 a845 5eba 0060 6636 cec4 813a
00000060: 9663 18b8 e88a 1a3a 5ffc 1039 18a8 1bb9
00000070: 5af9 94b8 e295 60ba ca5f 5c39 d705 093b
00000080: af75 49b9 f56d 85ba 5060 d639 1e2d 3b3b
00000090: 724a 0a39 b814 5fba 569f b9b9 b682 dcb8
000000a0: 0d11 ebb6 b7f6 083a c27f 4938 d037 e9b9
000000b0: 722c 19b8 45c1 e939 0730 dc38 7288 8eb8
000000c0: ee62 b336 a3c1 be39 ec4d c937 a30b 27b9
000000d0: 6c56 ccb8 1f57 d7ba cc50 a139 c402 5f3b
000000e0: 3ce0 4cb8 e8df 9cba 0b0d 1238 2084 df3a
000000f0: b717 47b7 45c5 ebb8 0097 b6b4 baa1 0f39
00000100: 5262 63b9 bf5c edba 7208 b739 c366 633b
00000110: 87ec 3038 e837 e839 5b5f 57b8 cb6c 25ba
00000120: a47a a638 0371 143a 56a0 fcb8 6679 93ba
00000130: 880a 98b8 de51 3fba 6d21 cb38 b587 9b3a
00000140: 1a84 83b7 0ac1 d938 2467 7337 6f70 4cb8
00000150: f26f efb8 b843 a6ba 0d60 e238 7f59 de3a
00000160: ea76 1c37 478a 49ba bdc1 96b8 a982 4d3a
00000170: 0a40 10b9 d3f1 c5ba 5b8c 7039 d7cc 313b
00000180: 0b87 0eb8 b5c4 f2b9 3e12 b638 ef9a 633a
00000190: b693 8bb8 0975 9bb8 19c5 ed38 d7e0 bb39
000001a0: 912c 3d36 6f62 6c39 520a b9b6 31b5 81b9
000001b0: 2d05 20b8 de32 3a3a 00e7 0839 2794 9cb9
000001c0: e691 ef38 8724 bf3a 0e8d 29b9 d83b 15bb
000001d0: 8088 de33 1617 ce39 a281 5638 3a12 50b9
000001e0: ab68 afb8 eae0 53ba ca3b 9038 60cc 943a
000001f0: c4d2 9bb8 2053 82ba 50f3 9338 ba13 b03a
00000200: 313f 28b8 18ba a6b9 e9dd 2538 d10f 073a
00000210: 3a58 f338 23b0 bd38 94a8 59b9 9328 3eba
00000220: bb2c d237 8ba6 9a3a d9a0 b9b7 8f66 c7ba
00000230: f8ca b3b8 3399 22ba 0a63 fb38 4efa 893a
00000240: ba41 2138 4b9f ff39 0ff4 8bb8 cd58 5aba
00000250: e4e6 5db9 40a4 a839 7b81 2a3a f8e9 1c3b
00000260: 3388 74b8 a618 33ba 3952 6038 b7b2 783a
00000270: d8f2 e437 6055 bb39 de89 adb7 daca f6b9
00000280: 489f e4b8 ad70 acba 6ac7 b338 ccc3 fc3a
00000290: f81a 9c38 f5f8 463a 6660 dfb8 b6f6 afba
000002a0: bbaa 9738 cdcf d53a fbd2 3db8 d463 04bb
000002b0: 609e b2b7 0c1f 2e3a a1ad 9f38 7fb8 ecb9
000002c0: 1830 af37 57c4 47ba 5f22 86b8 2700 473a
000002d0: b3f5 3039 81c8 d8ba 1e9d 22ba ac49 1db9
000002e0: 558f 83b7 d243 11ba c8eb 3138 a56a 503a
000002f0: f9c6 56b7 9537 bcba aa81 b4b8 4235 b13a
00000300: 396e 0e38 9a3a b3b8 41e7 d4b8 59b5 9cb9
00000310: e8f5 5fb8 d6b7 a639 1ae8 0139 50e6 2138
00000320: 519c 5bb8 37c7 2aba 05d9 d837 3258 543a
00000330: df52 33b9 557b 20bb faa1 fa38 a1bc 593b
00000340: c9a7 9a37 4671 ed39 fcca 00b7 929f 14ba
00000350: f584 fa37 1f9c ab39 bced 9fb8 e05d 13ba
00000360: b93a 3139 6945 bf39 dd2b 75b9 5cdd c3ba
00000370: f085 e4b6 e24d 6dba f612 64b8 8de9 573a
00000380: 822f 2ab8 f31c a0ba bbf8 6b38 e82a cc3a
00000390: bcb2 03b9 9f28 c9ba dcde ae39 0b13 5b3b
000003a0: 06b1 6d38 ec28 083b 6896 0038 0001 1cbb
000003b0: b23a d5b7 ec68 25b9 f05f 93b6 535b 3339
000003c0: 9af4 6838 d84f 7f3a 5adb 52b8 4ed4 b0ba
000003d0: 0021 a1b8 2f94 45ba 44e5 4f38 1a6c 793a
000003e0: ffdb c5b8 01f8 80ba 0538 1639 59a8 d53a
000003f0: 9dd6 50b7 ce9f 9539 3c70 5937 2d56 9eb9
4.6584297e-05 0.00027941738 -6.481161e-05 -0.0005884056 7.0395654e-05 0.0008469879 -0.00013461296 -0.0015236539
8.9418994e-05 0.001166398 -8.633162e-05 -0.0016937538 -0.00022089253 -0.0020610108 0.00023583016 0.0030956636
-5.9639147e-05 -0.0005642402 9.504566e-05 0.0010088587 -5.7979254e-05 -0.00084790075 3.432855e-06 0.0009900571
-3.633237e-05 0.00058953324 0.00013826926 -0.00014844572 -7.103635e-05 -0.0008567256 0.00021016519 0.0020908022
-0.00019212694 -0.0010179864 0.0004088902 0.0028560827 0.00013188439 -0.0008509862 -0.00035404664 -0.00010514764
-7.0055307e-06 0.00052247517 4.8041118e-05 -0.00044482807 -3.6519436e-05 0.0004458522 0.00010499363 -6.7965026e-05
5.3461326e-06 0.00036383895 2.3997352e-05 -0.00015930696 -9.743575e-05 -0.0016429162 0.0003076851 0.0034028748
-4.8846225e-05 -0.0011968585 3.482126e-05 0.0017052926 -1.1866846e-05 -0.000112424175 -3.401001e-07 0.0001369779
-0.00021685034 -0.0018109306 0.00034910772 0.0034698702 4.2181953e-05 0.00044292142 -5.13488e-05 -0.0006310462
7.9383404e-05 0.0005662592 -0.00012046161 -0.001125139 -7.2498864e-05 -0.0007298271 9.68602e-05 0.0011866005
-1.5677932e-05 0.00010383323 1.4507943e-05 -4.8742102e-05 -0.000114172595 -0.0012684977 0.000107944106 0.0016963928
9.326011e-06 -0.00076881464 -7.188644e-05 0.0007839599 -0.00013756767 -0.0015101976 0.0002294047 0.002713015
-3.3981207e-05 -0.00046304395 8.681834e-05 0.00086824497 -6.65555e-05 -7.4127754e-05 0.00011337753 0.00035834938
2.8189136e-06 0.00022543383 -5.514631e-06 -0.00024739795 -3.8151793e-05 0.0007102917 0.00013056025 -0.0002986502
0.00011423584 0.001458303 -0.00016169643 -0.0022771265 1.036251e-07 0.00039308582 5.1142306e-05 -0.00019843216
-8.364146e-05 -0.0008082526 6.877592e-05 0.0011352412 -7.430234e-05 -0.0009942986 7.054827e-05 0.0013433613
-4.0113173e-05 -0.00031800638 3.9545735e-05 0.0005152198 0.000116035764 9.04503e-05 -0.00020757533 -0.0007253971
2.505478e-05 0.0011798901 -2.212862e-05 -0.001521306 -8.573191e-05 -0.0006202638 0.0001198706 0.0010526867
3.8446604e-05 0.00048756073 -6.673496e-05 -0.00083292724 -0.00021162216 0.00032165833 0.00065042794 0.0023943167
-5.830098e-05 -0.0006831981 5.3482338e-05 0.000948708 2.7292801e-05 0.0003573103 -2.0687407e-05 -0.00047071913
-0.00010901556 -0.0013156139 8.572529e-05 0.0019284426 7.443683e-05 0.0007590198 -0.00010651424 -0.0013424966
7.232042e-05 0.001631254 -4.5257602e-05 -0.0020201104 -2.1293003e-05 0.00066421996 7.614052e-05 -0.00045150888
2.0884021e-05 -0.00076205045 -6.39602e-05 0.000759127 0.00016876198 -0.0016539247 -0.0006203222 -0.00015000132
-1.5683161e-05 -0.0005541417 4.2419677e-05 0.00079504616 -1.2801721e-05 -0.0014359826 -8.607221e-05 0.00135199
3.395809e-05 -8.5463005e-05 -0.00010152022 -0.00029889753 -5.339636e-05 0.00031798956 0.00012388863 3.8599886e-05
-5.235925e-05 -0.00065146707 2.5850264e-05 0.00081003003 -0.00017101642 -0.0024487574 0.000119510994 0.0033224004
1.8436362e-05 0.00045288558 -7.6766555e-06 -0.000566953 2.9864235e-05 0.0003273198 -7.625992e-05 -0.00056215934
0.00016901911 0.00036482073 -0.00023381361 -0.001494329 -6.810522e-06 -0.0009052438 -5.4377095e-05 0.0008236401
-4.0575404e-05 -0.0012215659 5.6260014e-05 0.0015576752 -0.00012559717 -0.0015347189 0.0003335391 0.0033428099
5.667007e-05 0.0020776344 3.0657655e-05 -0.0023804307 -2.541891e-05 -0.00015774713 -4.39211e-06 0.00017104791
5.5540913e-05 0.00097393757 -5.027219e-05 -0.0013491006 -7.683225e-05 -0.00075370347 4.9566166e-05 0.00095147046
-9.4346695e-05 -0.0009839536 0.00014325984 0.0016300782 -1.2447735e-05 0.00028538558 1.29603395e-05 -0.00030200314
