CartPoleHighRewardIn2026/checkpoints/checkpoint_ep100_reward67.00.pt (torch, 421167 bytes, 33 tensors)

feature_layer.0.weight f4 [128, 4]
000000 78 31 d0 3d d5 69 1b be 2c 2f ab be de 58 40 3d
       0.101656854 -0.1517709 -0.33434427 0.04695975
000010 e4 9c a4 bd c8 ac f2 3d 9b 5a 64 3d 3e 67 1f bc
       -0.08037737 0.11849362 0.05575047 -0.009729205
000020 c8 10 90 bd 48 73 cd 3c 97 69 ab be 23 e9 25 be
       -0.07034451 0.025079384 -0.33478996 -0.16202216
000030 d7 29 12 bd 09 5a c5 bd e7 f3 ea 3d 38 55 a7 bd
       -0.035684433 -0.096363135 0.11472302 -0.08170551
000040 7e 12 63 bd 0c e5 b0 bd 6b 17 a7 3e 4b 16 0d 3e
       -0.055437557 -0.08637437 0.32635054 0.13778035
000050 44 b2 00 3e a3 32 79 3d b0 12 5f be 19 1a df bd
       0.12568003 0.060839307 -0.21784472 -0.108936496
000060 e7 96 f1 3c d8 66 db 3b fc 80 3b bc 69 6b 25 3d
       0.029490901 0.0066956095 -0.0114443265 0.040385637
000070 02 bb 16 bc db a6 db 3d 6f 23 de bd 15 fd b7 3d
       -0.00919986 0.107251845 -0.10846602 0.089838184
000080 96 12 61 be 42 ab 0c 3e 7f 1f 82 3e d2 9d 8c 3b
       -0.21979746 0.13737205 0.25414655 0.0042912746
000090 5d 1e 3a 3e ec 78 fa bd ff cd e4 bd f3 1d b2 bd
       0.18175645 -0.12230095 -0.11172103 -0.086971186
0000a0 0a 1a 17 3e cd 24 bd bd 78 00 5e bd 3c b8 d3 bd
       0.14756027 -0.09235535 -0.054199666 -0.10337874
0000b0 71 39 47 3d a6 cc 0a 3e 36 53 57 3e 77 4e 0f 3e
       0.048638765 0.1355463 0.21027836 0.13994776
0000c0 02 d4 aa bd 5f 81 0c 3b 8e 9a 6c 3d 05 01 1b 3c
       -0.083412185 0.0021439416 0.057764582 0.009460692
0000d0 84 16 e7 3d fd 3f 97 3d 28 74 8a be f1 60 b8 3d
       0.112835914 0.07385252 -0.27041745 0.09002865
0000e0 e0 0b ee 3c 2f e3 ac 3d 9a 72 97 3b aa 52 cb bc
       0.029058397 0.08441769 0.004621816 -0.02481969
0000f0 ed 28 5a be bd 4d ca bc 8c 39 71 3e bc e6 af bd
       -0.21304674 -0.024695272 0.23557109 -0.08588931
000100 fc c7 89 3b 0e 88 ff bc cb af 09 3e da b7 f4 bc
       0.004204748 -0.031192806 0.13445966 -0.029872824
000110 e0 4f 4c be e3 e7 11 3e 6c dd 1b bc c4 99 36 3c
       -0.19952345 0.14248614 -0.00951324 0.011145059
000120 db 2d ef 3d eb a8 b9 3d 9d 03 94 be 28 c2 f2 3c
       0.11678668 0.09065422 -0.28909007 0.029633597
000130 4d ba 80 be fe 33 dd bc f7 42 b5 3e ae bd d7 bd
       -0.25142136 -0.02700233 0.35402653 -0.105342254
000140 d0 b7 14 3e e2 66 8a bd ee e2 6d be 59 1d b4 bd
       0.14523244 -0.067579046 -0.23231098 -0.0879466
000150 59 ee 12 3d 46 10 5a bd 02 49 17 3e 23 96 41 3e
       0.035871837 -0.053238176 0.14773944 0.18904929
000160 b1 52 7a 3e a9 cf 9c bd ee a5 21 be 22 e5 bf bd
       0.24445607 -0.076567955 -0.15785953 -0.093698755
000170 d9 49 ff bd 2e 84 09 3b 8d 79 36 3e e9 e0 66 bd
       -0.12465257 0.0020983326 0.17819805 -0.056366835
000180 bb 57 f6 3c 46 10 3b 3d bc 27 6b 3e 17 2a 2d 3e
       0.03007113 0.045669816 0.22964376 0.16910587
000190 db e0 8b 3c 65 2b 86 3d e5 d6 35 3c d0 3a cb 3d
       0.017074993 0.065512456 0.011098598 0.09923327
0001a0 1e 3c 2a be 85 11 a3 bd b3 19 7a bd 2f 74 84 3d
       -0.16624495 -0.07962326 -0.061059665 0.06467473
0001b0 6a 44 24 be a1 15 61 bc d1 32 31 bd 53 cb 26 3e
       -0.16041723 -0.013738067 -0.043261353 0.162885
0001c0 b0 7c ff 3d 8d 91 f5 3d b2 13 12 be 5f d2 24 be
       0.12474954 0.11990652 -0.14265326 -0.16095875
0001d0 bb 06 ed bc d6 38 2b 3e 35 d5 ad 3d 4f ea 5b 3d
       -0.028933873 0.167209 0.08487932 0.05369025
0001e0 3e 41 f4 3d f0 6d 4c be 5f 50 3a 3e a5 b0 88 3d
       0.119265065 -0.19963813 0.18194722 0.06674317
0001f0 6b 97 7f bd 4c c9 6a 3c 33 04 0f 3e 55 c4 c2 3d
       -0.062400263 0.0143302195 0.13966446 0.095101036
000200 21 ed c6 bd fc e5 b6 3c 94 3e 39 3e 69 25 a2 bd
       -0.097131975 0.022326462 0.18090278 -0.07917292
000210 d8 76 d9 3d bd 3e 37 be b6 c0 5b be f8 3f 41 bd
       0.10618371 -0.17895027 -0.21460232 -0.047180146
000220 9e 30 11 bc 55 a1 5b be 17 74 6d be 8e 42 54 be
       -0.008861689 -0.21448262 -0.23188816 -0.20728514
000230 60 2b 48 3e 63 88 10 be 06 d5 59 3b d3 2e 47 3d
       0.19547796 -0.14114527 0.0033238544 0.04862864
000240 b9 5e 0c be 84 5f a3 bc de 86 8d 3e 23 2c 14 be
       -0.13708009 -0.019943006 0.27641958 -0.14469962
000250 07 65 62 bd 59 d3 05 3e ff 75 73 3e 58 d3 85 3d
       -0.05527213 0.13068904 0.2377548 0.06534451
000260 93 74 2b 3e f4 99 86 bd 5b 24 9d 3e ed e8 07 bc
       0.16743688 -0.06572333 0.306918 -0.00829528
000270 f8 42 4b be 15 ac bd 3c b1 2c 6f 3e 9b 62 c2 bd
       -0.19849765 0.023153344 0.23356892 -0.09491464
000280 11 ea 5a 3d 7a 0b db 3c 5b d8 88 3e 1c 03 2d be
       0.05344588 0.02673887 0.26727566 -0.16895717
000290 72 47 0a 3e 5b 22 33 3e 04 bc 94 bd ae ec de 3d
       0.13503817 0.17493574 -0.07262424 0.10884987
0002a0 35 99 b7 bd 10 85 d1 3c 8e a2 91 be 17 dc 42 be
       -0.08964769 0.025576144 -0.28444332 -0.1902927
0002b0 33 04 84 3d cf e1 2c 3e 8f b3 18 3e e9 e5 e0 3d
       0.064461134 0.16883014 0.14912246 0.10981352
0002c0 01 97 ea bd c2 98 1a be f1 e3 84 3e 9a 75 30 3e
       -0.11454583 -0.15097335 0.25955155 0.17232361
0002d0 eb cc d2 bd 47 c1 52 be 59 05 69 be 3f 84 e9 bd
       -0.10292991 -0.20581542 -0.22755946 -0.11402177
0002e0 98 b3 14 3e 2f 6a 39 be b7 f0 18 3c 80 3f ec 3b
       0.14521635 -0.18106912 0.009334735 0.007209718
0002f0 52 c3 13 be 8d 6a 25 be 6e 9a 1b 3e 2f 20 11 be
       -0.14429978 -0.16153927 0.15195629 -0.14172433
000300 51 2f c8 bd 46 8a 42 3c c6 c6 9e be 64 f1 44 3c
       -0.0977465 0.011873787 -0.31011027 0.012020443
000310 e8 5b d6 3d 06 71 ec bd e6 05 c8 be b8 84 09 be
       0.104667485 -0.11544995 -0.39067 -0.13429534
000320 c9 1f 00 3e ad 2b 08 be b4 5a 3e 3e 87 cd 0f 3e
       0.12512125 -0.13297911 0.18589288 0.14043246
000330 06 9c 28 bd 58 70 b4 3d 29 24 83 bd 4c 23 07 be
       -0.04116442 0.0881049 -0.064033814 -0.13197058
000340 51 fb 7b 3e 77 fe 9b 3d 3c 63 f2 bd 58 5b f1 bd
       0.24607588 0.07616895 -0.11835334 -0.117850006
000350 5b ff 55 be 8c 95 1c 3e 78 05 c4 3e c2 05 bb bd
       -0.20898192 0.15291423 0.38285422 -0.091319576
000360 9d 12 0a 3e e1 ee 02 be cf 6f d8 bd c5 54 3a bc
       0.13483663 -0.12786438 -0.10568201 -0.01137275
000370 65 31 62 be be e1 c9 3c 54 9d 78 3d 3d a7 2a 3e
       -0.22089155 0.024643775 0.060696915 0.16665359
000380 d9 5c fb bd 52 43 2f be 9a c5 b9 3d 37 0f 45 3e
       -0.12273569 -0.17115524 0.09070893 0.19244085
000390 9c 8b 55 3e f2 e5 bc 3d f5 59 92 be 8f 48 d5 3d
       0.20854038 0.09223546 -0.28584257 0.1041423
0003a0 4b 0c 06 3e c1 25 36 be c2 99 8f be ea f8 58 be
       0.13090627 -0.1778784 -0.28046995 -0.21188703
0003b0 e1 3d 46 be 75 1d 80 3d 7d f3 a8 3e 7f 87 e0 bd
       -0.19359542 0.062556185 0.32998267 -0.10963344
0003c0 66 6b 49 3e b9 8a 19 bc ef 1a c7 be bc 33 62 bd
       0.19669876 -0.009371453 -0.38887736 -0.05522512
0003d0 77 be 3b be 85 dc fe bd ee df 97 3e a4 06 39 3e
       -0.18334375 -0.124444045 0.29663032 0.1806894
0003e0 f6 3a 48 bd 61 a5 9b bc 99 9c 01 3e 4b ce 83 3d
       -0.048884355 -0.018999757 0.12657394 0.06435832
0003f0 75 05 27 be 62 99 c2 bd 9f cd 96 3d fb b1 a8 3d
       -0.16310675 -0.09501912 0.07363438 0.08237072

feature_layer.0.bias f4 [128]
000000 7d 44 f1 3c 3e 0b 02 bb ab ef 71 bc 47 bf 9e 3d
       0.029451603 -0.0019843127 -0.014766614 0.07751327
000010 f6 bd a9 3c 83 ac 0a 3d f9 7a 58 3d fe ed a2 3d
       0.020720463 0.033855926 0.05285165 0.0795555
000020 b1 4b 7f 3d 58 5d 91 3d 06 dd 7b bd 81 ab 68 3c
       0.062328044 0.07097882 -0.06149008 0.014201046
000030 19 65 9d 3d 67 c3 8a 3d 6c 50 68 3d 74 6b d4 3c
       0.076852985 0.06775551 0.05671732 0.025930144
000040 b8 aa a5 3d f7 ac 0a 3d e9 02 13 bd d8 c4 21 3d
       0.08089203 0.03385636 -0.035891447 0.039494365
000050 15 24 b0 bd 41 2f a9 bd c8 d8 b4 3c f0 99 70 3d
       -0.08600632 -0.08260966 0.022076026 0.058740556
000060 8f 53 b2 bc 58 77 bc bc 09 b3 57 3d f8 be 4f 3d
       -0.02176836 -0.023006126 0.052660976 0.05071923
000070 7c 61 6a bd 08 03 c8 bb 71 ed 45 bd 63 3f 13 bd
       -0.057221875 -0.006103877 -0.048322145 -0.035949122
000080 d4 e3 26 3d dc aa b1 3c 3b 60 e3 bd bc 46 76 3d
       0.040744618 0.021687917 -0.11102339 0.06012605
000090 0c 21 bf 3a af 17 b2 3d 3a ed 43 bc a3 c7 fb bc
       0.0014581992 0.086959235 -0.011958415 -0.030734843
0000a0 2c 70 66 3d d3 17 7d bd 4b 06 f6 bd 4a 10 9e 3d
       0.05625932 -0.0617903 -0.12012919 0.07717951
0000b0 90 44 ce bd d1 bd 82 3d 81 00 58 3d 5f 79 b5 3d
       -0.10071671 0.06383861 0.052734856 0.0886104
0000c0 03 18 59 3d 44 aa ee bd f3 f9 6d bd 8e 9a 22 3d
       0.053001415 -0.11653569 -0.0580997 0.039698176
0000d0 b2 6f 58 bd b2 e7 54 3d 72 b2 8a 3d 0c 7b 20 bd
       -0.052840896 0.051978774 0.06772317 -0.039179847
0000e0 fe c7 6c bd fc b8 b4 3d 24 19 02 be b8 62 e4 3c
       -0.057807915 0.088243455 -0.12704903 0.027879104
0000f0 b0 03 c6 bd 1b cc ae bb ee 12 8c bd 3d b7 f6 3c
       -0.09668672 -0.00533439 -0.06839548 0.030116672
000100 dc 4e c5 bd 50 0a a1 3d d5 40 ba bd 8d 02 95 3d
       -0.09634182 0.07863295 -0.09094397 0.07275877
000110 9d 31 d0 bc b3 b0 76 3d 60 36 0a bd 68 66 29 3d
       -0.025414282 0.060227107 -0.033743262 0.041357428
000120 77 4c 0d 3d 07 cd 8f 3d 7e d9 c4 bd 7f 94 ac bd
       0.03449675 0.07021528 -0.09611796 -0.08426761
000130 7e 9b 91 bd ea 51 7e 3d e0 55 88 bd 71 b6 52 3d
       -0.07109736 0.062089838 -0.06657004 0.05144352
000140 19 58 9f 3d cd 43 29 3d ed 06 0a 3d 32 e8 6f 3d
       0.07780475 0.041324425 0.03369801 0.058571048
000150 a8 32 e4 3c a9 6d 37 3d 6d cc ff bc 15 92 ac 3d
       0.027856186 0.044782314 -0.031225407 0.084263004
000160 ab 05 98 3c fd 8c eb 3c 29 de 7e bd b5 04 47 3d
       0.01855739 0.028753752 -0.062223587 0.048588473
000170 7e bc 44 3b c3 60 84 3d c3 b4 90 bd e9 a4 c9 3c
       0.0030019577 0.06463768 -0.070657276 0.024614768
000180 ce 5b 10 be a0 93 53 3d c8 45 54 bc 27 f2 d0 bd
       -0.1409752 0.051654458 -0.01295609 -0.10202437
000190 93 27 9f 3d 90 74 7e 3d 63 93 d3 bd 20 f0 8f 3b
       0.0777122 0.06212288 -0.10330846 0.004392639
0001a0 61 a1 52 3d cb 5f a5 3c 25 f8 f9 bd 5c 6b b9 bd
       0.051423434 0.02018728 -0.12205533 -0.0905368
0001b0 56 cd 8f bd 81 9f 6e 3d 01 21 84 3d a2 7d 8a 3d
       -0.070215866 0.058257584 0.064516075 0.06762244
0001c0 0c 05 93 3d c9 47 81 bd 1f cd 92 3d 2a 61 41 3d
       0.07178697 -0.0631252 0.0716803 0.047211803
0001d0 33 e5 23 3d 53 ef cc bd c4 39 b6 3d e9 8d 60 3d
       0.040013503 -0.10006585 0.08897737 0.054822836
0001e0 ac d3 ef bb 69 83 19 bd eb d2 dd bd f2 71 97 bd
       -0.0073189344 -0.037478838 -0.10831245 -0.0739478
0001f0 2b 39 8b 3d 54 94 03 bd 65 27 87 3d 9e 6e 4d bd
       0.06798013 -0.03212388 0.06599311 -0.05015432

feature_layer.2.weight f4 [128, 128]
000000 d3 37 0f bd 49 f5 5a 3d e6 58 87 bd 2c ba 3a 3e
       -0.034965347 0.05345658 -0.06608753 0.18235081
000010 ce c8 b3 3d 25 64 cd bd f0 78 89 3d f8 a3 b8 3c
       0.08778535 -0.10028867 0.0671252 0.022539124
000020 7e 16 d9 3d 24 71 a6 bd 3d cb 52 3d c0 af 8a 3d
       0.10599993 -0.081270486 0.051463354 0.06771803
000030 67 b2 4e 3d 42 24 12 be 06 de 1d 3e ac 77 d4 bd
       0.050463106 -0.14271644 0.15416726 -0.10374388
000040 72 6d 05 3e d3 4f ee bd de 52 66 be 42 22 4c 3e
       0.13030031 -0.11636319 -0.22492549 0.19934943
000050 74 14 bd 3b 8b a5 92 3c 67 ee b3 3d e0 a3 ad 3d
       0.0057702605 0.017901203 0.08785706 0.08478522
000060 c0 e3 bd 3d 2e f7 bf bd d6 90 e9 3d 87 79 d4 3a
       0.092719555 -0.09373318 0.114045784 0.0016210534
000070 9d e3 29 3d b9 f8 1a be 00 5b 5f 3d 79 3f 50 bc
       0.041476835 -0.15133943 0.054530144 -0.012710446
000080 69 93 ab 3d 51 d9 1f be c7 86 29 be 3e 05 a5 3d
       0.08377726 -0.15610243 -0.1655532 0.080576405
000090 c0 ab 2a 3c 78 73 d8 bc cf f0 9a bd c9 3b 00 be
       0.010416925 -0.026422247 -0.07565462 -0.12522806
0000a0 06 e3 23 3d b8 8e 0b 3d 01 f1 03 be 7a 71 15 3e
       0.04001143 0.034071654 -0.12884904 0.14594069
0000b0 13 37 15 3e 6e f2 9f 3c 41 fc 82 bd 75 4b 18 bd
       0.1457179 0.01952478 -0.0639577 -0.037181336
0000c0 a6 31 cf bd 35 27 f4 bd 38 e8 98 3d 25 d9 be 3d
       -0.101168916 -0.11921541 0.07466167 0.09318761
0000d0 f9 c4 90 3d 4d a2 79 bd a9 19 4a bd c4 8d 78 3d
       0.070688196 -0.060945798 -0.049340878 0.060682073
0000e0 e3 30 24 3c 62 29 83 3d 60 f6 50 be 57 ee fb 3d
       0.010021421 0.064043775 -0.20406485 0.12301319
0000f0 70 11 f9 bc c6 8b 30 3e 4d bf 98 3b 68 04 c6 3d
       -0.030403823 0.1724082 0.0046614767 0.09668809
000100 e2 c7 a3 3d 57 a6 b0 bd 06 fd bb bd 04 3a 0d 3e
       0.07997109 -0.08625477 -0.0917912 0.13791662
000110 d9 19 e9 bd de 2d bf 3d c1 39 c0 3d c4 bf b2 3d
       -0.11381883 0.0933492 0.09386016 0.08727983
000120 2e f1 d2 3d 00 1b ae bc fb 25 6a 3d cf b8 03 3e
       0.102999076 -0.021253109 0.057165127 0.12863468
000130 bf e4 ff 3d d1 1b d7 3d ff 6d 15 3e 70 cc 25 3e
       0.12494802 0.105033524 0.14592741 0.16191268
000140 e2 44 41 3e e2 d0 bc 3c 9c c0 f8 bd ed fe cc bd
       0.18873933 0.023048822 -0.12146112 -0.10009561
000150 fc 1d 90 bc f9 3f 07 3e 0f 94 cf bd 51 aa 1b bd
       -0.017592423 0.13207997 -0.10135662 -0.038004223
000160 a2 4b ef 3d d9 35 10 be 8e 09 77 bd 5e a8 7e 3d
       0.11684348 -0.14083041 -0.060311846 0.062172286
000170 c1 24 4e 3d 1f 90 45 3c 99 ec 4d 3e 2f 64 c8 3d
       0.05032802 0.012058287 0.20109786 0.097847335
000180 1b 20 19 3e cc f2 fd 3c ba 6f fd bd ce ff 8a 3e
       0.14953654 0.030999564 -0.12374826 0.27148288
000190 0a 0b b6 bc 27 02 33 bd da e7 24 3e 72 1d 91 3c
       -0.02222206 -0.043703225 0.1610407 0.017714236
0001a0 a0 ff b6 3d ea 49 13 3e 30 05 1f 3e 59 d7 02 be
       0.08935475 0.14383665 0.15529323 -0.12777461
0001b0 28 50 d1 3d 74 45 81 bd 90 8c 95 3d 52 2e 82 bd
       0.10220367 -0.06312075 0.07302201 -0.06356491
0001c0 d1 a4 69 3d 04 89 73 be 90 40 be 3d 90 fe 07 3d
       0.057041947 -0.23782736 0.09289658 0.033201754
0001d0 5a 59 66 3c 7f 4b 88 bd d5 eb b6 3d 46 8d bd bd
       0.014059389 -0.06655025 0.089317 -0.092554614
0001e0 9b bf b4 bd 1b 91 e2 3d 71 eb f8 3d 56 a1 18 3c
       -0.08825608 0.11062833 0.12154282 0.009315809
0001f0 de 1b ae 3d 62 f7 d0 3d 6a a0 ff 3d da 0f 43 be
       0.08501409 0.102034345 0.124817684 -0.19049016
000200 18 db 92 3c a8 6d 90 bd ca ac 20 bc 64 1b b8 bd
       0.017926738 -0.07052165 -0.009806821 -0.08989599
000210 b1 92 3c 3d 86 5b 8e bd c5 3a 7d 3d f6 89 2b 3d
       0.046038333 -0.069510505 0.061823625 0.041879617
000220 8f e3 68 3d ef 53 a8 3d 28 ba c8 3b 61 74 c4 bd
       0.05685764 0.08219134 0.006125707 -0.0959251
000230 0c 10 fb 3c 02 f0 d6 3d 0b 2d e6 3d a4 4e c1 bd
       0.0306473 0.104949966 0.1123906 -0.09438828
000240 d3 02 26 3d 93 0c 88 bd 87 40 c6 3d 86 a1 85 bd
       0.040530037 -0.06643023 0.09680276 -0.06524949
000250 6a d2 8f bd c3 42 1c 3d 51 7f f6 bd c3 a3 04 3d
       -0.07022555 0.038149606 -0.120360024 0.032382738
000260 25 06 7f 3d eb 94 30 bd f8 22 34 be ea 4b 3f be
       0.06226172 -0.04311077 -0.17591465 -0.18681303
000270 b0 9f 01 be c8 35 22 be 1c c3 3c 3d cb 16 53 bd
       -0.12658572 -0.15840828 0.04608451 -0.05153541
000280 23 f1 cb bc 16 38 e9 3d f7 8a c5 3c 0e 0c 0a be
       -0.024895256 0.11387651 0.024114115 -0.13481161
000290 b1 c4 02 3d 79 f3 21 3d fa 60 bc bd 23 1b ad 3c
       0.03192586 0.039538834 -0.09198184 0.021131104
0002a0 98 5f 62 bd fc 62 1c be 80 1e d6 bd 39 ca e3 bd
       -0.055266947 -0.15272135 -0.10455036 -0.11122555
0002b0 b3 39 a2 3d 7c d1 07 3e 41 18 02 be 07 0c b8 3d
       0.079211615 0.13263506 -0.12704565 0.08986669
0002c0 3a 33 58 bd b2 0d 19 bd 3d ed b8 ba f1 69 60 3d
       -0.05278323 -0.037366576 -0.0014108788 0.054788534
0002d0 d4 01 89 3c b2 6f 24 be 62 1e 8d 3c 8c b6 2a be
       0.016724505 -0.16058233 0.017226402 -0.16671199
0002e0 f2 08 05 3e 12 55 08 3e 20 98 19 be d7 0f 86 3d
       0.12991694 0.13313702 -0.14999437 0.0654599
0002f0 cf 9a 75 3d 72 67 f9 bd 2b da c7 3c 55 ad e0 bd
       0.05996209 -0.12177934 0.024396023 -0.109705605
000300 c8 39 ee bd d9 90 9a bd 07 0f 99 bd d1 ee 0b be
       -0.11632115 -0.07547159 -0.07473569 -0.1366532
000310 01 96 88 3c a9 b9 07 3e 2a cf 3f 3c d5 75 51 39
       0.01667309 0.13254417 0.011707107 0.00019975689
000320 47 5b 2d be a5 1b 31 3d 98 f8 03 3e 7f 22 e6 bc
       -0.16929351 0.043239255 0.128878 -0.02809262
000330 2f c6 0a 3e bd d6 f1 3d cf a3 3b 3d d2 40 26 be
       0.13552164 0.11808536 0.045810517 -0.16235664
000340 2d c5 90 bd b5 8c 7f bd d8 08 7c 3c bb f4 37 bd
       -0.07068858 -0.062390048 0.015382968 -0.044911128
000350 39 cc 24 bd 6e 42 98 bd f6 7b c7 bc f1 7c 17 be
       -0.040233824 -0.074345455 -0.024351101 -0.14793755
000360 a9 01 eb bd 89 ba 3e 3d e4 a8 de 3d f5 6f e0 3d
       -0.11474926 0.046564613 0.10872057 0.10958854
000370 90 f6 9e 3d 4f 10 1c be da 46 10 bd ba c0 2a bd
       0.07761872 -0.15240596 -0.03522382 -0.041687705
000380 eb 25 5f 3d 87 bc f9 3d 6a 15 d9 3d 01 89 95 3d
       0.05447952 0.12194162 0.105997875 0.07301522
000390 a5 68 a6 bd a6 80 e9 3d 5e c1 05 be 8b b3 10 be
       -0.08125428 0.11401491 -0.13062045 -0.1413099
0003a0 d3 9c 15 3d 70 67 e9 3d 91 9a 88 3d c5 d5 48 be
       0.036526512 0.11396682 0.06670106 -0.19612797
0003b0 c8 ab 83 3d 31 04 9b bd 79 3f 8e 3c 9a 61 bc bd
       0.06429249 -0.07569159 0.01736425 -0.091983035
0003c0 b7 86 cc bd 0d 45 66 bd 07 35 80 3c f0 f9 ae 3d
       -0.09986632 -0.056218196 0.015650285 0.085437655
0003d0 d4 0e a0 bd d9 18 97 bd 63 ed 46 3d c9 a1 9b bd
       -0.07815328 -0.07377786 0.048566233 -0.075992174
0003e0 8d d5 cd bd 23 bb 95 3c a8 f7 3f 3d 7e b6 33 bd
       -0.10050497 0.01827771 0.046867043 -0.04387521
0003f0 b6 c6 54 3c 49 62 18 3e d3 a9 7b 3d c3 4f f7 bb
       0.0129868295 0.14881243 0.061441254 -0.00754735

feature_layer.2.bias f4 [128]
000000 56 5a c5 3c c7 83 c2 bc c4 91 7f 3d a3 75 3a 3d
       0.024090927 -0.023744477 0.062394872 0.045522343
000010 7a 2c 2d bc d9 4e 8d 3d ea 02 76 3d 50 1e ed bc
       -0.010569686 0.068998046 0.060061373 -0.028945118
000020 26 c5 8d 3d b4 ab 80 bc 63 7a 74 3d c3 b7 35 bc
       0.06922369 -0.015706874 0.05968703 -0.0110911755
000030 09 a4 8e 3d 77 bb 67 bd 93 05 85 bc a6 c0 94 3d
       0.06964881 -0.056575265 -0.01623801 0.07263307
000040 62 cf 72 bc 5b e2 46 bc e8 bc 7f 3d 3d 6c 96 3d
       -0.014819952 -0.012138928 0.062436014 0.073448636
000050 95 69 30 bc 06 2c 91 3d 20 ee 38 bc cd 49 96 3d
       -0.01076736 0.07088475 -0.011287242 0.07338295
000060 ef 88 b3 bc a8 3f 4a 3d 62 60 85 3d 73 79 19 bc
       -0.021915881 0.049377114 0.06512524 -0.009367335
000070 b8 06 24 bd 31 32 0f 3c f9 c9 96 3d e3 b9 82 3d
       -0.04004547 0.008739994 0.07362742 0.06383111
000080 ed 8e 43 bc a3 a7 89 3d 18 d9 10 3d 24 2a 83 3d
       -0.011935932 0.06721427 0.035363287 0.06404522
000090 37 ee 16 bc 6b 6f 85 3d c0 7b 96 3d 95 c8 6f bc
       -0.009212068 0.06515392 0.07347822 -0.014635225
0000a0 25 90 36 bc 97 db 65 bc de 6c 29 bd 16 f0 6c 3d
       -0.011142765 -0.014029405 -0.04136359 0.05784615
0000b0 6f 48 82 3d f1 a5 fb bc f1 c8 21 bd 21 95 85 3d
       0.06361472 -0.030718775 -0.039498273 0.06522585
0000c0 66 bd a2 bb 69 2c 45 bc f8 6e 66 3d 00 00 00 00
       -0.0049664257 -0.012034514 0.05625817 0.0
0000d0 0b 25 98 3d 2a 5c fa bb 75 d2 ae bc 6f eb 88 3d
       0.074289404 -0.0076403813 -0.021340588 0.066855304
0000e0 f2 71 35 bc 71 ba 93 3d 23 0b 1e bc 2f e9 0a bc
       -0.01107453 0.07213295 -0.00964621 -0.008478447
0000f0 d3 d2 68 bd 00 00 00 00 f2 c8 20 bc 46 2b 2c bd
       -0.056841683 0.0 -0.009813534 -0.042033456
000100 56 66 0f 3d 79 3a ac 3b 30 94 31 3c fd 7b 8c 3d
       0.035009705 0.005255994 0.010838553 0.068595864
000110 27 12 71 3d 42 97 85 3d 83 51 34 bd 50 db 8f 3d
       0.058855202 0.06522991 -0.044023048 0.070242524
000120 81 98 3a bc f4 08 00 bc 41 31 91 3d 43 37 9e 3d
       -0.011388899 -0.007814635 0.070894726 0.07725384
000130 81 9f 17 3d e0 36 7a 3d 47 91 76 bc fa 80 ca bb
       0.03701735 0.06108749 -0.015049285 -0.006179926
000140 d3 d5 28 3d 3f 20 8a 3d b6 f7 89 bd c7 e0 6d 3d
       0.041219544 0.06744432 -0.067367 0.058075693
000150 b5 6b 63 bc 0f fb 94 3d 8d 7d 99 bd 0b 5b 76 3d
       -0.01388066 0.07274448 -0.0749465 0.06014542
000160 55 d6 a2 3d 00 00 00 00 d6 f8 95 3d 6c 70 9c 3d
       0.07951037 0.0 0.07322852 0.0763863
000170 64 15 81 3d 7e d7 85 3d ba d3 6a bc 7d b3 7d 3d
       0.06302908 0.065352425 -0.014332706 0.06193875
000180 bd ba 1a bc 06 eb 94 3d e1 b8 50 3d 2a 03 89 3d
       -0.009443936 0.0727139 0.050957564 0.066900566
000190 ae 6a a0 3d ba 3f 99 bc 9a bc d2 bc 52 b6 98 3d
       0.078328475 -0.018707145 -0.025724698 0.0745665
0001a0 f4 68 93 bb 3c 0c 8c 3d 9e a1 a9 3d c8 9c 3d 3d
       -0.0044985954 0.06838271 0.08282779 0.046292096
0001b0 04 41 f7 bc 76 48 7d 3d 90 2d 9a bd cb e9 3a bd
       -0.030182369 0.061836682 -0.075282216 -0.04563312
0001c0 df 02 82 bc c5 a3 8d 3d ca 09 67 bc e0 0f 87 bd
       -0.01587051 0.06916002 -0.014101455 -0.06594825
0001d0 28 0c 75 bc fb a4 83 3d af 7b 94 3d 6d e5 65 3b
       -0.014956512 0.06427952 0.07250153 0.0035079375
0001e0 2f 93 87 3d 5c 62 93 3d d5 e8 73 bd 94 79 8a 3d
       0.0661987 0.07196495 -0.059548218 0.067614704
0001f0 36 f2 74 bd a6 31 d0 bb 57 c9 96 3d ce c6 a2 3d
       -0.059801303 -0.006353575 0.07362621 0.07948075

value_stream.0.weight f4 [64, 128]
000000 ed 46 31 be 26 8a a1 3d c7 24 0f 3c 23 e2 9c 3d
       -0.17312212 0.07887678 0.008736796 0.0766032
000010 ea 1c 8d 3d c5 61 4d 3e 54 9b 85 3c bc 5f 88 bc
       0.068902805 0.20056827 0.016309418 -0.016647212
000020 be ea 69 3e 00 94 76 bb 35 8d a6 3d 61 bf f1 3c
       0.22843453 -0.0037624836 0.08132402 0.029510202
000030 4f d1 b4 bb 31 1c c1 bc 2f 0d 0b be b9 f7 05 3e
       -0.0055181156 -0.023573013 -0.13579248 0.1308278
000040 bb af d0 3d 62 ac fc 3d 29 8e 9c bd 72 87 53 3e
       0.10189768 0.12337567 -0.076443024 0.20657137
000050 d1 42 2c 3e ad 48 64 3d 6c 93 20 be be 99 67 3d
       0.16822363 0.05573337 -0.15681237 0.056543104
000060 35 2c 68 3c cf e2 e7 bd 16 b1 9a 3c 99 d9 4c bd
       0.014170696 -0.11322557 0.01888327 -0.050012205
000070 29 a2 74 be 6b 2d bd 3d d1 81 e5 3d e4 8b c9 bc
       -0.23889984 0.092371784 0.11206401 -0.024602838
000080 d4 d6 2f 3e c7 69 29 3d ef 68 50 3d b8 3b 87 3d
       0.17171794 0.041360643 0.050881322 0.06603187
000090 0c dc 69 be 7d ca 9a bc 7d 00 ab 3d 00 c2 5c bd
       -0.22837847 -0.018895382 0.083497025 -0.05389595
0000a0 6a 45 de 3d 49 79 1e 3c 95 1e 27 bd 06 c9 52 3e
       0.108530834 0.009672471 -0.04080065 0.20584497
0000b0 3b 9e 1a bd 1d 07 a0 bc 5b de a3 be a7 d7 0d be
       -0.037748557 -0.019534642 -0.3200558 -0.13851796
0000c0 9e 43 9b 3d df e4 09 3e 07 f4 f6 3d 9a 46 0e be
       0.07581256 0.13466214 0.12058263 -0.1389412
0000d0 77 40 31 3e 85 39 1e be e4 4b fd bd 5a cb 42 3e
       0.17309748 -0.1545163 -0.123679906 0.19022885
0000e0 4c af 91 bd d6 2d b8 bc 0e af 85 bd cb 42 9d bd
       -0.07113513 -0.022482794 -0.0652753 -0.076787554
0000f0 97 6c 00 be bb d3 be bd 50 a7 2a be 19 4a 1a be
       -0.12541424 -0.09317728 -0.16665387 -0.15067329
000100 d4 37 f6 3c 27 6b 7d 3c 4d 67 71 3c c0 51 fc bd
       0.030055918 0.015467442 0.0147341015 -0.1232028
000110 e6 d9 a8 bc e1 aa 84 bd f9 38 84 be f1 0e 2f bd
       -0.020611715 -0.06477905 -0.25824717 -0.04273886
000120 67 db ea 3b 17 34 b8 bc 2c 13 c3 bd 16 fd 27 3e
       0.007167268 -0.022485776 -0.09525141 0.16405138
000130 50 ac bd 3d a8 bd 8e 3d 8c 05 a6 3d b5 27 33 bb
       0.092613816 0.06969768 0.08106527 -0.00273369
000140 97 0d db 3c 47 52 1d be 39 9f 64 bd fa 2d 27 3e
       0.026739879 -0.15363418 -0.05581591 0.16326132
000150 61 f1 7c bd 3e 85 37 3e 09 fe 42 be ee 31 17 3e
       -0.061753634 0.17921922 -0.19042219 0.1476514
000160 47 ec 30 3c 8c 8c ca bd cf 3a 67 bb d1 22 4e 3e
       0.01079852 -0.098900884 -0.0035282855 0.20130469
000170 36 46 03 3c ee 54 e1 bd 29 0a 1b 3d e3 c7 92 bd
       0.008012345 -0.11002527 0.037851486 -0.071670316
000180 20 a7 d2 bd 6f 5a 1b bd 7f 61 a8 bd 3e 41 40 bd
       -0.10285783 -0.03792804 -0.08221721 -0.04693722
000190 b1 e9 fe 3d b7 c4 13 bd ef 75 20 3d f0 25 5e 3e
       0.12446917 -0.036076274 0.03917497 0.2169416
0001a0 20 64 88 3d 96 5a 45 3e 98 d0 70 3e 7d 90 09 3d
       0.06659722 0.19272837 0.23517072 0.03358506
0001b0 ec ac 89 3d 86 73 42 3e 9c c6 61 be 14 9e 9e be
       0.06722435 0.18989381 -0.2204842 -0.3097998
0001c0 a7 d1 09 3e 1c dd 23 3e 64 6e 94 3d ec 13 ec bd
       0.13458882 0.16002315 0.07247618 -0.11527237
0001d0 1b 40 bd bd 1b ab dd 3d 43 a4 73 3d e6 2b 8a 3c
       -0.09240743 0.108236514 0.059482824 0.016866636
0001e0 ab 84 5f 3e 8a a5 10 3e e9 95 4f be da 36 e6 3c
       0.21827953 0.14125648 -0.2027203 0.028102327
0001f0 f3 0a 3c be b9 f5 96 3d 0a 59 87 3e b4 ed 09 bc
       -0.18363552 0.073710866 0.2643512 -0.008418489
000200 35 f8 e3 bd 74 1a e1 3d 03 b3 e4 bd b5 70 3f 3e
       -0.11131326 0.10991374 -0.11166956 0.18695338
000210 84 13 1a 3d 1d 6d 43 3e ba a6 42 3d ac b1 97 3d
       0.037616268 0.19084592 0.047522284 0.07406935
000220 27 6a f0 bd 87 a4 56 bc 37 40 2f 3e a4 27 72 bd
       -0.11738997 -0.01310075 0.1711434 -0.059119835
000230 0a 42 6e 3e 4c c3 f0 bd e6 b4 9b bd 53 fd 6a bd
       0.2326738 -0.11756 -0.07602863 -0.057370495
000240 9c ed fe bd 72 c6 7e 3d 30 e3 64 bd 66 01 1a 3e
       -0.12447664 0.06220097 -0.055880725 0.15039596
000250 b8 e8 0f bd 35 77 0e 3e bf 53 09 3e 7d 47 9a bd
       -0.035134047 0.13912661 0.13410853 -0.075331666
000260 62 92 b9 bd c0 c3 1f 3e dc 49 bd bc 61 89 0c be
       -0.090611234 0.15602016 -0.023106508 -0.13724281
000270 3c 9c 0f be e4 64 34 be 57 d6 65 bd 38 6e 36 3d
       -0.14024442 -0.17616612 -0.056112614 0.044538707
000280 3b 5f 0c 3e 03 19 72 3d 7a cd 5e 3d 8d 07 0f 3d
       0.13708203 0.059105884 0.054395176 0.03491931
000290 53 2a 2b be f0 6e 03 3e 72 73 35 3e 71 43 8e 3d
       -0.16715364 0.12835288 0.1771982 0.06946457
0002a0 12 fe 24 3e da 01 34 3e 57 45 10 bd 40 91 8f bd
       0.16112545 0.17578831 -0.035222378 -0.07010126
0002b0 60 41 24 3e bb 38 c7 3c 33 b8 3d be a3 1a 15 bc
       0.16040564 0.024319043 -0.18527298 -0.009100589
0002c0 30 c6 74 3d 73 b6 98 bd e3 89 2d 3e a2 87 09 be
       0.05975932 -0.074566744 0.16947131 -0.13430646
0002d0 51 7e 8c 3d 85 64 23 be 1b 4b 95 3d f5 6e 5c bd
       0.068600304 -0.15956314 0.07289716 -0.053816754
0002e0 4d 13 71 bb 79 91 49 3e 27 bf 1f 3d ee d6 8b 3c
       -0.0036785186 0.196844 0.039000656 0.01707026
0002f0 e6 0c 56 bd d0 e9 4a 3c 50 61 2b 3e d4 52 8e bd
       -0.052258395 0.012384847 0.1673634 -0.06949392
000300 53 54 f6 3d ee fa f9 3d f3 72 a6 bc c2 6c 4c 3e
       0.12027802 0.12206064 -0.020318484 0.19963363
000310 97 48 54 3d 5d d2 24 3e 73 05 ab be a4 cd f0 bd
       0.05182704 0.16095872 -0.33402595 -0.11757973
000320 ae 37 72 3d 2d b4 84 3d 2b 16 6f bc 52 d3 1a 3d
       0.05913513 0.06479678 -0.014592688 0.037799187
000330 ea 5e 93 3d 63 f9 37 3e ea 23 5d 3d 8b 60 1b 3e
       0.07195838 0.17966227 0.05398933 0.15173547
000340 a0 9a 1e 3e f8 3f 98 3d 07 23 da bd d9 a0 cf bc
       0.15488672 0.07434076 -0.10651212 -0.025345253
000350 5e 0e ed bd 52 28 04 3e 7a 5e f5 bd 01 dd 89 bb
       -0.11575006 0.12906006 -0.119809106 -0.004207254
000360 b3 17 07 3d d5 1f d2 bd a8 b2 8d 3d 5f 65 31 3e
       0.032981586 -0.10259978 0.069188416 0.17323826
000370 3a 78 4d 3e b4 c4 b2 bd 8a 7f 2c 3d e9 34 1e bd
       0.20065394 -0.087289244 0.04211382 -0.038624678
000380 e5 60 22 be 35 88 15 3e 2d 98 29 3e 6a 60 4e 3e
       -0.15857275 0.1460274 0.16561957 0.20153967
000390 34 45 52 3e d6 bf 40 bd 6d e6 e6 3c 5c 3b 01 3e
       0.20534211 -0.04705795 0.028186047 0.126203
0003a0 1a 12 c9 bd 4b d1 31 3e cf e5 80 bd da 64 9a 3c
       -0.09817906 0.17364995 -0.062938325 0.018846918
0003b0 43 b2 97 bd 97 20 c9 3d 42 af 7e 3d 0a c7 01 be
       -0.074070476 0.09820669 0.062178858 -0.12673584
0003c0 05 3d 8c bd 16 79 47 3e f5 10 1d be 80 e0 eb bd
       -0.06847576 0.19479784 -0.153385 -0.11517429
0003d0 3b 21 15 be ab c2 fe 3c 14 76 47 3e e6 9c c4 3d
       -0.14563458 0.031098684 0.19478637 0.096002385
0003e0 d4 70 15 bd fa 96 40 bd 3a d8 ce bd e9 0d 42 bd
       -0.036484554 -0.047018982 -0.10099836 -0.047376547
0003f0 97 99 4e be b7 8a 16 3e db 01 10 3e 48 88 57 bd
       -0.20175777 0.14701353 0.14063208 -0.052620202

value_stream.0.bias f4 [64]
000000 13 51 99 3d 41 d9 81 3d 51 d9 16 bc 3a 8f 82 3a
       0.07486167 0.06340266 -0.009207086 0.0009960898
000010 95 a9 87 bc 71 97 7f 3d bc 6f 80 3d 23 2d 83 3d
       -0.016560355 0.062400285 0.06271312 0.064050935
000020 26 8d 5b bc 04 c1 5b bc a8 45 82 3d d1 65 64 bc
       -0.013400352 -0.013412718 0.06360942 -0.013940291
000030 bb c9 c4 bb ba 88 4a bc 60 25 a8 3d 0a 74 80 3d
       -0.0060054935 -0.0123617 0.08210254 0.06272133
000040 0f 41 8e 3d 03 42 01 bc 03 ad 9a bc f1 14 9c 3d
       0.06946003 -0.007889274 -0.018881327 0.07621182
000050 ec 8d 4c bc 39 32 8f 3d 8f a9 89 3d 04 11 93 bc
       -0.012485009 0.06992001 0.06721794 -0.01795245
000060 46 1b 81 3d c5 fe 81 3d 5b 48 84 3d d7 53 b9 3c
       0.0630403 0.063474216 0.06459113 0.022622986
000070 98 26 b6 bb 4a 28 92 3d 89 24 17 bc 37 f0 81 3d
       -0.0055588 0.07136591 -0.009225019 0.063446455
000080 18 9f 38 bc 8c 83 91 bc 21 27 51 bc f6 02 89 3d
       -0.0112684 -0.017762922 -0.012765677 0.06690018
000090 1c 7d 90 bc cf f3 1e bc 61 ea 9d 3d 37 a0 9c 3d
       -0.017637782 -0.009701683 0.0771072 0.07647746
0000a0 18 7f d1 3c fd 96 86 3d be 59 84 3d 9d f1 2d bc
       0.025573298 0.065717675 0.064624295 -0.010616687
0000b0 64 2a 0e bc 78 47 90 bc 13 a4 3b bc d2 7c 75 3d
       -0.008677099 -0.017612204 -0.011452693 0.05993349
0000c0 46 04 91 3d f7 21 64 bc 9d a6 80 3d 4d 86 59 bc
       0.07080893 -0.0139241135 0.06281779 -0.013276649
0000d0 1c 19 b6 3c 3c 46 7d bc 2a c6 8b 3d e0 62 35 bc
       0.02222877 -0.01545864 0.06824906 -0.011070937
0000e0 32 5b 3e bc 00 ec e2 3c 3b 6f 9a bc 30 ae 91 3d
       -0.011618422 0.027700424 -0.018851867 0.07113302
0000f0 ab 0d 81 bb 76 9e 3a bc 6a 2d 75 bc a9 41 14 bd
       -0.003938397 -0.011390319 -0.014964441 -0.03619543

value_stream.2.weight f4 [1, 64]
000000 a0 d6 56 3e d4 24 ed 3d 68 03 8d be 1e 08 1d 3e
       0.2098031 0.1157929 -0.2754166 0.15335128
000010 b2 a4 32 be 37 a0 38 3e bc c4 af 3e c2 df b1 3d
       -0.17445639 0.18029867 0.34329784 0.086852565
000020 5f f3 8e be 65 c5 f2 bd 70 ff 18 3e 05 d1 4a be
       -0.27920052 -0.11854056 0.14941192 -0.19806297
000030 da fc 0f be cc b7 67 be af 94 67 3d 68 a9 a3 3e
       -0.14061299 -0.22628707 0.05653828 0.31965184
000040 4b e6 8e 3d 97 7a da be b0 f6 30 be 69 43 90 3e
       0.06977519 -0.42671654 -0.17281604 0.2817643
000050 76 66 72 be 51 fa e6 3d db 8f 34 3e 41 15 87 bd
       -0.23671898 0.11278213 0.17633002 -0.06595851
000060 f5 6e 6e 3e 60 25 4f 3e 26 77 90 3e f0 fd d8 be
       0.23284514 0.20229101 0.28215903 -0.4238124
000070 c5 be 3b be 7d e4 6e 3e 29 32 26 bd b2 56 63 3e
       -0.18334492 0.23329349 -0.04057518 0.2220104
000080 23 fc 4d bd a4 a4 35 bd 5a 65 39 be 8a 68 ad 3d
       -0.050289284 -0.044346467 -0.18105069 0.08467205
000090 d8 f4 d6 bd 0b 73 86 bd 7b 95 71 3e 1a 60 91 3e
       -0.10495919 -0.065649115 0.23592179 0.28393632
0000a0 3e a2 19 be b1 74 26 3e fc b0 3c 3e 07 73 3d be
       -0.15003297 0.16255452 0.18426889 -0.1850091
0000b0 dc db 6d be 40 d8 ef bc 2c 49 8d be ed 4e 91 3e
       -0.23228401 -0.02927792 -0.27594888 0.28380528
0000c0 ff 18 35 3e 57 fe 94 be 29 38 a4 3e bd f2 f0 bd
       0.17685317 -0.29100296 0.32074097 -0.11765049
0000d0 50 8d 69 be 4c 35 0b be 66 34 3e 3e 52 6d 0e be
       -0.22807813 -0.1359455 0.18574676 -0.1390889
0000e0 12 c3 9e bd 51 d8 75 be 7d 75 39 be 07 81 b4 3e
       -0.077520505 -0.240083 -0.18111224 0.3525469
0000f0 0c b4 f1 bd 60 0a 46 be 6c b5 fc bd 0f f0 b9 bd
       -0.11801919 -0.19339895 -0.12339291 -0.09078991

advantage_stream.0.weight f4 [64, 128]
000000 5f 9e 34 3e 90 61 90 3c d5 37 2f bd 56 33 7d bd
       0.17638539 0.017624646 -0.042777855 -0.061816536
000010 96 ed 0d 3e eb cb cc 3c 1d 63 ac bc e3 80 0e bc
       0.13860163 0.02499958 -0.021043355 -0.008697721
000020 c9 4c 78 3d e7 65 07 be c6 08 84 be f6 43 9a 3d
       0.060620103 -0.13222466 -0.25787944 0.07532494
000030 18 ed cf 3b 4d 10 52 bd 2d 84 ad 3d 61 5a cb bd
       0.0063454024 -0.051285077 0.08472476 -0.09929348
000040 a2 b8 f0 bd 30 dc be bd 73 9b 28 be a0 ff 28 3e
       -0.11753966 -0.09319341 -0.16465549 0.16503763
000050 76 74 1c 3e 7e 53 b9 bd b5 0a 8e 3d 26 43 61 bd
       0.15278801 -0.09049128 0.06935636 -0.05499568
000060 00 89 30 3e d2 ef 6d be d9 d7 51 3e 56 7e dc 3d
       0.17239761 -0.23236015 0.20492496 0.10766284
000070 40 94 c8 3c a8 6d 4d bd c9 e3 52 3e 72 a4 05 3e
       0.024484754 -0.050153404 0.20594706 0.13051012
000080 3b 8a 0c 3e 72 30 df bd b3 b0 c3 bd c3 31 2f bd
       0.13724606 -0.10897912 -0.09555187 -0.042772066
000090 aa ff 74 be c7 58 0b be 5f 04 11 bd 50 bb 06 3a
       -0.23925653 -0.13608085 -0.03540456 0.0005139606
0000a0 69 1f 00 3e 81 39 25 3e 86 a6 30 3c d0 49 35 3e
       0.12511982 0.16135217 0.01078189 0.17703938
0000b0 42 ed 09 be 36 7d 02 be 11 25 ac bd 2b 6f f2 bd
       -0.13469413 -0.12743077 -0.08405507 -0.1183761
0000c0 11 ab 25 be 85 d5 8e bb 64 f7 4c bd 10 0b b5 bc
       -0.16178538 -0.0043589496 -0.050040618 -0.022100002
0000d0 80 98 a4 bd 07 f4 1b 3e dd 0d 9f bd 97 76 b2 3d
       -0.080368996 0.15229808 -0.07766316 0.087140255
0000e0 de e9 1d be 57 81 bd 3c eb 53 12 3d 8a 24 58 bc
       -0.15421245 0.023132963 0.03572456 -0.013192305
0000f0 b7 68 72 bd 62 1b 80 3d 58 9d 90 3d 5a bb 09 3e
       -0.059181895 0.06255223 0.07061261 0.13450375
000100 8a 2c 29 be d7 17 18 3e c5 70 85 3d 80 e1 d0 bb
       -0.16520897 0.14852844 0.0651565 -0.006374538
000110 83 30 6f 3d 86 23 ec 3d 30 53 d1 bc 2e b3 c2 3d
       0.058395874 0.11530213 -0.025552362 0.09506832
000120 5c a9 0a be 72 96 de bd cc c3 81 3d 0b af 47 be
       -0.13541168 -0.10868539 0.063361734 -0.19500367
000130 d3 7b 38 3e ba 42 29 3d 51 bc 39 bd 22 62 24 be
       0.18015985 0.0413234 -0.04534561 -0.1605306
000140 c1 34 08 3c 4f 0f 29 3e 12 40 21 be 45 8e d3 bb
       0.008313359 0.16509746 -0.15747097 -0.006456169
000150 2b 0e 35 3e 46 43 d5 3d 1b 48 29 3e 0e 97 83 bd
       0.17681186 0.10413222 0.16531412 -0.06425296
000160 43 62 f6 bc e6 f6 b3 3d 40 2a 1c bd d2 ad 1b be
       -0.030076152 0.087873265 -0.03812623 -0.15203026
000170 1f f5 3b 3e f5 fd 21 be 89 d1 ce bd d8 14 ed 3b
       0.18355225 -0.15819533 -0.100985594 0.007235151
000180 25 5c 2b 3e 66 a1 ab bd a4 f7 0a be 58 dc 3e 3c
       0.16734369 -0.08380394 -0.1357103 0.011649214
000190 cb bd b8 bd 7f da cd 3d 30 cb 24 be ef ed 8f 3d
       -0.09020575 0.100514404 -0.16093135 0.07027804
0001a0 35 d3 1e 3e 86 dd 0a 3e f5 71 1c 3c 0c 87 0a 3d
       0.15510257 0.13561067 0.009548654 0.033820197
0001b0 c8 ef 1a be 5f ae ab 3d 05 14 6b 3c 53 da 21 be
       -0.15130532 0.08382868 0.014348035 -0.1580594
0001c0 be 34 0e be 78 0e 91 bd f6 db ed bd ab 43 03 3e
       -0.13887307 -0.07082838 -0.1161422 0.12818782
0001d0 5e 22 0c 3e 3d c1 da 3d 57 44 ae 3d 2b cb 85 bc
       0.13684985 0.106813885 0.085091285 -0.01633223
0001e0 9e ba 67 be c0 16 7f 3d 3a ee da 3c 21 84 c1 bd
       -0.22629783 0.062277555 0.026724923 -0.0944903
0001f0 fe 3a 09 3e 53 1f 8e bd 48 bd fc 3c 84 e9 0a be
       0.1340141 -0.06939568 0.030851975 -0.13565642
000200 28 dc 14 be d0 52 9a 3c 8e 5c 24 3e 35 37 25 3e
       -0.14537108 0.018838316 0.16050932 0.16134341
000210 2b 62 2f bd 20 13 3c 3d 34 90 27 be f3 48 e5 bd
       -0.04281823 0.045916677 -0.16363603 -0.111955546
000220 97 67 01 3e c4 ef dc 3c 36 d8 27 3d 13 0b dd 3c
       0.12637173 0.026969798 0.04097768 0.02698282
000230 e7 a3 9d bd 3a 88 14 3e bb ed 36 3e c3 38 8b 3d
       -0.076972775 0.14505091 0.17864124 0.06797936
000240 d0 09 2a 3e ee fd 4f 3d 71 34 04 3e 74 db ef bd
       0.16605306 0.050779276 0.1291063 -0.11711779
000250 e8 1f 6d 3d 56 0d 06 be 8b d0 e6 bc 7c a1 f9 bd
       0.057891756 -0.13091025 -0.028175613 -0.12189004
000260 4c 53 84 3d 9d db 30 be 77 83 62 bd 25 2d 82 bd
       0.064612 -0.17271276 -0.055301156 -0.06356267
000270 f7 88 e5 3d fd 88 01 be 0c 4a bd bd 56 d4 13 3e
       0.112077646 -0.12649913 -0.09242639 0.14436468
000280 fe 7e a8 3d 09 3a 0b 3e 8b 38 21 3e bb 41 dd bd
       0.08227347 0.13596357 0.15744226 -0.10803553
000290 e7 e4 2e 3d 39 07 0d be 28 3f 83 bd a1 e0 e0 bc
       0.042698767 -0.13772286 -0.064085305 -0.027450861
0002a0 11 16 b5 bd 48 8f 16 3d 82 2d ea 3c ea a9 05 3d
       -0.088420995 0.036757737 0.028586153 0.032632746
0002b0 67 27 be 3d 13 8c ae bc 00 86 0e 3e c1 33 92 bc
       0.09284859 -0.021307027 0.13918304 -0.017846944
0002c0 26 7d 03 3e b7 4d 11 3e b8 8c 22 3e 53 9b ae bd
       0.12840709 0.14189802 0.15873992 -0.085257195
0002d0 a4 71 8b bd a5 8e 0f be e3 1a 9f bd 49 59 29 3e
       -0.068087846 -0.14019258 -0.077688 0.16537966
0002e0 40 be 51 bc 12 17 d3 bd e5 71 03 be 86 b9 0a be
       -0.012801707 -0.10307135 -0.12836416 -0.13547334
0002f0 2e e3 c7 bd 80 2d 73 3d d0 48 b8 bd 20 56 88 bd
       -0.09760128 0.059369564 -0.08998263 -0.06657052
000300 bb 7d 1b be c6 86 2b be f3 83 bf bd 4d de 28 be
       -0.15184681 -0.1675063 -0.09351339 -0.16491051
000310 7b 3b 92 bc 2c 25 80 bd 7a ca ac bd 1f 11 ec bd
       -0.017850628 -0.0625709 -0.08437057 -0.11526703
000320 e8 5c 80 3d 59 c0 a4 3d af 88 1f bd 3e 8e 84 3d
       0.062677205 0.080445 -0.03894871 0.06472443
000330 4d e5 1e 3e 87 42 66 bd 82 3a d3 bd 91 b8 ec 3d
       0.15517159 -0.05621579 -0.10313894 0.11558641
000340 f6 7c 39 bd aa f9 8d bd 95 fc e5 3d e7 f9 55 3d
       -0.045285188 -0.06932385 0.11229817 0.05224028
000350 e5 3b f4 bd 0d df 2a 3d 2f ef 9d 3d 67 c1 2c 3e
       -0.119254865 0.041716624 0.07711636 0.16870652
000360 ac 69 b8 bd 3e 00 b7 3d bb 9e f5 bc 20 a7 6c 3c
       -0.0900453 0.08935593 -0.029982915 0.014444143
000370 80 ab 2b be cf ab 24 be c5 70 c0 3d bb 6b 9f ba
       -0.16764641 -0.16081165 0.09396509 -0.0012162843
000380 77 ca ac 3d ab 8d e4 bd 27 fd 06 3e 15 79 8e bd
       0.084370546 -0.111598335 0.13182507 -0.06956688
000390 9c 73 f4 bd aa 22 1a 3e 0b 87 d4 bd d7 2e d9 bd
       -0.11936113 0.15052286 -0.1037732 -0.10604637
0003a0 16 c6 16 be f1 b7 98 3d 69 6b 76 bc e3 85 1d bc
       -0.14724001 0.07456959 -0.015040257 -0.009614441
0003b0 00 30 71 3d c4 9a 4a bd 0c da 02 3d eb 38 c7 bd
       0.058883667 -0.049464002 0.031946227 -0.09727653
0003c0 a0 ec 30 bd 95 8b bf 3d e4 8c 5a 3d 61 10 f8 3d
       -0.043194413 0.09352795 0.05335702 0.12112499
0003d0 c6 b3 30 3e 8b 2e f7 3d 3b 9a 96 bd 37 48 15 be
       0.17256078 0.12069424 -0.07353636 -0.14578329
0003e0 cd f3 a2 bd d7 9b a7 bc df 6c 2f 3e 6e 42 a7 3c
       -0.079566576 -0.020460052 0.17131375 0.020417418
0003f0 2b 78 e7 bc ff 4d 06 3e 91 22 89 3d 11 c4 11 3e
       -0.028255543 0.1311569 0.06696046 0.1423495

advantage_stream.0.bias f4 [64]
000000 88 7d 8a bc 4e 8a a8 ba e7 82 77 3c 70 44 90 3c
       -0.016905561 -0.0012858601 0.015106893 0.017610759
000010 04 a1 90 bc 6a 19 15 bc 42 a4 98 3c 37 31 c3 3c
       -0.017654903 -0.0091002975 0.018633012 0.023827178
000020 30 f2 ee bc d4 83 df 3b 0b e0 97 3b 29 17 fa 3b
       -0.029168218 0.006821135 0.0046348623 0.0076321554
000030 d3 28 ac ba b4 a9 88 bc 52 55 89 bb 69 30 1a 3c
       -0.0013134725 -0.016682483 -0.004191079 0.009410956
000040 a4 37 c3 3b 48 45 a1 3b c6 ec d2 bb dc 0c a9 bc
       0.0059575606 0.004921589 -0.006436917 -0.020636015
000050 00 00 00 00 38 0f 9d bc fe 91 8a bc 90 36 95 bb
       0.0 -0.019172296 -0.016915318 -0.0045536235
000060 45 26 8f bb 43 f2 f2 bc b8 d3 0a bc 23 24 74 bc
       -0.0043685758 -0.029656535 -0.008473329 -0.014901194
000070 8b 11 5e bc d1 67 cb bb 4b 59 92 3c a5 de 85 bb
       -0.013553987 -0.0062074442 0.017864844 -0.004085379
000080 df 49 70 bc 00 00 00 00 a4 3b e6 3b 01 64 0d 3c
       -0.01466605 0.0 0.0070261527 0.0086298
000090 e5 2e b7 3c 83 19 61 bc 84 32 29 3c f4 4d 6a bc
       0.022361228 -0.013738993 0.010326985 -0.014300812
0000a0 eb dd 94 bc e1 f6 13 bc 3d a9 88 bb 45 ea 07 3b
       -0.018172225 -0.0090310285 -0.0041705654 0.0020739
0000b0 49 4c d5 3c e2 48 59 3c 4d de 73 3c b2 54 9c bc
       0.026037352 0.0132620055 0.014884544 -0.019083355
0000c0 23 c9 c4 bb c1 72 82 3c fe d8 87 ba 22 ec 3a bc
       -0.0060054227 0.01592386 -0.0010364351 -0.0114088375
0000d0 2f ca 5d bc 27 30 3f bc 33 c0 05 bc ca f2 0d bc
       -0.013536974 -0.011669195 -0.0081635 -0.008663842
0000e0 05 a0 43 bc d7 8c e5 3c f2 d1 75 3b 1e ae 1e 3c
       -0.011940007 0.02802126 0.003750917 0.009685067
0000f0 7a b3 b9 bb 21 09 98 bc 1d 2d 5b bc 2c 82 49 bc
       -0.005667147 -0.01855904 -0.013377455 -0.012299102

advantage_stream.2.weight f4 [2, 64]
000000 2d ed 7d 3e 17 7d 86 3d c9 3d 80 3e 17 c4 77 3d
       0.24797507 0.06566828 0.25047138 0.06048974
000010 f2 1b 2a be 97 2e 93 be e1 fd 8e be a9 c9 89 3e
       -0.16612223 -0.28746483 -0.2792807 0.26911667
000020 87 aa 8f 3e f7 43 18 3e de 0d 1e 3e 1c 27 06 3e
       0.2805979 0.14869677 0.15434977 0.13100857
000030 9d ce 12 3e e1 97 81 bd 4c 04 00 bd fa 3c 1f 3e
       0.14336629 -0.06327797 -0.031254098 0.15550604
000040 f7 f0 03 3e 0f be 4e 3e df eb a8 3c 1e 29 7c be
       0.1288489 0.20189689 0.020620285 -0.2462506
000050 1a a0 3e be c1 7e f7 bd 8b 8c 4c 3e 79 35 8f 3d
       -0.18615761 -0.12084723 0.19975488 0.06992621
000060 3a 41 81 be 81 fe 56 3d 1e f9 e9 3d 22 c0 a7 3d
       -0.25245076 0.052488808 0.114244685 0.08190943
000070 25 76 73 be 6e 4a 83 bd 04 7e 5f 3e 1b 4d 84 3e
       -0.23775537 -0.06410681 0.21825415 0.25840077
000080 03 3e 9e 3b 20 f7 92 3d bc a0 28 be 36 c8 b0 bd
       0.0048291697 0.071760416 -0.16467565 -0.08631937
000090 35 9d 1a 3e f6 c2 45 3e 31 29 4e 3e 29 f4 8c 3d
       0.15099032 0.19312653 0.20132901 0.06882507
0000a0 ec b1 d4 3d 80 0e ff 3d 01 e8 6d 3d 1f fa a2 3e
       0.103854984 0.124539375 0.058082584 0.31831452
0000b0 d1 ef 8d 3d 3d bf 3c be 80 15 14 3d 78 5f 8c be
       0.06930507 -0.18432327 0.036153316 -0.27416587
0000c0 36 59 e8 3d f3 20 69 bd fd eb 9a be e4 ef 89 be
       0.11345141 -0.05691619 -0.3025817 -0.26940835
0000d0 2a 24 2c 3e 3a 8a 2f 3e 0f 31 97 be e6 39 c5 bd
       0.1681067 0.17142573 -0.29529616 -0.09630184
0000e0 97 82 45 3e a4 e1 20 3d de 47 58 bd 20 6b 77 3e
       0.19288097 0.039277688 -0.052802913 0.24161959
0000f0 58 a8 09 3d 48 a1 4f 3e 5b a0 93 3e ff 88 ad bc
       0.03360781 0.20276368 0.2883328 -0.021183489
000100 e6 d8 8a 3e a5 94 82 be 63 d2 65 be 67 1f 96 be
       0.27118605 -0.25504032 -0.22443537 -0.29320833
000110 24 07 fb 3d a8 ab 6a 3e 15 9a 97 bd 27 fc 32 3d
       0.12257221 0.22917044 -0.07402436 0.043697502
000120 7f e7 ae 3b f1 e9 d9 bd 5d 6c 32 be 2a 82 26 be
       0.005337655 -0.10640324 -0.1742415 -0.16260591
000130 91 33 10 3e 6b 80 c6 3d 9c 4a 0e 3c e2 90 03 be
       0.14082171 0.096924625 0.00868478 -0.12848237
000140 45 5f 69 be ae a6 8a be 77 e4 43 be 79 ec 57 3e
       -0.22790249 -0.27080292 -0.19130121 0.21086301
000150 1c ae 1f be f5 f8 9a 3d 11 8e 39 b9 69 6e 0a be
       -0.15593761 0.07567016 -0.00017695899 -0.1351868
000160 9e 11 4c 3e b2 b7 0c 3e c4 75 27 3e b0 93 15 3e
       0.19928595 0.13741949 0.16353518 0.1460712
000170 25 bf 90 3e 8a f3 1e 3e a2 de 55 be 26 b2 e9 bd
       0.28270832 0.1552259 -0.20885709 -0.11410932
000180 79 36 7a 3e 20 41 3a 3e cc c6 61 be 5e 2b 4b 3e
       0.24434842 0.18188906 -0.22048491 0.19840762
000190 2d 52 63 be b8 19 8c 3e 8f 99 1c be 45 41 80 3d
       -0.22199316 0.27363372 -0.15292953 0.06262449
0001a0 58 2b 1a 3e dd 29 99 3e c8 c3 98 3c a1 e4 d9 3c
       0.15055597 0.29914752 0.018648043 0.026598277
0001b0 83 f9 40 bd 4e 78 8c be 45 2e 33 3e 58 59 e2 3c
       -0.047112953 -0.27435535 0.17498119 0.027630493
0001c0 55 40 77 be 27 26 7f be 86 14 54 be e0 c7 36 3e
       -0.24145634 -0.24916898 -0.20710954 0.17849684
0001d0 60 98 64 3e 94 b2 77 3e e6 79 97 be 36 37 e6 bc
       0.22323751 0.24189216 -0.2958519 -0.028102499
0001e0 b6 67 84 3e 66 9b 92 be 63 24 c0 3d 0c 6a ac be
       0.25860375 -0.28634185 0.0938194 -0.33674657
0001f0 bf a1 40 be e5 07 42 be 3a d1 d9 3c 7b 8e e5 bd
       -0.18811701 -0.18948324 0.026589025 -0.112088166

advantage_stream.2.bias f4 [2]
000000 db fc 5c 3c db fc 5c bc
       0.01348802 -0.01348802
