CartPoleHighRewardIn2026/checkpoints/checkpoint_ep200_reward104.00.pt (torch, 421217 bytes, 33 tensors)

feature_layer.0.weight f4 [128, 4]
0	0x3dc7bbc4	0.0975261
1	0xbe01e294	-0.12684089
2	0xbeb89d8e	-0.36057705
3	0x3dbb00d2	0.09131016
4	0xbd1d980e	-0.03847509
5	0x3d38cebe	0.04511904
6	0x3e08e520	0.13368654
7	0xbdfb78ab	-0.12278875
8	0xbe0d86ab	-0.13820903
9	0x3c9d91e5	0.019234607
10	0xbefbe85e	-0.4920072
11	0xbe1fcf90	-0.15606523
12	0x3d07db9c	0.03316842
13	0xbd939065	-0.072052754
14	0x3e406c84	0.18791395
15	0xbd906dfb	-0.07052227
16	0x3d3b6736	0.045752726
17	0xbc9e3fbf	-0.019317506
18	0x3f3069c8	0.6891141
19	0x3d3220d3	0.043488335
20	0xbdad0ddd	-0.0844991
21	0x3da72d92	0.08162989
22	0xbe876adc	-0.26448715
23	0xbd325fe5	-0.043548483
24	0x3c2208d4	0.0098898
25	0x3c893a07	0.016751302
26	0x3de1a413	0.11017623
27	0x3cb6f58b	0.02233388
28	0xbd720e82	-0.059095867
29	0x3dd5f609	0.10447318
30	0xbe09a1ac	-0.13440579
31	0x3db78507	0.0896092
32	0xbe5d7ef6	-0.21630463
33	0x3dd97cf0	0.10619533
34	0x3eabeac4	0.3357755
35	0xba7da940	-0.00096764043
36	0x3e3af949	0.18259157
37	0xbda6cd04	-0.081445724
38	0xbe68bd27	-0.22728406
39	0xbdb528fb	-0.08845707
40	0x3ce26a0e	0.027638461
41	0xbe2ba35a	-0.16761532
42	0xbe108bed	-0.14115877
43	0xbdeeeb49	-0.11665971
44	0x3e703331	0.23457028
45	0x3ddae328	0.10687858
46	0x3e8b9179	0.27259424
47	0x3df5dd42	0.12005092
48	0x3b3fa6e3	0.002924376
49	0xbca5a38a	-0.020219583
50	0x3e85e612	0.26152092
51	0x3c94de64	0.01817245
52	0x3dee8a0e	0.116474256
53	0x3e22a7d2	0.15884331
54	0xbedea10f	-0.43482253
55	0x3d4bec3c	0.049785838
56	0x3de0416a	0.10949977
57	0x3d2e626b	0.042574327
58	0x3da46af8	0.08028215
59	0xbc8711fe	-0.016488072
60	0xbd654928	-0.05597797
61	0xbd570efe	-0.052504532
62	0x3e9f1759	0.310725
63	0xbe3fee72	-0.18743303
64	0x3cb45dfd	0.022017473
65	0xbc9c5dd3	-0.019087708
66	0x3e2f136c	0.17097253
67	0xbd171742	-0.036887415
68	0xbdfd961b	-0.12382146
69	0x3da4ecb2	0.080529585
70	0xbea306b2	-0.31841046
71	0x3d832142	0.06402828
72	0xbd3dc53f	-0.046330687
73	0x3cf8b803	0.030361181
74	0x3eeef433	0.46670684
75	0x3dd8761c	0.105694026
76	0xbdb3d38e	-0.08780585
77	0xbd909a1a	-0.070606425
78	0x3f23f4e0	0.64045525
79	0xbdbed878	-0.09318632
80	0x3d15b821	0.036552552
81	0xbcd4b491	-0.025965007
82	0xbf05f457	-0.5232596
83	0xbd9f7601	-0.07786179
84	0x3d9df996	0.0771362
85	0xbc257e5c	-0.010100927
86	0x3ebb2b9a	0.36556703
87	0x3e3dae25	0.18523462
88	0x3d3fe7c4	0.04685189
89	0xbccd73d6	-0.025079649
90	0xbecf5d30	-0.40500784
91	0xbdb37bed	-0.08763871
92	0xbca0c625	-0.019625733
93	0xbc74ad2f	-0.014933868
94	0x3e9932f5	0.2992169
95	0xbd564bde	-0.052318446
96	0x3ddb08aa	0.10695012
97	0xbccd3d62	-0.025053684
98	0xbde2b0e8	-0.110688984
99	0x3d217a62	0.039423354
100	0xbdb59401	-0.0886612
101	0x3dafd908	0.08586317
102	0xbeae981a	-0.3410042
103	0x3e091c3f	0.13389681
104	0xbd810824	-0.06300381
105	0xbd3d0eec	-0.04615681
106	0x3f2a631e	0.6655749
107	0x3d9173db	0.07102176
108	0xbe6875cd	-0.22701187
109	0xbceea7fc	-0.029132836
110	0xbdcf027a	-0.10107894
111	0x3e182322	0.14857152
112	0xbd628759	-0.05530486
113	0xbad0649c	-0.0015899125
114	0xbe91fd8f	-0.28513762
115	0xbdf8e21a	-0.121525005
116	0xbd71806f	-0.058960374
117	0x3d861731	0.06547392
118	0xbcaaa1af	-0.02082905
119	0x3d87f7f6	0.06639092
120	0x3e6dfb80	0.23240471
121	0xbe2bd829	-0.16781677
122	0x3ea85d8a	0.32883865
123	0x3d7f5e36	0.062345706
124	0x3cc652df	0.024209438
125	0x3c3abd50	0.011397675
126	0x3f18e7ee	0.59728897
127	0x3db1fa37	0.08690303
128	0x3cbf7b94	0.023374356
129	0xbd1655a9	-0.036702786
130	0x3e001b1f	0.12510346
131	0xbdb74520	-0.089487314
132	0x3d2a92de	0.04164397
133	0xbe0e3c8e	-0.13890287
134	0xbeabe02c	-0.33569467
135	0xbb6c15f9	-0.003602384
136	0xbd2932c3	-0.041308176
137	0xbe904ab3	-0.2818199
138	0xbe941ae0	-0.28926754
139	0xbe4bf899	-0.19919051
140	0x3e16143c	0.14656156
141	0xbdce798f	-0.10081779
142	0xbc41884a	-0.011812279
143	0x3c56216e	0.013069494
144	0xbd8344a2	-0.06409575
145	0x3c80e8cb	0.015736004
146	0x3e4cb45c	0.19990677
147	0xbda186ec	-0.078870624
148	0xbdbd02b1	-0.09229029
149	0x3dd389ff	0.10329055
150	0x3ef6dd04	0.48215497
151	0x3db4597c	0.0880613
152	0x3e031f1a	0.12804833
153	0xbdcab3ed	-0.09897599
154	0x3f28e1e8	0.65969706
155	0xbc3b6e4f	-0.011439874
156	0xbd8b26a9	-0.06794483
157	0x3c8445a4	0.016146488
158	0x3e9f3add	0.31099597
159	0xbe471a62	-0.19443658
160	0x3e323dab	0.17406337
161	0x3c78052f	0.015137955
162	0x3e421de6	0.18956718
163	0xbe402743	-0.18764977
164	0x3e0047aa	0.12527338
165	0x3e6d36bc	0.23165411
166	0x3e0997a5	0.13436754
167	0x3e03e14d	0.12878914
168	0xbe589771	-0.2115152
169	0x3d05454c	0.03253679
170	0xbea189a0	-0.31550312
171	0xbe2a21a5	-0.16614397
172	0x3db1ca53	0.086811684
173	0x3de89461	0.11356426
174	0xbb99d13b	-0.0046941317
175	0x3d7b01cb	0.061281007
176	0xbd8a716e	-0.06759916
177	0xbe147bab	-0.145003
178	0x3ea4104f	0.32043692
179	0x3e186ecf	0.1488602
180	0xbcf83615	-0.030299226
181	0xbe3b46c5	-0.18288715
182	0xbe9babac	-0.30404413
183	0xbe0aef05	-0.13567741
184	0x3e8d3962	0.27582842
185	0xbdcb0d83	-0.099146865
186	0x3e361b13	0.17783765
187	0xbd8c1bc6	-0.06841235
188	0xbd5c4c59	-0.05378375
189	0xbe4e5339	-0.20148934
190	0x3e8e1996	0.27753896
191	0xbe00a7bf	-0.1256399
192	0xbd16df80	-0.03683424
193	0x3d1978ad	0.0374686
194	0xbf1bb604	-0.6082461
195	0x3cbc48df	0.022983966
196	0x3d474f92	0.04865987
197	0xbd0a11b5	-0.033708293
198	0xbf2f051d	-0.6836718
199	0xbdfc293e	-0.12312554
200	0x3e26ee3f	0.16301821
201	0xbda75911	-0.08171285
202	0x3f02742e	0.50958526
203	0x3e086be4	0.13322407
204	0x3cad826f	0.02118036
205	0x3d4c4d62	0.049878486
206	0xbe293d7f	-0.16527365
207	0xbde7b5f1	-0.113139994
208	0x3d9422c6	0.07233195
209	0x3ce093bd	0.027414197
210	0xbdd2f741	-0.10301066
211	0xbe15bfca	-0.14623943
212	0xbddd916c	-0.10818753
213	0x3e21c95a	0.15799466
214	0x3e3a34eb	0.18184249
215	0xbdee2f86	-0.11630158
216	0x3e0a6e1a	0.13518563
217	0xbdcc4282	-0.09973623
218	0xbe3860da	-0.18005696
219	0x3c40b0da	0.011760915
220	0xbd504c10	-0.05085379
221	0x3cec5ac3	0.028851872
222	0x3ec5eb33	0.38656005
223	0x3e3ad994	0.18247062
224	0xbd992cd2	-0.07479252
225	0xbe26d5ec	-0.16292542
226	0x3d90f53b	0.07078024
227	0x3e338f58	0.1753515
228	0x3e313c81	0.17308237
229	0x3e065334	0.13117677
230	0xbee41e27	-0.44554254
231	0x3dc0bed5	0.09411398
232	0x3e025421	0.12727405
233	0xbdbbecfb	-0.0917606
234	0xbf13cc6b	-0.5773379
235	0xbe3e3ac3	-0.18577103
236	0xbbd2c11e	-0.006431713
237	0xbd087bc1	-0.033321146
238	0x3ea8775b	0.3290356
239	0xbe22f256	-0.15912756
240	0x3ba5144a	0.005037819
241	0xbbaaf2f5	-0.005216951
242	0xbf223b14	-0.63371396
243	0xbd8a4499	-0.06751365
244	0xbd20c936	-0.03925439
245	0xbe006c6b	-0.12541358
246	0x3f17eac3	0.5934259
247	0x3e2ed955	0.17075093
248	0x3a3afd0b	0.0007133043
249	0xbbd0dd86	-0.006374064
250	0x3eed6cf0	0.46372175
251	0x3d6525a2	0.055944093
252	0xbdb44b4f	-0.088034265
253	0xbdb6e552	-0.08930458
254	0x3dbc2395	0.09186474
255	0x3d0ae32c	0.033908054

feature_layer.0.bias f4 [128]
0	0x3bcbf2ae	0.006223998
1	0xbe170de0	-0.14751387
2	0xbd4a3e54	-0.049375847
3	0x3e148623	0.14504294
4	0xbc7ae514	-0.015313406
5	0x3df86850	0.12129271
6	0x3dd14993	0.10219111
7	0x3e0d3974	0.13791448
8	0x3d53324f	0.05156165
9	0x3de2c913	0.11073508
10	0xbd96716f	-0.073458545
11	0x3d80b2ea	0.06284125
12	0x3d9576f8	0.07298082
13	0x3db44d80	0.088038445
14	0x3cbe4abb	0.023228994
15	0xbde37a30	-0.1110729
16	0x3e0d8616	0.13820681
17	0x3d1d3734	0.038382724
18	0xbdeca1c0	-0.11554289
19	0x3de53102	0.11190988
20	0xbde2158d	-0.11039267
21	0xbde68f04	-0.11257747
22	0xbd669277	-0.056292024
23	0x3dcd3c6f	0.100212924
24	0xbdffeb76	-0.124960825
25	0xbc4ca80a	-0.0124912355
26	0xbd82ed4e	-0.063929185
27	0x3dac6897	0.084183864
28	0xbdd0ca1c	-0.10194799
29	0xbd52ac60	-0.05143392
30	0xbda4f49c	-0.08054468
31	0xbd9a5e8a	-0.07537563
32	0x3ce472b6	0.02788673
33	0x3d6a924e	0.057268433
34	0xbe313992	-0.17307118
35	0x3ccbf9bc	0.024899356
36	0xbd6e557d	-0.058186997
37	0x3dbeed39	0.093225904
38	0xbd374c97	-0.044750776
39	0x3c1e2fdc	0.009654965
40	0x3dc65a09	0.096851416
41	0xbe094407	-0.13404857
42	0xbe249920	-0.16074038
43	0xbc4d39f9	-0.012526029
44	0xbe2cebe2	-0.16886857
45	0x3db8cac4	0.090230495
46	0x3c2c611e	0.010521201
47	0x3d401a2d	0.046899963
48	0xbda9c05a	-0.08288641
49	0xbe1d11d9	-0.1533884
50	0xbd88b944	-0.066759616
51	0x3d6033a3	0.054736745
52	0xbe0f9f9c	-0.1402573
53	0x3d3193a2	0.043353684
54	0x3dd2b5c9	0.10288579
55	0xbe029237	-0.12751089
56	0xbdc71436	-0.09720652
57	0x3d937b4c	0.072012514
58	0xbe2ea28c	-0.17054194
59	0x3b400a7c	0.0029303124
60	0xbdf91ff5	-0.121642984
61	0xbd90718c	-0.07052907
62	0xbdb3d0a3	-0.08780029
63	0x3d181fed	0.03713982
64	0xbdf7ec58	-0.12105626
65	0x3e187d28	0.14891493
66	0xbe1cfa70	-0.1532991
67	0x3dfd5e28	0.123714745
68	0xbde1628d	-0.11005125
69	0x3da09a70	0.078419566
70	0xbe0ef743	-0.1396151
71	0x3d9d18c0	0.07670736
72	0x3ca7f6d4	0.020503439
73	0x3dfe25bb	0.1240954
74	0xbde81c73	-0.11333551
75	0xbdd8a4ec	-0.10578331
76	0xbdc09f82	-0.09405424
77	0x3d86f0eb	0.0658892
78	0xbdfd5c18	-0.12371081
79	0x3da56884	0.080765754
80	0xbe12219d	-0.14270635
81	0x3c6ebfe5	0.014572118
82	0xbdb6d1b1	-0.08926714
83	0xbdf07ccf	-0.11742555
84	0xbbb8c089	-0.0056381864
85	0x3d2141e1	0.039369468
86	0xbd830adb	-0.06398555
87	0x3d9f42e5	0.07776431
88	0x3d95b194	0.07309261
89	0xbd539e07	-0.05166438
90	0xbd65cb2e	-0.05610197
91	0x3bc81158	0.006105583
92	0xbd439959	-0.047753666
93	0x3db6d7cd	0.089278795
94	0xbdaab0f9	-0.08334536
95	0xbe07aeeb	-0.1325032
96	0xbe3059c3	-0.17221741
97	0xbdf59a8f	-0.1199237
98	0x3d164759	0.036689136
99	0xbd47f344	-0.04881598
100	0x3d0fa83c	0.03507255
101	0x3dfba889	0.12288005
102	0xbe05288c	-0.13003749
103	0x3c850d38	0.016241655
104	0x3d6ed900	0.058312416
105	0xbe147958	-0.14499414
106	0xbe23a51d	-0.15980954
107	0xbdef08da	-0.1167161
108	0xbdcbc833	-0.09950294
109	0x3d96b8c0	0.07359457
110	0x3dbade19	0.09124393
111	0x3dbd65dd	0.092479445
112	0x3d969433	0.073524855
113	0xbdbde366	-0.092718884
114	0x3e118ed0	0.14214635
115	0xbd4f95a5	-0.05067982
116	0xbd35d278	-0.04439017
117	0xbdb75e85	-0.08953575
118	0x3e098305	0.13428886
119	0x3d91c845	0.071182765
120	0x3d711ebe	0.05886721
121	0x3cdfc24b	0.027314326
122	0xbe136c01	-0.14396669
123	0xbe1e6f0b	-0.15472047
124	0x3db99ead	0.09063468
125	0xbd99c525	-0.075083055
126	0x3d132fde	0.03593432
127	0xbd555190	-0.052079737

feature_layer.2.weight f4 [128, 128]
0	0xbd7d3436	-0.06181737
1	0xbda76969	-0.08174402
2	0xbe1693af	-0.14704774
3	0x3e9d2bd9	0.30697516
4	0x3dcc825e	0.09985803
5	0xbdf56847	-0.1198278
6	0x3e078231	0.13233258
7	0x3d3264e0	0.043553233
8	0x3e0dd217	0.13849674
9	0xbcb7adf5	-0.022421816
10	0x3c327f4a	0.010894606
11	0x3e19aca8	0.1500727
12	0x3db0a1a0	0.086245775
13	0xbe3bd927	-0.18344556
14	0x3e44a487	0.19203387
15	0xbe39617c	-0.18103594
16	0x3e6dd2da	0.23224965
17	0xbdb52b66	-0.08846168
18	0x3e668c33	0.2251442
19	0x3ebbf668	0.3671143
20	0xbf0ead65	-0.5573333
21	0x3ca15424	0.019693442
22	0x3e2eeb38	0.17081916
23	0x3e13532e	0.143872
24	0x3d9f75dc	0.07786152
25	0xbe0df33d	-0.1386232
26	0x3d97c8ed	0.074113704
27	0xbc7e470d	-0.0155198695
28	0xbd9a18c2	-0.075242534
29	0xbdff4745	-0.124647655
30	0x3dc20ea9	0.094754525
31	0x3dcc1db9	0.09966607
32	0x3d6d1ee9	0.057890806
33	0xbdfb797a	-0.12279029
34	0xbe65f954	-0.22458392
35	0x3e1cd03e	0.15313813
36	0xbb804a63	-0.0039151176
37	0x3d411865	0.047142405
38	0x3e02ba8e	0.12766477
39	0xbe110c27	-0.14164792
40	0x3d483a0c	0.048883483
41	0x3db7e61f	0.08979439
42	0xbe2323d1	-0.15931632
43	0x3e234bbd	0.1594686
44	0x3db62b1a	0.0889494
45	0x3d4e6db5	0.050397594
46	0x3d08d987	0.033410575
47	0x3df3c47c	0.11902711
48	0xbf269ed1	-0.65086085
49	0xbf2e41a7	-0.6806893
50	0x3dfb2fd4	0.12264982
51	0x3d298171	0.04138321
52	0xba107ce4	-0.0005511774
53	0xbdbd341c	-0.09238455
54	0x3ce72c50	0.028219372
55	0x3ccdc545	0.02511848
56	0xbd04ecdc	-0.03245245
57	0x3d7f9a39	0.062402938
58	0xbf2f7fcf	-0.68554395
59	0x3d87f136	0.06637804
60	0xbf3e6c4a	-0.74383986
61	0x3e15ecf4	0.14641172
62	0x3e05a88f	0.13052581
63	0x3d84736b	0.06467327
64	0x3dc68351	0.09693015
65	0xbe03dd34	-0.12877351
66	0xbee1d692	-0.44109017
67	0x3e584aef	0.21122335
68	0xbe9c706b	-0.30554518
69	0x3d893d0b	0.06701096
70	0x3db3396b	0.08751186
71	0x3e17816c	0.14795464
72	0x3db898ec	0.090135425
73	0xbd7afd73	-0.061276864
74	0x3db982bf	0.09058141
75	0x3ef00553	0.46879062
76	0x3f0509c6	0.5196804
77	0x3d8fb5c6	0.070170924
78	0x3e8e2ee5	0.27770153
79	0x3e4a284e	0.19741938
80	0x3f08ab01	0.5338593
81	0x3b1de4fe	0.0024092789
82	0xbe38da79	-0.1805209
83	0xbe7e56ac	-0.2483775
84	0x3da71b28	0.081594765
85	0x3dd66329	0.10468132
86	0xbe45d3fa	-0.19319144
87	0x3c091362	0.008366438
88	0x3e65984b	0.22421376
89	0xbdd915d2	-0.10599865
90	0xbdc721d7	-0.09723251
91	0x3d5ff52a	0.054677166
92	0x3c8cb646	0.017176758
93	0x3ade3b29	0.0016954887
94	0x3e3be094	0.18347389
95	0xbd83fa24	-0.06444195
96	0x3c972f89	0.018455284
97	0x3e29123f	0.16510867
98	0xbdf79bbe	-0.12090252
99	0x3d553dd9	0.052060936
100	0x3e0c1208	0.13678753
101	0x3cabfb5f	0.020993887
102	0x3dcc5304	0.099767715
103	0xbd144567	-0.036199
104	0x3dc7429c	0.097295016
105	0xbf07c286	-0.53031194
106	0x3eb3b63c	0.3509997
107	0xbf502d8f	-0.81319517
108	0x3e30f57e	0.17281148
109	0xbd4c366d	-0.049856592
110	0x3dd95677	0.10612195
111	0x3d4c8212	0.049928732
112	0x3e449867	0.19198762
113	0xbed4bbec	-0.41549623
114	0x3d9ad516	0.07560174
115	0x3bc1adab	0.0059105954
116	0xbcbf78f9	-0.023373114
117	0xbe552687	-0.20815478
118	0x3e2e7ce1	0.17039825
119	0xbd9ec42c	-0.077522606
120	0xbd8856f7	-0.06657212
121	0xbd5199bd	-0.051172007
122	0xbea7d94f	-0.3278298
123	0xbdaa8a1e	-0.08327125
124	0x3e4139b9	0.18869676
125	0xbe0677c2	-0.13131621
126	0x3e61645c	0.2201094
127	0xbea42026	-0.32055777
128	0x3d15958a	0.036519565
129	0xbd9a27e7	-0.07527142
130	0xbd971b2e	-0.07378231
131	0xbdb979f4	-0.09056464
132	0x3d7366d1	0.059424225
133	0xbdc12095	-0.09430043
134	0x3d880c0b	0.06642922
135	0x3d229086	0.03968861
136	0x3d4299dc	0.047510013
137	0x3db581b4	0.088626295
138	0x3c6f063c	0.014588889
139	0xbdbae13a	-0.0912499
140	0x3d1c7fb8	0.03820774
141	0x3dce4a46	0.1007276
142	0x3df6e5cd	0.1205555
143	0xbe2854ce	-0.164386
144	0x3d1bbc09	0.03802112
145	0xbd86aad0	-0.06575549
146	0x3de5f002	0.112274185
147	0xbd966755	-0.07343928
148	0xbd3bf330	-0.04588622
149	0x3d179213	0.03700454
150	0xbe0d133e	-0.13776872
151	0x3c8d155d	0.0172221
152	0x3d8e8242	0.069584385
153	0xbd3e5250	-0.046465218
154	0xbe1fe909	-0.1561624
155	0xbe345c38	-0.17613304
156	0xbe02530b	-0.12726991
157	0xbe1fc5f6	-0.1560286
158	0x3d8a3600	0.06748581
159	0xbd574a53	-0.052561115
160	0xbd588cdc	-0.05286871
161	0x3dd31ee6	0.10308628
162	0x3c468210	0.01211597
163	0xbdfb982a	-0.12284882
164	0xbcae5136	-0.021278959
165	0x3d11a105	0.03555395
166	0xbd98d7ac	-0.07463011
167	0xbc22fc85	-0.009947901
168	0xbd4cf494	-0.050037935
169	0xbe074edd	-0.13213678
170	0xbe1b35b2	-0.15157202
171	0xbdd7127a	-0.10501571
172	0x3da091d6	0.07840316
173	0x3e025bcd	0.12730332
174	0xbdde96f9	-0.108686395
175	0x3da7c8b1	0.08192576
176	0xbdc855d6	-0.09781997
177	0xbd527c72	-0.05138821
178	0x3a8464e0	0.0010100864
179	0x3d284eab	0.04109065
180	0x3cd1b66b	0.025599679
181	0xbe29fca1	-0.16600277
182	0x3d0274c0	0.031849623
183	0xbe2b27a9	-0.16714348
184	0x3e05280c	0.13003558
185	0x3e03b3ac	0.12861508
186	0xbe22aaa2	-0.15885404
187	0x3ce9d226	0.02854259
188	0x3dacb37a	0.0843267
189	0xbde7bc94	-0.11315265
190	0x3d07f017	0.033187952
191	0xbdcc7fb9	-0.09985299
192	0xbddeb6f0	-0.10874736
193	0xbd9a2473	-0.075264834
194	0xbd850045	-0.06494192
195	0xbe15b2e8	-0.14619029
196	0x3c1cdacb	0.009573649
197	0x3e152de5	0.14568289
198	0x3c86f4f9	0.016474234
199	0xbc72d399	-0.014820957
200	0xbe367c85	-0.17820938
201	0x3d1c354e	0.038136773
202	0x3dc73368	0.09726602
203	0xbc914c5b	-0.017736604
204	0x3e17184f	0.14755367
205	0x3e005ec2	0.12536147
206	0x3d44f4e8	0.048085123
207	0xbe1aa875	-0.15103324
208	0xbd68dbe2	-0.05685032
209	0xbd935f49	-0.071959086
210	0xbd582f78	-0.052779645
211	0xbddfd4d0	-0.10929263
212	0xbd5d77e8	-0.05406943
213	0xbd9ff28f	-0.07809936
214	0xbd853a7f	-0.06505298
215	0xbe1e70c3	-0.15472703
216	0xbe02c57d	-0.12770648
217	0x3d8dcb5f	0.069235556
218	0x3df29a7e	0.11845873
219	0x3ded0f06	0.11575131
220	0x3d94e5e1	0.072704084
221	0xbe264245	-0.16236217
222	0xbd6b06ca	-0.05737952
223	0xbd99e161	-0.07513691
224	0x3d228586	0.03967812
225	0x3e131c15	0.14366181
226	0x3d95969b	0.07304116
227	0x3d6f78e6	0.058464907
228	0xbdd38ba7	-0.10329371
229	0x3de4c63c	0.11170623
230	0xbe1e7e29	-0.15477814
231	0xbdfb6221	-0.12274576
232	0x3d067705	0.03282835
233	0x3dc7f2ae	0.09763084
234	0x3da23030	0.07919347
235	0xbe35149a	-0.1768364
236	0x3d863445	0.06552938
237	0xbd5c856d	-0.053838182
238	0x3c00487f	0.007829784
239	0xbdb3f7c2	-0.087874904
240	0xbdeb5345	-0.11490492
241	0xbd353559	-0.04424033
242	0x3b8ca856	0.004292528
243	0x3dac4066	0.084107205
244	0xbe0a7081	-0.1351948
245	0xbd67d1b8	-0.056596488
246	0x3d31fec2	0.043455847
247	0xbd90802f	-0.07055699
248	0xbe0eeac5	-0.13956745
249	0x3b268adc	0.0025412356
250	0x3cf344e9	0.029695945
251	0xbd695a50	-0.056970894
252	0x3c2c9a4b	0.010534833
253	0x3e0ea8b4	0.13931543
254	0x3d365a17	0.04451951
255	0x3bb8dca6	0.0056415377

feature_layer.2.bias f4 [128]
0	0x3d9eaa7c	0.07747361
1	0xbcb94b19	-0.022618817
2	0x3e10292c	0.14078206
3	0x3dfd8113	0.123781346
4	0xbcb27da1	-0.02178842
5	0x3e0ea790	0.13931108
6	0x3e0f6c9c	0.14006275
7	0xbda7a5dc	-0.08185932
8	0x3e26776a	0.1625649
9	0xbd0552c8	-0.03254965
10	0x3d748a0e	0.05970197
11	0xbc446708	-0.011987455
12	0x3ddba011	0.107238896
13	0xbd9267d7	-0.07148712
14	0xbdbac372	-0.091193095
15	0x3e1af930	0.1513412
16	0xbc8c9cd3	-0.017164623
17	0xbd87a001	-0.06622315
18	0x3e153652	0.14571503
19	0x3e0e13c6	0.1387473
20	0xbbcb60ac	-0.0062065925
21	0x3e1475b1	0.1449802
22	0xbcf5417b	-0.02993845
23	0x3e1e632a	0.15467516
24	0xbcbd86b7	-0.023135526
25	0x3e0776e5	0.13228948
26	0x3e0af7c1	0.13571073
27	0xbd045bd2	-0.03231413
28	0xbd9e7d0a	-0.07738693
29	0x3e15e7a7	0.1463915
30	0x3e1bb78e	0.1520674
31	0x3e0720bf	0.13196085
32	0xbc43491e	-0.011919288
33	0x3de8edcc	0.11373481
34	0x3db367dc	0.08760044
35	0x3e0a699c	0.1351685
36	0xbcb6a190	-0.022293836
37	0x3e18234c	0.14857215
38	0x3e173185	0.14764984
39	0xbc6b3ab0	-0.014357254
40	0xbe054190	-0.13013291
41	0xbca6191f	-0.02027565
42	0xbad3ff4e	-0.0016174109
43	0x3e220b35	0.15824588
44	0x3e0f9c14	0.14024383
45	0xbcd4d53d	-0.025980586
46	0xbd051d48	-0.032498628
47	0x3deb511f	0.11490082
48	0xbdce2c4d	-0.100670435
49	0xbc63bdf9	-0.0139002735
50	0x3e0c4775	0.13699134
51	0x00000000	0.0
52	0x3e13211a	0.14368096
53	0x3dcab028	0.098968804
54	0xbdcbe6b9	-0.09956116
55	0x3e1ce09f	0.15320061
56	0xbce9dca2	-0.028547589
57	0x3e155423	0.14582877
58	0xbc2d574d	-0.010579896
59	0xbd446112	-0.047944136
60	0xbd37d6ce	-0.044882588
61	0xbceba3af	-0.028764574
62	0xbce690dc	-0.028145246
63	0xbd4faf53	-0.05070431
64	0x3e123f85	0.14282043
65	0xbceccc33	-0.028905964
66	0xbc96e71f	-0.018420754
67	0x3dffed4b	0.12496432
68	0x3e10fbcd	0.14158554
69	0x3e0f0c43	0.13969521
70	0xbd6d49b4	-0.057931617
71	0x3e02ca0d	0.12772389
72	0xbd2d937c	-0.04237698
73	0xbc03246b	-0.008004288
74	0x3e16d644	0.14730173
75	0x3e0ac08f	0.13550018
76	0x3ddbaaea	0.10725959
77	0x3e09f068	0.13470614
78	0xbc975a3b	-0.018475642
79	0xbbc883ac	-0.006119212
80	0x3db7f927	0.08983069
81	0x3e28fec5	0.16503437
82	0xbd9f3a2f	-0.077747695
83	0x3df71243	0.1206403
84	0xbd0cdd04	-0.034390464
85	0x3e1647c8	0.1467582
86	0xbd9933b5	-0.074805655
87	0xbcc1a4cb	-0.02363815
88	0x3e2b5bf8	0.16734302
89	0x00000000	0.0
90	0x3e04ae53	0.12957124
91	0x3e0dddcf	0.13854145
92	0x3e1632a9	0.14667763
93	0x3e081270	0.13288283
94	0x3c6c2247	0.014412469
95	0x3e06fce8	0.13182414
96	0xbd821898	-0.06352347
97	0x3e191aab	0.1495158
98	0x3dadb0da	0.084809974
99	0x3e0adfd9	0.13561954
100	0x3e2386f2	0.15969446
101	0xbd085697	-0.033285704
102	0x3e3873c4	0.18012911
103	0x3e1881cc	0.14893264
104	0xbce6f741	-0.028194072
105	0x3e1057c4	0.1409598
106	0x3e14650b	0.1449167
107	0x3e1c329a	0.15253678
108	0xbc1ea16a	-0.009682039
109	0x3e1b0f24	0.15142494
110	0xbd87351e	-0.06601928
111	0xbd8cbff3	-0.06872549
112	0xbc96f815	-0.018428842
113	0x3e2b06e3	0.16701846
114	0x3e216c51	0.15763976
115	0xbcccbf05	-0.024993429
116	0xbca21573	-0.019785618
117	0x3e0c6097	0.13708721
118	0x3e1ec6d8	0.1550554
119	0x3dbfac20	0.09359002
120	0x3e028c95	0.1274894
121	0x3e13de8f	0.14440368
122	0xbd8738c0	-0.06602621
123	0x3e139d39	0.14415444
124	0xbdb72342	-0.08942272
125	0xbc548201	-0.0129704485
126	0x3e1cc645	0.15310009
127	0x3e22431c	0.15845913

value_stream.0.weight f4 [64, 128]
0	0xbe1e9551	-0.15486647
1	0x3d9373d2	0.07199825
2	0x3d5f4d22	0.05451692
3	0x3dab7f38	0.083738744
4	0x3da0ce4c	0.07851848
5	0x3e68acbd	0.22722144
6	0x3cdbd205	0.026833544
7	0xbde0a21b	-0.10968419
8	0x3e860489	0.26175335
9	0x397c5e75	0.00024067781
10	0x3dc395c9	0.095500536
11	0x3d02169d	0.031759847
12	0x3c602d43	0.013682666
13	0xbed361b5	-0.41285482
14	0xbf2124c1	-0.62946707
15	0x3e377545	0.17915829
16	0x3dd0cbc0	0.10195112
17	0xbeee97f1	-0.46600297
18	0xbd22bd26	-0.039731167
19	0x3e74b62a	0.23897615
20	0x3e2ed6be	0.17074105
21	0x3d979cf6	0.07402985
22	0xbecc995d	-0.39960757
23	0x3dc316ec	0.095258564
24	0x3c80af1d	0.0157085
25	0xbd97dc23	-0.074150346
26	0x3cf01f26	0.029311728
27	0xbd956701	-0.07295037
28	0xbed79840	-0.42108345
29	0x3e555a5a	0.20835248
30	0x3e2576a7	0.16158544
31	0x3ab0ae35	0.0013479652
32	0x3e2f612c	0.17126912
33	0x3d85b185	0.06528
34	0x3da3540b	0.07975014
35	0x3db7e060	0.08978343
36	0xbdf3ce8f	-0.11904632
37	0x3c16e2d0	0.00920935
38	0x3dee0aab	0.116231285
39	0xbd5f9331	-0.054583732
40	0x3d882d3b	0.06649252
41	0x3b716d69	0.0036838895
42	0x3e14687e	0.14492986
43	0x3e61a278	0.22034633
44	0xbca28bf5	-0.019842127
45	0xbbf26261	-0.0073969816
46	0xbdee675d	-0.11640809
47	0xbde112f0	-0.1098994
48	0xbe0b30c0	-0.13592815
49	0x3e0aa1f7	0.13538347
50	0x3e0d7ed9	0.1381792
51	0xbe0e469a	-0.1389412
52	0x3e46c4c5	0.19410999
53	0xbdfe95fd	-0.12430952
54	0xbe77c514	-0.24196273
55	0x3e5c9b11	0.21543528
56	0xbde5a65c	-0.11213371
57	0xba8b3632	-0.001062101
58	0xbd77fe31	-0.06054515
59	0xbdccd49c	-0.100014895
60	0xbe797b36	-0.24363407
61	0xbd961d69	-0.07329828
62	0xbe1061b4	-0.14099771
63	0xbe725c38	-0.23667991
64	0x3db191a1	0.08670355
65	0x3d1f2436	0.038852893
66	0x3d407748	0.046988755
67	0xbddea7c0	-0.108718395
68	0x3c080bd7	0.008303604
69	0xbd3ea8a9	-0.046547566
70	0xbe8e4c8b	-0.27792773
71	0xbc9dfdb6	-0.019286018
72	0xbbb7287d	-0.0055895434
73	0xbccdf6e8	-0.025142148
74	0xbd7dfb25	-0.06200709
75	0x3e425fcb	0.18981855
76	0x3e1e9db7	0.15489851
77	0x3dc7a2ea	0.0974787
78	0x3dae373b	0.08506628
79	0xbb33e4f9	-0.002744971
80	0x3d93a31c	0.07208845
81	0xbe0bac16	-0.13639864
82	0xbea2026a	-0.31642467
83	0x3e2cb57f	0.1686611
84	0xbd8ac959	-0.06776685
85	0x3e50a1da	0.20374241
86	0xbe300de0	-0.17192793
87	0x3d94a5ac	0.07258162
88	0x3d4eec79	0.050518487
89	0xbdca8c8c	-0.098900884
90	0x3c99ce32	0.01877508
91	0x3e71d712	0.23617199
92	0x3d09cb99	0.03364143
93	0xbdb97838	-0.09056133
94	0x3cc2abf8	0.023763642
95	0xbd453e15	-0.04815491
96	0xbe1f6a70	-0.15567946
97	0x3a634673	0.00086698605
98	0xbdb6e717	-0.08930796
99	0xbb7b0584	-0.0038302848
100	0x3e313959	0.17307033
101	0xbcff1891	-0.031139644
102	0x3df86fd1	0.12130702
103	0x3e88c55e	0.2671308
104	0x3d801126	0.06253271
105	0x3e5d3f65	0.21606214
106	0x3e775036	0.24151692
107	0x3de9ec05	0.1142197
108	0x3da97d7e	0.08275889
109	0x3e5c33c6	0.21504125
110	0xbefd3aa8	-0.49458814
111	0xbebdaa63	-0.37044057
112	0x3e2f2c01	0.1710663
113	0x3e46ebcc	0.19425887
114	0x3e17ed12	0.14836529
115	0x3d023b97	0.03179511
116	0xbdb49488	-0.088173926
117	0x3e09890c	0.13431185
118	0x3da9cd7d	0.08291147
119	0x3cd0ae42	0.025473718
120	0x3e840c7e	0.2579078
121	0x3e2f2d3b	0.17107098
122	0xbf2c2a64	-0.6725218
123	0x3da0c615	0.07850281
124	0xbea74091	-0.32666448
125	0x3d702663	0.05863036
126	0x3e8bd806	0.2731325
127	0x3bdbb19c	0.0067045223
128	0xbd8facdd	-0.07015393
129	0x3dec14ba	0.11527391
130	0xbda5ee4c	-0.08102092
131	0x3e43f069	0.19134678
132	0x3d235b3d	0.039881933
133	0x3e4b5206	0.19855508
134	0x3d8feb3f	0.070272915
135	0x3e107cd4	0.14110118
136	0xbdb6e696	-0.089306995
137	0xbc1dfe73	-0.009643185
138	0x3e3dda65	0.18540342
139	0xbd710483	-0.058842193
140	0x3e7c5862	0.2464309
141	0xbeb20efc	-0.34777057
142	0xbea44acc	-0.32088315
143	0xbc88ed74	-0.016714789
144	0xbdf82a18	-0.12117404
145	0xbefc8447	-0.4931967
146	0xbcd4beb5	-0.025969842
147	0x3e3829be	0.17984673
148	0xbd188ab4	-0.037241653
149	0x3e137b6a	0.14402547
150	0xbd567544	-0.052357927
151	0xbd2e68af	-0.042580303
152	0xbdb3cb43	-0.087790035
153	0x3e359df7	0.1773604
154	0xbb43aec4	-0.0029858807
155	0xbe26ea3b	-0.1630029
156	0xbe037409	-0.12837233
157	0xbdc061e6	-0.09393673
158	0xbc81cd8d	-0.015845085
159	0x3d658965	0.056039233
160	0x3e0da1e1	0.13831283
161	0x3d9654b0	0.073403716
162	0x3da0ec31	0.0785755
163	0x3d408adf	0.047007438
164	0xbdb28a05	-0.087177314
165	0x3e0eca5c	0.13944381
166	0x3e48ffcd	0.1962883
167	0x3d8de9aa	0.069293335
168	0x3e17ca0d	0.1482317
169	0x3e2d7188	0.1693784
170	0x3df6aff1	0.12045277
171	0xbd34e3f6	-0.044162713
172	0x3e33507d	0.17511173
173	0x3d057dc3	0.03259064
174	0xbd131a7c	-0.03591393
175	0xba61b04e	-0.00086093403
176	0x3da7e492	0.08197893
177	0xbd91aeee	-0.07113443
178	0x3e2cc885	0.16873367
179	0xbe0987a2	-0.13430646
180	0x3d917491	0.071023114
181	0xbde09116	-0.10965173
182	0x3dd61399	0.10452957
183	0xbd054857	-0.03253969
184	0xbd29d1df	-0.041459914
185	0x3e5142c2	0.20435622
186	0x3d2ff973	0.042962503
187	0xbb8b82c9	-0.004257534
188	0xbe10f4e1	-0.14155914
189	0x3d02c724	0.031928197
190	0x3e054a0a	0.13016525
191	0xbe170e1b	-0.14751475
192	0x3e2a8e18	0.16655767
193	0x3e117229	0.14203705
194	0x3bf20b7e	0.007386624
195	0x3e403f0f	0.18774055
196	0x3d8f2ce2	0.069909826
197	0x3e37c0bf	0.1794462
198	0xbeb5fd57	-0.35544845
199	0xbddd920b	-0.10818871
200	0x3d51f57d	0.051259506
201	0x3d7e84ad	0.06213825
202	0x3c85e0a4	0.016342469
203	0x3d4014a8	0.0468947
204	0x3e01c4cf	0.12672733
205	0x3e538908	0.20657742
206	0x3d6c6387	0.057712104
207	0x3e1bfb4a	0.15232578
208	0x3e2cd338	0.16877449
209	0x3de067d2	0.10957302
210	0xbe1fb7e8	-0.15597498
211	0xbcc14d35	-0.023596385
212	0xbdfcc4d6	-0.12342231
213	0x3e1bad35	0.15202792
214	0xbdc9d30c	-0.09854707
215	0xbd6b9c08	-0.05752185
216	0x3d64a735	0.055823524
217	0xbdd21fd5	-0.10259978
218	0x3da5b4fc	0.08091161
219	0x3e4e8329	0.20167221
220	0x3e5d3b8e	0.2160475
221	0xbd7e5ccb	-0.062100213
222	0x3d120358	0.03564772
223	0xbce40b10	-0.027837306
224	0xbe51f882	-0.20504954
225	0x3e35dac3	0.17759232
226	0x3e2976f5	0.16549285
227	0x3e78edea	0.24309507
228	0x3e74d957	0.23911034
229	0xbcca52ee	-0.024697747
230	0x3deac6a7	0.11463671
231	0x3e20ffa4	0.15722519
232	0xbddad88c	-0.10685834
233	0x3e47b492	0.19502476
234	0xbd8733bb	-0.06601664
235	0x3db5e39d	0.088813044
236	0xbd35cb7a	-0.044383503
237	0x3e01639c	0.12635654
238	0xbd09a4df	-0.0336045
239	0xbe4b0b63	-0.19828562
240	0xbd8498d2	-0.06474461
241	0x3e63f115	0.22259934
242	0xbda9222f	-0.08258473
243	0xbc138d5e	-0.0090058725
244	0xbe133d0e	-0.1437876
245	0x3d4b72a9	0.049669895
246	0x3e5745b3	0.21022682
247	0x3de56f8f	0.11202919
248	0xbb4ff94a	-0.0031734281
249	0xbc8a239c	-0.016862683
250	0xbe8adce4	-0.2712165
251	0xbaebca8f	-0.0017989444
252	0xbeb4e577	-0.35331318
253	0x3e19b7b6	0.15011486
254	0x3e10ae43	0.14128976
255	0xbd472191	-0.048615996

value_stream.0.bias f4 [64]
0	0x3e2b2deb	0.16716735
1	0x3e183c94	0.14866859
2	0xbcaa04be	-0.020754214
3	0x00000000	0.0
4	0x3ca64507	0.020296587
5	0x3e0874c4	0.13325793
6	0x3e182e6b	0.14861457
7	0x3e16fca6	0.14744815
8	0xbca0415e	-0.01956242
9	0xb9e29008	-0.0004321339
10	0x3e18d0c3	0.14923386
11	0x3c5f4750	0.013627842
12	0xbbc4c9bf	-0.0060054953
13	0xbcb2fe4d	-0.021849776
14	0x3e32605e	0.17419574
15	0x3e17b2dc	0.14814323
16	0x3e204626	0.1565176
17	0xbc4f82af	-0.012665435
18	0xbca87224	-0.020562239
19	0x3e21cef0	0.15801597
20	0xbc39e1ee	-0.01134537
21	0x3e21058c	0.15724772
22	0x3e1d67a7	0.15371571
23	0x3dd3799a	0.10325928
24	0x3e182322	0.14857152
25	0x3e1855d6	0.14876494
26	0x3e194c33	0.14970474
27	0xbc297f43	-0.010345283
28	0xbbc4c925	-0.0060054236
29	0x3e1e4437	0.1545571
30	0xbc36a689	-0.0111481035
31	0x3e1885b3	0.14894752
32	0xbcadd72f	-0.021220772
33	0xbcba6877	-0.02275489
34	0xbcb43228	-0.021996573
35	0x3e1e247a	0.15443602
36	0xbc86e74c	-0.016467713
37	0xbc623903	-0.013807538
38	0x3e293c73	0.16526966
39	0x3e293c46	0.16526899
40	0xbcdf05a3	-0.027224367
41	0x3e18b458	0.14912546
42	0x3e26dc8f	0.16295074
43	0xbc8c260b	-0.017107984
44	0xbc2a69c7	-0.010401196
45	0xbcb1395a	-0.021633793
46	0xbc33ba8a	-0.010969767
47	0x3e1daf63	0.15398936
48	0x3e25bb2a	0.16184679
49	0xbc9d86bd	-0.019229287
50	0x3e1819ee	0.14853641
51	0xbc46e4a4	-0.012139473
52	0x3d7ad9b2	0.061242767
53	0x3c814a5e	0.015782531
54	0x3e1b3944	0.15158564
55	0xbc39be23	-0.011336836
56	0xbc334a45	-0.010943
57	0xbcdf294c	-0.027241372
58	0xbcb2611e	-0.021774825
59	0x3e21a552	0.15785721
60	0x3dc77b5b	0.09740325
61	0xbc538c49	-0.012911865
62	0xbc897c29	-0.016782837
63	0x3d6dc50b	0.058049243

value_stream.2.weight f4 [1, 64]
0	0x3e89ee21	0.2693949
1	0x3e0a0d07	0.13481532
2	0xbe820b3d	-0.253992
3	0x3d343240	0.043993235
4	0xbed277df	-0.4110708
5	0x3e63f8e1	0.22262909
6	0x3ebffb54	0.37496436
7	0x3de9adf7	0.11410134
8	0xbe819306	-0.25307482
9	0xbf15fd18	-0.58589315
10	0x3e302ce9	0.17204632
11	0xbeaa98f9	-0.33319834
12	0xbe0ffcd9	-0.14061297
13	0xbe579884	-0.21054274
14	0x3e00e11b	0.12585871
15	0x3eb08469	0.3447602
16	0x3dcaa6e6	0.098951146
17	0xbf23bcbd	-0.63959867
18	0xbe2765f0	-0.1634748
19	0x3eaf17bb	0.34197792
20	0xbe738545	-0.23781307
21	0x3e111806	0.1416932
22	0x3e681930	0.22665858
23	0xbef9edef	-0.4881434
24	0x3e87580d	0.26434365
25	0x3e6729b0	0.22574496
26	0x3e9df084	0.3084756
27	0xbe8c648f	-0.2742047
28	0xbe3b4e33	-0.1829155
29	0x3e8406e7	0.25786516
30	0xbd1532ea	-0.03642551
31	0x3e7fb42f	0.24971078
32	0xbcdf8d7c	-0.027289145
33	0xbd00b15a	-0.031419136
34	0xbe2c50db	-0.16827719
35	0x3e03104c	0.12799186
36	0xbdd8e9c2	-0.10591461
37	0xbd6cccd1	-0.057812516
38	0x3ea0b5b1	0.3138862
39	0x3eb287f2	0.34869343
40	0xbc396aae	-0.011316938
41	0x3e50447e	0.20338628
42	0x3e75882e	0.2397773
43	0xbe24068f	-0.16018127
44	0xbe6d5935	-0.23178561
45	0xbce70f5f	-0.028205572
46	0xbe8de026	-0.27710074
47	0x3e979db4	0.29612505
48	0x3e66cc15	0.22538789
49	0xbe942932	-0.2893768
50	0x3eb19497	0.34683678
51	0xbdf1ee62	-0.11813046
52	0xbef4a889	-0.47784832
53	0xbec9963f	-0.3937244
54	0x3e632100	0.22180557
55	0xbe0dac61	-0.13835289
56	0xbda25489	-0.0792628
57	0xbe47bc1a	-0.19505349
58	0xbe39603e	-0.1810312
59	0x3ed36b74	0.41292918
60	0xbeaa92a5	-0.33315006
61	0xbe47679a	-0.19473115
62	0xbdfa9f76	-0.12237446
63	0xbef67a87	-0.48140356

advantage_stream.0.weight f4 [64, 128]
0	0x3e2b5a91	0.16733767
1	0x3cba1016	0.022712748
2	0xbd7340a5	-0.05938782
3	0xbdb96483	-0.09052374
4	0x3e1498bd	0.1451139
5	0x3d3b9820	0.045799375
6	0xbd09aca0	-0.033611894
7	0x3d27d2d3	0.040972542
8	0x3d51c8a9	0.051216755
9	0xbe04996f	-0.12949155
10	0xbe188f8d	-0.1489851
11	0x3d8d3d96	0.06896512
12	0x3d10d36d	0.03535788
13	0xbdba9ac4	-0.091115505
14	0x3d9f2b13	0.07771888
15	0xbdc9a29b	-0.09845468
16	0xbdfcf66f	-0.12351691
17	0xbde16d94	-0.110072285
18	0xbe29b448	-0.16572678
19	0x3e1f2c4c	0.15544242
20	0x3e10ae30	0.14128947
21	0xbdae0ae4	-0.08498171
22	0x3d8d13a0	0.06888509
23	0xbdcada84	-0.0990496
24	0x3e3b2d72	0.18279055
25	0xbe0d60b1	-0.13806416
26	0x3e3227a7	0.17397939
27	0x3dc7a54a	0.09748323
28	0x3cbd8df7	0.023138983
29	0xbd63067c	-0.055426106
30	0x3e077b24	0.13230568
31	0x3d677ee9	0.056517515
32	0x3e151b1b	0.14561121
33	0xbdedbd97	-0.11608427
34	0xbe1e5523	-0.15462165
35	0xbd987fb4	-0.074462324
36	0xbcc616eb	-0.02418085
37	0xbdf9efd6	-0.12203948
38	0xbd13b71a	-0.03606329
39	0x3b878ff1	0.004137032
40	0x3e4bfce1	0.19920684
41	0x3e253981	0.16135217
42	0x3d4039d5	0.046930153
43	0x3e32be22	0.17455342
44	0xbe163de9	-0.14672054
45	0xbdd52b33	-0.1040863
46	0xbdbfebaa	-0.09371121
47	0xbd6df1dd	-0.058091987
48	0xbe03fa9a	-0.12888566
49	0x3c294154	0.010330517
50	0x3c328829	0.010896721
51	0xbcb50b10	-0.022100002
52	0xbd70fd41	-0.05883527
53	0x3e286811	0.16445948
54	0xbdd962b4	-0.10614529
55	0x3d97234b	0.073797785
56	0xbe193635	-0.14962085
57	0x3dc537d9	0.09629793
58	0x3d4c9198	0.049943537
59	0xbc449227	-0.011997736
60	0xbd18352d	-0.037160087
61	0x3d86a713	0.06574836
62	0x3ddd283c	0.1079869
63	0x3e34c8fd	0.17654796
64	0xbe0a913a	-0.13531962
65	0x3e13790c	0.14401644
66	0x3d75c458	0.0600017
67	0x3da163a1	0.07880331
68	0x3bed782e	0.0072469926
69	0x3db1a3b6	0.086738035
70	0xbd197a03	-0.037469875
71	0x3d4f49ef	0.050607618
72	0xbe00f380	-0.12592888
73	0xbdc650a8	-0.09683353
74	0x3d4d3af3	0.050105046
75	0xbe2af1d0	-0.16693807
76	0x3e308fa9	0.17242302
77	0x3cfed595	0.031107703
78	0xbcdc2c06	-0.02687646
79	0xbe18b8d2	-0.14914253
80	0x3c5451de	0.012958972
81	0x3e25f45f	0.16206501
82	0xbe4ad315	-0.19807084
83	0xbd17faa7	-0.037104275
84	0x3e3197f5	0.17343123
85	0x3d903829	0.07041962
86	0x3e265f9c	0.1624741
87	0xbdd63e7e	-0.10461138
88	0x3c7ea785	0.015542869
89	0x3db3f6e6	0.087873265
90	0xbd87f941	-0.06639338
91	0xbe2d1c98	-0.16905439
92	0x3e2811ef	0.16413091
93	0xbe41e4fd	-0.18935008
94	0xbd8b8b73	-0.06813707
95	0x3a4de944	0.00078548887
96	0x3e296bc1	0.16545011
97	0xbd4afd69	-0.049558077
98	0xbe1aeb66	-0.1512886
99	0xbc17cc14	-0.009264965
100	0xbe1260ba	-0.14294711
101	0x3dc1f883	0.09471228
102	0xbde1ad58	-0.11019391
103	0x3d93d627	0.07218581
104	0x3e2ab5e2	0.16670945
105	0x3ddccb20	0.107809305
106	0xbd0cf896	-0.034416758
107	0x3df21f6e	0.11822401
108	0xbe1c0ab7	-0.15238462
109	0x3d9ef1ef	0.07760989
110	0x3b8796bd	0.0041378425
111	0xbe04fe84	-0.12987715
112	0xbe0e7663	-0.13912348
113	0xbdd1bc86	-0.10241036
114	0xbdcd912d	-0.10037456
115	0x3e28a96f	0.16470884
116	0x3e0de6de	0.138576
117	0x3ddb67df	0.10713171
118	0x3e0ff27f	0.14057349
119	0xbcbc7e79	-0.023009526
120	0xbe480510	-0.19533181
121	0x3cde0952	0.027104054
122	0x3d3ed4df	0.04658973
123	0xbde84353	-0.11340966
124	0x3e0fd800	0.14047241
125	0xbd7df00b	-0.0619965
126	0xbc9fe6ae	-0.019519176
127	0xbdfd7cdb	-0.1237733
128	0xbe28c5b5	-0.16481669
129	0x3c759e20	0.014991313
130	0x3e225ba1	0.15855266
131	0x3e1867c7	0.14883338
132	0xbd2ab3a8	-0.04167524
133	0x3d35e0da	0.04440389
134	0xbe32692b	-0.17422931
135	0xbdeefd4a	-0.11669405
136	0x3e010f30	0.1260345
137	0x3cc49f51	0.02400175
138	0x3d272328	0.040805012
139	0x3ca4d6ca	0.02012195
140	0xbd8d831e	-0.06909774
141	0x3e0b66bf	0.13613413
142	0x3e208053	0.15673952
143	0x3d8991e7	0.06717282
144	0x3e210f47	0.15728484
145	0x3d476707	0.04868224
146	0x3e02aa4b	0.12760274
147	0xbdf7a07a	-0.12091155
148	0x3d746d13	0.059674334
149	0xbe08b4a7	-0.13350163
150	0xbcfa2afe	-0.030538078
151	0xbe01835f	-0.1264777
152	0x3d6bc759	0.05756316
153	0xbe3580ff	-0.1772499
154	0xbd6f742f	-0.05846041
155	0xbd8bd88a	-0.06828411
156	0x3de0caf3	0.109762095
157	0xbe187d78	-0.14891613
158	0xbdbd0950	-0.09230292
159	0x3e14412f	0.1447799
160	0x3d9bedcd	0.07613716
161	0x3ddb84fb	0.107187234
162	0x3e21c7a6	0.15798816
163	0xbdd60bc1	-0.10451461
164	0x3d326a93	0.04355867
165	0xbe0ce560	-0.13759375
166	0xbd96078a	-0.07325657
167	0xbcfcfe3a	-0.030882943
168	0xbdb5a18b	-0.088687025
169	0x3d168f48	0.036757737
170	0x3d010f69	0.031508837
171	0x3ce70769	0.028201776
172	0x3db5dfe1	0.08880592
173	0xbc989b89	-0.018628852
174	0x3e0df18f	0.13861679
175	0xbc920b28	-0.017827585
176	0x3ddf8242	0.109135166
177	0x3e082a86	0.13297471
178	0x3e20fbf0	0.15721107
179	0xbdae9b53	-0.085257195
180	0xbd963e78	-0.07336134
181	0xbe136f31	-0.14397885
182	0xbda50182	-0.08056928
183	0x3e22e986	0.15909395
184	0xbc8b47d6	-0.017002027
185	0xbdd0b8e2	-0.101915136
186	0xbe11f9a2	-0.14255384
187	0xbe0abf8a	-0.13549629
188	0xbdd96f7a	-0.106169656
189	0x3d732d80	0.059369564
190	0xbdc5b628	-0.09653884
191	0xbd885fb2	-0.066588774
192	0xbe1bca92	-0.15213993
193	0xbe1b89ca	-0.15189281
194	0xbdd2ca8e	-0.102925405
195	0xbe2f613c	-0.17126936
196	0xbc979c81	-0.018507244
197	0xbd9575cc	-0.072978586
198	0xbdae12be	-0.084996685
199	0xbde50b2d	-0.11183772
200	0x3d671699	0.056418035
201	0x3d8c96e0	0.068647146
202	0xbd1d28c7	-0.038368966
203	0x3d383e6b	0.0449814
204	0x3e1f9547	0.15584289
205	0xbd6542f6	-0.055972062
206	0xbdd0ee6d	-0.10201726
207	0x3dcd367c	0.10020158
208	0xbd34a394	-0.044101313
209	0xbd96601c	-0.0734255
210	0x3dd9d582	0.106364265
211	0x3d47a5e0	0.048742175
212	0xbdf70678	-0.12061781
213	0x3d1c3479	0.03813598
214	0x3d9c5f57	0.07635372
215	0x3e296df4	0.1654585
216	0xbdda084c	-0.10646114
217	0x3db7003e	0.08935593
218	0xbd6a0361	-0.05713213
219	0x3c98b091	0.01863888
220	0xbe2a5d89	-0.16637243
221	0xbe296753	-0.16543321
222	0x3dc08f43	0.09402325
223	0xbb563bab	-0.0032689373
224	0x3d9d17a0	0.07670522
225	0xbde4192b	-0.11137613
226	0x3e02890f	0.12747596
227	0xbd90e86e	-0.070755824
228	0xbde74240	-0.11291933
229	0x3e19eb77	0.15031229
230	0xbddd3c94	-0.1080257
231	0xbe0b7550	-0.1361897
232	0xbe14f0e1	-0.14545013
233	0x3d955baf	0.07292878
234	0xbc69f6db	-0.014280046
235	0xbc1a4ab6	-0.009417227
236	0x3d3f633a	0.04672549
237	0xbd63319e	-0.05546724
238	0x3cd9ae79	0.026572453
239	0xbdc86168	-0.09784204
240	0xbd39f1b3	-0.045396518
241	0x3dbed5c8	0.09318119
242	0x3cafe2cc	0.02147045
243	0x3df93d7b	0.121699296
244	0x3e28dfc7	0.16491614
245	0x3df58527	0.119882874
246	0xbd982db3	-0.074305914
247	0xbe19cf2f	-0.1502044
248	0xbda3288c	-0.07966718
249	0xbcac25b2	-0.021014068
250	0x3e2022e5	0.15638311
251	0x3c4dc6f8	0.012559645
252	0xbce65b1a	-0.028119612
253	0x3e02dccf	0.12779544
254	0x3d898de4	0.067165166
255	0x3e0bde20	0.13658953

advantage_stream.0.bias f4 [64]
0	0xbcb753bc	-0.022378795
1	0xbb65d411	-0.0035069028
2	0x3cc1f377	0.023675663
3	0x3d7630f4	0.06010528
4	0x3a91d6c9	0.0011126633
5	0xbc459cc7	-0.012061304
6	0xbb35aed6	-0.0027722619
7	0xbcbc3660	-0.022975147
8	0xbbc4c96a	-0.0060054557
9	0x3e15e7a6	0.14639148
10	0x3de01d75	0.109431185
11	0x3c80dbb7	0.015729768
12	0x3e15cb7e	0.14628407
13	0xbc5430c7	-0.012951083
14	0xbaf42e5c	-0.0018629539
15	0x3d2b8531	0.041875068
16	0x3d2489a9	0.040170345
17	0x3d3a8057	0.04553255
18	0x3d5d80e6	0.054078005
19	0xbd020de0	-0.031751513
20	0xbcd0db09	-0.02549507
21	0xbd3b901e	-0.045791738
22	0x3df395a8	0.11893779
23	0xbd33ccca	-0.043896474
24	0xbcebef2f	-0.028800575
25	0xbd0759b4	-0.033044532
26	0xbc49629d	-0.012291578
27	0xbc39f011	-0.01134874
28	0x3a09ee33	0.00052616297
29	0x3e2da2fd	0.16956706
30	0x3d806268	0.062687695
31	0x3d8de3c7	0.06928211
32	0xbc0a89d8	-0.008455716
33	0xbcbd1eca	-0.02308597
34	0x3d0ba7c6	0.034095548
35	0x3d72930e	0.059222274
36	0xbd0652d6	-0.032793842
37	0xbc1a2df6	-0.009410372
38	0xbcaa477b	-0.020786038
39	0x3dc26d37	0.09493487
40	0x3a70f475	0.00091917004
41	0xbd2a0edb	-0.041518074
42	0x3e072462	0.13197473
43	0xbd41f49a	-0.04735241
44	0x3d9fdf5f	0.078062765
45	0x3d97ddce	0.07415353
46	0x3e1cbf16	0.15307269
47	0xbb9cc2f7	-0.004783984
48	0xba8c598c	-0.0010707839
49	0x3bf2d83c	0.007411031
50	0xbc8843db	-0.016633919
51	0xbb7327c8	-0.003710257
52	0xbc1f01d5	-0.009705027
53	0xbd00ff07	-0.031493213
54	0xbd0e3c69	-0.03472558
55	0xbd028475	-0.031864602
56	0xbc451913	-0.012029904
57	0xbba27996	-0.004958342
58	0x391a6bb7	0.00014726711
59	0x3d745666	0.05965271
60	0x3d64c098	0.055847734
61	0xbd2ce247	-0.042207982
62	0xbd05cceb	-0.032666128
63	0xbd0894aa	-0.033344902

advantage_stream.2.weight f4 [2, 64]
0	0x3e822c1b	0.25424275
1	0x3d846947	0.064653926
2	0x3ea922df	0.33034417
3	0x3eb7fe98	0.35936427
4	0xbea45717	-0.32097694
5	0xbec3de9c	-0.38255775
6	0xbe6f19eb	-0.2334973
7	0x3e5af095	0.21380837
8	0x3e955cdf	0.29172418
9	0x3f27e8b0	0.6558943
10	0x3f173fb6	0.5908159
11	0x3e4721da	0.19446507
12	0xbea372b3	-0.31923446
13	0xbdaf66d2	-0.08564533
14	0xbc806bb1	-0.015676351
15	0x3ea6b2e6	0.32558364
16	0x3de7a612	0.11310972
17	0x3e733a72	0.23752764
18	0x3e2b8da8	0.16753256
19	0xbe835209	-0.25648525
20	0xbe2d8e53	-0.16948824
21	0xbdf9b91d	-0.12193511
22	0x3f4df01b	0.80444497
23	0x3d660db0	0.056165397
24	0xbe68686e	-0.22696087
25	0x3d50d9f0	0.05098909
26	0x3e09e99c	0.13468021
27	0x3ddd0e65	0.10793761
28	0xbe8d19da	-0.27558786
29	0xbf4c2db3	-0.7975723
30	0x3e85906a	0.26086742
31	0x3eec733c	0.46181667
32	0xbc80f996	-0.015744012
33	0x3dbe5d5f	0.09295153
34	0xbcfc5bc9	-0.030805485
35	0xbf01367d	-0.5047377
36	0x3e9d3beb	0.30709776
37	0x3e19ca87	0.15018664
38	0x3e436546	0.19081602
39	0x3f1c3a2d	0.6102627
40	0xbd0eeb3d	-0.03489231
41	0x3e00b3c8	0.12568581
42	0x3f140b16	0.57829416
43	0x3f09aa96	0.5377592
44	0x3ebd419a	0.36964113
45	0x3e9c673f	0.3054752
46	0xbf1ec448	-0.6201825
47	0xbe9a4dcd	-0.30137482
48	0x3def3da5	0.1168168
49	0x3e85f159	0.26160696
50	0xbed3c07f	-0.413578
51	0xbe9a1c07	-0.30099508
52	0x3bb1322b	0.005407592
53	0x3e3026d5	0.17202313
54	0xbe9f3277	-0.3109319
55	0xbd39c546	-0.04535415
56	0x3d9f1045	0.07766775
57	0x3c909a87	0.01765181
58	0x3ca0992b	0.019604286
59	0x3e3bda2e	0.18344948
60	0x3de0e032	0.10980262
61	0x3e4018ca	0.18759456
62	0x3f267e5a	0.6503655
63	0xbcd920cd	-0.026504898
64	0x3e87a36b	0.26491866
65	0xbe820fb1	-0.25402597
66	0xbe9bce55	-0.30430856
67	0xbf17929e	-0.59208095
68	0x3e8e0af1	0.27742723
69	0x3ea605c8	0.32426286
70	0xbdf55daf	-0.11980759
71	0x3dcac37a	0.099005654
72	0xbbbdac70	-0.0057883784
73	0xbf1d14e6	-0.61360013
74	0xbf1c5756	-0.61070764
75	0xbe677ce8	-0.22606242
76	0x3f1a79f6	0.6034235
77	0x3df44f5a	0.119291976
78	0xbbe1de62	-0.006892965
79	0xbe98dcde	-0.29856008
80	0xbe594155	-0.21216328
81	0xbe9ce4ff	-0.3064346
82	0xbead2a5f	-0.3382139
83	0x3e626740	0.22109699
84	0xbe30bfe3	-0.17260699
85	0x3d9d3360	0.07675815
86	0xbf1ad8a0	-0.60486794
87	0xbdf8ae17	-0.1214258
88	0x3e31f78b	0.17379586
89	0x3e0e40c2	0.1389189
90	0x3e1288b2	0.14309958
91	0x3df5d923	0.12004306
92	0x3ea41dbc	0.32053936
93	0x3f638147	0.88869137
94	0xbe80c0b5	-0.25147024
95	0xbea292a2	-0.31752497
96	0x3e87a3f7	0.26492283
97	0x3e248dfe	0.1606979
98	0xbeb56dee	-0.35435432
99	0x3f1de851	0.6168261
100	0xbec19661	-0.37810043
101	0x3ea21618	0.3165748
102	0xbe11d5a4	-0.14241654
103	0xbef526d4	-0.47881186
104	0x3e941f62	0.28930193
105	0x3e989396	0.298001
106	0xbf006672	-0.5015632
107	0xbe457a48	-0.19284928
108	0xbeb1e4ca	-0.34744865
109	0xbf439f5f	-0.76415056
110	0x3f54d137	0.83131737
111	0x3d609e9e	0.05483877
112	0xbe7ab28e	-0.24482176
113	0xbf115444	-0.56769204
114	0xbdc4d6f3	-0.09611311
115	0x3e572034	0.21008378
116	0x3ec59958	0.38593554
117	0x3e7715f9	0.24129476
118	0xbe8f787e	-0.28021616
119	0xbda1e534	-0.07905045
120	0x3ebf6518	0.37381816
121	0xbe8788e6	-0.26471633
122	0x3caf68a5	0.021412203
123	0xbe8ea17b	-0.27857575
124	0xbe8753e5	-0.26431194
125	0xbe327f68	-0.17431414
126	0xbeabbf99	-0.33544615
127	0xbddaa898	-0.10676688

advantage_stream.2.bias f4 [2]
0	0xbb845fe4	-0.0040397514
1	0x3b845fe4	0.0040397514

exp_avg f4 [128, 4]
0	0x3afa3bbe	0.0019091291
1	0x3b37282c	0.0027947528
2	0x39844c09	0.00025233653
3	0xb9e26e65	-0.0004318833
4	0xb91dfebc	-0.00015067583
5	0xba100e7a	-0.0005495321
6	0x37343e8a	1.0743397e-05
7	0x3a028c51	0.0004980015
8	0xbb6b4469	-0.003589893
9	0xbbbc63df	-0.0057492102
10	0xba0a70d1	-0.0005281093
11	0x3a89fbdc	0.001052733
12	0x3cf82ab8	0.030293807
13	0x3d27dd04	0.04098226
14	0x3add5e7b	0.0016889119
15	0xbb939ba6	-0.0045046387
16	0xba6913ef	-0.0008891215
17	0xba8ffa00	-0.001098454
18	0x3984fbf7	0.0002536473
19	0x3ae4ee84	0.0017466103
20	0x3c03988e	0.008031977
21	0x3c0f8d24	0.008761678
22	0xb9d81080	-0.00041211024
23	0xbb38e2da	-0.0028211386
24	0x3c47dafa	0.012198204
25	0x3c8addba	0.01695143
26	0x3a618b64	0.00086038397
27	0xbb08aa84	-0.0020853588
28	0x3cdff74b	0.027339598
29	0x3d1442be	0.036196463
30	0x3a83af1e	0.0010046696
31	0xbbc49c76	-0.006000097
32	0x3adcb853	0.0016839601
33	0x3b203a98	0.0024448987
34	0x3941e48c	0.00018491055
35	0x39fab390	0.000478175
36	0x3bfdb2be	0.007742255
37	0x3c38ad28	0.011271752
38	0xb6c76d80	-5.9434096e-06
39	0xbb2a70d3	-0.002600719
40	0xbcb3b90e	-0.021938827
41	0xbcdbbf7b	-0.026824703
42	0xbaf81b73	-0.0018929079
43	0xba37b080	-0.00070071965
44	0x39085c90	0.00013004453
45	0x3a3b5e06	0.00071474945
46	0x380db4d8	3.3785444e-05
47	0x395afc9e	0.00020884207
48	0x3bb41684	0.005495848
49	0x3c093702	0.008374931
50	0x3a8d579d	0.0010783557
51	0x3a6d874d	0.0009060994
52	0x3ab4a2f1	0.001378147
53	0x3b5969dc	0.003317467
54	0xbae3cd3a	-0.0017379888
55	0xbbecff29	-0.007232566
56	0x3948079a	0.00019076318
57	0x3964bf6d	0.00021815086
58	0xb921a01b	-0.000154138
59	0xb9b5eab1	-0.0003469787
60	0xbc047360	-0.008084148
61	0xbc241c63	-0.010016534
62	0xba1357cd	-0.00056206883
63	0x3a3ff4e8	0.00073225657
64	0x3cf7c0f2	0.03024337
65	0x3d26a5c1	0.04068542
66	0x3ae32f31	0.001733279
67	0xbb9468da	-0.004529101
68	0x3be5299c	0.0069934856
69	0x3c0b1fb2	0.0084914435
70	0xb8cc364e	-9.737593e-05
71	0xbb1e751a	-0.0024178685
72	0xbb44fd1a	-0.0030058087
73	0xbbc49d8e	-0.0060002273
74	0x3b2b75ae	0.0026162672
75	0x3cae0a0d	0.021245027
76	0x3c4adfe7	0.012382484
77	0x3c976517	0.01848082
78	0x3af2338e	0.0018478499
79	0x3a3c42ca	0.0007181583
80	0xbaaf81e1	-0.0013390147
81	0xbb60672e	-0.0034241187
82	0xbac458d2	-0.0014980084
83	0xbb26e607	-0.0025466697
84	0xbaaa3af3	-0.0012987539
85	0xbb04813a	-0.0020218627
86	0x398ef114	0.00027263968
87	0x3b171d4e	0.0023058238
88	0x3b14bffa	0.0022697435
89	0x3b0c19de	0.0021377723
90	0xb892f988	-7.008301e-05
91	0xb947e968	-0.0001906507
92	0x3c6c0ce3	0.014407369
93	0x3ca2e34e	0.019883778
94	0x3a9ccb00	0.0011962354
95	0xba814704	-0.0009863083
96	0x3931aae2	0.00016943694
97	0x39623af6	0.00021575004
98	0x37e712d8	2.754612e-05
99	0xb8906465	-6.885155e-05
100	0xb922a72e	-0.00015511803
101	0x3a11b8d8	0.0005558855
102	0xb83e5444	-4.537801e-05
103	0xbb36de0a	-0.0027903342
104	0x3b380ee0	0.0028085038
105	0x3b3b0d06	0.0028541698
106	0x3a0b7fdb	0.0005321481
107	0x3b1e1e2b	0.0024126868
108	0x3c1e298a	0.009653458
109	0x3c48729e	0.012234358
110	0x398e3578	0.00027124188
111	0xbafbc89c	-0.0019209567
112	0xba70c9d3	-0.00091853476
113	0xba539d18	-0.000807242
114	0xb929c43e	-0.00016190202
115	0xb9fa3320	-0.00047721807
116	0xb810f566	-3.456082e-05
117	0xb8e8653f	-0.000110814806
118	0xb8126436	-3.490244e-05
119	0xb8a08358	-7.653859e-05
120	0xba5db0ec	-0.00084568444
121	0xbaf6f59a	-0.0018841506
122	0xb8e66f02	-0.000109879315
123	0x3a4e6003	0.0007872583
124	0xbac012b9	-0.0014654017
125	0xbb192a23	-0.0023371063
126	0x39c2fd81	0.0003719144
127	0x3b51aa83	0.0031992502
128	0x3b21c8db	0.002468637
129	0x3b4f46c8	0.0031627882
130	0x3933d240	0.00017149094
131	0xb91e970e	-0.00015124326
132	0x3bbb3a77	0.0057137567
133	0x3bdc8c12	0.006730565
134	0x399bf1ee	0.00029744155
135	0xba61ebce	-0.00086182065
136	0xbd37d1aa	-0.044877686
137	0xbd6b8a28	-0.057504803
138	0xbb94102c	-0.0045185294
139	0xb92a6520	-0.00016250135
140	0x3a780a63	0.0009461997
141	0x3af863ee	0.001895068
142	0x39859461	0.00025478288
143	0xb91c7751	-0.00014921768
144	0xbab8aa06	-0.0014088757
145	0xbae36f26	-0.001735185
146	0xb8cc7532	-9.749307e-05
147	0x391be992	0.00014868964
148	0x3b832aae	0.0040028905
149	0x3be197a2	0.006884531
150	0xb70327d0	-7.817478e-06
151	0xbb108d3e	-0.0022056843
152	0xbacee4b4	-0.0015784712
153	0xbadebdd8	-0.0016993834
154	0x3a4cbcfe	0.00078101445
155	0x3b9b40db	0.004737956
156	0xbae15838	-0.0017192429
157	0xbb41fcbe	-0.002960011
158	0x37f245d6	2.8881168e-05
159	0x3a8a4a57	0.001055072
160	0x3a9281e5	0.0011177628
161	0x3b1f5dff	0.00243175
162	0xb9d99af4	-0.00041504914
163	0xbb068850	-0.0020528026
164	0x385fbf04	5.334524e-05
165	0xba5e8983	-0.0008489119
166	0x3a253eae	0.00063035905
167	0x3b5bce24	0.0033539617
168	0xbc05476c	-0.008134704
169	0xbc22e03e	-0.009941159
170	0xba2064e7	-0.0006118551
171	0x39c1f3c7	0.00036993457
172	0x395568c4	0.00020352291
173	0x3a69a9cb	0.0008913546
174	0x390b010a	0.0001325646
175	0xb95bbcbc	-0.00020955777
176	0xbc09ee6a	-0.008418659
177	0xbc36f919	-0.011167788
178	0xb9e805e7	-0.00044254886
179	0x3b1f5952	0.0024314714
180	0x3cd5c216	0.026093524
181	0x3d01b77c	0.031669125
182	0x3a6f5170	0.00091292616
183	0xbb2f11da	-0.0026713521
184	0xb8991ad2	-7.300604e-05
185	0xb99879b4	-0.00029082375
186	0x39893ba4	0.00026175112
187	0x3abe8667	0.0014535905
188	0x3c23edfb	0.010005469
189	0x3c4c4bd2	0.012469249
190	0x3a44baeb	0.00075046596
191	0x39090728	0.00013068004
192	0x3a7bcaf8	0.0009605135
193	0xbb0579fa	-0.0020366893
194	0xbb1c1403	-0.002381564
195	0xbbbda786	-0.0057877926
196	0xbb4f5de5	-0.003164166
197	0xbb9a63ed	-0.004711619
198	0xba8a52ea	-0.0010553275
199	0xbb60c5bc	-0.0034297546
200	0xbab1b34a	-0.0013557461
201	0xbaf516ea	-0.0018698846
202	0x39ceaa13	0.00039418097
203	0x3b2fcd91	0.0026825408
204	0x3b5f0e4a	0.0034035617
205	0x3b599960	0.003320299
206	0xb8c9050a	-9.5853655e-05
207	0xb9a47c4f	-0.00031373135
208	0xb7916b5e	-1.7335344e-05
209	0xba02c5b5	-0.0004988567
210	0x3722cab8	9.703152e-06
211	0x3a0093e5	0.00049048505
212	0x3b6516c2	0.0034956192
213	0x3b3fe906	0.002928318
214	0xb93a40f4	-0.00017762539
215	0xb99005a3	-0.0002747002
216	0x3c2824d4	0.010262687
217	0x3c6d9734	0.014501382
218	0x387acc60	5.9794984e-05
219	0xbb934a4f	-0.0044949423
220	0xbaaa86ff	-0.0013010203
221	0xbb065f0f	-0.0020503437
222	0x3956d8c0	0.00020489376
223	0x3b07174f	0.0020613258
224	0xbc231d20	-0.009955674
225	0xbc3dc8c1	-0.011583508
226	0xba0d06d3	-0.000537974
227	0x39675ac8	0.00022063695
228	0x3a4c6905	0.00077976316
229	0x3b0a3668	0.0021089558
230	0xba3f2440	-0.00072914734
231	0xbb866fa3	-0.0041026636
232	0x38aad13d	8.145205e-05
233	0xb9b40988	-0.00034339377
234	0xb9ee06b5	-0.00045399895
235	0xbab2da22	-0.0013645331
236	0xbaee9b5e	-0.0018204262
237	0xbb2f0d50	-0.0026710816
238	0xb6139640	-2.1992164e-06
239	0x3a83a5e0	0.0010043941
240	0xbcf94c74	-0.030431964
241	0xbcf68aba	-0.030095447
242	0xbb8b653e	-0.0042540124
243	0xbc550d9b	-0.013003732
244	0xbaea0240	-0.0017853454
245	0xbb1b38ce	-0.0023684981
246	0x394f7aa0	0.0001978674
247	0x3b0be550	0.0021346398
248	0xbb07fef8	-0.0020751338
249	0xbb84f037	-0.004056956
250	0x3ab87f70	0.0014076065
251	0x3c36c349	0.011154958
252	0xb9bac153	-0.00035620722
253	0x382ad8e0	4.073314e-05
254	0xb98d3223	-0.0002693097
255	0xba81866e	-0.0009881982
