CartPoleHighRewardIn2026/checkpoints/checkpoint_ep200_reward148.00.pt (torch, 421217 bytes, 33 tensors)

feature_layer.0.weight f4 [128, 4]
00000000: a288 093d 02f5 f7bd c22c b5be 51cc 383d
00000010: 3a2c 373d 886a f5bb 0fcd f1be c102 7abd
00000020: 7d55 19be cdf4 ff3c c609 07bf d7ee 16be
00000030: b3ce 42bc b39d cebd 3cfc 4e3e 4be1 a8bd
00000040: bfa2 9a3d 89be 5abd e5d2 0a3f 3597 3f3d
00000050: 6f6d 023e 10f6 923c c089 76be 8c1d d9bd
00000060: 4803 d23b d496 a83c 67f9 303d a585 ba3c
00000070: 3b0a 6bbd d3c2 d83d cbbb 13be 7463 a63d
00000080: 6bf6 7fbe 3faf c03d 5ed4 543e e110 a03c
00000090: 93d8 c33d 1c84 a2bd 4c77 07be 9cac 05be
000000a0: d837 e73d 9f50 ccbd 86cb fa3c 452d 3ebd
000000b0: 827c f33d 2da2 ef3d 0e0d f13e 8fc8 a03d
000000c0: 531c b7bd 335f ac3c 8a36 813e af8d 7e3b
000000d0: 4686 6d3d a227 873d 5d42 e2be ffcf b13d
000000e0: 30c8 863d 7ede 343d fc5d c2bd ac75 90bc
000000f0: 01d0 193c 6304 24bc 7a06 96bd fb0d 3fbe
00000100: 2668 963c 4ad0 dfbc 755c 3c3e 9e0b 09bd
00000110: 718c 08be d910 3b3e b842 6c3d 10a7 cf3d
00000120: 3eb7 adbb f9fa a33c 2819 1bbf 5123 23bd
00000130: 7f75 22bc 68a9 b03b 9eef b43e a91d 45be
00000140: 78c7 3d3d 1282 f4bc 268e f8be b148 bfbd
00000150: 86f7 f13c deb5 673b e244 e43e fa70 253e
00000160: fea5 743e 16f1 bcbd 84e1 ddbe e8c0 05be
00000170: bbac d8bc 06da 26bc 2794 e93e 9d8e 4dbd
00000180: 1901 d43c d648 813c a181 e33e bb3f e73d
00000190: ec8f 993b 66ab 353d bbe1 f3bc c0c9 4a3d
000001a0: 7aa5 c7bd 9ad3 093d caa3 3cbe 807b be3d
000001b0: 1c3e b4bd f6f2 893d a15a 71bc 58aa 3e3e
000001c0: fb70 893d 41b1 2b3e 7982 8abe d648 53be
000001d0: 2c79 65bd c9e3 8f3d 65b3 d83e fc70 cc3c
000001e0: b82a 653e d2d6 4cbe aecb 933e ea40 433c
000001f0: e8f1 1dbd c31f 343d 3dd5 293f 329f b63d
00000200: 3187 603d 4138 93bc ec81 323e 1bf1 f3bd
00000210: 908c 043d b0cd fcbd 44d3 88be d07a 68bd
00000220: 7e3b 703d 3443 50be 6021 e7be 1198 3abe
00000230: ca19 573e ccca b5bd fd69 b4bd 7d08 6e3d
00000240: 33ba d1bd 532f a23c 8ad9 b63e be6c 50be
00000250: a12a 023c b724 f03d f19f be3e e5ee bd3d
00000260: 9efa 6a3d 3a3b 41bd 67ab 3b3f 54e8 ca3c
00000270: f9b0 05be ba96 d13d d6c3 b93e 6ce2 afbd
00000280: a5dc 073e 7280 283d 6a58 943e 5691 2abe
00000290: 3f9e 0f3e f34b 153e 94d5 51bd e715 fe3d
000002a0: aa4c 76bc 34d6 093a 167d 23bf 4951 16be
000002b0: 415c e93d 2914 2b3e fa20 83bb 505d e43d
000002c0: 1805 64bd 3750 16be 9da9 de3e 1f62 2c3e
000002d0: ff9c 28bd 9b0d 2fbe 9a1e 7ebe 9cde 11be
000002e0: cd3a db3d 6176 d6bd 2452 41bd 0f62 05bc
000002f0: c065 e8bd a03c 58be 1421 6f3e feb8 f9bd
00000300: 6c49 9abd c55c 893d 30e8 e6be 4a67 d0bc
00000310: 9f6e 503d c1ea 1ebd b99c 37bf 4735 0cbe
00000320: 142f 183e 6fae ddbd 0e8e dd3e 15af 993d
00000330: 8948 58bd 6f6c 8d3d d163 00be 50fc 5dbd
00000340: 5cf5 5e3e 0e3e 0d3d 70c7 52be 0da8 b7bd
00000350: b478 09be f6a3 063e 1a58 8d3e 6eb7 fbbd
00000360: 0808 dd3d 8a96 b8bd 1209 38be ceb0 a9bc
00000370: 72a3 a4bd 05a4 c33d b82d dc3e 6c8a 2f3e
00000380: 2a0f 71bd 4fc9 1cbe a011 833e c78d 173e
00000390: eb80 333e 1f90 083e eec0 a5be 675c f13d
000003a0: e182 b63d 624a f3bd e40d 15bf 2d68 5dbe
000003b0: 7686 80bd e9c9 863d b160 9e3e b54e 43be
000003c0: 6db1 243e 79f2 85bc 136c 0dbf ef7f a2bd
000003d0: 9df0 f3bd 9092 f3bc ced8 043f 7530 ad3d
000003e0: c075 9cbd cfc4 c5bb b3f7 ed3d fbea ca3d
000003f0: 366e 8c3b 5707 09bc fcd4 ec3e 96c2 433d
0.03357757 -0.121072784 -0.3538571 0.045116726 0.044719912 -0.007489506 -0.4722676 -0.061037783
-0.14974017 0.03124466 -0.5274929 -0.14739548 -0.011890101 -0.100886725 0.20213407 -0.08246096
0.075505726 -0.053404365 0.5422805 0.04677506 0.12737058 0.017939597 -0.24075985 -0.10601339
0.0064090826 0.020579733 0.0432066 0.022768805 -0.057382803 0.10584035 -0.14427106 0.08124438
-0.24996345 0.094084255 0.20784137 0.019539298 0.09562793 -0.07935354 -0.13229102 -0.13054127
0.11289948 -0.09976315 0.030614626 -0.04642989 0.11888982 0.117008545 0.47080272 0.078507535
-0.08940949 0.021041488 0.25236923 0.0038841774 0.05798938 0.06599356 -0.44191256 0.0868225
0.065811515 0.044157498 -0.09490582 -0.017634235 0.009387971 -0.0100108115 -0.07325454 -0.18657677
0.018360209 -0.027321 0.18394645 -0.033458345 -0.13334824 0.18268146 0.057680815 0.101392865
-0.005301385 0.020017134 -0.6058526 -0.039828602 -0.009915709 0.0053912885 0.35339063 -0.19249596
0.046332806 -0.029847179 -0.4854595 -0.09340037 0.029536974 0.0035356204 0.44583803 0.16156378
0.23891446 -0.09225671 -0.43336117 -0.13061869 -0.026449552 -0.010183817 0.45620844 -0.050184835
0.02587943 0.015781801 0.44434837 0.112914525 0.0046863463 0.04435291 -0.029770723 0.04950881
-0.09748359 0.033649065 -0.18421856 0.093008995 -0.08800909 0.06735794 -0.01473108 0.18619668
0.067110024 0.16766836 -0.27052668 -0.20633253 -0.05602376 0.070258684 0.42324367 0.024956219
0.22379577 -0.20003822 0.28866333 0.011917332 -0.038560778 0.043975603 0.66341 0.08917083
0.05481643 -0.01797116 0.17432374 -0.119112216 0.032360613 -0.12343919 -0.26723683 -0.056757748
0.058650486 -0.20338136 -0.4514265 -0.18222071 0.21005931 -0.08876571 -0.08809278 0.058113564
-0.10240593 0.019797957 0.35712844 -0.20353982 0.007944734 0.11725753 0.372314 0.09274081
0.057367913 -0.047175623 0.73308414 0.024768986 -0.13055791 0.10233827 0.36282223 -0.085881084
0.13267763 0.04113812 0.28973705 -0.16657004 0.1402521 0.14579754 -0.051229075 0.12406521
-0.015032927 0.0005258054 -0.6386274 -0.14679445 0.11394549 0.16706909 -0.004001734 0.111506104
-0.05566892 -0.14679037 0.4348878 0.16834305 -0.04116535 -0.17095034 -0.24816361 -0.14245075
0.10704575 -0.10471798 -0.047197476 -0.008141055 -0.11347532 -0.21116877 0.23352462 -0.121934876
-0.07533535 0.067071475 -0.4509902 -0.025439877 0.050886746 -0.038798098 -0.71723515 -0.13692199
0.14861709 -0.10824286 0.43272442 0.07504097 -0.05280355 0.06905448 -0.12538077 -0.054195702
0.21773285 0.034483008 -0.20583892 -0.089676 -0.13424951 0.13148484 0.2760628 -0.12290846
0.107925475 -0.09013088 -0.1797221 -0.02071419 -0.08038987 0.095527686 0.4300363 0.17142648
-0.058852352 -0.15311168 0.25599384 0.14800178 0.17529647 0.13336228 -0.32373756 0.117852025
0.08911682 -0.11879422 -0.5822432 -0.21621771 -0.062756464 0.0658148 0.30933145 -0.19072993
0.16083308 -0.016350972 -0.55243033 -0.07934558 -0.11911128 -0.029732972 0.5189332 0.08456508
-0.076396465 -0.0060354243 0.116195105 0.099081 0.004285599 -0.008363566 0.46256244 0.047792993

feature_layer.0.bias f4 [128]
00000000: c5c9 5d3d edb8 c0bd 6b4d 6cbd 7e32 003e
00000010: d868 b8bc b9ba 813d b698 063e f5d8 083e
00000020: 04b5 943d 4ac6 f93d 4df7 edbd abac 8ebd
00000030: 61fa 0a3e 72a3 5d3d 6bce b43d 2943 13be
00000040: 70d7 063e b281 e7bd 4151 c8bd 9730 6cbc
00000050: f64a e0bd 0f8c 98bd e106 5f3d e563 d73d
00000060: 8f52 d7bd cb25 e8bd 68b9 59bc 27b5 b83d
00000070: b136 eabc 56a6 f3bc 729f 18bc 2a5d c2bd
00000080: 98cc f6bb 5da7 9d3d ecb2 dbbd 2a51 7b3d
00000090: d2a7 8abc 6951 ce3d 503a d2bd 16fb 8ebd
000000a0: 2dbd 383d c125 12be 63f3 1abe db8c 363c
000000b0: 187b 04be b334 8e3d 7a46 a73d f393 083d
000000c0: b310 023e 4172 24be 18ab b7bd 92d9 503d
000000d0: 0703 0abe 2170 39bc 898d e13d 9485 d0bd
000000e0: 7d52 a3bd 786d b93d 6aa2 34be 2103 b0bc
000000f0: cb72 f4bd d06c a1bd 3733 30be 18b5 8bbd
00000100: 25fa b9bd 4818 153e 4b94 cbbd 3013 a63d
00000110: 8bce dbbd 0e16 033e 2842 bdbd 2339 7d3d
00000120: 1fd2 c83c beba e53d 4ddc 92bd d592 b8bd
00000130: 1fa4 bfbd f929 ec3d 2fdc 9bbd 8e69 bf3d
00000140: ee2d 18be 207e e23d c98d 0b3e c086 983d
00000150: aadd 193d f9e2 f53d 16e4 83bb 74c0 ec3d
00000160: 6b21 943d f8ea b9bd 3fe9 fabd 3b6d d53c
00000170: bef5 18bd 74ef bf3d 87ee f2bd 66d2 0abe
00000180: 17b8 10be 527c b9bd f877 9abd 9896 cabd
00000190: 0cd0 a93d ed8a ea3d 79d6 debd fff9 f63c
000001a0: 261e b63d caa0 ebbc 785c 0ebe a2bd eabd
000001b0: 013e 05bd 1ed9 1bbc df00 fd3d e130 ed3d
000001c0: af64 843d 6398 f1bd f86c e53d 72ae da3d
000001d0: 1c75 4d3d 7683 d1bd 93aa c8bd 2642 8a3d
000001e0: 44a5 afbc 1ba5 fdbd b5ce 08be f321 14be
000001f0: ebd1 883d 5741 bbbd c126 913d e412 e0bd
0.0541475 -0.09410272 -0.05769102 0.12519261 -0.02251093 0.06334443 0.13144192 0.13364013
0.072610885 0.12196024 -0.116194345 -0.069665276 0.13572074 0.05411095 0.088284336 -0.14381088
0.1316812 -0.11304034 -0.09781123 -0.014415882 -0.10951798 -0.07448589 0.05444992 0.105171
-0.10513794 -0.113353334 -0.013288833 0.09018927 -0.028590532 -0.029742401 -0.0093153585 -0.09490426
-0.0075317137 0.07697938 -0.10727486 0.0613567 -0.016925726 0.100741215 -0.102650285 -0.069814846
0.045102287 -0.14272214 -0.15131907 0.011141981 -0.12937582 0.06943645 0.08167739 0.03334422
0.12701683 -0.1605921 -0.089681804 0.05098874 -0.13477717 -0.0113182375 0.11013324 -0.10181728
-0.07974718 0.09054083 -0.17640081 -0.021485867 -0.119359575 -0.078820825 -0.17207037 -0.0682165
-0.090809144 0.14560044 -0.09940394 0.081091285 -0.10732754 0.12801382 -0.09241134 0.061822068
0.024514256 0.11217259 -0.07170925 -0.09012381 -0.093574755 0.11531443 -0.07610356 0.09346305
-0.14861271 0.11059213 0.13628305 0.074475765 0.03756491 0.12006182 -0.0040249927 0.11560145
0.072329365 -0.0907802 -0.122515194 0.026053062 -0.037343733 0.09371844 -0.11861902 -0.13556823
-0.14132725 -0.09056915 -0.075424135 -0.09892005 0.08291635 0.11452279 -0.10880751 0.030148504
0.08892469 -0.028763194 -0.13902462 -0.11461951 -0.032529835 -0.009512214 0.12353682 0.115815885
0.06464516 -0.117966436 0.11202425 0.10677804 0.050160512 -0.10230152 -0.097981595 0.06750898
-0.02144111 -0.12385007 -0.13360102 -0.14466076 0.06680664 -0.09143322 0.0708747 -0.10941103

feature_layer.2.weight f4 [128, 128]
00000000: 418e 26bd a907 4dbc 8338 62bd 900d aa3e
00000010: 8ada 373e 146c 7abc f51b 153e 1836 b63c
00000020: 03b1 cf3d 8ecd 54bd 9b41 763d 484d 1e3e
00000030: e0df 0f3e 14d0 99be b824 f13d 876f 4bbe
00000040: 6a11 8b3e f26c 51bd 117b fabe ea32 c93d
00000050: 9eb8 40be 9fcb 2b3e 3259 8b3e 7e2b 843e
00000060: dcb0 703e 71b4 25be 3019 b53d c45d 373d
00000070: 7199 6e3d 12e1 983d 8a6e 393e 1155 9d3e
00000080: ff8e d23d 7302 09be 5685 1cbe 9c2a 143e
00000090: af9a 0f3c 3879 e43d ad31 d93e 1e39 22be
000000a0: 1b93 e83d c3da 873b 5af4 84be eb92 da3d
000000b0: 2550 893e 23e0 1ebc c125 903c 01ae 493d
000000c0: fa62 5ebe 67bd 04bf 0bbe 7b3e a286 c83d
000000d0: 041d 903d eb06 fabd f1ce f4bb d8fa 803e
000000e0: d213 c33d da99 3abc fd9e 03bf 9a73 b13d
000000f0: a932 10be 146d 803e 1cc3 07bd 2919 3b3e
00000100: aa0b 973e 64ad eebd 1b78 a8bd f8ca 573e
00000110: 5eaf f9bd 6e1c a53d 4dc3 843e dae4 893e
00000120: e866 8b3c 582d afbd 6c72 623e 09cb f73e
00000130: b99e 0b3f 330a 703d a538 a23e 2ca6 373e
00000140: 28d7 423f e8f9 753d 8efa f9bd 57e4 8cbd
00000150: b689 f13d 4706 8e3e b28b 1bbe 819b 37bd
00000160: 85e2 933e a963 84bd 9e5a 433d 0800 cb3d
00000170: e125 e83d 539b fcbc f398 e03d 1ec7 973d
00000180: 50f5 1d3e a7cf b73e 6d32 1bbe f838 e03e
00000190: 1be8 2b3e 6cc4 943c 991c e7bd 097c e8bc
000001a0: e70c 1a3e 9604 183e ec29 053f 1586 8fbe
000001b0: 504d 8d3e 7134 88bd 5f73 413d 2af0 b63d
000001c0: b301 523e 2e0a ffbe caa0 863d 1ee6 003d
000001d0: e337 aebd e6de 59be b5b7 033f 528e 84bd
000001e0: 0e92 4abd 2403 c9bd 0c0a 85bd 1777 62bb
000001f0: 6e40 b23d f111 413d cc53 7d3e 80f3 f2be
00000200: 9285 343d cb86 00be 49d9 15bd ced4 bfbc
00000210: 2764 a93d 620f 6bbd a09d 0d3e 317c 0e3e
00000220: 3ace 2a3e dfc5 053e fb60 123d 3679 6dbd
00000230: 5f0d d93d 7cc7 023e 14fa 093e 87d7 edbd
00000240: 1aaf 163e 9b49 d53b 54c7 2bbe 57cb 203c
00000250: f40e b7be 5def a03d 1a3d efbd cbf2 d53d
00000260: a191 db3d 9770 bcbc 9a69 05be dfa7 f1bd
00000270: 21e6 c5bd 78cb 99bd baab c33d 8cca 593c
00000280: 3e44 d9bb fbb7 e63d ce28 1ebe 3a91 c5bd
00000290: 2cdc 8d3d 3591 163e c9bd 81be 6ed7 883d
000002a0: 4d78 13ba 18b7 01be 1ced 2ebe 423d 4ebd
000002b0: e8f8 fb3d 351e 103e 646f babd b156 fa3d
000002c0: 94d3 51bc ce12 d1be 9e48 483d a34f 403d
000002d0: 229d e83b a364 c7bd 700b 6f3d ab96 bdbd
000002e0: 16c6 433e 88a8 5b3e 184b b5be f91c f03d
000002f0: 0c44 80be 9680 77bd 33ab b13d 4c21 51bd
00000300: ac68 99bd 5f5b 61bc 6670 8bbe f8e3 95bc
00000310: f6e4 c1bc 6bee 403e 2e5c 943d 18f2 463d
00000320: a2e0 38bd 8c19 043e c262 e73d 02d1 febd
00000330: 4bf3 5abc 55c1 413e 25a7 9d3d 691a e0bd
00000340: 8395 5cbe e1b3 b7bb 401e da3c 506f 77bd
00000350: 6258 13bd 5608 6e3d f6a8 283a 1676 a2bd
00000360: 93fc 76bb a0c9 8abd be33 1d3e 28a5 2e3e
00000370: 491e 083e c7c7 fdbd c6cc e03c 9023 cdbd
00000380: dab2 f83d d575 883d 8c73 ee3d 08cb 183e
00000390: f8ff 17bd 152a 553e a638 06bd 5252 ccbd
000003a0: 51ee 9c3d 9792 ddbb eb7f 6ebd 4bcf 22bf
000003b0: 6907 bf3d 61fe 33bd bf7a 933d 5553 e2bc
000003c0: edc9 24bd f4bd babe a18f 483d 78cb b93d
000003d0: f7c8 34bd 0ec3 30be 5d2e 9a3c bcd3 63bd
000003e0: f7f3 a2bd 702e 93bd aef7 2abe ef33 3cbd
000003f0: 61c1 423d f30f 723d 02ec de3d a3db b8be
-0.040663008 -0.012514033 -0.055229675 0.33213472 0.1795446 -0.015284557 0.14561446 0.02224259
0.10141184 -0.051953845 0.06012116 0.15459168 0.14050245 -0.30041564 0.11774582 -0.19866763
0.27161723 -0.05112929 -0.48922017 0.09824164 -0.18820426 0.16776894 0.27216488 0.25814432
0.23504966 -0.16182114 0.08842695 0.044767156 0.058251802 0.07464804 0.18108574 0.30728963
0.102811806 -0.1337984 -0.15285239 0.14469379 0.008764907 0.11155933 0.42420712 -0.15842101
0.11356183 0.0041459515 -0.25967675 0.10672554 0.26818958 -0.009696993 0.017596127 0.04923821
-0.21717444 -0.51851505 0.24584214 0.09791304 0.07036784 -0.12208351 -0.0074709584 0.2519138
0.09525265 -0.01138922 -0.5141447 0.086646274 -0.14081825 0.2508322 -0.033145055 0.18271317
0.29501086 -0.116541654 -0.08226033 0.2107352 -0.12191652 0.08062063 0.25930253 0.26932412
0.017016843 -0.085535705 0.22113961 0.4839709 0.54539067 0.058603477 0.3168384 0.17934483
0.7610955 0.060052782 -0.12205993 -0.0687949 0.117938444 0.27739164 -0.15190008 -0.044826034
0.28883758 -0.06464321 0.04769384 0.09912115 0.1133535 -0.030835783 0.10966673 0.074110255
0.1542561 0.35900614 -0.15155955 0.43793464 0.1678776 0.018160067 -0.112847514 -0.028379457
0.15043984 0.148455 0.5201709 -0.28031984 0.27598047 -0.066506274 0.047229167 0.089325264
0.2050846 -0.49812454 0.06573637 0.031469457 -0.08506753 -0.21276435 0.5145219 -0.06472458
-0.049455695 -0.09815052 -0.06496057 -0.0034555846 0.08703695 0.04713625 0.24738997 -0.474514
0.044072695 -0.1255142 -0.036584172 -0.023416903 0.08271056 -0.057387717 0.1382966 0.13914563
0.16680232 0.13063763 0.03573702 -0.057976924 0.105982535 0.1277141 0.13474303 -0.11613374
0.14715233 0.0065090186 -0.16775256 0.009814105 -0.35753596 0.07858155 -0.11681576 0.104467
0.10721136 -0.023002906 -0.13028565 -0.11799597 -0.09663034 -0.07509512 0.095542386 0.01329292
-0.0066304496 0.1126556 -0.15445253 -0.096468404 0.0692676 0.1470383 -0.25340107 0.06681715
-0.0005625531 -0.12667501 -0.17082638 -0.05035139 0.123033345 0.14074023 -0.09103277 0.12223566
-0.012806792 -0.4083466 0.04889738 0.046950947 0.00709881 -0.09735992 0.058360517 -0.09257253
0.19118533 0.21451008 -0.35408854 0.11724276 -0.25051916 -0.060425363 0.08675232 -0.051057145
-0.07490668 -0.013754695 -0.2723419 -0.01829718 -0.023668747 0.18840949 0.072441444 0.048570722
-0.0451361 0.1290037 0.112981334 -0.12442209 -0.01336367 0.18921407 0.07697896 -0.10942537
-0.21541409 -0.00560616 0.026625752 -0.06040889 -0.03597296 0.05811342 0.00064338685 -0.07932679
-0.0037687167 -0.06776738 0.1535177 0.1705519 0.13292803 -0.1239162 0.027441394 -0.10016549
0.12143488 0.066631 0.116431326 0.149212 -0.037109345 0.20816834 -0.032768868 -0.09976639
0.07662643 -0.0067618596 -0.05822746 -0.63597554 0.09327585 -0.043943767 0.07201146 -0.027627626
-0.040231634 -0.36473048 0.0489651 0.09072012 -0.044136968 -0.17261907 0.018820936 -0.055621848
-0.07956689 -0.071865916 -0.16696045 -0.045947965 0.0475477 0.05909724 0.10884859 -0.3610507

feature_layer.2.bias f4 [128]
00000000: 9ef9 fb3d c637 063e 160b 033e 8336 cb3d
00000010: cf65 04bc 552a 0d3e 06ce 013e e453 e9bc
00000020: ab10 213e 6e2d afbc 3748 033e 8c4f 39bc
00000030: a667 fb3d 5f80 89bd ea4b 4abc cc7a 193e
00000040: 099d 5bbd 86ef acbd 3824 123e 2d51 0c3e
00000050: c684 1bbb f725 0a3e 3ba0 5abd 010f 083e
00000060: 6157 a6bc 8975 b93d 16a6 033e 03fe 46bc
00000070: 0492 2fbd d7d0 163e 0ee6 223e f3ba 063e
00000080: 0040 37bc badb f83d 441d a13d 26d6 0d3e
00000090: 1b7a 37bc 16b5 063e 215d 153e 949c 60bc
000000a0: bb04 4dbc 3c52 6ebc 8c7f 8f3c e76b e53d
000000b0: 6cb1 df3d 43d8 213d 6af3 f8bd 2a12 cb3d
000000c0: c41d 95bd 2adf 73bc 12b9 e33d 0000 0000
000000d0: 5b9d 083e f9e6 a43d 6936 a8bd b93a 093e
000000e0: ca97 82bc 8e81 093e 6af0 21bc 25ff d5bb
000000f0: d9b8 83bd 28c5 c7bc 9f9b 1bbd 504b b0bd
00000100: 9c74 e83d bf43 263e c615 82bd 652d ff3d
00000110: 4a15 0a3e 8db1 053e 7e0d 8cbc b2aa 073e
00000120: 7b56 aabc d66a 62bc 0fa8 0b3e a723 ff3d
00000130: bf71 ac3d 030f f83d 8ffb 96bc 0837 e33c
00000140: 2210 e73d 4a74 243e 2cac 6cbd 2a25 ff3d
00000150: cb2e c7bc a5b7 143e 54c3 96bd 75d9 99bd
00000160: 66fc 103e 0000 0000 132e 053e 6760 1d3e
00000170: a057 d53d be83 f43d 8704 04be b19d e13d
00000180: 5530 5cbc 9ae8 113e b00b bc3d 2a95 123e
00000190: a648 203e c397 94bc 3dde 0cbd 4adc 153e
000001a0: 910c b6bc ef0f f13d 5831 163e d61b 073e
000001b0: 57f3 34bc 5000 003e 2a72 92bd caec 78bd
000001c0: 2ef3 82bc 4409 2c3e a783 36bd fac4 42bd
000001d0: 4bc4 21bd d06c 083e 213c 013e fc15 a83d
000001e0: c2c1 023e bef4 013e 20a4 45bd 3594 10bd
000001f0: 7184 87bd 4fb3 18bc 4264 0b3e ad1d 023e
0.1230347 0.13107213 0.12797198 0.09922507 -0.008080914 0.1378568 0.12676248 -0.028482385
0.15729015 -0.021383967 0.12820517 -0.011310469 0.12275629 -0.06713938 -0.012347201 0.1498825
-0.053616557 -0.08444123 0.14271629 0.13702841 -0.0023730262 0.13491045 -0.053375464 0.13286974
-0.020305337 0.09055621 0.12856326 -0.012145522 -0.04286386 0.14728104 0.15908071 0.13157253
-0.011184692 0.121512845 0.0786691 0.13851222 -0.011198546 0.13155016 0.14586307 -0.013709206
-0.012513335 -0.014545973 0.017516874 0.11202221 0.109225124 0.039512884 -0.121558025 0.09915574
-0.07281068 -0.014884749 0.11119284 0.0 0.13341276 0.08051867 -0.08213503 0.13401307
-0.01594152 0.13428327 -0.009883979 -0.0065306597 -0.06431741 -0.024386004 -0.03799021 -0.08608115
0.113503665 0.1623678 -0.06351809 0.1245983 0.13484684 0.13056011 -0.017096277 0.13248709
-0.02079319 -0.013819417 0.13638328 0.12457972 0.08420133 0.12112238 -0.0184305 0.027736202
0.11282374 0.16059986 -0.057781383 0.1245826 -0.024314305 0.1452318 -0.07361475 -0.0751218
0.14158782 0.0 0.13005857 0.15368806 0.10417104 0.1193919 -0.12892352 0.110164054
-0.013439258 0.14248887 0.09181917 0.14314714 0.15652713 -0.018138772 -0.03439163 0.14634815
-0.022222789 0.11770617 0.1466726 0.13194212 -0.011044345 0.12500119 -0.07150681 -0.060772695
-0.015985098 0.1680041 -0.044559147 -0.047551133 -0.03949384 0.13322759 0.12620594 0.08207318
0.12769225 0.12691018 -0.048252225 -0.03529759 -0.06617058 -0.009320094 0.13612464 0.12706633

value_stream.0.weight f4 [64, 128]
00000000: d859 1bbe 97ff 333e f726 383d 9d66 703d
00000010: 881c 9e3d 9418 533e fb75 2c3d 2937 3ebd
00000020: cd82 7a3e e27f a0ba 1078 a03d e756 223d
00000030: 5365 993c 2c1d b7be 90d8 07be 5253 143e
00000040: 3889 a93d 8ec8 bb3d 057a b6bc 2f41 863e
00000050: 613d 273e abbd 653d 8f51 1ebf 7886 853d
00000060: 84fe 783c 9eab afbd e92f 7f3c da7b acbd
00000070: 8241 a8be da28 633e e804 fc3d 8f64 293c
00000080: 8753 2c3e 4165 a93d 05c6 653d 2b8a 8a3d
00000090: d549 4abe c2c1 0cbd 44e0 a53d a4ba 5fbd
000000a0: f7a4 f33d bb62 903c e6c8 503d 2389 473e
000000b0: 84ef 23bd 063e 693b 20ac 26be c6bb 18be
000000c0: eca9 24bf 5800 f23d 4140 133e 9a46 0ebe
000000d0: d417 2d3e 4bb5 13be ef25 3abe 9c63 533e
000000e0: bb3f c1bd 82a5 adbc 54ac 84bd ed95 a1bd
000000f0: 38d3 96be 9077 4dbd d6a2 95be 9eff b9be
00000100: 2207 503d 625b ee3d ba6f 2dbb f0ca f7bd
00000110: 3161 b9ba ece3 50bd ad05 35bd e715 e1bb
00000120: d277 883b 26a9 c7bc 97c8 77bd 7c58 423e
00000130: 0305 c73d 0225 bc3d 0b4e a73d 04fd 31bc
00000140: cece 323d d23c 0bbe 939c d9be 05bb 3e3e
00000150: ce1f c8bd 89ab 493e 7085 84be a332 c4bd
00000160: 0313 723d 8c8c cabd f6fc a33c 58d0 523e
00000170: d2a6 3f3c 92b2 ccbd e5da 4bbd 1cd8 56bd
00000180: d0ed 98bd 450f 26bd d8f1 a6bd 3822 bdbc
00000190: 0425 493e ca7b 0abd 90bf 68bd ce52 753e
000001a0: 78a2 df3c ac54 403e 23e9 8a3e cad1 6e3d
000001b0: 7e7d a93d 9d83 4b3e 8853 d6be 59fe cabe
000001c0: 9c57 0b3e 4e50 343e b879 8e3d c3a0 1b3d
000001d0: 35ec a7bd 7863 e93d 9592 813d d847 4e3d
000001e0: 4f1f 563e 7a31 193e d3d7 ddbe a070 16bd
000001f0: 3b03 00bf a771 773d 49a4 9c3e a02a 85bc
00000200: 12df 49bd f7ad 4c3e b204 abbd ec73 463e
00000210: 0520 273d c394 4a3e f47d ad3d 0481 693d
00000220: d472 bbbd 86e1 44bc eff7 3c3e 116f 65bd
00000230: 83b6 7a3e cf7d a0bd 0ff7 97bd 98cb 22bd
00000240: 3701 0fbe daf4 1c3d 4aaf 8ebb 5441 4f3e
00000250: f2b7 1fbd 9bb2 113e 94aa 16bd 637a 9fbd
00000260: 49e2 b6bd b7f6 2f3e 8880 2fbc 0b04 32be
00000270: c532 01be 7479 88bd 9715 27bd c56d 9a3d
00000280: ed63 0a3e 306b aa3d 8c82 613d 2798 043d
00000290: a6b3 09be b73b eb3d 0b98 393e 71c6 8c3d
000002a0: df5c 2f3e 48a7 3a3e b3ba d63c 1c41 80bd
000002b0: 4b8c 283e 5831 1f3d b8ed a8bc 3bdb 7fbc
000002c0: d8af 0bbf 2651 afbd cbfb 3d3e a287 09be
000002d0: 4f45 5f3d bd33 d8bd f7b3 0c3e 8047 f2bc
000002e0: 7e4c cdbc 2eb9 473e 5c12 213d ac0a 853c
000002f0: 34c5 71bc 7e62 5e3d 4fa1 aebc 07cc 7abe
00000300: 7efe 223e 9e6e 5a3e d87e fdbc 2284 453e
00000310: 8bc0 a43d 8e9b 333e 8c42 1abe 7cf0 bfbd
00000320: c849 6a3d f48b 823d c571 d53c e016 3b3d
00000330: 0e5b bc3d 6f44 4a3e abed 603d 36d9 563e
00000340: d4f4 693e 78cd eb3d b02a 6abe f8fc 06bc
00000350: 1758 13be fa56 173e 2958 20be be9a 5fbe
00000360: 0732 933d d51f d2bd 4d66 a13d ac02 3a3e
00000370: 09ef 3e3e 3147 9ebd 291c c9bb 776a d7bc
00000380: 13b5 06be eaf6 183e 3f38 343e a9a6 6d3e
00000390: 4cee 8c3e 880e 3fbd 0698 3abd 4363 033e
000003a0: 15fb 09be cb8b 393e dbe7 13bd 2b55 623d
000003b0: 1e5f 48bd 23e1 fb3d 4592 a43d 7de7 3ebe
000003c0: 2b25 8abd 82a3 5e3e 8c69 20be bd25 adbb
000003d0: 1e3c 06be 6d30 403d 3dd9 403e 0fad ec3d
000003e0: f243 21bd ceb1 37bd 37fc e3bd 6d64 d4bd
000003f0: deeb 80be ce3a 193e 47b5 353e 5883 93bd
-0.15170991 0.17577969 0.044959035 0.05869161 0.07720286 0.20614845 0.042104702 -0.046439324
0.24463959 -0.0012245143 0.078354 0.039633658 0.018725073 -0.35764444 -0.13266206 0.14484909
0.082781255 0.09169112 -0.02227498 0.26221606 0.16332008 0.056089085 -0.618432 0.065197885
0.0151974 -0.08577655 0.0155753875 -0.0842206 -0.32862478 0.22183552 0.12305623 0.010338916
0.16828738 0.08271266 0.05609705 0.06764635 -0.19754727 -0.03436447 0.08099416 -0.054621354
0.11896699 0.017625203 0.05097284 0.19485907 -0.04002334 0.0035589947 -0.16276598 -0.1491538
-0.6432178 0.11816472 0.1437998 -0.1389412 0.16903621 -0.14424627 -0.18178533 0.20643467
-0.09435984 -0.021197084 -0.064781815 -0.07889924 -0.29458022 -0.05016285 -0.29225796 -0.36327833
0.050788052 0.11638524 -0.00264643 -0.12099254 -0.0014143345 -0.050998613 -0.044194866 -0.006869066
0.0041646743 -0.024372648 -0.06049403 0.18979067 0.09717753 0.09186746 0.081691824 -0.010863546
0.043654256 -0.1359742 -0.4250227 0.1862603 -0.09771691 0.19694342 -0.25883055 -0.09579971
0.059100162 -0.098900884 0.020018082 0.2058729 0.011697488 -0.09994997 -0.0497693 -0.05245219
-0.07467234 -0.040541906 -0.08151597 -0.023087606 0.19643027 -0.03380946 -0.056823313 0.23957369
0.02729915 0.187823 0.27130994 0.05830554 0.08275889 0.19874425 -0.41860604 -0.39647177
0.13607639 0.17608759 0.0695681 0.03799511 -0.0819935 0.11395925 0.063267864 0.050361484
0.20910381 0.1496028 -0.43328723 -0.0367285 -0.5000493 0.06041112 0.3059409 -0.016255677
-0.049285002 0.19988237 -0.08350505 0.19380158 0.04080202 0.1978331 0.08471289 0.057007805
-0.09152761 -0.01201666 0.18453954 -0.056014124 0.24483685 -0.07836496 -0.074201696 -0.039744943
-0.13965307 0.038319446 -0.004354392 0.20239764 -0.038993783 0.14228289 -0.03678377 -0.07787015
-0.08929879 0.17183958 -0.010711797 -0.17384355 -0.12617023 -0.0666379 -0.040792074 0.07540468
0.13514681 0.08321226 0.05505614 0.032371666 -0.13447437 0.11485999 0.18124406 0.06873787
0.17125271 0.18227875 0.026212072 -0.06262419 0.16459768 0.038865417 -0.020621166 -0.015616233
-0.5456519 -0.085604 0.18553083 -0.13430646 0.054509457 -0.10556743 0.13740526 -0.02957511
-0.025060888 0.19504234 0.03932415 0.01624044 -0.01475649 0.05429315 -0.021317152 -0.24491893
0.15917394 0.2133126 -0.030944273 0.19288686 0.08044537 0.17539808 -0.15064448 -0.09372041
0.05719927 0.0637435 0.026055226 0.045676112 0.09197055 0.19752668 0.054914158 0.20981297
0.22847301 0.115137994 -0.22867846 -0.008239023 -0.14389072 0.14779273 -0.1565863 -0.21836373
0.07187276 -0.10259978 0.078808405 0.18165082 0.18645872 -0.077284224 -0.00613739 -0.026295884
-0.13155012 0.1493794 0.17599581 0.23208107 0.27525556 -0.046644717 -0.045555137 0.12830834
-0.13474686 0.18119733 -0.036109786 0.055257004 -0.048918836 0.12298801 0.08035711 -0.18642993
-0.067453705 0.21742061 -0.15665263 -0.00528404 -0.1310887 0.046921182 0.1883287 0.11556446
-0.03937144 -0.044847302 -0.111320905 -0.10370717 -0.25179952 0.14963838 0.17744933 -0.07202786

value_stream.0.bias f4 [64]
00000000: f555 183e 23f7 0b3e 3327 b6bb a8a0 ddbc
00000010: 3086 91bc 8606 143e 8d06 0c3e 6add 063e
00000020: 1689 80bc e5cb 1abc 156e 0b3e df05 de3c
00000030: c0c9 c4bb 3ac7 02bc c61a 3e3e 0d00 0c3e
00000040: 5e0b 113e 102d 163d 04a6 81bc fe5d 193e
00000050: d0df 67bc 5aa9 163e 6ab9 0d3e 0776 873d
00000060: 020b 0c3e f4e0 0b3e d660 0e3e 498d 28bc
00000070: 1fc2 dbbc 0f91 193e 0add 29bc 0579 0c3e
00000080: 5a50 07bd 30ae 8bbc 1588 cebc ac53 143e
00000090: eae9 89bc 5558 3dbc 6624 303e 2a5c 1f3e
000000a0: a780 513d 98cf 0f3e 371c 143e 55b5 51bc
000000b0: 06c4 1cbc fa8c 603d d637 2fbc 1364 123e
000000c0: 7279 193e 7edb 82bc 66f3 0b3e e5f8 82bc
000000d0: 30e2 b83c 636d 303d 5cea 103e 56bc e2bc
000000e0: 07a7 65bc 0000 0000 1435 05bd 654e 133e
000000f0: 4bab c33b e141 6a3d 08a8 11bd 0126 333d
0.1487654 0.13668494 -0.005558872 -0.027054146 -0.01776418 0.14455613 0.13674374 0.131704
-0.015690368 -0.009448026 0.13616212 0.027102409 -0.006005496 -0.00798207 0.18564901 0.13671894
0.14164492 0.03666407 -0.015826233 0.14977261 -0.014152482 0.1471304 0.13840261 0.06614309
0.13676074 0.13660032 0.13904127 -0.010287591 -0.026825963 0.14996742 -0.010367641 0.1371804
-0.033035614 -0.017050833 -0.025211373 0.14485043 -0.016835172 -0.0115567045 0.17201385 0.15562502
0.051148083 0.14044034 0.14463888 -0.012799581 -0.00956822 0.054821946 -0.010694465 0.14295988
0.14987734 -0.015973803 0.13667068 -0.015987823 0.022568792 0.04307307 0.14151901 -0.027677696
-0.014016873 0.0 -0.032521322 0.14385374 0.0059713474 0.057191733 -0.035560638 0.043737415

value_stream.2.weight f4 [1, 64]
00000000: 28d6 7d3e bb05 053e 83d3 8ebe 0c14 b03c
00000010: b417 33be bed2 473e 8e39 bb3e aac9 c53d
00000020: 52d4 80be c27c fdbd b45b 263e 9090 00bf
00000030: c9fc 0fbe 6b44 67be 911d 083e 3dac b03e
00000040: 22b9 bb3d 25c9 1abf 2559 3bbe dd62 b53e
00000050: 7be3 71be ce4d e63d 56dc 353e c256 2bbf
00000060: c4f3 823e 001b 603e a9a9 9b3e dd0f 8dbe
00000070: 3453 2abe 8c26 7a3e 2316 19bd 4dea 793e
00000080: 10ac c1bc 1188 36bd 7a75 29be 5bdf ee3d
00000090: 9876 d8bd 2ef6 86bd ecd6 9a3e 43a3 a03e
000000a0: c8fc 1abf dc68 3b3e 908d 403e 14f8 39be
000000b0: 5d70 6dbe 2224 02bf 8f9c 8dbe e349 943e
000000c0: 2a56 693e fad6 94be 8e62 af3e 52e9 eebd
000000d0: 1582 dfbe 951b d6be bd23 5d3e c437 70bd
000000e0: 4252 8cbd f380 63be d124 2bbe aa6e b93e
000000f0: ae34 c2be 5471 05bf a382 93bd a030 f9be
0.24788725 0.12990467 -0.27895746 0.021493934 -0.17489511 0.19513986 0.36567348 0.09657605
-0.25161988 -0.12377311 0.1624592 -0.50220585 -0.14061274 -0.22584693 0.13292529 0.34506407
0.09166171 -0.6046317 -0.18295725 0.3542699 -0.23621933 0.11245309 0.17759833 -0.66929257
0.25576603 0.218853 0.30402878 -0.27551165 -0.16633302 0.24428767 -0.037374627 0.24405785
-0.023641616 -0.044563357 -0.1654872 0.116636954 -0.10569495 -0.06589924 0.30242097 0.3137456
-0.60541964 0.1830172 0.18804002 -0.1816104 -0.23187394 -0.50836384 -0.27658507 0.2896262
0.22786775 -0.29070264 0.3425488 -0.11665596 -0.43653932 -0.41817918 0.21595664 -0.058646932
-0.06851627 -0.22217159 -0.16713263 0.36217242 -0.37930816 -0.5212605 -0.07202651 -0.4866991

advantage_stream.0.weight f4 [64, 128]
00000000: 8ef5 b73e 4823 06b9 dba5 b8bd daa9 463c
00000010: aff9 0f3e 2b1a 2bbd dc21 be3d cfbe b33c
00000020: 5a97 38be fcdf 08be 50ff b43b 9871 633d
00000030: f847 a03d bb90 8ebe 1206 b63d 02fc 12be
00000040: 8870 49bd be02 19be 64b0 b1be 53fe a23d
00000050: deba 103e 3917 87bd 9eb5 ef3d d5b9 b7bd
00000060: 9a24 333e 12e6 033e a1b2 773e 7d4b c43d
00000070: 32c1 bd3c 38d6 80be 986c f8bd 30a6 9cbd
00000080: 38c4 113e a6f1 2ebe b19b 0bbf 8364 963d
00000090: f51e c7bf a2d1 98be fa8a 863d 0e42 213c
000000a0: 80fc fd3d a6ec 203e cfe0 1bbd c9c1 853e
000000b0: e267 88bd a89f dabe 4cfa f4bd 16cd 09bd
000000c0: 2f08 83be 6162 e33b 9fc2 0abe 100b b5bc
000000d0: b309 b3bd bb66 823e 701e 753d 5ac6 603e
000000e0: a915 16be 3fa0 c23d ec2a 143d 4078 2cbb
000000f0: 318a b23e 7821 c93d 6da8 9ebe 5bd0 f43d
00000100: 6b94 13be a3fd 0fbc 874a 10be 9d6b 2fbe
00000110: 5aab 3abf 4a87 4a3e 9bdd d4bc b18e f53d
00000120: 18d1 10be d0bb bfbd 861c 6dbd fd45 02be
00000130: 434e 6d3e fe51 9b3d 4cef c9bc 5b9e 443e
00000140: ea28 5d3e c0a5 aa3e ac75 16be 66cb a3bb
00000150: d66d 103e 34dd 023e b7d7 ff3d 2daa 89bd
00000160: 5ee2 e33d e6f6 b33d e4cc 21bd ee06 a7be
00000170: 16ac 6b3d f9fa c1bd 5ba8 efbd 4189 a4b9
00000180: b854 1e3e e36c 08be b81b e2bd f6b1 8bbe
00000190: 2b2e 85be 7a7c ad3d 46c7 e0be 4969 4e3e
000001a0: 68a3 323e b5e9 223e 95fb 51be 0c42 39bf
000001b0: 9def 25be 4a00 373e d282 8e3e c29b 4dbe
000001c0: da9b 0fbe 5b1a 14bf 0915 b4bd 7d6a e93d
000001d0: 3045 a33d 86de 7f3e 2f20 8d3d 0718 f83d
000001e0: d8ca bdbe ff14 0ebd 4eb4 7f3e 0c05 b6bd
000001f0: 226b b63e 4c78 e3bc a541 0bbe 44ba 4fbe
00000200: 02d7 37be 215e 6f3c 7d67 263e 9a79 293e
00000210: 498f 1cbd 9201 363d 2c39 2bbe ae9f efbd
00000220: 9fa2 f63d 4711 d23c c7fa 1e3d 077b d33c
00000230: 29e4 bdbd e2d7 113e 2c20 2e3e 067a 843d
00000240: a13b 323e d0be 3b3d 3b1a 043e 2901 f0bd
00000250: f257 7b3d a2de 0cbe 0d07 dabc 1b42 01be
00000260: adc2 733d 282b 26be c247 9abd 4d07 90bd
00000270: 9674 e73d 8b00 0dbe 6bd7 d4bd 8b82 123e
00000280: 733e 903d 403d 193e bd02 233e aa5f dfbd
00000290: c66e 513d 1f1e 12be 778f 9bbd 2acb 0fbd
000002a0: 9ebf a2bd 488f 163d 86d7 cb3c ae14 003c
000002b0: 0f16 973d b008 c0bc 1b77 0d3e 0fc9 09bd
000002c0: f35c f73d 2a1a 033e 2a84 233e 539b aebd
000002d0: 2288 89bd 5e27 10be 73f2 9dbd 26a5 253e
000002e0: e8c0 a4bc d070 d5bd 24e0 03be f2e7 16be
000002f0: adfc cdbd 802d 733d 05b6 cabd b609 7abd
00000300: 13c2 1fbe 377d 2fbe ec47 e0bd 0b3d 3dbe
00000310: 2bc0 9cbc 24c8 a0bd 78eb b3bd a285 e7bd
00000320: f15d 923d d760 a63d 8ea2 15bd bc80 813d
00000330: fcee 1e3e ea4b 68bd c431 d9bd 8f07 e33d
00000340: 9348 2bbd 4634 95bd e1e2 e53d 86d7 323d
00000350: 9b64 fabd 5021 d33c 392a 9c3d 498e 283e
00000360: 2641 bbbd 3e00 b73d 088b ffbc a8a2 983c
00000370: 73ac 2cbe 4816 3bbe dd99 d23d 5c6a 95bc
00000380: a6a3 943d d2c6 fabd dc74 063e 76c9 9ebd
00000390: f5b9 06be 7074 183e 471d 12be 0bcb c8bd
000003a0: 0fdf 1dbe 5022 a53d 460b 34bc 470e 72bc
000003b0: 53f3 443d 71ac 7cbd 65d9 ec3c fad1 a6bd
000003c0: f854 34bd ba51 b23d 3ba6 413d 4f35 ef3d
000003d0: 5f15 273e a31f f93d 5fe3 a4bd 33a1 21be
000003e0: a116 bdbd 58ab b0bc a24e 2b3e eda5 da3c
000003f0: 7c0d edbc 4327 f13d c861 863d 8d6d 023e
0.3592953 -0.00012792379 -0.090160094 0.012125457 0.1406009 -0.041773003 0.09283802 0.02194157
-0.18026486 -0.13366693 0.0055235997 0.055528253 0.07826227 -0.27844796 0.088878766 -0.14353946
-0.049179584 -0.14942452 -0.34704888 0.07958665 0.14133784 -0.06596226 0.117045626 -0.089709915
0.17494431 0.12880734 0.24189235 0.09584711 0.023163412 -0.25163436 -0.121300876 -0.07648885
0.14235008 -0.17084369 -0.5453444 0.0734339 -1.5556322 -0.29847437 0.065694764 0.009842409
0.12401676 0.15715274 -0.03805619 0.2612441 -0.06660439 -0.42699933 -0.11961803 -0.03364285
-0.2559218 0.006939218 -0.13550805 -0.022100002 -0.08742084 0.25469002 0.05984348 0.21950665
-0.146567 0.09503221 0.036173746 -0.0026316792 0.34871057 0.09820837 -0.30987874 0.11953803
-0.14412086 -0.008788499 -0.1409093 -0.17130895 -0.7291771 0.19778171 -0.025984576 0.11990107
-0.14142263 -0.09361994 -0.05788853 -0.12722011 0.23174386 0.07583998 -0.024650238 0.19201033
0.21597639 0.33329582 -0.14693326 -0.004998612 0.14104399 0.12779695 0.12492316 -0.067219116
0.111271605 0.087873265 -0.03950204 -0.32622474 0.05753716 -0.09471697 -0.11702033 -0.0003138278
0.15462005 -0.13322787 -0.11040443 -0.2728421 -0.26011786 0.08471008 -0.43902034 0.2015735
0.17445147 0.15909465 -0.20506127 -0.72366405 -0.16204686 0.17871204 0.27834183 -0.20078948
-0.14024296 -0.57852715 -0.08793075 0.11397264 0.07972181 0.2498723 0.06890904 0.12113958
-0.3706882 -0.034687992 0.24971125 -0.08887681 0.3562861 -0.027767323 -0.1359926 -0.20285898
-0.17953113 0.014609844 0.16250415 0.16550294 -0.038222585 0.04443509 -0.16721028 -0.11700378
0.12042736 0.025643004 0.03881338 0.0258155 -0.09272034 0.14242509 0.1700446 0.064685866
0.17405559 0.04583627 0.12900631 -0.11718971 0.061363168 -0.13756803 -0.02661469 -0.12622873
0.05951183 -0.162274 -0.07533218 -0.070326425 0.11301534 -0.13769738 -0.1039265 0.1430761
0.07043161 0.14964771 0.15919013 -0.10906918 0.051131032 -0.14269303 -0.07595723 -0.03510586
-0.07946704 0.036757737 0.024883043 0.00781743 0.07377254 -0.023441643 0.13814966 -0.03363901
0.120782755 0.1280295 0.15968385 -0.085257195 -0.067154184 -0.14077517 -0.07712259 0.1617628
-0.020111516 -0.10421908 -0.12878472 -0.14736918 -0.1005796 0.059369564 -0.09897999 -0.061044417
-0.15601377 -0.1713761 -0.10951218 -0.18480317 -0.019134602 -0.07850674 -0.087851465 -0.11304785
0.07146824 0.081239395 -0.036531977 0.06323382 0.15520853 -0.056713022 -0.10605195 0.11085426
-0.04181726 -0.07285361 0.11224914 0.04366257 -0.1222622 0.02577272 0.07625241 0.16460527
-0.091432855 0.08935593 -0.031194225 0.018632248 -0.16862659 -0.18270218 0.10283253 -0.018239193
0.07257776 -0.12244953 0.13130516 -0.077532694 -0.13156874 0.14888167 -0.14268981 -0.098043524
-0.15417121 0.08063185 -0.010989016 -0.014773912 0.048083615 -0.06168789 0.028912256 -0.081455186
-0.044026345 0.08706994 0.04727767 0.1168009 0.16316746 0.12164237 -0.0805118 -0.15784149
-0.09232832 -0.021566078 0.16729215 0.026690448 -0.028937094 0.11775067 0.06561619 0.12737103

advantage_stream.0.bias f4 [64]
00000000: f081 a03d dbb5 25bc 1490 eb3c 6b2d 1e3d
00000010: 0d8f 35bc 65f0 913b 2b73 ec3c cb0b 5d3a
00000020: 26b8 30bd cb98 863d 4bfb 353d 205b 313d
00000030: 0d53 f9bc b10d 94bc f623 1fbd 5aa9 1a3d
00000040: 29cf 073d f41a 0ebc 2515 88bc ba6f babc
00000050: 6169 b7bc a56c 15bd ce10 2fbc 24f7 a8bc
00000060: 416e e73d aeb2 a6bc 55f5 b03b dde4 0bbb
00000070: e2da f73a 85f9 88bc 0e1f 683d d14a 55bc
00000080: b704 b3bb 277b f5bc f9c2 413d e282 8f3d
00000090: 8c82 493d 7c00 b8bc fa9e 503d fa62 12ba
000000a0: 1f7a 8bbd 90d8 c2bc a3cf 67bc 3f9f fb3c
000000b0: ac63 3f3d 2f1c 703d 46ee 37bd adbc 1fbc
000000c0: c27d c1bc fbba 0bbb 5667 973c eaef 2b3c
000000d0: 53e0 bc3d 0c78 433d 1ff7 8bbc bfc0 11bd
000000e0: f4a5 603b 3122 11bc 0450 c23d fd00 133d
000000f0: bd2e 4a3d 519d 68bc 9300 76bc 3a18 b23d
0.078372836 -0.0101141585 0.028755225 0.038617533 -0.011081469 0.004453706 0.02886351 0.0008432238
-0.043144368 0.06572112 0.044429105 0.043299794 -0.03043511 -0.018072935 -0.038852654 0.037759162
0.033156548 -0.008673418 -0.016611645 -0.022758354 -0.022389116 -0.036480565 -0.010685159 -0.020625658
0.11300326 -0.020348873 0.0054003396 -0.002134613 0.0018909837 -0.016720543 0.05667024 -0.013018326
-0.0054632085 -0.02996595 0.04730508 0.07007386 0.049196765 -0.022461168 0.050932862 -0.00055842067
-0.06810402 -0.023784906 -0.014148626 0.030715583 0.046725914 0.058620628 -0.04490497 -0.009749574
-0.023619536 -0.0021321166 0.018481892 0.010494212 0.09222474 0.047721907 -0.01708561 -0.035584208
0.0034278603 -0.0088582495 0.09487918 0.035889614 0.04936098 -0.014197663 -0.015014785 0.08696027

advantage_stream.2.weight f4 [2, 64]
00000000: bb30 a4bd 4b95 373d a42d a73e 3f8d d43e
00000010: 595e 5abe 9309 c2be 7d23 cfbe 9429 693e
00000020: 68e7 873e a74e 043f e2ed 833e e9d8 5c3e
00000030: d14d fe3d 873b 86bd b34e debc 2d6f 8e3e
00000040: 75a5 ad3d c5bc ec3d f3f6 cb3c 12be 8ebe
00000050: e36a 26be 319d 8fbd 8edc 4f3e 0c3c 803d
00000060: 2d22 58bf f4f5 fd3c e657 da3d 5a3b 8ebd
00000070: 9ad2 adbe 75f6 67bd 1c53 9f3e 60e5 803e
00000080: 38d3 ffbd 216c cb3d 7719 aa3c 80c1 0bbf
00000090: aa27 733c b9fa 553e 4b25 b93e ce30 633d
000000a0: 0381 6bbe 9b15 173e ccf3 683d 6455 8d3e
000000b0: eef9 db3d 71a4 853e 587d 213e b330 b3be
000000c0: 07b5 893d be55 91bd e6f9 dfbe 9d81 c3be
000000d0: a00b 8ebe d612 4dbd 7f44 9dbe 658c 72bd
000000e0: 5bff 933d da03 c13c 4159 ffbe 66fa 293f
000000f0: 96ce f23e 481a 643e a99f 8d3e 9a9f 993e
00000100: d46d 193f 07d0 6fbe 36d9 99be 13da 25bf
00000110: f6c5 2d3e d730 a43e c7f8 513d 9751 ae3d
00000120: d8ec a73c d2f5 f2be 331d 8ebe e533 7dbe
00000130: 37db 233e 1224 cb3d 30ad 953b 1e99 80be
00000140: 0a41 3cbe b2ed 3cbe da45 48be 5f3f 793e
00000150: 53e3 37be 755d cc3c 6d9c 5fbb baf1 02be
00000160: ed85 4a3f 96b8 223e 5a46 2f3e c348 983e
00000170: 9cd6 c43e f14b 173e 6c83 9abe 2413 dcbd
00000180: 0c89 bf3e 9c06 1e3e 76d5 cfbe 4d73 283f
00000190: b5ce afbd b8fd 833e 715d a0be 0d9d 9b3d
000001a0: b402 f83e c662 8d3e 42ac a23c 4d0b 8d3d
000001b0: 0487 aebd 0c3e 38bf ddd9 5a3d 28db d33d
000001c0: 44ee 47be 84c3 70be 1af1 93bd adf5 943e
000001d0: ed34 2b3f d740 ed3e 7666 91be d781 85bd
000001e0: 2229 c23e 7a8f 8abe a62c 0a3f 9e54 42bf
000001f0: 65f5 20bf e480 56be 6dee 1c3d ecdb ddbe
-0.08017107 0.04482011 0.3265201 0.41514012 -0.21325053 -0.3789793 -0.40456763 0.22769767
0.26543736 0.51682514 0.25767428 0.2156712 0.12417186 -0.06554323 -0.027137136 0.27819195
0.08478824 0.115594424 0.024898028 -0.27879387 -0.16251712 -0.07012404 0.20298979 0.06261453
-0.8442715 0.031001069 0.106612965 -0.06944914 -0.3394974 -0.056631524 0.31118095 0.25175
-0.12491459 0.09932733 0.020764096 -0.5459213 0.014841 0.20896424 0.36161265 0.055466466
-0.22998433 0.14754336 0.056873128 0.2760421 0.1074103 0.2610202 0.15770471 -0.34998092
0.06723981 -0.07096432 -0.43745345 -0.38184825 -0.27743244 -0.05006679 -0.3071632 -0.059215922
0.072264396 0.023561407 -0.49872783 0.663977 0.47423238 0.2227565 0.27660874 0.3000458
0.5993321 -0.234192 -0.3004853 -0.6478588 0.16970047 0.32068512 0.051262643 0.08511656
0.020498678 -0.4745317 -0.27756652 -0.24726827 0.16001593 0.09918989 0.0045677647 -0.2511682
-0.18384185 -0.18450049 -0.19557896 0.2434058 -0.17957811 0.024946908 -0.0034120337 -0.12787524
0.79110605 0.15890726 0.1711668 0.29743013 0.38444984 0.14775063 -0.30178392 -0.10745838
0.37409246 0.15432209 -0.40592545 0.65800935 -0.08584348 0.2577951 -0.3132129 0.075983144
0.48439562 0.2761442 0.01985753 0.06886921 -0.08521846 -0.71969676 0.053430427 0.10344535
-0.19524485 -0.23512083 -0.07223721 0.29093686 0.66877633 0.4633853 -0.28398484 -0.065189056
0.37922007 -0.2706259 0.5397438 -0.75910366 -0.6287444 -0.20947605 0.038313318 -0.4333185

advantage_stream.2.bias f4 [2]
00000000: f4e8 283d f4e8 28bd
0.041237786 -0.041237786

exp_avg f4 [128, 4]
00000000: 8a70 3dbb a86c 6fbb c458 2939 6da0 ab39
00000010: 0a86 6c3a 20c6 bdb8 92ed 693a 8fe6 b43b
00000020: a79e 663a 14d8 073a 8139 463a 1fb0 8a3b
00000030: 3623 58bc f0f5 5bbc 7a53 2dba b818 53bb
00000040: fd7d 9c3a fea3 273a 6357 83b9 b8c4 b1b9
00000050: 3efb 52bb 92e0 423a e3fe 79b9 6850 75bb
00000060: 867e 29bc 0986 2abc ffb9 e0b9 32f4 23bb
00000070: 5562 63bc eef3 4abc cadb dab9 187a 8cbb
00000080: e386 abbb df3b a6bb 48ca 14b9 5910 11bb
00000090: 3b22 1bbc 62de 22bc a54a 7eb8 3e7f 543a
000000a0: 73b8 84b8 fce7 35b8 70c6 7e34 6308 1937
000000b0: 51dd 873a c780 b6ba b662 aa39 5b08 603b
000000c0: b54b 24bc 5412 3bbc d28e 1aba 2083 edba
000000d0: 92f1 1cbb e0c3 a0b8 08bb 193a 5842 3739
000000e0: ddb8 8bbb 98e6 2abb 8ca1 f0b9 80cf 8abb
000000f0: b301 1aba bb0a b1ba 19ba 8139 841e 1e3b
00000100: 0075 88bc f933 7dbc c731 9aba 6754 f1bb
00000110: d44a 01ba a7ca 13bb e3eb 4eba b4bb ceba
00000120: 2804 6a3a 9ee7 32bb 2e06 913b f967 e33c
00000130: 160e 5bba 6014 97b9 9cb7 3dba 0882 6ebb
00000140: 1227 b63b 7a8f 60bb ad3e b83b d496 0c3d
00000150: 9080 913b ed0f a23b 3976 0cba b7b3 1cbb
00000160: ee0a 18bb c801 ad3a 1993 32ba 4c4b cdbb
00000170: b7f7 f9bb acd1 0abc 2501 9fba 1212 aebb
00000180: 2d39 b83a 6a84 0f3a 75c0 a1b9 381e 8ab8
00000190: 468e 2c33 02e9 2632 2674 8931 149f 1e33
000001a0: e82e 80ba 09ff 06ba 457e 1b39 f29b 7339
000001b0: 8ce5 60bb f63d a3bb de0d c3b8 3399 b03a
000001c0: db32 56bb 9718 8bba 173d b7b9 1ab8 27bb
000001d0: 43ee e23a 65bb 1d3b 05bc 1dba c30c 46bb
000001e0: 5ccd 9f3b 6b36 9e3b ddf1 d8b9 aa22 06bb
000001f0: 4421 673b eb50 6e3b ca71 58ba d92f 45bb
00000200: 92a2 2dba 6a24 9539 0b17 4cba 837a 89bb
00000210: c3e9 95bb 489c 80bb 9328 aa39 8060 feb7
00000220: a154 693b d4cd 383b b1ee 073b 7960 3e3c
00000230: 0920 a0ba 2559 a7ba 64a7 2038 44af 223a
00000240: ea9e 28bb dcf8 0fbb 9782 01ba f434 44bb
00000250: 5d1a 71bb b213 5bbb cac8 93b8 a459 8fba
00000260: 1bf6 e43c 03dc b63c d07b 69bb 0e76 48bc
00000270: 7d7d 24b9 49c9 2dba 300d 43b8 705e 6939
00000280: 163a 6abb a005 feb8 448c 8aba baf6 e4bb
00000290: 4ea7 4e3b e7da 083b d556 59b8 fa81 4eb9
000002a0: 601d 87b9 4e2d e8ba 1da8 c73a e3eb 1b3c
000002b0: 8892 01bb b6dc 56b9 e2c0 86b9 b494 41bb
000002c0: 717a 633b 0cb8 963b 0c4b 1dba 129b 43bb
000002d0: 012f c4bb 9686 debb bf23 6b3a 99ca 4b3b
000002e0: 89b1 2cbb 7eca 19bb 8846 03b8 1ef3 a9b9
000002f0: ab1c f8bb 44de 27bc 401d c2b7 d805 a83a
00000300: 77fd 7ebc 4947 6ebc a687 d73a a026 293b
00000310: 80f3 df39 5a54 d5bb ac79 db3b 3e53 263d
00000320: 1b84 083b c43c 423b 4e50 97b9 d6b6 04bb
00000330: 0a57 6aba 7831 c339 1591 9bb9 929d 1ebb
00000340: 8744 e63a 3477 a6b8 bfc0 8639 64a3 333b
00000350: e555 09ba 00e7 db34 4b1b 2939 de3d 023a
00000360: 313c 27bc 8510 08bc de26 cfb8 a004 1cbb
00000370: 5cde 3b3b 34b5 7d3b 4e1c 25ba 1bd8 3abb
00000380: d752 b23a eae2 023b 9c9c 90b9 2d37 a4ba
00000390: b915 e4bb 7502 c7ba 4085 1f37 5cea a8bb
000003a0: 1c8b b2ba 73a3 bebb d645 783b b2cd bc3c
000003b0: c5c6 35ba a00a 4339 d08a 3cba 4c6a 87bb
000003c0: a293 2b3c 98a5 00bc 65b3 033b d640 c03c
000003d0: 68b5 3a37 9416 21b8 c587 90b9 8a02 51ba
000003e0: ed24 f53b 5bda 183c a3c8 0fba baec 8abb
000003f0: 17a2 f03a 4701 f73a 8836 83b9 50e4 5fba
-0.002890619 -0.003653327 0.00016150164 0.00032735188 0.0009022659 -9.049126e-05 0.00089236454 0.005520649
0.0008797445 0.00051820395 0.00075616693 0.004232421 -0.013191989 -0.013425335 -0.0006611865 -0.0032210778
0.0011939403 0.0006394981 -0.00025051375 -0.00033906638 -0.003219321 0.0007433976 -0.00023841443 -0.003743196
-0.010345107 -0.010407933 -0.00042863187 -0.0025017378 -0.013878425 -0.012387259 -0.00041743956 -0.0042870156
-0.0052345856 -0.005073055 -0.00014189736 -0.0022134988 -0.00946861 -0.0099407155 -6.0627837e-05 0.0008106119
-6.328607e-05 -4.3369815e-05 2.3727785e-07 9.121463e-06 0.001036564 -0.0013923877 0.00032498472 0.0034184668
-0.010027816 -0.011417944 -0.00058959157 -0.0018120743 -0.0023947698 -7.665879e-05 0.00058643566 0.00017476955
-0.004263981 -0.0026077386 -0.0004589673 -0.0042361617 -0.0005874887 -0.0013507226 0.0002474345 0.0024127075
-0.016657352 -0.015454286 -0.0011764102 -0.007364798 -0.000493211 -0.002255121 -0.0007893426 -0.0015772493
0.0008927011 -0.00272987 0.0044257855 0.027759539 -0.0008356286 -0.00028816145 -0.0007237138 -0.0036393423
0.0055588568 -0.0034265206 0.005622706 0.03432353 0.0044403747 0.004945746 -0.0005358193 -0.002391083
-0.0023199874 0.0013199383 -0.00068120804 -0.0062650796 -0.007628407 -0.008472841 -0.0012131078 -0.0053122127
0.0014055126 0.00054747483 -0.00030851705 -6.5859815e-05 4.0176268e-08 9.7154516e-09 4.0004293e-09 3.6931922e-08
-0.0009779604 -0.00051496975 0.00014828991 0.0002323238 -0.0034316508 -0.0049817516 -9.3009075e-05 0.0013473391
-0.003268412 -0.0010612187 -0.00034949995 -0.002559191 0.0017313439 0.0024067995 -0.0006017092 -0.003022001
0.0048767757 0.0048282645 -0.00041378933 -0.0020467439 0.003526763 0.003636415 -0.0008256702 -0.0030088334
-0.0006623651 0.00028446625 -0.0007785416 -0.0041955127 -0.0045749857 -0.00392488 0.00032455157 -3.0324096e-05
0.0035603421 0.0028198855 0.0020741636 0.011619681 -0.0012216578 -0.0012767656 3.8302867e-05 0.0006205926
-0.0025729486 -0.00219684 -0.0004940419 -0.002993879 -0.0036789395 -0.0033428487 -7.046906e-05 -0.0010936749
0.027949383 0.022321707 -0.0035626777 -0.012235178 -0.00015687007 -0.000662942 -4.6503905e-05 0.00022255792
-0.0035740188 -0.000121127116 -0.0010570367 -0.00698742 0.0031532827 0.002088243 -5.18177e-05 -0.00019694111
-0.00025771093 -0.0017713697 0.0015232597 0.009516689 -0.0019771177 -0.00020490852 -0.0002570218 -0.0029538097
0.0034710432 0.004599577 -0.00060002576 -0.0029847068 -0.0059870486 -0.0067909462 0.0008969865 0.00310961
-0.0026350936 -0.0023466642 -3.129852e-05 -0.00032415328 -0.007571777 -0.010245863 -2.3140223e-05 0.0012819124
-0.01556336 -0.014543363 0.0016443625 0.0025810376 0.00042715296 -0.0065102996 0.006697854 0.04060673
0.0020830694 0.002963827 -0.00028860796 -0.002025058 -0.00089393614 0.00037230155 -0.00029671998 -0.0024202806
0.001756803 -7.9377e-05 0.0002570208 0.002741062 -0.00052389345 4.0960003e-07 0.00016127263 0.00049683254
-0.010207222 -0.00830472 -9.877769e-05 -0.0023806468 0.0028666472 0.0038712742 -0.0006298468 -0.0028510157
0.001360501 0.0019971677 -0.00027582503 -0.0012528651 -0.0069605974 -0.0015183227 9.508163e-06 -0.005154891
-0.001362178 -0.0058178245 0.0037883422 0.023047302 -0.0006934221 0.00018600607 -0.00071923155 -0.0041325446
0.01047221 -0.007851981 0.002009594 0.023468416 1.1128701e-05 -3.840642e-05 -0.00027566976 -0.00079730956
0.0074812085 0.009329404 -0.0005484914 -0.004239646 0.0018358853 0.0018844985 -0.00025026896 -0.0008540796
