CartPoleHighRewardIn2026/checkpoints/checkpoint_ep350_reward28.00.pt (torch, 421167 bytes, 33 tensors)

feature_layer.0.weight f4 [128, 4]
0	0x3dbb6ea5	0.09151963
1	0xbd922098	-0.07135123
2	0xbee5bcba	-0.4487055
3	0x3d8c2c5a	0.06844397
4	0x3e0409e2	0.12894395
5	0x3ddb4431	0.10706366
6	0xbd8c6d38	-0.06856769
7	0x3d3ce913	0.046120714
8	0xbe1a7f63	-0.15087657
9	0x3d45b764	0.048270598
10	0xbf2d4d3c	-0.67695975
11	0xbe034dc9	-0.12822641
12	0x3d0012b2	0.03126783
13	0xbd988832	-0.07447852
14	0x3e838c4a	0.2569297
15	0xbd53fa74	-0.051752523
16	0xba6121b2	-0.000858809
17	0xbddac549	-0.106821604
18	0x3f3af5a1	0.7303105
19	0xbcc39f1f	-0.023879586
20	0xbdf9a7e7	-0.12190228
21	0x3dc82a4e	0.09773694
22	0xbecc9a46	-0.3996145
23	0x3c3331ef	0.010937198
24	0x3cd6fd0c	0.026243709
25	0xbc137815	-0.009000798
26	0x3e4bd39a	0.19904938
27	0x3d4a8647	0.049444463
28	0xbdf39eff	-0.118955605
29	0x3e10fe2a	0.14159456
30	0xbe8a8571	-0.27054933
31	0x3db080c8	0.08618313
32	0xbe7effdd	-0.24902292
33	0x3ce2923c	0.02765762
34	0x3eac1e12	0.33616692
35	0x3d2e387b	0.042534333
36	0x3e349af8	0.17637241
37	0xbdc31dee	-0.09527193
38	0xbe998ccd	-0.29990235
39	0xbe078f46	-0.13238248
40	0x3dc83a64	0.09776762
41	0xbdd5f183	-0.10446455
42	0x3d6e1a7a	0.05813072
43	0xbd88f02d	-0.06686435
44	0x3e491e4f	0.19640468
45	0xbc89ca49	-0.01682009
46	0x3e9ba316	0.30397862
47	0x3dc188f3	0.09449949
48	0xbd95f52f	-0.07322156
49	0xbb5d2608	-0.0033744592
50	0x3f0099b0	0.5023451
51	0x3d8a1cb1	0.06743754
52	0xbcf6d730	-0.030131906
53	0x3dac5376	0.084143564
54	0xbf1296f0	-0.5726156
55	0x3de20840	0.1103673
56	0xbc99b8fc	-0.018764965
57	0x3cc637bd	0.0241965
58	0xbdbfb183	-0.093600295
59	0x3ba7e48d	0.005123681
60	0x3caaa139	0.02082883
61	0x3a6854d8	0.00088627404
62	0x3f013a14	0.50479245
63	0xbe3a4252	-0.18189362
64	0x3cdee39b	0.02720814
65	0xbd3e989e	-0.046532266
66	0x3e9dcff9	0.30822733
67	0xbc46abc9	-0.012125918
68	0xbeb459aa	-0.35224658
69	0x3d31b1ad	0.043382335
70	0x3e8e45c9	0.27787617
71	0x3de9358e	0.11387168
72	0xbc5cff6e	-0.013488634
73	0x3c975fd6	0.018478315
74	0x3f31aa89	0.6940084
75	0x3dd910c9	0.10598905
76	0xbd6a8389	-0.057254348
77	0xbd95fe1d	-0.07323859
78	0x3f3c0121	0.7343922
79	0xbdb2e91b	-0.087358676
80	0x3b21faa7	0.002471605
81	0x3b189da9	0.0023287332
82	0xbf3ecd8f	-0.7453241
83	0xbda82f92	-0.08212198
84	0x3d5e2b17	0.054240312
85	0xbd036719	-0.032080743
86	0x3ec304c6	0.3808958
87	0x3e5ed12d	0.21759482
88	0x3e66d9e0	0.2254405
89	0xbde08c94	-0.10964313
90	0xbf2db756	-0.67857873
91	0xbe2768e4	-0.16348606
92	0xbcc27ffb	-0.023742666
93	0x3c449157	0.011997542
94	0x3f078b1b	0.52946633
95	0xbd1e1f5e	-0.038604133
96	0x3cfe884d	0.031070853
97	0x3ca4af79	0.020103203
98	0x3f484553	0.7823078
99	0x3e156130	0.14587855
100	0xbd10b3f2	-0.03532786
101	0x3d54329e	0.051806085
102	0x3f1964ba	0.5991932
103	0x3dc22254	0.09479204
104	0xbe1afd89	-0.15135778
105	0x3b95bbae	0.0045694923
106	0x3f24af29	0.64329773
107	0xbd0ac8a9	-0.03388277
108	0xbdbe66ff	-0.09296989
109	0x3dafc448	0.085823596
110	0xbcd9764a	-0.026545662
111	0x3d6dd0db	0.05806051
112	0x3e4a4a59	0.19754924
113	0x3db02ccc	0.08602294
114	0xbd036832	-0.03208179
115	0xbd1669dc	-0.03672205
116	0xbde0cb0a	-0.10976227
117	0x3d8b78f3	0.068101786
118	0x3ee716e3	0.4513465
119	0x3d63ce9c	0.05561696
120	0x3ea5ae3d	0.32359496
121	0xbdded31a	-0.10880108
122	0x3e886ec6	0.26647013
123	0x3d9969e0	0.07490897
124	0x3cf6e8d8	0.030140325
125	0x3d0d9eba	0.0345752
126	0x3f1cda1a	0.61270297
127	0x3df8cf0c	0.12148866
128	0x3c87371c	0.01650577
129	0xbd366abd	-0.044535387
130	0x3e17b604	0.14815527
131	0xbe530a8d	-0.20609494
132	0x3dcb4cb2	0.09926738
133	0xbd9c6206	-0.07635884
134	0xbeb539c0	-0.35395622
135	0xbd8bb09d	-0.06820796
136	0xbcfe143a	-0.031015504
137	0xbe1f7105	-0.15570457
138	0xbf13a2fc	-0.5767057
139	0xbe412a94	-0.18863899
140	0x3e0b538c	0.1360609
141	0xbde2af8b	-0.110686384
142	0x3e39896d	0.1811883
143	0xbd429eb2	-0.047514625
144	0xbe2a8125	-0.16650827
145	0x3bdb3d3d	0.00669065
146	0x3e49429b	0.19654314
147	0xbd99940d	-0.074989416
148	0xbd924b8a	-0.07143314
149	0x3dd2eec8	0.1029945
150	0x3ef4657b	0.47733673
151	0x3d3f18c5	0.04665448
152	0x3de1c2ad	0.110234596
153	0xbc999567	-0.018747998
154	0x3f54fc9c	0.8319795
155	0xbc012cd5	-0.007884224
156	0xbd954369	-0.07288248
157	0x3d1ad6fb	0.037802678
158	0x3f0bc6e2	0.54600346
159	0xbe744e70	-0.23858047
160	0x3b357094	0.002768551
161	0xbc93582f	-0.017986385
162	0x3e5896f8	0.2115134
163	0xbe550a56	-0.20804724
164	0x3cf547b5	0.02994142
165	0x3dd0b913	0.1019155
166	0x3f228d96	0.63497293
167	0x3e36d758	0.17855585
168	0x3c1cafc4	0.00956339
169	0xbb944506	-0.00452483
170	0xbf654894	-0.8956387
171	0xbdeb3bfb	-0.1148605
172	0x3dd3d742	0.103437915
173	0x3d044c8d	0.032299567
174	0x3e1f5ae5	0.15562017
175	0xbbe64f87	-0.0070285234
176	0xbd3741a0	-0.04474032
177	0xbdcfc42a	-0.10144837
178	0x3e4ef316	0.20209917
179	0x3e3bb9fc	0.18332666
180	0xbdc4d265	-0.09610442
181	0xbe3abf68	-0.18237078
182	0xbe6d951f	-0.23201416
183	0xbdec314f	-0.11532842
184	0x3e5bc53b	0.21461956
185	0xbe2f5ce6	-0.17125282
186	0x3e2c5f33	0.1683319
187	0x3b88ff82	0.0041808495
188	0xbd85f760	-0.06541324
189	0xbe483d5d	-0.19554658
190	0x3e6b57e0	0.2298274
191	0xbe120d08	-0.14262784
192	0xbdadfb35	-0.084951796
193	0x3cbf8fa3	0.023383921
194	0xbf5845ea	-0.8448168
195	0xbc593ead	-0.013259572
196	0x3c6dd738	0.014516644
197	0xbbc358d4	-0.005961517
198	0xbf70afd6	-0.94018304
199	0xbdef5c63	-0.11687543
200	0x3dadacab	0.084801994
201	0xbdd79d51	-0.105280526
202	0x3f0fc7f8	0.56164503
203	0x3e47e109	0.19519438
204	0xbd1f47ae	-0.03888672
205	0x3dd155e1	0.10221458
206	0xbe993b58	-0.29928088
207	0xbe278511	-0.16359355
208	0x3e121a2e	0.142678
209	0xbbd2504e	-0.0064182645
210	0xbe94c865	-0.2905914
211	0xbe893bcc	-0.26803434
212	0xbe2ed7a3	-0.17074446
213	0x3e3265c1	0.17421629
214	0x3e8a7aa3	0.2704669
215	0xbe339cb1	-0.17540242
216	0x3d8d939c	0.0691292
217	0xbdf3d48f	-0.11905777
218	0xbe911ca2	-0.28342158
219	0x3bb515af	0.0055262665
220	0x3c6e1d5c	0.014533367
221	0x3c5dc6a5	0.01353613
222	0x3e50a512	0.2037547
223	0x3e95b386	0.29238528
224	0xbd500c6c	-0.050793096
225	0xbde12dbc	-0.10995051
226	0x3df4137c	0.11917779
227	0x3e4b63d9	0.19862308
228	0x3e1d7d58	0.15379846
229	0x3e1ac500	0.15114212
230	0xbef115f4	-0.4708706
231	0x3d9ec3ea	0.077522114
232	0x3da55976	0.08073704
233	0xbd86967d	-0.06571672
234	0xbf54b8e1	-0.830946
235	0xbe365902	-0.17807391
236	0xbbbd1785	-0.005770626
237	0xbd4f3d41	-0.050595526
238	0x3f0fe22a	0.56204474
239	0xbe467f01	-0.19384386
240	0x3e34c73e	0.1765413
241	0x3b1934f9	0.0023377521
242	0xbf21f75b	-0.6326806
243	0xbdb60027	-0.08886748
244	0xbc86006e	-0.016357627
245	0x3c7543ba	0.014969761
246	0x3f1ca33f	0.61186594
247	0x3dccfc0f	0.10009014
248	0xbb5b91ea	-0.003350372
249	0x3c24ec75	0.010066141
250	0x3f2108ef	0.62904257
251	0x3da1331f	0.07871079
252	0x3dad9d94	0.08477321
253	0xbd2c82a6	-0.042116784
254	0x3eed2b1f	0.4632196
255	0x3cc96842	0.024585847

feature_layer.0.bias f4 [128]
0	0x3e02cc36	0.12773213
1	0xbeb5186d	-0.35370198
2	0xbe2bab69	-0.16764607
3	0x3e1abe1f	0.15111588
4	0x3d4fdfce	0.050750546
5	0x3da81331	0.082067855
6	0x3db76889	0.089554854
7	0x3cb3a418	0.021928832
8	0x3dde108e	0.10843001
9	0x3e042f82	0.12908748
10	0xbe0b79e8	-0.13620722
11	0x3d8062d0	0.06268847
12	0x3df8f981	0.12156964
13	0x3dce7b82	0.10082151
14	0xbd734093	-0.059387755
15	0x3d8a924c	0.06766185
16	0x3e238f45	0.15972622
17	0x3aa97cc5	0.0012930861
18	0xbe1327fd	-0.14370723
19	0x3e0109e5	0.1260143
20	0xbe105dd1	-0.14098288
21	0xbe108ae1	-0.14115478
22	0xbd313ee1	-0.043272857
23	0x3dde9679	0.10868544
24	0xbe13079f	-0.14358376
25	0xbde8a5d9	-0.11359758
26	0xbdc8acd9	-0.09798593
27	0xbe21a196	-0.15784296
28	0xbebc1a0c	-0.36738622
29	0xbdb7316f	-0.089449756
30	0xbe7537b4	-0.2394703
31	0xbe08708b	-0.13324182
32	0xbde5e0a1	-0.11224485
33	0x3e345aec	0.17612809
34	0xbe7be273	-0.24598102
35	0xbde450cd	-0.11148224
36	0xbe9406d2	-0.28911453
37	0x3e4765e0	0.19472456
38	0xbdf45fc1	-0.11932326
39	0x3c6e77bf	0.014554917
40	0xbbe5a337	-0.007007982
41	0xbe1b0e56	-0.15142187
42	0xbe33d569	-0.17561878
43	0x3dc4adae	0.09603439
44	0xbe8f9d99	-0.28049925
45	0x3d59a147	0.05313232
46	0xbd9ec79e	-0.07752918
47	0xbc26e96b	-0.010187487
48	0xbe18764f	-0.14888881
49	0xbe39da97	-0.18149792
50	0xbe05744e	-0.13032648
51	0x3dd99945	0.10624937
52	0xbe2b0853	-0.16702394
53	0xbe19bfbf	-0.15014552
54	0x3e12f049	0.14349474
55	0xbe66c895	-0.22537453
56	0xbe08a434	-0.13343889
57	0x3dca09ca	0.09865148
58	0xbe4bb388	-0.19892704
59	0x3d8df02e	0.06930576
60	0xbe08f242	-0.13373664
61	0xbddaddf7	-0.10686868
62	0xbdfbcb4f	-0.122946374
63	0x3dfc83df	0.1232984
64	0xbe0cb08d	-0.13739224
65	0x3ded3277	0.11581891
66	0xbe2ce9e4	-0.16886097
67	0x3e0eeeaf	0.13958238
68	0xbe0105aa	-0.12599817
69	0x3e099ccc	0.1343872
70	0xbde7b2d2	-0.11313404
71	0xbc8285ca	-0.015932936
72	0x3c93c7a2	0.018039528
73	0x3ddf228b	0.108952604
74	0xbe197160	-0.14984655
75	0xbe11f1f2	-0.14252451
76	0xbe0dee67	-0.13860475
77	0x3d519830	0.051170528
78	0xbddee335	-0.1088318
79	0xbbfde2d6	-0.007747988
80	0xbd70b82b	-0.058769386
81	0xbe2c48f6	-0.16824707
82	0x3d82b66e	0.06382452
83	0x3e3f28d7	0.18667923
84	0xbdaa5d40	-0.08318567
85	0x3e237e9e	0.1596627
86	0x3bb194b0	0.0054193363
87	0x3d753918	0.059868902
88	0x3cc627f1	0.024188967
89	0xbcb277f3	-0.021785712
90	0xbe4425f0	-0.19155097
91	0x3d08bbda	0.033382274
92	0x3c26ca8c	0.010180127
93	0x3dddaaee	0.10823618
94	0xbeeec58a	-0.46635085
95	0xbdf0798f	-0.117419355
96	0xbf06d14a	-0.526631
97	0xbcb445fe	-0.022006031
98	0xbdb64df7	-0.08901589
99	0x3d93d727	0.072187714
100	0x3d4807d6	0.048835598
101	0xbd26fee3	-0.040770423
102	0xbe011677	-0.12606226
103	0x3d83aa32	0.064289466
104	0x3ddcf2b8	0.107884824
105	0xbcdc8b16	-0.02692179
106	0xbe362aec	-0.17789811
107	0xbe1d5677	-0.15365015
108	0xbd93dfd0	-0.07220423
109	0x3c394ed8	0.011310302
110	0x3dfd06b8	0.12354797
111	0x3dd77a38	0.10521358
112	0x3cfe15c0	0.03101623
113	0xbe167b72	-0.14695528
114	0x3e3ea201	0.18616487
115	0x3e111950	0.14169812
116	0x3d468fd2	0.048477
117	0xbe4cbbea	-0.19993559
118	0x3e41b3fa	0.18916312
119	0x3d52323a	0.05131743
120	0x3d719042	0.058975466
121	0xbd9e818e	-0.07739554
122	0xbd8f18ce	-0.06987153
123	0xbe0f12df	-0.13972043
124	0x3ddeba84	0.10875419
125	0xbe09ee7c	-0.13469881
126	0x3c6b1229	0.014347591
127	0xbea20833	-0.3164688

feature_layer.2.weight f4 [128, 128]
0	0xbdbb505c	-0.09146187
1	0xbe4dffb0	-0.20117068
2	0xbe00200d	-0.12512226
3	0x3eaacf99	0.3336151
4	0x3e8bc91b	0.2730187
5	0xbdbbfc3d	-0.0917897
6	0x3e121101	0.14264299
7	0x3d6a18f5	0.057152707
8	0x3e65e2d5	0.22449811
9	0xbd389304	-0.04506208
10	0x3deb24c0	0.11481619
11	0x3daabac8	0.08336407
12	0x3e26edd1	0.16301657
13	0xbe39b4fc	-0.18135446
14	0x3db8690b	0.0900441
15	0xbdfa2c4e	-0.12215482
16	0x3e9be8e1	0.3045111
17	0x3d8c555c	0.068522185
18	0x3f84cbc3	1.0374683
19	0x3edbe856	0.42950696
20	0xbf8ebbd6	-1.1151073
21	0x3dd496e0	0.103803396
22	0x3e374cd2	0.17900398
23	0x3e81429c	0.2524613
24	0x3e282cd9	0.16423358
25	0xbc43560f	-0.011922373
26	0x3e82cb11	0.25545552
27	0xbd874cae	-0.06606422
28	0xbe4935dd	-0.19649453
29	0xbd964903	-0.07338145
30	0xbdbaf8b9	-0.09129471
31	0xbda4261a	-0.0801508
32	0x3d92e47d	0.07172487
33	0xbdcff201	-0.101535805
34	0xbeef3bb0	-0.46725225
35	0x3dc18b17	0.094503574
36	0xbd454aac	-0.048166916
37	0x3e257929	0.161595
38	0x3cb6a708	0.022296444
39	0xbdc81d38	-0.09771198
40	0x3deed3d9	0.116615005
41	0x3f22bc6f	0.63568777
42	0xbef6f765	-0.48235622
43	0x3e5f7ace	0.2182419
44	0x3e9e6a14	0.30940306
45	0x3b602f18	0.0034207758
46	0xbe4d3077	-0.20038019
47	0x3d8617c0	0.06547499
48	0xbfad980f	-1.356203
49	0xbfb72aa7	-1.4309891
50	0x3e4710e2	0.19440034
51	0x3dd15906	0.10222058
52	0xb8144c79	-3.535717e-05
53	0xbe81fdc2	-0.25388914
54	0xbc7c3dc6	-0.015395587
55	0x3e2ac3dd	0.16676278
56	0x3dd2cc4a	0.10292871
57	0x3dbc99e8	0.09209043
58	0xbf92c26f	-1.1465586
59	0x3e2b7997	0.16745602
60	0xbf133831	-0.57507616
61	0x3e8f3b99	0.27975157
62	0x3f1bd951	0.60878474
63	0x3e31bfe4	0.17358357
64	0x3e88a9cf	0.26692054
65	0xbde60f91	-0.11233438
66	0xbdc137f8	-0.09434503
67	0x3e72f5ad	0.2372653
68	0xbdf3ba82	-0.11900808
69	0x3da98d14	0.08278862
70	0x3e88e955	0.26740518
71	0x3e22b09c	0.15887684
72	0x3c606317	0.0136955
73	0xbd29dca8	-0.0414702
74	0x3ec608d2	0.38678604
75	0x3f3f513c	0.7473333
76	0x3f96cbd3	1.1780952
77	0xbd08f96e	-0.033441
78	0x3da32f7c	0.07968041
79	0x3e2536cc	0.16134185
80	0x3e12d6b4	0.14339715
81	0x3ceddeee	0.029036965
82	0xbdf61930	-0.12016523
83	0xbd6976be	-0.056998007
84	0x3d9411d2	0.072299615
85	0x3e7821a8	0.24231589
86	0xbe560e61	-0.20903923
87	0x3c4a35b7	0.012341908
88	0x3e38a607	0.18032084
89	0xbe3cd80e	-0.18441793
90	0xbe4dad7d	-0.20085712
91	0xbce90f10	-0.028449565
92	0x3d68f6aa	0.056875862
93	0x3a943fff	0.0011310576
94	0x3e8a89c8	0.27058244
95	0x3e0c1b74	0.13682348
96	0xbd898ecd	-0.0671669
97	0xbc0dfa1f	-0.008665591
98	0xbd8bcc07	-0.068260245
99	0x3dfc952f	0.12333142
100	0x3de6f5b3	0.11277332
101	0xbd853a1f	-0.06505226
102	0x3e7856b2	0.24251822
103	0xbdd6f546	-0.10496001
104	0x3e16c3eb	0.14723174
105	0xbd70dab3	-0.058802318
106	0x3f96bebf	1.1776961
107	0xbfbc60f5	-1.4717089
108	0x3e868aad	0.26277676
109	0xbe38ba70	-0.1803987
110	0x3d543407	0.05180743
111	0x3e11e1c7	0.14246283
112	0x3c8f4388	0.017488256
113	0xbf12c498	-0.5733123
114	0x3def9169	0.11697657
115	0x3d8845cb	0.06653937
116	0xbdb30700	-0.087415695
117	0xbea6d357	-0.32583115
118	0x3e5e7918	0.21725881
119	0xbde4d1f2	-0.111728564
120	0x3e29e2ba	0.16590396
121	0xbda3db9a	-0.0800087
122	0x3df55b79	0.11980338
123	0xbd8407cf	-0.06446802
124	0x3e1f0cdb	0.15532248
125	0x3d4f187a	0.050560452
126	0x3e3002ee	0.17188618
127	0xbea26a8f	-0.31721923
128	0x3d98fa97	0.07469671
129	0xbe371486	-0.17878923
130	0xbdb564e0	-0.08857131
131	0xbd1bae49	-0.03800801
132	0x3d2c581a	0.042076208
133	0xbd9c9391	-0.076453336
134	0x3daf51cf	0.085605256
135	0x3d9e1b37	0.077200346
136	0x3e19ad5c	0.15007538
137	0x3e1f1391	0.15534808
138	0x3ca89462	0.020578567
139	0xbd54c416	-0.051944815
140	0x3d91db4e	0.07121907
141	0x3e3e7d21	0.1860242
142	0x3dbb2ff7	0.09140008
143	0xbdb548e2	-0.08851792
144	0x3dea0372	0.114264384
145	0x3d176e22	0.036970265
146	0xbf0d43d6	-0.55181634
147	0xbbdf7ad4	-0.006820062
148	0xbf2d9b9e	-0.6781558
149	0xbb498387	-0.0030748562
150	0xbe7145b9	-0.23561753
151	0x3d4e4503	0.050358783
152	0xbd6356ed	-0.05550282
153	0xbe4e929b	-0.20173113
154	0xbe4e2e53	-0.20134859
155	0xbe4c6bd3	-0.19963007
156	0xbe129007	-0.14312755
157	0xbe816c3b	-0.25277886
158	0xbcbed22a	-0.023293573
159	0xbe31bec1	-0.17357923
160	0x3cff7004	0.031181343
161	0x3e23863c	0.15969175
162	0xbe8632e2	-0.26210696
163	0xbd3fc7a5	-0.046821255
164	0xbe16b8ad	-0.14718886
165	0x3e02db7a	0.12779036
166	0xbf022fb9	-0.5085407
167	0x3ccb7903	0.024837976
168	0xbd583a46	-0.05278995
169	0xbf25a2eb	-0.6470172
170	0xbed0d35f	-0.40786263
171	0xbd8b5ca2	-0.06804778
172	0x3cb23541	0.021753909
173	0x3e32305b	0.17401259
174	0xbd0f8538	-0.035039157
175	0x3dfec1ad	0.124392845
176	0xbf6d2fff	-0.9265136
177	0xbf460017	-0.7734389
178	0xbd9d71d7	-0.07687729
179	0x3cdf9f34	0.027297594
180	0x3dcd8b00	0.10036278
181	0x39b106e8	0.00033765216
182	0x3d88ed01	0.0668583
183	0xbe805e0b	-0.2507175
184	0x3e238fb0	0.15972781
185	0x3e85c75f	0.2612867
186	0xbefcbee7	-0.49364397
187	0xbc0a1120	-0.0084269345
188	0xbe62f337	-0.22163092
189	0xbe16e084	-0.14734083
190	0xbeb14329	-0.34621552
191	0xbd744198	-0.059632868
192	0xbe5fd3bd	-0.21858115
193	0x3a9cc96c	0.0011961884
194	0xbeab7a9b	-0.33491978
195	0xbd65da31	-0.056116287
196	0xbd9dc911	-0.07704366
197	0x3e4d7751	0.20065047
198	0xbd8bd15a	-0.0682704
199	0xbc93ae4b	-0.018027445
200	0xbdac4918	-0.08412379
201	0x3dce8308	0.10083586
202	0xbead5094	-0.3385054
203	0xbf03a7c6	-0.51427877
204	0xbf102985	-0.56313354
205	0x3e151358	0.1455816
206	0xbdeacd61	-0.11464954
207	0xbe044288	-0.12916005
208	0xbd98173e	-0.07426308
209	0xbe5834a6	-0.21113834
210	0xbba80084	-0.0051270146
211	0x3c29327b	0.010326977
212	0xbba837ad	-0.00513359
213	0x3ac03ca3	0.0014666509
214	0x3dc11e72	0.09429635
215	0xbd998232	-0.07495536
216	0xbda6e118	-0.08148402
217	0x3d5680da	0.052368976
218	0x3e69be1b	0.22826426
219	0x3e0d61fe	0.13806912
220	0x3da3d8ab	0.080003105
221	0xbe095de7	-0.13414727
222	0xbec2f059	-0.38073996
223	0xbd9eaaa1	-0.07747389
224	0xbf4c2a04	-0.7975161
225	0x3e0ec071	0.13940598
226	0x3e12b86f	0.14328168
227	0x3e178754	0.14797717
228	0xbd5aa03a	-0.05337546
229	0x3e0c4d40	0.13701344
230	0xbf1722e7	-0.5903763
231	0xbd99d957	-0.075121574
232	0x3ddb9142	0.10721065
233	0x3e1c1c94	0.15245277
234	0xbf1893e1	-0.59600645
235	0xbf996a07	-1.1985482
236	0x3b1d234d	0.002397734
237	0x3b2c5f8a	0.0026302063
238	0x3d8bc91b	0.06825467
239	0xbd6443c4	-0.05572869
240	0xbd14dbc1	-0.036342386
241	0xbefd527f	-0.49477002
242	0x3dbdb678	0.09263319
243	0x3dee93ac	0.1164926
244	0xbd312512	-0.043248244
245	0xbac760af	-0.0015211309
246	0x3e0159d4	0.12631923
247	0xbda143e2	-0.07874276
248	0xbde26bfd	-0.110557534
249	0xba84381b	-0.0010087522
250	0xbe8fe1bd	-0.28101912
251	0x3d98175d	0.07426331
252	0x3da68833	0.08131447
253	0x3d61625e	0.05502545
254	0x3d92c0b1	0.07165659
255	0xbe3c868a	-0.18410698

feature_layer.2.bias f4 [128]
0	0x3e300cb2	0.17192343
1	0x3e4ae8ce	0.1981537
2	0x3e3fe814	0.18740875
3	0x3e214049	0.15747179
4	0xbd44ad27	-0.048016693
5	0x3e552535	0.20814975
6	0x3e49df4f	0.19714092
7	0xbe14812c	-0.145024
8	0x3e653947	0.22385131
9	0x3de9b4ae	0.11411415
10	0x3e42f69e	0.1903939
11	0xbc259e58	-0.010108553
12	0x3e451846	0.19247541
13	0xbdc6924a	-0.09695871
14	0xbcd9e0d2	-0.02659646
15	0x3e62bfa7	0.22143422
16	0xbd4583c2	-0.048221357
17	0xbdaa48a5	-0.08314637
18	0x3e384145	0.17993648
19	0x3e5ff021	0.21868946
20	0xbd2bbbbd	-0.041927088
21	0x3e374990	0.17899156
22	0x3d666573	0.056249093
23	0x3e4c77c6	0.19967565
24	0xbd41f124	-0.04734911
25	0x3e5fcfac	0.21856564
26	0x3e61fa9b	0.22068255
27	0xbd0f95bf	-0.03505492
28	0xbdd6f688	-0.10496241
29	0x3e70157d	0.23445697
30	0x3e5ad06e	0.21368572
31	0x3e4f37bb	0.20236103
32	0xbc84caee	-0.016210046
33	0x3e0dda83	0.13852887
34	0x3dfde33a	0.12396856
35	0x3e7b3984	0.24533659
36	0xbcc7db2d	-0.024396503
37	0x3e430f32	0.19048765
38	0x3e503054	0.20330936
39	0xbd17b88e	-0.03704124
40	0xbcc89452	-0.024484787
41	0x3e393624	0.1808706
42	0x3d1bdd05	0.038052578
43	0x3e286a0c	0.16446704
44	0x3e5216ba	0.20516482
45	0x3e261a6d	0.16221018
46	0xbca2edf1	-0.01988885
47	0x3dfa89ad	0.12233291
48	0xbdb299e4	-0.087207586
49	0xbd5ba5c9	-0.053624902
50	0x3e3ebbee	0.18626377
51	0xbc8da40f	-0.017290143
52	0x3e2ae733	0.16689758
53	0x3dc88beb	0.09792312
54	0xbda99ceb	-0.08281883
55	0x3e5d61ee	0.21619388
56	0xbe59e209	-0.21277632
57	0x3e432450	0.19056821
58	0xbc15a142	-0.009132685
59	0x3d750d10	0.05982691
60	0xbda81472	-0.08207025
61	0xbd02061d	-0.03174411
62	0x3d991d63	0.07476308
63	0xbde0a09a	-0.10968132
64	0x3db581d2	0.08862652
65	0xbbcfa3a3	-0.0063366457
66	0xbc946c44	-0.018118031
67	0x3e28835e	0.16456363
68	0x3e4e6a5d	0.20157762
69	0x3e454493	0.1926444
70	0xbd7e3d4c	-0.062070176
71	0x3e5a7a81	0.21335794
72	0xbc816018	-0.015792891
73	0xbc2705ba	-0.010194236
74	0x3e49e120	0.19714785
75	0x3e600ca3	0.2187982
76	0x3e2157e8	0.1575619
77	0x3e474f0f	0.19463752
78	0xbca0d5d2	-0.019633207
79	0xbbc4c9d2	-0.006005504
80	0x3e63b643	0.22237496
81	0x3e5cde51	0.21569182
82	0xbdbbfe22	-0.09179331
83	0x3e5cc22d	0.21558447
84	0xbc58a10f	-0.013221993
85	0x3e5fbe63	0.2184997
86	0xbe26bf46	-0.16283903
87	0xbd21c4fd	-0.039494503
88	0x3e667e8b	0.2250921
89	0x00000000	0.0
90	0x3e54b3cf	0.20771717
91	0x3e491e92	0.19640568
92	0x3e4c6e7c	0.19964021
93	0x3e47cf1e	0.19512603
94	0xbcdd1c63	-0.026991075
95	0x3e33291c	0.1749615
96	0xbd2abe31	-0.041685287
97	0x3e5bba55	0.21457799
98	0x3e02c99d	0.12772222
99	0x3e53c82a	0.20681825
100	0x3e59038e	0.21192762
101	0x3da46e9b	0.08028909
102	0xbcfa6e9a	-0.030570317
103	0x3e435e7b	0.1907901
104	0xbcfcea01	-0.0308733
105	0x3e3d13db	0.18464606
106	0x3e47d7a6	0.19515857
107	0x3e207fc4	0.15673739
108	0xbda3b629	-0.07993729
109	0x3e54d784	0.20785338
110	0xbdc80e54	-0.09768358
111	0xbdf62fd6	-0.12020843
112	0xbcd24dc1	-0.025671842
113	0x3e711cb4	0.23546106
114	0x3e59b525	0.21260507
115	0xbdf0507c	-0.11734101
116	0xbc9783a2	-0.018495385
117	0x3e55cbec	0.20878571
118	0x3e4124cf	0.18861698
119	0x3d8b1c55	0.06792513
120	0x3e2f5a48	0.17124283
121	0x3e51c9ad	0.2048709
122	0xbdda9e40	-0.10674715
123	0xbd18940b	-0.03725056
124	0xbdb4d30e	-0.08829318
125	0xbc59ee43	-0.013301435
126	0x3e685c79	0.22691526
127	0x3e4c96fc	0.19979471

value_stream.0.weight f4 [64, 128]
0	0xbd7e2172	-0.062043615
1	0x3e698935	0.22806247
2	0x3d4b90d5	0.04969867
3	0x3d97baea	0.07408698
4	0x3d93b22d	0.07211719
5	0x3e763f7e	0.24047658
6	0x3d98a369	0.07453043
7	0x3d20d244	0.039263025
8	0x3e9ab162	0.30213457
9	0x3da47d0f	0.080316655
10	0x3df8f814	0.12156692
11	0x3c8b0591	0.016970428
12	0x3d6d9b64	0.05800952
13	0x3dbaa224	0.09112957
14	0xbe2895e1	-0.16463424
15	0x3e4bafbf	0.1989126
16	0x3dc478bd	0.095933415
17	0xbd8d97fe	-0.06913756
18	0xbd4a289e	-0.04935514
19	0x3e7d5988	0.24741185
20	0x3e112700	0.14175034
21	0x3da1a886	0.078934714
22	0xbddd5e5f	-0.108090155
23	0x3d9a541e	0.07535575
24	0x3c9aba91	0.01888779
25	0xbd68e34c	-0.056857392
26	0x3d92afe6	0.07162456
27	0xbd806f89	-0.06271274
28	0xbf33f73b	-0.7029912
29	0x3e7426b9	0.23842897
30	0x3e17fe00	0.14842987
31	0xbba29cf1	-0.0049625565
32	0x3e30a674	0.17250997
33	0x3e0b9157	0.13629662
34	0x3dc0879e	0.09400867
35	0x3e2cdd54	0.16881305
36	0xbdecbae5	-0.11559085
37	0xbc90e112	-0.017685447
38	0x3ddacec6	0.1068397
39	0xbdb6c178	-0.0892362
40	0x3e1228a1	0.14273311
41	0x3d8d5414	0.06900802
42	0x3e24197f	0.16025351
43	0x3e8639ad	0.26215878
44	0x3c13ea12	0.009027975
45	0x3d93ea42	0.072224155
46	0xbddbea06	-0.10737996
47	0xbe0d3ef1	-0.13793541
48	0xbecf26e9	-0.40459374
49	0x3e371723	0.1787992
50	0x3e22a906	0.1588479
51	0xbde248ed	-0.11049066
52	0x3e64068b	0.22268121
53	0x3db89f3c	0.090147465
54	0x3e103c96	0.14085612
55	0x3e875f55	0.2643992
56	0xbf03d89c	-0.51502395
57	0x3bfc3647	0.0076969
58	0xbd848a23	-0.0647166
59	0x3b6924e7	0.0035574974
60	0xbf0cc083	-0.5498125
61	0xbde4e2c3	-0.11176064
62	0xbd9010b3	-0.07034435
63	0xbd2fe372	-0.042941518
64	0x3dd5e21a	0.10443516
65	0x3ca911f3	0.020638442
66	0x3c8821f3	0.01661775
67	0xbdc334eb	-0.09531578
68	0x3d074ac0	0.03303027
69	0xbc4dc8e2	-0.012560101
70	0xbee6e4eb	-0.45096526
71	0x3979f4ad	0.0002383764
72	0x3ccb38f5	0.024807433
73	0xbcc50ed1	-0.024054917
74	0xbdd09ab4	-0.10185757
75	0x3e47f88f	0.19528411
76	0x3e10f078	0.14154232
77	0x3dd607f5	0.104507364
78	0x3da71d4b	0.08159884
79	0xbb33e469	-0.0027449375
80	0x3e0c4d37	0.1370133
81	0xbd94b1f1	-0.07260502
82	0xbd540fd8	-0.051772922
83	0x3e88d32d	0.26723614
84	0xbde7077d	-0.11280725
85	0x3e6aa249	0.2291347
86	0xbd1994a5	-0.037495274
87	0x3d9e1b51	0.07720054
88	0x3d8aec66	0.06783371
89	0xbdca8c8c	-0.098900884
90	0x3d0e8eac	0.03480403
91	0x3e6cc706	0.23122796
92	0x3db81d17	0.089899234
93	0xbd188b2c	-0.0372421
94	0x3d42686d	0.04746287
95	0xbce6d166	-0.02817602
96	0xbdd2c937	-0.10292285
97	0x3cfd9c11	0.030958207
98	0xbdb1b863	-0.08677747
99	0xbab82057	-0.0014047724
100	0x3e1faab0	0.15592456
101	0x3d3723c8	0.044711858
102	0x3d1022d6	0.035189472
103	0x3e912890	0.2835126
104	0x3db13dd9	0.08654375
105	0x3e67247c	0.22572511
106	0x3e86a82c	0.2630018
107	0x3dafd6ab	0.085858665
108	0x3d684e63	0.05671538
109	0x3e86fd96	0.26365346
110	0xbe1cc7ba	-0.15310565
111	0xbe6af4a1	-0.22944881
112	0x3e16739f	0.14692543
113	0x3e6663be	0.22498986
114	0x3e2973f7	0.16548143
115	0xbdcce36f	-0.10004317
116	0xbd8aed6d	-0.067835666
117	0x3e256223	0.16150717
118	0x3d921b94	0.07134166
119	0x3cf6898e	0.030094888
120	0x3e5bee73	0.2147768
121	0x3e3fe23e	0.18738648
122	0xbe26cdc7	-0.16289435
123	0xbcd6b73e	-0.026210424
124	0xbef53979	-0.4789541
125	0x3d5af96b	0.05346052
126	0x3ea14889	0.31500652
127	0xbcce449c	-0.0251792
128	0xbcc81bda	-0.024427343
129	0x3e7acc79	0.24492063
130	0xbdab1b03	-0.083547615
131	0x3e2e0437	0.16993795
132	0x3d267e52	0.040647812
133	0x3e61e232	0.22058943
134	0x3db5014d	0.08838139
135	0x3e0aa787	0.13540469
136	0xbd483c02	-0.048885353
137	0x3da03797	0.07823103
138	0x3e5217f3	0.20516948
139	0xbd761280	-0.060076237
140	0x3e924c63	0.28573903
141	0xbd25466d	-0.040350366
142	0xbdc93163	-0.09823873
143	0x3ba78df8	0.0051133595
144	0xbe09d54f	-0.13460277
145	0xbde900cb	-0.11377104
146	0xbd2106d9	-0.03931317
147	0x3e39645c	0.1810469
148	0xbd56e489	-0.05246404
149	0x3e1e92fe	0.1548576
150	0x3e27ba19	0.16379584
151	0xbd88dedc	-0.06683132
152	0xbdb09c3f	-0.086235516
153	0x3e4e3939	0.20139016
154	0x3c7b46cc	0.0153367035
155	0xbe1f6851	-0.15567137
156	0xbf1d72f2	-0.6150352
157	0xbd734ca5	-0.059399266
158	0xbce7ba80	-0.028287172
159	0x3d4efd02	0.050534256
160	0x3e103c41	0.14085485
161	0x3e159e50	0.14611173
162	0x3dacbe9d	0.08434794
163	0x3e000ea3	0.12505583
164	0xbdafa833	-0.08577003
165	0x3df8e879	0.12153716
166	0x3e4072b8	0.18793762
167	0x3d12640d	0.035739947
168	0x3e43b332	0.19111326
169	0x3e6b45f0	0.22975898
170	0x3e031b02	0.12803271
171	0xbcc88072	-0.02447531
172	0x3e4393fa	0.19099417
173	0x3dc95686	0.09830956
174	0xbcf28cf1	-0.029608222
175	0xbca3fa20	-0.02001673
176	0xbecdf4b6	-0.40225762
177	0xbd01dd94	-0.031705454
178	0x3e48d698	0.19613111
179	0xbddac7b9	-0.10682625
180	0x3ddaae46	0.10677771
181	0x3d6ee117	0.05832013
182	0x3ea7a0b8	0.32739806
183	0x3b5b7cca	0.0033491128
184	0xbee5f7db	-0.4491566
185	0x3e605c2b	0.2191016
186	0x3d220769	0.039557848
187	0x3db867de	0.09004186
188	0xbf045126	-0.5168632
189	0xbb191a39	-0.0023361577
190	0x3e4c4d13	0.19951276
191	0x3d133ed2	0.035948582
192	0x3e3b0f28	0.182675
193	0x3e010246	0.12598523
194	0x38b31140	8.538598e-05
195	0x3e5b9d65	0.2144676
196	0x3dc198d5	0.094529785
197	0x3e4b1602	0.19832614
198	0xbf085aa2	-0.53263295
199	0xbdb45d58	-0.088068664
200	0x3d992aa6	0.07478838
201	0x3d818011	0.06323255
202	0xbccadbef	-0.024763076
203	0x3d65b365	0.056079287
204	0x3dde9eec	0.10870156
205	0x3e4af659	0.19820537
206	0x3d5f4bf6	0.0545158
207	0x3e1b5d88	0.15172398
208	0x3e77b028	0.24188292
209	0x3e0d1552	0.13777664
210	0xbe1141a7	-0.141852
211	0x3d831174	0.06399813
212	0xbe07a92e	-0.1324813
213	0x3e265df6	0.16246781
214	0x3cd87cf4	0.02642677
215	0xbd57a18c	-0.052644297
216	0x3da68da3	0.08132484
217	0xbdd21fd5	-0.10259978
218	0x3dc52d8d	0.09627829
219	0x3e46e45d	0.19423051
220	0x3e8a1578	0.26969504
221	0xbcfeca87	-0.031102432
222	0x3d3a0456	0.04541429
223	0xbc031676	-0.008000961
224	0xbe2019bb	-0.15634815
225	0x3e57cb05	0.2107354
226	0x3e148423	0.14503531
227	0x3e77e11b	0.24206965
228	0x3e6a8874	0.22903615
229	0x3d78a5c9	0.06070498
230	0x3d087f4c	0.033324525
231	0x3e388f1d	0.18023343
232	0xbda7273c	-0.0816178
233	0x3e439d35	0.19102938
234	0xbd566f1a	-0.05235205
235	0x3d764314	0.060122564
236	0xbd9eaad4	-0.07747427
237	0x3e1e8099	0.15478744
238	0x3ddf367a	0.108990625
239	0xbd8ca25e	-0.068669066
240	0xbd873cf3	-0.06603422
241	0x3e80b4ae	0.25137848
242	0xbd94a985	-0.07258896
243	0xbe01b33e	-0.12666032
244	0xbdfa5cd8	-0.1222474
245	0x3d903b10	0.07042515
246	0x3e4ac922	0.19803289
247	0x3db6103a	0.08889814
248	0xbd3be656	-0.045873962
249	0xbc15bb7a	-0.009138936
250	0xbdb5e628	-0.088817894
251	0xbdc42a10	-0.09578335
252	0xbf044884	-0.5167315
253	0x3e0dc70b	0.1384546
254	0x3e3a3e35	0.18187793
255	0xbdac87a5	-0.0842431

value_stream.0.bias f4 [64]
0	0x3e8a64ee	0.27030128
1	0x3e7c3434	0.24629289
2	0xbceb1a62	-0.028699104
3	0xbd2076ec	-0.039175913
4	0xbc9263c9	-0.017869847
5	0x3e7c1a62	0.24619439
6	0x3e839717	0.2570121
7	0x3e75f660	0.24019766
8	0xbcdd8a32	-0.027043436
9	0xbc519e36	-0.012794068
10	0x3e7fc930	0.2497909
11	0x3dabfadc	0.08397457
12	0xbbc4c9a9	-0.006005485
13	0x3e01ab70	0.12663054
14	0x3e950fdb	0.2911366
15	0x3e83b5ad	0.25724545
16	0x3e728667	0.23684083
17	0x3d79c03a	0.060974337
18	0xbd1cbf98	-0.038268656
19	0x3e8a7b87	0.2704737
20	0x3d7d076c	0.061774656
21	0x3e8e2aa8	0.2776692
22	0x3e812365	0.25222316
23	0xbd1c3bca	-0.038142957
24	0x3e81c1ba	0.25343114
25	0x3e817544	0.2528478
26	0x3e834cc0	0.25644493
27	0xbc376bf1	-0.011195169
28	0xbc0abf79	-0.008468502
29	0x3e878548	0.26468873
30	0xbccdac5c	-0.025106601
31	0x3e825463	0.25455007
32	0xbd030d05	-0.03199484
33	0xbd01cb17	-0.031687822
34	0xbcc71a51	-0.02430454
35	0x3e81fc07	0.25387594
36	0xbca12f92	-0.019676004
37	0xbbbd5c8e	-0.0057788556
38	0x3e8e519b	0.27796635
39	0x3e8b6b75	0.2723042
40	0xbcc288dc	-0.0237469
41	0x3e82839e	0.2549104
42	0x3e8fbefe	0.28075403
43	0xbd636a00	-0.05552101
44	0xbc595377	-0.0132645285
45	0x3dc527b7	0.09626716
46	0xbc311e6e	-0.010810478
47	0x3e861b82	0.26192862
48	0x3e8fa747	0.2805731
49	0xbadc076a	-0.0016786878
50	0x3e835c56	0.25656384
51	0xbc5358de	-0.012899606
52	0xbb970b2a	-0.004609485
53	0x3d99d699	0.075116344
54	0x3e82883f	0.25494573
55	0xbd306dda	-0.043073513
56	0xbc47cd25	-0.012194906
57	0x00000000	0.0
58	0xbceb2361	-0.028703393
59	0x3e8116ca	0.252127
60	0x3d776dc6	0.060407422
61	0xbc2bbae9	-0.010481575
62	0xbce23b19	-0.02761607
63	0x3d40cc76	0.04706999

value_stream.2.weight f4 [1, 64]
0	0x3e7a119e	0.24420783
1	0x3e1a82aa	0.15088907
2	0xbe7f37dc	-0.24923652
3	0x3acdec55	0.0015710691
4	0xbe32a833	-0.17446975
5	0x3e739ba5	0.23789842
6	0x3ec4bbcb	0.38424525
7	0x3e072b0a	0.13200012
8	0xbfa2a0cd	-1.2705323
9	0xbdf2a8a9	-0.118485756
10	0x3e41da07	0.18930827
11	0xbf4cbb6e	-0.79973495
12	0xbe0ffce3	-0.14061312
13	0xbfaa5e33	-1.3309997
14	0x3e1fb5ff	0.1559677
15	0x3ec048dc	0.37555587
16	0x3dbd60d5	0.09246985
17	0xbf306ff2	-0.68920815
18	0xbf95957d	-1.1686245
19	0x3ecbac69	0.39779976
20	0xbf2b5b20	-0.6693592
21	0x3e61888a	0.22024742
22	0x3e47997a	0.1949214
23	0xbd5425ff	-0.05179405
24	0x3e8ce169	0.27515724
25	0x3e7aaae5	0.24479254
26	0x3ea284ea	0.3174203
27	0xbe8c4b21	-0.2740107
28	0xbe38ef41	-0.18060018
29	0x3eb6b02e	0.3568129
30	0xbc53ee90	-0.012935296
31	0x3e8a6c42	0.2703572
32	0xbcc5ceed	-0.024146521
33	0xbce5171d	-0.027965123
34	0xbe2c2d16	-0.16814074
35	0x3e2dfe4f	0.16991542
36	0xbdd6ceca	-0.10488661
37	0xbdf5e391	-0.120062955
38	0x3ebd7bcd	0.37008515
39	0x3ea59118	0.3233726
40	0xbf14cd2e	-0.5812558
41	0x3e4979db	0.1967539
42	0x3e925918	0.28583598
43	0xbdfe697a	-0.12422462
44	0xbe6ca2a4	-0.23108917
45	0xbf1ce703	-0.61289996
46	0xbe8da19d	-0.27662364
47	0x3ea3eea6	0.32018012
48	0x3e8d9781	0.2765465
49	0xbf8e3e38	-1.1112738
50	0x3eb8bb8a	0.3608058
51	0xbdf16d64	-0.11788443
52	0xbf5a567a	-0.852882
53	0xbf0ced08	-0.5504918
54	0x3e859530	0.26090384
55	0xbda85888	-0.08220011
56	0xbd9dee45	-0.07711462
57	0xbe6380f3	-0.22217159
58	0xbe2e3b2f	-0.17014764
59	0x3eefeeb4	0.46861804
60	0xbee0b36a	-0.43886882
61	0xbe473085	-0.19452102
62	0xbdd3c133	-0.10339584
63	0xbf105d3a	-0.5639225

advantage_stream.0.weight f4 [64, 128]
0	0x3e676211	0.22596003
1	0xbf344034	-0.70410466
2	0xbe9df458	-0.30850482
3	0xbe8c66e8	-0.2742226
4	0x3e1c5b77	0.15269266
5	0xbd1ade4f	-0.037809666
6	0xbd5c3190	-0.053758204
7	0x3c7269e4	0.014795754
8	0xbe93af3a	-0.28844625
9	0x3df7ac37	0.12093394
10	0xbe48f177	-0.19623362
11	0x3d8bbe23	0.06823375
12	0xbdd4e727	-0.10395651
13	0x3e24ef3c	0.16106886
14	0x3de2f88b	0.11082562
15	0xbe8851b5	-0.26624838
16	0xbdde24a0	-0.108468294
17	0xbda76572	-0.08173646
18	0xbe7d852d	-0.24757834
19	0x3d3861bb	0.045015078
20	0x3e1a418a	0.15064064
21	0xbe276b19	-0.16349448
22	0x3e23d9b9	0.16001023
23	0xbf6465d4	-0.8921788
24	0x3e498e40	0.1968317
25	0xbdec56fd	-0.11540029
26	0x3e023f80	0.12719536
27	0x3de5813f	0.11206292
28	0x3f41d9eb	0.7572314
29	0xbe395e27	-0.18102323
30	0xbf1a5ae6	-0.6029495
31	0xbf343a04	-0.70401025
32	0x3e0e1623	0.13875632
33	0xbe4fa701	-0.2027855
34	0xbea6f4df	-0.32608697
35	0xbd0efa62	-0.034906752
36	0xbc571af8	-0.013128988
37	0xbeb35fa9	-0.3503392
38	0xbe634131	-0.22192837
39	0x3bb91fdb	0.0056495494
40	0x3e07bace	0.13254854
41	0xbde41e04	-0.111385375
42	0x3dafbd00	0.08580971
43	0x3e8c2dc9	0.2737868
44	0xbe5ceaf0	-0.21573997
45	0xbed4f9ba	-0.41596776
46	0xbdafb63c	-0.0857968
47	0xbee7975d	-0.4523267
48	0x3f884251	1.0645238
49	0x3d16d0d8	0.036820263
50	0xba46e00a	-0.0007586485
51	0xbcb50b10	-0.022100002
52	0xbef949cf	-0.48689124
53	0x3e0021dc	0.12512916
54	0xbdc34685	-0.09534935
55	0x3d541368	0.05177632
56	0xbe47e721	-0.19521762
57	0xbe7aac0a	-0.2447969
58	0x3d118355	0.03552564
59	0x3e8cf2ad	0.27528897
60	0x3f34f649	0.706883
61	0x3d801b62	0.06255223
62	0xbe07d073	-0.13263111
63	0x3e19c617	0.15016972
64	0x3c8d534c	0.017251633
65	0x3e18ee0f	0.14934562
66	0x3d522cc0	0.05131221
67	0xbe44fcd2	-0.19237068
68	0xbf159add	-0.5843943
69	0x3d3f87ee	0.046760492
70	0xbcde5464	-0.02713985
71	0x3d637e2f	0.05554026
72	0xbe0142bc	-0.12623113
73	0xbde05e66	-0.10955505
74	0x3cfbc93e	0.030735608
75	0xbf111b39	-0.56682163
76	0xbe02f8de	-0.12790248
77	0xbd80ef7c	-0.06295678
78	0xbcead460	-0.028665721
79	0xbe24621b	-0.1605305
80	0xbee68bc1	-0.450285
81	0x3e4a3072	0.19745043
82	0x3ebcd0a4	0.3687793
83	0xbd460f5f	-0.048354503
84	0x3e2c571b	0.16830103
85	0x3c44e495	0.012017389
86	0x3e236b5a	0.1595892
87	0xbdc09a33	-0.09404411
88	0xbea15ec4	-0.31517613
89	0x3db3f6e6	0.087873265
90	0xbe8f34d5	-0.27969995
91	0xbf408f73	-0.75218886
92	0xbf1e617d	-0.61867505
93	0xbe89e413	-0.2693182
94	0xbdc6d3f0	-0.097083926
95	0xbe3ae237	-0.18250357
96	0x3e36a1fe	0.17835233
97	0xba0af174	-0.00053002615
98	0xbd75e93d	-0.060036886
99	0xbf22a5b5	-0.635341
100	0xbeb46469	-0.35232857
101	0x3e16a9b0	0.14713168
102	0xbe238df2	-0.15972117
103	0xbe003aa9	-0.12522377
104	0x3e376ca3	0.17912535
105	0x3cef0004	0.029174812
106	0xbf19e2eb	-0.60111874
107	0xbd11e0f7	-0.035614934
108	0xbde73801	-0.11289979
109	0x3d8d660a	0.06904228
110	0x3e36285e	0.17788836
111	0xbe1cd75f	-0.15316533
112	0xbe0bf6cb	-0.13668363
113	0xbef9a896	-0.48761433
114	0xbe32108c	-0.17389125
115	0x3ec6cb65	0.38827053
116	0x3e059215	0.13044007
117	0x3d811df7	0.063045435
118	0xbd5961d7	-0.053071823
119	0xbe1c1a82	-0.15244487
120	0xbf414956	-0.75502527
121	0xbeb0b836	-0.34515542
122	0x3f3bb63f	0.7332496
123	0xbdb42a8b	-0.08797177
124	0x3df253a0	0.118323565
125	0xbd96ab33	-0.073568724
126	0xbe0ef50d	-0.13960667
127	0xbf0c3671	-0.5477057
128	0xbe1d255c	-0.15346283
129	0xbc57ef86	-0.013179665
130	0x3e192ea9	0.14959206
131	0x3e1cd78b	0.15316598
132	0xbd31908f	-0.043350752
133	0x3cce1539	0.025156604
134	0xbe2c2950	-0.16812634
135	0xbddaecaf	-0.10689675
136	0x3de9b6f6	0.1141185
137	0x3af9cad1	0.0019057636
138	0x3d367dee	0.04455369
139	0x3cc7bc7a	0.024381865
140	0xbdc2aceb	-0.09505638
141	0x3e182169	0.14856495
142	0x3e305d03	0.17222981
143	0x3d69980e	0.057029776
144	0x3e22da47	0.15903579
145	0x3d4a3904	0.04937078
146	0x3dec09ed	0.11525331
147	0xbe0ef3a6	-0.13960132
148	0x3d765073	0.060135316
149	0xbe129438	-0.14314353
150	0xbcdc73dd	-0.026910717
151	0xbe139f34	-0.144162
152	0x3d83ef89	0.06442172
153	0xbe465b17	-0.19370686
154	0xbd647c7e	-0.055782788
155	0xbd911dba	-0.07085748
156	0x3df17646	0.11790137
157	0xbe0e44eb	-0.13893478
158	0xbdcc70e9	-0.099824734
159	0x3dfa96e2	0.1223581
160	0x3da74dbb	0.08169123
161	0x3dfa9258	0.12234944
162	0x3e130f42	0.14361289
163	0xbe00a680	-0.12563515
164	0x3d25ede8	0.04051009
165	0xbe16ea80	-0.14737892
166	0xbdbb147f	-0.09134769
167	0xbd01010e	-0.031495146
168	0xbdc0176b	-0.093794666
169	0x3cb88e1b	0.022528699
170	0x3cb489f5	0.02203844
171	0x3d04bd51	0.03240711
172	0x3db64434	0.088997275
173	0xbce57f8a	-0.028014917
174	0x3e10d154	0.14142352
175	0xbcac0b6c	-0.02100154
176	0x3dfd3372	0.12363328
177	0x3e133f27	0.1437956
178	0x3e0f6c0e	0.14006063
179	0xbdae9b53	-0.085257195
180	0xbdc1f630	-0.09470785
181	0xbe125823	-0.14291434
182	0xbd8f6d1e	-0.07003234
183	0x3e257430	0.16157603
184	0xbc75cc15	-0.01500227
185	0xbdf5c441	-0.12000323
186	0xbe03571a	-0.12826195
187	0xbe291f71	-0.165159
188	0xbdb64d13	-0.089014195
189	0x3d732d80	0.059369564
190	0xbdbd0027	-0.09228545
191	0xbd8906a0	-0.06690717
192	0xbe1690b8	-0.14703643
193	0xbe27b880	-0.16378975
194	0xbdbf1a28	-0.09331161
195	0xbe3fbeb8	-0.18725097
196	0xbd1630b8	-0.036667556
197	0xbd8cbb06	-0.068716094
198	0xbda7d536	-0.08194964
199	0xbe0a357a	-0.13496962
200	0x3d6a2d80	0.0571723
201	0x3da792dc	0.08182308
202	0xbd454d12	-0.048169203
203	0x3d059ae8	0.032618433
204	0x3e1671e1	0.14691879
205	0xbd75db47	-0.060023572
206	0xbdd62e28	-0.10458022
207	0x3deccde5	0.11562709
208	0xbd8bf02c	-0.068329185
209	0xbd94d265	-0.07266692
210	0x3dfba7af	0.122878425
211	0x3d2182f1	0.039431516
212	0xbe09dfa7	-0.13464223
213	0x3d0f77e4	0.035026446
214	0x3da843ce	0.08216058
215	0x3e26469f	0.16237877
216	0xbdda83ff	-0.106697075
217	0x3db7003e	0.08935593
218	0xbd4b654b	-0.049657147
219	0xbc05c76d	-0.008165223
220	0xbe370c93	-0.1787589
221	0xbe2c4e56	-0.16826758
222	0x3db9d09d	0.09072993
223	0xbc5d31cf	-0.013500645
224	0x3d97a301	0.074041374
225	0xbdfdb8fa	-0.12388797
226	0x3e04e26d	0.12977
227	0xbdb5d7b7	-0.08879035
228	0xbdfc20a2	-0.12310912
229	0x3e0695dc	0.13143104
230	0xbde2c32e	-0.11072384
231	0xbdf6887e	-0.120377526
232	0xbe1b1d06	-0.1514779
233	0x3d8b8e4d	0.06814251
234	0xbcf1e841	-0.029529693
235	0xbc412b4e	-0.01179011
236	0x3d525176	0.05134722
237	0xbd60cdf6	-0.05488392
238	0x3d0d34ea	0.03447429
239	0xbdc1e55b	-0.09467574
240	0xbd2eaf2b	-0.042647522
241	0x3d98f2e6	0.07468204
242	0x3d25a3d5	0.040439446
243	0x3dfbab27	0.12288504
244	0x3e2fd68a	0.17171684
245	0x3de7c30e	0.113165006
246	0xbdc39dcd	-0.095515825
247	0xbe1366f7	-0.14394747
248	0xbdae9bac	-0.08525786
249	0xbd3a9616	-0.04555329
250	0x3e31b42f	0.17353891
251	0x3cdaa85b	0.026691606
252	0xbce05041	-0.027382018
253	0x3e00755e	0.12544772
254	0x3d4c7e93	0.049925398
255	0x3e00da75	0.12583335

advantage_stream.0.bias f4 [64]
0	0xbdda8467	-0.10669785
1	0xbc986c80	-0.018606424
2	0x3d0ea85f	0.03482854
3	0x3d9a39a7	0.075305276
4	0x3d9cd2dc	0.07657406
5	0xbbe88b7a	-0.007096705
6	0x3d0b6bb4	0.03403826
7	0x3d814ac8	0.063130915
8	0xbc2b0f83	-0.01044071
9	0xbd895e5b	-0.0670745
10	0x3d892cbe	0.06697987
11	0x3d8e64b9	0.06952805
12	0x3d3dcb70	0.04633659
13	0x3c8d0bb0	0.017217487
14	0xbcd7c43f	-0.026338695
15	0x3d93c839	0.07215924
16	0x3e2cf9e7	0.16892205
17	0x3d43ac4b	0.047771733
18	0x3dae671d	0.08515761
19	0x3e174c88	0.14775288
20	0xbcc725e7	-0.024310065
21	0x3ae82906	0.0017712421
22	0x3a927b95	0.0011175746
23	0x3b2e22b6	0.0026570982
24	0xbc47fd16	-0.0122063365
25	0x3cf1be56	0.029509705
26	0xbcc9597c	-0.024578802
27	0x3cf1a342	0.029496793
28	0x3d15f8d7	0.036614265
29	0x3d87e0b5	0.06634656
30	0x3d9a115d	0.07522843
31	0xbcad5087	-0.021156562
32	0x3c7a47a4	0.0152758695
33	0xbc9cc045	-0.01913465
34	0x3d5dab0c	0.0541182
35	0x3c8c25a9	0.017107802
36	0x3d5e9849	0.05434445
37	0x3b9d2005	0.004795077
38	0xbc85527e	-0.016274687
39	0xbc7b2f9d	-0.015331176
40	0x3d0e8fb6	0.034805022
41	0x3d380131	0.04492301
42	0x3c989aae	0.018628445
43	0x3d355670	0.044271886
44	0x3a87fb67	0.0010374606
45	0x3d3c600e	0.045990042
46	0x3d45d727	0.04830089
47	0x3cf21bf4	0.029554345
48	0xba493206	-0.00076749956
49	0x3e34b826	0.17648372
50	0x3d70bcde	0.058773868
51	0x3c993596	0.01870231
52	0x3d87b636	0.06626551
53	0xbd0f6b48	-0.03501442
54	0x3dfa4ba4	0.122214586
55	0x3d80c855	0.0628821
56	0xbc8a9b0a	-0.016919632
57	0xbcca5512	-0.024698768
58	0x3dba6017	0.09100359
59	0xbd0c3070	-0.03422588
60	0x3d803e20	0.062618494
61	0x3d6ef717	0.058341112
62	0x3d0819cc	0.033227727
63	0xbcf35cd4	-0.02970735

advantage_stream.2.weight f4 [2, 64]
0	0xbe2f4437	-0.17115866
1	0x3d8a48c7	0.067521624
2	0x3e6fd7b0	0.23422122
3	0x3e78be54	0.24291354
4	0xbeee2c8b	-0.4651836
5	0xbf2af4cf	-0.667798
6	0xbead6268	-0.3386414
7	0x3f3263dd	0.6968363
8	0x3e861ec1	0.26195338
9	0x3e36ce68	0.17852175
10	0x3f2d5d82	0.67720807
11	0x3ea3ddbd	0.3200511
12	0xbf08f867	-0.5350403
13	0xbdd29e30	-0.10284078
14	0xbd129e49	-0.035795484
15	0x3eb4121d	0.3517007
16	0x3f1f3584	0.62191033
17	0x3e6d62fa	0.23182288
18	0x3e8cf32f	0.27529284
19	0xbf4d9255	-0.8030141
20	0xbe27a4e7	-0.16371499
21	0xbd89fe7e	-0.06737994
22	0x3e53d76a	0.20687643
23	0x3d21863d	0.03943466
24	0xbe75f459	-0.24018992
25	0x3a1545b6	0.00056942867
26	0x3e11c221	0.1423421
27	0xbef74fc0	-0.48303032
28	0xbea3201b	-0.31860432
29	0xbf49cfc8	-0.78832674
30	0x3eb859b0	0.36005926
31	0x3e3920ae	0.18078873
32	0xbdbe81f3	-0.093021296
33	0x3dba0dfd	0.09084699
34	0xbc740915	-0.014894743
35	0xbf4a1873	-0.78943557
36	0x3e8b67cd	0.2722763
37	0xbeb24c6e	-0.34823936
38	0x3e583d1e	0.21117064
39	0x3d7d8e34	0.061903194
40	0x3c8d398f	0.01723936
41	0xbcff38f6	-0.03115509
42	0x3ef505f8	0.47856116
43	0x3f776f85	0.9665454
44	0x3d4f128a	0.05055479
45	0x3f0ab5c5	0.5418361
46	0xbf1f62d6	-0.62260187
47	0xbec3f0e2	-0.38269717
48	0x3df9bb5f	0.12193941
49	0x3f03410d	0.51271135
50	0xbf0a5775	-0.540397
51	0xbeacbba9	-0.33736923
52	0x3f6b725a	0.9197136
53	0x3e4eb32d	0.20185538
54	0x3d89a22e	0.067203864
55	0xbf302282	-0.68802655
56	0x3e27a8ce	0.16372988
57	0x3bccf2f5	0.0062545487
58	0xbf2bc514	-0.6709759
59	0x3e0a0361	0.13477851
60	0x3f29eaaf	0.66373724
61	0x3f762163	0.96144694
62	0x3f55a101	0.834488
63	0xbcc50b4f	-0.024053244
64	0x3f30b8d2	0.69032013
65	0xbe838784	-0.25689328
66	0xbe552e3c	-0.20818418
67	0xbef385f9	-0.4756315
68	0x3ed7e05d	0.42163363
69	0x3f1c0851	0.6095019
70	0xbc7043c4	-0.014664594
71	0xbec49eac	-0.38402307
72	0x3cc476cf	0.023982434
73	0xbe0b7f61	-0.1362281
74	0xbf327524	-0.6970999
75	0xbeb40b4d	-0.35164872
76	0x3f51b933	0.81923217
77	0x3e0bc39f	0.13648842
78	0x3c58b278	0.013226144
79	0xbea63c03	-0.3246766
80	0xbf389128	-0.7209649
81	0xbe99f936	-0.30072945
82	0xbee4569d	-0.4459733
83	0x3f44833f	0.76762766
84	0xbe36a94f	-0.17838024
85	0x3cb5e2ad	0.022202814
86	0xbbef283c	-0.0072984975
87	0xbdd66a7b	-0.10469528
88	0x3e3f837f	0.18702506
89	0x3e41e220	0.18933916
90	0x3e0ab02a	0.13543764
91	0x3f3604d6	0.7110113
92	0x3eba2415	0.36355653
93	0x3f612340	0.8794441
94	0xbeb389fc	-0.3506621
95	0xbd157dd0	-0.036496937
96	0x3eaf34d5	0.34219995
97	0x3e26b5b5	0.16280253
98	0xbebd9375	-0.37026563
99	0x3f66ca5b	0.9015252
100	0xbeafc225	-0.34327808
101	0x3f50a3f2	0.8150016
102	0xbe26ad7c	-0.16277117
103	0x3d8e6e4f	0.069546334
104	0x3e72dd56	0.23717245
105	0x3ee8e0ff	0.45484158
106	0xbecdbcc4	-0.4018308
107	0xbf1f2369	-0.62163407
108	0xbce858e5	-0.0283627
109	0xbf8010cd	-1.0005127
110	0x3f556fb9	0.833736
111	0x3e0b6e9b	0.13616411
112	0xbe7ff168	-0.24994433
113	0xbf519cbe	-0.81879795
114	0x3cfb7f7d	0.03070044
115	0x3e7c5fca	0.24645916
116	0xbf07430b	-0.52836674
117	0x3e5889a1	0.21146251
118	0xbf2889ca	-0.6583525
119	0x3f104968	0.5636201
120	0x3e935484	0.28775418
121	0xbe81b309	-0.25331905
122	0x3f364532	0.71199334
123	0xbe6b6c64	-0.22990566
124	0xbf517883	-0.8182451
125	0xbf72bb15	-0.94816715
126	0xbf050229	-0.5195642
127	0xbddfadf0	-0.10921848

advantage_stream.2.bias f4 [2]
0	0xbb8ce3ed	-0.004299632
1	0x3b8ce3ed	0.004299632

exp_avg f4 [128, 4]
0	0xbb6d7dae	-0.003623824
1	0xbba80eb7	-0.0051287073
2	0xba85431a	-0.0010167093
3	0xbbdc9eb7	-0.0067327875
4	0x3a876bd0	0.0010331813
5	0x3c1b398e	0.009474171
6	0x39f5052c	0.00046733895
7	0x3b607332	0.003424835
8	0xb97a4a24	-0.00023869477
9	0x3ae163b7	0.0017195855
10	0x3a84e3f9	0.0010138742
11	0xba1082fc	-0.0005512682
12	0xbaff782c	-0.001949077
13	0xbb88831e	-0.004166021
14	0xba88b665	-0.0010430334
15	0xbb11eff6	-0.0022268272
16	0x3b7bb905	0.003840984
17	0x3a850a63	0.001015019
18	0x39632b7c	0.00021664606
19	0x3b23ba80	0.0024982989
20	0xbc2f38a9	-0.010694661
21	0xbb56322e	-0.0032683718
22	0x3a24b7d6	0.0006283497
23	0xb9785c96	-0.00023685614
24	0xba4c5134	-0.00077940826
25	0xba6662f2	-0.0008788548
26	0xb9ddcf9a	-0.0004230708
27	0xba0a8019	-0.000528337
28	0xbb922f5d	-0.0044612125
29	0xbb46126b	-0.003022338
30	0xba0b0b95	-0.0005304155
31	0xbb38d5b1	-0.0028203542
32	0xba8cecff	-0.0010751783
33	0xba366a9d	-0.00069586356
34	0xb9811bf0	-0.00024625612
35	0xb9694da1	-0.0002224953
36	0xbb997eb6	-0.0046842946
37	0xbbd0f9be	-0.006377428
38	0x39886ac0	0.00026019476
39	0xbb36d1f3	-0.0027896136
40	0x00000004	6e-45
41	0x00000004	6e-45
42	0x00000004	6e-45
43	0x00000004	6e-45
44	0xb52c3b00	-6.416085e-07
45	0x33900000	6.7055225e-08
46	0x399785d9	0.0002890069
47	0x3aa44b2a	0.0012534608
48	0x3ab95e2e	0.0014142448
49	0xba526b12	-0.0008026819
50	0x388c8872	6.701135e-05
51	0x3a270bfa	0.0006372329
52	0xbc5a3fbb	-0.013320859
53	0xbbc7fa92	-0.0061028684
54	0xba25e891	-0.00063289056
55	0xbbd2e3d6	-0.0064358516
56	0x00000004	6e-45
57	0x00000004	6e-45
58	0x80000004	-6e-45
59	0x80000004	-6e-45
60	0x3bfe2b87	0.0077566537
61	0x3b33521d	0.0027362176
62	0xba821508	-0.0009924481
63	0xba38a2e9	-0.00070433185
64	0xb965f240	-0.00021929387
65	0xbb91c2a0	-0.00444825
66	0xbae80d97	-0.0017704245
67	0xbb87f656	-0.0041492386
68	0xbaeb000c	-0.0017929091
69	0xba12f832	-0.0005606442
70	0xb9f4c648	-0.00046687038
71	0xbb129bd8	-0.0022370722
72	0x3d25f4c1	0.04051662
73	0x3c90d07a	0.017677534
74	0x3ba76aa9	0.0051091504
75	0x3d085766	0.033286475
76	0x3b7bc239	0.0038415326
77	0x391a8b46	0.00014738468
78	0xbab44db3	-0.0013756066
79	0xba83e1f0	-0.0010061841
80	0xbbddce82	-0.0067690024
81	0xbbd90bbe	-0.006623714
82	0x3ad80afe	0.0016482768
83	0x3b124ae2	0.0022322466
84	0x3ae32f88	0.0017332891
85	0x3a62578a	0.000863426
86	0x3a47190a	0.00075949787
87	0x3b78aba6	0.0037944107
88	0xbabe1526	-0.0014502152
89	0xb9aa4d3c	-0.0003248247
90	0xb7388a10	-1.09994e-05
91	0x39a1b130	0.00030840328
92	0x3ada9364	0.0016676006
93	0xbaf00b09	-0.0018313836
94	0xba8621a7	-0.0010233418
95	0xb9c549ca	-0.00037629745
96	0x3be7af2e	0.0070704436
97	0x3b2ec836	0.0026669628
98	0x3a5b0fcb	0.00083565403
99	0x3beb0c72	0.0071731145
100	0x3b6cf7e0	0.0036158487
101	0x3a5b6fd5	0.0008370851
102	0x394c9ab4	0.00019512587
103	0x3b2a6019	0.002599722
104	0x3b8e8c25	0.0043502026
105	0x3b0a9d3a	0.0021150843
106	0xb9a1ef58	-0.00030886638
107	0xba58c06c	-0.0008268419
108	0x37437310	1.1649696e-05
109	0x3813a538	3.5201403e-05
110	0x34fa6004	4.663599e-07
111	0x366a6e94	3.4933082e-06
112	0x3b0c36d8	0.0021394994
113	0x3c0da0f1	0.008644328
114	0x39ed39ac	0.00045247131
115	0x3b28c838	0.0025754105
116	0x3b4fc536	0.003170324
117	0x3a76e9da	0.0009419002
118	0x38849b36	6.323161e-05
119	0x3ac6a96e	0.0015156695
120	0x3b146d10	0.0022648014
121	0x3be5f083	0.0070171966
122	0x39b4e79d	0.0003450484
123	0x3a32288e	0.0006796204
124	0x3bc6e736	0.006070043
125	0x3ad03f4e	0.0015888007
126	0xb91214b2	-0.00013931355
127	0x3bcba252	0.0062144184
128	0x38f8f543	0.00011871245
129	0x399cae18	0.0002988435
130	0xb6a7284b	-4.9816786e-06
131	0xb9781f94	-0.00023662887
132	0xbb8828fb	-0.004155276
133	0xbbdf6129	-0.0068170023
134	0xbb15fc07	-0.0022885816
135	0xbc49c270	-0.012314424
136	0x3b402b60	0.0029322729
137	0x3b88f2d8	0.00417934
138	0xb71de638	-9.411531e-06
139	0xbb721a81	-0.0036942067
140	0x3a138941	0.00056280574
141	0x39b56e0b	0.00034605
142	0x37ef7755	2.8546589e-05
143	0xb5f656d8	-1.8353703e-06
144	0x3a32f2a4	0.00068263174
145	0x3b103998	0.0022006985
146	0x392dd015	0.00016576082
147	0xbaeb523a	-0.0017953583
148	0xbaac4740	-0.0013143793
149	0xbbbe1cd4	-0.0058017764
150	0xbaddc2e5	-0.0016919045
151	0xbb255e32	-0.0025233147
152	0x3c14b8b6	0.009077242
153	0x3c8de9c0	0.017323375
154	0x3b7f3fbe	0.0038947905
155	0x3cc5ae6f	0.024131028
156	0x3bbb8bd2	0.005723455
157	0x3b01b5c9	0.001979219
158	0xbaace862	-0.0013191814
159	0xbb5e8cc1	-0.0033958408
160	0x3aef660a	0.0018264663
161	0x3a677d0f	0.0008830586
162	0xb9bd8761	-0.00036149754
163	0xba6c7efc	-0.00090216077
164	0x3cbfeecf	0.023429302
165	0x3c6cb1fb	0.014446731
166	0x3b3ff51e	0.0029290388
167	0x3cc46c08	0.023977295
168	0xbb145e33	-0.0022639155
169	0xbb18dd52	-0.0023325277
170	0x3a098b7c	0.000524692
171	0xb685c400	-3.9865263e-06
172	0x3ab6e850	0.0013954733
173	0xb98b0a09	-0.00026519623
174	0xba176964	-0.00057758973
175	0xb9fcc644	-0.00048212905
176	0x3a978a30	0.0011561569
177	0x3abe89c1	0.0014536903
178	0x394acb1b	0.00019339884
179	0xb66e841c	-3.5541661e-06
180	0xba5c1670	-0.00083956774
181	0xb8b4d3c0	-8.62251e-05
182	0xba94f9f5	-0.0011365997
183	0xbb826e70	-0.0039804503
184	0x3a8a1f0c	0.0010537817
185	0x3a451ada	0.0007518955
186	0x37b89d00	2.2007618e-05
187	0xb96265b0	-0.00021590921
188	0xb94e3ad6	-0.00019667609
189	0xba82880f	-0.0009958762
190	0xb9408466	-0.00018359869
191	0x3a825e7f	0.0009946375
192	0x3be65ff8	0.0070304833
193	0x3c82a292	0.01594666
194	0x3c010ea6	0.007877028
195	0x3c38c008	0.011276253
196	0xbbb46531	-0.005505227
197	0xbba2457e	-0.004952132
198	0x3b0836fb	0.0020784724
199	0x3b00c9aa	0.001965145
200	0x3b5cae77	0.0033673325
201	0xbab9de49	-0.0014180626
202	0x3a1fe7bd	0.00060999003
203	0x3ba6fbea	0.0050959485
204	0xbb1ee075	-0.0024242674
205	0xbb9d2116	-0.004795204
206	0x391a1848	0.0001469563
207	0xbaa946d1	-0.0012914782
208	0xba89bba2	-0.001050819
209	0x38835760	6.2628416e-05
210	0xb8f8e6a7	-0.00011868524
211	0xb96686d0	-0.00021984731
212	0xbb8914dc	-0.004183395
213	0x3a394af1	0.0007068357
214	0x3a409682	0.0007346646
215	0x3b2d4daa	0.0026443996
216	0x3b119256	0.0022212467
217	0x3a79e622	0.00095328887
218	0xba732577	-0.0009275297
219	0xbbc248ae	-0.0059290743
220	0x3b585b0d	0.0033013255
221	0x3b422675	0.0029624973
222	0x3aa249dc	0.0012381631
223	0x3bc0718e	0.005872912
224	0x3aaf5efa	0.0013379746
225	0x393a7e2c	0.00017785345
226	0x399c54b4	0.00029817747
227	0x3ac373e3	0.0014911856
228	0xbb357432	-0.0027687666
229	0xbba8d2d0	-0.005152084
230	0xbac85486	-0.0015283979
231	0xbc1b1e4c	-0.009467673
232	0xbb8b14d0	-0.0042444244
233	0xbb68403d	-0.003543868
234	0x3a705391	0.0009167726
235	0x36d84c00	6.446149e-06
236	0x3bd984b8	0.0066381358
237	0x3a9824fd	0.0011607703
238	0xba52127c	-0.00080136186
239	0x399d0820	0.00029951427
240	0xbbd13576	-0.006384547
241	0x3a9e8918	0.00120953
242	0x3a6e6a04	0.0009094777
243	0x3afc1882	0.0019233378
244	0x3b46b064	0.003031754
245	0x3a490dae	0.000766958
246	0x3920cb3d	0.00015334501
247	0x3af84e0d	0.0018944159
248	0x3c9b2d3c	0.018942468
249	0x3c0a13fc	0.008427616
250	0x3b27462d	0.0025524006
251	0x3c90e314	0.017686404
252	0x3a2b703c	0.00065398565
253	0xbacf61b8	-0.0015821969
254	0xba207d34	-0.00061221723
255	0x3931ed8f	0.00016968533
