CartPoleHighRewardIn2026/checkpoints/checkpoint_ep600_reward98.00.pt (torch, 421167 bytes, 33 tensors)

feature_layer.0.weight f4 [128, 4]
000000 ff 5b f7 bc 22 e8 4c 3d 2c 03 4c be ad 69 5d 3e
       -0.030195234 0.050026067 -0.19923085 0.21622343
000010 e4 e3 91 3d 7d bf 8c bc af 14 63 bd 86 0f b6 be
       0.07123545 -0.017181152 -0.055439647 -0.35558718
000020 fb 28 2d bc 1d 71 b2 3c 8d 94 88 bf b4 3f 29 3c
       -0.010568853 0.021782452 -1.0670334 0.010330129
000030 23 1d 45 3d fb 9e 6c bd 11 a7 d1 3e b6 04 c3 bc
       0.04812349 -0.057768803 0.40947774 -0.023805957
000040 94 2c e5 3b 78 c0 1c 3c df 08 a3 3f 7d fc a3 3c
       0.0069938395 0.0095673725 1.2737082 0.020017857
000050 32 6c 32 bd d0 cb b3 3d a2 c4 0c bf 08 e4 c3 bc
       -0.043560214 0.087791085 -0.5498754 -0.023912445
000060 18 12 0f 3c 91 0f 71 bc b2 97 77 3e 2f 66 4b 3b
       0.008732341 -0.014713184 0.24178961 0.0031036248
000070 6c 54 e0 bc c6 fe e1 3d 52 83 87 bd 34 d0 ff 3d
       -0.027384005 0.11034922 -0.06616844 0.124908835
000080 0b 98 ed bd 5a 82 d4 3d 7f 7a ff 3e e7 b3 9a 3d
       -0.116012655 0.10376425 0.49898145 0.07553845
000090 3a 1c 4c 3e e2 2c 47 bd a0 53 7b be e5 41 9c bd
       0.19932643 -0.048626788 -0.24543619 -0.07629756
0000a0 91 72 ae 3c 59 4d b2 bc 69 48 c2 be 59 48 1f 3d
       0.021294864 -0.021765398 -0.3794587 0.038887355
0000b0 87 3a 49 3d 53 28 29 bd 70 1b 02 3e 21 cc f5 bc
       0.04912808 -0.04129822 0.12705779 -0.030004563
0000c0 7a fd 9b 3d d3 e3 27 be b0 b3 9b 3e f5 68 a7 bd
       0.07616706 -0.16395502 0.30410528 -0.08174316
0000d0 0c 5c 04 bd 10 b2 39 3e a7 b1 05 bf b0 4f 24 3e
       -0.032314345 0.18134332 -0.522242 0.16046023
0000e0 15 e1 07 3d e2 02 eb bb 19 c3 7f 3e 5d 4a a7 bc
       0.03317364 -0.0071719745 0.24976768 -0.020421201
0000f0 3e 78 ab bd e9 03 69 3c 8e 85 7a 3e a0 95 ac be
       -0.08372544 0.014222124 0.2446501 -0.33707905
000100 c3 88 20 3d 18 51 70 bc 41 95 cf 3e d5 fc 3d 3c
       0.039192926 -0.014667772 0.4054356 0.011595924
000110 2d 02 1b bd 9d 03 66 3d a3 ee 04 bf d3 26 42 3d
       -0.03784387 0.05615579 -0.5192663 0.047400307
000120 79 d9 d4 3a bc dd f3 b9 69 c5 92 3f 75 5b 03 3e
       0.0016239128 -0.00046513777 1.1466495 0.12827857
000130 fd 6f 81 3c 29 d3 ac bd 43 0a 72 3f 31 b2 f9 bd
       0.01580047 -0.08438713 0.9454691 -0.121921904
000140 84 97 b3 3b ac 56 4b 3b 81 f1 87 bf 9f c6 15 be
       0.0054807086 0.0031027002 -1.0620576 -0.14626549
000150 2c 94 ba 39 76 5e c2 bc 70 5e 75 3f 0f 0f 38 3e
       0.0003558708 -0.023726683 0.95847225 0.17974494
000160 59 b4 93 bb af bf c8 bb 94 c1 80 bf 0c ec b1 3c
       -0.004507583 -0.006126366 -1.0059075 0.021719001
000170 53 86 80 3d 57 52 a9 bc 93 fd f5 3e 5b 82 61 bd
       0.0627562 -0.020669146 0.48045024 -0.055055957
000180 ef 8b 8e 3e f2 d3 35 3e b4 36 db 3e 57 69 0a 3e
       0.27841136 0.17756632 0.42815173 0.13516746
000190 a8 34 4c bd 5e 66 53 bc 9e a2 05 bf b2 1c a4 3e
       -0.049854904 -0.012902824 -0.5220126 0.32053143
0001a0 28 fe 40 bc 79 2b 17 3c c4 e7 a1 3f 1c 66 12 3e
       -0.011779346 0.009226673 1.2648854 0.14296764
0001b0 4a e7 7d bd 4d 21 8a 3d 56 ad 3c be 0e 80 93 3d
       -0.061988153 0.06744633 -0.18425497 0.07202159
0001c0 e2 a9 47 3c 76 55 da 3a 4c da 2a bf 79 37 95 be
       0.012186499 0.001665755 -0.66739345 -0.29143885
0001d0 c6 7c 5c bd dc f0 e9 3d 83 bf 36 bd 9d 36 03 3e
       -0.05382993 0.114228934 -0.044616234 0.12813802
0001e0 0d ab f2 3d ae 12 e9 bd ec 69 94 3e 0e 3b 36 3e
       0.118490316 -0.11380516 0.28987062 0.17795965
0001f0 9a 34 b9 bb 71 5f 45 3c dc 7a 9d 3f 51 dc c6 3c
       -0.0056520225 0.012046681 1.2303119 0.024274977
000200 e4 dd 66 bc d8 3e 44 bc 83 31 0f 3e 99 28 2b bd
       -0.014090989 -0.011977874 0.13983731 -0.041786764
000210 07 66 85 3b eb ca 1b bb d4 fd e2 be e9 60 fc 3b
       0.0040710005 -0.0023772072 -0.4433428 0.0077019823
000220 d4 1e 6a bd 62 3f 62 be 0e b3 54 bf 5f 20 81 be
       -0.057158306 -0.22094491 -0.83085716 -0.2522001
000230 9b 19 37 3d 01 3e 63 bd d2 6c e0 3d da 5b 9f bd
       0.044702154 -0.055479053 0.10958256 -0.07781191
000240 1c 89 54 3e 2d 3e 03 3e 52 d4 e8 3e 6c da b0 3d
       0.20755428 0.12816687 0.45474488 0.08635411
000250 b6 e8 36 3b 6a 05 8d 3d f9 bc 17 3f 52 6c f9 3b
       0.0027909703 0.06885798 0.59272724 0.0076117897
000260 45 54 cf 3d 57 f9 6c bd 14 88 95 3f 91 ce 17 3d
       0.10123495 -0.057854977 1.1682153 0.03706223
000270 f5 cb 22 bc 4c 3d d4 3c 5c d7 82 3e 45 9a 9f be
       -0.009936322 0.025908135 0.2555493 -0.31172386
000280 b0 24 5e 3d b4 5a 9d bd 66 76 8d 3e 8c 3b b2 bd
       0.054234207 -0.07683316 0.27629393 -0.08702764
000290 b3 fe 15 be d5 bc 57 3e fe 98 1a 3f 98 5c 28 3e
       -0.14647941 0.21068127 0.603897 0.16441572
0002a0 4d 78 91 be 9a 97 48 be a7 63 45 bf b8 a1 44 be
       -0.28412095 -0.19589081 -0.7710518 -0.19202316
0002b0 0f a6 e3 3c 1e ee 77 3c 81 60 92 3d a0 ac 61 3d
       0.027789144 0.015132455 0.07147313 0.05509627
0002c0 a8 5e 48 be d1 c2 af bd 9f 5d 10 3c 23 03 ea bb
       -0.19567358 -0.0858208 0.0088113835 -0.007141487
0002d0 86 49 aa 3c 31 7d 18 bd e5 22 fa bd 8b c2 75 bd
       0.020787012 -0.037228767 -0.12213687 -0.059999984
0002e0 39 22 9c 3e 61 63 37 bd 46 a2 0b 3f 42 25 7d bc
       0.3049486 -0.04477251 0.54544485 -0.0154507775
0002f0 35 30 99 3e 4a 5f 17 be a7 d0 a2 3e 0c d0 b7 bd
       0.29919592 -0.14782444 0.31799814 -0.08975229
000300 62 f2 0d bd f0 f6 fb 3b 26 c0 8e bf 2e 39 98 3d
       -0.034654982 0.0076893494 -1.1152389 0.07432781
000310 26 ef 7c ba 9d 42 a8 bb af 2d 9f bf c7 6f 05 be
       -0.0009648673 -0.005134894 -1.2435817 -0.13030921
000320 0b e4 ad bb 73 bf 94 bc 5f 99 91 3f af 4d fc 3d
       -0.005306726 -0.018157696 1.137493 0.123195045
000330 a2 e9 88 3c b5 7a 56 bc 59 37 5e be 26 cf 0a bd
       0.016712967 -0.013090779 -0.21700801 -0.03388896
000340 11 13 76 3d 8e 52 81 bd 09 a7 8d bd 9e 55 8e be
       0.060076777 -0.06314574 -0.06916625 -0.27799696
000350 57 21 6f 3c 8a 0d 68 bd 1b 7a c4 3e c1 16 86 bd
       0.014595351 -0.056653537 0.3837441 -0.06547309
000360 08 d9 38 3d 16 fc a4 bc a4 c1 2e be e7 6f a4 bb
       0.045128852 -0.020139735 -0.17066056 -0.0050182226
000370 78 f0 4e bb c4 58 58 ba ae 2b 6a 3f 7f 4f 84 3e
       -0.0031576436 -0.0008252973 0.914729 0.258419
000380 7b c6 33 be 7f 49 92 3c 08 88 92 be a5 82 76 3e
       -0.17556183 0.017857311 -0.2861941 0.24073274
000390 e3 4b 08 bd 8d e9 95 3d 74 8a 16 bf b8 d3 94 3d
       -0.033275496 0.07319937 -0.5880501 0.07266945
0003a0 3b e1 2c 3c 0a 62 54 bc 49 06 97 bf f7 45 2e be
       0.010551746 -0.012962827 -1.1798793 -0.17018877
0003b0 40 9b 1c 3c a4 64 a0 bd af 84 c6 3e 34 e8 a1 be
       0.009558499 -0.07831696 0.38773105 -0.3162247
0003c0 93 45 c0 bb dc 06 d2 3a 59 cc 93 bf d0 25 06 be
       -0.005867669 0.0016023773 -1.1546737 -0.13100362
0003d0 3f 71 1b 3a 93 db 67 3b c7 de a2 3f 88 27 14 3e
       0.0005929656 0.003537868 1.2724236 0.14468205
0003e0 53 f4 0a bc 2f 82 7d bc d2 09 8f 3f 9d 27 d8 3d
       -0.008481103 -0.015472933 1.1174872 0.10554431
0003f0 bb 09 df 3c e1 35 80 bd 77 25 02 3e 5d bb 52 bd
       0.02722632 -0.062602766 0.12709604 -0.051448215

feature_layer.0.bias f4 [128]
000000 90 d8 b8 bd 3c d7 8d be 3e 15 2e be e1 90 98 3e
       -0.09025681 -0.27703273 -0.17000291 0.29798034
000010 ae c7 51 be fd c1 a0 3d c9 2b 35 bd 02 a8 87 3e
       -0.20486328 0.078495 -0.04423121 0.26495367
000020 b9 1a bf be 07 7b a8 bc d8 ca bc be ba 62 4b be
       -0.37325075 -0.020566477 -0.36873507 -0.1986188
000030 00 c3 b3 bc 46 65 c5 bc d4 ee 00 be 7d 39 9f be
       -0.02194357 -0.024096143 -0.12591106 -0.31098548
000040 41 fa 98 3e 69 a0 3e be 09 39 65 be f6 ec 22 3e
       0.2987843 -0.18615879 -0.22385038 0.15910706
000050 bd 6a 73 be 13 18 75 be 6e a0 33 be 97 79 b7 bd
       -0.23771186 -0.23934965 -0.17541668 -0.08958738
000060 05 e0 12 bf 8d 8f 31 bd d6 95 7d be 64 b3 2d be
       -0.57373077 -0.04334979 -0.24764189 -0.16962963
000070 d2 af a2 be 7d fa 8c be c1 84 b3 be 7e 4e 58 be
       -0.31774765 -0.27534857 -0.3506222 -0.21123692
000080 e7 56 1d be 7b ff d1 bd 60 5f 6c be 98 70 3e be
       -0.15365182 -0.10253807 -0.23083258 -0.18597639
000090 1a a9 c2 be 6b 01 3f be 18 d7 b5 bd 59 f0 e5 bc
       -0.3801964 -0.18652885 -0.088789165 -0.028068708
0000a0 9d 84 7a be ba 98 49 be 89 9f 15 bf b2 77 28 be
       -0.2446465 -0.19687167 -0.58446556 -0.1645191
0000b0 4a 90 da be ff f0 09 be 71 dd fe be f8 de 1e be
       -0.4268821 -0.13470839 -0.4977832 -0.15514743
0000c0 3f 4d 21 be 11 23 85 be 31 b8 5a be 2e ec e4 bd
       -0.15752123 -0.26003316 -0.21359326 -0.1117786
0000d0 fa 4e c6 be 41 09 2d be 95 0d 20 be 4d 6d aa be
       -0.3873213 -0.16898061 -0.15630181 -0.33286515
0000e0 e1 ce 90 be 2f d6 55 be 83 38 83 be f9 66 18 bb
       -0.28282836 -0.20882486 -0.25629053 -0.0023254736
0000f0 81 43 76 be 15 3d 7e be c0 13 53 be f3 08 07 be
       -0.24049188 -0.24827988 -0.20613003 -0.13187008
000100 12 bc 82 be 49 22 24 bd 06 46 7a be 52 39 1b 3d
       -0.2553411 -0.04007176 -0.24440774 0.03789646
000110 5f 76 72 be d4 d7 ce 3d cc 89 9b be 49 5d 12 be
       -0.23677967 0.1009976 -0.30378568 -0.14293398
000120 7b 41 88 be a8 50 64 3e 99 4b 74 be 10 fe f3 bd
       -0.26612458 0.22296393 -0.23856963 -0.11913693
000130 02 09 49 be 00 4c 5b be e5 50 89 be 3b da ed bd
       -0.19632342 -0.2141571 -0.2681953 -0.1161389
000140 57 18 8b be 3f bf c8 bd ee 39 40 be ef e7 48 be
       -0.27167007 -0.09802102 -0.18772098 -0.19619726
000150 d1 33 aa be 75 e2 17 be 48 8d 97 be 90 3e 05 be
       -0.33242658 -0.1483248 -0.29599977 -0.13012147
000160 ac e8 d9 bd 21 27 f9 bd d2 84 87 be ac 71 45 be
       -0.10640082 -0.12165666 -0.2646852 -0.19281644
000170 d5 79 7f be 73 e7 3d be 97 32 9a be ff b1 74 be
       -0.24948819 -0.18545322 -0.30116722 -0.23896025
000180 38 50 11 bf de ec 4d be ab 67 4e be 68 22 9a be
       -0.5676303 -0.20109889 -0.20156734 -0.30104375
000190 86 09 30 3d 67 95 75 3d 3d 96 1e be 25 20 96 3d
       0.042977832 0.059956934 -0.15486999 0.0733035
0001a0 56 73 16 be 20 be 83 be be 9d 8b be 58 3e 62 be
       -0.14692435 -0.2573099 -0.27268785 -0.22094095
0001b0 ef ee 88 be 58 fd 19 be 19 30 2c be 12 c5 0c be
       -0.26744792 -0.15038049 -0.16815223 -0.13747051
0001c0 25 f1 8a be cd 18 53 be c6 f0 97 3e 5e 86 84 be
       -0.27137104 -0.2061493 0.29675883 -0.25883764
0001d0 95 3b 1d be d1 68 4a be da 7b 42 3e d0 de 20 be
       -0.1535476 -0.19766547 0.18992558 -0.15709996
0001e0 88 bd 81 be 86 3b 0e be 45 27 68 be 42 5d 83 be
       -0.25339913 -0.13889894 -0.2267123 -0.25657088
0001f0 07 d3 df 3c e5 f7 c7 bd 10 92 91 be f8 b3 2e be
       0.027322305 -0.09764079 -0.2843175 -0.1706084

feature_layer.2.weight f4 [128, 128]
000000 7b 97 54 be 89 03 c8 be 57 35 7e be 4b e4 c9 3e
       -0.2076091 -0.39065197 -0.24825035 0.39431986
000010 38 33 32 3e cc 62 30 be cd f9 e9 3d 15 4c e8 3d
       0.17402351 -0.17225188 0.11424599 0.113426365
000020 40 9c 75 3e 5b f2 ec bc 3f 7c de 3d 8c c7 53 3e
       0.23985386 -0.028924158 0.10863542 0.2068159
000030 87 58 f0 3d cc bb 14 be 8c 8e 4b 3e e0 ff 9a bd
       0.11735635 -0.14524764 0.19878596 -0.075683355
000040 4a 27 a2 3e 48 9d e6 bc 7e 1d 5c 3f cd dc e8 3e
       0.316706 -0.02815117 0.859825 0.45480958
000050 d8 77 06 c0 9a 74 27 be 6c 97 5c bd 55 ca 13 3e
       -2.1010647 -0.16353074 -0.053855345 0.14432652
000060 03 8b cf be a0 41 b8 3c f8 5f 62 3e 06 a3 6d bb
       -0.40535745 0.02249223 0.22106922 -0.00362605
000070 b1 9f 0f bf 62 24 82 be d1 7e 0b be 20 27 d7 3e
       -0.56103045 -0.25418383 -0.13622595 0.42022038
000080 ae 6d d3 3d 65 88 4f be 4b 40 d2 bd 4a db 33 3e
       0.10323654 -0.20266874 -0.10266169 0.17564121
000090 eb a4 9b bc 17 06 25 bd ed 09 48 3e c6 0d 8b be
       -0.018999537 -0.04028901 0.19535036 -0.27158946
0000a0 9f b7 72 bc 34 ab 30 3b 60 d7 da bd 8f 88 5a 3e
       -0.0148142865 0.0026957514 -0.10685611 0.21341155
0000b0 19 f2 9a 3e 2d a5 b6 bc f8 25 b1 3e a0 0c ee 3e
       0.3026283 -0.022295559 0.3459928 0.46494007
0000c0 5f b7 9c bf a8 57 37 c0 dd 93 76 3d 78 15 17 3d
       -1.224346 -2.864725 0.060199607 0.03688571
0000d0 b6 bf d2 be 16 7e 33 bd b1 42 a7 3d 41 99 5f bd
       -0.4116189 -0.043821417 0.08167017 -0.054589514
0000e0 a3 ef 7b bd fd f3 5a 3d b8 7d da bf 5d 33 95 bb
       -0.061507832 0.05345534 -1.7069616 -0.004553242
0000f0 88 e5 34 c0 bd 4a 65 3e ef c6 42 3f 29 90 01 3e
       -2.8265095 0.22391792 0.760848 0.12652649
000100 57 f3 03 3f 66 d3 d4 bd 0d 6f fe bd af 25 91 3e
       0.5154318 -0.103918836 -0.12423525 0.28349063
000110 00 f2 c4 bf a7 59 c0 3d 28 dc 8c 3e fe d0 80 3d
       -1.5386353 0.093921 0.27511716 0.06289862
000120 ce 98 da 3d ba cd 05 bd 31 3f dd 3e 26 29 2d 3f
       0.106736764 -0.0326669 0.43212274 0.6764091
000130 c8 8d e1 3f 0b 30 f1 3d ae 0a e7 bc 28 13 30 3e
       1.7621393 0.117767416 -0.028203335 0.17194808
000140 d0 b4 62 3f 0e 74 8b 3c 75 65 dd be 72 3c d2 be
       0.8855715 0.017023113 -0.43241468 -0.4106174
000150 44 8c 42 bd d5 80 d7 bd 84 bb 10 3b 5a 40 3b 3e
       -0.04749705 -0.1052262 0.0022084424 0.18286267
000160 b1 51 62 3e a5 38 6d be ed 9c 4c be 37 40 32 bc
       0.22101475 -0.2316614 -0.19981737 -0.010879568
000170 76 7d 52 3d a7 48 b8 3d 6e 6c c2 3e fd 34 57 bf
       0.05138918 0.08998232 0.3797335 -0.8406523
000180 ee 9c c8 3e 3f 5e 0f 3e a3 41 d7 bc 78 61 21 bd
       0.39182228 0.14000796 -0.026276415 -0.039399594
000190 ef ad 2f 3e bf 14 5c 3d 0d 4c bc 3e e4 4b ef bd
       0.17156194 0.053730723 0.36776772 -0.11684397
0001a0 62 f7 9e 3e 84 b4 32 c0 a9 58 44 3f 13 af 47 c0
       0.31048113 -2.7922678 0.76697785 -3.1200607
0001b0 df 8d d1 3e a4 18 53 bd 87 f8 f7 bb 8d 25 8e 3d
       0.40928552 -0.05153717 -0.0075674686 0.06940756
0001c0 b0 d3 5f 3d c3 06 cd bf fb 27 b3 3d 9f 9b 64 be
       0.05464524 -1.6017689 0.0874786 -0.2232499
0001d0 f4 b4 c7 3d 31 3b 27 bf f9 3d 89 3e 8c 3a fa bb
       0.09751311 -0.65324694 0.26805094 -0.007636374
0001e0 4a 24 da bc 64 f5 80 3d 0c 6a 84 bf fa b3 36 be
       -0.026628632 0.062968045 -1.0344863 -0.17842093
0001f0 b6 bd 3d 3e bf ca 1d bd 93 c8 6d bd 43 53 50 be
       0.185294 -0.038523432 -0.05805261 -0.20344262
000200 16 8f 71 3c e7 27 9a bd 2e 1b 97 bd 68 20 dc bd
       0.014743587 -0.07527142 -0.07378231 -0.107483685
000210 d1 66 73 3d 11 44 c9 bd 4e a6 48 3d ed 6a ad 3c
       0.059424225 -0.09827436 0.048986726 0.02116915
000220 dc 99 42 3d 10 69 8c 3d 0b 0c 85 bb 3a e1 ba bd
       0.047510013 0.068559766 -0.0040602735 -0.0912499
000230 15 ff b7 3c 46 4a ce 3d cd e5 f6 3d ce 54 28 be
       0.0224605 0.1007276 0.1205555 -0.164386
000240 c2 d1 ad 3c a1 6d 96 bd 02 f0 e5 3d 55 67 96 bd
       0.021218184 -0.07345129 0.112274185 -0.07343928
000250 30 f3 3b bd a0 10 1b 3d 3e 13 0d be 90 69 63 3c
       -0.04588622 0.03785765 -0.13776872 0.0138801485
000260 42 82 8e 3d 1c 24 87 bd 09 e9 1f be 98 42 40 be
       0.069584385 -0.06598684 -0.1561624 -0.18775403
000270 0b 53 02 be f6 c5 1f be 40 5a 41 3d 53 4a 57 bd
       -0.12726991 -0.1560286 0.04720521 -0.052561115
000280 dc 8c 58 bd bf a0 bd 3d 8c ab f1 3b a8 06 12 be
       -0.05286871 0.092591755 0.0073751863 -0.14260352
000290 36 51 ae bc 05 a1 11 3d ac d7 98 bd 85 fc 22 bc
       -0.021278959 0.03555395 -0.07463011 -0.009947901
0002a0 94 f4 4c bd dd 4e 07 be b2 35 1b be 7a 12 d7 bd
       -0.050037935 -0.13213678 -0.15157202 -0.10501571
0002b0 a7 f8 84 3d 1e 7b e7 3d 3d db fb bd ac 32 8e 3d
       0.06492739 0.113027796 -0.12297676 0.06943259
0002c0 d6 55 c8 bd 72 7c 52 bd 22 8f 6d bb ab 4e 28 3d
       -0.09781997 -0.05138821 -0.0036248644 0.04109065
0002d0 6b b6 d1 3c a1 fc 29 be 1e 2f 1b 3c a9 27 2b be
       0.025599679 -0.16600277 0.009471683 -0.16714348
0002e0 fd 97 ec 3d 74 50 d9 3d a2 aa 22 be 26 d2 e9 3c
       0.11552427 0.10611048 -0.15885404 0.02854259
0002f0 7a b3 ac 3d 86 d1 e6 bd 17 f0 07 3d c3 82 dd bd
       0.0843267 -0.11270432 0.033187952 -0.108159564
000300 f0 b6 de bd b3 30 b8 bd 45 00 85 bd e8 b2 15 be
       -0.10874736 -0.08993664 -0.06494192 -0.14619029
000310 cb da 1c 3c 26 97 fa 3d f9 f4 86 3c a0 84 a2 bc
       0.009573649 0.122358605 0.016474234 -0.019838631
000320 85 7c 36 be 67 7b b0 3c 68 33 c7 3d 5b 4c 91 bc
       -0.17820938 0.021543218 0.09726602 -0.017736604
000330 4f 18 17 3e 58 47 e9 3d e8 f4 44 3d 9d c0 2e be
       0.14755367 0.11390561 0.048085123 -0.17065664
000340 e2 db 68 bd 49 5f 93 bd 78 2f 58 bd 3b e0 f8 bd
       -0.05685032 -0.071959086 -0.052779645 -0.121521436
000350 3f b5 98 bd 8f f2 9f bd 7f 3a 85 bd c3 70 1e be
       -0.07456445 -0.07809936 -0.06505298 -0.15472703
000360 7d c5 02 be e8 7e 3c 3d 7e 9a f2 3d 06 0f ed 3d
       -0.12770648 0.046019465 0.11845873 0.11575131
000370 e1 e5 94 3d 53 f9 39 be ca 06 6b bd 61 e1 99 bd
       0.072704084 -0.18161516 -0.05737952 -0.07513691
000380 86 85 22 3d 15 1c 13 3e 9b 96 95 3d e6 78 6f 3d
       0.03967812 0.14366181 0.07304116 0.058464907
000390 91 13 d4 bd 05 3c ce 3d 29 7e 1e be 9a 95 14 be
       -0.103552945 0.100700416 -0.15477814 -0.14510193
0003a0 6b 15 b1 3c ae f2 c7 3d 30 30 a2 3d 9a 14 35 be
       0.021616658 0.09763084 0.07919347 -0.1768364
0003b0 45 34 86 3d f3 91 9c bd e2 a5 7b bc f5 df d5 bd
       0.06552938 -0.07645025 -0.015359374 -0.10443107
0003c0 23 28 0c be 59 35 35 bd f3 b4 85 bc cc a0 7c 3d
       -0.13687186 -0.04424033 -0.016321635 0.061676785
0003d0 81 70 0a be b8 d1 67 bd c2 fe 31 3d b2 0a ac bd
       -0.1351948 -0.056596488 0.043455847 -0.084004775
0003e0 c5 ea 0e be 2d 0e 50 bc e9 44 f3 3c 50 5a 69 bd
       -0.13956745 -0.012698692 0.029695945 -0.056970894
0003f0 33 5a 2b bc 20 7f 02 3e d2 67 31 3d a6 dc b8 3b
       -0.010458517 0.12743807 0.0433119 0.0056415377

feature_layer.2.bias f4 [128]
000000 3b 8d 9f 3e 88 e5 16 bd c7 11 b8 3e 22 a6 7f 3e
       0.31162438 -0.03683999 0.35951063 0.24965718
000010 10 c4 13 bd 89 66 b8 3e 38 da df 3e 61 91 a5 bd
       -0.03607565 0.36015728 0.43721175 -0.080843695
000020 b1 8f e9 3e 94 35 38 bd 1a 5e 83 3c af 96 32 bd
       0.4561744 -0.04497297 0.016036082 -0.043600734
000030 54 17 d8 3e 73 7c 46 be f4 39 19 be b9 e3 c2 3e
       0.42205298 -0.19383411 -0.14963514 0.38064364
000040 d3 9c 8c bc 09 77 d7 bd 6a 9c d0 3e 57 62 ce 3e
       -0.017164623 -0.10520751 0.40744334 0.40309402
000050 dd 86 c9 bd c6 83 bc 3e 7a 41 26 be 60 28 e5 3e
       -0.09840176 0.36819285 -0.16235915 0.44757366
000060 bc 41 ca bd 52 4e cb 3e 1e 82 9e 3e 51 a7 d2 bd
       -0.09875819 0.3970819 0.30958647 -0.10285819
000070 59 6b f8 bd 0b bf b4 3e fb ec cc 3e a4 b4 c2 3e
       -0.1212985 0.35302004 0.40024552 0.38028443
000080 67 61 0b bd 37 5c 0f 3e a0 a9 24 3e d6 23 c4 3e
       -0.034028437 0.14000021 0.16080332 0.3830859
000090 99 3c 19 bd cc ac d2 3e fe ad be 3e 3a 96 2b bd
       -0.037411306 0.4114746 0.3724212 -0.041891314
0000a0 dd 2c e1 be fb 0f 45 bd 3c 5e 4f 3e 51 ab d8 3e
       -0.4397954 -0.048110943 0.20250791 0.42318204
0000b0 8e f4 c1 3e b1 90 1d bd 48 1d 05 bd 7c 32 3f 3e
       0.37881893 -0.038468067 -0.032498628 0.18671602
0000c0 65 91 03 be f9 bd 63 bc 1d 3c c2 3e 8a f8 1d bd
       -0.12848432 -0.0139002735 0.37936488 -0.038567103
0000d0 a7 05 bf 3e b3 b9 b3 3e 5b 9c 00 be 5a c2 cb 3e
       0.37309 0.35102615 -0.12559645 0.39796716
0000e0 f0 db 76 bd e5 f5 c8 3e 9d 56 5d bd 12 61 44 bd
       -0.060268342 0.39250103 -0.05403768 -0.047944136
0000f0 8e e8 52 be af a3 eb bc dc 90 e6 bc f2 68 1f be
       -0.20596525 -0.028764574 -0.028145246 -0.15567377
000100 f3 9c c6 3e d5 e8 3a bd 46 4e 05 bd f9 9d d4 3e
       0.38791618 -0.045632202 -0.03254535 0.41526774
000110 d0 65 c3 3e 8b e5 b8 3e 76 53 9a bd 20 3a bd 3e
       0.38163614 0.36112627 -0.0753545 0.36958408
000120 7c 93 2d bd c9 6a 4a bd 64 3d bd 3e 4d db b9 3e
       -0.04237698 -0.049418245 0.369609 0.36300126
000130 33 2a 9d 3e 2d 40 ea 3e 63 47 41 bd f2 09 1b bd
       0.30696258 0.45752087 -0.04718722 -0.03785128
000140 57 cd 61 3e 03 95 c7 3e 22 f4 61 be 66 39 ba 3e
       0.22050987 0.38980874 -0.22065786 0.36371917
000150 b5 5f 71 bd 21 80 bf 3e b0 af 73 be 61 26 84 bd
       -0.058929164 0.37402442 -0.23797488 -0.06452633
000160 b7 f9 db 3e f7 39 66 bd f9 1a d4 3e 14 c6 d1 3e
       0.42963955 -0.056207623 0.41426829 0.40971434
000170 31 71 d3 3e 0d bd b0 3e 45 09 9d 3e 1f 4d b5 3e
       0.41297296 0.34519234 0.30671135 0.354104
000180 4c ff 50 bd e6 45 d7 3e 68 45 35 bd 62 a7 c8 3e
       -0.05102472 0.42045516 -0.044255644 0.39190203
000190 51 25 e1 3e 97 56 08 bd 21 79 e5 3e dd e3 c1 3e
       0.43973783 -0.033285704 0.44818977 0.37869158
0001a0 bf 83 68 bd ea d5 c2 3e 0d d5 df 3e d2 c2 d8 3e
       -0.056766268 0.38053828 0.43717232 0.42336136
0001b0 8a 98 20 bd 16 4a c3 3e 38 f4 88 bd 7e 8e b3 be
       -0.039207973 0.3814246 -0.06687206 -0.3506965
0001c0 87 ba 4c bd db dc e0 3e 2d 74 d4 3e e9 0e 62 bd
       -0.049982574 0.439185 0.41494885 -0.05519
0001d0 73 15 a2 bc e9 42 a5 3e ac ca d3 3e 6c 3b be 3e
       -0.019785618 0.3227761 0.41365564 0.3715471
0001e0 6a 3d 07 3f e6 a8 d0 3e 0b bf 58 be ce 9c c2 3e
       0.52828085 0.4075386 -0.21166627 0.38010257
0001f0 7e 22 06 be 01 82 54 bc f1 74 e7 3e 1d 75 e2 3e
       -0.13099095 -0.0129704485 0.45206407 0.44229975

value_stream.0.weight f4 [64, 128]
000000 e3 2b f4 bd 76 dd 5b 3d 1a 6d 1c 3d 02 a8 11 3e
       -0.11922433 0.053678 0.038189985 0.14224246
000010 6c 9e 4a 3d 18 7c 75 3e ab e7 e8 3d 07 6c 68 be
       0.04946749 0.2397312 0.11372312 -0.22697459
000020 5e aa b5 3e a9 57 86 bc 5f 60 22 3e 73 4d a3 3c
       0.35481542 -0.016399221 0.15857075 0.019934392
000030 f3 12 b6 3d 33 ab ad bf 66 ca 7b bf a3 02 84 3e
       0.08890333 -1.3567871 -0.9835571 0.25783262
000040 c0 cb d0 3d 0a 8c 63 be 87 58 ef bc 9e 9b 72 3e
       0.10195112 -0.2222139 -0.029217018 0.23692176
000050 4e 6c 1c 3e cf 61 2f 3e 72 25 2b bf 67 9f 55 3e
       0.1527569 0.17127155 -0.6685401 0.20861588
000060 98 58 24 ba 5b d5 7f bd be 29 27 bc 77 a7 1b bd
       -0.0006269305 -0.06245933 -0.010202823 -0.038001504
000070 b8 77 4c bf 4c 16 7c 3e 97 10 26 3e 68 f2 19 3d
       -0.79870176 0.2461788 0.16217266 0.037584692
000080 be a1 33 3e 72 a3 15 bd 96 c6 73 3e 3c 7e 96 3d
       0.17542168 -0.036532827 0.23806223 0.07348296
000090 bc 31 f1 bd 93 9d 2e 3e 61 05 08 3e b4 e3 d2 bc
       -0.11777064 0.17052297 0.13283302 -0.025743343
0000a0 65 52 00 bf fc f8 f7 3a 05 20 11 3e 65 f3 d8 3e
       -0.50125724 0.0018918808 0.1417237 0.42373195
0000b0 86 93 a5 ba 49 75 2d bd 5d 67 ee bd 33 dd da bd
       -0.0012632466 -0.04234818 -0.11640809 -0.10686722
0000c0 f6 bb 12 bf f7 a1 0a 3e 01 19 09 3e 7d dc 09 be
       -0.57318056 0.13538347 0.13388444 -0.13463016
0000d0 d4 db 57 3e f6 80 0c 3e e8 39 19 bf 92 72 6a 3e
       0.21079952 0.1372107 -0.5985398 0.22895268
0000e0 0b b2 ae bd bd 83 b5 3d 8a 4b 82 bd 9c d4 cc bd
       -0.08530053 0.08863018 -0.06362064 -0.100014895
0000f0 bf c9 51 bf 69 1d 96 bd b4 61 10 be d1 c0 26 bd
       -0.81948465 -0.07329828 -0.14099771 -0.040711228
000100 69 b5 94 3e 1f 52 19 3d 45 9c 2f 3d 62 5d 08 3b
       0.29044655 0.037431832 0.04287364 0.0020807614
000110 a0 e8 0e 3c 73 f4 1d bd 77 d7 7c bd 7d f3 7e bd
       0.008722454 -0.038563203 -0.06172892 -0.062243927
000120 7d 28 b7 bb 26 80 63 bc b0 82 b0 bc b4 fb 27 3e
       -0.0055895434 -0.013885533 -0.021546692 0.16404611
000130 5e 43 87 3e 77 19 2d 3e b6 14 6a 3d 05 a2 c8 3c
       0.26418585 0.16904245 0.057148658 0.02449132
000140 1d 55 a9 3e 89 a8 bb bd 70 b7 78 bf 12 4f 60 3e
       0.3307275 -0.09163005 -0.97154903 0.21905163
000150 22 19 d5 bd bd b2 67 3e 90 6c ad 3d f3 10 bc 3d
       -0.10405184 0.22626777 0.08467972 0.0918292
000160 5b 54 b0 3d 0c 6f 07 be a7 6a 05 bd cf e1 5f 3e
       0.086098395 -0.13225955 -0.032572415 0.21863483
000170 ac bd dc 3d 6d a0 92 bd 5e 3a 2d 3e 1e e5 3f 3d
       0.107783645 -0.07159505 0.16916797 0.046849363
000180 d0 d8 49 3d 3b eb e8 3d 56 1d 07 be a5 13 eb bc
       0.049279034 0.11372992 -0.13194785 -0.02869589
000190 df 47 3b 3e 91 18 ff bc 8f 64 8e 3e 09 24 9d 3e
       0.18289135 -0.031139644 0.27811095 0.30691555
0001a0 ae e2 81 3d b2 99 ae 3e 3b 7e 8c 3e 6c ca 74 3e
       0.06342064 0.34101635 0.27440056 0.23905343
0001b0 ff 4d 33 3d 17 1f be 3e b9 39 5d bf e1 8f b2 be
       0.043775555 0.37133095 -0.864162 -0.34875396
0001c0 9d 5f 1e 3e 56 12 86 3e 74 27 29 3e 20 16 07 3d
       0.15466161 0.26185864 0.16518956 0.032980084
0001d0 88 94 b4 bd 02 6b 4b 3e 10 03 59 3e 23 21 5e 3d
       -0.088173926 0.19865039 0.21192575 0.05423082
0001e0 e7 17 fe 3e f2 8e 27 3e 43 0f 8f bf 7a 7d 82 3d
       0.4962761 0.16363123 -1.1176533 0.06371589
0001f0 7c 37 00 3e 63 26 70 3d 16 eb ae 3e 37 b0 9d 3d
       0.12521166 0.05863036 0.3416373 0.07699626
000200 e7 8d c5 bc 10 6e c9 3d aa a9 1d be 7c 2f 9b 3e
       -0.024115516 0.09835446 -0.15396753 0.30309665
000210 c7 e1 1b 3c 8b 12 35 3e 04 6a 15 3e 46 a4 7c 3e
       0.009514279 0.17682855 0.14591223 0.2467204
000220 1a dc 37 bd c1 6a a5 bc b5 2f 59 3e 2a 74 85 bd
       -0.04488764 -0.020192506 0.21209605 -0.06516297
000230 28 b8 8c 3e 25 c6 0b bf 72 9c 64 be c8 17 5f 3c
       0.2748425 -0.5459922 -0.22325304 0.01361651
000240 18 2a f8 bd 89 ee 7c be 9c a7 85 bd fe 9c 02 3e
       -0.12117404 -0.24700369 -0.065261096 0.127552
000250 c4 a1 73 bd 4b 80 67 3e dd 5c 9c 3e 37 4c b2 3c
       -0.059480444 0.22607534 0.305396 0.021764858
000260 6d 3e d4 bd e3 eb 08 3e 50 22 8d bc d1 5c 03 be
       -0.10363469 0.13371234 -0.017228276 -0.12828375
000270 a3 2d 6b bd 27 12 a4 bd e6 8b 88 bd dd f3 1b 3d
       -0.05741657 -0.08011275 -0.066673085 0.038074363
000280 42 58 0f 3e 3b dc a1 bd 80 1b 55 3e 05 2b a3 bc
       0.13998511 -0.07903334 0.20811272 -0.019917974
000290 69 f5 b1 bd d7 d1 86 3e 22 dd 49 3e b8 ac c2 3d
       -0.086893864 0.2633197 0.19713262 0.095056
0002a0 59 58 c9 be ba 8f 2c 3e 9d 1a 13 3e 16 f4 24 3e
       -0.39325216 0.16851702 0.14365621 0.16108736
0002b0 c8 9e 2b 3e 80 06 f3 3a 7c 1a 13 bd f7 2c f1 bc
       0.16759789 0.0018541366 -0.03591393 -0.029440386
0002c0 d3 73 82 3d ee ae 91 bd 0a 77 fb 3d 59 98 03 be
       0.06369748 -0.07113443 0.12278564 -0.12851085
0002d0 32 0b 82 3d eb 6c 2d 3e 27 05 03 3e c5 88 26 bd
       0.063497916 0.1693608 0.12794934 -0.040657777
0002e0 4b b4 99 bc 3c 4e 86 3e 9f fc 06 3d c9 82 8b bb
       -0.018762728 0.26231563 0.032955762 -0.004257534
0002f0 7f 5c 62 be 24 c7 02 3d 0a 4a 05 3e e7 3a 2d 3d
       -0.22105597 0.031928197 0.13016525 0.0422925
000300 83 8c a7 3e c9 9c 10 3e 4d 91 0f 3b c3 db 7e 3e
       0.3272439 0.14122309 0.0021906674 0.2488852
000310 14 91 a9 3c 70 22 20 3e 23 49 17 be 73 40 4e be
       0.020699061 0.15638137 -0.14773993 -0.20141773
000320 7d f5 51 3d 7a 34 90 3d a4 c6 fd 3b 74 59 02 bd
       0.051259506 0.07041259 0.007744627 -0.03182359
000330 3f cf 43 3e 05 3f 81 3e eb 78 dc 3c cd ed 33 3e
       0.19122027 0.25243393 0.026913127 0.17571183
000340 cc 41 c5 3e 4d a6 33 3e 82 82 b2 3d 5b 2f b4 3c
       0.38526762 0.17543907 0.08716299 0.021995237
000350 fd 0c 24 be b7 3d 1f 3e ab 79 1b 3e 2a 3c 1c bd
       -0.1602058 0.15550886 0.15183131 -0.038143314
000360 9a 33 44 3d 8f 6f d2 bd 6c 5d b6 bc 69 53 09 3e
       0.047900774 -0.10275184 -0.022261344 0.13410725
000370 1d 02 76 3e a1 2a 54 bd 3f 11 09 3e 93 21 24 3d
       0.24024244 -0.051798467 0.13385485 0.04007108
000380 0d 3a 3e bc 75 e7 75 3e fd 58 1f 3e 89 25 2c 3e
       -0.01161052 0.24014075 0.1556129 0.16811194
000390 47 9b 49 3e ee 52 ca bc a8 2b 64 3e 59 ea 29 3e
       0.1968814 -0.024697747 0.22282279 0.16593303
0003a0 47 fe d9 bd 46 e6 9d 3e b1 0b aa bd d0 94 29 3e
       -0.10644203 0.30839747 -0.08303011 0.16560674
0003b0 de 2a b2 bd 3f 14 8a 3e 17 8c 23 3e c6 b3 38 be
       -0.086995825 0.26968572 0.15971409 -0.18037328
0003c0 a1 bd a2 bd 14 db 75 3e b2 ea cf bd 94 4d 09 bc
       -0.07946325 0.24009353 -0.101521865 -0.0083803125
0003d0 0e 3d 13 be c6 e1 c0 3d ca 09 9c 3e e1 7d 07 3e
       -0.1437876 0.09418063 0.30476218 0.13231613
0003e0 ff f8 40 3e e7 bf 99 bd 68 34 05 3e dd 11 93 bd
       0.18844984 -0.075073056 0.13008273 -0.071811415
0003f0 33 c7 c1 3d b6 b7 19 3e 02 d9 22 3e 4c d9 e5 bc
       0.09461822 0.15011486 0.15903094 -0.028057717

value_stream.0.bias f4 [64]
000000 44 f8 15 3f dc 41 08 3f 78 53 56 bd 00 00 00 00
       0.5858195 0.53225493 -0.052325696 0.0
000010 a8 a1 9e 3d 7e d6 f3 3e 3e 90 16 3f 71 15 08 3f
       0.07745677 0.47624582 0.58813846 0.53157717
000020 5e 41 a0 bc 7a 8c 53 bd 1a e4 0d 3f e8 5a 7b bd
       -0.01956242 -0.05164764 0.5542618 -0.06136599
000030 79 73 c6 3e 4d fe b2 bc 53 de 0f 3f 3a b0 15 3f
       0.38759974 -0.021849776 0.56198615 0.58472025
000040 82 bf 01 3f cc a4 9d 3d 0c 3e d8 bc 9e 93 00 3f
       0.5068284 0.07697448 -0.026396774 0.50225246
000050 3a c8 84 bc de 36 e7 3e 36 4b 14 3f ba ce e8 3c
       -0.016208757 0.45159048 0.5792726 0.028418887
000060 7d 5f 13 3f b5 ff 11 3f b8 d9 14 3f 43 64 2c bd
       0.5756758 0.570308 0.5814471 -0.042087805
000070 af 6b 6d 3e b6 e0 f5 3e 86 d4 0b bd 2c 80 13 3f
       0.2318561 0.48023003 -0.034138225 0.5761745
000080 d2 07 f3 bc 77 68 ba bc e2 1f 5c bd 2b a3 e7 3e
       -0.029666815 -0.02275489 -0.053741343 0.45241675
000090 a9 12 20 bd 98 d0 26 bd 20 16 03 3f 41 46 18 3f
       -0.039080296 -0.040726274 0.51205635 0.594822
0000a0 77 b6 b7 bd 96 a4 ec 3e 2a 0b 15 3f 8a ac ba 3e
       -0.08970349 0.4621932 0.5822016 0.36459762
0000b0 4a 0a 12 bd d7 54 51 bd 8a ba 33 bc 4c 5d 15 3f
       -0.035654344 -0.0511063 -0.010969767 0.58345485
0000c0 7f 7f 13 3f d8 c4 f2 3d 0f 19 16 3f c4 14 e5 bc
       0.5761642 0.11853951 0.58631986 -0.027964003
0000d0 1f 56 8e 3d 4e c5 86 3d 28 3e fa 3e ad 54 30 bd
       0.0695002 0.06580602 0.48875546 -0.043049503
0000e0 fd 50 24 3e 17 76 71 bd cd e3 6c bd 3e 35 03 3f
       0.1604652 -0.05895051 -0.057834435 0.51253116
0000f0 7e 43 7d 3d 49 8c 53 bc 29 7c 89 bc 7a ee 92 3d
       0.061831944 -0.012911865 -0.016782837 0.07174392

value_stream.2.weight f4 [1, 64]
000000 22 05 b2 3e 87 82 25 3e 52 1f 65 be 40 32 34 3d
       0.3476954 0.16163073 -0.22375229 0.043993235
000010 61 b2 a4 bf 7c bc 84 3e e0 c2 e2 3e 53 df 30 3e
       -1.2866937 0.25925052 0.44289303 0.17272691
000020 06 93 81 be ef 55 9e bf b9 11 5f 3e 98 21 2b bf
       -0.25307482 -1.2369975 0.21784104 -0.66848135
000030 47 28 93 bf 84 98 57 be c3 f2 2f 3e 75 3c d0 3e
       -1.1496667 -0.21054274 0.1718245 0.40671125
000040 be e2 ef 3d e2 a3 c3 bf 5b 24 26 be e0 65 c0 3e
       0.117131695 -1.5284388 -0.16224806 0.37577724
000050 ba fe 54 be 23 44 03 3e 15 6d 97 3e 60 d0 98 bf
       -0.20800295 0.12818961 0.2957541 -1.1938591
000060 f3 78 a5 3e 0e 77 95 3e bc 98 b7 3e 0c 7d 80 be
       0.3231884 0.29192394 0.35858715 -0.25095403
000070 95 ae 93 bf 32 c9 86 3e e7 dc 4b b9 f9 01 a7 3e
       -1.1537653 0.26325375 -0.00019441881 0.32618693
000080 0e b7 96 b7 5a b1 00 bd 47 20 0c be 70 8e 03 3e
       -1.7966635e-05 -0.031419136 -0.13684188 0.12847304
000090 00 d2 85 bd fb 9a 88 bc 90 e7 b7 3e 47 0c db 3e
       -0.06534195 -0.016675463 0.35918856 0.42782804
0000a0 14 3f bf 3b 08 83 4e 3e 9a fc a8 3e bb fa a9 bf
       0.005836377 0.20167172 0.3300522 -1.3279642
0000b0 8e 49 57 be 1a 4c 32 3a 26 e0 8d be f7 0e ae 3e
       -0.21024153 0.0006801501 -0.27710074 0.33995792
0000c0 eb 30 98 3e 56 c5 1e bf ac 16 d7 3e 49 6f d8 bd
       0.2972482 -0.6201986 0.42009485 -0.10568101
0000d0 cd a2 9b bf 71 ff 92 bf 76 e4 71 3e f2 f2 da bd
       -1.2159058 -1.1484205 0.23622307 -0.106908694
0000e0 35 80 62 bf f6 59 28 be 6f 37 0e be cf 56 e7 3e
       -0.8847688 -0.16440567 -0.13888334 0.45183417
0000f0 ef 0c 7a bf 9a 67 47 be 76 9f fa bd c9 f5 7b bf
       -0.97675985 -0.19473115 -0.12237446 -0.98421913

advantage_stream.0.weight f4 [64, 128]
000000 e6 85 67 3e 16 10 ba 3c 76 46 6d be 6c 66 79 bd
       0.22609672 0.022712748 -0.2317141 -0.060888693
000010 bd 98 14 3e 76 80 0e 3d ae 19 1c bd df d8 a3 3c
       0.1451139 0.03479048 -0.038110428 0.020000873
000020 50 ca 86 3d 6f 99 04 be 48 8e 19 bd 96 3d 8d 3d
       0.06581557 -0.12949155 -0.037489206 0.06896512
000030 a1 60 80 39 8a 3f 27 bd 9d 7b 7e bd fa f4 3e be
       0.00024486057 -0.04083208 -0.062129606 -0.18648139
000040 6f f6 fc bd 9c 0a b2 bd 7d d5 a3 be fe 4f 46 3e
       -0.12351691 -0.0869343 -0.31998816 0.19366452
000050 30 ae 10 3e 2b 00 6c be e0 c2 8f 3d cd fa aa be
       0.14128947 -0.23046939 0.07019591 -0.3339447
000060 72 2d 3b 3e e9 b6 6e be e0 e0 0f 3e 4a a5 c7 3d
       0.18279055 -0.23311962 0.14050627 0.09748323
000070 2c e4 f5 bc 7b 55 61 be 7f e4 85 bd 2c f3 13 3e
       -0.030016027 -0.22005264 -0.06537723 0.14448231
000080 1b 1b 15 3e 59 a8 2e be 01 e3 4d be 69 8f 0f be
       0.14561121 -0.17056407 -0.20106126 -0.1401955
000090 eb 16 c6 bc 91 b6 90 be 0e 0a 22 be f1 8f 87 3b
       -0.02418085 -0.28264287 -0.15824148 0.004137032
0000a0 e5 cc 3a 3e 81 39 25 3e f8 79 95 bc 5a 72 29 3e
       0.18242224 0.16135217 -0.018246636 0.16547528
0000b0 c3 b1 7b be 33 2b d5 bd aa eb bf bd cd 97 9a 3d
       -0.2457953 -0.1040863 -0.09371121 0.07548485
0000c0 7f 57 c6 bd 54 41 29 3c 07 65 2c be 58 be 8f bd
       -0.09684657 0.010330517 -0.16835414 -0.07018727
0000d0 0c a4 d1 bd 7f 5f 33 3e 63 82 74 be 99 d6 84 3d
       -0.102363676 0.17516898 -0.23877864 0.06486244
0000e0 35 36 19 be ee 61 01 3a 98 91 4c 3d 27 92 44 bc
       -0.14962085 0.0004935552 0.049943537 -0.011997736
0000f0 a5 1d a1 bc 13 a7 86 3d 3c 28 dd 3d ed 56 5d 3e
       -0.019667456 0.06574836 0.1079869 0.21615191
000100 9b 37 9c be 0c 79 13 3e 8f 41 1e 3d 80 c2 cd 3d
       -0.30511174 0.14401644 0.03863674 0.100468636
000110 ba 9b 0c 3e c8 ab 1b be 5d 28 0f bd 77 9a 3f 3e
       0.1373128 -0.15202248 -0.034950603 0.18711267
000120 80 f3 00 be a8 50 c6 bd bc 18 ea bd 6b f7 9d be
       -0.12592888 -0.09683353 -0.11430499 -0.30852827
000130 a8 2d 24 3e 42 9f 15 be a3 40 8e bc d2 b8 18 be
       0.16033041 -0.14611533 -0.017364806 -0.14914253
000140 17 f9 64 be 7c f6 57 3e de 5f 3a be 03 5f 0b bd
       -0.22360645 0.2109012 -0.18200633 -0.034026157
000150 f5 97 31 3e 59 6a 92 bd e9 59 39 3e e8 a3 0b be
       0.17343123 -0.071491905 0.18100704 -0.13636744
000160 09 93 c1 bd 9f 33 12 3e 28 08 a6 bb e2 ac c9 be
       -0.09451873 0.14277504 -0.0050668903 -0.39389712
000170 45 e9 c7 bd 96 7f 80 be 48 84 52 bb 65 71 03 be
       -0.097612895 -0.2509734 -0.0032122303 -0.12836225
000180 4c 1b e2 3e e2 23 62 be 06 e4 77 be ba 78 f1 3c
       0.4416145 -0.22084 -0.24208078 0.029476512
000190 df b8 af be 83 f8 c1 3d 6d a8 63 be 95 5a 20 bd
       -0.34320733 0.09471228 -0.22232218 -0.039148886
0001a0 e2 b5 2a 3e 47 5f 8e 3d 9f 32 24 be 09 06 65 bd
       0.16670945 0.069517665 -0.16034935 -0.05591396
0001b0 b9 d1 09 be b3 d2 55 3d 56 dc 16 bd c2 79 88 bd
       -0.13458909 0.05220289 -0.036831222 -0.066638485
0001c0 63 76 0e be 6b 37 9b be ff 81 9a bd 6f a9 28 3e
       -0.13912348 -0.30315718 -0.07544326 0.16470884
0001d0 de e6 0d 3e 96 b2 da 3d 33 0c 21 bc f8 20 0d 3b
       0.138576 0.10678594 -0.009829569 0.0021534543
0001e0 73 5d c6 be 85 cf d6 3c 20 32 9f 3d b9 1e b3 be
       -0.3874317 0.026222 0.077732325 -0.34984377
0001f0 3c 7c 57 3e 0b f0 7d bd 87 dc f1 3c 94 0a c4 be
       0.21043485 -0.0619965 0.029524101 -0.3828932
000200 b5 c5 28 be 20 9e 75 3c a1 5b 22 3e c7 67 18 3e
       -0.16481669 0.014991313 0.15855266 0.14883338
000210 a8 b3 2a bd da e0 35 3d 2b 69 32 be 4a fd ee bd
       -0.04167524 0.04440389 -0.17422931 -0.11669405
000220 30 0f 01 3e 51 9f c4 3c 28 23 27 3d ca d6 a4 3c
       0.1260345 0.02400175 0.040805012 0.02012195
000230 1e 83 8d bd bf 66 0b 3e 53 80 20 3e e7 91 89 3d
       -0.06909774 0.13613413 0.15673952 0.06717282
000240 47 0f 21 3e 07 67 47 3d 4b aa 02 3e 7a a0 f7 bd
       0.15728484 0.04868224 0.12760274 -0.12091155
000250 13 6d 74 3d a7 b4 08 be fe 2a fa bc 5f 83 01 be
       0.059674334 -0.13350163 -0.030538078 -0.1264777
000260 59 c7 6b 3d ff 80 35 be 2f 74 6f bd 8a d8 8b bd
       0.05756316 -0.1772499 -0.05846041 -0.06828411
000270 f3 ca e0 3d 78 7d 18 be 50 09 bd bd 2f 41 14 3e
       0.109762095 -0.14891613 -0.09230292 0.1447799
000280 cd ed 9b 3d fb 84 db 3d a6 c7 21 3e c1 0b d6 bd
       0.07613716 0.107187234 0.15798816 -0.10451461
000290 93 6a 32 3d 60 e5 0c be 8a 07 96 bd 3a fe fc bc
       0.04355867 -0.13759375 -0.07325657 -0.030882943
0002a0 8b a1 b5 bd 48 8f 16 3d 69 0f 01 3d 69 07 e7 3c
       -0.088687025 0.036757737 0.031508837 0.028201776
0002b0 e1 df b5 3d 89 9b 98 bc 8f f1 0d 3e 28 0b 92 bc
       0.08880592 -0.018628852 0.13861679 -0.017827585
0002c0 42 82 df 3d 86 2a 08 3e f0 fb 20 3e 53 9b ae bd
       0.109135166 0.13297471 0.15721107 -0.085257195
0002d0 78 3e 96 bd 31 6f 13 be 82 01 a5 bd 86 e9 22 3e
       -0.07336134 -0.14397885 -0.08056928 0.15909395
0002e0 d6 47 8b bc e2 b8 d0 bd a2 f9 11 be 8a bf 0a be
       -0.017002027 -0.101915136 -0.14255384 -0.13549629
0002f0 7a 6f d9 bd 80 2d 73 3d 28 b6 c5 bd b2 5f 88 bd
       -0.106169656 0.059369564 -0.09653884 -0.066588774
000300 92 ca 1b be ca 89 1b be 8e ca d2 bd 3c 61 2f be
       -0.15213993 -0.15189281 -0.102925405 -0.17126936
000310 81 9c 97 bc cc 75 95 bd be 12 ae bd 2d 0b e5 bd
       -0.018507244 -0.072978586 -0.084996685 -0.11183772
000320 99 16 67 3d e0 96 8c 3d c7 28 1d bd 6b 3e 38 3d
       0.056418035 0.068647146 -0.038368966 0.0449814
000330 47 95 1f 3e f6 42 65 bd 6d ee d0 bd 7c 36 cd 3d
       0.15584289 -0.055972062 -0.10201726 0.10020158
000340 94 a3 34 bd 1c 60 96 bd 82 d5 d9 3d e0 a5 47 3d
       -0.044101313 -0.0734255 0.106364265 0.048742175
000350 78 06 f7 bd 79 34 1c 3d 57 5f 9c 3d f4 6d 29 3e
       -0.12061781 0.03813598 0.07635372 0.1654585
000360 4c 08 da bd 3e 00 b7 3d 61 03 6a bd 91 b0 98 3c
       -0.10646114 0.08935593 -0.05713213 0.01863888
000370 89 5d 2a be 53 67 29 be 43 8f c0 3d ab 3b 56 bb
       -0.16637243 -0.16543321 0.09402325 -0.0032689373
000380 a0 17 9d 3d 2b 19 e4 bd 0f 89 02 3e 6e e8 90 bd
       0.07670522 -0.11137613 0.12747596 -0.070755824
000390 40 42 e7 bd 77 eb 19 3e 94 3c dd bd 50 75 0b be
       -0.11291933 0.15031229 -0.1080257 -0.1361897
0003a0 e1 f0 14 be af 5b 95 3d db f6 69 bc b6 4a 1a bc
       -0.14545013 0.07292878 -0.014280046 -0.009417227
0003b0 3a 63 3f 3d 9e 31 63 bd 79 ae d9 3c 68 61 c8 bd
       0.04672549 -0.05546724 0.026572453 -0.09784204
0003c0 b3 f1 39 bd c8 d5 be 3d cc e2 af 3c 7b 3d f9 3d
       -0.045396518 0.09318119 0.02147045 0.121699296
0003d0 c7 df 28 3e 27 85 f5 3d b3 2d 98 bd 2f cf 19 be
       0.16491614 0.119882874 -0.074305914 -0.1502044
0003e0 8c 28 a3 bd b2 25 ac bc e5 22 20 3e f8 c6 4d 3c
       -0.07966718 -0.021014068 0.15638311 0.012559645
0003f0 1a 5b e6 bc cf dc 02 3e e4 8d 89 3d 20 de 0b 3e
       -0.028119612 0.12779544 0.067165166 0.13658953

advantage_stream.0.bias f4 [64]
000000 26 37 be 3c 11 d4 65 bb 86 7b 8d 3d 44 b4 f8 3d
       0.023219656 -0.0035069028 0.06908326 0.12143758
000010 f4 30 bb 3c c3 90 79 ba e3 4c 0d bd 3b db 5f bd
       0.022850491 -0.00095201674 -0.034497153 -0.054652434
000020 83 89 09 bb 1e 4d 8c 3e ce 39 94 3e 44 2f 81 bd
       -0.0020986504 0.27402586 0.2895035 -0.06307843
000030 e9 58 ab 3e 2c ee ca bd 4e 4d d6 bc 24 10 f5 3d
       0.3346627 -0.09908709 -0.026159909 0.11965969
000040 48 c3 e0 3b f3 4e 07 3e 15 b4 fb 3d cf 9f 88 bd
       0.006859217 0.1321371 0.12290207 -0.06671106
000050 09 db d0 bc a2 aa 87 bd a6 a8 02 3e 19 ea 3a be
       -0.02549507 -0.066243425 0.12759647 -0.18253364
000060 f9 62 72 bd 5a 1a 86 bd 41 b5 3a bd 11 f0 39 bc
       -0.05917642 -0.06547995 -0.045583013 -0.01134874
000070 d5 e0 74 bc 12 45 f3 3d f6 e4 03 3e a6 0c 27 3e
       -0.014946182 0.118784085 0.1288031 0.16313419
000080 43 bd 1e be 35 1b 38 bd f6 43 cd 3d de ee 94 3d
       -0.15501885 -0.04494782 0.10022728 0.07272123
000090 9f b3 90 bd e3 7f 09 be d2 05 57 bd d6 6f d2 3d
       -0.0706551 -0.13427691 -0.052495785 0.10275237
0000a0 1a da ff bc c4 f5 95 bd 9b 88 9a 3e c0 52 27 bd
       -0.031231929 -0.07322267 0.30182347 -0.0408504
0000b0 65 62 ad 3d 74 4c 26 3e c8 60 fc 3d 47 5c a6 bd
       0.08466033 0.16240102 0.12323147 -0.08123069
0000c0 bc 71 06 bd 59 2e 6e 3d 2f 81 12 bd d3 6f e6 bc
       -0.03282331 0.05814967 -0.03576773 -0.028129494
0000d0 6d 69 30 bc 07 ff 00 bd 69 3c 0e bd b8 98 97 bd
       -0.010767323 -0.031493213 -0.03472558 -0.07402176
0000e0 ad 6f 2f bd 96 79 a2 bb ba 78 a5 bc 00 1e ce 3d
       -0.04283111 -0.004958342 -0.020199168 0.10064316
0000f0 80 95 0d 3d af 70 97 bd 9d eb 6f bd 58 c4 44 bd
       0.034566402 -0.073945396 -0.058574308 -0.04803881

advantage_stream.2.weight f4 [2, 64]
000000 a1 3c e5 3e 47 69 84 3d 91 2b 7c 3e 09 0b 1e 3f
       0.4477282 0.064653926 0.24625994 0.6173559
000010 a0 95 c0 be 19 a5 d7 be 00 38 4f be ea ae 3a 3e
       -0.37614155 -0.42118147 -0.20236206 0.18230787
000020 b1 ec 8f 3e 2c aa 84 3f ed e3 5c 3f eb fb 8c bc
       0.2811027 1.0364432 0.8628529 -0.017209968
000030 5f 12 3d bf aa c3 9e 3c 40 73 8d bc 09 54 9a 3e
       -0.7385616 0.01938041 -0.01726687 0.3014224
000040 e8 98 65 bd ce f4 4b 3e 23 84 1d 3e 04 05 57 be
       -0.056054026 0.19917604 0.15382437 -0.20998007
000050 53 8e 2d be df 55 c2 bd 59 8f 93 3f 6c 72 d9 3d
       -0.16948824 -0.09489035 1.1528121 0.10617527
000060 5e 5f 49 be 79 63 bf 3d a3 d3 4e 3e 65 0e dd 3d
       -0.19665286 0.09345145 0.2019792 0.10793761
000070 e4 da 47 be 27 e7 ab bf 05 a1 5e 3e 08 f7 ea 3e
       -0.19517094 -1.3429917 0.21741112 0.45891595
000080 8f e0 e5 3d 92 48 42 3e 68 ba 8e bd 89 70 63 bf
       0.11224472 0.18972996 -0.06969148 -0.8884359
000090 8f d3 d1 3e 5d 02 7a 3e d8 20 3c 3e a2 d1 80 3f
       0.4098172 0.24414964 0.18371904 1.0063975
0000a0 e8 91 95 bd d6 97 20 3e 03 46 79 3f ff 10 38 3f
       -0.0730322 0.15682921 0.97372454 0.71900934
0000b0 8d 85 26 3f 9f f0 1e 3f fb 3d 96 bf d3 f5 16 be
       0.6504753 0.6208591 -1.1737665 -0.14742212
0000c0 53 0d b0 3d 0d 1a 71 3e 85 85 f0 be c1 27 6d be
       0.085962914 0.23545094 -0.46976867 -0.23159696
0000d0 fb 14 41 bd d5 26 30 3e 77 32 9f be 98 68 20 bd
       -0.04713915 0.17202313 -0.3109319 -0.03916225
0000e0 46 3a 32 3d 87 9a 90 3c ae 0f 1c 3d e4 63 8b 3d
       0.043512605 0.01765181 0.03810089 0.06806162
0000f0 e9 cc 98 bd 6b 42 20 3e 95 97 5a 3f 73 cd ee bc
       -0.074609585 0.15650336 0.85387546 -0.0291507
000100 a7 4b 92 3d b1 0f 82 be 19 83 61 be 79 9e 59 bf
       0.07143336 -0.25402597 -0.22022666 -0.85007435
000110 7a 49 aa 3e 45 cc b9 3e c3 90 1a be 69 a3 05 3e
       0.33259183 0.36288658 -0.15094285 0.13050617
000120 5a 5e 9e 3b 5d 80 7e bf 8d fb 61 bf 3c ba 6b bc
       0.004833025 -0.99414617 -0.8827446 -0.014387663
000130 86 e9 82 3f ab bc 69 3c 54 c0 ad bb 01 7e 8c be
       1.0227516 0.014266173 -0.0053024683 -0.27439883
000140 f7 1f 30 bd 5d 42 89 be eb 25 a6 be 33 c8 32 3e
       -0.042999234 -0.26808444 -0.32450804 0.17459182
000150 e3 bf 30 be 43 a0 4b 3d 95 07 74 bf 91 8c 2f be
       -0.17260699 0.049713384 -0.9532407 -0.17143466
000160 7b ee 12 3e 07 8b c5 3d 35 3d 9b 3d 23 d9 f5 3d
       0.14348786 0.09645658 0.07580034 0.12004306
000170 c2 e2 75 3e f3 90 b7 3f 8b 01 55 be 6e 16 a1 be
       0.24012282 1.434111 -0.2080137 -0.31462425
000180 b6 37 0c 3e 22 e8 82 3d 05 85 a1 be ff 10 80 3f
       0.13693127 0.06391932 -0.31546798 1.0005187
000190 bd 2d f6 be bf f4 63 3e 36 91 0a be 75 fc 5f bf
       -0.4808177 0.22261332 -0.13531956 -0.87494594
0001a0 df a5 a7 3e 95 a1 88 3e 5f a1 65 bf 05 8a bf be
       0.32743737 0.26685777 -0.8969936 -0.37409988
0001b0 1f d7 20 bf 2b 2e 8a bf 69 44 b1 3f 40 fc ca bd
       -0.6282825 -1.0795339 1.3849002 -0.09911394
0001c0 69 1a 5b be 32 a2 0a bf 8b 83 23 bd 25 10 10 3e
       -0.21396793 -0.5415374 -0.03992037 0.14068659
0001d0 d1 80 e0 3e f9 15 77 3e 7e 78 8f be 89 93 ae bd
       0.4384828 0.24129476 -0.28021616 -0.08524234
0001e0 e6 e1 d0 3e e6 88 87 be a7 13 3f 3b e5 1a 27 be
       0.40797347 -0.26471633 0.0029156 -0.16318853
0001f0 b1 a2 a3 bd 09 a9 12 be cf f8 09 bf 76 3d d5 bd
       -0.07990015 -0.14322294 -0.53895277 -0.10412113

advantage_stream.2.bias f4 [2]
000000 95 0c 43 bd 95 0c 43 3d
       -0.04761942 0.04761942
