CartPoleHighRewardIn2026/checkpoints/checkpoint_ep450_reward30.00.pt (torch, 421167 bytes, 33 tensors)

feature_layer.0.weight f4 [128, 4]
0	0x3e0b9656	0.13631567
1	0xbc3bbddc	-0.01145884
2	0xbeb685f7	-0.35649082
3	0x3e81d728	0.25359464
4	0x3d52dc8b	0.051479857
5	0x3d83569b	0.06413003
6	0x3d10051d	0.035161126
7	0xbe815bec	-0.25265443
8	0xbdb471e5	-0.08810786
9	0x3ce308c6	0.027714144
10	0xbf51078c	-0.8165214
11	0xbdc1ce65	-0.09463195
12	0x3d84402c	0.06457552
13	0xbd637c80	-0.055538654
14	0x3e9b6573	0.30350837
15	0xbd2efc37	-0.042721
16	0x3c70bf88	0.014694102
17	0xba8d8c3b	-0.0010799238
18	0x3f87be42	1.0604937
19	0x3ca27ff8	0.01983641
20	0xbd4c4522	-0.049870618
21	0x3d7d0e31	0.061781112
22	0xbf0b58e2	-0.544325
23	0xbb45f8a3	-0.0030208013
24	0x3d0777f9	0.0330734
25	0x3cbcfa9e	0.023068722
26	0x3e864616	0.26225346
27	0x3cf43c0d	0.02981379
28	0xbd01d5c0	-0.03169799
29	0x3ddc56a6	0.107587144
30	0xbe04ebca	-0.12980571
31	0x3ddffdba	0.109370664
32	0xbdf9ef63	-0.122038625
33	0x3dd8f91c	0.10594389
34	0x3ebffe05	0.3749849
35	0x3b9e69df	0.004834398
36	0x3e3cc8e5	0.1843601
37	0xbdacf0d2	-0.0844437
38	0xbe898e35	-0.26866308
39	0xbe08b0b8	-0.13348663
40	0x3d9b960b	0.07596978
41	0xbddaa5ff	-0.106761925
42	0xbe8251c8	-0.2545302
43	0x3dae2860	0.08503795
44	0x3e19d88c	0.15024012
45	0xbca3ba52	-0.019986305
46	0x3e3e8498	0.18605268
47	0x3d9a6d03	0.075403236
48	0x3d553374	0.052051023
49	0xbd3eac0e	-0.046550803
50	0x3edf65e2	0.43632418
51	0xba396ad1	-0.0007073107
52	0x3d84a593	0.06476893
53	0x3e20c4d1	0.1570008
54	0xbee131c9	-0.43983296
55	0x3dc15733	0.0944046
56	0x3cd7a167	0.02632208
57	0xbcdb2b33	-0.026753997
58	0x3e63fbd5	0.22264035
59	0xbcd55407	-0.026041044
60	0xbd904e4a	-0.070461825
61	0xbd3ac9fd	-0.045602787
62	0x3eb2c038	0.34912276
63	0xbe802b4e	-0.2503304
64	0x3d44ced2	0.0480488
65	0xbc3a5b96	-0.011374375
66	0x3e94ddb0	0.29075384
67	0xbc2f61b8	-0.01070445
68	0xbd554687	-0.052069213
69	0x3da8bb0f	0.082388036
70	0xbefe81f6	-0.49708527
71	0x3d00c818	0.031440824
72	0x3ae84a6e	0.0017722377
73	0x3af49b2a	0.0018661965
74	0x3f59d0e5	0.8508437
75	0x3de65e81	0.11248494
76	0xbbb69260	-0.0055716485
77	0xbd57832a	-0.052615322
78	0x3f64b3e6	0.89337003
79	0xbde83bcc	-0.1133953
80	0x3cc49548	0.023996964
81	0xbb8fd4e1	-0.004389391
82	0xbf5ed048	-0.8703656
83	0xbdd4ebb7	-0.103965215
84	0x3dd871ed	0.105686046
85	0xbd2aba22	-0.041681416
86	0x3f2a8710	0.6661234
87	0x3e5a635e	0.21326968
88	0x3d14b4e9	0.036305342
89	0xbc26c7a9	-0.010179439
90	0xbf4c4201	-0.79788214
91	0xbdc02954	-0.09382883
92	0x3c5c7a1e	0.013456849
93	0x3bcfff34	0.0063475613
94	0x3f0734d2	0.5281497
95	0xbd7a1265	-0.0610527
96	0x3e80b9e2	0.25141817
97	0x3db6b0ef	0.08920466
98	0x3e03dce3	0.1287723
99	0x3d25af0d	0.040450145
100	0xbdd4a4b9	-0.10382981
101	0xbb114ce1	-0.0022171068
102	0xbec07617	-0.37590095
103	0x3ea458aa	0.32098895
104	0x3cc34a59	0.023839163
105	0xbc2a1c1a	-0.0103826765
106	0x3f8637ba	1.0485756
107	0x3dcffdeb	0.10155853
108	0xbce3489f	-0.02774459
109	0x3dd39136	0.10330431
110	0xbe21b90e	-0.15793249
111	0x3d373646	0.044729494
112	0xbbff2e7b	-0.0077875233
113	0xbc8950d6	-0.016762178
114	0xbf09b753	-0.53795356
115	0xbe4f0641	-0.2021723
116	0xbd80be4f	-0.062862985
117	0x3dc9af1e	0.09847854
118	0xbc88c140	-0.016693711
119	0x3e2f2562	0.17104104
120	0x3e5508dd	0.20804162
121	0xbe33fbfd	-0.17576595
122	0x3ee65246	0.44984645
123	0x3d97b98f	0.07408439
124	0xbc8f78f7	-0.017513735
125	0x3ceeca1c	0.029149108
126	0x3f7d4815	0.98938113
127	0x3d306284	0.0430627
128	0x3c8eafce	0.017417815
129	0xbd331e61	-0.043730143
130	0x3e2f7700	0.17135239
131	0xbc24cbdc	-0.0100583695
132	0x3b856607	0.0040710005
133	0xbb1bcaeb	-0.0023772072
134	0xbee2fdd4	-0.4433428
135	0x3bfc60e9	0.0077019823
136	0xbd395dbf	-0.04525542
137	0xbe8b820e	-0.2724766
138	0xbf28e6a8	-0.65976954
139	0xbe7460ea	-0.23865095
140	0x3d9c78f2	0.07640256
141	0xbdb24455	-0.087044396
142	0x3da2daa7	0.07951861
143	0xbd3d33b1	-0.046191875
144	0x3c8c2874	0.017109133
145	0x3e3368fd	0.17520519
146	0x3edf2e5a	0.4359005
147	0xbdef76e6	-0.116926
148	0xbdc0c371	-0.094122775
149	0x3dbeb626	0.09312086
150	0x3f33d6c5	0.7024959
151	0x3db4fe1c	0.0883753
152	0x3e03cf1c	0.12871975
153	0xbd96a7af	-0.07356202
154	0x3f80d0c1	1.0063707
155	0x3b3538d2	0.0027652276
156	0xbcae2587	-0.021258129
157	0x3def4cc5	0.116845645
158	0x3eb812a8	0.35951734
159	0xbeb626bf	-0.35576436
160	0x3dd3d8c3	0.103440784
161	0xbdc2653a	-0.09491964
162	0x3e2e7277	0.17035852
163	0xbe081d72	-0.13292482
164	0xbd24986d	-0.040184427
165	0x3e82aeaf	0.25523898
166	0x3ed3fb98	0.41402888
167	0x3e2f5029	0.17120422
168	0xbe889045	-0.2667257
169	0xbdb11b8c	-0.08647832
170	0xbf1cce84	-0.6125262
171	0xbd933266	-0.07187347
172	0x3d1714e4	0.036885157
173	0xba4690f7	-0.0007574702
174	0x3d99b46d	0.075051166
175	0x3d27038b	0.040774863
176	0xbe0a317e	-0.13495442
177	0xbe018fa9	-0.12652458
178	0x3e4751ad	0.1946475
179	0x3e2ac4ea	0.16676679
180	0x3c133785	0.008985405
181	0xbde43377	-0.11142629
182	0xbe982dfd	-0.29722586
183	0xbdffca62	-0.12489773
184	0x3e7ebda4	0.2487703
185	0xbe2b5b07	-0.16733943
186	0x3ed28760	0.41118908
187	0xbd880ac3	-0.06642678
188	0x3e058f6f	0.13042997
189	0xbe1869ed	-0.14884157
190	0x3ec7e466	0.39041442
191	0xbdd45896	-0.10368459
192	0x3cc6d0d3	0.024269497
193	0xbc3756d1	-0.011190132
194	0xbf6556c6	-0.8958553
195	0x3d000ad4	0.031260327
196	0x3cd8b5e4	0.02645392
197	0xbb9afae9	-0.004729618
198	0xbf8437d5	-1.0329539
199	0xbdf62eb0	-0.12020624
200	0x3dd1b5c1	0.10239745
201	0xbd13bcea	-0.036068834
202	0x3f628870	0.8848944
203	0x3e031d0b	0.12804048
204	0x3c88e9a2	0.016712967
205	0xbc567ab5	-0.013090779
206	0xbe5e3759	-0.21700801
207	0xbd0acf26	-0.03388896
208	0x3d90917c	0.07058999
209	0x3cc1841e	0.023622569
210	0xbd3c3299	-0.04594669
211	0xbe9184ee	-0.2842173
212	0x3b9905be	0.004669874
213	0x3beb4bec	0.0071806815
214	0x3e8ec47f	0.2788429
215	0xbe27e814	-0.16397125
216	0x3dd1d4b6	0.102456495
217	0xbdcae9f9	-0.09907908
218	0xbe1803a2	-0.14845136
219	0x3d036f7a	0.032088734
220	0x3d18c53a	0.037297465
221	0x3cee467d	0.029086346
222	0x3f3e6747	0.7437634
223	0x3e6be4b3	0.2303646
224	0xbd980dde	-0.0742452
225	0xbda9246a	-0.082588986
226	0x3ca33850	0.019924313
227	0x3e71c379	0.23609723
228	0xbd216db4	-0.03941126
229	0x3dd2ccf8	0.10293001
230	0xbedf4bbd	-0.4361247
231	0x3e0dbc9d	0.13841482
232	0x3d9ab859	0.07554693
233	0xbd3e4ed4	-0.046461895
234	0xbf742cd3	-0.95380896
235	0xbe286c02	-0.16447452
236	0x3e024403	0.12721257
237	0xbdcfb33e	-0.101416096
238	0x3ee6624d	0.44996873
239	0xbe8fd282	-0.28090292
240	0x3d0a6b62	0.033793814
241	0x3aae4152	0.0013294613
242	0xbf72ee87	-0.94895214
243	0xbdd3015a	-0.10302992
244	0x3c70a76f	0.014688357
245	0x3b8bb6e2	0.0042637447
246	0x3f82093b	1.0159067
247	0x3e079c56	0.13243231
248	0xbb3ac358	-0.0028497782
249	0x3c7e4b4e	0.015520884
250	0x3f540a5c	0.8282831
251	0x3da0ca63	0.07851102
252	0x3cf1b094	0.029503144
253	0xbd4f9524	-0.05067934
254	0x3dd792d2	0.105260506
255	0xbd3c025c	-0.045900688

feature_layer.0.bias f4 [128]
0	0xbd052ea2	-0.032515176
1	0xbe84abee	-0.25912422
2	0xbe09d022	-0.13458303
3	0x3e8565e7	0.26054308
4	0xbe019d45	-0.1265765
5	0x3e1a9e86	0.15099534
6	0x3e286caa	0.16447702
7	0x3e779bba	0.24180499
8	0xbe90b113	-0.28260097
9	0x3e0c8459	0.13722362
10	0xbe798a82	-0.24369243
11	0x3d0995b3	0.03359003
12	0x3e04df76	0.12975869
13	0x3db02ff3	0.086028956
14	0xbd65a68b	-0.05606703
15	0xbe906ac3	-0.28206453
16	0x3e849626	0.25895804
17	0xbe1b8a0f	-0.15189384
18	0xbe2e0af9	-0.16996373
19	0x3e18b5cc	0.149131
20	0xbe3387c5	-0.1753226
21	0xbe2ab1e2	-0.1666942
22	0xbe0e33cd	-0.13886948
23	0x3de5c920	0.11220002
24	0xbefbd351	-0.4918466
25	0xbd120c25	-0.035656113
26	0xbe20e8a2	-0.15713742
27	0xbdac9c51	-0.084282525
28	0xbe50efe7	-0.20404015
29	0xbe6b62b5	-0.22986872
30	0xbe39420f	-0.18091606
31	0xbe24e180	-0.16101646
32	0xbdf9b0a4	-0.12191895
33	0xbdd1ff7b	-0.10253807
34	0xbe457dd1	-0.19286276
35	0xbe1e114c	-0.15436286
36	0xbe433da9	-0.1906649
37	0x3db91ca1	0.09038664
38	0xbd8c3622	-0.068462625
39	0xbcaf08df	-0.021366535
40	0xbd63beae	-0.05560177
41	0xbe44daa4	-0.1922403
42	0xbef695cd	-0.48161164
43	0xbe12c5b1	-0.14333226
44	0xbe8073a7	-0.25088236
45	0x3d8843d0	0.06653559
46	0xbe4e78a4	-0.20163208
47	0xbceef852	-0.029171143
48	0xbe1a2b2b	-0.1505553
49	0xbe54070c	-0.20705813
50	0xbe099ae6	-0.13437995
51	0xbde4ec2e	-0.1117786
52	0xbe83a1c6	-0.2570936
53	0x3cc2dfe8	0.023788407
54	0x3d9201ba	0.071292356
55	0xbe63d223	-0.2224813
56	0xbe51e4f5	-0.20497496
57	0xbb61a370	-0.0034429692
58	0xbe558c09	-0.208542
59	0x3cc056f5	0.023478964
60	0xbe3f63d6	-0.18690428
61	0xbe2cbec4	-0.16869646
62	0xbe220a84	-0.15824324
63	0xbdc4f6bb	-0.096173726
64	0xbe42f42a	-0.19038454
65	0x3e078eab	0.13238017
66	0xbe5aba68	-0.21360171
67	0x3db5f9bc	0.08885524
68	0xbe2c66b1	-0.16836049
69	0x3e114937	0.14188085
70	0xbe6acb22	-0.22929052
71	0xbde473e5	-0.11154918
72	0xbe32071e	-0.17385527
73	0x3e5b1f0a	0.21398559
74	0xbe25e727	-0.16201459
75	0xbe1fa1ad	-0.15589018
76	0xbe1b22de	-0.1515002
77	0xbe001f32	-0.125119
78	0xbe5c08aa	-0.2148768
79	0x3d8b96b5	0.068158545
80	0xbe5e66f9	-0.21718968
81	0xbdc8bf3f	-0.09802102
82	0xbe1d2027	-0.15344296
83	0xbe1916b3	-0.14950065
84	0xbe066bdd	-0.13127084
85	0xbd80965c	-0.06278679
86	0xbe1f477d	-0.15554614
87	0x3cfde040	0.03099072
88	0xbcde010b	-0.027100107
89	0xbde1dd1b	-0.11028501
90	0xbe063d03	-0.13109212
91	0xbdd8f8ca	-0.10594328
92	0xbe3826b5	-0.17983516
93	0x3d809477	0.062783174
94	0xbe30f590	-0.17281175
95	0xbe3cb0a3	-0.18426757
96	0xbed39755	-0.41326395
97	0xbdf6330c	-0.12021455
98	0xbe2a6bbf	-0.16642664
99	0xbe3198a7	-0.17343388
100	0x3cc76127	0.024338318
101	0x3e38793f	0.18015002
102	0xbe321037	-0.17388998
103	0x3d4a8355	0.049441654
104	0xbd078043	-0.033081304
105	0xbe4a927a	-0.19782439
106	0xbe5d177e	-0.21590993
107	0xbe2ea048	-0.1705333
108	0xbe453712	-0.19259289
109	0xba0364a2	-0.0005012249
110	0x3b80e213	0.0039332
111	0x3e1099ee	0.1412122
112	0xbe30036b	-0.17188804
113	0xbe23788b	-0.15963952
114	0x3e82a471	0.25516084
115	0xbddb0631	-0.1069454
116	0xbe152890	-0.14566255
117	0xbdf95858	-0.12175053
118	0x3e414128	0.18872511
119	0x3d48f804	0.04906465
120	0xbe27f755	-0.16402943
121	0xbdc2d019	-0.09512348
122	0xbe35c888	-0.17752278
123	0xbe80d0ee	-0.251594
124	0x3db5e975	0.08882419
125	0xbdbe45a4	-0.09290627
126	0xbe037807	-0.12838756
127	0xbdb808d4	-0.08986059

feature_layer.2.weight f4 [128, 128]
0	0xbe2f1873	-0.1709917
1	0xbe8674de	-0.26261038
2	0xbe3fcef4	-0.1873129
3	0x3ec09691	0.37614873
4	0x3e725fb3	0.23669319
5	0xbdc88908	-0.09791762
6	0x3e2233ae	0.15840027
7	0x3dfa769d	0.12229655
8	0x3e28b644	0.16475779
9	0xbd9106c3	-0.07081368
10	0x3e1de033	0.15417556
11	0x3e206daa	0.15666834
12	0x3dcabb71	0.09899033
13	0xbe303f2d	-0.172116
14	0x3e4332db	0.19062369
15	0xbe2097b8	-0.15682876
16	0x3e98cd7a	0.29844266
17	0x3c62cc50	0.013842657
18	0x3f017686	0.5057148
19	0x3ee1e05d	0.44116488
20	0xbfc2aab9	-1.520835
21	0xbd589247	-0.052873876
22	0xbdc84cb2	-0.097802535
23	0x3e2ef3ed	0.17085238
24	0xbedaac2b	-0.4270948
25	0x3d8a8618	0.067638576
26	0x3e689a91	0.22715212
27	0x3c976c11	0.018484147
28	0xbe76ae09	-0.24089827
29	0xbe7de333	-0.24793701
30	0xbd8f9088	-0.07009989
31	0x3ec71c2d	0.38888684
32	0x3dd3109a	0.10305901
33	0xbe4f8865	-0.20266874
34	0xbdfe4768	-0.124159634
35	0x3e1c6d2a	0.15276018
36	0xbe3b43eb	-0.18287627
37	0xbad964dd	-0.0016585846
38	0x3e4f8ddc	0.20268959
39	0xbe63076d	-0.22170801
40	0x3b28b478	0.0025742333
41	0x3ce9a796	0.028522294
42	0xbdd79216	-0.105259106
43	0x3e25e8e1	0.16202118
44	0x3e559bb3	0.20860176
45	0x3d2d81aa	0.042359985
46	0x3c15c67e	0.0091415625
47	0x3e490c05	0.19633491
48	0xbf9d8885	-1.2307287
49	0xc0050cad	-2.0788987
50	0x3db2cd99	0.08730621
51	0x3d171578	0.03688571
52	0xbe6eacf3	-0.23308162
53	0xbe05440b	-0.13014238
54	0x3cc6cfb8	0.02426897
55	0x3d63f389	0.055652175
56	0xbd684fdc	-0.056716785
57	0x3dbc27d0	0.09187281
58	0xbfadd6ef	-1.3581218
59	0xbb8a186a	-0.004214336
60	0xc00e5e46	-2.224504
61	0x3e2b4d33	0.16728668
62	0x3ee3f69e	0.4452409
63	0x3db312c0	0.08743811
64	0x3e815d51	0.25266507
65	0xbd7b61c9	-0.061372552
66	0xbf0b750e	-0.54475486
67	0x3e9db798	0.30804133
68	0xbf9847f1	-1.1896955
69	0x3dce7052	0.10080017
70	0x3e7a7393	0.2445815
71	0x3d9dea79	0.07710738
72	0x3e408c46	0.1880351
73	0x3c2af76c	0.010434967
74	0x3e9574c8	0.2919066
75	0x3f211a33	0.629306
76	0x3f9e637a	1.2374108
77	0x3e16bcce	0.14720461
78	0x3d8721d1	0.06598247
79	0x3e2f227b	0.17102997
80	0x3f4bd7ae	0.79625976
81	0x3c8b740e	0.017023113
82	0xbee95331	-0.45571283
83	0xbea8ef3e	-0.32995027
84	0x3dfddd17	0.12395685
85	0x3a3435ac	0.0006874453
86	0xbe0e9e82	-0.13927653
87	0x3d372e40	0.04472184
88	0x3e49f0d5	0.19720776
89	0xbe44b881	-0.19211008
90	0xbe1fd313	-0.15607862
91	0x3a99ae3d	0.0011724901
92	0xbd971e24	-0.07378796
93	0x3ce17378	0.02752088
94	0x3e933035	0.28747717
95	0xbf014576	-0.50496614
96	0x3e263959	0.16232814
97	0x3e401466	0.18757781
98	0xbc2f11a5	-0.010685359
99	0x3debf865	0.11521987
100	0x3da27363	0.079321645
101	0x3daad7f1	0.08341969
102	0x3ea237ee	0.31683296
103	0xbda1d727	-0.07902365
104	0x3e518ffc	0.20465082
105	0xc00727b9	-2.1117995
106	0x3f07b266	0.5300659
107	0xc014d5b7	-2.325544
108	0x3ec58316	0.38576573
109	0xbdc57c0b	-0.096428
110	0x3da79cf2	0.08184232
111	0x3d880336	0.066412374
112	0x3cebd57f	0.028788326
113	0xbf9f8b2a	-1.2464345
114	0x3de0a858	0.10969609
115	0xbdb6c750	-0.089247346
116	0x3dbf01b7	0.09326499
117	0xbee6b258	-0.4505794
118	0x3e8a926b	0.27064833
119	0xbd8f6be7	-0.070030026
120	0xbd6ff6dd	-0.058585037
121	0x3d2fca16	0.042917334
122	0xbf344d98	-0.704309
123	0xbe3daf21	-0.18523838
124	0x3e41c594	0.18923026
125	0xbe89e061	-0.26929
126	0x3d8d7482	0.06906988
127	0xbeb80456	-0.35940808
128	0x3c718f16	0.014743587
129	0xbd9a27e7	-0.07527142
130	0xbd971b2e	-0.07378231
131	0xbddc2068	-0.107483685
132	0x3d7366d1	0.059424225
133	0xbdc94411	-0.09827436
134	0x3d48a64e	0.048986726
135	0x3cad6aed	0.02116915
136	0x3d4299dc	0.047510013
137	0x3d8c6910	0.068559766
138	0xbb850c0b	-0.0040602735
139	0xbdbae13a	-0.0912499
140	0x3cb7ff15	0.0224605
141	0x3dce4a46	0.1007276
142	0x3df6e5cd	0.1205555
143	0xbe2854ce	-0.164386
144	0x3cadd1c2	0.021218184
145	0xbd966da1	-0.07345129
146	0x3de5f002	0.112274185
147	0xbd966755	-0.07343928
148	0xbd3bf330	-0.04588622
149	0x3d1b10a0	0.03785765
150	0xbe0d133e	-0.13776872
151	0x3c636990	0.0138801485
152	0x3d8e8242	0.069584385
153	0xbd87241c	-0.06598684
154	0xbe1fe909	-0.1561624
155	0xbe404298	-0.18775403
156	0xbe02530b	-0.12726991
157	0xbe1fc5f6	-0.1560286
158	0x3d415a40	0.04720521
159	0xbd574a53	-0.052561115
160	0xbd588cdc	-0.05286871
161	0x3dbda0bf	0.092591755
162	0x3bf1ab8c	0.0073751863
163	0xbe1206a8	-0.14260352
164	0xbcae5136	-0.021278959
165	0x3d11a105	0.03555395
166	0xbd98d7ac	-0.07463011
167	0xbc22fc85	-0.009947901
168	0xbd4cf494	-0.050037935
169	0xbe074edd	-0.13213678
170	0xbe1b35b2	-0.15157202
171	0xbdd7127a	-0.10501571
172	0x3d84f8a7	0.06492739
173	0x3de77b1e	0.113027796
174	0xbdfbdb3d	-0.12297676
175	0x3d8e32ac	0.06943259
176	0xbdc855d6	-0.09781997
177	0xbd527c72	-0.05138821
178	0xbb6d8f22	-0.0036248644
179	0x3d284eab	0.04109065
180	0x3cd1b66b	0.025599679
181	0xbe29fca1	-0.16600277
182	0x3c1b2f1e	0.009471683
183	0xbe2b27a9	-0.16714348
184	0x3dec97fd	0.11552427
185	0x3dd95074	0.10611048
186	0xbe22aaa2	-0.15885404
187	0x3ce9d226	0.02854259
188	0x3dacb37a	0.0843267
189	0xbde6d186	-0.11270432
190	0x3d07f017	0.033187952
191	0xbddd82c3	-0.108159564
192	0xbddeb6f0	-0.10874736
193	0xbdb830b3	-0.08993664
194	0xbd850045	-0.06494192
195	0xbe15b2e8	-0.14619029
196	0x3c1cdacb	0.009573649
197	0x3dfa9726	0.122358605
198	0x3c86f4f9	0.016474234
199	0xbca284a0	-0.019838631
200	0xbe367c85	-0.17820938
201	0x3cb07b67	0.021543218
202	0x3dc73368	0.09726602
203	0xbc914c5b	-0.017736604
204	0x3e17184f	0.14755367
205	0x3de94758	0.11390561
206	0x3d44f4e8	0.048085123
207	0xbe2ec09d	-0.17065664
208	0xbd68dbe2	-0.05685032
209	0xbd935f49	-0.071959086
210	0xbd582f78	-0.052779645
211	0xbdf8e03b	-0.121521436
212	0xbd98b53f	-0.07456445
213	0xbd9ff28f	-0.07809936
214	0xbd853a7f	-0.06505298
215	0xbe1e70c3	-0.15472703
216	0xbe02c57d	-0.12770648
217	0x3d3c7ee8	0.046019465
218	0x3df29a7e	0.11845873
219	0x3ded0f06	0.11575131
220	0x3d94e5e1	0.072704084
221	0xbe39f953	-0.18161516
222	0xbd6b06ca	-0.05737952
223	0xbd99e161	-0.07513691
224	0x3d228586	0.03967812
225	0x3e131c15	0.14366181
226	0x3d95969b	0.07304116
227	0x3d6f78e6	0.058464907
228	0xbdd41391	-0.103552945
229	0x3dce3c05	0.100700416
230	0xbe1e7e29	-0.15477814
231	0xbe14959a	-0.14510193
232	0x3cb1156b	0.021616658
233	0x3dc7f2ae	0.09763084
234	0x3da23030	0.07919347
235	0xbe35149a	-0.1768364
236	0x3d863445	0.06552938
237	0xbd9c91f3	-0.07645025
238	0xbc7ba5e2	-0.015359374
239	0xbdd5dff5	-0.10443107
240	0xbe0c2823	-0.13687186
241	0xbd353559	-0.04424033
242	0xbc85b4f3	-0.016321635
243	0x3d7ca0cc	0.061676785
244	0xbe0a7081	-0.1351948
245	0xbd67d1b8	-0.056596488
246	0x3d31fec2	0.043455847
247	0xbdac0ab2	-0.084004775
248	0xbe0eeac5	-0.13956745
249	0xbc500e2d	-0.012698692
250	0x3cf344e9	0.029695945
251	0xbd695a50	-0.056970894
252	0xbc2b5a33	-0.010458517
253	0x3e027f20	0.12743807
254	0x3d3167d2	0.0433119
255	0x3bb8dca6	0.0056415377

feature_layer.2.bias f4 [128]
0	0x3e6d5208	0.23175824
1	0xbd16e588	-0.03683999
2	0x3e8f8173	0.2802845
3	0x3e398326	0.18116435
4	0xbd13c410	-0.03607565
5	0x3e8ea172	0.27857548
6	0x3ea7a2e7	0.32741472
7	0xbd8daedb	-0.06918117
8	0x3eaa4d2d	0.33262005
9	0xbd383594	-0.04497297
10	0x3de3bc4e	0.11119901
11	0xbd3296af	-0.043600734
12	0x3e937cbf	0.2880611
13	0xbe0f4676	-0.13991722
14	0xbe184df2	-0.14873484
15	0x3e9b7325	0.30361286
16	0xbc8c9cd3	-0.017164623
17	0xbdf64d43	-0.12026455
18	0x3ea09322	0.31362253
19	0x3e9be706	0.30449694
20	0xbd1b7343	-0.03795172
21	0x3e92bb7a	0.28658658
22	0xbd8646bd	-0.06556461
23	0x3eadcda0	0.33945942
24	0xbd30f850	-0.04320556
25	0x3e9be017	0.30444404
26	0x3e821f9b	0.25414738
27	0xbd045bd2	-0.03231413
28	0xbe00b623	-0.1256948
29	0x3e90bcb9	0.28268984
30	0x3e9aa36c	0.30202806
31	0x3e9dbc78	0.30807853
32	0xbd0b6167	-0.034028437
33	0x3e37f4f3	0.17964534
34	0x3df50fde	0.11965917
35	0x3e93add7	0.28843567
36	0xbd193c99	-0.037411306
37	0x3e9a9eff	0.3019943
38	0x3e963821	0.29339698
39	0xbd2b963a	-0.041891314
40	0xbebf6de4	-0.37388527
41	0xbd450ffb	-0.048110943
42	0x3d9fd893	0.0780498
43	0x3ea30191	0.31837133
44	0x3e99e912	0.3006063
45	0xbcd4d53d	-0.025980586
46	0xbd051d48	-0.032498628
47	0x3e332f3c	0.17498487
48	0xbe0f0ad7	-0.13968979
49	0xbc63bdf9	-0.0139002735
50	0x3e992e4f	0.29918143
51	0xbd1df88a	-0.038567103
52	0x3e950cd8	0.29111362
53	0x3e715a8b	0.23569696
54	0xbe1054a2	-0.14094785
55	0x3e9f8080	0.31152725
56	0xbd76dbf0	-0.060268342
57	0x3e98fdbe	0.2988109
58	0xbcb76da6	-0.022391152
59	0xbd446112	-0.047944136
60	0xbdd99719	-0.10624523
61	0xbceba3af	-0.028764574
62	0xbce690dc	-0.028145246
63	0xbe2135b2	-0.1574314
64	0x3e958346	0.29201716
65	0xbd3ae8d5	-0.045632202
66	0xbc9e0ec4	-0.01929415
67	0x3e977b17	0.29586098
68	0x3e92cff7	0.2867429
69	0x3e93d45a	0.2887295
70	0xbdd4f0b8	-0.10397476
71	0x3e8d344d	0.27578965
72	0xbd2d937c	-0.04237698
73	0xbd1c09a9	-0.03809515
74	0x3e976454	0.29568732
75	0x3e8f7a92	0.280232
76	0x3e596878	0.21231258
77	0x3eadd691	0.33952764
78	0xbd414763	-0.04718722
79	0xbd1b09f2	-0.03785128
80	0x3e24ac19	0.16081275
81	0x3e990fd4	0.29894888
82	0xbe0f608c	-0.14001673
83	0x3e8de6bb	0.27715096
84	0xbd715fb5	-0.058929164
85	0x3e96d16d	0.29456654
86	0xbe3d68d0	-0.18497014
87	0xbd842661	-0.06452633
88	0x3eab1b1a	0.33419114
89	0xbc862dee	-0.016379323
90	0x3e97fd2b	0.2968534
91	0x3ea08f4a	0.3135932
92	0x3e9e42e6	0.30910414
93	0x3e8caf7d	0.27477637
94	0x3e41af1f	0.1891446
95	0x3e7e7142	0.24847892
96	0xbda1cb0b	-0.079000555
97	0x3ea4aa85	0.32161346
98	0x3d738db2	0.059461303
99	0x3e999845	0.29998985
100	0x3eab7523	0.33487806
101	0xbd085697	-0.033285704
102	0x3ebd7036	0.36999673
103	0x3e93ebd3	0.28890857
104	0xbce6f741	-0.028194072
105	0x3e88e673	0.2673832
106	0x3ea66273	0.32496986
107	0x3ea5abbc	0.32357585
108	0xbd20988a	-0.039207973
109	0x3e9060d6	0.2819888
110	0xbde3fcb6	-0.11132185
111	0xbe78ddf9	-0.24303426
112	0xbd0073cb	-0.03136043
113	0x3ea97505	0.3309709
114	0x3ea94df5	0.3306729
115	0xbd620ee9	-0.05519
116	0xbca21573	-0.019785618
117	0x3e73b2b0	0.23798633
118	0x3e9bc33c	0.3042239
119	0x3e8a418c	0.27003133
120	0x3eb7f6a8	0.3593037
121	0x3ea2b5d5	0.31779352
122	0xbe07a05f	-0.1324477
123	0x3e93f682	0.28899008
124	0xbe086b60	-0.1332221
125	0xbc548201	-0.0129704485
126	0x3eab01eb	0.333999
127	0x3eb0c85e	0.34527868

value_stream.0.weight f4 [64, 128]
0	0xbdd3254f	-0.103098504
1	0x3d5bdd76	0.053678
2	0x3d3f7987	0.046746757
3	0x3e1559ae	0.14584991
4	0x3d4a9e6c	0.04946749
5	0x3e770920	0.24124575
6	0x3de7ab5b	0.1131198
7	0xbe6a2c44	-0.22868448
8	0x3ea6d655	0.32585397
9	0xbc8657a9	-0.016399221
10	0x3d377324	0.04478754
11	0x3ca34d73	0.019934392
12	0x3d03e83c	0.032203898
13	0xbfa109d0	-1.258112
14	0xbf63055f	-0.8868007
15	0x3e780fdf	0.24224804
16	0x3dd0cbc0	0.10195112
17	0xbf043c74	-0.51654744
18	0xbcd0faec	-0.025510274
19	0x3e78b596	0.2428802
20	0x3e338d51	0.17534377
21	0x3e04095b	0.12894194
22	0xbf129ba6	-0.5726875
23	0x3e3105b9	0.1728734
24	0xb9bdacfd	-0.00036177775
25	0xbd08864e	-0.033331208
26	0x3c2f9d68	0.010718681
27	0xbd956701	-0.07295037
28	0xbf2e827d	-0.6816786
29	0x3e6438f1	0.22287346
30	0x3e30031d	0.17188688
31	0x3d94eedd	0.07272122
32	0x3e33a1be	0.17542168
33	0x3d5c8165	0.053834338
34	0x3ddd7dd4	0.108150154
35	0x3d93709f	0.07199215
36	0xbdf131bc	-0.11777064
37	0x3ddaf7b7	0.10691779
38	0x3df8c4d4	0.12146917
39	0xbcd2e3b4	-0.025743343
40	0xbf233c5f	-0.63763994
41	0x3af7f8fc	0.0018918808
42	0x3e257102	0.1615639
43	0x3eaf9c96	0.34299153
44	0xbbc0ec79	-0.0058875647
45	0xbbf26261	-0.0073969816
46	0xbdee675d	-0.11640809
47	0xbdca301c	-0.098724574
48	0xbeeb153b	-0.45914635
49	0x3e0aa1f7	0.13538347
50	0x3e14834f	0.14503215
51	0xbe09dc7d	-0.13463016
52	0x3e52dd68	0.20592272
53	0x3d26ca73	0.040720414
54	0xbf02770f	-0.5096292
55	0x3e680dae	0.22661468
56	0xbdaeb20b	-0.08530053
57	0x3d589986	0.052880786
58	0xbda439a5	-0.08018807
59	0xbdccd49c	-0.100014895
60	0xbf2f2f1a	-0.68431246
61	0xbd961d69	-0.07329828
62	0xbe1061b4	-0.14099771
63	0xbd4d2a20	-0.050089
64	0x3e623a0e	0.22092459
65	0x3d19521f	0.037431832
66	0x3d4131f7	0.04716679
67	0xbd6863f9	-0.056735966
68	0x3c3bfc07	0.011473662
69	0xbd34db5f	-0.04415452
70	0xbdf3bfe5	-0.11901835
71	0xbd523342	-0.051318415
72	0xbbb7287d	-0.0055895434
73	0xbc24c2a6	-0.010056173
74	0xbc9f6d8d	-0.019461418
75	0x3e2f233d	0.17103286
76	0x3e64b858	0.22335947
77	0x3e37d433	0.17952041
78	0x3d6a14b6	0.057148658
79	0x3cc8a205	0.02449132
80	0x3e827c72	0.2548557
81	0xbdeb8d94	-0.11501613
82	0xbf672dfd	-0.9030455
83	0x3e5bce08	0.21465313
84	0xbdd51922	-0.10405184
85	0x3e632b7b	0.22184555
86	0x3d92765c	0.071514815
87	0x3dbc10f3	0.0918292
88	0x3d9a1d90	0.0752517
89	0xbdc4c78c	-0.09608373
90	0xbc731cc8	-0.014838405
91	0x3e691342	0.22761253
92	0x3db2c735	0.08729402
93	0xbd959774	-0.07304278
94	0x3e124479	0.14283933
95	0x39a4fbe9	0.00031468205
96	0x3dcf17c5	0.101119556
97	0x3da61e57	0.081112556
98	0xbdab8c07	-0.083763175
99	0xbc540f06	-0.012943035
100	0x3e38f7ae	0.18063232
101	0xbcff1891	-0.031139644
102	0x3e6221d7	0.22083221
103	0x3e8d7ff8	0.27636695
104	0x3d801126	0.06253271
105	0x3e8dc944	0.27692616
106	0x3e86f277	0.2635686
107	0x3e4e4476	0.20143303
108	0x3d334dff	0.043775555
109	0x3e9ef967	0.31049654
110	0xbf5835fc	-0.84457374
111	0xbec4322c	-0.38319528
112	0x3e2d3731	0.16915585
113	0x3e7c15a6	0.24617633
114	0x3e2765d4	0.16347438
115	0x3d071620	0.032980084
116	0xbdb49488	-0.088173926
117	0x3e29a155	0.1656545
118	0x3e1c27d8	0.15249574
119	0x3da68c5c	0.0813224
120	0x3eccf930	0.40033865
121	0x3e27b274	0.16376668
122	0xbf9984a0	-1.1993599
123	0x3d9ff63e	0.07810639
124	0xbd307050	-0.04307586
125	0x3d702663	0.05863036
126	0x3ea1d4b9	0.31607607
127	0x3d505c2a	0.050869144
128	0xbc9d9ba3	-0.019239252
129	0x3dc96e10	0.09835446
130	0xbe015dcc	-0.12633437
131	0x3e875edb	0.26439556
132	0x3c1be1c7	0.009514279
133	0x3e3804a2	0.17970517
134	0x3e0d261e	0.13784072
135	0x3e457ee9	0.19286694
136	0xbd4bd320	-0.04976189
137	0xbca56ac1	-0.020192506
138	0x3de8c550	0.113657594
139	0xbd85742a	-0.06516297
140	0x3e779646	0.24178419
141	0xbf3738b9	-0.71570927
142	0xbe98edad	-0.29868832
143	0x3cb690cb	0.02228584
144	0xbdf82a18	-0.12117404
145	0xbf0a7ec5	-0.54099685
146	0xbd18027f	-0.037111755
147	0x3e21aaaf	0.15787767
148	0xbd0f21be	-0.03494429
149	0x3e3639f8	0.17795551
150	0x3cdee096	0.0272067
151	0x3c27b2f7	0.01023554
152	0xbdd4601b	-0.10369893
153	0x3e40ea87	0.18839465
154	0xbc682755	-0.014169534
155	0xbe26ea3b	-0.1630029
156	0xbddae5f2	-0.1068839
157	0xbddb2e92	-0.10702242
158	0xbd058ac8	-0.032603055
159	0x3dc8b411	0.0979997
160	0x3e0f5842	0.13998511
161	0x3c9012f9	0.017587172
162	0x3dbd0059	0.09228582
163	0x3b35eaac	0.0027758284
164	0xbdb1f569	-0.086893864
165	0x3e534c84	0.20634657
166	0x3e38163e	0.17977235
167	0x3dc2acb8	0.095056
168	0xbf06f3ab	-0.5271556
169	0x3e2c8fba	0.16851702
170	0x3d910775	0.070815004
171	0x3d9320d1	0.071839936
172	0x3e2b8648	0.16750443
173	0x3d057dc3	0.03259064
174	0xbd131a7c	-0.03591393
175	0xbb8be2e8	-0.0042689927
176	0x3ce197d1	0.027538212
177	0xbd91aeee	-0.07113443
178	0x3e17be19	0.1481861
179	0xbe039859	-0.12851085
180	0x3d6f9765	0.05849399
181	0x3d7dd75b	0.061972957
182	0x3db393f1	0.08768452
183	0xbd2df86e	-0.04247325
184	0xbc99b44b	-0.018762728
185	0x3e6a0f0a	0.228573
186	0x3cb6a9bc	0.022297733
187	0xbb8b82c9	-0.004257534
188	0xbebb59e4	-0.3659202
189	0x3d02c724	0.031928197
190	0x3e054a0a	0.13016525
191	0x3d14fc79	0.03637359
192	0x3e8fe310	0.28102922
193	0x3e109cc9	0.14122309
194	0x3bf519b3	0.00747987
195	0x3e5aa798	0.21352994
196	0x3d426a17	0.047464456
197	0x3e2386ad	0.15969343
198	0xbe4c85be	-0.19972894
199	0xbe2aa86d	-0.16665812
200	0x3d51f57d	0.051259506
201	0x3d927870	0.07151878
202	0x3d0bc350	0.03412181
203	0xbc2ff797	-0.010740182
204	0x3e322968	0.17398608
205	0x3e8750ca	0.26428825
206	0x3cdc78eb	0.026913127
207	0x3e33edcd	0.17571183
208	0x3ea8c9c0	0.32966423
209	0x3e085982	0.13315395
210	0x3d730189	0.059327636
211	0x3c36d244	0.01115853
212	0xbe240cfd	-0.1602058
213	0x3e16cea6	0.14727268
214	0x3e119783	0.14217953
215	0xbd1c3c2a	-0.038143314
216	0x3d35d95c	0.044396743
217	0xbdbeb75a	-0.09312315
218	0x3ca2c6e7	0.019870235
219	0x3e2adc4e	0.16685602
220	0x3e7a5c23	0.2444921
221	0xbd76dd76	-0.060269795
222	0x3e0606f1	0.13088585
223	0xbc01cfee	-0.007923109
224	0x3dc8a225	0.097965516
225	0x3e6cded4	0.23131877
226	0x3e46e819	0.19424476
227	0x3e557cc7	0.2084838
228	0x3e60518a	0.21906105
229	0xbcca52ee	-0.024697747
230	0x3e42aee9	0.19012035
231	0x3e0b609d	0.13611074
232	0xbddad88c	-0.10685834
233	0x3e75d3d5	0.24006589
234	0xbd8e651b	-0.06952878
235	0x3e1ba1c6	0.1519843
236	0xbdb22ade	-0.086995825
237	0x3e522f44	0.20525843
238	0x3d285a6b	0.041101854
239	0xbe577a8b	-0.2104284
240	0xbd85c4d7	-0.06531685
241	0x3e7ee783	0.24893002
242	0xbdc4535a	-0.095862105
243	0xbc094d94	-0.0083803125
244	0xbe133d0e	-0.1437876
245	0x3d6643b0	0.056216896
246	0x3e80724a	0.25087196
247	0x3e1e80d2	0.15478829
248	0x3dee09f4	0.11622992
249	0xbd4e8e55	-0.050428707
250	0xbd058f17	-0.032607164
251	0xbd06ac93	-0.032879423
252	0xbd90d3d5	-0.07071654
253	0x3e19b7b6	0.15011486
254	0x3e21dcc7	0.15806876
255	0xbcf22b55	-0.029561678

value_stream.0.bias f4 [64]
0	0x3edb11dc	0.42787063
1	0x3ec37fa2	0.38183314
2	0xbcaa04be	-0.020754214
3	0x00000000	0.0
4	0x3d717530	0.05894965
5	0x3eb455c0	0.35221672
6	0x3ed15969	0.40888527
7	0x3ec22c93	0.37924632
8	0xbca0415e	-0.01956242
9	0xbd16f390	-0.036853373
10	0x3ec8f5d0	0.3925004
11	0xbca349e0	-0.019932687
12	0xbbc4c9bf	-0.0060054953
13	0xbcb2fe4d	-0.021849776
14	0x3ed7466e	0.4204592
15	0x3ed05be0	0.40695095
16	0x3ebf35c1	0.37345698
17	0x3a760945	0.00093855365
18	0xbcd83e0c	-0.026396774
19	0x3ebf2613	0.37333736
20	0xbc39e1ee	-0.01134537
21	0x3eb3e44c	0.35135114
22	0x3ed4bf5d	0.4155225
23	0x3da9f73c	0.08299109
24	0x3ece341d	0.40274134
25	0x3eccc5fd	0.39994803
26	0x3ecff010	0.4061284
27	0xbc297f43	-0.010345283
28	0x3d9c269f	0.07624554
29	0x3eb4c9d7	0.35310242
30	0xbd0bd486	-0.034138225
31	0x3ece5f29	0.40306976
32	0xbcf307d2	-0.029666815
33	0xbcba6877	-0.02275489
34	0xbcb43228	-0.021996573
35	0x3eb38bc3	0.35067567
36	0xbc86e74c	-0.016467713
37	0xbc623903	-0.013807538
38	0x3ec48ca7	0.3838856
39	0x3edd568d	0.43230096
40	0xbcdf05a3	-0.027224367
41	0x3eacac6a	0.33725291
42	0x3ed9e5c7	0.4255812
43	0xbc8c260b	-0.017107984
44	0xbc2a69c7	-0.010401196
45	0xbcb1395a	-0.021633793
46	0xbc33ba8a	-0.010969767
47	0x3ed1951b	0.4093407
48	0x3ed79945	0.42109123
49	0xbc9d86bd	-0.019229287
50	0x3ed0def9	0.40795115
51	0xbc46e4a4	-0.012139473
52	0x3d851623	0.06498363
53	0x3cf35e7a	0.029708136
54	0x3ebaedfb	0.3650969
55	0xbd3054ad	-0.043049503
56	0xbd227d9b	-0.039670568
57	0xbd717617	-0.05895051
58	0xbcd66ed9	-0.026175903
59	0x3ec1cd30	0.37851858
60	0x3df4b17f	0.11947917
61	0xbc538c49	-0.012911865
62	0xbc897c29	-0.016782837
63	0x3da64af0	0.08119762

value_stream.2.weight f4 [1, 64]
0	0x3ea8f5bb	0.32999977
1	0x3e1c5acf	0.15269016
2	0xbe820b3d	-0.253992
3	0x3d343240	0.043993235
4	0xbf9392e2	-1.15292
5	0x3e87b777	0.2650716
6	0x3ed42555	0.41434732
7	0x3e1d0ed6	0.1533769
8	0xbe819306	-0.25307482
9	0xbf802029	-1.0009815
10	0x3e4e8524	0.20167977
11	0xbf10bbe7	-0.56536716
12	0xbe0ffcd9	-0.14061297
13	0xbe579884	-0.21054274
14	0x3e2caa53	0.16861849
15	0x3ec23fb7	0.37939236
16	0x3de35974	0.11101046
17	0xbf9f4e94	-1.2445855
18	0xbe26245b	-0.16224806
19	0x3ec43a3f	0.38325688
20	0xbe738545	-0.23781307
21	0x3e0ee46b	0.13954322
22	0x3e90c182	0.28272635
23	0xbf802ebe	-1.0014265
24	0x3e98ea58	0.2986629
25	0x3e86eec0	0.26354027
26	0x3eac28ae	0.33624786
27	0xbe8c648f	-0.2742047
28	0xbf561f40	-0.83641434
29	0x3e886a0e	0.26643413
30	0xb94bdce7	-0.00019441881
31	0x3e97c886	0.29645175
32	0xb796b70e	-1.7966635e-05
33	0xbd00b15a	-0.031419136
34	0xbe2c50db	-0.16827719
35	0x3e0be3c6	0.13661107
36	0xbdd8e9c2	-0.10591461
37	0xbd6cccd1	-0.057812516
38	0x3eb8c919	0.36090925
39	0x3ed3fd07	0.41403982
40	0xbc396aae	-0.011316938
41	0x3e5440f3	0.20727901
42	0x3e9d4a76	0.30720872
43	0xbe24068f	-0.16018127
44	0xbe6d5935	-0.23178561
45	0xbce70f5f	-0.028205572
46	0xbe8de026	-0.27710074
47	0x3ea30388	0.31838632
48	0x3e8f527b	0.27992615
49	0xbe942932	-0.2893768
50	0x3ec82b82	0.39095694
51	0xbdf1ee62	-0.11813046
52	0xbf8d26e1	-1.102749
53	0xbf84be56	-1.0370586
54	0x3e68fbd9	0.22752322
55	0xbddaf2f2	-0.106908694
56	0xbd41b7e7	-0.047294524
57	0xbe2859f6	-0.16440567
58	0xbe2c74bb	-0.16841404
59	0x3ee939d5	0.45551935
60	0xbf54b0c1	-0.83082205
61	0xbe47679a	-0.19473115
62	0xbdfa9f76	-0.12237446
63	0xbf51655f	-0.81795305

advantage_stream.0.weight f4 [64, 128]
0	0x3dcf2d4b	0.10116061
1	0x3cba1016	0.022712748
2	0xbe0a6ade	-0.13517329
3	0xbe229a0b	-0.15879075
4	0x3e1498bd	0.1451139
5	0xbc0a027e	-0.008423446
6	0xbdc6513a	-0.096834615
7	0xbcfb3d44	-0.030668862
8	0x3cbd24c3	0.023088818
9	0xbe04996f	-0.12949155
10	0xbe1b704d	-0.15179558
11	0x3d8d3d96	0.06896512
12	0x3c4cfe6e	0.012511833
13	0xbd273f8a	-0.04083208
14	0x3c4f41ab	0.012649934
15	0xbdddf400	-0.10837555
16	0xbdfcf66f	-0.12351691
17	0xbdb20a9c	-0.0869343
18	0xbe311a24	-0.17295128
19	0x3e06e8fb	0.13174812
20	0x3e10ae30	0.14128947
21	0xbe1c9162	-0.15289834
22	0x3db237df	0.08702063
23	0xbdf741ec	-0.120731205
24	0x3e3b2d72	0.18279055
25	0xbe0d7371	-0.13813569
26	0x3dd897cb	0.10575827
27	0x3dc7a54a	0.09748323
28	0xbd68a41b	-0.05679713
29	0xbdd79cdc	-0.105279654
30	0x3e08c4df	0.1335635
31	0x3d8708b2	0.065934554
32	0x3e151b1b	0.14561121
33	0xbe4981dd	-0.19678445
34	0xbe4c6895	-0.1996177
35	0xbd7e5748	-0.062094957
36	0xbcc616eb	-0.02418085
37	0xbe4a9b1c	-0.19785732
38	0xbdc5ce62	-0.09658505
39	0x3b878ff1	0.004137032
40	0x3e6ce70d	0.23135014
41	0x3e253981	0.16135217
42	0x3c21e3d9	0.009880983
43	0x3dd167cb	0.10224875
44	0xbe5ae29e	-0.2137551
45	0xbdd52b33	-0.1040863
46	0xbdbfebaa	-0.09371121
47	0xbd557bf7	-0.052120175
48	0xbe468283	-0.19385724
49	0x3c294154	0.010330517
50	0xbd550b81	-0.052012924
51	0xbd8fbe58	-0.07018727
52	0xbdf0ee4a	-0.117642
53	0x3dd604c7	0.1045013
54	0xbe360416	-0.17774996
55	0x3c941a0e	0.01807883
56	0xbe193635	-0.14962085
57	0x3cd0a660	0.025469959
58	0x3d4c9198	0.049943537
59	0xbc449227	-0.011997736
60	0xbca11da5	-0.019667456
61	0x3d86a713	0.06574836
62	0x3ddd283c	0.1079869
63	0x3e5d56ed	0.21615191
64	0xbe21bbb6	-0.15794262
65	0x3e13790c	0.14401644
66	0x3d75c458	0.0600017
67	0x3d903f20	0.0704329
68	0x3c295b6a	0.010336736
69	0x3ca8111b	0.020515969
70	0xbd0f285d	-0.034950603
71	0x3d628932	0.05530662
72	0xbe00f380	-0.12592888
73	0xbdc650a8	-0.09683353
74	0x3ca466c4	0.020068534
75	0xbe6d7270	-0.23188186
76	0x3e1b5dee	0.1517255
77	0xbd27b93b	-0.040948134
78	0xbc8e40a3	-0.017364806
79	0xbe18b8d2	-0.14914253
80	0x3b90be89	0.004417245
81	0x3dc79d93	0.09746852
82	0xbe655d34	-0.22398835
83	0xbdd0a40f	-0.10187542
84	0x3e3197f5	0.17343123
85	0xbb66c530	-0.0035212748
86	0x3e3959e9	0.18100704
87	0xbe0ba3e8	-0.13636744
88	0xbd4f4a34	-0.050607875
89	0x3db3f6e6	0.087873265
90	0xbd957335	-0.072973646
91	0xbe474e71	-0.19463517
92	0x3e1224e2	0.14271882
93	0xbe840b06	-0.2578966
94	0xbd940fa5	-0.072295465
95	0xbd5b30ca	-0.053513326
96	0x3e7e0300	0.24805832
97	0xbd92981d	-0.071579196
98	0xbe484e22	-0.19561055
99	0xbcd5fd62	-0.026121799
100	0xbe216ad6	-0.15763411
101	0x3dc1f883	0.09471228
102	0xbe052159	-0.13001002
103	0x3c394297	0.01130738
104	0x3e2ab5e2	0.16670945
105	0x3d16e6a5	0.036841054
106	0xbd691fe0	-0.056915164
107	0x3dba63ec	0.0910109
108	0xbe09d1b9	-0.13458909
109	0x3c19c430	0.009385154
110	0xbd0b7630	-0.03404826
111	0xbcf4ab1f	-0.029866753
112	0xbe0e7663	-0.13912348
113	0xbe013ff2	-0.1262205
114	0xbe1aa075	-0.15100272
115	0x3e28a96f	0.16470884
116	0x3e0de6de	0.138576
117	0x3c9a08b0	0.01880297
118	0x3d79de1f	0.061002847
119	0xbdbe348a	-0.09287365
120	0xbe62b744	-0.22140223
121	0x3c950cca	0.018194575
122	0x3d454597	0.04816207
123	0xbe00f2f9	-0.12592687
124	0x3e577c3c	0.21043485
125	0xbd7df00b	-0.0619965
126	0xbd1b8b4c	-0.03797464
127	0xbe1484c0	-0.14503765
128	0xbe28c5b5	-0.16481669
129	0x3c759e20	0.014991313
130	0x3e225ba1	0.15855266
131	0x3e1867c7	0.14883338
132	0xbd2ab3a8	-0.04167524
133	0x3d35e0da	0.04440389
134	0xbe32692b	-0.17422931
135	0xbdeefd4a	-0.11669405
136	0x3e010f30	0.1260345
137	0x3cc49f51	0.02400175
138	0x3d272328	0.040805012
139	0x3ca4d6ca	0.02012195
140	0xbd8d831e	-0.06909774
141	0x3e0b66bf	0.13613413
142	0x3e208053	0.15673952
143	0x3d8991e7	0.06717282
144	0x3e210f47	0.15728484
145	0x3d476707	0.04868224
146	0x3e02aa4b	0.12760274
147	0xbdf7a07a	-0.12091155
148	0x3d746d13	0.059674334
149	0xbe08b4a7	-0.13350163
150	0xbcfa2afe	-0.030538078
151	0xbe01835f	-0.1264777
152	0x3d6bc759	0.05756316
153	0xbe3580ff	-0.1772499
154	0xbd6f742f	-0.05846041
155	0xbd8bd88a	-0.06828411
156	0x3de0caf3	0.109762095
157	0xbe187d78	-0.14891613
158	0xbdbd0950	-0.09230292
159	0x3e14412f	0.1447799
160	0x3d9bedcd	0.07613716
161	0x3ddb84fb	0.107187234
162	0x3e21c7a6	0.15798816
163	0xbdd60bc1	-0.10451461
164	0x3d326a93	0.04355867
165	0xbe0ce560	-0.13759375
166	0xbd96078a	-0.07325657
167	0xbcfcfe3a	-0.030882943
168	0xbdb5a18b	-0.088687025
169	0x3d168f48	0.036757737
170	0x3d010f69	0.031508837
171	0x3ce70769	0.028201776
172	0x3db5dfe1	0.08880592
173	0xbc989b89	-0.018628852
174	0x3e0df18f	0.13861679
175	0xbc920b28	-0.017827585
176	0x3ddf8242	0.109135166
177	0x3e082a86	0.13297471
178	0x3e20fbf0	0.15721107
179	0xbdae9b53	-0.085257195
180	0xbd963e78	-0.07336134
181	0xbe136f31	-0.14397885
182	0xbda50182	-0.08056928
183	0x3e22e986	0.15909395
184	0xbc8b47d6	-0.017002027
185	0xbdd0b8e2	-0.101915136
186	0xbe11f9a2	-0.14255384
187	0xbe0abf8a	-0.13549629
188	0xbdd96f7a	-0.106169656
189	0x3d732d80	0.059369564
190	0xbdc5b628	-0.09653884
191	0xbd885fb2	-0.066588774
192	0xbe1bca92	-0.15213993
193	0xbe1b89ca	-0.15189281
194	0xbdd2ca8e	-0.102925405
195	0xbe2f613c	-0.17126936
196	0xbc979c81	-0.018507244
197	0xbd9575cc	-0.072978586
198	0xbdae12be	-0.084996685
199	0xbde50b2d	-0.11183772
200	0x3d671699	0.056418035
201	0x3d8c96e0	0.068647146
202	0xbd1d28c7	-0.038368966
203	0x3d383e6b	0.0449814
204	0x3e1f9547	0.15584289
205	0xbd6542f6	-0.055972062
206	0xbdd0ee6d	-0.10201726
207	0x3dcd367c	0.10020158
208	0xbd34a394	-0.044101313
209	0xbd96601c	-0.0734255
210	0x3dd9d582	0.106364265
211	0x3d47a5e0	0.048742175
212	0xbdf70678	-0.12061781
213	0x3d1c3479	0.03813598
214	0x3d9c5f57	0.07635372
215	0x3e296df4	0.1654585
216	0xbdda084c	-0.10646114
217	0x3db7003e	0.08935593
218	0xbd6a0361	-0.05713213
219	0x3c98b091	0.01863888
220	0xbe2a5d89	-0.16637243
221	0xbe296753	-0.16543321
222	0x3dc08f43	0.09402325
223	0xbb563bab	-0.0032689373
224	0x3d9d17a0	0.07670522
225	0xbde4192b	-0.11137613
226	0x3e02890f	0.12747596
227	0xbd90e86e	-0.070755824
228	0xbde74240	-0.11291933
229	0x3e19eb77	0.15031229
230	0xbddd3c94	-0.1080257
231	0xbe0b7550	-0.1361897
232	0xbe14f0e1	-0.14545013
233	0x3d955baf	0.07292878
234	0xbc69f6db	-0.014280046
235	0xbc1a4ab6	-0.009417227
236	0x3d3f633a	0.04672549
237	0xbd63319e	-0.05546724
238	0x3cd9ae79	0.026572453
239	0xbdc86168	-0.09784204
240	0xbd39f1b3	-0.045396518
241	0x3dbed5c8	0.09318119
242	0x3cafe2cc	0.02147045
243	0x3df93d7b	0.121699296
244	0x3e28dfc7	0.16491614
245	0x3df58527	0.119882874
246	0xbd982db3	-0.074305914
247	0xbe19cf2f	-0.1502044
248	0xbda3288c	-0.07966718
249	0xbcac25b2	-0.021014068
250	0x3e2022e5	0.15638311
251	0x3c4dc6f8	0.012559645
252	0xbce65b1a	-0.028119612
253	0x3e02dccf	0.12779544
254	0x3d898de4	0.067165166
255	0x3e0bde20	0.13658953

advantage_stream.0.bias f4 [64]
0	0xbdba2447	-0.090889506
1	0xbb65d411	-0.0035069028
2	0x3ceaa8b8	0.028644904
3	0x3da3801f	0.079834215
4	0x3d5d60e6	0.054047488
5	0x3d0fdb42	0.03512121
6	0xbb35aed6	-0.0027722619
7	0xbcbc3660	-0.022975147
8	0xbbc4c96a	-0.0060054557
9	0x3e64fcbf	0.2236204
10	0x3e6f2119	0.2335247
11	0xbc1fd417	-0.009755156
12	0x3e93a22b	0.28834662
13	0xbd138a87	-0.03602078
14	0xbcd64d4e	-0.026159909
15	0x3d87f886	0.06639199
16	0x3d6fb8b5	0.05852576
17	0x3d8d3885	0.06895546
18	0x3dae2213	0.08502593
19	0xbd020de0	-0.031751513
20	0xbcd0db09	-0.02549507
21	0xbd3b901e	-0.045791738
22	0x3e09470e	0.13406011
23	0xbd70dab7	-0.058802333
24	0xbd7262f9	-0.05917642
25	0xbd0759b4	-0.033044532
26	0xbd2f2944	-0.042763963
27	0xbc39f011	-0.01134874
28	0x3c66bc8a	0.014083037
29	0x3e1ab39c	0.15107578
30	0x3dcace40	0.0990262
31	0x3de7eb2f	0.113241546
32	0xbced0491	-0.028932841
33	0xbcbd1eca	-0.02308597
34	0x3d8c80b1	0.068604834
35	0x3d944a00	0.07240677
36	0xbd011b27	-0.031520035
37	0xbd9c85f1	-0.07642735
38	0xbcaa477b	-0.020786038
39	0x3dc0ab3d	0.09407661
40	0x3c7ccd7f	0.015429853
41	0xbd95f5c4	-0.07322267
42	0x3e7ff162	0.24994424
43	0xbd024f2f	-0.031813797
44	0x3dc526cd	0.09626541
45	0x3dc765bf	0.097362034
46	0x3e06c082	0.13159373
47	0xbc1358ba	-0.008993322
48	0xba8c598c	-0.0010707839
49	0x3c2049a6	0.009783184
50	0x3cc48eab	0.02399381
51	0xb8ae1552	-8.300938e-05
52	0x3d2b2191	0.04178006
53	0xbd00ff07	-0.031493213
54	0xbd0e3c69	-0.03472558
55	0xbd9798b8	-0.07402176
56	0x3cb65ca4	0.022260971
57	0xbba27996	-0.004958342
58	0xbca578ba	-0.020199168
59	0x3db4eb06	0.0883389
60	0x3da69c94	0.08135334
61	0xbd2ce247	-0.042207982
62	0xbc6e0a7f	-0.01452887
63	0xbd44c458	-0.04803881

advantage_stream.2.weight f4 [2, 64]
0	0x3e7e7e4a	0.24852863
1	0x3d846947	0.064653926
2	0x3e9adc42	0.30246168
3	0x3f15c54d	0.5850418
4	0xbebebc49	-0.37253025
5	0xbed8cf84	-0.42345822
6	0xbe6f19eb	-0.2334973
7	0x3e5af095	0.21380837
8	0x3e955cdf	0.29172418
9	0x3f68852a	0.9082819
10	0x3f5039cb	0.81338185
11	0x3df814cf	0.12113344
12	0xbf10ae67	-0.56516117
13	0x3bf648f0	0.007516019
14	0xbc8d7340	-0.01726687
15	0x3ea73c3b	0.3266314
16	0x3d29eb4e	0.04148417
17	0x3e6c6ab0	0.23087573
18	0x3e355d3f	0.17711352
19	0xbe835209	-0.25648525
20	0xbe2d8e53	-0.16948824
21	0xbdf9b91d	-0.12193511
22	0x3f879799	1.0593139
23	0x3e088bcf	0.13334583
24	0xbe495f5e	-0.19665286
25	0x3d50d9f0	0.05098909
26	0x3e2a41de	0.16626689
27	0x3ddd0e65	0.10793761
28	0xbe6fc44a	-0.23414722
29	0xbfa3f86d	-1.2810189
30	0x3e85db44	0.2614385
31	0x3ef8bebe	0.48583025
32	0x3d6688c1	0.056282762
33	0x3dbe5d5f	0.09295153
34	0xbcbd9406	-0.023141872
35	0xbf61334e	-0.8796891
36	0x3eda0a06	0.42585772
37	0x3e70f30d	0.23530217
38	0x3e436546	0.19081602
39	0x3f646fd3	0.8923313
40	0xbda18358	-0.0788638
41	0x3e2097d6	0.15682921
42	0x3f59aec7	0.85032314
43	0x3f398138	0.724628
44	0x3f15c7d6	0.5850805
45	0x3f0b9320	0.5452137
46	0xbf8e528a	-1.1118939
47	0xbe7b14bc	-0.24519628
48	0x3def3da5	0.1168168
49	0x3e9421dc	0.28932083
50	0xbeefa343	-0.46804246
51	0xbe8951f5	-0.2682034
52	0xbd6c12b6	-0.05763503
53	0x3e3026d5	0.17202313
54	0xbe9f3277	-0.3109319
55	0xbd206898	-0.03916225
56	0x3d1a4227	0.037660744
57	0x3c909a87	0.01765181
58	0x3d1c0fae	0.03810089
59	0x3e11709e	0.14203116
60	0x3d74f4be	0.059803717
61	0x3e4018ca	0.18759456
62	0x3f5a1bd5	0.8519872
63	0xbceecd73	-0.0291507
64	0x3e8a9068	0.27063298
65	0xbe820fb1	-0.25402597
66	0xbe8d87b8	-0.27642608
67	0xbf5158bd	-0.8177603
68	0x3ea87023	0.32898054
69	0x3ebaf6b0	0.36516333
70	0xbdf55daf	-0.11980759
71	0x3dcac37a	0.099005654
72	0xbbbdac70	-0.0057883784
73	0xbf5db160	-0.8659878
74	0xbf55516b	-0.8332736
75	0xbe1c6573	-0.15273075
76	0x3f596ee3	0.84934825
77	0x3cd60fae	0.026130524
78	0xbbadc054	-0.0053024683
79	0xbe996633	-0.29960784
80	0xbe0fe904	-0.14053732
81	0xbe997d44	-0.29978383
82	0xbeb2122b	-0.34779486
83	0x3e626740	0.22109699
84	0xbe30bfe3	-0.17260699
85	0x3d9d3360	0.07675815
86	0xbf5c175f	-0.8597316
87	0xbe4b5f6b	-0.19860618
88	0x3e12ee7b	0.14348786
89	0x3e0e40c2	0.1389189
90	0x3de460db	0.11151286
91	0x3df5d923	0.12004306
92	0x3e8ee5d4	0.2790972
93	0x3fafa239	1.3721381
94	0xbe810b94	-0.25204146
95	0xbeaede24	-0.34153855
96	0x3e4585f3	0.19289379
97	0x3e248dfe	0.1606979
98	0xbeb95a68	-0.36201787
99	0x3f7de522	0.99177754
100	0xbefe6427	-0.49685785
101	0x3e6d0417	0.23146091
102	0xbe11d5a4	-0.14241654
103	0xbf42c91b	-0.7608811
104	0x3eaaa2ae	0.3332724
105	0x3e88a195	0.26685777
106	0xbf460a23	-0.7735922
107	0xbec26a62	-0.3797179
108	0xbf101968	-0.56288767
109	0xbf807f90	-1.0038929
110	0x3fa958f8	1.3230276
111	0xbaaf8d27	-0.0013393507
112	0xbe7ab28e	-0.24482176
113	0xbf186ca6	-0.59540784
114	0xbd2a96f0	-0.04164785
115	0x3e358c5a	0.17729321
116	0x3ee5e078	0.4489782
117	0x3e7715f9	0.24129476
118	0xbe8f787e	-0.28021616
119	0xbdae9389	-0.08524234
120	0x3ed3e0eb	0.41382536
121	0xbe8788e6	-0.26471633
122	0x3b3f13a7	0.0029156
123	0xbe72d98a	-0.23715797
124	0xbe5b74a9	-0.21431221
125	0xbe327f68	-0.17431414
126	0xbf097d0f	-0.5370645
127	0xbdd53d76	-0.10412113

advantage_stream.2.bias f4 [2]
0	0xbd2c0609	-0.041997943
1	0x3d2c0609	0.041997943

exp_avg f4 [128, 4]
0	0x3b3adf10	0.0028514303
1	0x3b3aedbd	0.002852305
2	0x3a6f08c7	0.00091184344
3	0x3ae7d678	0.0017687818
4	0xb8079864	-3.2328433e-05
5	0xbb04d02e	-0.0020265686
6	0x38f6ef54	0.000117747724
7	0x3b7def57	0.0038747394
8	0x3a354489	0.00069148146
9	0x3af3b16d	0.0018592306
10	0x3a936fc2	0.0011248516
11	0x3b998c5c	0.0046859216
12	0xbc27e9d2	-0.010248618
13	0xbca0cc1d	-0.019628579
14	0xba2960f2	-0.00064612844
15	0x3bc55025	0.006021517
16	0x3b7e6112	0.0038815183
17	0x3a876cd3	0.0010332115
18	0xbb308101	-0.002693236
19	0xbbfd6ebc	-0.007734148
20	0xba4f374e	-0.00079046644
21	0xba556ace	-0.00081412203
22	0x3aed116c	0.0018086857
23	0x3bd9bdb4	0.006644929
24	0xbc0c6d39	-0.008570963
25	0xbc3f1548	-0.011662789
26	0xba146423	-0.00056606735
27	0x3b001eec	0.001954968
28	0xbc132de6	-0.008983111
29	0xbc75b37d	-0.014996407
30	0x3a135996	0.00056209543
31	0x3bfecdc4	0.007775994
32	0xb7c9dd69	-2.406417e-05
33	0x35e42d60	1.700053e-06
34	0x35950c5a	1.110496e-06
35	0xb6c84d46	-5.9694603e-06
36	0x3b4b3d43	0.0031011857
37	0x3a9c9867	0.0011947275
38	0x3a5e9806	0.0008491281
39	0x3b4285ce	0.0029681805
40	0xba2692b2	-0.0006354257
41	0xbaa0b423	-0.0012260716
42	0x37704ad8	1.4322541e-05
43	0x3a972242	0.0011530595
44	0x3a4245fd	0.0007410942
45	0xba0adf86	-0.000529759
46	0xb90ea0f7	-0.0001360214
47	0x39fa7eb3	0.00047778114
48	0xbbe9e614	-0.007138023
49	0xbc1f6f3e	-0.009731112
50	0xba9e50ef	-0.0012078563
51	0xba3b445c	-0.000714367
52	0xb9816fb8	-0.00024688034
53	0xbb00d96f	-0.001966085
54	0x3b095c1f	0.002095945
55	0x3c135327	0.008991993
56	0x00000004	6e-45
57	0x00000004	6e-45
58	0x00000004	6e-45
59	0x80000004	-6e-45
60	0x39fd9143	0.0004836415
61	0xbb2f344f	-0.002673406
62	0x3997ff23	0.00028991056
63	0x3bc52070	0.0060158297
64	0xbc2c77e8	-0.010526635
65	0xbc9f1bf0	-0.019422501
66	0xba350fbe	-0.0006906948
67	0x3ba7f601	0.0051257615
68	0x3741f017	1.1559597e-05
69	0x3733801d	1.069906e-05
70	0xb531966e	-6.615654e-07
71	0xb63d5725	-2.821392e-06
72	0x3cd8d32f	0.026467888
73	0x3caea9a7	0.02132113
74	0xbc017106	-0.007900482
75	0xbd0c4f80	-0.034255505
76	0xbb57abbd	-0.003290876
77	0xbc1fc4a9	-0.009751477
78	0xbb43ea38	-0.0029894244
79	0xbbf6c8d6	-0.0075312657
80	0x3a4f2492	0.0007901873
81	0x3c1e1c3f	0.009650289
82	0x3c00bb49	0.007857152
83	0x3cf3f9bc	0.029782169
84	0x3b66bb2b	0.0035206776
85	0x3b467596	0.003028249
86	0xba56ef0a	-0.0008199072
87	0xbb7811a9	-0.0037852323
88	0x37e596d0	2.7369155e-05
89	0x3b0f0efc	0.0021829
90	0x3ad39f9b	0.0016145589
91	0x3ba6b83b	0.00508788
92	0xbac0ea9c	-0.0014718357
93	0xbb7b0a1c	-0.0038305586
94	0xbabd6eb5	-0.0014452549
95	0xbba56c96	-0.005048345
96	0x3a7a38c6	0.0009545203
97	0xb982ad02	-0.00024924433
98	0x3a46740c	0.0007570393
99	0x3b35ffdb	0.002777091
100	0xbb4be153	-0.0031109645
101	0xbafbeadc	-0.0019219774
102	0x39828680	0.00024895743
103	0x3ac6b175	0.0015159087
104	0x3b8c47f0	0.0042810366
105	0x373719a8	1.0913624e-05
106	0xbb10834f	-0.0022050922
107	0xbb985f43	-0.004650028
108	0xb93ed90e	-0.00018200671
109	0xb943f11a	-0.00018686467
110	0xb7dd20fc	-2.6360613e-05
111	0xb907ebc3	-0.00012962431
112	0x39f02e0b	0.00045810672
113	0x37b786c0	2.1878048e-05
114	0x3975b90e	0.00023433959
115	0x3b1ba19e	0.0023747454
116	0x37d444f6	2.5304482e-05
117	0x389c4732	7.451921e-05
118	0x36c48ddb	5.8577693e-06
119	0x37664d2d	1.3727037e-05
120	0x3912e2aa	0.00014008084
121	0xb7b5504a	-2.1614269e-05
122	0xb8a6204a	-7.921511e-05
123	0x3741a528	1.154215e-05
124	0x3bd97dd7	0.0066373157
125	0xba18f961	-0.00058355
126	0xbb571b00	-0.003282249
127	0xbbe0ca80	-0.0068600774
128	0x00000004	6e-45
129	0x00000004	6e-45
130	0x80000004	-6e-45
131	0x80000004	-6e-45
132	0x00000004	6e-45
133	0x00000004	6e-45
134	0x80000004	-6e-45
135	0x80000004	-6e-45
136	0x3c4c1a70	0.012457475
137	0x3c2ff722	0.010740073
138	0x39dc8893	0.00042063426
139	0x3b7f6aa8	0.0038973484
140	0x00000004	6e-45
141	0x00000004	6e-45
142	0x80000004	-6e-45
143	0x00000004	6e-45
144	0xb9f2b5ed	-0.00046293382
145	0xbb5121ee	-0.0031911093
146	0x38ce938c	9.850328e-05
147	0x3b83492c	0.0040065255
148	0xba87f08f	-0.0010371375
149	0xbbb2c56b	-0.005455663
150	0xba55b532	-0.00081523054
151	0x3acc5d28	0.0015591728
152	0x37d86017	2.5793952e-05
153	0xb98e33d3	-0.00027122963
154	0xbb2d9397	-0.0026485675
155	0xbbf0dc59	-0.0073504862
156	0xba884d55	-0.0010399023
157	0xba3c1896	-0.00071752944
158	0xb9c511c5	-0.00037588007
159	0xbb20e990	-0.0024553277
160	0xb8e3b49e	-0.00010857846
161	0x3995094a	0.00028426416
162	0xb902a92f	-0.00012460792
163	0xbabb1560	-0.0014273338
164	0xbaf54e77	-0.0018715401
165	0xba897157	-0.0010486048
166	0xb7642760	-1.3599027e-05
167	0x3aa9865b	0.0012933718
168	0x3cce9781	0.025218727
169	0x3ccf6768	0.025317863
170	0xba2b87ee	-0.00065433874
171	0xbc261711	-0.010137335
172	0x00000004	6e-45
173	0x80000004	-6e-45
174	0x00000004	6e-45
175	0x00000004	6e-45
176	0x3b1de6e4	0.002409392
177	0x3b424b3b	0.0029646892
178	0xb8ff8097	-0.00012183299
179	0xbaa63a1c	-0.0012682113
180	0x3b486adb	0.003058127
181	0x3aabc104	0.0013103788
182	0xb81b8be4	-3.7085163e-05
183	0x3a8ccbf6	0.0010741937
184	0x383decc0	4.5281602e-05
185	0xb77e8d9e	-1.5172553e-05
186	0x3757d2eb	1.2864107e-05
187	0x3805739d	3.1817344e-05
188	0xb8202d4e	-3.8189166e-05
189	0xba9d2fde	-0.0011992415
190	0xb99be2c4	-0.00029732857
191	0xba162022	-0.0005726834
192	0xb973756b	-0.00023218027
193	0x3b4cf248	0.003127234
194	0x398c40c7	0.00026751144
195	0xbaaade31	-0.0013036189
196	0x3ac3ebe9	0.0014947626
197	0x3c05a116	0.008156082
198	0x3c18d4fe	0.009328125
199	0x3d2d47ec	0.04230492
200	0x3adf7da9	0.0017051
201	0x3a9fc028	0.0012188004
202	0xba95e5d2	-0.001143629
203	0xbb601563	-0.0034192435
204	0x00000004	6e-45
205	0x00000004	6e-45
206	0x80000004	-6e-45
207	0x80000004	-6e-45
208	0xb92b3edd	-0.00016331249
209	0xbac785be	-0.0015222353
210	0x38aef32c	8.342261e-05
211	0x3b485705	0.0030569446
212	0xba244ac9	-0.00062672474
213	0xba02abc9	-0.00049847044
214	0xb9b8761a	-0.00035183207
215	0xbb0973c5	-0.0020973545
216	0xba1cd171	-0.0005982137
217	0xba38f81f	-0.0007056016
218	0x39d9bec8	0.00041531608
219	0x3b0509a8	0.0020299945
220	0x3b926704	0.004467847
221	0x3b818fbb	0.0039539016
222	0xba8f3b2d	-0.001092767
223	0xbba548c4	-0.0050440747
224	0x39188f52	0.0001454924
225	0x39c9263e	0.000383662
226	0xb97224c8	-0.0002309262
227	0xba08048c	-0.0005188666
228	0x3abc29cd	0.0014355719
229	0x3b128a67	0.0022360326
230	0x3a1194dc	0.0005553493
231	0x3a17fffe	0.00057983387
232	0xb950304a	-0.00019854415
233	0x3b958b63	0.0045637353
234	0x3ba13004	0.004919054
235	0x3c9f0f02	0.019416336
236	0x3b2fe496	0.0026839129
237	0x3b1a4e9f	0.0023545397
238	0x3a159a2e	0.00057068735
239	0xb925c834	-0.00015810208
240	0xba52ef86	-0.0008046556
241	0x3be45754	0.006968418
242	0x3c2b5c66	0.010459041
243	0x3d40adcf	0.047040757
244	0x3b097bfe	0.0020978446
245	0xb9e7c199	-0.00044203995
246	0xba98fc54	-0.0011671879
247	0xbb018995	-0.0019765843
248	0x3c507fbf	0.01272577
249	0x3be51f3c	0.006992249
250	0xbb9c9901	-0.0047789817
251	0xbc675da7	-0.01412145
252	0x80000004	-6e-45
253	0x80000004	-6e-45
254	0x80000004	-6e-45
255	0x80000004	-6e-45
