CartPoleHighRewardIn2026/checkpoints/checkpoint_ep500_reward110.00.pt (torch, 421217 bytes, 33 tensors)

feature_layer.0.weight f4 [128, 4]
0	0x3d8a9d36	0.06768267
1	0x3c0bd613	0.008534926
2	0xbeb3b00e	-0.35095257
3	0x3e6262b0	0.22107959
4	0x3d8eadc2	0.069667354
5	0x3d1121e8	0.035432726
6	0x3d0573f7	0.032581296
7	0xbe96d4d1	-0.2945924
8	0xbd968c56	-0.07350986
9	0x3d198a02	0.03748513
10	0xbf6499ce	-0.8929719
11	0xbd25afbf	-0.040450808
12	0x3d837704	0.06419185
13	0xbd58e94b	-0.05295686
14	0x3eac0a7f	0.33601758
15	0xbd0d8ee8	-0.034560114
16	0x3c57f5cd	0.013181162
17	0x3a9bb6ba	0.0011880018
18	0x3f914321	1.1348611
19	0x3d7621ad	0.06009071
20	0xbd5b6f40	-0.053572893
21	0x3da21502	0.07914163
22	0xbf0d660a	-0.55233824
23	0xbcb90f4a	-0.022590298
24	0x3cfe1565	0.031016061
25	0x3d183d66	0.03716793
26	0x3e929f98	0.28637385
27	0x3d102a80	0.03519678
28	0xbcfafca5	-0.030638048
29	0x3dda40ab	0.10656866
30	0xbde4408e	-0.11145125
31	0x3de5d51a	0.112222865
32	0xbe2d6514	-0.1693309
33	0x3deee23c	0.116642445
34	0x3f003487	0.5008015
35	0xbbe36a28	-0.006940145
36	0x3e50aac4	0.20377642
37	0xbdaa0917	-0.08302515
38	0xbe8be210	-0.2732091
39	0xbe04ee86	-0.12981614
40	0x3db1787b	0.08665558
41	0xbd9a5d5e	-0.0753734
42	0xbeda23c5	-0.42605415
43	0x3db86145	0.09002928
44	0x3e053ebc	0.13012213
45	0xbd229a05	-0.039697666
46	0x3dcabb8a	0.098990515
47	0xbcf61cb1	-0.030042978
48	0x3d3ed374	0.046588376
49	0xbd87f28f	-0.06638061
50	0x3eeea3ba	0.46609288
51	0x3c967420	0.01836592
52	0x3d95b077	0.073090486
53	0x3e37b2f8	0.17939365
54	0xbeec74d7	-0.46182892
55	0x3dbc9dea	0.09209807
56	0x3cd7a167	0.02632208
57	0xbcdb2b33	-0.026753997
58	0x3e63fbd5	0.22264035
59	0xbcd55407	-0.026041044
60	0xbd194897	-0.037422743
61	0xbd307285	-0.043077964
62	0x3ebb048d	0.3652691
63	0xbe8f1080	-0.27942276
64	0x3d4856f5	0.048911054
65	0xbc2e7e77	-0.010650269
66	0x3ea5ead6	0.32405728
67	0xbb0ca24c	-0.002145904
68	0xbd1b022d	-0.03784387
69	0x3d66039d	0.05615579
70	0xbf04eea3	-0.5192663
71	0x3d4226d3	0.047400307
72	0x3a460aa5	0.0007554687
73	0x3a10ecf9	0.0005528476
74	0x3f7714f1	0.9651633
75	0x3dced270	0.100987315
76	0x3c50f50f	0.012753739
77	0xbd891d6e	-0.066950664
78	0x3f68effb	0.9099118
79	0xbde0215c	-0.10943863
80	0x3bef5fec	0.007305136
81	0x3b402ef3	0.002932486
82	0xbf697f24	-0.91209626
83	0xbe0651fc	-0.13117212
84	0x3dab7b67	0.083731465
85	0xbd04ab1b	-0.03238974
86	0x3f43cb68	0.7648225
87	0x3e4dbeed	0.20092364
88	0x3d28094a	0.041024484
89	0xbca2d66a	-0.019877631
90	0xbf5c29dd	-0.8600138
91	0xbd80c54e	-0.06287633
92	0x3c5ed955	0.013601621
93	0x3b2037c2	0.0024447297
94	0x3f011a35	0.50430614
95	0xbd9802f4	-0.07422438
96	0x3e8bf978	0.27338767
97	0x3def7e6d	0.11694036
98	0x3e862c2e	0.2620558
99	0x3d85adf3	0.06527319
100	0xbc6542fb	-0.01399302
101	0x3baba2a6	0.005237895
102	0xbed8734f	-0.42275473
103	0x3ea8d19e	0.32972425
104	0x3b2a506c	0.0025987877
105	0xbb3bc180	-0.002864927
106	0x3f8db8ec	1.1072059
107	0x3e0388fb	0.12845223
108	0xbd52e650	-0.051489174
109	0x3d950d61	0.072779424
110	0xbe33841d	-0.17530866
111	0x3db33535	0.08750383
112	0x3d544bd7	0.05183014
113	0xbd15cb33	-0.03657074
114	0xbf149424	-0.58038545
115	0xbe75ae57	-0.23992287
116	0xbd5c7cc6	-0.05382993
117	0x3de9f0dc	0.114228934
118	0xbd36bf83	-0.044616234
119	0x3e03369d	0.12813802
120	0x3e14cfd6	0.14532408
121	0xbe1c0f08	-0.15240109
122	0x3ee5eda1	0.4490786
123	0x3dac7493	0.08420672
124	0xbb9793b9	-0.004625764
125	0x3c387c80	0.011260152
126	0x3f8969ca	1.0735409
127	0x3da7280c	0.08161935
128	0x3c8eafce	0.017417815
129	0xbd331e61	-0.043730143
130	0x3e2f7700	0.17135239
131	0xbc24cbdc	-0.0100583695
132	0x3b856607	0.0040710005
133	0xbb1bcaeb	-0.0023772072
134	0xbee2fdd4	-0.4433428
135	0x3bfc60e9	0.0077019823
136	0xbd07edb7	-0.033185687
137	0xbe8157df	-0.25262353
138	0xbf3ebe67	-0.7450928
139	0xbe818468	-0.2529633
140	0x3d9c78f2	0.07640256
141	0xbdb24455	-0.087044396
142	0x3da2daa7	0.07951861
143	0xbd3d33b1	-0.046191875
144	0x3d269583	0.04066993
145	0x3e22b3a8	0.15888846
146	0x3ec5375d	0.385188
147	0xbdc7990d	-0.09745989
148	0xbdbebb7b	-0.09313103
149	0x3dc3e0d6	0.095643684
150	0x3f309853	0.6898243
151	0x3da85211	0.08218778
152	0x3ddc55b7	0.10758536
153	0xbd983465	-0.074318685
154	0x3f87fe98	1.0624571
155	0x3caecf24	0.021339007
156	0xbccff315	-0.025384465
157	0x3dd06fca	0.10177572
158	0x3ec2f4ad	0.38077298
159	0xbea6b68d	-0.3256115
160	0x3dbf13ad	0.09329925
161	0xbdc15f01	-0.09441949
162	0x3e4386a5	0.19094332
163	0xbdc81dd7	-0.097713165
164	0xbdebd1e9	-0.115146466
165	0x3e64956b	0.22322623
166	0x3eeb8f64	0.46007836
167	0x3e0a219d	0.13489385
168	0xbe911463	-0.28335866
169	0xbdf5fa6f	-0.12010657
170	0xbf2aa1e7	-0.66653293
171	0xbded96b2	-0.116010085
172	0x3d1714e4	0.036885157
173	0xba4690f7	-0.0007574702
174	0x3d99b46d	0.075051166
175	0x3d27038b	0.040774863
176	0xbe17789a	-0.147921
177	0xbdd2fb26	-0.10301809
178	0xbb42a373	-0.0029699474
179	0x3d5f8d54	0.05457814
180	0x3b82a2b4	0.003986681
181	0xbd9f3999	-0.07774658
182	0xbe640457	-0.2226728
183	0xbe0a6f8f	-0.13519119
184	0x3e8857e2	0.2662955
185	0xbddd5bd1	-0.10808528
186	0x3f0aecdd	0.54267675
187	0xbd3dd33f	-0.046344038
188	0x3e73c455	0.23805363
189	0xbe31c6b5	-0.17360957
190	0x3e9cd293	0.30629405
191	0xbde40684	-0.11134055
192	0x3c419eab	0.011817615
193	0x3b2f12bc	0.0026714047
194	0xbf789eab	-0.9711711
195	0x3d39313d	0.045212973
196	0x3cbb5e6e	0.022872176
197	0xbc3a557a	-0.011372918
198	0xbf8d26e5	-1.1027495
199	0xbdf65605	-0.12028126
200	0x3d8ca67a	0.068676904
201	0xbd13547e	-0.03596925
202	0x3f7a2dd9	0.9772621
203	0x3e001df4	0.12511426
204	0x3c88e9a2	0.016712967
205	0xbc567ab5	-0.013090779
206	0xbe5e3759	-0.21700801
207	0xbd0acf26	-0.03388896
208	0x3d1788f0	0.03699583
209	0xbd444782	-0.047919758
210	0x3c29d583	0.010365847
211	0xbe90fec5	-0.28319374
212	0x3cddf0fa	0.027092446
213	0xbd157acb	-0.036494058
214	0x3ea6c92f	0.32575366
215	0xbde7c90a	-0.11317642
216	0x3dbe6afc	0.092977494
217	0xbcc239cd	-0.023709202
218	0xbe040ebd	-0.12896247
219	0x3bab37cc	0.0052251574
220	0x3c3f6d08	0.01168371
221	0x3ce77558	0.028254196
222	0x3f5536a9	0.8328653
223	0x3e78c25a	0.24292889
224	0xbdf77a08	-0.120838225
225	0xbd5023b5	-0.050815303
226	0xbe2ac776	-0.16677651
227	0x3e304509	0.17213835
228	0xbd307715	-0.043082315
229	0x3dc5a9e7	0.09651547
230	0xbf00422a	-0.5010096
231	0x3de5d5d0	0.11222422
232	0x3d68c777	0.05683085
233	0xbd3fa8d4	-0.046791866
234	0xbf82a112	-1.0205405
235	0xbe3a51f7	-0.1819533
236	0x3df0ab1f	0.11751389
237	0xbe01a46b	-0.12660377
238	0x3ee33a50	0.44380426
239	0xbe9234d9	-0.28555945
240	0x3b449775	0.0029997502
241	0xbb3a256b	-0.002840365
242	0xbf82c6b5	-1.021689
243	0xbdc6a067	-0.09698563
244	0xbbe0346f	-0.006842188
245	0x3b8ff5e7	0.0043933275
246	0x3f8a560d	1.0807511
247	0x3e12d95c	0.14340729
248	0x3ac36095	0.0014906103
249	0xbb92793f	-0.00447002
250	0x3f6d3ca3	0.9267065
251	0x3dc38401	0.09546662
252	0x3cf1b094	0.029503144
253	0xbd4f9524	-0.05067934
254	0x3dd792d2	0.105260506
255	0xbd3c025c	-0.045900688

feature_layer.0.bias f4 [128]
0	0x3a1a9d44	0.0005898068
1	0xbe8f7468	-0.28018498
2	0xbe1991d1	-0.14997031
3	0x3e8b5186	0.27210635
4	0xbe0ba095	-0.13635476
5	0x3e0e9c03	0.13926701
6	0x3e19a936	0.15005955
7	0x3e81e5d5	0.2537066
8	0xbe9a12c9	-0.30092457
9	0x3e04307c	0.1290912
10	0xbea068dc	-0.3133
11	0xbda3f099	-0.08004875
12	0x3dbd1d8a	0.0923415
13	0x3d508b62	0.050914176
14	0xbd65a68b	-0.05606703
15	0xbe9ec94f	-0.3101296
16	0x3e8b5228	0.27211118
17	0xbe3ea069	-0.18615879
18	0xbe38ccdd	-0.18046899
19	0x3e1ed787	0.15511905
20	0xbe4f5303	-0.2024651
21	0xbe389f07	-0.18029414
22	0xbe214f55	-0.15752919
23	0x3da79be2	0.08184029
24	0xbf0af467	-0.5427918
25	0xbd950ccb	-0.07277831
26	0xbe4049a6	-0.18778095
27	0xbe1d46e4	-0.15359074
28	0xbe6c8e67	-0.23101197
29	0xbe8cfa7d	-0.27534857
30	0xbe6d5bb8	-0.23179519
31	0xbe24a9ca	-0.16080394
32	0xbdf9b0a4	-0.12191895
33	0xbdd1ff7b	-0.10253807
34	0xbe4db603	-0.20088963
35	0xbe1e114c	-0.15436286
36	0xbe7f1043	-0.24908547
37	0x3d205289	0.03914121
38	0xbdb27fe3	-0.08715799
39	0xbd5d5f5f	-0.05404603
40	0xbe0583b5	-0.13038523
41	0xbe4cb64a	-0.19991413
42	0xbf0496f7	-0.51792854
43	0xbe12c5b1	-0.14333226
44	0xbea86790	-0.32891512
45	0x3d21c99a	0.039498903
46	0xbea432f1	-0.32070115
47	0xbc82f409	-0.015985506
48	0xbe1811e7	-0.14850579
49	0xbe6388e0	-0.22220182
50	0xbe170687	-0.14748584
51	0xbde4ec2e	-0.1117786
52	0xbea9da86	-0.33174533
53	0x3ca40ff2	0.020027135
54	0x3c6404f4	0.013917197
55	0xbe76629e	-0.24061057
56	0xbe8054e9	-0.2506478
57	0xbd47906d	-0.04872172
58	0xbe63e9e5	-0.22257192
59	0xbc90dc23	-0.017683094
60	0xbe51d8d2	-0.20492867
61	0xbe4da1fe	-0.20081326
62	0xbe2e61b7	-0.17029463
63	0xbdc4f6bb	-0.096173726
64	0xbe5404e9	-0.20704998
65	0x3dd23378	0.10263723
66	0xbe7b3307	-0.24531184
67	0x3d9d4988	0.076800406
68	0xbe466ee1	-0.19378234
69	0x3e1600e4	0.14648777
70	0xbe845a09	-0.2584994
71	0xbde473e5	-0.11154918
72	0xbe5fb96e	-0.2184808
73	0x3e62b570	0.22139525
74	0xbe333242	-0.1749964
75	0xbe15cbc9	-0.14628519
76	0xbe2de3ce	-0.16981432
77	0xbe3af989	-0.18259253
78	0xbe5eaad8	-0.21744859
79	0x3d2ed05f	0.042679187
80	0xbe652b50	-0.22379804
81	0xbdc8bf3f	-0.09802102
82	0xbe2f14de	-0.17097804
83	0xbe238c85	-0.15971573
84	0xbe6eed67	-0.2333275
85	0xbdc2917a	-0.09500404
86	0xbe4daad6	-0.200847
87	0x3c598b9c	0.013277914
88	0xbd153b50	-0.036433518
89	0xbdcbb3eb	-0.09946426
90	0xbe4e7f0b	-0.2016565
91	0xbe0ff9ad	-0.14060088
92	0xbe4dca76	-0.20096764
93	0xbcbb0c79	-0.022833096
94	0xbe830235	-0.2558762
95	0xbe58f2ec	-0.21186417
96	0xbeeea29b	-0.46608433
97	0xbe2347dc	-0.15945381
98	0xbe2e095d	-0.1699576
99	0xbe67d2dd	-0.22639032
100	0x3ce7f3c6	0.028314482
101	0x3e2a0d31	0.16606595
102	0xbe1b430c	-0.15162295
103	0x3d4ac1dc	0.049501285
104	0xbdce9ffd	-0.10089109
105	0xbe65e381	-0.22450067
106	0xbe6848d2	-0.22684029
107	0xbe41cd08	-0.1892587
108	0xbe66098d	-0.22464581
109	0xbd86ebd0	-0.065879464
110	0xbd793f9e	-0.060851686
111	0x3dddb59f	0.10825657
112	0xbe53e749	-0.20693697
113	0xbe2fa262	-0.17151788
114	0x3e8b3098	0.27185512
115	0xbdd31794	-0.103072315
116	0xbe0eb031	-0.13934399
117	0xbe04f80e	-0.1298525
118	0x3e3f88ce	0.1870453
119	0xbc639506	-0.01389051
120	0xbe6d6280	-0.23182106
121	0xbe0e3b86	-0.13889894
122	0xbe424ee2	-0.18975404
123	0xbe6a9b93	-0.2291091
124	0x3db4463f	0.08802461
125	0xbdab52f3	-0.08365431
126	0xbe1f3178	-0.15546215
127	0xbdda45e2	-0.1065786

feature_layer.2.weight f4 [128, 128]
0	0xbe31841d	-0.17335553
1	0xbea5c58b	-0.32377276
2	0xbe63d2f6	-0.22248444
3	0x3ec3c416	0.3823554
4	0x3e69a9f0	0.22818732
5	0xbdd4ba79	-0.10387129
6	0x3e2566dd	0.1615252
7	0x3e038c26	0.12846431
8	0x3e93341d	0.28750697
9	0xbd85d537	-0.06534808
10	0x3e274b5f	0.16337346
11	0x3e120190	0.14258409
12	0x3da6abc0	0.081382275
13	0xbe237b17	-0.15964924
14	0x3e4332db	0.19062369
15	0xbd8460ba	-0.06463762
16	0x3e9d14bf	0.3067989
17	0xbce69d48	-0.02815117
18	0x3f1a7871	0.6034003
19	0x3ee0de28	0.43919492
20	0xbfd93177	-1.696822
21	0xbd89de70	-0.0673188
22	0xbe096b36	-0.13419804
23	0x3e1d2b0a	0.1534845
24	0xbf0d1ada	-0.551191
25	0x3d36a016	0.044586264
26	0x3e3595c1	0.17732908
27	0xbc3d4d46	-0.011554068
28	0xbe8e923b	-0.2784594
29	0xbe822462	-0.25418383
30	0xbd8b744f	-0.068092935
31	0x3efd78b3	0.4950615
32	0x3dd3109a	0.10305901
33	0xbe4f8865	-0.20266874
34	0xbe1ec2f7	-0.1550406
35	0x3e1c6d2a	0.15276018
36	0xbe446628	-0.19179595
37	0xbcbe3de0	-0.023222864
38	0x3e480af2	0.19535425
39	0xbe5ee0d4	-0.21765453
40	0xbc7403d4	-0.014893491
41	0x3b8cdd7c	0.004298864
42	0xbe03afb7	-0.12859999
43	0x3e25e8e1	0.16202118
44	0x3e6b01b8	0.22949874
45	0x3c277b55	0.010222276
46	0xbd1712cd	-0.036883164
47	0x3e417170	0.18890929
48	0xbfa8f931	-1.3201047
49	0xc0140703	-2.312928
50	0x3d9ebbda	0.077506736
51	0x3d171578	0.03688571
52	0xbe9504a7	-0.29105112
53	0xbdf68cd6	-0.12038581
54	0x3c69b610	0.0142645985
55	0x3d54eda0	0.05198443
56	0xbd7c640a	-0.061618842
57	0x3d9f6fc7	0.07784992
58	0xbfbbd14f	-1.4673251
59	0x3ceb9c9c	0.0287612
60	0xc01a5404	-2.411378
61	0x3e11747f	0.14204596
62	0x3f0a1b8b	0.5394828
63	0x3db312c0	0.08743811
64	0x3ea52288	0.32252908
65	0xbdd19430	-0.10233343
66	0xbf041bea	-0.51605093
67	0x3e9823c1	0.29714778
68	0xbfa2f997	-1.2732419
69	0x3db0e9cf	0.086383455
70	0x3e6d6a38	0.2318505
71	0x3d9dea79	0.07710738
72	0x3e3be58c	0.18349284
73	0x3c18a6e8	0.009317137
74	0x3eac4f61	0.3365431
75	0x3f26d0af	0.65162176
76	0x3fc02c56	1.501353
77	0x3dd999de	0.10625051
78	0xbcbdae5f	-0.023154436
79	0x3e3158c2	0.17319015
80	0x3f522486	0.8208698
81	0x3c8b740e	0.017023113
82	0xbf0352c6	-0.5129818
83	0xbebcbfce	-0.36865085
84	0x3d316e5e	0.043318145
85	0xbd722dd9	-0.059125755
86	0xbe143b71	-0.144758
87	0x3ccfef6c	0.02538272
88	0x3e3fea3f	0.18741702
89	0xbe5fa453	-0.21840028
90	0xbe28e96d	-0.16495295
91	0x3cb6c603	0.022311216
92	0xbdb8597f	-0.09001445
93	0x3ca68dd2	0.020331297
94	0x3ea0dd65	0.3141891
95	0xbf163968	-0.58681345
96	0x3e7278a0	0.23678827
97	0x3e492c95	0.19645913
98	0xbc516d81	-0.012782455
99	0x3d80ed08	0.0629521
100	0x3d9691dd	0.0735204
101	0x3db93762	0.090437666
102	0x3e93cd35	0.28867498
103	0xbdd905f0	-0.105968356
104	0x3e48c9fa	0.19608298
105	0xc0145c4c	-2.3181334
106	0x3f199e8c	0.6000755
107	0xc02a3907	-2.6597307
108	0x3eb81b91	0.35958531
109	0xbd928b9e	-0.07155536
110	0x3d6aab42	0.05729223
111	0x3d8562d3	0.0651299
112	0x3d059499	0.032612417
113	0xbfbeecab	-1.4915975
114	0x3de429f8	0.111408174
115	0xbe07e862	-0.13272241
116	0x3d8496ca	0.06474073
117	0xbf03466c	-0.5127933
118	0x3e8b4eb4	0.27208483
119	0xbcd63acc	-0.026151083
120	0xbd1e9563	-0.038716685
121	0x3d80f564	0.062968045
122	0xbf4fefc0	-0.81225204
123	0xbe5b3d01	-0.2140999
124	0x3e2fae66	0.17156371
125	0xbe8f797a	-0.28022367
126	0x3d98dc21	0.07463861
127	0xbe9ed791	-0.3102384
128	0x3c718f16	0.014743587
129	0xbd9a27e7	-0.07527142
130	0xbd971b2e	-0.07378231
131	0xbddc2068	-0.107483685
132	0x3d7366d1	0.059424225
133	0xbdc94411	-0.09827436
134	0x3d48a64e	0.048986726
135	0x3cad6aed	0.02116915
136	0x3d4299dc	0.047510013
137	0x3d8c6910	0.068559766
138	0xbb850c0b	-0.0040602735
139	0xbdbae13a	-0.0912499
140	0x3cb7ff15	0.0224605
141	0x3dce4a46	0.1007276
142	0x3df6e5cd	0.1205555
143	0xbe2854ce	-0.164386
144	0x3cadd1c2	0.021218184
145	0xbd966da1	-0.07345129
146	0x3de5f002	0.112274185
147	0xbd966755	-0.07343928
148	0xbd3bf330	-0.04588622
149	0x3d1b10a0	0.03785765
150	0xbe0d133e	-0.13776872
151	0x3c636990	0.0138801485
152	0x3d8e8242	0.069584385
153	0xbd87241c	-0.06598684
154	0xbe1fe909	-0.1561624
155	0xbe404298	-0.18775403
156	0xbe02530b	-0.12726991
157	0xbe1fc5f6	-0.1560286
158	0x3d415a40	0.04720521
159	0xbd574a53	-0.052561115
160	0xbd588cdc	-0.05286871
161	0x3dbda0bf	0.092591755
162	0x3bf1ab8c	0.0073751863
163	0xbe1206a8	-0.14260352
164	0xbcae5136	-0.021278959
165	0x3d11a105	0.03555395
166	0xbd98d7ac	-0.07463011
167	0xbc22fc85	-0.009947901
168	0xbd4cf494	-0.050037935
169	0xbe074edd	-0.13213678
170	0xbe1b35b2	-0.15157202
171	0xbdd7127a	-0.10501571
172	0x3d84f8a7	0.06492739
173	0x3de77b1e	0.113027796
174	0xbdfbdb3d	-0.12297676
175	0x3d8e32ac	0.06943259
176	0xbdc855d6	-0.09781997
177	0xbd527c72	-0.05138821
178	0xbb6d8f22	-0.0036248644
179	0x3d284eab	0.04109065
180	0x3cd1b66b	0.025599679
181	0xbe29fca1	-0.16600277
182	0x3c1b2f1e	0.009471683
183	0xbe2b27a9	-0.16714348
184	0x3dec97fd	0.11552427
185	0x3dd95074	0.10611048
186	0xbe22aaa2	-0.15885404
187	0x3ce9d226	0.02854259
188	0x3dacb37a	0.0843267
189	0xbde6d186	-0.11270432
190	0x3d07f017	0.033187952
191	0xbddd82c3	-0.108159564
192	0xbddeb6f0	-0.10874736
193	0xbdb830b3	-0.08993664
194	0xbd850045	-0.06494192
195	0xbe15b2e8	-0.14619029
196	0x3c1cdacb	0.009573649
197	0x3dfa9726	0.122358605
198	0x3c86f4f9	0.016474234
199	0xbca284a0	-0.019838631
200	0xbe367c85	-0.17820938
201	0x3cb07b67	0.021543218
202	0x3dc73368	0.09726602
203	0xbc914c5b	-0.017736604
204	0x3e17184f	0.14755367
205	0x3de94758	0.11390561
206	0x3d44f4e8	0.048085123
207	0xbe2ec09d	-0.17065664
208	0xbd68dbe2	-0.05685032
209	0xbd935f49	-0.071959086
210	0xbd582f78	-0.052779645
211	0xbdf8e03b	-0.121521436
212	0xbd98b53f	-0.07456445
213	0xbd9ff28f	-0.07809936
214	0xbd853a7f	-0.06505298
215	0xbe1e70c3	-0.15472703
216	0xbe02c57d	-0.12770648
217	0x3d3c7ee8	0.046019465
218	0x3df29a7e	0.11845873
219	0x3ded0f06	0.11575131
220	0x3d94e5e1	0.072704084
221	0xbe39f953	-0.18161516
222	0xbd6b06ca	-0.05737952
223	0xbd99e161	-0.07513691
224	0x3d228586	0.03967812
225	0x3e131c15	0.14366181
226	0x3d95969b	0.07304116
227	0x3d6f78e6	0.058464907
228	0xbdd41391	-0.103552945
229	0x3dce3c05	0.100700416
230	0xbe1e7e29	-0.15477814
231	0xbe14959a	-0.14510193
232	0x3cb1156b	0.021616658
233	0x3dc7f2ae	0.09763084
234	0x3da23030	0.07919347
235	0xbe35149a	-0.1768364
236	0x3d863445	0.06552938
237	0xbd9c91f3	-0.07645025
238	0xbc7ba5e2	-0.015359374
239	0xbdd5dff5	-0.10443107
240	0xbe0c2823	-0.13687186
241	0xbd353559	-0.04424033
242	0xbc85b4f3	-0.016321635
243	0x3d7ca0cc	0.061676785
244	0xbe0a7081	-0.1351948
245	0xbd67d1b8	-0.056596488
246	0x3d31fec2	0.043455847
247	0xbdac0ab2	-0.084004775
248	0xbe0eeac5	-0.13956745
249	0xbc500e2d	-0.012698692
250	0x3cf344e9	0.029695945
251	0xbd695a50	-0.056970894
252	0xbc2b5a33	-0.010458517
253	0x3e027f20	0.12743807
254	0x3d3167d2	0.0433119
255	0x3bb8dca6	0.0056415377

feature_layer.2.bias f4 [128]
0	0x3e8581a4	0.2607547
1	0xbd16e588	-0.03683999
2	0x3e98f74b	0.2987617
3	0x3e4e4584	0.20143706
4	0xbd13c410	-0.03607565
5	0x3e996837	0.29962322
6	0x3ebac8bd	0.36481276
7	0xbda686f3	-0.08131208
8	0x3ebe489e	0.37164778
9	0xbd383594	-0.04497297
10	0x3da8c2ca	0.08240278
11	0xbd3296af	-0.043600734
12	0x3ea42fe0	0.32067776
13	0xbe4335df	-0.19063519
14	0xbe186f17	-0.14886127
15	0x3eaa974f	0.33318564
16	0xbc8c9cd3	-0.017164623
17	0xbdf30477	-0.11866086
18	0x3eb05620	0.34440708
19	0x3eaf0ef3	0.34191093
20	0xbd1b7343	-0.03795172
21	0x3e9f1cd5	0.31076685
22	0xbdc32ac9	-0.09529645
23	0x3ec11d8c	0.37717855
24	0xbdb16db8	-0.08663505
25	0x3eb3f26a	0.35145885
26	0x3e8a3f43	0.2700139
27	0xbd804727	-0.06263571
28	0xbe0012d0	-0.12507176
29	0x3e9df743	0.30852708
30	0x3eabf906	0.33588427
31	0x3eab2846	0.33429164
32	0xbd0b6167	-0.034028437
33	0x3e3c6393	0.1839736
34	0x3e0af8e7	0.13571511
35	0x3ea602f2	0.32424122
36	0xbd193c99	-0.037411306
37	0x3eacd3d9	0.33755377
38	0x3ea25691	0.3170667
39	0xbd2b963a	-0.041891314
40	0xbec37988	-0.38178658
41	0xbd450ffb	-0.048110943
42	0x3e06f7ac	0.13180417
43	0x3eb2052b	0.34769568
44	0x3ea28def	0.31748912
45	0xbcd4d53d	-0.025980586
46	0xbd051d48	-0.032498628
47	0x3e31a620	0.17348528
48	0xbe0e29a1	-0.13883068
49	0xbc63bdf9	-0.0139002735
50	0x3ea59654	0.32341254
51	0xbd1df88a	-0.038567103
52	0x3ea17245	0.31532493
53	0x3e89f0f5	0.26941648
54	0xbe163629	-0.14669098
55	0x3eaabfff	0.33349606
56	0xbd76dbf0	-0.060268342
57	0x3ea68610	0.32524157
58	0xbcb76da6	-0.022391152
59	0xbd446112	-0.047944136
60	0xbe0eed39	-0.13957681
61	0xbceba3af	-0.028764574
62	0xbce690dc	-0.028145246
63	0xbe185120	-0.14874697
64	0x3ea62900	0.32453156
65	0xbd3ae8d5	-0.045632202
66	0xbc9e0ec4	-0.01929415
67	0x3ea13cdb	0.31491742
68	0x3ea13792	0.3148771
69	0x3e9ce633	0.30644378
70	0xbdc962db	-0.09833308
71	0x3e9e1f13	0.30883083
72	0xbd2d937c	-0.04237698
73	0xbd1c09a9	-0.03809515
74	0x3ea4de7e	0.32200998
75	0x3e9df14d	0.3084816
76	0x3e78d0d3	0.2429841
77	0x3ec3dda8	0.38255048
78	0xbd414763	-0.04718722
79	0xbd1b09f2	-0.03785128
80	0x3e3be00e	0.18347189
81	0x3ea06ad0	0.3133149
82	0xbe23b658	-0.15987527
83	0x3e9eb016	0.30993718
84	0xbd715fb5	-0.058929164
85	0x3ea4233a	0.32058126
86	0xbe51bbec	-0.20481843
87	0xbd842661	-0.06452633
88	0x3eb89659	0.36052206
89	0xbd018bfc	-0.03162764
90	0x3ead793d	0.3388156
91	0x3eafbb13	0.34322414
92	0x3eafc006	0.3432619
93	0x3e95f7df	0.29290673
94	0x3e6b4278	0.22974575
95	0x3e9122e1	0.28346923
96	0xbdb2bf55	-0.087279
97	0x3eb81d50	0.35959864
98	0x3bd293b2	0.006426298
99	0x3ea94af8	0.3306501
100	0x3eb9c50a	0.3628314
101	0xbd085697	-0.033285704
102	0x3ec958ea	0.3932565
103	0x3ea256cd	0.3170685
104	0xbd6883bf	-0.056766268
105	0x3e9d4961	0.30720046
106	0x3eb948e3	0.3618842
107	0x3eb71643	0.35759172
108	0xbd20988a	-0.039207973
109	0x3e9fdf96	0.3122527
110	0xbdae2aee	-0.08504282
111	0xbe86f551	-0.26359037
112	0xbd0073cb	-0.03136043
113	0x3ebe4144	0.3715917
114	0x3eb25b6a	0.34835368
115	0xbd620ee9	-0.05519
116	0xbca21573	-0.019785618
117	0x3e87e9dc	0.26545608
118	0x3eacb245	0.3372976
119	0x3e9e87f7	0.30963108
120	0x3ed04e68	0.4068482
121	0x3eaedf22	0.34154612
122	0xbe32d8c0	-0.17465496
123	0x3ea64ec0	0.32481956
124	0xbe0e3212	-0.13886288
125	0xbc548201	-0.0129704485
126	0x3eba5465	0.36392513
127	0x3ec57ced	0.38571873

value_stream.0.weight f4 [64, 128]
0	0xbdd1e5c0	-0.102488995
1	0x3d5bdd76	0.053678
2	0x3d288a84	0.041147724
3	0x3e1eb1b0	0.1549747
4	0x3d4a9e6c	0.04946749
5	0x3e7a2472	0.24427965
6	0x3df92fba	0.12167306
7	0xbe79e3be	-0.24403283
8	0x3eacff1e	0.3378839
9	0xbc8657a9	-0.016399221
10	0x3d60789e	0.05480253
11	0x3ca34d73	0.019934392
12	0x3d502e26	0.05082526
13	0xbfa5d53c	-1.2955699
14	0xbf72094d	-0.9454544
15	0x3e819755	0.2531077
16	0x3dd0cbc0	0.10195112
17	0xbed94856	-0.42438
18	0xbc9fae13	-0.019492185
19	0x3e7c3791	0.24630572
20	0x3e338d51	0.17534377
21	0x3e142cbb	0.14470188
22	0xbf11b421	-0.5691548
23	0x3e416ded	0.1888959
24	0x3b51109a	0.0031900764
25	0xbcfcfb12	-0.030881438
26	0x3bc5de5c	0.00603847
27	0xbd947ce1	-0.07250381
28	0xbf3ea692	-0.74472916
29	0x3e6f7592	0.23384693
30	0x3e3604ab	0.17775218
31	0x3d9977c0	0.074935436
32	0x3e33a1be	0.17542168
33	0x3ce85ddf	0.028365074
34	0x3e12957f	0.1431484
35	0x3d91b7f2	0.07115163
36	0xbdf131bc	-0.11777064
37	0x3e04adca	0.1295692
38	0x3dfb2c57	0.122643165
39	0xbcd2e3b4	-0.025743343
40	0xbf14293a	-0.57875407
41	0x3af7f8fc	0.0018918808
42	0x3e1d6e10	0.15374017
43	0x3ebd0045	0.36914268
44	0xbbebf7e1	-0.0072011803
45	0xbbf26261	-0.0073969816
46	0xbdee675d	-0.11640809
47	0xbddb589e	-0.10710262
48	0xbf05b37d	-0.52227
49	0x3e0aa1f7	0.13538347
50	0x3e106c53	0.14103822
51	0xbe09dc7d	-0.13463016
52	0x3e57160a	0.21004501
53	0x3d9b7769	0.07591135
54	0xbf116a71	-0.5680304
55	0x3e677fda	0.22607365
56	0xbdaeb20b	-0.08530053
57	0x3d8871c1	0.06662322
58	0xbda439a5	-0.08018807
59	0xbdccd49c	-0.100014895
60	0xbf3cb4f1	-0.73713595
61	0xbd961d69	-0.07329828
62	0xbe1061b4	-0.14099771
63	0x3c78097c	0.01513898
64	0x3e7a073b	0.2441682
65	0x3d19521f	0.037431832
66	0x3d4131f7	0.04716679
67	0xbd2f447c	-0.04278992
68	0x3c397dcb	0.011321495
69	0xbd3591d4	-0.044328526
70	0xbdb6b1f8	-0.089206636
71	0xbd813f08	-0.063108504
72	0xbbb7287d	-0.0055895434
73	0xbc24c2a6	-0.010056173
74	0xbc63a470	-0.013894185
75	0x3e2dc2af	0.16968797
76	0x3e73dc43	0.23814492
77	0x3e3a0f5c	0.18169922
78	0x3d6a14b6	0.057148658
79	0x3cc8a205	0.02449132
80	0x3e8ef987	0.2792475
81	0xbde0aef6	-0.10970871
82	0xbf670cb5	-0.90253764
83	0x3e60653d	0.2191362
84	0xbdd51922	-0.10405184
85	0x3e66df7c	0.2254619
86	0x3df794bf	0.12088918
87	0x3dbc10f3	0.0918292
88	0x3da5c88d	0.08094893
89	0xbd993599	-0.07480926
90	0xbc89af68	-0.016807273
91	0x3e69714b	0.22797124
92	0x3dcfacfa	0.101404145
93	0xbd8ecdf1	-0.06972874
94	0x3e20536e	0.15656826
95	0x3c9e1c82	0.019300703
96	0x3e1ad9f0	0.15122199
97	0x3dc1e235	0.09466974
98	0xbda85a92	-0.082204
99	0xbc18f721	-0.009336264
100	0x3e3ba8fe	0.18326184
101	0xbcff1891	-0.031139644
102	0x3e7952ae	0.24347946
103	0x3e922dd8	0.285506
104	0x3d81e2ae	0.06342064
105	0x3e9953fa	0.29946882
106	0x3e8cba7e	0.27486032
107	0x3e5bd0d1	0.21466376
108	0x3d334dff	0.043775555
109	0x3eab93e2	0.33511263
110	0xbf652324	-0.89506745
111	0xbeaf44c7	-0.3423216
112	0x3e2d3731	0.16915585
113	0x3e8184a3	0.25296506
114	0x3e27cd2e	0.16386864
115	0x3d071620	0.032980084
116	0xbdb49488	-0.088173926
117	0x3e3bc331	0.18336178
118	0x3e320bc6	0.17387304
119	0x3da9c191	0.08288873
120	0x3eda223a	0.42604238
121	0x3e298da8	0.16557944
122	0xbf9a30e2	-1.2046168
123	0x3d9d1351	0.076697
124	0x3d6ff3de	0.05858218
125	0x3d702663	0.05863036
126	0x3eaa4a36	0.33259743
127	0x3d80c2cc	0.062871546
128	0xbc97e6ae	-0.018542614
129	0x3dc96e10	0.09835446
130	0xbe0ee005	-0.13952644
131	0x3e916d07	0.28403494
132	0x3c1be1c7	0.009514279
133	0x3e3816bf	0.17977427
134	0x3e17a7bc	0.1481008
135	0x3e5a5975	0.21323188
136	0xbd389d36	-0.045071803
137	0xbca56ac1	-0.020192506
138	0x3df029ac	0.11726698
139	0xbd85742a	-0.06516297
140	0x3e819623	0.25309858
141	0xbf33aa9b	-0.701822
142	0xbe8f0410	-0.27932787
143	0x3cd08a30	0.025456518
144	0xbdf82a18	-0.12117404
145	0xbee5d404	-0.44888318
146	0xbd1f0161	-0.038819674
147	0x3e1d65cf	0.15370868
148	0xbd0f21be	-0.03494429
149	0x3e4662de	0.19373652
150	0x3dbde2a8	0.09271747
151	0x3c9a33c3	0.01882351
152	0xbdcc6021	-0.09979273
153	0x3e3a5594	0.18196708
154	0xbc53b472	-0.0129214395
155	0xbe26b381	-0.16279413
156	0xbdbdfb17	-0.09276407
157	0xbdc67d17	-0.09691828
158	0xbd0c880f	-0.034309443
159	0x3dbca2ef	0.092107646
160	0x3e0f5842	0.13998511
161	0xbc2227fb	-0.009897227
162	0x3e029e52	0.12755707
163	0xbbb5d779	-0.005549368
164	0xbdb1f569	-0.086893864
165	0x3e66f177	0.22553049
166	0x3e39fe53	0.18163423
167	0x3dc2acb8	0.095056
168	0xbef030ca	-0.46912223
169	0x3e2c8fba	0.16851702
170	0x3dbfef75	0.09371845
171	0x3dcd38c8	0.10020596
172	0x3e259a29	0.16172089
173	0x3d057dc3	0.03259064
174	0xbd131a7c	-0.03591393
175	0xbc8f31bc	-0.01747977
176	0x3d0f1bc6	0.034938596
177	0xbd91aeee	-0.07113443
178	0x3e0f16c2	0.13973525
179	0xbe039859	-0.12851085
180	0x3d76ac10	0.060222685
181	0x3dcea8ca	0.10090788
182	0x3dc3eced	0.095666744
183	0xbd36b336	-0.044604503
184	0xbc99b44b	-0.018762728
185	0x3e766613	0.24062376
186	0x3cb6a9bc	0.022297733
187	0xbb8b82c9	-0.004257534
188	0xbebbf502	-0.36710364
189	0x3d02c724	0.031928197
190	0x3e054a0a	0.13016525
191	0x3dce7c43	0.10082295
192	0x3e982460	0.29715252
193	0x3e109cc9	0.14122309
194	0x3bf519b3	0.00747987
195	0x3e617ecd	0.22021027
196	0x3d229b8a	0.039699115
197	0x3e222d7b	0.15837662
198	0xbe2f5fa5	-0.17126329
199	0xbe3ec29b	-0.18628924
200	0x3d51f57d	0.051259506
201	0x3d927870	0.07151878
202	0x3d039c38	0.032131404
203	0xbc9a1290	-0.01880768
204	0x3e39f030	0.1815803
205	0x3e87b97b	0.26508698
206	0x3cdc78eb	0.026913127
207	0x3e33edcd	0.17571183
208	0x3eb2347d	0.3480567
209	0x3e131600	0.14363861
210	0x3d92bb49	0.07164628
211	0x3c7510fd	0.014957664
212	0xbe240cfd	-0.1602058
213	0x3e1a0fe8	0.1504513
214	0x3e435eef	0.19079183
215	0xbd1c3c2a	-0.038143314
216	0x3d39527a	0.04524467
217	0xbd936f2b	-0.07198938
218	0x3c28bad5	0.0102984505
219	0x3e2368b0	0.15957904
220	0x3e80773f	0.25090978
221	0xbd5d793c	-0.054070696
222	0x3e0c9920	0.13730288
223	0x3c3bb999	0.011457824
224	0x3dd458f6	0.103685305
225	0x3e72c206	0.23706827
226	0x3e4a3d8a	0.19750038
227	0x3e51445a	0.2043623
228	0x3e5b251f	0.2140088
229	0xbcca52ee	-0.024697747
230	0x3e521c02	0.20518497
231	0x3e13255e	0.14369723
232	0xbdd9fe47	-0.10644203
233	0x3e878d7e	0.26475137
234	0xbd869dd2	-0.065730706
235	0x3e21bd28	0.15794814
236	0xbdb22ade	-0.086995825
237	0x3e6abd45	0.22923763
238	0x3d81a503	0.063303016
239	0xbe2ede09	-0.17076887
240	0xbd85c4d7	-0.06531685
241	0x3e7e2342	0.24818137
242	0xbdcd9dcd	-0.10039864
243	0xbc094d94	-0.0083803125
244	0xbe133d0e	-0.1437876
245	0x3d9cbc98	0.07653159
246	0x3e89f687	0.26945898
247	0x3e1f3b17	0.15549885
248	0x3e09ec60	0.13469076
249	0xbd671e95	-0.05642565
250	0x3c9048c3	0.01761282
251	0xbd2cfaec	-0.042231485
252	0x3cf952ce	0.030434992
253	0x3e19b7b6	0.15011486
254	0x3e2af316	0.16694292
255	0xbcce9bd1	-0.025220783

value_stream.0.bias f4 [64]
0	0x3ef7094c	0.4824928
1	0x3edd15bf	0.43180653
2	0xbd565378	-0.052325696
3	0x00000000	0.0
4	0x3d8d6617	0.06904238
5	0x3ec9c98f	0.3941159
6	0x3eef6652	0.46757752
7	0x3edbf334	0.42958987
8	0xbca0415e	-0.01956242
9	0xbc8b0a95	-0.01697282
10	0x3ee445f5	0.44584623
11	0xbca435ef	-0.020045249
12	0xbbc4c9bf	-0.0060054953
13	0xbcb2fe4d	-0.021849776
14	0x3eeff059	0.46863058
15	0x3eee2b19	0.46517256
16	0x3ed6276e	0.41826957
17	0x391862c3	0.00014532641
18	0xbcd83e0c	-0.026396774
19	0x3ed737ec	0.42034853
20	0xbc84c83a	-0.016208757
21	0x3ec4b508	0.38419366
22	0x3ef04bb0	0.46932745
23	0x3dab1937	0.08354419
24	0x3eeb4163	0.45948324
25	0x3ee965c9	0.45585468
26	0x3eed6012	0.46362358
27	0xbd2c6443	-0.042087805
28	0x3dab1bc4	0.08354905
29	0x3eca1fee	0.39477485
30	0xbd0bd486	-0.034138225
31	0x3eeb7128	0.4598477
32	0xbcf307d2	-0.029666815
33	0xbcba6877	-0.02275489
34	0xbd5c1fe2	-0.053741343
35	0x3ec29b06	0.38008898
36	0xbc86e74c	-0.016467713
37	0xbc56d192	-0.013111489
38	0x3edb22db	0.4280003
39	0x3ef9dbfb	0.48800644
40	0xbcdf05a3	-0.027224367
41	0x3ec24d86	0.3794977
42	0x3ef5600d	0.47924843
43	0xbc8c260b	-0.017107984
44	0xbc2a69c7	-0.010401196
45	0xbcb1395a	-0.021633793
46	0xbc33ba8a	-0.010969767
47	0x3eeed315	0.46645418
48	0x3ef30604	0.47465527
49	0xbc9d86bd	-0.019229287
50	0x3eeec908	0.4663775
51	0xbc46e4a4	-0.012139473
52	0x3d9e4f73	0.077299975
53	0x3d1d6648	0.03842762
54	0x3ece41ae	0.40284485
55	0xbd3054ad	-0.043049503
56	0xbd227d9b	-0.039670568
57	0xbd717617	-0.05895051
58	0xbcd66ed9	-0.026175903
59	0x3ed95192	0.42445046
60	0x3ddc9815	0.10771195
61	0xbc538c49	-0.012911865
62	0xbc897c29	-0.016782837
63	0x3d9e3084	0.07724097

value_stream.2.weight f4 [1, 64]
0	0x3eae03dc	0.3398732
1	0x3e208d37	0.15678869
2	0xbe651f52	-0.22375229
3	0x3d343240	0.043993235
4	0xbf9d5f76	-1.2294757
5	0x3e89798b	0.26850542
6	0x3ed94875	0.42438093
7	0x3e24d9d1	0.16098715
8	0xbe819306	-0.25307482
9	0xbf893052	-1.0717871
10	0x3e552007	0.20812999
11	0xbf15890e	-0.58412254
12	0xbe0ffcd9	-0.14061297
13	0xbe579884	-0.21054274
14	0x3e2f916f	0.17145322
15	0x3ec71abd	0.38887587
16	0x3de8d098	0.11367911
17	0xbfabf771	-1.3434888
18	0xbe26245b	-0.16224806
19	0x3ec6b110	0.38806963
20	0xbe54feba	-0.20800295
21	0x3e0be0fb	0.13660042
22	0x3e9439ea	0.28950435
23	0xbf8b4b24	-1.0882306
24	0x3e9d6179	0.30738428
25	0x3e8c0d66	0.27353972
26	0x3eb05ea1	0.34447196
27	0xbe807d0c	-0.25095403
28	0xbf5ed54a	-0.87044203
29	0x3e897363	0.26845846
30	0xb94bdce7	-0.00019441881
31	0x3e9d63fd	0.30740348
32	0xb796b70e	-1.7966635e-05
33	0xbd00b15a	-0.031419136
34	0xbe0c2047	-0.13684188
35	0x3e0a0912	0.13480023
36	0xbdd8e9c2	-0.10591461
37	0xbce746e8	-0.028232053
38	0x3ebbb637	0.36662456
39	0x3ed871f4	0.4227444
40	0xbc396aae	-0.011316938
41	0x3e55c950	0.20877576
42	0x3ea236e8	0.31682515
43	0xbe24068f	-0.16018127
44	0xbe6d5935	-0.23178561
45	0xbce70f5f	-0.028205572
46	0xbe8de026	-0.27710074
47	0x3ea67641	0.32512096
48	0x3e940ffa	0.2891844
49	0xbe942932	-0.2893768
50	0x3ecdd255	0.40199533
51	0xbdf1ee62	-0.11813046
52	0xbf95943c	-1.1685863
53	0xbf8d32a8	-1.1031084
54	0x3e6be76c	0.23037499
55	0xbddaf2f2	-0.106908694
56	0xbd41b7e7	-0.047294524
57	0xbe2859f6	-0.16440567
58	0xbe2c74bb	-0.16841404
59	0x3eebb7f5	0.46038786
60	0xbf67fe2b	-0.90622205
61	0xbe47679a	-0.19473115
62	0xbdfa9f76	-0.12237446
63	0xbf5aa141	-0.85402304

advantage_stream.0.weight f4 [64, 128]
0	0x3dcf2d4b	0.10116061
1	0x3cba1016	0.022712748
2	0xbe0a6ade	-0.13517329
3	0xbe229a0b	-0.15879075
4	0x3e1498bd	0.1451139
5	0xbc0a027e	-0.008423446
6	0xbdc6513a	-0.096834615
7	0xbcfb3d44	-0.030668862
8	0x3cbd24c3	0.023088818
9	0xbe04996f	-0.12949155
10	0xbe1b704d	-0.15179558
11	0x3d8d3d96	0.06896512
12	0x3c4cfe6e	0.012511833
13	0xbd273f8a	-0.04083208
14	0x3c4f41ab	0.012649934
15	0xbdddf400	-0.10837555
16	0xbdfcf66f	-0.12351691
17	0xbdb20a9c	-0.0869343
18	0xbe311a24	-0.17295128
19	0x3e06e8fb	0.13174812
20	0x3e10ae30	0.14128947
21	0xbe1c9162	-0.15289834
22	0x3db237df	0.08702063
23	0xbdf741ec	-0.120731205
24	0x3e3b2d72	0.18279055
25	0xbe0d7371	-0.13813569
26	0x3dd897cb	0.10575827
27	0x3dc7a54a	0.09748323
28	0xbd68a41b	-0.05679713
29	0xbdd79cdc	-0.105279654
30	0x3e08c4df	0.1335635
31	0x3d8708b2	0.065934554
32	0x3e151b1b	0.14561121
33	0xbe4981dd	-0.19678445
34	0xbe4c6895	-0.1996177
35	0xbd7e5748	-0.062094957
36	0xbcc616eb	-0.02418085
37	0xbe4a9b1c	-0.19785732
38	0xbdc5ce62	-0.09658505
39	0x3b878ff1	0.004137032
40	0x3e6ce70d	0.23135014
41	0x3e253981	0.16135217
42	0x3c21e3d9	0.009880983
43	0x3dd167cb	0.10224875
44	0xbe5ae29e	-0.2137551
45	0xbdd52b33	-0.1040863
46	0xbdbfebaa	-0.09371121
47	0xbd557bf7	-0.052120175
48	0xbe468283	-0.19385724
49	0x3c294154	0.010330517
50	0xbd550b81	-0.052012924
51	0xbd8fbe58	-0.07018727
52	0xbdf0ee4a	-0.117642
53	0x3dd604c7	0.1045013
54	0xbe360416	-0.17774996
55	0x3c941a0e	0.01807883
56	0xbe193635	-0.14962085
57	0x3cd0a660	0.025469959
58	0x3d4c9198	0.049943537
59	0xbc449227	-0.011997736
60	0xbca11da5	-0.019667456
61	0x3d86a713	0.06574836
62	0x3ddd283c	0.1079869
63	0x3e5d56ed	0.21615191
64	0xbe21bbb6	-0.15794262
65	0x3e13790c	0.14401644
66	0x3d75c458	0.0600017
67	0x3d903f20	0.0704329
68	0x3c295b6a	0.010336736
69	0x3ca8111b	0.020515969
70	0xbd0f285d	-0.034950603
71	0x3d628932	0.05530662
72	0xbe00f380	-0.12592888
73	0xbdc650a8	-0.09683353
74	0x3ca466c4	0.020068534
75	0xbe6d7270	-0.23188186
76	0x3e1b5dee	0.1517255
77	0xbd27b93b	-0.040948134
78	0xbc8e40a3	-0.017364806
79	0xbe18b8d2	-0.14914253
80	0x3b90be89	0.004417245
81	0x3dc79d93	0.09746852
82	0xbe655d34	-0.22398835
83	0xbdd0a40f	-0.10187542
84	0x3e3197f5	0.17343123
85	0xbb66c530	-0.0035212748
86	0x3e3959e9	0.18100704
87	0xbe0ba3e8	-0.13636744
88	0xbd4f4a34	-0.050607875
89	0x3db3f6e6	0.087873265
90	0xbd957335	-0.072973646
91	0xbe474e71	-0.19463517
92	0x3e1224e2	0.14271882
93	0xbe840b06	-0.2578966
94	0xbd940fa5	-0.072295465
95	0xbd5b30ca	-0.053513326
96	0x3e7e0300	0.24805832
97	0xbd92981d	-0.071579196
98	0xbe484e22	-0.19561055
99	0xbcd5fd62	-0.026121799
100	0xbe216ad6	-0.15763411
101	0x3dc1f883	0.09471228
102	0xbe052159	-0.13001002
103	0x3c394297	0.01130738
104	0x3e2ab5e2	0.16670945
105	0x3d16e6a5	0.036841054
106	0xbd691fe0	-0.056915164
107	0x3dba63ec	0.0910109
108	0xbe09d1b9	-0.13458909
109	0x3c19c430	0.009385154
110	0xbd0b7630	-0.03404826
111	0xbcf4ab1f	-0.029866753
112	0xbe0e7663	-0.13912348
113	0xbe013ff2	-0.1262205
114	0xbe1aa075	-0.15100272
115	0x3e28a96f	0.16470884
116	0x3e0de6de	0.138576
117	0x3c9a08b0	0.01880297
118	0x3d79de1f	0.061002847
119	0xbdbe348a	-0.09287365
120	0xbe62b744	-0.22140223
121	0x3c950cca	0.018194575
122	0x3d454597	0.04816207
123	0xbe00f2f9	-0.12592687
124	0x3e577c3c	0.21043485
125	0xbd7df00b	-0.0619965
126	0xbd1b8b4c	-0.03797464
127	0xbe1484c0	-0.14503765
128	0xbe28c5b5	-0.16481669
129	0x3c759e20	0.014991313
130	0x3e225ba1	0.15855266
131	0x3e1867c7	0.14883338
132	0xbd2ab3a8	-0.04167524
133	0x3d35e0da	0.04440389
134	0xbe32692b	-0.17422931
135	0xbdeefd4a	-0.11669405
136	0x3e010f30	0.1260345
137	0x3cc49f51	0.02400175
138	0x3d272328	0.040805012
139	0x3ca4d6ca	0.02012195
140	0xbd8d831e	-0.06909774
141	0x3e0b66bf	0.13613413
142	0x3e208053	0.15673952
143	0x3d8991e7	0.06717282
144	0x3e210f47	0.15728484
145	0x3d476707	0.04868224
146	0x3e02aa4b	0.12760274
147	0xbdf7a07a	-0.12091155
148	0x3d746d13	0.059674334
149	0xbe08b4a7	-0.13350163
150	0xbcfa2afe	-0.030538078
151	0xbe01835f	-0.1264777
152	0x3d6bc759	0.05756316
153	0xbe3580ff	-0.1772499
154	0xbd6f742f	-0.05846041
155	0xbd8bd88a	-0.06828411
156	0x3de0caf3	0.109762095
157	0xbe187d78	-0.14891613
158	0xbdbd0950	-0.09230292
159	0x3e14412f	0.1447799
160	0x3d9bedcd	0.07613716
161	0x3ddb84fb	0.107187234
162	0x3e21c7a6	0.15798816
163	0xbdd60bc1	-0.10451461
164	0x3d326a93	0.04355867
165	0xbe0ce560	-0.13759375
166	0xbd96078a	-0.07325657
167	0xbcfcfe3a	-0.030882943
168	0xbdb5a18b	-0.088687025
169	0x3d168f48	0.036757737
170	0x3d010f69	0.031508837
171	0x3ce70769	0.028201776
172	0x3db5dfe1	0.08880592
173	0xbc989b89	-0.018628852
174	0x3e0df18f	0.13861679
175	0xbc920b28	-0.017827585
176	0x3ddf8242	0.109135166
177	0x3e082a86	0.13297471
178	0x3e20fbf0	0.15721107
179	0xbdae9b53	-0.085257195
180	0xbd963e78	-0.07336134
181	0xbe136f31	-0.14397885
182	0xbda50182	-0.08056928
183	0x3e22e986	0.15909395
184	0xbc8b47d6	-0.017002027
185	0xbdd0b8e2	-0.101915136
186	0xbe11f9a2	-0.14255384
187	0xbe0abf8a	-0.13549629
188	0xbdd96f7a	-0.106169656
189	0x3d732d80	0.059369564
190	0xbdc5b628	-0.09653884
191	0xbd885fb2	-0.066588774
192	0xbe1bca92	-0.15213993
193	0xbe1b89ca	-0.15189281
194	0xbdd2ca8e	-0.102925405
195	0xbe2f613c	-0.17126936
196	0xbc979c81	-0.018507244
197	0xbd9575cc	-0.072978586
198	0xbdae12be	-0.084996685
199	0xbde50b2d	-0.11183772
200	0x3d671699	0.056418035
201	0x3d8c96e0	0.068647146
202	0xbd1d28c7	-0.038368966
203	0x3d383e6b	0.0449814
204	0x3e1f9547	0.15584289
205	0xbd6542f6	-0.055972062
206	0xbdd0ee6d	-0.10201726
207	0x3dcd367c	0.10020158
208	0xbd34a394	-0.044101313
209	0xbd96601c	-0.0734255
210	0x3dd9d582	0.106364265
211	0x3d47a5e0	0.048742175
212	0xbdf70678	-0.12061781
213	0x3d1c3479	0.03813598
214	0x3d9c5f57	0.07635372
215	0x3e296df4	0.1654585
216	0xbdda084c	-0.10646114
217	0x3db7003e	0.08935593
218	0xbd6a0361	-0.05713213
219	0x3c98b091	0.01863888
220	0xbe2a5d89	-0.16637243
221	0xbe296753	-0.16543321
222	0x3dc08f43	0.09402325
223	0xbb563bab	-0.0032689373
224	0x3d9d17a0	0.07670522
225	0xbde4192b	-0.11137613
226	0x3e02890f	0.12747596
227	0xbd90e86e	-0.070755824
228	0xbde74240	-0.11291933
229	0x3e19eb77	0.15031229
230	0xbddd3c94	-0.1080257
231	0xbe0b7550	-0.1361897
232	0xbe14f0e1	-0.14545013
233	0x3d955baf	0.07292878
234	0xbc69f6db	-0.014280046
235	0xbc1a4ab6	-0.009417227
236	0x3d3f633a	0.04672549
237	0xbd63319e	-0.05546724
238	0x3cd9ae79	0.026572453
239	0xbdc86168	-0.09784204
240	0xbd39f1b3	-0.045396518
241	0x3dbed5c8	0.09318119
242	0x3cafe2cc	0.02147045
243	0x3df93d7b	0.121699296
244	0x3e28dfc7	0.16491614
245	0x3df58527	0.119882874
246	0xbd982db3	-0.074305914
247	0xbe19cf2f	-0.1502044
248	0xbda3288c	-0.07966718
249	0xbcac25b2	-0.021014068
250	0x3e2022e5	0.15638311
251	0x3c4dc6f8	0.012559645
252	0xbce65b1a	-0.028119612
253	0x3e02dccf	0.12779544
254	0x3d898de4	0.067165166
255	0x3e0bde20	0.13658953

advantage_stream.0.bias f4 [64]
0	0xbdba2447	-0.090889506
1	0xbb65d411	-0.0035069028
2	0x3d54a561	0.05191553
3	0x3d9785f1	0.07398594
4	0x3d193819	0.037407015
5	0x3beb7d9b	0.007186604
6	0xbd0d4ce3	-0.034497153
7	0xbd5fdb3b	-0.054652434
8	0xbb098983	-0.0020986504
9	0x3e79c7a1	0.24392559
10	0x3e831d9a	0.25608522
11	0x3c0b7390	0.008511439
12	0x3ea2bca0	0.31784534
13	0xbd9d4d75	-0.076807894
14	0xbcd64d4e	-0.026159909
15	0x3dbf1c77	0.09331601
16	0x3d92b184	0.07162765
17	0x3dc8cdbd	0.098048665
18	0x3dd4084f	0.10353147
19	0xbd020de0	-0.031751513
20	0xbcd0db09	-0.02549507
21	0xbd87aaa2	-0.066243425
22	0x3df20961	0.11818195
23	0xbd9b1ea9	-0.07574207
24	0xbd7262f9	-0.05917642
25	0xbd4a6035	-0.049408156
26	0xbd2f2944	-0.042763963
27	0xbc39f011	-0.01134874
28	0xbb0271a0	-0.0019904152
29	0x3e08d3a2	0.13361982
30	0x3def6291	0.11688722
31	0x3e0d47af	0.13796876
32	0xbd776106	-0.060395263
33	0xbcbd1eca	-0.02308597
34	0x3db8d07f	0.090241425
35	0x3dab9e70	0.08379829
36	0xbd47f850	-0.048820794
37	0xbdd28b84	-0.10280517
38	0xbcaa477b	-0.020786038
39	0x3da638b7	0.08116286
40	0x3ba460b9	0.005016413
41	0xbd95f5c4	-0.07322267
42	0x3e873634	0.2640854
43	0xbd40d397	-0.047076788
44	0x3da99bf8	0.08281702
45	0x3ddb4944	0.10707334
46	0x3df6e12b	0.12054666
47	0xbd1f8e28	-0.03895393
48	0xba8c598c	-0.0010707839
49	0x3d0b7d45	0.034055013
50	0xbbd8c998	-0.0066158287
51	0xbc9afa90	-0.018918306
52	0x3c8a254d	0.01686349
53	0xbd00ff07	-0.031493213
54	0xbd0e3c69	-0.03472558
55	0xbd9798b8	-0.07402176
56	0xbc10d105	-0.008838897
57	0xbba27996	-0.004958342
58	0xbca578ba	-0.020199168
59	0x3dd45d95	0.10369412
60	0x3dbd1c3d	0.09233902
61	0xbd9770af	-0.073945396
62	0xbd017f45	-0.031615514
63	0xbd44c458	-0.04803881

advantage_stream.2.weight f4 [2, 64]
0	0x3e7e7e4a	0.24852863
1	0x3d846947	0.064653926
2	0x3e8c2640	0.27372932
3	0x3f19a7d2	0.600217
4	0xbebde812	-0.37091118
5	0xbed6b372	-0.4193378
6	0xbe4f3800	-0.20236206
7	0x3e3aaeea	0.18230787
8	0x3e8fecb1	0.2811027
9	0x3f792979	0.9732891
10	0x3f59e2d4	0.8511174
11	0x3d9f8d9c	0.07790682
12	0xbf1c816e	-0.61134994
13	0x3c5738c4	0.013136093
14	0xbc8d7340	-0.01726687
15	0x3e9f654e	0.31131977
16	0x3aa98cd1	0.0012935643
17	0x3e5d61be	0.21619317
18	0x3e270742	0.16311362
19	0xbe835209	-0.25648525
20	0xbe2d8e53	-0.16948824
21	0xbdc255df	-0.09489035
22	0x3f8c023e	1.0938184
23	0x3e00e798	0.12588346
24	0xbe495f5e	-0.19665286
25	0x3dacaddd	0.08431599
26	0x3e2a41de	0.16626689
27	0x3ddd0e65	0.10793761
28	0xbe5f69ce	-0.21817705
29	0xbfa81ee4	-1.3134427
30	0x3e7aae42	0.24480537
31	0x3ef2b790	0.47405672
32	0x3dc0aa86	0.09407525
33	0x3dbe5d5f	0.09295153
34	0xbd21453d	-0.03937267
35	0xbf65ba79	-0.8973766
36	0x3edcdc61	0.43136886
37	0x3e599abc	0.21250433
38	0x3e436546	0.19081602
39	0x3f6ec5e5	0.93270713
40	0xbda0af71	-0.07845963
41	0x3e2097d6	0.15682921
42	0x3f695fc6	0.91161764
43	0x3f3aefe9	0.73022324
44	0x3f1c7ecb	0.6113097
45	0x3f130229	0.5742517
46	0xbf92c0dd	-1.1465107
47	0xbe5de9b2	-0.21671179
48	0x3def3da5	0.1168168
49	0x3e87136b	0.26382002
50	0xbeee3954	-0.46528113
51	0xbe83cbb3	-0.25741348
52	0xbd4d1352	-0.050067253
53	0x3e3026d5	0.17202313
54	0xbe9f3277	-0.3109319
55	0xbd206898	-0.03916225
56	0x3d3107a5	0.04322018
57	0x3c909a87	0.01765181
58	0x3d1c0fae	0.03810089
59	0x3df21f05	0.11822323
60	0x3cc59bd8	0.024122164
61	0x3e20426b	0.15650336
62	0x3f5cefbc	0.86303306
63	0xbceecd73	-0.0291507
64	0x3e8a9068	0.27063298
65	0xbe820fb1	-0.25402597
66	0xbe7da382	-0.24769405
67	0xbf553b42	-0.83293545
68	0x3ea79bec	0.32736146
69	0x3eb8da9e	0.36104292
70	0xbe1a90c3	-0.15094285
71	0x3e05a369	0.13050617
72	0x3b9e5e5a	0.004833025
73	0xbf6e55af	-0.9309949
74	0xbf5efa74	-0.8710091
75	0xbde043c0	-0.10950422
76	0x3f6541ea	0.895537
77	0x3ca805a1	0.020510497
78	0xbbadc054	-0.0053024683
79	0xbe918f46	-0.2842962
80	0xbdcd8295	-0.10034672
81	0xbe91f8ba	-0.28510076
82	0xbeaae765	-0.33379665
83	0x3e626740	0.22109699
84	0xbe30bfe3	-0.17260699
85	0x3d4ba043	0.049713384
86	0xbf64ecad	-0.8942364
87	0xbe43bb1f	-0.1911435
88	0x3e12ee7b	0.14348786
89	0x3dd840a3	0.105592035
90	0x3de460db	0.11151286
91	0x3df5d923	0.12004306
92	0x3e86b8de	0.26312917
93	0x3fb3c8b0	1.404562
94	0xbe710ec8	-0.23540795
95	0xbea8d6f6	-0.32976502
96	0x3e1ed2c6	0.15510091
97	0x3e248dfe	0.1606979
98	0xbeb10afe	-0.345787
99	0x3f81361d	1.0094639
100	0xbf009b3f	-0.50236887
101	0x3e822e30	0.25425863
102	0xbe11d5a4	-0.14241654
103	0xbf4d1f2d	-0.80125695
104	0x3eaa6d83	0.33286676
105	0x3e88a195	0.26685777
106	0xbf55bb22	-0.83488667
107	0xbec5480c	-0.3853153
108	0xbf16d05d	-0.5891169
109	0xbf843736	-1.0329349
110	0x3fadc74b	1.3576444
111	0xbcf451e1	-0.0298242
112	0xbe7ab28e	-0.24482176
113	0xbf11e570	-0.5699072
114	0xbd35e70d	-0.0444098
115	0x3e2a7ff9	0.1665038
116	0x3ee20099	0.4414108
117	0x3e7715f9	0.24129476
118	0xbe8f787e	-0.28021616
119	0xbdae9389	-0.08524234
120	0x3ed10833	0.40826568
121	0xbe8788e6	-0.26471633
122	0x3b3f13a7	0.0029156
123	0xbe5a788c	-0.21335047
124	0xbe36eb03	-0.17863087
125	0xbe12a909	-0.14322294
126	0xbf0c50f6	-0.54811037
127	0xbdd53d76	-0.10412113

advantage_stream.2.bias f4 [2]
0	0xbd1116fb	-0.035422307
1	0x3d1116fb	0.035422307

exp_avg f4 [128, 4]
0	0x3b29e1b8	0.0025921892
1	0x3b88e4ce	0.0041776663
2	0x3a0074d9	0.0004900224
3	0xba037926	-0.0005015306
4	0x3a89e6af	0.001052102
5	0x3af33aa0	0.00185569
6	0xba028081	-0.0004978255
7	0xbac87e00	-0.001529634
8	0x3b12de99	0.002241051
9	0x3ba3b92e	0.0049964404
10	0x38270bc7	3.982687e-05
11	0xbb3c446c	-0.0028727306
12	0xbcc3035a	-0.02380531
13	0xbd1fa86f	-0.03897899
14	0xba731180	-0.0009272322
15	0x3c4b0b12	0.012392776
16	0xbbe37e01	-0.006942511
17	0xbbaa4022	-0.0051956335
18	0xb9e80a20	-0.00044258032
19	0xbb3b768a	-0.002860459
20	0xba248972	-0.00062765845
21	0xbb665f46	-0.0035152002
22	0xba45c47c	-0.0007544232
23	0x396e0808	0.0002270044
24	0xbbf30b6e	-0.007417134
25	0xbc33440f	-0.010941519
26	0xb97e036e	-0.00024224605
27	0x3b2fc2f2	0.0026819077
28	0xbc8bfb5f	-0.017087637
29	0xbcecd6f7	-0.028911097
30	0xba41a4be	-0.0007386914
31	0x3c1fdb92	0.0097569395
32	0x39c3a304	0.00037314754
33	0xb807de90	-3.2393786e-05
34	0xb700ca82	-7.676545e-06
35	0x35cb60d0	1.5152855e-06
36	0x39ccb904	0.0003904776
37	0x3b13d9bc	0.00225602
38	0x39c482ae	0.00037481397
39	0xb90d2ddc	-0.00013463892
40	0xb52051d1	-5.9723703e-07
41	0xb664aa99	-3.4073948e-06
42	0xb3e19de7	-1.0506101e-07
43	0x362eaf02	2.6029888e-06
44	0x3a61967e	0.0008605494
45	0x3aa92e41	0.0012907461
46	0x3905085b	0.00012686981
47	0x3886c06a	6.425458e-05
48	0xbb3abbf7	-0.0028493383
49	0xbb856d61	-0.004071877
50	0xba87334f	-0.0010314974
51	0xbb02e292	-0.0019971472
52	0x3aa7de26	0.0012807294
53	0x3b5c3559	0.0033601134
54	0x3a1b6e39	0.0005929205
55	0xb9f7d143	-0.00047267423
56	0x00000004	6e-45
57	0x00000004	6e-45
58	0x00000004	6e-45
59	0x80000004	-6e-45
60	0x3a0effc2	0.0005454981
61	0x39936a1a	0.00028117077
62	0x382c12fd	4.102568e-05
63	0x39fe6b16	0.0004852644
64	0xbcc7d4d1	-0.024393471
65	0xbd1f6294	-0.03891237
66	0xba9705c6	-0.0011522106
67	0x3c39358f	0.011304273
68	0x80000004	-6e-45
69	0x00000004	6e-45
70	0x80000004	-6e-45
71	0x80000004	-6e-45
72	0xbc779495	-0.015111108
73	0xbc54143c	-0.012944277
74	0xb8d04600	-9.9312514e-05
75	0xb9fd8de0	-0.00048361626
76	0xbc59b9c5	-0.01328892
77	0xbc90bab9	-0.017667161
78	0x3a05d90e	0.0005105891
79	0x3bcb71db	0.006208641
80	0x3c55577c	0.013021346
81	0x3c715e06	0.01473189
82	0xbb225f33	-0.0024775981
83	0xbb520edd	-0.0032052316
84	0x3a27d20a	0.00064018427
85	0x3ac3053e	0.0014878882
86	0xb8bef8a4	-9.106219e-05
87	0xbaa97ab6	-0.0012930247
88	0x3a6ed0c2	0.0009110087
89	0x3b9dacf2	0.0048118765
90	0x397e7f8a	0.0002427084
91	0xbb2998bb	-0.0025878388
92	0xbb9c366d	-0.0047672302
93	0xbb94dec4	-0.0045431573
94	0x396ae0f9	0.00022399788
95	0x39f6b08f	0.00047052323
96	0x3daa2630	0.08308065
97	0x3d9ef76d	0.077620365
98	0x3b2f8514	0.0026782202
99	0xbc11a143	-0.008888545
100	0xba0ac05c	-0.0005292946
101	0xba148ede	-0.0005667041
102	0xb99d6fd4	-0.00030028692
103	0xba9bc8bc	-0.0011885385
104	0xbbc5eb81	-0.006040037
105	0xbb9f125a	-0.0048544826
106	0xb91d5ece	-0.00015008004
107	0xbabd45fb	-0.0014440411
108	0xb1633c72	-3.3067207e-09
109	0x30ea4464	1.7045179e-09
110	0x2f5cf6e7	2.0096601e-10
111	0x30cbe240	1.4834498e-09
112	0x3b07927e	0.0020686681
113	0x3b0449bf	0.0020185558
114	0xb9c127d4	-0.00036841503
115	0x391b6725	0.00014820376
116	0x00000004	6e-45
117	0x00000004	6e-45
118	0x00000004	6e-45
119	0x80000004	-6e-45
120	0x386e497d	5.6812063e-05
121	0x39b885ea	0.0003519499
122	0xb888c2d9	-6.5212786e-05
123	0xba48d1f3	-0.00076606794
124	0xbc053c3d	-0.008132038
125	0xbbc74f2a	-0.006082435
126	0xba4b86f1	-0.0007763943
127	0xbba15daf	-0.004924498
128	0x00000004	6e-45
129	0x00000004	6e-45
130	0x80000004	-6e-45
131	0x80000004	-6e-45
132	0x00000004	6e-45
133	0x00000004	6e-45
134	0x80000004	-6e-45
135	0x80000004	-6e-45
136	0x3c692810	0.014230743
137	0x3c8280ca	0.015930552
138	0x3967d5f1	0.00022109576
139	0xbba02b30	-0.004887961
140	0x00000004	6e-45
141	0x00000004	6e-45
142	0x80000004	-6e-45
143	0x00000004	6e-45
144	0x3b3c3efa	0.002872406
145	0x3b825a2d	0.003978035
146	0x39d7d9ca	0.0004117026
147	0x380641b6	3.2009288e-05
148	0xbba05086	-0.0048924116
149	0xbba248fa	-0.004952547
150	0xb9c66335	-0.00037839418
151	0xbaa94cb1	-0.0012916533
152	0xbbeb6cde	-0.007184609
153	0xbb745cc2	-0.0037286733
154	0xb9bfd264	-0.00036587112
155	0xbb900fa5	-0.004396396
156	0x3ab5d312	0.0013872108
157	0x3b59b228	0.0033217762
158	0x3a92a3ee	0.0011187771
159	0x3b4b56d7	0.0031027102
160	0xb961eae8	-0.00021545182
161	0xb887df30	-6.4788735e-05
162	0x372fe38c	1.0483793e-05
163	0x386eb841	5.691522e-05
164	0xbace173d	-0.0015723478
165	0xbb2a580a	-0.0025992417
166	0xba09d79b	-0.0005258263
167	0xb8b18f30	-8.4666885e-05
168	0x3cd2e9b3	0.025746202
169	0x3cefc85d	0.029270345
170	0x3a4e06f8	0.0007859315
171	0xbb3f1f28	-0.0029162858
172	0x00000004	6e-45
173	0x80000004	-6e-45
174	0x00000004	6e-45
175	0x00000004	6e-45
176	0x3ba10551	0.004913964
177	0x3ba0a2cf	0.004902221
178	0xb6480050	-2.9802504e-06
179	0xba879776	-0.0010344821
180	0x3b5016be	0.0031751837
181	0x3b22e654	0.0024856525
182	0xb9f40cd9	-0.0004654888
183	0xba96370b	-0.0011460496
184	0x3c065e5f	0.008201211
185	0x3be2fd67	0.0069271806
186	0x39d69c66	0.00040933787
187	0xbaad864d	-0.0013238877
188	0x3a122958	0.00055756187
189	0xba67a29d	-0.0008836182
190	0xb9cb4c8c	-0.0003877621
191	0xb9610e25	-0.00021462941
192	0x3a8675db	0.0010258512
193	0x3c6bd16b	0.014393191
194	0x3abbbce1	0.0014323258
195	0xbbd5c253	-0.0065234094
196	0x3c476a74	0.0121713765
197	0x3d0d49fd	0.03449439
198	0xb9edc100	-0.0004534796
199	0xbcc96628	-0.024584845
200	0xba940b65	-0.00112949
201	0x3a1b1024	0.0005915186
202	0xb93263c4	-0.00017012568
203	0xbb216c7f	-0.002463132
204	0x00000004	6e-45
205	0x00000004	6e-45
206	0x80000004	-6e-45
207	0x80000004	-6e-45
208	0x38f04f63	0.00011458879
209	0xba374fd5	-0.0006992792
210	0x383cd26c	4.5018664e-05
211	0x3ad4f165	0.0016246258
212	0xbab9da6f	-0.0014179478
213	0xbb0146cc	-0.0019726036
214	0xb897afda	-7.232996e-05
215	0x3991a49d	0.00027779202
216	0x3abcba65	0.0014398812
217	0x3acd484b	0.0015661804
218	0xb810e5d1	-3.454631e-05
219	0xb9c75b13	-0.00038024093
220	0x39ba6b60	0.00035556685
221	0x399c7588	0.00029842206
222	0xb96b96fa	-0.0002246759
223	0xba86879c	-0.0010263803
224	0x3b2fd0e9	0.00268274
225	0x3b22130a	0.0024730586
226	0xb790e6b4	-1.7273567e-05
227	0xb9c8b513	-0.00038281883
228	0x3a66f468	0.0008810223
229	0x3a2c64ff	0.0006576329
230	0xb8b8d1ef	-8.812907e-05
231	0xba052fda	-0.0005080678
232	0x3bd0b51f	0.0063692476
233	0x3c5321e5	0.012886499
234	0x3a13af16	0.0005633695
235	0xbab42da5	-0.0013746513
236	0xb8174c40	-3.607222e-05
237	0xba90d8ec	-0.0011050976
238	0x3926d5b2	0.00015910601
239	0x3a81d9c5	0.0009906819
240	0x3c8102d6	0.015748423
241	0x3d1bdfb8	0.03805515
242	0x3a36236c	0.00069480273
243	0xbcb2686a	-0.021778304
244	0xbb251dd9	-0.0025194793
245	0xba989aa8	-0.0011642771
246	0x37e0db20	2.6804919e-05
247	0xba8e2ef8	-0.0010847738
248	0xbbc7cc2e	-0.006097338
249	0xbb9002ef	-0.004394881
250	0x39444ea0	0.00018721307
251	0xb8b2c340	-8.5240696e-05
252	0x80000004	-6e-45
253	0x80000004	-6e-45
254	0x80000004	-6e-45
255	0x80000004	-6e-45
