CartPoleHighRewardIn2026/checkpoints/checkpoint_ep750_reward500.00.pt (torch, 421217 bytes, 33 tensors)

feature_layer.0.weight f4 [128, 4]
00000000: 7b75 46bd 9e35 f53c f0e9 08bf d185 4c3d
00000010: 9cb0 beba 6a7c 4b3e 52c8 2c3f 4d73 9f3d
00000020: 1834 98bd 4de9 013d 901b abbf cafa 1ebe
00000030: 7d42 623c 4f6b 26bd 50d1 ea3e c0e5 ffbc
00000040: d7e3 ae3c d680 a9bc d5d7 423f 321c 87bb
00000050: 04e9 4fbc 8517 85bb d22b 8abe 1129 2ebd
00000060: 36e2 87bc 4b2e b43c 4a16 94bc d25e 4b3b
00000070: a40a 25bd acb1 883d 19a6 cebe 013d bc3d
00000080: d68d d7bb 0ae6 0d3c 0175 ff3e 2e2f 10bc
00000090: b9a9 c23d 6960 b4bd e2d2 f5be bcee 20be
000000a0: 2d54 453c de34 9ebc 497b 8cbf 6e42 47be
000000b0: 0761 81bd 7917 6a3d adb7 f43e 7cf8 293c
000000c0: f06c 30bc 9e34 b4bc b30f 553e 3b13 cbbc
000000d0: 8877 bcbd 5d79 923d bbe7 13bf 5352 253d
000000e0: 252a 8d3a 0271 86bb 3d67 13be a547 98bb
000000f0: a3ba 1ebd 0b27 7fbd a0be 493f 7720 7ebe
00000100: 5496 c93b 604c 15bb de9a 0c3f 61ba 8b3d
00000110: e9c1 82be 3f8b 093d 1c43 98bd 6cfd 103d
00000120: a25c ba3a cad5 0b3c dc9e aabf 741c 82bd
00000130: 8fd6 6d3c 997b eebd 6716 243f b7a6 2fbe
00000140: c083 14bc e259 8f3b 6b18 a4bf 4fdb 3dbe
00000150: 17e3 52bc 7b45 00bd b7c3 0c3f 3766 bc3e
00000160: 1499 793e 8a79 163d 1295 9abd f903 d6bc
00000170: 4564 a23c fa4e 15bd 9090 113f 9f77 83bd
00000180: 41be 34bc 5d4a c8bb a9eb ad3f 37c7 263e
00000190: 55b2 23bd cb71 673d e056 d33c 01c5 9f3d
000001a0: dab3 b13b 7973 34bb b173 e53d a7f7 d33b
000001b0: ac31 5dbd c1d3 bc3d 9d3f f43c f296 c93d
000001c0: f1ed 4a3e 82fe 2d3e 1c0c 623f 5f1f 633e
000001d0: 6808 0abd 6ed4 f23c 7009 f5be 6820 133d
000001e0: 2a6c 1c3e 60f4 0fbe f0a5 1a3d 5342 76bd
000001f0: 6438 0ebc 0549 ef3b dae1 ad3f c05e 323e
00000200: df25 163c c23d 343c 211d 3c3f 8ab8 abbe
00000210: 7097 bfbb 36a6 553c 5512 34be b505 dabb
00000220: 0045 d5bb bba5 1bbd 4ead 87bf 7952 33be
00000230: a00a fb3c 4331 24bd 81fe d43e 1d18 93bc
00000240: c7c6 96bd c179 793d 814f 8c3f e0af cfbd
00000250: 379d b7bd ee22 59bd b079 123f 9100 15bc
00000260: e305 853d aef6 0cbc 106d 9b3f 4e3b 9c3d
00000270: 13a1 52bd 6a76 1cbc 9e49 883f b3a3 cdbe
00000280: 6533 833d 115c c0bd 651b 623f df32 f1bd
00000290: 8f13 1d3e 19e6 203e 7f3b 563f a266 583e
000002a0: e94a 12be 7225 e13d c0e3 a8be dc91 73be
000002b0: 1713 09bd 30dc c93c 49d0 313a 6174 f13c
000002c0: 5a0c 84be 72d6 0b3d e7d6 cdbd 4283 a83e
000002d0: ffeb 7bbc 56ea cabc d1f6 1dbe 96b7 79bd
000002e0: 8178 ad3d c4b8 b8bd 4eb2 ab3e d58d 1fbd
000002f0: 47de 373d 47a1 6cbd 3078 aa3e e031 e5bd
00000300: 7e11 c5bd 856b 533d 944b 54bf ba56 9c3d
00000310: ea0b a03b 5861 0739 1e20 c0bf 685d 3abe
00000320: 77ed 493d 2289 8cbd 9e7a 633e bdfc af3d
00000330: 5e7d 993b 5cba 373b 02c7 debd a025 0bbc
00000340: 1fbb 8b3e f61c 3e3e 7fef 0d3f be0c 203e
00000350: 40af 8d3b 0036 5bbd fffc d73e a7e0 9cbd
00000360: a072 143d 749f 7fbd 9528 d8bc 7218 8bbd
00000370: b322 6fba 8501 6dbb 1e87 b03f fa54 0b3e
00000380: e0c2 c7bc 81b0 5f3c 85eb c73e f473 943e
00000390: bcc5 89bd 66fd ed3d b761 23bf 87ca 0e3d
000003a0: 7728 093c 7d0d 70bc fd40 b2bf 5e86 68be
000003b0: f13b 0cbc 41af f539 b62a 343f e63a b1bd
000003c0: b77d feb9 e20a 01ba 94d6 b4bf 07c8 2fbe
000003d0: e832 d0bb bce3 9f3b 51bb 8d3f b4bc f63b
000003e0: cb39 a93b bdd2 213c f8e4 9e3f f2f7 5e39
000003f0: 0ad6 65bc 3522 773c a1e4 a43f c954 333e
-0.04845188 0.029932793 -0.5348196 0.049932305 -0.0014548483 0.19871679 0.67493165 0.07785664
-0.07431811 0.031716634 -1.3367786 -0.15525356 0.013809797 -0.04062968 0.45862818 -0.031237483
0.021348877 -0.020691317 0.76110584 -0.004123234 -0.012689833 -0.0040616416 -0.26986557 -0.042519633
-0.016587358 0.02199473 -0.018077035 0.003103186 -0.04029335 0.06674513 -0.40361097 0.09191323
-0.0065781875 0.008660803 0.49893954 -0.008800311 0.09505028 -0.08807451 -0.48012453 -0.1571607
0.012043995 -0.019312318 -1.0975124 -0.19458935 -0.063173346 0.05715129 0.47796384 0.010374185
-0.01076816 -0.021997746 0.2080677 -0.024789443 -0.09202486 0.071520545 -0.5777547 0.040361714
0.0010770006 -0.004102827 -0.14394851 -0.0046472126 -0.03875221 -0.062293094 0.78806496 -0.24817072
0.0061519537 -0.0022781119 0.5492381 0.06822658 -0.25538567 0.03358006 -0.07434675 0.035397932
0.001421828 0.008534858 -1.332973 -0.06353083 0.014516487 -0.11644668 0.64096683 -0.1715344
-0.009064615 0.0043747285 -1.2819952 -0.18540691 -0.012871525 -0.03131626 0.5498614 0.36796734
0.24374801 0.036737002 -0.07547964 -0.026124941 0.019823203 -0.03645227 0.5686121 -0.064193
-0.011031688 -0.0061123804 1.3587543 0.16286932 -0.039964993 0.056505006 0.025798261 0.078012474
0.0054230513 -0.0027534647 0.11203707 0.0064687314 -0.05400245 0.09220076 0.02981549 0.09843244
0.1981733 0.16991618 0.8829973 0.22179936 -0.033699423 0.02964231 -0.47858763 0.035919577
0.15275636 -0.14058065 0.037755907 -0.060121845 -0.008680437 0.007302406 1.358455 0.17418957
0.009164303 0.011001052 0.7348195 -0.3353923 -0.00584691 0.013040116 -0.17585118 -0.0066535124
-0.0065084696 -0.03799985 -1.0599763 -0.1751193 0.030644715 -0.040086042 0.4160042 -0.017955834
-0.073621325 0.06090713 1.0961763 -0.10140967 -0.08965533 -0.053011827 0.5721693 -0.009094373
0.064952634 -0.008603735 1.2142658 0.07628499 -0.051423144 -0.0095497165 1.0647466 -0.40163955
0.06406287 -0.0939256 0.8832305 -0.11777281 0.15339492 0.15712775 0.83684534 0.21132901
-0.14286388 0.1099347 -0.3298626 -0.2378611 -0.03346547 0.024641126 0.0006783051 0.02947444
-0.25790673 0.034140058 -0.10050755 0.32912642 -0.01537609 -0.024769943 -0.15426184 -0.060966097
0.0847025 -0.09019616 0.33534473 -0.03895362 0.044889715 -0.057770994 0.3329482 -0.111911535
-0.09622477 0.05161621 -0.82927823 0.07633729 0.0048842328 0.00012910867 -1.5009801 -0.18199694
0.04929873 -0.068620935 0.22214743 0.08593128 0.0046841344 0.0028034663 -0.108778015 -0.008492857
0.272912 0.18565735 0.5544357 0.15629861 0.00432387 -0.053518295 0.42185208 -0.076600365
0.036242127 -0.062407926 -0.026386539 -0.06791772 -0.0009122297 -0.0036164236 1.3791234 0.13606635
-0.024384916 0.013652922 0.39046875 0.28994715 -0.06727168 0.116205975 -0.63820976 0.034861114
0.008371464 -0.014651653 -1.3926083 -0.22707507 -0.008559213 0.00046860616 0.7037767 -0.08653812
-0.0004854032 -0.0004922581 -1.4127984 -0.17166148 -0.0063537247 0.004879443 1.107279 0.0075298194
0.00516436 0.009876904 1.2413626 0.00021263937 -0.014028082 0.015083839 1.2882272 0.17512812

feature_layer.0.bias f4 [128]
00000000: cc28 49be eff4 b0be f4d1 a7bd 2ae2 263e
00000010: bcee 53be a756 25be c7d5 c7bd 707f 36be
00000020: 3c7f 00be 5486 933e 1c93 babe c92d 91be
00000030: ea58 cdbd 47ba 913d 3f4f 2dbd d7e4 133c
00000040: 1f23 8b3e 768a 77bd dfce 83be a4f0 edbc
00000050: 4329 8fbe 3d3d f1be 6b2a 10bf dcdd 2abe
00000060: 95c0 84be caa4 84be e33e f9bd fa3c 86be
00000070: b7c8 07bf a020 34be 6d9b f6be bfc6 90be
00000080: 87a2 5c3d 925a eabd 93af 73be 2e57 20be
00000090: 287f febd 05cb ba3d b3ae 3ebe 9474 81be
000000a0: c51b a3be fe8d cebe 8035 0fbf 58fa 00be
000000b0: bb93 d5be 7fe5 2bbe 0f09 abbe e92c 7fbe
000000c0: 7c55 3a3e 5ab6 9abe 55f2 eabe 8d79 59bd
000000d0: f9d7 21bf 5055 6ebe edb8 e5bd 8af3 8dbe
000000e0: cd00 babe 07c5 9b3d 9347 aabe b701 6dbe
000000f0: d6df 9abe b1e7 7bbe 049a 51be c1bc 84be
00000100: 8ef5 87be cfff ab3d dbd5 a1be 5506 65be
00000110: 2b2a 3fbe e7a3 e53d 1495 8fbe 6c18 1dbe
00000120: 152a 91be 5c95 05be e7a5 5fbe b2f5 85be
00000130: b4b9 87be 8070 aebe c03b 04bf 25e7 56be
00000140: ee0a 93be 6468 38be 7a71 d9bd 7318 6cbe
00000150: 305f 6cbe 28cf 1fbd 4a5b 54bf 1f9a c8bd
00000160: 3e42 2fbe b4be 46be 4f72 c3be a3ec 2ebe
00000170: d332 24bf 2a12 51bd 0259 e2be 5224 adbe
00000180: 5404 abbe dcbd 87be 621b 6bbe 3222 7fbe
00000190: e35c 80be f0a6 57bd 0537 80be 0072 08bd
000001a0: 5786 dabd b157 19be aceb 9ebe ce2b 95be
000001b0: 2608 9abe 6a0d e8bd 0f8e 3bbe 13db b1be
000001c0: 161f 88be 8a17 8bbe 6956 913e f1b2 38be
000001d0: da14 a6be 16fb 7ebe 6a72 fc3d 419c 3bbe
000001e0: 2b69 00bf fb28 85be fd00 1fbf 859a c7be
000001f0: 8f3f 65be 0c13 cfbe 73b0 8bbe 3ac6 84be
-0.19644469 -0.3456187 -0.08194342 0.16297212 -0.20696539 -0.16146336 -0.09757572 -0.17822051
-0.12548536 0.28813422 -0.3644036 -0.28355244 -0.10026725 0.07115608 -0.042311903 0.009026728
0.27175233 -0.06043478 -0.25743768 -0.02904541 -0.27961168 -0.47117034 -0.56314725 -0.16686195
-0.25928178 -0.25906974 -0.12170198 -0.26218396 -0.5304064 -0.1759057 -0.48165455 -0.2827663
0.053865936 -0.11443056 -0.23797445 -0.15658256 -0.12426597 0.09120754 -0.1862133 -0.25284255
-0.31857124 -0.40342706 -0.5594101 -0.12595499 -0.41714272 -0.16786765 -0.3340535 -0.24919476
0.18196672 -0.30217248 -0.4588801 -0.053094435 -0.63220173 -0.23274732 -0.112169124 -0.27724868
-0.36328736 0.07605939 -0.33257732 -0.23145185 -0.30248898 -0.24600102 -0.20468909 -0.25925258
-0.2655453 0.08398401 -0.3160847 -0.22365697 -0.1866843 0.112129025 -0.28043425 -0.15341347
-0.2835242 -0.13045257 -0.2184063 -0.26164013 -0.26508868 -0.34070206 -0.5165367 -0.20986612
-0.28719276 -0.18008572 -0.10617347 -0.23056202 -0.23083186 -0.03901592 -0.82951796 -0.09795021
-0.17115113 -0.19408685 -0.38173148 -0.17082457 -0.6414005 -0.051042713 -0.44208533 -0.33816773
-0.3340174 -0.2651204 -0.22959664 -0.24915388 -0.25070867 -0.05264944 -0.25041977 -0.033311844
-0.106701545 -0.14974858 -0.31039178 -0.29134983 -0.30084342 -0.113306835 -0.1831591 -0.34737453
-0.26586217 -0.27166396 0.28386238 -0.1803701 -0.32437783 -0.24900469 0.1232651 -0.18321325
-0.50160474 -0.26007828 -0.62110883 -0.38985077 -0.22387527 -0.4044422 -0.27283058 -0.25932485

feature_layer.2.weight f4 [128, 128]
00000000: b9ab 6e3d 1bb2 1a3e 5a98 cf3d c54b 8b3e
00000010: 7773 293e bf3c 09bd 4b40 4b3d 897d b7bd
00000020: ca44 363d eb33 dd3c 349e dfbf 08cc 4d3d
00000030: d6ec 543d e00e 0abe 6c5c 023e e6e8 7a3c
00000040: c3cf 983e 4386 14be 3a2b c1bf a00c 8f3e
00000050: 13c5 54c0 6158 a23e 4a37 2fbd 01e8 153e
00000060: f82a c83e 47dd 81bd 0e56 e23d 4937 73bd
00000070: 9dd6 263e 2e55 3abe 7073 cf3d e25e 133f
00000080: e41a 293e 87be 163c 126c 11be 90c2 aa3d
00000090: 4233 a43e 87b7 cabc 8dc8 ce3a 464d cabe
000000a0: ea77 ffbd bd72 ad3e d424 26be 63e6 053e
000000b0: 3107 c63e c3b2 0a3e c59a cbbc d674 d7bd
000000c0: 4a9c 0ebd 4406 89c0 4741 263e 2ab1 ff3d
000000d0: 860a 96be 8a2f 47be ea44 0d3c eddd 5b3e
000000e0: 192e b93e 29b9 013d e6bd 2dc0 3449 603e
000000f0: e24a 82c0 bf08 8c3e 612f 683f 3005 1a3e
00000100: 21f4 6f3f 5824 70bc 4953 84bd 7065 6f3d
00000110: 8f87 a83e d31d 6d3e 99ad fe3e 2a07 423e
00000120: 4848 34be 3d03 4fbd c6cf e13d d5ed 593f
00000130: 6119 a43f 295f b0bd 01bd b23d 2b35 02bd
00000140: 2840 9d3c a7e0 82bc 94ea aabd 40c2 8b3d
00000150: 9132 6bbd 2bf5 6a3d 3f70 d5be 2152 2dbd
00000160: a3cb 87bb 0003 c43a 11af 56bd ebd8 f7bb
00000170: 5049 6abf 96d4 02bc dbdd 1d3e f103 adbd
00000180: fece b33e 4f3e d83c 2573 adbe 30f1 d93e
00000190: 5240 283d 2086 c0bd dccf 3d3f 547d 653e
000001a0: d605 b83d aedf 1e3f dd32 893f f305 87c0
000001b0: e6b0 453f 7919 e93b c5a7 b73d b231 6d3d
000001c0: 17d0 af3d 6325 bdbf 5060 273e d9d1 e73d
000001d0: 43cf aa3d 6952 20bd 5413 d53d dc7c 913b
000001e0: b7d3 1cbe 56df 8a3e 0617 743e 49cd 06bf
000001f0: 6996 c93d 6b8a ba3e 7393 633e 1781 95bf
00000200: bb52 9fbb 0a31 aabd 0bd9 ac3d 0d2d 34be
00000210: a804 853c 8f25 a2bd 6086 463d 5355 4bbd
00000220: 0635 acbc e075 033d b810 bc3b 1440 1abe
00000230: 10c4 c8bc 7155 583d 9fb6 f03d 91cc 7ebd
00000240: e4d2 e0bc 4d56 793d d6de 023e c881 18be
00000250: c4a9 40bd 2c3b 5f3d 95cd 0cbe b533 aebc
00000260: 1803 553d e69d 3cbd 4010 81be 5291 6dbe
00000270: 6727 cabd 90ce f6bd 54c8 983d 2344 91bd
00000280: ee9f eebc e8fc 763d 17ec 0c3e 07b0 0fbe
00000290: 01cb cabd fe4d 87bd aac1 92bd 5031 df3a
000002a0: 2362 bbbc 7c97 0abe 83ef 35bd e1ec 23bd
000002b0: 2e15 8e3d dde3 773e 91e5 04be 5ab1 ca3d
000002c0: 8c5f 18be 63d5 ddbc 9cdf 483c 3f54 5e3d
000002d0: 5574 4c3d dfa8 6bbe aa9e e1bc 9976 42be
000002e0: cdab 063e 35fc c93d 0d00 11be 33c5 933c
000002f0: a177 c03d 2017 1dbe 51dd c2bc c242 35be
00000300: 26ae 13be 245f b5bd ac22 80bd d7a5 47be
00000310: c19f 163c c306 a03d 7188 51bc ac0c 35bc
00000320: 7c53 42be 9744 91bd a94e 123e f09d 21bd
00000330: aa3c d13d 8314 5b3d 375a d03d fcc4 40be
00000340: 746e 97bd 857c 92bd 851d 86bd c31b 02bd
00000350: ae21 97bc 886e 48be d089 113c 8e3b 24be
00000360: 9fcb aabd 187d 493d 6544 4d3d 1e74 a53d
00000370: ad5b 563d 904d 7cbe fbd5 9e3d 7282 7dbd
00000380: b688 a4bc 4eed ce3d 5089 f13d fd92 9a3d
00000390: cdc3 32bd bc0e f63d 4d81 69be 17cf 1abe
000003a0: 9d94 a53c e0a6 1b3e 8054 ea3c 844d 37be
000003b0: c08f 8a3c 6a40 e0bd 1b83 033d 1062 02be
000003c0: 7d34 bfbd 49ad 5dbd d24e 50bd 5d2f ec3b
000003d0: e0e9 bebc d9eb 88bd d5da 26bd 3873 cdbd
000003e0: 18b6 91bd c758 cf3d 715d 5e3d 8797 54bd
000003f0: fe87 f1bc 24db 2e3e b2bf b33c e8d8 a43b
0.058269236 0.15107004 0.10136481 0.27206245 0.16547953 -0.033505198 0.04962186 -0.08959491
0.044499196 0.027002295 -1.7470155 0.050243407 0.051983677 -0.13482237 0.12730569 0.015314316
0.2984601 -0.14504342 -1.5091317 0.2793932 -3.3245285 0.31708053 -0.042777337 0.14639284
0.39095283 -0.063410334 0.1105157 -0.059378896 0.16292806 -0.18196556 0.1012944 0.57566655
0.16514164 0.009200699 -0.14201382 0.08337891 0.32070357 -0.024745716 0.0015776322 -0.3951208
-0.12474044 0.338766 -0.16224986 0.13076167 0.38677362 0.13544755 -0.024854073 -0.105203316
-0.034817018 -4.282015 0.16235839 0.12484963 -0.29304904 -0.19451728 0.008622387 0.21471377
0.36167982 0.031670723 -2.7147155 0.21902925 -4.071641 0.27350423 0.90697294 0.15041041
0.93731886 -0.0146571025 -0.06461198 0.058446348 0.32915923 0.23155908 0.4974182 0.18948045
-0.17605698 -0.050540198 0.11025958 0.8512853 1.2820245 -0.086119 0.08727456 -0.031788986
0.019195631 -0.015976263 -0.083455235 0.068241596 -0.05742127 0.057362717 -0.416872 -0.042314652
-0.0041441484 0.0014954507 -0.05241305 -0.0075637004 -0.91518116 -0.007985255 0.15416662 -0.084480174
0.3511886 0.026396899 -0.3387691 0.42566824 0.041076966 -0.09400582 0.74145293 0.2241109
0.08985488 0.6206006 1.0718647 -4.219476 0.7722305 0.0071136323 0.089675464 0.05790872
0.08584612 -1.4777035 0.16345334 0.11319322 0.08340313 -0.039141092 0.10404077 0.004439933
-0.15315138 0.27123517 0.23836908 -0.5265699 0.098431416 0.3643373 0.22224216 -1.168002
-0.004862157 -0.08310135 0.08439835 -0.1759531 0.016237572 -0.0791732 0.048467994 -0.04964192
-0.021021377 0.032094836 0.0057392977 -0.15063506 -0.024507552 0.05281586 0.11753582 -0.06220681
-0.02744431 0.06087332 0.12780318 -0.14893258 -0.0470369 0.05449979 -0.13750298 -0.02126489
0.052004904 -0.04604902 -0.2520771 -0.23199967 -0.09870797 -0.120511174 0.074600846 -0.07093074
-0.029128995 0.060299784 0.13761936 -0.14031993 -0.09902001 -0.06606673 -0.07165845 0.0017028246
-0.022873944 -0.13534349 -0.04441787 -0.040020827 0.069376335 0.24208017 -0.12978198 0.098971084
-0.14880198 -0.02707929 0.012260344 0.054279562 0.04991563 -0.23013638 -0.027541477 -0.18990554
0.13151474 0.09862558 -0.14160176 0.018038368 0.093978174 -0.15340853 -0.023787173 -0.17701247
-0.14421901 -0.08856037 -0.06256613 -0.19496857 0.009193362 0.0781379 -0.012788878 -0.0110503845
-0.1897716 -0.070931606 0.14287819 -0.03945726 0.10216649 0.05348636 0.10173457 -0.18825144
-0.07394114 -0.071526565 -0.06548599 -0.031764757 -0.018448677 -0.19573414 0.008882955 -0.16038343
-0.08339619 0.049191564 0.050114054 0.08078788 0.052333523 -0.24638963 0.07755657 -0.06189198
-0.02008472 0.10103856 0.117937684 0.07547567 -0.04364376 0.12014529 -0.2280323 -0.15118061
0.020212466 0.15200377 0.028604746 -0.17900664 0.016914248 -0.10949786 0.032107454 -0.1273272
-0.09336183 -0.054120336 -0.05085642 0.0072077946 -0.02330488 -0.06685609 -0.04073604 -0.10031742
-0.0711481 0.10124355 0.05428833 -0.05190232 -0.029483791 0.17075783 0.021941993 0.00503074

feature_layer.2.bias f4 [128]
00000000: 18ca ed3e 9952 c9bd ea31 be3e f309 afbc
00000010: 2d1b 3abd 1e26 b03e c80a eb3e 91ce e3bc
00000020: 45f3 d13e 1816 99bd 6dd2 603e 2e38 dbbc
00000030: 63d0 ee3e 84ec afbe 5c4a c7bc afb9 d93e
00000040: 688e b4bc fc04 1a3d df0c 003f d0ff da3e
00000050: 3307 2dbd e890 ca3e 9718 383d 55e3 e83e
00000060: 3c51 e9bd 4fc4 8a3e fca1 eb3e 8677 8abd
00000070: 12e7 68be f4fe 5a3e 19ea e03e 5042 ca3e
00000080: 60c8 87bd fb05 9a3e cb8d fb3e 6c92 003f
00000090: 14af d9bc 1957 cb3e d875 ea3e bb03 87bd
000000a0: a606 89bd bdb8 33bd adb1 82be a823 633e
000000b0: 9f73 e83e 0c05 c03e 2d73 5dbe 0e22 833e
000000c0: 82fb 88bd cb25 56bc 8766 c73e c974 01bd
000000d0: 3fb4 023f a57b 01bd d930 ffbd b3cc 043f
000000e0: 39d0 83bd a7c4 ac3e 5c03 adbd 835f 14bd
000000f0: cda6 cabe b66d a4bd 5c5a 9cbd c3a8 26be
00000100: 4c55 6a3e 54a0 6cbd e3cd ea3c 3747 f83e
00000110: 31dc cb3e 3432 e63e b4a3 5bbe aed3 033f
00000120: 974a 87bd b1eb 1ebd 3085 de3e ffd4 cf3e
00000130: 1ef4 ff3e 9cd6 9a3e 7538 77be 0785 e5bd
00000140: cbff d63e a031 053f 475f 41be 4822 d73e
00000150: 005a 82bd 03fe fd3e 3e87 8abe 1987 dd3e
00000160: a484 fe3e d9f8 8ebd 4d38 fd3e 4dca f13e
00000170: 5f50 a13e eeee c93e 7723 9abd 71c9 c13e
00000180: 6943 2ebd 0524 ce3e 531c 683e 5b4e e03e
00000190: 950b e03e 876b a9bc dadc 50bd 1703 fa3e
000001a0: 55e5 4fbd 9c6d b03e de8e e03e 4fae f03e
000001b0: 4cbd 6bbd 2849 d23e 3f30 1f3c e0c5 b5be
000001c0: 91ed 9bbd 89ac de3e acf3 63bd 9f81 23be
000001d0: 2cb3 3ebd 1bde 053f 872a d03e c8db d53e
000001e0: 072b f03e 0752 e23e 83ed e6be acd7 c13e
000001f0: 3770 92be a8c7 bcbc 860c d73e 68a7 f73e
0.46443248 -0.098302074 0.37147456 -0.021367049 -0.045436073 0.3440408 0.45906663 -0.02780846
0.41005912 -0.07474917 0.21955271 -0.026760187 0.4664336 -0.34360135 -0.02432745 0.42524478
-0.02204056 0.03760241 0.5001964 0.42773294 -0.042243194 0.3956368 0.044945326 0.4548594
-0.11392447 0.27102897 0.46022022 -0.067610785 -0.22744396 0.2138632 0.43928602 0.39503717
-0.066300154 0.30082688 0.49131617 0.5022342 -0.026572742 0.39714888 0.45793033 -0.065925084
-0.06690721 -0.043877352 -0.2552618 0.2218157 0.45400712 0.3750385 -0.21625967 0.2561192
-0.06688596 -0.013070534 0.3894541 -0.031605516 0.51056284 -0.031612057 -0.12460489 0.51874846
-0.064362 0.33743784 -0.084479064 -0.0362239 -0.39580384 -0.08028738 -0.07634422 -0.16275315
0.228841 -0.05777009 0.028662628 0.48491833 0.3981643 0.44960177 -0.21449167 0.5149487
-0.06606024 -0.03879899 0.4346099 0.4059219 0.49990934 0.3024186 -0.2414263 -0.112070136
0.4199203 0.52028847 -0.18884002 0.42018342 -0.063648224 0.49607858 -0.27056307 0.43267134
0.49710572 -0.06981058 0.49457017 0.47224656 0.3150663 0.394401 -0.07526296 0.37849
-0.042544756 0.40261856 0.22667055 0.4380978 0.43758836 -0.020681156 -0.05099187 0.48830482
-0.050755817 0.34458625 0.43859 0.47007987 -0.057553574 0.4107144 0.009716093 -0.3550253
-0.076136716 0.4349101 -0.055652305 -0.15967415 -0.04655759 0.5229203 0.40657446 0.41769242
0.46907827 0.44203207 -0.45103082 0.37859857 -0.28601238 -0.023044422 0.42001742 0.48369908

value_stream.0.weight f4 [64, 128]
00000000: 29ac 2f3e 9484 823d 12e4 143d 91c1 5c3d
00000010: 65d0 663d 41e5 673e cdb7 483e db36 ac3f
00000020: 9136 813e af03 0f3c cab3 763d ba7a 4e3d
00000030: 8d41 d83d 9459 95c0 34b7 21be 35c0 863e
00000040: fa84 053e 6877 fe3d 28ce 053e a1e6 883e
00000050: 2507 183e 637d 323e 5b3d 6cbe 6494 6a3e
00000060: 7d54 4a3d 446f f7bd 085c 0b3e c824 24bd
00000070: 4a89 77bf 8de9 1b3e f7dc 3d3e 447d afbc
00000080: a98d 1b3e 848a 473e d91e 4a3e 628b 923e
00000090: fc74 3abe 0ee3 88bc 61e6 7c3e 231d 28bd
000000a0: 6c14 163e 70a8 943b 57ee 8fc0 25f5 2d3e
000000b0: c692 0e3e 1f8c 423e 932d 57bf 58b9 79be
000000c0: 69df 6e3d b377 083e 992b 173e ed75 f3bd
000000d0: e69a c43e 3aeb 9cbe 84b4 9dbe cc8c d13e
000000e0: a63f 6dbd 22e4 10bd bec6 3dbd 26c6 43bd
000000f0: c106 7ac0 f20c 41bd e4db b7bd 6e5b f4be
00000100: 3928 dc3e 279d a5bb 79cc 9a3e 5ff8 5f3c
00000110: 963f 663d db8d c73d 70ae dcbf 5231 0d3e
00000120: 28d4 1e3d b15a abbc f067 9d3d 7e19 553e
00000130: 966b 8f3e 01a6 0a3e b97e e43d 553b 353b
00000140: 2d1a 943e b8a7 c13d 661b 75bf 8328 703e
00000150: 13e9 5dbd 6a63 c13e 6bba 28bf 4c0e 7b3e
00000160: be06 e73d a6ac 89bd 2f33 273e cdd1 803e
00000170: 3cb0 7b3c d052 973d 8911 623d b894 823d
00000180: 1a0e a0bd ad5a 373c dc5d 26bd 20de 633d
00000190: c310 393e fb8f dcbc 8f53 143d 2fe0 d13e
000001a0: 828d 8e3d eeeb a23e 5195 a43e 8dff c53d
000001b0: 26b4 183d b5c0 b33e 5a2b 2dbf 5b6f f9bf
000001c0: 05a3 d53d 60fe 533e 2d2c 993d 320b f9bf
000001d0: ca8b 8abd 240e b33e a384 cd3d 966c 663e
000001e0: 2e63 c33e 2a49 6d3e a33c e9c0 f145 5b3d
000001f0: 0782 76be 0a16 313d ee81 ad3e bbc1 1a3e
00000200: f979 2b3e c6c6 d33d 0f51 1bbe 4a8b 203e
00000210: 1e3f f73c 6208 fb3d a400 bd3d dd6e 2d3f
00000220: 7ac5 21be b620 a23b 828b 543d 241d 36bd
00000230: 549a 2a3e 431e 4abe f3f8 ccbd 2e3a 16bd
00000240: 24d1 d1bd f826 813d ffba 733d 2ce4 f53d
00000250: 77fb 44bd 5f1b 073e 942e 8a3e 1715 49bd
00000260: 2aeb 87bd 9bcc ae3d 654b 01bd 4437 fabd
00000270: 2cef 98be 32bb 56be 6125 9abd 25c8 30bc
00000280: 64b2 f83d 8858 9c3d 4c71 093e aab5 a73d
00000290: c3a1 47be 301b 873d 6aa7 523e 00cc a03d
000002a0: 6541 3e3e 30f5 2d3e 4771 c2bc 76ec 40be
000002b0: 25a3 483e 6bff 1e3e e04b 82be 621e 7dbe
000002c0: db30 433d a71c 9bbd cd6a b33d de8d f7bd
000002d0: 3dc5 0c3e 4520 04be 2ce7 0a3e 59b1 983c
000002e0: 6e8c 31bc 83d5 df3d 1b1c 7b3d f36e 303d
000002f0: 1967 e83c 7878 613d b1f6 5b3e f1dc e3be
00000300: 6297 bb3e 2d41 d53d 6d34 f33d 91c9 813e
00000310: e0ac 253d 58cf 463e eeed 9cbf 1d3a b2bd
00000320: a271 b83d bd07 863d 4454 a63c 7201 f93b
00000330: a228 523e 5de2 dd3d ab20 cd3c df7e 243e
00000340: 6175 9a3e d13b 4a3e ee71 a23e c0ab 18bc
00000350: 76ed d3bd aaad 583e d919 22bf 9869 63bd
00000360: 0cf5 ba3c 8ea6 96bd 037b 983d c67e 2e3e
00000370: 73bc 053e 07ca ffbc af01 763d dcea 84bc
00000380: ce27 09be 65f8 ea3d f0d2 d03d 52df 603e
00000390: 26c3 2b3e 6ab2 40bd 709e ce3c 642d 1e3e
000003a0: 134c cdbd 1170 373e 953e 2dbd 1617 333d
000003b0: 5497 d5bd 2c77 163e ca1e 073e 1091 a5bf
000003c0: 3efe d4bd 00e2 343e c2d2 1cbe 0088 d2bd
000003d0: 7092 00be 6883 d23d d540 2e3e ccaf 523e
000003e0: 5dae 183d 985f 88bd 471b 06bf 08d1 ebbd
000003f0: 4d6c e43d 8ed6 e33d 0278 ff3d 6000 2bbd
0.17155518 0.063729435 0.036350317 0.053895537 0.056351084 0.22646047 0.19601364 1.345424
0.25236943 0.008728906 0.060230054 0.05041001 0.10559378 -4.667185 -0.15792543 0.26318517
0.13039008 0.12425119 0.13066924 0.26738456 0.14846475 0.17430644 -0.2307028 0.22908169
0.04939698 -0.12081769 0.13609326 -0.04007414 -0.9669386 0.15225811 0.18541323 -0.021422036
0.15190758 0.19486433 0.1973833 0.28621966 -0.18208688 -0.01670983 0.24697258 -0.041043412
0.14656228 0.004536681 -4.497844 0.16988046 0.13923177 0.18998764 -0.84053916 -0.2438711
0.05831853 0.13326912 0.14762725 -0.11887727 0.38399428 -0.30648214 -0.30801785 0.40927732
-0.057922028 -0.035373814 -0.046332113 -0.04779639 -3.9066622 -0.047131486 -0.08977488 -0.47726005
0.42999437 -0.0050541344 0.30234125 0.013670056 0.056212984 0.09743854 -1.7240734 0.13788345
0.038776547 -0.020917268 0.0768584 0.20810506 0.2801177 0.13539888 0.11156983 0.0027653773
0.2892622 0.09455818 -0.9574493 0.23452954 -0.054177355 0.3777116 -0.6590945 0.24517173
0.11280583 -0.06722383 0.16328119 0.25160065 0.015361842 0.07388842 0.055192504 0.06376022
-0.0781519 0.011191052 -0.040616855 0.055631757 0.180728 -0.026924124 0.0362125 0.4099135
0.06960584 0.31820625 0.3214517 0.09667883 0.037281178 0.3510796 -0.67644274 -1.9487108
0.10431484 0.20702505 0.07479129 -1.9456542 -0.06764944 0.34971726 0.10035064 0.2250236
0.38161606 0.23172441 -7.288652 0.0535335 -0.24073039 0.04323391 0.3388819 0.15112965
0.16745748 0.103406474 -0.1516764 0.15678135 0.030181464 0.12257458 0.09228638 0.6774729
-0.15797988 0.004947747 0.051890858 -0.044461384 0.16660434 -0.19738106 -0.10008421 -0.03667658
-0.102449685 0.06306261 0.059504505 0.12006411 -0.048091378 0.13194035 0.2698866 -0.04909238
-0.06636651 0.08535119 -0.031566042 -0.12217572 -0.29869974 -0.20969847 -0.07526661 -0.010789906
0.121434 0.076340735 0.13422126 0.081889465 -0.19495301 0.065969825 0.20571676 0.0785141
0.18579634 0.16988063 -0.023735655 -0.18840203 0.19593485 0.15527122 -0.25448513 -0.24718621
0.047654014 -0.075738244 0.08760605 -0.12087606 0.13747115 -0.12902935 0.13564748 0.018639253
-0.010836704 0.10929396 0.0613061 0.04307456 0.028369473 0.05504653 0.21480824 -0.44504502
0.36638933 0.10412822 0.11875234 0.25349095 0.04044807 0.19415033 -1.226011 -0.087024905
0.09006049 0.06544445 0.020303853 0.0075990492 0.20523313 0.10834191 0.025039991 0.16064022
0.30167678 0.1974938 0.31727546 -0.009318292 -0.103480265 0.21159998 -0.6332069 -0.055520624
0.022821926 -0.073559865 0.074453376 0.17040548 0.13060169 -0.031224264 0.0600602 -0.01622527
-0.1339409 0.11473159 0.10196483 0.2196019 0.16773662 -0.04704515 0.025222033 0.15447003
-0.10024276 0.17913844 -0.04229601 0.04372319 -0.10429254 0.14693898 0.13195339 -1.2934895
-0.10400055 0.17664337 -0.15314773 -0.10279846 -0.12555861 0.1027897 0.17016919 0.20574874
0.03727566 -0.06658858 -0.5238537 -0.11514479 0.11153469 0.111249074 0.124740615 -0.041748405

value_stream.0.bias f4 [64]
00000000: f055 333f 4ba0 123f e1ad 27bd 6a7d bc39
00000010: d866 ab3c 6331 2d3f f113 293f 2db0 cf3e
00000020: cd01 b0bc 0a84 3dbd f9f5 1a3f abcc 06bc
00000030: 5b21 28bd ba88 4abc cadd 373f f84f 283f
00000040: c007 993e 3ca6 d13e 48ff b2bd d1ae 323f
00000050: 0fa8 a0bd d510 2a3f dd57 2c3f e52f 4abd
00000060: a774 233f 6ffe 213f fd4c 263f 7cc4 94bd
00000070: 7989 afbd a9ea 383f a5ba bdbd c660 233f
00000080: 7018 adbd 904c 00bd 0f65 69bd de71 113f
00000090: 3e7c a5bd b1ad 81bd 409d 2f3f f0f0 373f
000000a0: 0ca2 263d 2799 193f 3f0f 333f 73a9 6fbd
000000b0: 1950 44bd 7847 90bc f5da 0fbd 9169 2b3f
000000c0: 12dc 343f 2500 babd 6589 1c3f 8fd5 38bd
000000d0: 4e7a 143e db3e b73c df88 203f 078b a2bd
000000e0: aebc aabd be0e aebd cfd1 edbc 0fe2 2b3f
000000f0: 2c8d 3e3d 8515 c1bc e663 02bd 4e46 f8bd
0.70053005 0.5727584 -0.04093731 0.00035951595 0.020923063 0.67653483 0.66046053 0.405641
-0.021485234 -0.0462685 0.60531574 -0.008227508 -0.041047435 -0.0123617 0.718228 0.6574702
0.29888725 0.4094714 -0.08740097 0.69798 -0.07844555 0.66431934 0.6732157 -0.049362082
0.6384987 0.6327886 0.64961225 -0.07264039 -0.08571143 0.72233063 -0.09264115 0.6381954
-0.08451927 -0.031323016 -0.056981143 0.5681437 -0.08080338 -0.06331957 0.6859932 0.71852016
0.040681884 0.59999317 0.6994514 -0.05851121 -0.04792795 -0.017612204 -0.035120923 0.66957957
0.706483 -0.09082059 0.6114715 -0.04512554 0.1449978 0.022368839 0.6270885 -0.079366736
-0.08336769 -0.084989056 -0.029030709 0.67141813 0.04652135 -0.023569832 -0.03183355 -0.121227846

value_stream.2.weight f4 [1, 64]
00000000: 89db fb3e bfea f73d 3333 7bbe 0270 673f
00000010: e7e3 59bd 9e43 ea3e 780f d03e 81d8 e4bb
00000020: eab6 62be 645b b4bd 9e18 2b3e ba4f 84bf
00000030: 2566 bdbd ccb7 67be 7165 9f3e 37a6 c43e
00000040: 0e4c 543c cf34 d3bf 4060 ba3c 8e84 0e3f
00000050: 7400 44be c58a c53e 1ab8 e33e 1c41 15bd
00000060: 869b 903e a39c 853e be3a a23e b650 acbf
00000070: 648c d1bd 833d f13e 1407 a73c 7093 8e3e
00000080: 35d7 0bbc 21d3 32bc a7df a4bd 49fb bd3d
00000090: 0d09 32bd 4df8 babc 1d23 073f 530e 0c3f
000000a0: 84b4 48bf 5112 613e e3b8 da3e d6d8 12be
000000b0: 3f02 7ebc 40d8 efbc ed61 5bbe 8660 113f
000000c0: 9971 d23e 874e 57be 141f be3e a214 cebd
000000d0: b550 6abf d17f 80bf a815 763e 1bf8 29bd
000000e0: 6cc5 28bc 2067 12bf 21c1 2cbe 6fd2 d13e
000000f0: f318 85bf fe3b 25bc 4c48 87bd 475b a3bf
0.4919093 0.12105321 -0.2453125 0.90405285 -0.05319586 0.45754713 0.40636802 -0.006983817
-0.22140089 -0.08806494 0.1670861 -1.0336831 -0.09247998 -0.22628707 0.3113208 0.38408062
0.012957586 -1.6500491 0.022750974 0.5567101 -0.19140798 0.38582435 0.44476396 -0.036439046
0.28243655 0.26096067 0.31685442 -1.3462131 -0.102318555 0.47117242 0.020389117 0.2784686
-0.008535196 -0.010914595 -0.08050471 0.092764445 -0.043465663 -0.022823477 0.52787954 0.5470936
-0.78400445 0.21979643 0.42719182 -0.14340529 -0.015503465 -0.02927792 -0.21424074 0.5678791
0.41102293 -0.2102605 0.37133086 -0.10062529 -0.915294 -1.0039006 0.24031699 -0.041496377
-0.010300975 -0.57188606 -0.16870548 0.4098086 -1.0398239 -0.010085104 -0.066055864 -1.2762231

advantage_stream.0.weight f4 [64, 128]
00000000: 85a1 e73e 261f 7b3a d9eb 3e3e 335e a63b
00000010: 96ed 0d3e 1504 063e 5323 b23e 4c62 a1bc
00000020: b56c 843e 7d5e 23be 9323 05bd f643 9a3d
00000030: 1617 063f e970 b23e 5f08 c03d 548c 363d
00000040: a2b8 f0bd e101 b4be 94ce 553d 3a22 e43e
00000050: c7e6 053e a8fc 2d3e 772e ce3e 6d5a 693e
00000060: d577 693e e634 f9bf 86ee 113f 4968 d03d
00000070: a4b8 b03e e049 6cbf deb1 bb3e 929a 083f
00000080: d384 0c3e cbba 1bbc 3195 46c0 f3ec e13e
00000090: e21b 28bf 416f 163e 6e5f 9a3e b647 adbb
000000a0: a06e 1c3e 358b e43d db1f 9f3e 29f9 4f3f
000000b0: c9b5 a23e c6c4 ecbf 1125 acbd 040f b43e
000000c0: 89b6 673e 85d5 8ebb 1126 c13e 100b b5bc
000000d0: 82f6 8e3e 3eff fe3e f460 bf3c 4e33 f53e
000000e0: b22d 3cbe 6aff c93e cac6 2a3d 8a24 58bc
000000f0: 26af 323f 09de 873d 5af2 a63e a3fc 04be
00000100: 6be4 18bf d717 183e 032c 4fbe 3709 39c0
00000110: b671 b2be 146e 093f 6478 48bd 17b1 ea3e
00000120: a852 a7bd b712 dabd d8d9 e13e 56db e53e
00000130: 8d76 4fc0 6e7f 083f 9a96 583d ca2e e1bd
00000140: dd64 d93e 7c0a 153f e48d 3a3f 9e93 5ebe
00000150: f22c 303e e86b c93e 1b48 293e 4e15 573e
00000160: 7dbf 803e e6f6 b33d 080d 8c3e a120 01be
00000170: 7d24 883e a319 893e 89d1 cebd bcee ba3e
00000180: ec77 153e 6fa7 843e 209c 873e a3c1 973e
00000190: 69ca 1f3e 7fda cd3d 30cb 24be a8df fa3e
000001a0: 437d 0d3e 4ff1 e63e c586 003f 4d77 81c0
000001b0: c8ef 1abe 7683 f73e c75c d13e 2df9 9cbe
000001c0: be34 0ebe ce7a 943e f6db edbd e827 8c3f
000001d0: d059 263e 1f32 0d3f b812 0f3f a748 8d3e
000001e0: 0c76 2fc0 faca 8a3e 4a90 763e 1d46 363e
000001f0: b713 4e3e f401 60bd 0e05 9b3e 7895 393e
00000200: 2fbb 3dbe d052 9a3c 78c9 e33d 3537 253e
00000210: 2b62 2fbd 5277 263a 35ae 3dbe f348 e5bd
00000220: b4f3 943d c4ef dc3c 56af 2c3c 130b dd3c
00000230: c186 fbbd 3a88 143e bbed 363e 0e21 b63c
00000240: d009 2a3e eefd 4f3d 6480 933d 8c6b 0abe
00000250: e81f 6d3d db4c 3abe 8bd0 e6bc 9dc3 35be
00000260: 4c53 843d 5842 43be d8de d6bd 252d 82bd
00000270: f788 e53d fc4f 33be 6b7c 02be 0401 c23d
00000280: fe7e a83d e419 db3d 25b4 df3d 1d0c 1ebe
00000290: 32e1 283b 4c23 52be aa3b ecbd a1e0 e0bc
000002a0: 1116 b5bd 488f 163d 822d ea3c 666a b5ba
000002b0: 3890 273d 61b7 8ebd 0086 0e3e f21c 46bd
000002c0: 267d 033e b74d 113e 7cb0 e33d 539b aebd
000002d0: 6b53 f1bd a58e 0fbe ef2b cabd 12d0 f13d
000002e0: 40be 51bc 1207 1fbe e571 03be 86b9 0abe
000002f0: 2ee3 c7bd 802d 733d d048 b8bd 38ec 72bd
00000300: bb7d 1bbe c686 2bbe 96ac cabd ce6d 5bbe
00000310: eb3a 89bd 517e b3bd 7aca acbd 38cc 2abe
00000320: e85c 803d 59c0 a43d 4577 98bd 4d5e ea3b
00000330: 648d d43d cad1 96bd 823a d3bd 91b8 ec3d
00000340: 53e4 b6bd f44a c6bd 95fc e53d 5a03 073c
00000350: e53b f4bd 110e 18bc 2fef 9d3d 3960 fa3d
00000360: 57fc 12be 3e00 b73d 5b98 52bd b35e fdbc
00000370: 44a8 62be 427e 5cbe c570 c03d 9554 3dbd
00000380: 77ca ac3d c90b 2abe 29d1 b53d 0520 e7bd
00000390: 8e21 2ebe aa22 1a3e 0b87 d4bd 91ad 21be
000003a0: 16c6 16be 4e2d dd3c 3307 94bd 4e56 80bd
000003b0: 0030 713d d895 a7bd 0cda 023d eb38 c7bd
000003c0: a0ec 30bd 4c75 1a3d e48c 5a3d 6110 f83d
000003d0: c6b3 303e 947b cd3d 88f2 05be 3b8f 2bbe
000003e0: 3fa0 07be 896c 85bd df6c 2f3e a6bf 11bd
000003f0: 7f01 72bd ff4d 063e 3563 a23c 25ad dc3d
0.45240417 0.00095795316 0.18644656 0.0050771474 0.13860163 0.13087495 0.34792575 -0.019700192
0.25864187 -0.15954013 -0.03250463 0.07532494 0.52378976 0.3485177 0.09376597 0.04456742
-0.11753966 -0.35157683 0.05219896 0.44557363 0.13076316 0.16990912 0.40269825 0.22788401
0.22799619 -1.9469268 0.5700458 0.10176141 0.3451587 -0.92300224 0.3665914 0.53360856
0.13722543 -0.009504984 -3.102856 0.4412609 -0.65667546 0.14690877 0.30150932 -0.0052880896
0.15276575 0.11159364 0.3107899 0.81239563 0.31779316 -1.849755 -0.08405507 0.35167706
0.22628225 -0.0043589496 0.37724355 -0.022100002 0.27922446 0.4980411 0.02336166 0.47890705
-0.18376806 0.39452678 0.041693486 -0.013192305 0.69798505 0.06634147 0.32606775 -0.12986998
-0.5972354 0.14852844 -0.20231633 -2.8911874 -0.3485238 0.5368359 -0.04894294 0.45838234
-0.08170062 -0.10648101 0.44111514 0.44893903 -3.2416108 0.5331944 0.052878 -0.109952524
0.42459765 0.5821912 0.7287276 -0.21735999 0.17204645 0.39340138 0.16531412 0.21004221
0.25146094 0.087873265 0.27353692 -0.12610103 0.26590338 0.26777372 -0.100985594 0.36510265
0.14596528 0.25908992 0.264863 0.2963992 0.15604557 0.100514404 -0.16093135 0.4899876
0.13817315 0.4510598 0.5020564 -4.045813 -0.15130532 0.48342484 0.40891096 -0.30658856
-0.13887307 0.28999943 -0.1161422 1.0949678 0.16245198 0.55154604 0.5588794 0.27594492
-2.74158 0.27107984 0.2407848 0.17800184 0.20124708 -0.054689363 0.30277294 0.18123424
-0.18528436 0.018838316 0.111224115 0.16134341 -0.04281823 0.00063501776 -0.18523486 -0.111955546
0.07273045 0.026969798 0.01053985 0.02698282 -0.12281562 0.14505091 0.17864124 0.022232559
0.16605306 0.050779276 0.07202223 -0.13517588 0.057891756 -0.1819338 -0.028175613 -0.17750402
0.064612 -0.19068277 -0.10491723 -0.06356267 0.112077646 -0.1751098 -0.12742774 0.0947285
0.08227347 0.106982976 0.10923032 -0.15434308 0.0025768992 -0.20521277 -0.115348175 -0.027450861
-0.088420995 0.036757737 0.028586153 -0.0013840913 0.040909022 -0.069685705 0.13918304 -0.04836745
0.12840709 0.14189802 0.11117646 -0.085257195 -0.11783489 -0.14019258 -0.09871661 0.118072644
-0.012801707 -0.15530041 -0.12836416 -0.13547334 -0.09760128 0.059369564 -0.08998263 -0.059307307
-0.15184681 -0.1675063 -0.098961994 -0.21428606 -0.06700691 -0.08764327 -0.08437057 -0.16679466
0.062677205 0.080445 -0.07444624 0.007152355 0.103785306 -0.07364233 -0.10313894 0.11558641
-0.08930268 -0.09682265 0.11229817 0.008240545 -0.119254865 -0.009280697 0.07711636 0.12225384
-0.14354073 0.08935593 -0.05141483 -0.030928945 -0.221345 -0.21532539 0.09396509 -0.04622324
0.084370546 -0.16606058 0.08877785 -0.11285404 -0.17004988 0.15052286 -0.1037732 -0.15788867
-0.14724001 0.026999142 -0.07227936 -0.06266461 0.058883667 -0.08182877 0.031946227 -0.09727653
-0.043194413 0.03770952 0.05335702 0.12112499 0.17256078 0.10033336 -0.130808 -0.16753857
-0.13244723 -0.06514842 0.17131375 -0.03558316 -0.059083458 0.1311569 0.019822696 0.10775212

advantage_stream.0.bias f4 [64]
00000000: 9244 7e3e 182e 39bd 59f5 6dbe c4a3 e53e
00000010: 2700 323e 20d0 4e3e d081 5d3e c666 613c
00000020: fecd 6ebd f7ac 9c3d 9206 803e 16f9 37bd
00000030: 3c69 afbd 9d98 cbbd 0bac 1a3e 0a2d 5bbd
00000040: 9e77 003e 0999 e13d 0ec9 19bd 5719 c2bc
00000050: ff8c 70bd 8af3 2cbd ad4d da3c c0f6 f3bc
00000060: e32c 10bd a083 8bbd 0651 80bd 9a36 f1bc
00000070: a94e 573e febf 42bd fbaf 23bb a5de 85bb
00000080: 9e26 e33d 2d29 f93d 9633 babd 98ac 643e
00000090: eb8b a33d f8cc 193c 7643 b73e 1756 41bd
000000a0: 6b0c 07bd d583 463e aba8 22bd 8a92 bbbb
000000b0: 2908 53bd 1731 8e3e dee3 4d3e 76d8 313e
000000c0: 6e9d 93bd 5af5 84bd 6fb4 623e a85c 313e
000000d0: cdfe 443e e58c 12bd 0bfc f2bc 342f 623e
000000e0: 20fd b13d 6b01 84bc e419 473e a148 473e
000000f0: e963 8dbd c649 bfbc 1580 0ebe 009e 703e
0.24830845 -0.045209974 -0.23238124 0.44851506 0.1738287 0.20196581 0.21631551 0.013757413
-0.05830192 0.07650178 0.25005013 -0.04491528 -0.08564994 -0.09941218 0.15104692 -0.05350975
0.1254563 0.11015517 -0.037545256 -0.023693724 -0.058728214 -0.042224444 0.026648367 -0.029780746
-0.035199057 -0.06812215 -0.06265454 -0.029444981 0.210261 -0.04754638 -0.0024976719 -0.004085379
0.1109135 0.12166057 -0.090918705 0.22331464 0.079856716 0.009387247 0.35793656 -0.047201242
-0.032970827 0.19386227 -0.039711636 -0.005724256 -0.051521454 0.27771828 0.20106456 0.1736773
-0.07207762 -0.064921096 0.22139142 0.17320502 0.19237824 -0.0357789 -0.0296612 0.22088319
0.08690858 -0.016113957 0.1944347 0.194613 -0.06903822 -0.023350608 -0.13916047 0.23497772

advantage_stream.2.weight f4 [2, 64]
00000000: 04a7 29bf d06d 703c dd49 3a3c 58d2 223f
00000010: ce39 8abf 8f9f 9bbe c29c afbe a423 093f
00000020: 7758 8d3e 0355 7d3f 0fc2 e33e c7f9 0b3e
00000030: 41a5 153e af38 0d3d e4b4 69bf 4b88 633e
00000040: dd1e 513f f1c2 973f 0c20 30bd adff 7bbe
00000050: 1659 43be 623a b5bd 6fa0 3e3f 4b0e 1abd
00000060: 9ced 5fbe 560e a43d 3ad2 073e eeac fa3d
00000070: d719 6ebe 33e9 16bd 2719 de3e 1b4d 843e
00000080: dbd1 d33c 64b8 a3be 393d 07be 558f 35bf
00000090: 34c2 533f 62a8 6b3e 6bb0 753f c428 a23d
000000a0: 6452 1b3e 854d 8d3d 024a 053d ba34 713f
000000b0: be5d 293e 6668 e63e 8253 a3bd a538 8bbe
000000c0: 6f0f 223d 338a 723d 4922 e5be 6958 68be
000000d0: 5067 9e3d 7856 333e 73fd a6be 6d5c aabf
000000e0: e45d 5b3e ae67 7b3e 090b babf 1818 833f
000000f0: 358d 9bbc 8c24 4a3e 5ea3 843f a083 fc3e
00000100: 6b47 973f a3f1 50be 7a4c 703c da65 5ebf
00000110: f2a6 843f 778d 7b3e 68dc 28bc 4c3b 64be
00000120: f3b5 213c 2d81 72bf cbf0 edbe d554 2cbe
00000130: ef5c 0d3e 7bc8 59ba e0ed 633f 89dc 47be
00000140: 897a 6abf e594 a0bf 14bf 02be 08c3 573e
00000150: 25f5 1abe 3169 313d e088 0bbf a980 e2bc
00000160: c97c 293e 4ce0 e03d 16a0 143e a03a d83d
00000170: 0c11 8e3e a808 033e 7b49 d9be 26b2 e9bd
00000180: 01ae 643e 72cb 123f c694 81be 0341 523f
00000190: 7cef 65bf 484f 723e a94c 69bf 4719 563d
000001a0: 3262 d23d 4d99 b53e fbff 343d 88e8 18bf
000001b0: 0aa4 12be 5ca0 68bf a9ee 943e 8fe5 cf3c
000001c0: 9b97 2bbe 1508 bbbe 969d 7ebd bb40 0b3e
000001d0: afc4 a03e 56e6 733e 82ad 87be b16f 9a3f
000001e0: 0af4 723e 0d31 fcbe 1f4b bf3f 2645 8fbf
000001f0: 0bc6 0abe 298b 3cbe 76a8 38bf a75f 20bf
-0.6627047 0.014674619 0.011370149 0.6360221 -1.079889 -0.3039517 -0.34299284 0.5357001
0.27606556 0.9895784 0.44483992 0.13669501 0.1461382 0.034477886 -0.9129164 0.2221996
0.8168772 1.1856366 -0.042999312 -0.24609251 -0.19076952 -0.08849026 0.7446355 -0.037611287
-0.21867985 0.08010547 0.13263789 0.12240015 -0.23252045 -0.03684349 0.43378565 0.25840077
0.025856903 -0.31976616 -0.13206948 -0.7092183 0.82718205 0.23013452 0.9597232 0.07917932
0.15168148 0.06899551 0.032541282 0.9422108 0.16539666 0.45001525 -0.07974912 -0.27191654
0.0395655 0.05921383 -0.4475272 -0.22689976 0.07734549 0.17513454 -0.3261524 -1.3309456
0.21422535 0.2455127 -1.4534618 1.0241728 -0.018988231 0.19740504 1.0362356 0.49319172
1.181867 -0.20404677 0.014666671 -0.86874163 1.0363448 0.24565683 -0.010306455 -0.22288245
0.00987004 -0.94728357 -0.46472773 -0.16829236 0.13804983 -0.0008307767 0.89034843 -0.19517721
-0.91593224 -1.2545439 -0.12768203 0.21070492 -0.15132578 0.04331321 -0.5450573 -0.02764924
0.16551508 0.10980281 0.14514193 0.10558057 0.2774738 0.12796271 -0.42438874 -0.11410932
0.22332002 0.5734168 -0.25308818 0.8213045 -0.8981855 0.23663056 -0.911326 0.0522702
0.102726355 0.35468522 0.044189434 -0.59729815 -0.14320388 -0.9086969 0.29088333 0.025378017
-0.16757052 -0.36529604 -0.062162004 0.13598911 0.31400058 0.23818335 -0.26499563 1.2065336
0.23725906 -0.49256173 1.49448 -1.1192977 -0.1355211 -0.1841246 -0.7213205 -0.62645954

advantage_stream.2.bias f4 [2]
00000000: d420 86bd d420 863d
-0.0654923 0.0654923

exp_avg f4 [128, 4]
00000000: 0400 0080 0400 0080 0400 0080 0400 0000
00000010: 864d e53a 75af 003b 1995 6c39 e911 5ab8
00000020: 5532 393c a0b1 e43b d17b 62ba f8d4 35bb
00000030: bc00 b0bb 38c7 cbbb 5c5b 2f3a 40fb 623b
00000040: 0400 0000 0400 0000 0400 0000 0400 0000
00000050: 0400 0000 0400 0000 0400 0080 0400 0080
00000060: 0400 0080 0400 0000 0400 0000 0400 0000
00000070: 0400 0080 0400 0080 0400 0080 0400 0000
00000080: 0400 0080 0400 0080 0400 0000 0400 0080
00000090: 0bac 3e3b 6496 34bb e57a 49ba fcb5 daba
000000a0: b97f 653b ed82 1a3b 622d bdb9 282b 45bb
000000b0: 0400 0080 0400 0000 0400 0000 0400 0080
000000c0: 0400 0080 0400 0080 0400 0000 0400 0080
000000d0: a1cc 523b ec50 bf39 8171 3fba be8c deba
000000e0: 0400 0000 0400 0000 0400 0080 0400 0080
000000f0: b23d 85bb 27a3 30ba 4892 de3a ba3d e23b
00000100: 897a 81bc 207d 53bc 1857 d03a 446b ac3b
00000110: dcb6 8339 a435 8b3a a006 5437 0e2f a7ba
00000120: d8c4 c93c 9469 af3c 5a9f 98ba d76b dbbb
00000130: dc3d 5dba 4587 353a 0e23 1e3a 20b0 0d3b
00000140: 33c3 1e3c 859e 89b9 2c61 c83a 7b46 4f3c
00000150: 911f 93b9 90b0 b13a f6d0 a9b8 8ca6 02bb
00000160: 1be8 d43a 2899 103a a9e0 36ba f50b 0bbb
00000170: 5a6d 8001 7ff2 6481 3386 7d00 228e a881
00000180: 5060 c3ba ae48 b73b 9839 283a 3b49 4fbb
00000190: 0400 0080 0400 0080 0400 0000 0400 0000
000001a0: 0400 0080 0400 0080 0400 0000 0400 0000
000001b0: 0400 0080 0400 0080 0400 0000 0400 0000
000001c0: 5db3 fa3b a001 38bc f3b2 0cba 8627 eaba
000001d0: 0400 0080 0400 0000 0400 0080 0400 0080
000001e0: 0400 0000 0400 0080 0400 0000 0400 0000
000001f0: eefd 213c 1872 b63c d8f2 8f3a 5652 44bc
00000200: 6790 16bc 5ebd c6bb 1fe4 df3a 931c ca3b
00000210: 0400 0000 0400 0000 0400 0080 0400 0080
00000220: 1919 033b 76cf a93a 2c74 1e3a 946b c33a
00000230: 0400 0000 0400 0000 0400 0080 0400 0080
00000240: 935e 09ba 7e50 2d3b bea3 043b 1a5b a23b
00000250: 5724 08bb ec54 3f3a 92e6 4d39 a56e b8ba
00000260: 3f7b 563a 602e 113b 96f2 543a 0d8a e8ba
00000270: f499 343b 6d42 4f3a f44c f738 967c 1f3a
00000280: 0400 0000 0400 0000 0400 0000 0400 0080
00000290: 27fa 8c3b a271 84ba 9b46 6039 f4e2 19ba
000002a0: 168a 0137 0bf2 afb7 8ec4 7236 b7ef 2438
000002b0: 0400 0080 0400 0080 0400 0080 0400 0000
000002c0: 8041 a5ba 6c01 fbba 5274 efb8 b5ac f339
000002d0: 0400 0080 0400 0080 0400 0080 0400 0080
000002e0: 0400 0000 0400 0000 0400 0000 0400 0080
000002f0: 0400 0000 0400 0000 0400 0000 0400 0080
00000300: fb5b 8b3b b8ce 50b9 82d3 ebba 7818 81bb
00000310: 8756 933d da40 533d af97 faba 2963 62bb
00000320: 0400 0000 0400 0080 0400 0080 0400 0000
00000330: 0400 0000 0400 0000 0400 0080 0400 0080
00000340: e817 b83b 986a ffbc 1789 ccba 9006 7a3b
00000350: 0400 0080 0400 0080 0400 0000 0400 0080
00000360: b230 8bb7 691d 3e38 c868 0836 088b 6d36
00000370: 0e66 843a 7994 ad3b 0169 663a e05e c539
00000380: 484c 9835 f3a5 05b7 c23c 51b8 48f0 80b9
00000390: 4cb1 863a 1415 b8b9 5526 28ba bdc7 f6ba
000003a0: bd66 ee3b 1040 98b8 6e70 8b3a 8b63 0e3c
000003b0: 0400 0080 0400 0000 0400 0000 0400 0080
000003c0: ae35 a53c d4ed 423c 6e38 ef3a 1631 873b
000003d0: 0400 0080 0400 0080 0400 0000 0400 0000
000003e0: 42a9 3ebb eb54 423b 34e5 733b 9343 1c3c
000003f0: 9e2d 723a 005e 1d3c eb91 a03a 5eac 7fbb
-6e-45 -6e-45 -6e-45 6e-45 0.0017494417 0.001963583 0.00022562257 -5.199193e-05
0.011303504 0.0069791824 -0.0008639666 -0.0027745347 -0.0053711813 -0.006218817 0.0006689334 0.003463462
6e-45 6e-45 6e-45 6e-45 6e-45 6e-45 -6e-45 -6e-45
-6e-45 6e-45 6e-45 6e-45 -6e-45 -6e-45 -6e-45 6e-45
-6e-45 -6e-45 6e-45 -6e-45 0.0029094245 -0.002755546 -0.0007685854 -0.0016686316
0.0035018756 0.0023576573 -0.00036082702 -0.0030085538 -6e-45 6e-45 6e-45 -6e-45
-6e-45 -6e-45 6e-45 -6e-45 0.0032165425 0.0003649065 -0.0007302985 -0.00169792
6e-45 6e-45 -6e-45 -6e-45 -0.0040661925 -0.0006738179 0.0016980851 0.006904331
-0.0158055 -0.01290825 0.0015895097 0.0052618105 0.00025122508 0.0010620845 1.2637727e-05 -0.0012755112
0.024629995 0.021412648 -0.001164417 -0.006696205 -0.0008439699 0.0006924759 0.0006032445 0.0021619871
0.009690094 -0.00026248783 0.0015287749 0.012651081 -0.00028061544 0.0013556648 -8.09747e-05 -0.0019935695
0.0016243489 0.0005515986 -0.0006976226 -0.0021216844 4.7176686e-38 -4.205097e-38 1.1527579e-38 -6.1917404e-38
-0.0014906023 0.005593381 0.00064172735 -0.0031629342 -6e-45 -6e-45 6e-45 6e-45
-6e-45 -6e-45 6e-45 6e-45 -6e-45 -6e-45 6e-45 6e-45
0.0076507763 -0.011230856 -0.00053672417 -0.0017864562 -6e-45 6e-45 -6e-45 -6e-45
6e-45 -6e-45 6e-45 6e-45 0.009887202 0.022271201 0.0010982407 -0.011982521
-0.009189702 -0.006065055 0.0017081535 0.006167957 6e-45 6e-45 -6e-45 -6e-45
0.0020003973 0.0012955505 0.00060445326 0.001490938 6e-45 6e-45 -6e-45 -6e-45
-0.0005240228 0.0026445682 0.00202392 0.004954708 -0.0020773613 0.0007298726 0.00019636218 -0.001407106
0.0008181817 0.0022152886 0.00081233063 -0.0017741338 0.0027557584 0.00079063216 0.000117922114 0.00060839334
6e-45 6e-45 6e-45 -6e-45 0.0043022814 -0.0010104666 0.00021388607 -0.00058703055
7.72115e-06 -2.0974336e-05 3.617522e-06 3.93239e-05 -6e-45 -6e-45 -6e-45 6e-45
-0.0012608021 -0.0019150204 -0.000114180744 0.00046477249 -6e-45 -6e-45 -6e-45 -6e-45
6e-45 6e-45 6e-45 -6e-45 6e-45 6e-45 6e-45 -6e-45
0.0042529083 -0.00019913435 -0.0017992111 -0.0039396845 0.07194238 0.05157552 -0.0019118692 -0.0034543967
6e-45 -6e-45 -6e-45 6e-45 6e-45 6e-45 -6e-45 -6e-45
0.005618084 -0.031178758 -0.0015604821 0.0038150884 -6e-45 -6e-45 6e-45 -6e-45
-1.6592767e-05 4.532692e-05 2.032657e-06 3.539668e-06 0.0010101215 0.0052972403 0.00087894505 0.00037645455
1.1347083e-06 -7.966056e-06 -4.9886068e-05 -0.00024593086 0.0010276227 -0.0003511092 -0.00064144033 -0.0018827837
0.007275431 -7.2598574e-05 0.0010638365 0.008690725 -6e-45 6e-45 6e-45 -6e-45
0.020167198 0.011897523 0.001825107 0.0041257245 -6e-45 -6e-45 6e-45 6e-45
-0.0029092585 0.0029652666 0.0037215473 0.009537595 0.0009238365 0.009604931 0.0012250518 -0.003901265
