CartPoleHighRewardIn2026/checkpoints/checkpoint_ep150_reward88.00.pt (torch, 421167 bytes, 33 tensors)

feature_layer.0.weight f4 [128, 4]
00000000: b307 b13d f2f2 f9bd 05e6 b4be 834e 0c3d
00000010: 5c31 833d 520d c73d 505a 21be 9c8a d4bc
00000020: be03 f8bd 361e 963c b03d f2be 510b 10be
00000030: 531b f4bb f9d5 b3bd 2f39 253e 2f8c a1bd
00000040: 5757 9f3b 45f1 c5bd 6983 0a3f e0fc ad3d
00000050: 8de4 93bd d37b f73d 7672 5dbe dcb0 8abd
00000060: 99c3 613b 3b36 693b a673 af3d 4baa 2f3d
00000070: 19b9 02bd 75a0 0c3e 3209 05be 2519 ae3d
00000080: 88e7 85be bcf0 d33d 32d2 923e faa5 9e3c
00000090: 22d0 153e 1aa2 0cbe 2cef 2bbe c25e 98bd
000000a0: 1068 b23d 6a17 ccbd 7029 3b3d 8cbe b1bd
000000b0: bf76 533e a778 d63d ae02 9e3e d47f 213e
000000c0: 7c1a 07be 7d88 a6bc 2d9a 853e 721c 083d
000000d0: bc9b 473d 11de a73d af14 d0be 6e59 c03d
000000e0: 3a02 923d 9a0b ab3d 6d92 34bd a25d 973a
000000f0: 09a6 88bd 1f81 123c c186 a13e 14d2 fbbd
00000100: 2917 a83c 44a4 f9bc 1672 3f3e a19d 02bd
00000110: b1e3 babe 52ef e13d 9cc1 b93e 981e db3d
00000120: 8636 e6bd 7a28 703d a993 cd3e 97c0 e33d
00000130: ea65 12be bc33 82bd 54da 053f 9257 02be
00000140: 4b62 853d b6da 0dbd ac49 d5be bb5e b2bd
00000150: 396e a63d e182 babd de5b 7c3e a4ed 373e
00000160: e63f 963e 4d93 b0bd e64c 0ebf f22f 2bbe
00000170: 171d ecbd 82da 74bc e492 ad3e eb9b 12bd
00000180: 016b d13c a532 8f3c 7934 003f 18a5 183e
00000190: eb4f 35bd 29af 1e3d 3268 413e 1518 7e3d
000001a0: 526b 3fbe 89dd abbd e54f cd3e d8ed 953d
000001b0: 426f 03be 08c7 363d 1db0 6a3d bb00 e43d
000001c0: 70cd 2a3e 5e6f 0a3e eba1 14be 2477 09be
000001d0: 94ca dfbd acd4 f33d 9997 3f3e abdc 973d
000001e0: 6cf8 923e 5e2e 1fbe a288 813e 2259 393d
000001f0: d9ad 81bc d4cf 2f3a 6116 9f3e ddb4 af3d
00000200: d0da a9bc 08a0 d03b 88d1 343e 75a9 ecbd
00000210: 1379 8d3d 1277 fbbd a529 83be 75e9 99bd
00000220: c343 b5bc 18b9 44be 8ef3 adbe c46c 3ebe
00000230: 025a 003e 9794 1fbe b2f1 2e3d 7e35 65bc
00000240: 8b35 e8bd f807 6e3c 5ed6 6e3e 263d b0bd
00000250: a689 9bbd 4201 d33d 826c a63e a11d 2d3d
00000260: c81f 1f3e bc3d c9bc 90d1 143f 1dc3 0ebd
00000270: 0d81 3cbe df1e ae3d 6b56 c93e 8ca4 f4bd
00000280: 4813 b33c 8e3b 353d 7d54 433e df5d 40be
00000290: 4ad7 c9bd 72f1 c53d ba73 d73e b81f 1a3e
000002a0: b39c ba3c 153b 173d 3160 dabe 87e8 25be
000002b0: bb69 283e 4b19 243e a78f 3c3e 72ac 9b3d
000002c0: da70 f9bd 780d 42be b01c 823e 6196 243e
000002d0: 7638 01be 0e7f 5cbe b87f 51be 7940 e6bd
000002e0: 29e5 2b3e 6fca 62be 682c 033d 1bb2 25bd
000002f0: cd8b c4bd 6606 53be 1fe9 1d3e 08c7 20be
00000300: 0700 4abd 2001 a43c e3d3 1fbf 4852 17bd
00000310: 8ca3 c43d fda5 89bd 42e7 19bf a5f3 04be
00000320: 3884 133e 36ec 0dbe 895c cb3e c01f 103e
00000330: ffca 8fbd 6419 243e 81c7 1bbe 0236 22be
00000340: 2d0e 3a3e 9db2 143d e176 02be ce3b d4bd
00000350: 504f 08be 3ba0 5b3e 9df6 243e 521c dabd
00000360: 1990 ec3d e558 0cbe aecb 53be 4893 fbbc
00000370: 40a3 1dbe e7e3 893c 623a 693e 6f1a 2f3e
00000380: adf0 2fbe fc56 5abe 1dd6 0c3e 5e93 2e3e
00000390: 90c5 1a3e a280 d53d d792 d7be 2020 cf3d
000003a0: 483e 1a3e 5ae6 14be a8c6 f2be 3284 45be
000003b0: a174 b6bd 6770 233c d013 b53e 133c d0bd
000003c0: 2df8 323e 1575 6c3b beef f5be aaf0 20bd
000003d0: f0a8 0cbe 2824 0bbe 2df6 dd3e c5f4 2e3e
000003e0: cfe7 c2bb ca04 a9bb ac3a ab3e cc9e 7a3d
000003f0: 7bc7 c7bc c3e6 03be 0876 8b3e 8607 f13c
0.08644047 -0.12204541 -0.3533174 0.034254562 0.06405899 0.097193375 -0.15757108 -0.025945
-0.12110089 0.018324953 -0.4731269 -0.14066817 -0.0074495464 -0.087810464 0.16135095 -0.07888066
0.0048627066 -0.09665159 0.54106766 0.08495498 -0.07221327 0.120841645 -0.21625695 -0.067720145
0.003444886 0.0035585302 0.0856698 0.042887013 -0.031914804 0.13733084 -0.12991789 0.0850089
-0.26153207 0.10348651 0.2867599 0.019366253 0.14630178 -0.13733712 -0.16790456 -0.074399486
0.087112546 -0.099654034 0.045693815 -0.08678922 0.20650767 0.10472231 0.3086142 0.15771419
-0.13193697 -0.020328755 0.2609419 0.033230253 0.048732504 0.08196653 -0.4064078 0.09392057
0.07129331 0.08351822 -0.044084955 0.001154829 -0.06672294 0.008941918 0.31548122 -0.122959286
0.020518856 -0.030473836 0.18695864 -0.031888608 -0.3650184 0.11031975 0.36280525 0.10699195
-0.11240868 0.05863235 0.40151718 0.11120718 -0.1429669 -0.06357524 0.5228627 -0.12728718
0.065128885 -0.034632407 -0.4165777 -0.08709475 0.08126492 -0.091069944 0.2464442 0.17961746
0.29345626 -0.086218454 -0.5558609 -0.16717508 -0.11528986 -0.014944674 0.3390113 -0.035793226
0.025563719 0.017480204 0.50080067 0.14906728 -0.04426567 0.038741264 0.18887404 0.062034685
-0.18693283 -0.08391864 0.40100017 0.07320756 -0.1283541 0.044623405 0.05729686 0.11132952
0.1667993 0.13519046 -0.14514892 -0.13424355 -0.109273106 0.11905798 0.18710174 0.07415136
0.28705156 -0.15545031 0.25299555 0.04525102 -0.015829967 0.0006706689 0.3107176 0.08579419
-0.02073422 0.0063667335 0.17658055 -0.11555759 0.06907859 -0.1227857 -0.2561771 -0.075152315
-0.022127038 -0.19211233 -0.3397488 -0.18596178 0.12534335 -0.15584026 0.042710967 -0.013989804
-0.113383375 0.014528267 0.23323962 -0.08605413 -0.07594614 0.10302974 0.3250466 0.042264584
0.15539467 -0.02456557 0.58132267 -0.034854043 -0.18408604 0.08501982 0.39323744 -0.11945447
0.02185978 0.04424625 0.19075198 -0.18785809 -0.09855516 0.09665193 0.4208048 0.15051162
0.022779798 0.03692158 -0.42651513 -0.16201983 0.16446583 0.16025274 0.18414174 0.07601251
-0.12179728 -0.1895045 0.25412512 0.1607299 -0.12619194 -0.21532843 -0.20458877 -0.11242766
0.16786636 -0.22147535 0.03202477 -0.040453058 -0.095969774 -0.2060791 0.1542096 -0.15700924
-0.049316432 0.020020068 -0.6243269 -0.036943704 0.096015066 -0.06721113 -0.60118496 -0.12983568
0.14405906 -0.13859639 0.39719036 0.14074612 -0.0702114 0.16025311 -0.15212823 -0.15840915
0.1816947 0.03630315 -0.12740661 -0.10362969 -0.13311505 0.21447842 0.161097 -0.10649933
0.11550922 -0.13705786 -0.20683166 -0.030709878 -0.15394306 0.016832305 0.22776178 0.17099927
-0.17181654 -0.21322244 0.13753553 0.17048404 0.15114427 0.104249254 -0.42104217 0.10113549
0.15062821 -0.14540997 -0.47417188 -0.1928871 -0.08908964 0.009975529 0.35366678 -0.10167708
0.17477484 0.0036080529 -0.4803447 -0.039292015 -0.1373632 -0.13588011 0.4335188 0.1708556
-0.005948044 -0.0051580416 0.334432 0.061186597 -0.024387112 -0.12880997 0.27238488 0.029422533

feature_layer.0.bias f4 [128]
00000000: 7108 a43d ebfd e7bd 4afc a8bd c77e c43d
00000010: 7dbf a73c 84b2 5e3d 9571 9f3d f05b 923d
00000020: 178c c63d d159 c33d 2c2c cabd b026 7f3d
00000030: 98b2 c53d 67b8 9c3d a300 0e3d b1a2 033b
00000040: 9c56 c43d f9b5 40bc f44b cfbd 0554 be3d
00000050: 7d2c cabd 601d 95bd e32e ddbc f028 a03d
00000060: c60c a3bd 1f8b 35bd 9fc2 68bc 3732 cc3c
00000070: 7231 10be a8f8 a0bc 2cbc 96bd d2e9 82bd
00000080: 897c d5bc 53a4 d03d 8235 20be 4724 233d
00000090: 77c1 87bd dc07 043e a4a5 90bd a78b 2f3d
000000a0: f2b7 083d 3889 e9bd 624d 27be a718 a33d
000000b0: 93a2 b0bd 96b9 9b3d efef 223d 567f 143d
000000c0: e5f2 d5bd 2704 14be 92a4 a2bd 546b 9e3d
000000d0: c91d f8bd 5b97 96bc 7ad5 9e3d 07ab eabd
000000e0: 1662 68bd ecca cb3d 19d0 0ebe caf6 413d
000000f0: 45ea b1bd b503 bf3b fea8 9ebd 60ba 8b3d
00000100: 1c1b c3bd a969 b53d 0211 adbd 7415 c23d
00000110: a687 8dbd 12a9 bb3d 4c3d 52bd 4991 9f3d
00000120: ccc6 723d eca3 b03d e084 d8bd d31c b3bd
00000130: 5677 a6bd e9e8 973d 999c b4bd 07d8 0f3d
00000140: 76f4 483d 9c3c c73c 1091 673d d9ff fa3d
00000150: 8cfb 073d 1850 a93d 66ba f9bb 904c bd3d
00000160: 570d 6b3d fdb9 813d 137d 4bbd 9634 073d
00000170: 9da3 24bd 9c13 923d 292f 10be e87c fdbc
00000180: e20c 17be 845c 143c fb43 69bc 1f14 833d
00000190: 00f5 343d 03fd 303d d436 ffbd b043 833c
000001a0: 4c50 dc3d eb05 ab3c 5b18 08be c566 debd
000001b0: a31a bdbc 7bc3 4d3d 4189 b03d a094 883d
000001c0: 7d21 113d 7088 dbbd 41ae ef3d f82d c03d
000001d0: f081 783b c798 cabd f161 ef3d 56fb a63d
000001e0: d134 313d 0306 03bd 4059 d2bd 6139 e2bd
000001f0: d3a2 d53d c9ff bfbd add1 d43c cf05 d8bd
0.080094226 -0.11327728 -0.08251245 0.09594493 0.02047705 0.054369465 0.07785336 0.07146442
0.09694689 0.095386155 -0.09871706 0.062292755 0.09653205 0.076523595 0.034668576 0.0020085985
0.09586832 -0.011762136 -0.10121909 0.09293369 -0.09871767 -0.072809935 -0.026999896 0.07820308
-0.07961421 -0.04432213 -0.014206558 0.024926288 -0.14081362 -0.019649819 -0.0736011 -0.06392254
-0.02606036 0.10187592 -0.15645412 0.03982952 -0.06628697 0.12893623 -0.070628434 0.042857792
0.03337855 -0.114031255 -0.16338113 0.079636864 -0.086247586 0.07603757 0.0397796 0.03625425
-0.10446719 -0.14454709 -0.079415455 0.07735315 -0.12115056 -0.018382719 0.07755561 -0.11458402
-0.056734167 0.09950814 -0.1394657 0.047354497 -0.086872615 0.0058292993 -0.077470765 0.068226576
-0.09526655 0.08858044 -0.084505096 0.09476748 -0.069106385 0.09163107 -0.05132799 0.07791383
0.05927162 0.086250156 -0.10572219 -0.08745732 -0.0812823 0.07417471 -0.08818931 0.03511813
0.04906126 0.024320893 0.056534827 0.1225583 0.03319888 0.0826723 -0.0076210974 0.09243119
0.05738577 0.063343026 -0.049679827 0.033009134 -0.040195096 0.071326464 -0.1408049 -0.030943349
-0.14751008 0.009055261 -0.014237399 0.06400322 0.044178963 0.04321004 -0.124616295 0.016023487
0.10757503 0.020876845 -0.13290541 -0.108594455 -0.02308399 0.050235253 0.08619929 0.06668973
0.035432328 -0.10719383 0.11703158 0.09383768 0.0037919246 -0.09892421 0.11688603 0.08153407
0.04326326 -0.031988155 -0.10270929 -0.110461004 0.10431447 -0.09374959 0.025978887 -0.10547983

feature_layer.2.weight f4 [128, 128]
00000000: 5d6f 51bd 80ce 913d 2559 0bbd 3ede 9e3e
00000010: 2f1a 1a3e bc57 8abd c7b2 193e e261 b03d
00000020: 0aec 5a3e a28e 4dbc e89f 853d fbc0 ef3d
00000030: 9aa0 043e b6c7 1cbe 5bb0 353e 2a4a 2dbe
00000040: 301e 893e a42b 673d 866c 013f a1df c43e
00000050: e6f4 38bf 4991 c53c db14 5f3e 1b1e 593e
00000060: 9e0f 4b3e 33be 4abd cf78 173e 32bf eb3c
00000070: a7f0 1d3d 84b3 7abd b630 803d 3091 193d
00000080: 1f71 0a3e c1a5 c3bd cd89 07bf cd3c ec3d
00000090: f8ee 23bd b207 ea3d 7167 273e 586a 27bd
000000a0: 1971 d63d 14df 253f 49af 42be b7ff 6b3e
000000b0: d862 1d3e 25f3 0a3d 887b 45bd f53f 863d
000000c0: 53b6 88bf 718b 72bf dccd e03d 1929 f83d
000000d0: a1fb e53d 1351 f2bd 6671 bbbc 0fe7 923d
000000e0: 0fc1 123b 287b a73d 0ddb 63bf 2db2 373e
000000f0: bfa6 1abf 41cb 593e 13c5 4c3d 1c0b f33d
00000100: f5a0 073e 836b 8abd 98f3 5a3b ee89 7d3e
00000110: e695 89bd fcdf f33d 879d 2c3e 8efa 513e
00000120: 276c a03d bb16 3d3c e6e3 d13e 15a3 9f3e
00000130: 37e9 e93e 4472 ae3d 3c98 353e 397e 2c3e
00000140: 5243 823e b7b1 ed3c 4ca9 f1bd b34b 5fbd
00000150: 7f67 db3d be8f 653e 9290 12be 7e85 e63c
00000160: db27 923e f438 0abe c3dd d4bd 4cbc 353d
00000170: 2ea8 e63d df81 1e3d 347c 2a3e e63f 2e3e
00000180: 3441 2b3e d5a0 473d 637f cfbd 23c9 363e
00000190: c1d4 c53d b569 b53c 748e c03e 7ae1 eebc
000001a0: d52b 143e 53d6 f9bb 207f 0f3f 61fa 72bf
000001b0: 6f2d 3a3e 0a20 a1bd 24da b63d d3e2 9e3d
000001c0: 45b0 433e 3ee2 97be bbd8 083e f837 b63d
000001d0: a7b9 febc b1d4 4bbe 5811 3d3e 50e7 8ebd
000001e0: bb6f 263e 11ed 8ebd 274a 0e3e 37dd c2bc
000001f0: 1968 243e 15ea 6dbc 80ff 4a3e 4abe 74be
00000200: c83c a23d 1c5c c7bd f4fc 89bd 5df0 2cbd
00000210: ea0c 1d3d 738e aebd b5bf c23d 6d1b cb3d
00000220: 8018 0f3e 84f0 203e b7ed ffbc 6ce0 d2bd
00000230: 524f 833d c81e 4f3e acd1 cb3d ddfe c1bd
00000240: 01e5 d03d 00a1 5c3d a87f 98be b566 fbbc
00000250: 8d36 b2be c8cc 5f3b 39a5 c5bd 109e 903d
00000260: 0a37 1d3d 736f 80bd 0c14 1ebe 13e7 2abe
00000270: 09e0 07be 277d d8bd 40d5 3cbb bce5 89bd
00000280: eae2 e7bc 12ac 1a3e ffb0 59be 8a71 f9bd
00000290: 703b ed3c 62ac d63d b39e abbe 5bb4 313d
000002a0: 5e3f 45bd 61d1 f8be 8ecb 2abe 0b3c c1bd
000002b0: cd25 163d 9970 413e 0c6b b8bd 3705 013e
000002c0: d8f2 37bf 791f ccbe 6cd1 4ebd 83b2 7a3d
000002d0: c2d0 16bc 54fe eebd 2fed 933d 9030 42be
000002e0: e508 d33d 9b93 643e 10b1 bbbe a984 a03d
000002f0: cc59 3bbe a6b9 ffbd 0234 c9bd 8f70 acbd
00000300: 2349 45be a84d f8ba 2ba5 81be ea1f 94bd
00000310: e1b1 84bb 5de5 4b3e cc3b b03c 52bd d13c
00000320: 281e afbd 6419 013e def9 51be a50e 8abe
00000330: 63e2 69be 2b79 2b3e 59c6 b8bd 5e70 09be
00000340: 1b21 1abd e894 35bd a09a 15bc 8ad4 9cbc
00000350: cb2f 76bd 873e 6c3a 044f d63c 37b4 d3bd
00000360: 7dec 82bd f08d 9a3d cad0 d33d b1fd 033e
00000370: e32e 003e 5751 dcbd 18a0 d6bd 722d 88bd
00000380: 62cd 02bd c1e0 083e d94a ab3d 4c55 0c3e
00000390: a821 4cbd 3fc5 043e 074c 03bf 9075 dabd
000003a0: 0e84 803d 2df2 273e 674b 98be aa46 37bf
000003b0: 4d23 693d c655 dbbc 3195 a23d d9a0 abbd
000003c0: 7379 debd de2f 3fbe 0680 933d ead3 e43d
000003d0: 5132 a3bd 2114 35be 5f1a c83d af6e 9bbc
000003e0: c320 aabd a02a b23b fd25 78be d9b8 7abd
000003f0: 30de 943d d45e 063d 57d1 c03d ae7f dbbd
-0.051131595 0.07119465 -0.03402056 0.31028932 0.15049051 -0.06755015 0.15009604 0.0861242
0.21379104 -0.012546213 0.0652464 0.1170673 0.1295189 -0.15310559 0.17743056 -0.16922823
0.26780844 0.056438103 0.5055622 0.38451865 -0.72248685 0.024117129 0.217853 0.2120289
0.19830176 -0.049497794 0.14792179 0.028777692 0.038559582 -0.061206356 0.06259291 0.037491977
0.13519715 -0.095530994 -0.5294464 0.11535034 -0.04002282 0.11427249 0.16348054 -0.0408729
0.104707904 0.64793515 -0.19012178 0.23046766 0.15369737 0.033923287 -0.04821351 0.065551676
-1.0680641 -0.9474402 0.109767646 0.12117214 0.11229635 -0.1183187 -0.022881221 0.07172977
0.0022392904 0.08177787 -0.8900612 0.17939062 -0.60410684 0.21268941 0.049992632 0.11867353
0.13244994 -0.067587875 0.0033409353 0.24759647 -0.06718044 0.11907956 0.16856967 0.20505735
0.078331284 0.011541064 0.40994185 0.3117911 0.4568574 0.08517888 0.17733854 0.16845025
0.25441986 0.029015405 -0.11799869 -0.05451555 0.107131 0.22418115 -0.14312962 0.028139826
0.28546032 -0.13498288 -0.1039386 0.044369027 0.112625465 0.038698073 0.16648942 0.17016563
0.16724092 0.048737366 -0.10131719 0.17850165 0.0965972 0.022145132 0.37608683 -0.02916025
0.14469846 -0.0076244264 0.5605335 -0.949133 0.18181394 -0.07867439 0.08928326 0.07758107
0.1911021 -0.29664797 0.13363926 0.08897394 -0.031094385 -0.19905354 0.18463647 -0.06977713
0.1625356 -0.069788106 0.13895474 -0.023787124 0.16055335 -0.014521142 0.19824028 -0.23900715
0.07921749 -0.09734365 -0.067377 -0.042221416 0.038342394 -0.08523264 0.095092215 0.099173404
0.1397419 0.1571675 -0.031241281 -0.10296711 0.064116135 0.20226586 0.09952101 -0.094724394
0.10199929 0.05386448 -0.29784894 -0.030688623 -0.34807244 0.0034149159 -0.09650654 0.07061398
0.038382567 -0.06271257 -0.15437335 -0.1668971 -0.13269056 -0.10570746 -0.002881363 -0.067332715
-0.028306443 0.15104702 -0.21258925 -0.12179859 0.028959006 0.10482098 -0.33519515 0.04338489
-0.048156135 -0.48597243 -0.16679212 -0.094352804 0.036657143 0.18890609 -0.090047926 0.12599646
-0.71854925 -0.39867762 -0.05049269 0.0612054 -0.009205045 -0.11669603 0.072229736 -0.18963838
0.10304431 0.22321932 -0.36658525 0.07837803 -0.18295974 -0.124865815 -0.09824373 -0.08419906
-0.1926618 -0.0018944042 -0.25321326 -0.072326496 -0.004049525 0.19911714 0.021512888 0.02560297
-0.08550674 0.12607342 -0.20505473 -0.26964298 -0.22840266 0.1674544 -0.09022207 -0.13421771
-0.037629228 -0.04433146 -0.009131104 -0.019144315 -0.060104173 0.0009012003 0.026160724 -0.10337108
-0.06392763 0.07546604 0.10342558 0.12889744 0.12517886 -0.10757702 -0.10479754 -0.06649293
-0.03193415 0.13366987 0.083638854 0.13704413 -0.049836785 0.12965868 -0.51287884 -0.106669545
0.062751874 0.16400976 -0.29745027 -0.715922 0.05691843 -0.026774298 0.07938612 -0.08380289
-0.10863008 -0.18670604 0.07202153 0.11173232 -0.079685815 -0.1768346 0.09770655 -0.018973676
-0.0830703 0.00543721 -0.24233241 -0.06121144 0.072689414 0.03280528 0.094149284 -0.10717712

feature_layer.2.bias f4 [128]
00000000: 4b62 e73d d979 c33d c2a5 bf3d f93c 873d
00000010: 6354 85bc 81d3 cc3d 0796 bd3d c25d 64bd
00000020: 669b e73d d56a 5a3d 1f49 c23d 589e 25bc
00000030: e0f5 c13d 8515 68bd d2e0 d9bc b1e1 c83d
00000040: c283 45bd c1b1 40bd 0738 be3d de66 da3d
00000050: f113 27bc 1228 ba3d ffb3 db3c 28e3 c03d
00000060: 3c8f b9bc faef df3d 158b d23d 0e97 34bc
00000070: eb69 62bd 9c7e f03d eae9 da3d cdcc b83d
00000080: e2bf 53bc 1cea 8f3d 536c 723d bf17 073e
00000090: 2ddb c7bc f7ab bc3d ce88 c93d 8eb8 17bd
000000a0: 3841 61bc fadb b23d 2fea 8b3c 3c45 b43d
000000b0: f48f ba3d 9088 773d eac8 9bbc 5cae 9d3d
000000c0: 3fd1 a6bd 0908 74bc 95db ae3d 0000 0000
000000d0: e30d 9d3d 5a2c ee3c e441 25bd a60c dc3d
000000e0: fad8 33bc 4e4a b13d 42a1 15bc 04bf 663c
000000f0: 14b7 23bd 0000 0000 51d6 1f3c 03b3 1cbd
00000100: 7fd2 383d a3a3 cfbb 446c 94bc 9f94 a53d
00000110: 8d1d d63d e6b3 bb3d 6eeb 0cbd 2609 e83d
00000120: 1860 81bc ba05 27bc 4e5b d43d a168 d13d
00000130: 5696 7b3d 8939 c23d b8e0 9bbc d2c9 c4bb
00000140: 9819 e63d 1469 f03d 8226 4ebd 32d8 ca3d
00000150: 0fa1 58bc ecde dd3d 9767 a8bd 00b6 98bc
00000160: 4b33 e73d 0000 0000 d827 c93d b834 c73d
00000170: ff3a bd3d d89b a93d e3aa d5bc 84c2 a83d
00000180: 218d 48bc 617c c83d 43cb 863d 1394 de3d
00000190: 02ae dc3d 94ec 233d 9a6e fabc bfda d73d
000001a0: 01ea fcbc e511 cd3d 5a6d c63d 205a af3d
000001b0: 65be 0abc 4523 d73d 5855 77bd 31da 30bd
000001c0: 594a 8abc 5ad4 f63d 8be3 db3d d85e 87bd
000001d0: a283 97bc c542 d03d e70d bf3d eaf3 ab3c
000001e0: f344 a13d 0d0d d63d be9f 6cbd e021 09bc
000001f0: 3601 86bd 43ee 59bc 4e89 ed3d 5c71 c73d
0.11298045 0.09544725 0.09357788 0.066034265 -0.01627559 0.10001279 0.09257131 -0.055753477
0.11308937 0.05332454 0.09486603 -0.010108553 0.09470725 -0.056661148 -0.02659646 0.09808672
-0.048221357 -0.04704452 0.0928803 0.106641516 -0.0101976255 0.09089674 0.026819227 0.094183266
-0.022651307 0.10934444 0.10280434 -0.011022342 -0.055276792 0.11742899 0.10689147 0.09023438
-0.012924166 0.07027075 0.059185337 0.13192652 -0.024396503 0.09212487 0.098405465 -0.03704124
-0.0137484595 0.087333634 0.01707944 0.08802268 0.09109488 0.06043297 -0.019016702 0.07699272
-0.08145379 -0.014894494 0.08537976 0.0 0.07668664 0.029073883 -0.04034604 0.107446
-0.010977024 0.086567506 -0.009132685 0.014083628 -0.03996952 0.0 0.009755687 -0.038256656
0.04512262 -0.0063366457 -0.018118031 0.08084988 0.10454855 0.09165172 -0.03440421 0.1132987
-0.015792891 -0.010194236 0.103689775 0.102250345 0.06142267 0.0948363 -0.019028053 -0.006005504
0.1123535 0.11738792 -0.050329693 0.09904517 -0.013221993 0.108335346 -0.08222883 -0.018641472
0.1128908 0.0 0.09822053 0.09726852 0.09239768 0.08281678 -0.026082462 0.08240226
-0.012240679 0.097893484 0.06581738 0.10868087 0.10775377 0.04002054 -0.030570317 0.105397694
-0.0308733 0.10013179 0.09688826 0.08562112 -0.008468245 0.10504774 -0.060384125 -0.043176834
-0.016881155 0.120522216 0.1073676 -0.06609887 -0.018495385 0.10168985 0.093288235 0.02099033
0.07874479 0.10451708 -0.05776953 -0.008369893 -0.065432 -0.013301435 0.115984544 0.097384185

value_stream.0.weight f4 [64, 128]
00000000: a648 efbd 1c09 3f3e 01fb d93c a866 9c3d
00000010: c80b 943d 61c5 673e 256b 1e3d 87fc 61bd
00000020: f353 753e 5ab3 36bc 453e a93d 9105 8b3c
00000030: 9af3 0e3d 5bd2 583d e195 28be 5d86 173e
00000040: bd78 c43d ddc5 9fbd e07e 93bd 7755 593e
00000050: 613d 273e dc25 553d e7ac 2ebe 65e7 283d
00000060: 94c2 753c ce0f bebd 76cf 083d 5044 37bd
00000070: f542 a7be 22de 473e ed24 063e 1f48 a6bc
00000080: 1966 303e 1092 f83c 712c 8f3d 7903 d83d
00000090: e5ba ecbd 4525 b9bc 1a1b b53d 78c1 b6bd
000000a0: 9791 e93d 42f7 8f3d 1584 a43d 09db 673e
000000b0: 0aea dabc 2643 c03c 44de dbbd 6846 0bbe
000000c0: 45d6 babe 1f94 0d3e 4142 183e 9a46 0ebe
000000d0: 665c 463e 2b6f a3bd 4547 4bbd dfac 673e
000000e0: 771a 91bd da0d b0bc 238a 84bd 0e1a 16bd
000000f0: 05b3 1dbe bbd3 bebd 0116 6dbd 5154 c1bd
00000100: a243 563d f311 a93c f321 883c dd93 d5bd
00000110: 3547 54bc 6abb 35bd 6aaa aebe cc05 d1bc
00000120: f538 cb3c d10e c5bc 93be cfbd 8f18 293e
00000130: dc21 ce3d 952c b63d 4cb6 a73d 69e4 33bb
00000140: de5c a03d 87d4 e3bd 0d63 26bd fa32 583e
00000150: 7d07 e7bd e788 413e cafa 9fbd 28b1 433d
00000160: 2699 0c3d 8c8c cabd 522f 7e3b 147b 583e
00000170: b721 663d 62de c6bd e09b 3e3d 9cb3 59bd
00000180: 552e c2bd 9e3d aabc ca48 91bd cdad 07bd
00000190: cbc3 083e 7eb3 a7bc d622 103d ad9a 743e
000001a0: d93d b13d 1a4d 573e 74aa 733e 66f9 833d
000001b0: 3aab b53d 6f5c 663e 324e 1cbe c6f5 8dbe
000001c0: 9f7b 0f3e 2ef5 3c3e 8ec4 183e 5259 e3bd
000001d0: 6ded 8abd 53a9 073e bd6a 423d 39e3 1f3d
000001e0: bf6b 603e 57e5 2a3e c765 56be 1821 80bd
000001f0: fc5f c6be 6bf9 5a3d 172b 853e 348f bebc
00000200: da45 90bd ef9a 5a3e 9dc7 c5bd 70bf 3a3e
00000210: 8fb9 263d 2957 5d3e e8ff 7c3d dc3e 313d
00000220: af00 d1bd b25a 8ebb 0ce2 333e 8012 76bd
00000230: 53a9 8b3e 0304 9dbd 6331 c9bd d0cf 15bd
00000240: 4fd5 09be bf01 f9bd f6e8 54bd d239 1f3e
00000250: 01ca 0ebd 21e5 0c3e f538 e43d 72b5 babd
00000260: f436 b8bd 6d2d 333e f295 59bc 1a0a 0abe
00000270: 2b89 77be 1027 bebd 8667 11bd 673b 393d
00000280: bc0f 103e 6acd 473d 9cfe 8b3d 25a6 913d
00000290: 33a8 afbd 2159 013e 5897 373e 0d64 123d
000002a0: a915 293e b68e 763e 6343 643d 4ad6 53bd
000002b0: e610 293e e61c 753d 5f75 f2bc 9ca9 20bc
000002c0: c6f6 b8be d2d2 91bd 8ab8 483e a287 09be
000002d0: 9936 b43d ef34 d2bd 8348 0d3e cc45 cfbc
000002e0: a120 5bbb 3966 4c3e 6907 223d 2df4 6b3d
000002f0: 18af f5bd d0e9 4a3c 9e58 613e bc8c 6fbc
00000300: d8d3 0c3e 4602 013e 4011 b338 c0ad 5c3e
00000310: e3a9 6c3d 21d6 333e 69e4 d7be 8d70 d5bd
00000320: a62a 993d 1180 813d c2e7 6ebc 6c56 103d
00000330: e812 9d3d 66d6 443e 8f48 603d 885d 1b3e
00000340: 52d3 443e caba dc3d af67 04be f78f 8e3c
00000350: 2ea9 07be 66ee 063e c6cf 59bc 1634 a4bd
00000360: f272 6d3d d51f d2bd 5fa9 993d 04de 3c3e
00000370: 8006 7c3e 4055 a7bd 3614 363d 7dd2 c0bc
00000380: 6767 19be 2a9e 2c3e 1eeb 2d3e 0cf3 603e
00000390: 67c9 5d3e 2e7a 9e3b 4c7f 083d de42 143e
000003a0: 3c27 a7bd 142b 3d3e c17f 89bd a562 423d
000003b0: 4d41 33bd 5b33 003e 4b1b e43d 4a46 ecbd
000003c0: 61d1 89bd ba86 613e c477 a2bd 7fe5 0abe
000003d0: d85c fabd 151c 513d 5f4e 3c3e e44c da3d
000003e0: 8d66 02bd bb1d 9fbc 5170 09be ab3c 07be
000003f0: ae0f d9be 0bc7 0d3e fbdd 0b3e 9416 94bd
-0.116837785 0.18655819 0.026608946 0.076367676 0.072288096 0.22633888 0.0386764 -0.05517247
0.23957805 -0.011151159 0.0826383 0.016970428 0.034900285 0.052934986 -0.16463424 0.1479735
0.095933415 -0.07801411 -0.07201934 0.21224009 0.16332008 0.05203806 -0.17058145 0.0412363
0.015000004 -0.09280358 0.033400975 -0.044742882 -0.32668272 0.1951833 0.13100024 -0.020298062
0.17226447 0.030343086 0.069908984 0.10547537 -0.11559085 -0.02260078 0.0884306 -0.0892362
0.11404722 0.070295826 0.08033005 0.22642149 -0.026722927 0.023469519 -0.10735753 -0.13601077
-0.364916 0.13826035 0.14869024 -0.1389412 0.19371185 -0.07980188 -0.049628515 0.22624539
-0.07085126 -0.02149098 -0.0647166 -0.03664594 -0.15400322 -0.09317728 -0.057882313 -0.0943991
0.052310593 0.020638442 0.01661775 -0.10428593 -0.01295643 -0.044368185 -0.3411439 -0.02551546
0.024807433 -0.024054917 -0.10143771 0.16513275 0.10065052 0.08895222 0.08189067 -0.0027449375
0.07830213 -0.11124521 -0.040621806 0.21113196 -0.11280725 0.1889988 -0.07811506 0.04777637
0.03432574 -0.098900884 0.003878553 0.211407 0.056184497 -0.09710385 0.046535373 -0.053149804
-0.094814934 -0.020781334 -0.070939615 -0.033124734 0.13355939 -0.02047133 0.035189472 0.23887129
0.08654375 0.21025506 0.23795491 0.06444053 0.088705495 0.22496198 -0.15264204 -0.27726573
0.14012001 0.18452904 0.1491873 -0.11101021 -0.067835666 0.13248186 0.047465075 0.039035056
0.21916102 0.16689049 -0.20937262 -0.06256312 -0.38745105 0.05346052 0.26009437 -0.023261644
-0.07044573 0.21348165 -0.09657214 0.1823709 0.040704306 0.2161528 0.06176749 0.043272838
-0.102052085 -0.004344308 0.17566699 -0.060076237 0.27277622 -0.07666781 -0.09823873 -0.03657514
-0.13460277 -0.12158536 -0.05197998 0.155494 -0.034860615 0.1375928 0.11143676 -0.09116639
-0.089948565 0.17497797 -0.013280379 -0.13480416 -0.24173419 -0.09284794 -0.03549912 0.045222666
0.14068502 0.048779882 0.06835672 0.07111768 -0.08577003 0.12631656 0.17928827 0.035739947
0.16512169 0.24077877 0.055728327 -0.051718034 0.16510352 0.059842013 -0.029596983 -0.009806063
-0.36125773 -0.07120289 0.19601646 -0.13430646 0.08799476 -0.102640025 0.13797192 -0.025301836
-0.0033436196 0.1996087 0.039557848 0.05760591 -0.11996287 0.012384847 0.22006461 -0.014620956
0.13752687 0.12598523 8.538598e-05 0.21550655 0.057779204 0.17562152 -0.4216645 -0.10421858
0.07478838 0.06323255 -0.014581623 0.03523867 0.07669622 0.19222412 0.054756697 0.15172398
0.19221237 0.10777815 -0.12930177 0.017402632 -0.1324813 0.1317688 -0.013294166 -0.08017747
0.05797095 -0.10259978 0.07503008 0.18444067 0.24611855 -0.08170557 0.04445287 -0.023537869
-0.14980851 0.1685721 0.16984221 0.21967715 0.2165886 0.0048363423 0.033324525 0.14478633
-0.0816178 0.18473464 -0.0671382 0.047457356 -0.043763448 0.1251959 0.11138018 -0.11536844
-0.06729389 0.2202405 -0.07933 -0.13564108 -0.1222474 0.05105217 0.18389271 0.10659197
-0.03183608 -0.019423356 -0.13421752 -0.13206737 -0.42394775 0.1384546 0.13658898 -0.07230869

value_stream.0.bias f4 [64]
00000000: b310 f13d 1372 d23d 5ec9 c4bb ec76 20bd
00000010: 1618 85bc ed06 c93d 7404 cc3d de48 cd3d
00000020: d692 babc 369e 51bc 8db7 cf3d e500 0cbb
00000030: a9c9 c4bb 6062 12bc 0d25 023e 2c60 cc3d
00000040: 1337 dc3d 6b88 c03c 1862 d93b 1e2b eb3d
00000050: 864c 213d 1dbd ea3d 8e29 d43d 3504 87bc
00000060: 368f cb3d 143d cd3d 6b19 cf3d f16b 37bc
00000070: 79bf 0abc f7f6 ce3d 5cac cdbc aa09 ce3d
00000080: 22c9 c4bb 0ad1 8cbc 9a74 adbc a568 d53d
00000090: 84de 97bc 90d6 55bc 8cb5 f33d 1bed ed3d
000000a0: 7127 1b3c f02a d93d ece3 e43d 5c8e 15bd
000000b0: 7753 59bc 9634 06bc 6e1e 31bc 61aa d93d
000000c0: d8c5 e63d e7f8 693c 961a cc3d de58 53bc
000000d0: d37b 1d3d 755d 8e3c ec3c d73d 3eb7 55bc
000000e0: 25cd 47bc 0000 0000 6123 ebbc 6685 c93d
000000f0: b52b 303d e9ba 2bbc e807 6fbc 976d a63c
0.11770763 0.10275664 -0.00600545 -0.039175913 -0.016246837 0.09815774 0.09961787 0.10023664
-0.022775095 -0.012794068 0.101424314 -0.0021362838 -0.006005485 -0.008934587 0.12709446 0.09979281
0.10752692 0.02350255 0.006634008 0.11482833 0.03937962 0.11461852 0.103594884 -0.016481498
0.09939425 0.10021415 0.1011227 -0.011195169 -0.008468502 0.101056986 -0.025106601 0.10060437
-0.006005422 -0.017189521 -0.021173764 0.1042035 -0.01853872 -0.013051644 0.11899862 0.1161749
0.009469853 0.10603893 0.11176285 -0.036512718 -0.0132645285 -0.008191248 -0.010810478 0.106282
0.112682045 0.014280534 0.09966008 -0.012899606 0.038448166 0.017378548 0.10509667 -0.013044177
-0.012194906 0.0 -0.028703393 0.09839897 0.043010432 -0.010481575 -0.014589287 0.020315928

value_stream.2.weight f4 [1, 64]
00000000: 7287 5d3e 94e4 053e 4a99 8ebe 55ec cd3a
00000010: cdd0 32be af8a 4a3e 4d60 b73e 73b6 d43d
00000020: 5e65 e5be a9a8 f2bd 457e 263e 446c 82be
00000030: e3fc 0fbe bff9 67be fab6 c03d 993e af3e
00000040: 3e5d ad3d 781e 11bf 6457 16bf a7a5 a33e
00000050: 0a8c 09bf 996d 203e 080d 333e cfec 88bd
00000060: 016f 7d3e 9f01 5c3e 5f22 983e 214b 8cbe
00000070: 41ef 38be 6e6f 903e 90ee 53bc 78c2 743e
00000080: 8461 63bd 32a5 36bd b5ae 2cbe 1a65 043e
00000090: f5fa d6bd 9ea9 80bd 9b07 963e c053 973e
000000a0: 031c 8cbe afcd 313e f8de 643e c323 32be
000000b0: a4a2 6cbe 2c52 f7bd 9da1 8dbe 8244 993e
000000c0: 95d5 5d3e 90b0 31bf 9a3a aa3e 646d f1bd
000000d0: 32cc e8be 8290 abbe 9241 5f3e 1f62 09be
000000e0: 45ee 9dbd f380 63be 2f3b 2ebe 802c cb3e
000000f0: 8c13 81be 8530 47be 47c5 fcbd b586 dbbe
0.216337 0.13075477 -0.27851325 0.0015710691 -0.17462464 0.19779466 0.3581566 0.10386362
-0.448039 -0.118485756 0.16259106 -0.25473225 -0.14061312 -0.22653864 0.094099 0.34227446
0.0846505 -0.56687117 -0.587271 0.3196232 -0.5372931 0.15666808 0.1748544 -0.06685793
0.24749376 0.21484993 0.29713723 -0.2740107 -0.18060018 0.28210014 -0.012935296 0.23902309
-0.05551292 -0.044591136 -0.1686352 0.12929192 -0.10497085 -0.06282352 0.29302678 0.29556084
-0.2736512 0.17363618 0.22350681 -0.17396455 -0.23108917 -0.1207622 -0.27662364 0.2993508
0.21663506 -0.6941004 0.33247834 -0.11788443 -0.4546829 -0.33508688 0.21802357 -0.13416336
-0.07711462 -0.22217159 -0.17014764 0.39682388 -0.25210226 -0.19452102 -0.12342315 -0.4287621

advantage_stream.0.weight f4 [64, 128]
00000000: 239c 3f3e c325 1ebd 4eb6 4fbe 21bc 2dbe
00000010: 775b 1c3e 8e72 f1bc 8ace 27bd e469 723c
00000020: 32ac e8bb 848b b0bd 2223 80be 23be 8b3d
00000030: 509b bbbc bb62 b93d 8bf8 e23d a0a8 21be
00000040: a024 debd 7265 a7bd 2aa1 27be 066a c73d
00000050: 8a41 1a3e 51c3 23be 2457 ad3d 8c73 97be
00000060: e1f8 303e dd7a 0dbe fd11 093e 3f81 e53d
00000070: f9c5 163e bda5 37be 440b 843d 1282 163c
00000080: 2316 0e3e d27e 6dbe 8ce3 89be 493b 81bd
00000090: f81a 57bc cb1c 93be 1939 3cbe db1f b93b
000000a0: ceba 073e 5c3d 9c3d 78e8 e03d f0b7 393e
000000b0: fd25 5fbe db58 26be 3cb6 afbd 68a5 21be
000000c0: 9be2 bebb c294 08bc 801f f2bc 100b b5bc
000000d0: c28b e3bd dc21 003e 756c c23b 2464 603d
000000e0: 0d3d 1bbe 167c 073c 5583 113d 75ae 0a3d
000000f0: a714 f2bb 621b 803d 026a 883d 17c6 193e
00000100: 4813 0fbe 0fee 183e c02c 523d 85d1 82bc
00000110: fa65 68bc 8d04 803d 6454 debc e98b 4e3d
00000120: bc42 01be 665e e0bd d62f 8ebd 2a81 65be
00000130: ac35 febc d768 dabc 60d4 eabc 1b62 24be
00000140: 1db3 02bd 4e07 243e 66ec c33d 8e96 88bd
00000150: 1b57 2c3e 4be3 6c3d 5a6b 233e 339a c0bd
00000160: 6e2e 27be e6f6 b33d 4d07 cdbd fec5 4ebe
00000170: 941b f13d a4f0 66be f0d3 c6bd 7605 6cbd
00000180: fea1 363e cec9 46bd 5604 f5bd f003 94bd
00000190: 5f4e 75be 8499 fa3d f28d 23be 8d7e 7bbd
000001a0: a36c 373e 8a97 663d 73d2 0dbe 5637 6fbb
000001b0: c897 1fbe 7898 833d 3b46 f93d 5fd7 1cbe
000001c0: cbf6 0bbe 5694 f9bd 7da0 23be f90b 9d3e
000001d0: 1592 053e eb72 6e3d 813d 123d 3c5a 8fbd
000001e0: f495 52be bcd3 09bd 7cf0 803e 8b2a b4bd
000001f0: a053 f23d 33ab 96bd 3b73 87bd 7f1f afbe
00000200: 5c25 1dbe 86ef 57bc a92e 193e 8bd7 1c3e
00000210: 8f90 31bd 3915 ce3c 5029 2cbe afec dabd
00000220: f6b6 e93d d1ca f93a ee7d 363d 7abc c73c
00000230: ebac c2bd 6921 183e 035d 303e 0e98 693d
00000240: 47da 223e 0439 4a3d ed09 ec3d a6f3 0ebe
00000250: 7350 763d 3894 12be dd73 dcbc 349f 13be
00000260: 89ef 833d 175b 46be 7e7c 64bd ba1d 91bd
00000270: 4676 f13d eb44 0ebe e970 ccbd e296 fa3d
00000280: bb4d a73d 5892 fa3d 420f 133e 80a6 00be
00000290: e8ed 253d 80ea 16be 7f14 bbbd 0e01 01bd
000002a0: 6b17 c0bd 1b8e b83c f589 b43c 51bd 043d
000002b0: 3444 b63d 8a7f e5bc 54d1 103e 6c0b acbc
000002c0: 7233 fd3d 273f 133e 0e6c 0f3e 539b aebd
000002d0: 30f6 c1bd 2358 12be 1e6d 8fbd 3074 253e
000002e0: 15cc 75bc 41c4 f5bd 1a57 03be 711f 29be
000002f0: 134d b6bd 802d 733d 2700 bdbd a006 89bd
00000300: b890 16be 80b8 27be 281a bfbd b8be 3fbe
00000310: b830 16bd 06bb 8cbd 36d5 a7bd 7a35 0abe
00000320: 802d 6a3d dc92 a73d 124d 45bd e89a 053d
00000330: e171 163e 47db 75bd 282e d6bd e5cd ec3d
00000340: 2cf0 8bbd 65d2 94bd afa7 fb3d f182 213d
00000350: a7df 09be e477 0f3d ce43 a83d 9f46 263e
00000360: ff83 dabd 3e00 b73d 4b65 4bbd 6dc7 05bc
00000370: 930c 37be 564e 2cbe 9dd0 b93d cf31 5dbc
00000380: 01a3 973d fab8 fdbd 6de2 043e b7d7 b5bd
00000390: a220 fcbd dc95 063e 2ec3 e2bd 7e88 f6bd
000003a0: 061d 1bbe 4d8e 8b3d 41e8 f1bc 4e2b 41bc
000003b0: 7651 523d f6cd 60bd ea34 0d3d 5be5 c1bd
000003c0: 2baf 2ebd e6f2 983d d5a3 253d 27ab fb3d
000003d0: 8ad6 2f3e 0ec3 e73d cd9d c3bd f766 13be
000003e0: ac9b aebd 1696 3abd 2fb4 313e 5ba8 da3c
000003f0: 4150 e0bc 5e75 003e 937e 4c3d 75da 003e
0.18711905 -0.03861023 -0.20284387 -0.16966297 0.15269266 -0.02947357 -0.040968455 0.014795754
-0.0071006054 -0.086203605 -0.25026804 0.06823375 -0.022901207 0.090520345 0.11082562 -0.15786982
-0.108468294 -0.08173646 -0.16370073 0.09737019 0.15064064 -0.15992476 0.084638864 -0.29580343
0.1728244 -0.138164 0.13385768 0.11206292 0.14723958 -0.17934318 0.06447461 0.009186285
0.13875632 -0.2319291 -0.26931417 -0.06310136 -0.013128988 -0.28732905 -0.18381156 0.0056495494
0.13254854 0.07628891 0.1098184 0.18136573 -0.21791835 -0.16244833 -0.0857968 -0.15785754
-0.0058253533 -0.008336248 -0.029556036 -0.022100002 -0.11110641 0.12512916 0.0059333392 0.054783
-0.15160008 0.0082693305 0.03552564 0.03385778 -0.007387716 0.06255223 0.066608444 0.15016972
-0.13972199 0.14934562 0.05131221 -0.015969047 -0.014184469 0.06250868 -0.02713985 0.050426397
-0.12623113 -0.10955505 -0.06942718 -0.22412553 -0.031031452 -0.02666132 -0.028665721 -0.1605305
-0.031909097 0.16018412 0.09566574 -0.06669341 0.16830103 0.05783395 0.1595892 -0.09404411
-0.16326305 0.087873265 -0.10011158 -0.20192716 0.11772838 -0.22552735 -0.097083926 -0.057622395
0.17835233 -0.0485323 -0.11963718 -0.072273135 -0.23955677 0.12236312 -0.15972117 -0.061399985
0.17912535 0.056296863 -0.13849811 -0.0036501489 -0.15585244 0.064255655 0.121715985 -0.15316533
-0.13668363 -0.12186496 -0.1597919 0.30673197 0.13044007 0.058215063 0.035703186 -0.06999633
-0.20565015 -0.03364919 0.25183475 -0.08797177 0.118323565 -0.073568724 -0.06613775 -0.34203717
-0.15346283 -0.013179665 0.14959206 0.15316598 -0.043350752 0.025156604 -0.16812634 -0.10689675
0.1141185 0.0019057636 0.04455369 0.024381865 -0.09505638 0.14856495 0.17222981 0.057029776
0.15903579 0.04937078 0.11525331 -0.13960132 0.060135316 -0.14314353 -0.026910717 -0.144162
0.06442172 -0.19370686 -0.055782788 -0.07085748 0.11790137 -0.13893478 -0.099824734 0.1223581
0.08169123 0.12234944 0.14361289 -0.12563515 0.04051009 -0.14737892 -0.09134769 -0.031495146
-0.093794666 0.022528699 0.02203844 0.03240711 0.088997275 -0.028014917 0.14142352 -0.02100154
0.12363328 0.1437956 0.14006063 -0.085257195 -0.09470785 -0.14291434 -0.07003234 0.16157603
-0.01500227 -0.12000323 -0.12826195 -0.165159 -0.089014195 0.059369564 -0.09228545 -0.06690717
-0.14703643 -0.16378975 -0.09331161 -0.18725097 -0.036667556 -0.068716094 -0.08194964 -0.13496962
0.0571723 0.08182308 -0.048169203 0.032618433 0.14691879 -0.060023572 -0.10458022 0.11562709
-0.068329185 -0.07266692 0.122878425 0.039431516 -0.13464223 0.035026446 0.08216058 0.16237877
-0.106697075 0.08935593 -0.049657147 -0.008165223 -0.1787589 -0.16826758 0.09072993 -0.013500645
0.074041374 -0.12388797 0.12977 -0.08879035 -0.12310912 0.13143104 -0.11072384 -0.120377526
-0.1514779 0.06814251 -0.029529693 -0.01179011 0.05134722 -0.05488392 0.03447429 -0.09467574
-0.042647522 0.07468204 0.040439446 0.12288504 0.17171684 0.113165006 -0.095515825 -0.14394747
-0.08525786 -0.04555329 0.17353891 0.026691606 -0.027382018 0.12544772 0.049925398 0.12583335

advantage_stream.0.bias f4 [64]
00000000: 056e 8abd 806c 98bc 15cf 0e3b 9d28 003d
00000010: 5eac 3b3d 359c a0bc 8aa9 3a3c 8da6 423d
00000020: 830f 2bbc 97fe cebb 8165 443d ab8d c23c
00000030: 6bd1 4a3d e869 ccbb 3fc4 d7bc 422a c83c
00000040: d89e 193d 0569 1d3c abc4 103d 0832 3c3d
00000050: e725 c7bc fced 17bd 957b 923a b622 2e3b
00000060: 16fd 47bc 8748 053c e1b3 04bc f8de ec3c
00000070: 6f0c f03b 4b66 8a3d 987d f23c 2e8d b4bb
00000080: c0c9 6fbc 45c0 9cbc 4c9d 1c3c f118 923c
00000090: 8ab4 f43c f235 053b f933 cebb 9d2f 7bbc
000000a0: 508e 463c 52f9 483c 3ebb 133c 23cc 263d
000000b0: 2d8f cc3a 61e8 6c3d 8c74 373d ce06 053a
000000c0: 0632 49ba e04c e83c 6cc3 0b3d 01bd 58bb
000000d0: b503 873d 6619 93bc c05a 953d b668 613d
000000e0: be1b eebc 1255 cabc ebc9 bb3d 5d70 3fbc
000000f0: 710b 613d 02a1 513d 4b45 0d3c d45c f3bc
-0.06759266 -0.018606424 0.002179091 0.03128873 0.04581868 -0.019605735 0.01139296 0.047522116
-0.01044071 -0.0063169706 0.047948364 0.023749193 0.049516123 -0.006238211 -0.026338695 0.024434213
0.037505 0.009607558 0.035343807 0.04594615 -0.024310065 -0.037092194 0.0011175746 0.0026570982
-0.0122063365 0.008134968 -0.008099527 0.028914914 0.007325701 0.06757792 0.029600903 -0.005509994
-0.014635503 -0.01913465 0.009558987 0.017834159 0.029871244 0.0020326343 -0.0062928167 -0.015331176
0.012118891 0.012266474 0.00901681 0.040722024 0.0015606635 0.0578388 0.044788882 0.00050745613
-0.00076749956 0.02835697 0.034121916 -0.003307164 0.06592504 -0.017956447 0.072927 0.0550315
-0.029065963 -0.024698768 0.09169372 -0.011684504 0.054942552 0.05117894 0.008622478 -0.02970735

advantage_stream.2.weight f4 [2, 64]
00000000: 188c 1a3e c748 8a3d 69c6 793e 67f6 3b3e
00000010: 6303 bfbe a342 bebe e10d 94be 247b d03e
00000020: c11e 863e 6a43 2b3d 1eb3 ce3e 0e47 873e
00000030: cad7 3dbe 9707 bebd 499e 12bd b38e 993e
00000040: 7a81 493e 43e6 503e aafe 3b3e dddf 08bf
00000050: e7a4 27be 51d7 e2bd 6ad7 533e 3d86 213d
00000060: 59f4 75be 211c 2e3d f9fb ef3d d20f e4bd
00000070: 312e 92be aa9c d7be 7236 983e 253d 6f3e
00000080: 0b9f 33bd fd0d ba3d 29f1 a6bd 7068 bfbe
00000090: 4e70 6e3e a8af 163c 23b9 573e 348e 7d3d
000000a0: d104 413d 7006 0d3d 62d4 353e 7e0d 243f
000000b0: b51c 4f3d 8993 543e d3e9 62be 921a a6be
000000c0: 5fbb f93d e3c5 173d f91b ecbe e955 9ebe
000000d0: 75c7 253f 9ba2 2e3e b4fe 34bd c796 bbbe
000000e0: af81 453e f5f2 cc3b 4b27 a0be bbb7 2e3e
000000f0: 2789 c93e 288a 253f 9e0f 353f 4f0b c5bc
00000100: 8389 bc3e 8487 83be 531d 5fbe 2f22 d5be
00000110: 35b7 a83e e569 a03e 435a 83bd 1648 c1bd
00000120: cf76 c43c 8038 fc39 64e2 d8be 9e74 97be
00000130: ff6c f03e 1078 013e 78b2 583c 99b8 8bbe
00000140: e277 97be ddba 8bbe c562 b5be 93a1 ff3e
00000150: 4fa9 36be 8c51 863d 3c28 efbb 7b6a d6bd
00000160: 7f83 3f3e 4df0 163e 4e74 243e d1bd ad3e
00000170: 2b32 a93e e021 033f bd66 93be e5f7 b6bd
00000180: 2808 963e b5b5 263e 6f77 9bbe 10cc f83e
00000190: 9892 9bbe a545 ea3e 8129 26be 4f6e 8e3d
000001a0: 1c43 543e a04c c73e c683 cebd b882 97be
000001b0: 426d e8bc dd90 2abf b28e dd3e 4283 9f3d
000001c0: 68f1 7fbe 0ab0 afbe 9dd2 46bd b193 5f3e
000001d0: ab30 83be 339a 783e 9805 0cbf 6dc9 773e
000001e0: 3868 843e 09b3 81be 5f27 b53e 6010 88be
000001f0: 8352 0cbf d923 22bf 92e1 c8be f0ad dfbd
0.15092504 0.067521624 0.24392094 0.18355714 -0.3730727 -0.37160215 -0.2891684 0.4071895
0.26195338 0.041812338 0.4037103 0.26421398 -0.18539348 -0.092787914 -0.035795484 0.29991683
0.19678298 0.20400338 0.18358865 -0.5346659 -0.16371499 -0.110762246 0.20687643 0.03943466
-0.24018992 0.042507295 0.11717982 -0.1113583 -0.28550866 -0.42111713 0.29729038 0.23363169
-0.043852847 0.09084699 -0.081514664 -0.37384367 0.23285028 0.009197153 0.21066718 0.061903194
0.047123734 0.034429967 0.17756799 0.6408309 0.050564487 0.20759405 -0.2215951 -0.32442147
0.12193941 0.037053954 -0.4611509 -0.3092492 0.6475747 0.17054217 -0.044188216 -0.3663847
0.19287752 0.0062545487 -0.31279978 0.17062275 0.3936245 0.64663935 0.70726955 -0.024053244
0.36823663 -0.25689328 -0.2178853 -0.41627643 0.32952276 0.3133079 -0.064137004 -0.094375774
0.023982434 0.0004810728 -0.42360222 -0.2958116 0.46958157 0.12643456 0.013226144 -0.27289274
-0.2958365 -0.27291003 -0.35426918 0.4992796 -0.17838024 0.065585226 -0.0072984975 -0.10469528
0.18702506 0.14740105 0.16059992 0.3393388 0.33046088 0.51223564 -0.2878932 -0.08934001
0.29303098 0.16280253 -0.30364558 0.48593187 -0.3038528 0.4575626 -0.1622677 0.069546334
0.20728725 0.38925648 -0.100837275 -0.29591918 -0.02837241 -0.66627294 0.4327293 0.07788707
-0.24994433 -0.34313995 -0.0485407 0.21833684 -0.25623068 0.24277572 -0.54696035 0.24197932
0.25860763 -0.25331905 0.353816 -0.26574993 -0.548134 -0.6333595 -0.39234596 -0.10921848

advantage_stream.2.bias f4 [2]
00000000: c4f4 df39 c4f4 dfb9
0.0004271624 -0.0004271624

exp_avg f4 [128, 4]
00000000: 2142 92ba b034 ae3b 6691 433a 76db 85bb
00000010: 942e 54b9 3425 c6b9 a563 f6b8 374e e6b8
00000020: bc48 81bb c4d0 30bb 429e a6b9 9806 2fbb
00000030: 3b6e 153c fb38 823c 82d6 423a 8296 5fbb
00000040: 9dfd 003b e2e2 b63a f754 0cb9 8d2c 643a
00000050: eda6 b539 a2b8 a5b9 346d 62b9 4c1b 6bb8
00000060: 1a3f 4a3b 30a0 d13b 58bd 9139 091e e4ba
00000070: 50ce d6ba 85cf 0e3b 17e6 2539 04f8 bcbb
00000080: 7496 d93b d12d 433c 9eab 413a b135 09bb
00000090: 5afe 653b 9f47 5d3c d220 9c3a d13a debb
000000a0: 0400 0080 0400 0080 0400 0080 0400 0080
000000b0: 5315 793a 062c 253a 7e02 8ab9 2bae b6b9
000000c0: be72 9a3b 8e1e 073c d517 11b9 69e7 37bb
000000d0: 1558 2fbb 2712 0d3c 2fa4 af3a e152 2bbc
000000e0: ecf9 62ba 324f 2bba ce40 9f38 f113 33b9
000000f0: 101b 3bba 281d 6bba 5b2b 1bba 6808 baba
00000100: 7ec9 183c 4059 953c 96c4 2f3a 5b50 bbbb
00000110: 00ce 513c 0eae a03c 5437 553a 38a6 60ba
00000120: 91e3 293c 6865 ebbb 3053 dcb8 5fe5 bd3c
00000130: a11d cd3b bf67 173c 5407 a2b9 21b8 29bb
00000140: 00a7 88ba 68c9 71ba bf4d 83ba 3fce bcbb
00000150: e695 433a 181e 56bb 024b 05b9 8e59 863b
00000160: 7196 8a3a e886 b73b 3866 a53a e053 be39
00000170: 59c1 e23b f7d1 373c 4aac 003a 0688 96ba
00000180: 1f34 bc3a 80bd 01ba bef0 4e38 5731 463b
00000190: 6563 3638 e39d ed37 c0fb 1fb8 10e4 97b7
000001a0: 796c ef3a 072f 383b 5f2e 6939 40ee 97b6
000001b0: 5520 d63a 134d 503b 7402 3e38 ec2b b4ba
000001c0: d0d5 cab8 fc50 1039 ea92 82b9 0e3b 85ba
000001d0: 7e01 323a a1ad 1e3a 729b 55b9 c1b6 86ba
000001e0: 74c1 053b 3304 3abb b129 2c3a 2300 033c
000001f0: ee3c 2f3a 760f abba 6ea1 e038 30da 393b
00000200: 6a26 56b9 1cf4 cf38 f013 28b8 cf5a b4b9
00000210: 830c 633b 5731 203c 6648 e53a 4040 6338
00000220: 7a98 77bc 40e6 aebc 08c3 a6ba 7044 a9ba
00000230: 807f 79b9 b4f6 473a ac79 abb8 503a 58ba
00000240: ff44 beb9 265f aab9 4822 6d37 0ed9 68b8
00000250: 4d50 2f3c 7eb7 803c c62e 123a f31e 0abb
00000260: 084c 313c 3cf6 913b e780 bfba e8a8 b43b
00000270: f47c 453a b84f 7539 2a3a c0b9 f2db c4b9
00000280: a061 5b39 c8c6 0639 58ba a9b9 a822 e0b9
00000290: 5674 463c d67a acbb 87ab 8939 52d9 bf3c
000002a0: dae7 00bb 28a3 f4ba d8dc 12ba 7d2c 31bb
000002b0: c9c0 123a b42b b33a a53e 02ba 9ad7 21bb
000002c0: f657 85bb cb30 0abc 4ac2 69b9 942c 663b
000002d0: 1136 333c 13ee a33c 2dfb 153a 2487 bdbb
000002e0: 5cf3 083b d564 923b 4e1c 6c39 b25d 93ba
000002f0: 6ae4 f93b 5a70 693c eed4 5d3a f670 38bb
00000300: b2f3 95bc 8de5 89bc 7d5f abba 14c9 6bbc
00000310: 40df da3b ecb4 db3b 801a 2db9 23f0 81bb
00000320: 53af 0f3b 7e8b 87bb 7a06 69b9 ff7f d73b
00000330: 371a 743a 7e3d 813a 216a 98b9 8017 5eb8
00000340: b697 e839 cda3 d739 b3cc 78b9 1868 4dba
00000350: d9c6 1539 4bf5 b3b9 7a12 1fb9 6abd 0539
00000360: dae6 273b e8d0 393c c217 953a 79e9 a6bb
00000370: ac59 1ebb 7455 b7bb 34f3 66b9 fb50 523b
00000380: c431 89bb 8224 1cbc 1edf 41ba 01a6 b23a
00000390: 2663 a2bb 9f9e 813b fc36 6a3a cd78 09bc
000003a0: 00ba 7b3a 902d ffb9 a70d 0cba f8e0 6ebb
000003b0: c059 a73a 811b b23a 4683 47b9 7050 c3b9
000003c0: 9ff5 3a3b fe41 b73a a3c2 253a 52e5 963b
000003d0: 74aa a4b9 b6af 4bbb 2441 d738 1bb6 633b
000003e0: 7600 593b c35b 78bb 402c 3b36 3ad0 0b3c
000003f0: 00a3 2db8 ac0a 833a 16db a739 3a98 a63a
-0.0011158624 0.0053163394 0.0007460326 -0.0040849997 -0.00020235247 -0.0003779322 -0.00011748754 -0.00010981823
-0.003945438 -0.0026979903 -0.000317799 -0.002670681 0.009120519 0.015896311 0.0007432477 -0.003411681
0.0019682415 0.0013953114 -0.00013383092 0.00087041483 0.0003464738 -0.00031608815 -0.00021593721 -5.605379e-05
0.0030860365 0.0063972697 0.00027797627 -0.0017403971 -0.001638839 0.0021791172 0.00015821341 -0.0057668705
0.00664025 0.011912779 0.00073879387 -0.0020936544 0.0035094232 0.013505845 0.0011911637 -0.006781914
-6e-45 -6e-45 -6e-45 -6e-45 0.0009501774 0.00063008105 -0.00026323268 -0.0003484351
0.0047133854 0.008247031 -0.00013837156 -0.0028061515 -0.0026755382 0.008610285 0.0013400371 -0.010456772
-0.0008658457 -0.00065349333 7.5937816e-05 -0.00017078199 -0.00071375165 -0.0008968883 -0.0005919241 -0.0014193179
0.009325383 0.018231034 0.0006705014 -0.005716366 0.012805462 0.019614246 0.00081335497 -0.00085696904
0.010369197 -0.0071837194 -0.00010505912 0.023180662 0.0062596356 0.009241044 -0.00030904508 -0.0025897103
-0.0010425746 -0.0009223432 -0.0010017677 -0.005761891 0.0007460996 -0.0032671746 -0.00012711811 0.004100031
0.00105734 0.005600799 0.0012618965 0.00036302116 0.0069200215 0.011219493 0.00049084856 -0.001148463
0.0014358795 -0.0004949197 4.9338436e-05 0.0030241811 4.348475e-05 2.8326123e-05 -3.8143015e-05 -1.8106803e-05
0.001826658 0.0028104202 0.00022237886 -4.5278866e-06 0.001633654 0.003178422 4.5301815e-05 -0.0013746
-9.671936e-05 0.00013763079 -0.00024904992 -0.0010164694 0.00067903835 0.00060530944 -0.00020371171 -0.0010277854
0.0020409497 -0.002838385 0.0006567492 0.007995638 0.00066847994 -0.0013050872 0.00010711221 0.002835881
-0.0002042294 9.915998e-05 -4.007289e-05 -0.00034399933 0.0034644909 0.009777389 0.001749289 5.4180855e-05
-0.015112037 -0.021350026 -0.0012722919 -0.0012914073 -0.00023793988 0.0007628009 -8.1765786e-05 -0.00082484353
-0.0003629103 -0.00032495818 1.41342825e-05 -5.551526e-05 0.010700298 0.015712496 0.0005576428 -0.0021075576
0.01082135 0.0044544023 -0.001461056 0.0055132993 0.0007533573 0.00023394718 -0.0003666443 -0.00037547905
0.00020921836 0.00012853288 -0.0003237303 -0.0004275043 0.012112698 -0.0052636666 0.00026258474 0.023419056
-0.0019669444 -0.0018664347 -0.0005602366 -0.0027034574 0.0005598185 0.0013669641 -0.0004968441 -0.002469516
-0.0040693237 -0.008434485 -0.0002229299 0.0035121785 0.010938183 0.020010984 0.0005721327 -0.0057839323
0.0020897007 0.0044675865 0.00022517258 -0.0011243133 0.007626106 0.014247978 0.000846221 -0.0028143502
-0.01830468 -0.016833091 -0.0013074722 -0.0143912025 0.0066794455 0.006704917 -0.00016508438 -0.003965394
0.002192457 -0.004136502 -0.00022223024 0.0065765376 0.00093117676 0.0009860245 -0.0002907077 -5.295081e-05
0.00044363522 0.00041130037 -0.0002372738 -0.00078356406 0.00014283824 -0.00034324298 -0.00015170305 0.0001275443
0.0025619776 0.011341311 0.0011374878 -0.00509375 -0.0024162335 -0.0055949036 -0.0002202511 0.0032091725
-0.0041868407 -0.0095301885 -0.0007395613 0.0013629795 -0.004955667 0.0039556767 0.0008934585 -0.008390618
0.00096026063 -0.00048671337 -0.00053426105 -0.003645001 0.0012767836 0.0013588519 -0.00019027022 -0.0003725323
0.002852775 0.0013981459 0.00063232536 0.004604974 -0.00031407515 -0.0031080074 0.00010264132 0.0034745994
0.0033111847 -0.003789649 2.7890928e-06 0.008533532 -4.139822e-05 0.0009997687 0.00032015954 0.0012710162
