CartPoleHighRewardIn2026/checkpoints/checkpoint_ep1000_reward500.00.pt (torch, 421267 bytes, 33 tensors)

feature_layer.0.weight f4 [128, 4]
000000 28 f9 bd bc 93 27 84 3d 69 41 b0 be 24 6f b4 3d
       -0.023190096 0.06452861 -0.34424904 0.08810261
000010 13 89 76 3e ad 53 8f 3e 96 d5 58 3f ef 22 82 3e
       0.24075727 0.27993527 0.84700906 0.25417277
000020 5d fe cd bd 4e cd 0a be e4 cd 95 bf 85 65 80 be
       -0.100582816 -0.1355488 -1.1703458 -0.25077453
000030 ca 6b fd 3c 77 c4 12 bd 94 e6 d6 3e 23 6b 1b bd
       0.030935187 -0.035831895 0.41972792 -0.03794397
000040 9a 92 4b 3e 59 70 09 be dc a1 9d 3f 3b 42 f3 3c
       0.19880143 -0.13421763 1.231502 0.029694667
000050 b4 ed b3 bc b3 d5 2f 3d 62 d4 b1 be 83 83 93 3d
       -0.021963932 0.04292841 -0.34732348 0.07202818
000060 fc 6b a6 3c 57 25 6c 3c aa de 05 3e 20 a2 0f 3c
       0.020315163 0.014413199 0.13073221 0.008766681
000070 fa a3 8e bd 3b c7 90 3d 36 f7 8e be dd 30 78 3d
       -0.0696487 0.0706925 -0.27922982 0.060593475
000080 d1 5b 9f 39 f2 25 ba b9 5c 25 29 3e f0 5b a2 bb
       0.00030395252 -0.00035504956 0.16518158 -0.0049548075
000090 05 70 68 3d 51 b8 6e bd fb e5 a7 3e c7 35 ac bc
       0.056747455 -0.058281247 0.3279265 -0.021021737
0000a0 a1 f7 87 3d e0 e5 81 bd 83 21 19 3e 89 12 cb bd
       0.06639028 -0.06342673 0.1495419 -0.09915645
0000b0 64 18 d5 3c ba 48 33 bd c4 38 b5 3e 7e ef 1f bd
       0.026012607 -0.04377053 0.3539487 -0.039046757
0000c0 4a f5 af 3c b5 e3 12 bd a7 7c d0 3e 39 f4 78 bd
       0.021479268 -0.03586169 0.40720102 -0.060779784
0000d0 24 16 84 bc bf 29 1b 3d 65 5c 00 bf 1b 24 81 3d
       -0.016123839 0.03788161 -0.5014098 0.06305715
0000e0 1b f6 a4 3b 5d d4 79 bc d1 2c d6 bd 09 b5 d0 3b
       0.005034221 -0.015248385 -0.10457767 0.0063692373
0000f0 b9 85 4e 3d 9b 12 c9 bc a8 4d 4f 3f 68 3d 8b bd
       0.050420497 -0.024545005 0.8097787 -0.06798822
000100 fb 14 60 3d 3a 7b 61 bd 6f 19 22 3f 80 b6 8b 3d
       0.05470751 -0.05504916 0.6332006 0.068219185
000110 54 27 af be f0 22 ed bd e3 8a 04 bf 3a 66 d4 bd
       -0.34209692 -0.115789294 -0.51774424 -0.10371061
000120 d9 4a 00 3c 7d 44 de 3b 63 b4 e2 3f 6e c4 7e 3e
       0.007830345 0.006783067 1.77113 0.2487962
000130 d0 77 b1 3c 2b e0 8b bc f9 7b 44 3f 7c 55 9e bd
       0.021663576 -0.017074665 0.7675167 -0.077311486
000140 88 c2 e9 bc d3 58 32 bc 09 0c c8 bf 0b b1 d8 bd
       -0.028535143 -0.010885435 -1.5628673 -0.10580643
000150 85 df 37 3d e6 60 f3 3c e3 ed b1 3f 16 5a c0 3e
       0.0448909 0.02970929 1.3900722 0.3756873
000160 58 a3 90 3c 9b 60 a3 3b 39 e7 84 bf 33 82 33 bc
       0.017656013 0.0049858815 -1.0383064 -0.010956335
000170 86 55 09 3d 86 07 2e bd 34 5a 01 3f ea 85 98 bd
       0.033528827 -0.042487644 0.50528264 -0.07447417
000180 47 b7 39 3c 4b 1e de 3b 40 c4 e7 3f ec 4b 75 3e
       0.011335201 0.0067785135 1.8106766 0.23954743
000190 60 0c aa bb ad 72 3c bc 52 58 99 3f f0 72 1f 3c
       -0.0051894635 -0.01150195 1.1980078 0.009731993
0001a0 d8 4a b4 bb 01 7c 5f bc d7 ae 9e 3f bd a4 f6 bc
       -0.005502086 -0.013640405 1.2397107 -0.03010785
0001b0 c2 06 60 bd 0f 58 29 3d 35 8f 3a bd 12 1b 82 3d
       -0.054693945 0.041343745 -0.04554673 0.063528195
0001c0 ec 1b 8d 3e f8 b9 98 3e 58 bc 4a 3f 00 19 9c 3e
       0.27560365 0.29829383 0.7919364 0.30487823
0001d0 e8 53 9c bd d1 55 a7 3d 21 60 e8 3e 19 ad f3 3d
       -0.07633191 0.08170665 0.4538584 0.1189825
0001e0 bd 19 dc 3e c3 14 e7 3d e5 05 0e 3f 47 4a 35 3d
       0.42988387 0.11283257 0.55477744 0.04426029
0001f0 60 7e 4f 3c e4 69 06 3d 6e 7b cc 3f e8 8f eb 3d
       0.0126644075 0.03281583 1.5975168 0.11502057
000200 92 cd ba 3d 5e a4 9c bd d5 fe 2d 3e 96 64 9c be
       0.09121241 -0.07648538 0.16991742 -0.3054549
000210 73 bc 87 38 0b a0 bd 3b 52 98 e4 be b5 e9 be 3c
       6.472403e-05 0.005786901 -0.4464746 0.0233048
000220 57 89 47 be 99 4e 4b be e2 f8 aa bf 7f e5 ab be
       -0.19485985 -0.19854201 -1.3357203 -0.3357353
000230 75 aa b9 3e 11 6a 46 be e9 19 c7 3d 32 69 20 be
       0.3626286 -0.19376399 0.09721739 -0.15665129
000240 80 ff 9e be 76 00 81 be 90 22 3e bf 25 68 54 be
       -0.31054306 -0.25195664 -0.7427149 -0.20742853
000250 60 f5 d0 bd b4 1b 60 bb d4 5c 6c 3f 5b 2a 44 3d
       -0.102030516 -0.00341962 0.92329144 0.047891956
000260 f5 e1 4c 3e 67 ed 40 3d dd 95 9c 3f 93 57 d4 3d
       0.20008071 0.047101405 1.2233235 0.10368266
000270 4f 16 f4 3a 91 f5 87 3b db 8b b4 3f 8c 37 af bd
       0.0018622371 0.004149147 1.410518 -0.085555166
000280 30 be c2 3c db 8c 78 bc 64 22 0e 3e 4e 7b cf bd
       0.02377233 -0.015170301 0.13880306 -0.101309404
000290 cf 18 7e bc d4 64 09 bd 35 61 dc 3f 8c 03 4e 3e
       -0.0155088445 -0.033543423 1.7217165 0.2011854
0002a0 2a ee 15 bc 6a d5 cf 3c b1 15 e2 bf 5d 69 2d be
       -0.009151021 0.025370318 -1.766287 -0.16934724
0002b0 22 56 19 3d 66 41 0e bd ad 60 2f 3d f6 cf 9a bc
       0.03743566 -0.034730338 0.042816807 -0.018897992
0002c0 13 3b 91 be d5 c2 17 be 55 59 e2 be a5 bb 08 3d
       -0.28365383 -0.14820416 -0.4420878 0.033382077
0002d0 e0 d6 22 be c5 8f 25 be ef fe 51 bf 8b 8c 1b be
       -0.15902281 -0.16168125 -0.8202962 -0.15190332
0002e0 32 94 b1 3e 76 85 24 bd 30 73 e7 bd 11 da ae 3d
       0.34683377 -0.04016634 -0.11301267 0.085376866
0002f0 df 13 0d bd 4a 93 c5 be 34 16 1a bf ef 54 a3 be
       -0.03444278 -0.38588935 -0.6019013 -0.31900737
000300 e2 bc e7 bc e7 bc a0 bc d5 fd bc bf 23 01 01 be
       -0.028288309 -0.019621326 -1.4764963 -0.1259809
000310 86 a1 19 3c 75 36 c4 ba a5 00 ca bf e5 e5 2d bd
       0.009376889 -0.0014969843 -1.5781447 -0.042455573
000320 66 40 dd bc f7 19 c4 3b 99 07 88 3f 78 9c e0 3d
       -0.027008247 0.0059845406 1.0627319 0.10967344
000330 62 07 c7 bc 99 13 c8 3c 28 77 86 bd 88 e0 43 3c
       -0.024295513 0.024423407 -0.06565696 0.011955388
000340 d7 3c 59 3e f0 a5 6e bd fe 57 23 be f0 54 a7 bd
       0.21214615 -0.05826372 -0.15951535 -0.081704974
000350 d2 65 da bc 67 6e 9c bc a8 1b 64 3f 21 e8 15 be
       -0.02665988 -0.019095613 0.891047 -0.14639331
000360 6d bf ef 3c 7d 2a e1 bc 74 e0 9d be 68 0d c7 bb
       0.029266084 -0.02748608 -0.30835307 -0.006074596
000370 17 d6 3a 3e 5f 56 4c 3d 4c fd 5b 3f 06 5a eb 3e
       0.18245731 0.049887057 0.85933375 0.4596712
000380 a6 e6 02 3c c3 38 8a bd eb 29 d4 bd 1c c4 a0 be
       0.007989561 -0.06749108 -0.10359558 -0.3139962
000390 01 89 83 bb 63 46 34 3e e0 70 f6 be 4c b7 a2 3d
       -0.004014135 0.17604975 -0.48132992 0.07945117
0003a0 b1 7a 86 3b 78 21 8e 3b b2 a2 d1 bf d6 3f 61 be
       0.0041039814 0.004337486 -1.6377776 -0.21997008
0003b0 14 4b 6e 3c b0 bd 83 bd 19 88 59 3f ea 27 66 be
       0.014544267 -0.064326644 0.84973294 -0.22476164
0003c0 5c 58 0f 3e 8f 7f 71 bd 9b db 02 bc 6e 98 63 bd
       0.1399855 -0.05895954 -0.007986928 -0.05556529
0003d0 04 ca 2f bc e7 cd 3e bb e5 be de 3f 29 68 4b 3a
       -0.010729317 -0.0029114427 1.7402006 0.00077593565
0003e0 68 39 3a bc c4 63 8b 3b 5e 5b b6 3f a1 4b d0 3c
       -0.011366226 0.0042538363 1.4246633 0.025426688
0003f0 a1 8f 1f 3d 68 e3 6d bd 1b c0 d6 3e 9f 97 27 bc
       0.038955335 -0.0580782 0.4194344 -0.01022902

feature_layer.0.bias f4 [128]
000000 10 32 64 be b7 e4 42 bf a5 2c d2 be 2d d1 1f be
       -0.22284722 -0.7613024 -0.41049686 -0.15607138
000010 90 30 f6 be 5e 6d 5b be 12 40 e0 bd 04 58 a5 be
       -0.48083925 -0.21428439 -0.109497204 -0.32293713
000020 66 2f 13 bd d6 f2 5a be 9e 92 75 be 99 42 4c be
       -0.035933875 -0.21381697 -0.23981711 -0.1994728
000030 fc b7 1b be 00 f2 8d be ed f4 f5 bd 4a 17 8b be
       -0.15206903 -0.27723694 -0.120096065 -0.27166206
000040 2c b6 55 bd e1 2e ed be c9 d9 c5 be 32 6b 5d be
       -0.052175686 -0.46324828 -0.3864272 -0.21622923
000050 be 7a d0 be 75 22 e3 be f3 9c 99 be 3b 7c 39 be
       -0.40718645 -0.44362226 -0.30002555 -0.18113796
000060 77 4a bb be 7f 0c 9a be 8b b7 99 be 7e 95 67 be
       -0.3658025 -0.3008766 -0.30022845 -0.2261562
000070 f2 34 3d bf 34 c1 d5 be 9c d7 30 bf fc cc d4 be
       -0.73908913 -0.41748965 -0.69078994 -0.4156264
000080 9e b7 1b bf ac b0 e7 bd bc f8 08 bf 29 b4 ed be
       -0.6082705 -0.11312994 -0.5350454 -0.46426514
000090 64 3e 38 bf d3 23 9e 3e 4e 70 af be a0 97 66 be
       -0.719702 0.30886707 -0.3426537 -0.22518778
0000a0 ba 5f 5a be db 87 98 be 06 38 eb be 68 d8 01 be
       -0.2132558 -0.2979115 -0.4594118 -0.12680209
0000b0 d5 a9 27 bf 37 e4 92 be f4 d8 2b bf aa f4 cc be
       -0.6549352 -0.2868974 -0.6712792 -0.40030414
0000c0 25 99 8d be a3 13 11 bf 67 0b dc be ee 83 1d be
       -0.27655903 -0.5667059 -0.4297745 -0.15382358
0000d0 44 14 11 bf b7 6c b8 be 3b 23 20 be 69 e3 28 bf
       -0.5667155 -0.36020443 -0.1563844 -0.65972
0000e0 2d 24 19 bf 5c 0a 1a be 76 98 fc be f2 87 93 3d
       -0.59820825 -0.15043014 -0.49335068 0.07203664
0000f0 b5 94 b9 be 2f de 91 be fd ef b5 be 38 f7 66 be
       -0.36246267 -0.28489825 -0.3553466 -0.22555244
000100 67 d2 b5 be 90 13 41 be 5e 7b b0 be 6c 7b 2b be
       -0.35512087 -0.18855119 -0.34469122 -0.167463
000110 9c 9c d0 be 57 9c 66 be b1 7d da be ff 8d 17 bd
       -0.40744483 -0.22520576 -0.4267402 -0.037000652
000120 31 05 06 bf ed 10 83 be 74 22 95 be 03 cd b2 be
       -0.5235167 -0.2559885 -0.29127848 -0.34922037
000130 8b e0 d2 be 18 b9 11 be 51 b3 b2 be e0 80 66 be
       -0.41186938 -0.14230764 -0.34902433 -0.225101
000140 b8 8d 64 be 0d 4f 04 bf 51 5c 27 be b9 44 eb 3b
       -0.22319686 -0.5168312 -0.1634381 0.0071798232
000150 af e0 71 be d9 62 2c be 30 b0 26 bf 97 14 66 be
       -0.23620866 -0.16834582 -0.6511259 -0.22468792
000160 da 56 8a be 9b df b0 be ee 6f 05 bf 44 a3 8e be
       -0.27019387 -0.34545597 -0.52123916 -0.27858937
000170 27 47 33 bf 1b aa 40 be 2b 5e 36 bf bd 0a ec be
       -0.70030445 -0.1881489 -0.7123744 -0.46101943
000180 c8 31 46 bf 9d 70 11 bf 77 6b 21 be 85 3d 81 bd
       -0.7741971 -0.5681246 -0.15763651 -0.06310562
000190 12 77 60 be 2d c6 fe bd 28 a2 d1 be fc 69 b7 3d
       -0.21920422 -0.12440143 -0.40944028 0.08955762
0001a0 f2 7f e1 bd 6f b3 9c bd 97 62 c6 be 40 f7 d4 be
       -0.11010732 -0.07651412 -0.38747093 -0.41594887
0001b0 44 a9 c2 be e0 2f 11 be 14 de 6f be 39 61 78 be
       -0.38019764 -0.14178419 -0.2342456 -0.24255838
0001c0 cd 5e 9f be af 1f bb be b1 bf bd 3e 92 22 0c be
       -0.31127015 -0.3654761 0.3706031 -0.13685063
0001d0 4d 03 b6 be 87 11 d8 be c2 29 11 be a0 fd 1a be
       -0.35549393 -0.42200872 -0.14176086 -0.15135813
0001e0 46 dc 4b be 7c 89 57 be b6 f5 96 be b3 fd b9 be
       -0.19908246 -0.2104854 -0.29484338 -0.3632637
0001f0 a3 3b 73 be ba 07 92 be ad bd ce be 67 d0 3a bf
       -0.23753218 -0.2852152 -0.40379086 -0.72974247

feature_layer.2.weight f4 [128, 128]
000000 f6 97 a3 be c8 91 b4 be 2a b1 d1 bd bc 44 9b 3e
       -0.31951874 -0.35267472 -0.102388695 0.30325878
000010 6d c6 c6 3d 66 44 10 3d bf e0 9d 3d c4 ea 0f 3e
       0.097058155 0.03522148 0.077088825 0.140544
000020 fb 68 57 3e 55 e4 0e 3e 28 a9 29 3e f1 88 f6 3d
       0.2103614 0.1395429 0.16568434 0.12037838
000030 b4 48 b1 3d 0c 21 3c be 5d 34 9c 3d 7a ef df 3c
       0.08656445 -0.18371981 0.07627175 0.027335871
000040 eb f8 a9 3e ce 51 89 3d d0 6f e0 3f f0 a1 ef 3e
       0.33197722 0.06705056 1.7534122 0.46803236
000050 f1 24 ba bf 99 a0 b3 be 0d c5 37 3e c0 bd 5d 3e
       -1.4542524 -0.35083464 0.17946263 0.21654415
000060 c4 ba 71 3d 59 09 b2 be 23 13 aa 3e 1e 69 93 bd
       0.059016004 -0.34772757 0.33217725 -0.07197784
000070 c8 95 0b 3b 15 af 03 be 81 9e e5 3d 51 63 1c 3e
       0.0021298993 -0.12859757 0.11211873 0.15272261
000080 ad 9b 9e be c7 21 ae bd b8 ae e1 be 96 bc 44 3e
       -0.30978146 -0.08502536 -0.44078612 0.19212565
000090 8b 09 d7 3e c2 00 a6 3e fc 51 0d 3d 9f 28 20 be
       0.41999468 0.32422453 0.034502015 -0.15640496
0000a0 60 0a 34 3e a2 83 2f 3f dc 30 90 bf ea 3c 1a 3e
       0.17582083 0.6856023 -1.1264911 0.150623
0000b0 a9 c2 2e be 65 cd da bd 64 a4 0e bc 58 c7 46 3c
       -0.17066444 -0.10683707 -0.008706186 0.012132488
0000c0 77 37 8c bf 1d a2 eb bf 04 a8 c3 be 4d cf df 3d
       -1.0954427 -1.8408848 -0.38214123 0.10928211
0000d0 84 a0 70 3d 61 f8 27 bf 66 a9 9b bd a7 b8 51 3d
       0.05874683 -0.6561337 -0.076006696 0.05120149
0000e0 ef 2f 56 3d 07 b9 e3 3c 37 1c a8 bf d1 20 9e 3e
       0.052291807 0.027798189 -1.313361 0.30884412
0000f0 a1 86 2b be 2f ce db 3e 7c 91 82 3f 5d 22 38 3e
       -0.16750576 0.42930743 1.0200648 0.17981859
000100 80 a1 15 be 74 c6 e4 bd 57 06 8a bd 65 f9 21 3e
       -0.14612389 -0.111706644 -0.067394905 0.15817793
000110 92 cb 1a bf db 51 bb bc 0b 50 9f 3e 8b 2a da 3d
       -0.60466874 -0.02286618 0.31115755 0.10652646
000120 9e 95 86 3e cf d7 19 bd 1c f4 bb 3e 1b 86 a6 3f
       0.26286024 -0.037559327 0.36709678 1.3009676
000130 42 27 ed 3f 4e f7 c3 be 17 9c fe 3d fb 43 3a 3e
       1.8527606 -0.38274616 0.124321155 0.18189995
000140 c5 8f 51 3e 4c ae 66 3d 7c 53 b0 bc 0f 6a c1 bd
       0.20465 0.056318566 -0.021524183 -0.09444057
000150 e2 02 c6 3d fc 00 a7 3e e7 f0 a0 3d 72 c2 fd 3d
       0.096685186 0.3261794 0.078584485 0.12390603
000160 e6 60 99 3d 9c 41 9a be 7d 40 f7 be c6 e5 b2 be
       0.07489185 -0.3012818 -0.48291388 -0.34940928
000170 58 4a d8 3e 3d 40 d9 3c cd 2c 28 3e 51 93 99 be
       0.4224422 0.026519889 0.1642334 -0.29995206
000180 6c e4 14 3f f7 0e c9 be 8e e2 9e bd 1a d5 82 3d
       0.58161044 -0.3926923 -0.077580556 0.06388302
000190 b0 a1 00 3c 3c e3 7c bd 1e 52 e2 3e ec 01 16 bf
       0.007851049 -0.061740145 0.44203275 -0.5859668
0001a0 05 65 f8 3d 7b 69 a7 bd 84 4b ef 3f 19 bf ee bf
       0.12128643 -0.08174416 1.869492 -1.8652068
0001b0 d7 36 cd 3e e7 0e a5 be 7c ab 05 bc 89 bb 31 3e
       0.40080902 -0.32237932 -0.008158561 0.17356695
0001c0 d5 65 95 bd dd 52 b3 bf 87 c3 b9 3d de 9d aa 3d
       -0.072948135 -1.4009663 0.09070497 0.08330892
0001d0 65 b1 81 3d 04 d5 fd bd 97 d2 8e 3e a7 fb 5e bd
       0.063326634 -0.12394145 0.27895042 -0.054439213
0001e0 d3 dc 57 3e 4c d7 e6 bd 90 a6 8b bd 65 fe e3 be
       0.21080332 -0.11271533 -0.06818879 -0.44530025
0001f0 9c cb 0f 3e d5 eb 44 be a4 92 01 bc 2f 95 cb be
       0.14042515 -0.19230588 -0.007908497 -0.39762256
000200 36 e5 30 b9 7a a1 67 3e fe 7a cc 3b 73 47 4c be
       -0.00016870056 0.22620192 0.0062402477 -0.1994913
000210 ec 8f bd be 1b 64 e8 bd e8 bc 81 3d 80 f2 e4 ba
       -0.37023866 -0.113472186 0.06334859 -0.001746729
000220 b4 cb 3d 3e 67 6d 94 bd a0 63 e9 3c eb 79 ab bd
       0.18534738 -0.07247429 0.028489888 -0.083728634
000230 46 e5 67 3c 04 bf 82 3d b5 aa c6 3d bc 8c 88 be
       0.014153784 0.063840896 0.097005285 -0.26669872
000240 f6 05 2e be a1 a1 9e 3d 17 d7 26 bf 8d 69 7c 3d
       -0.16994461 0.07745672 -0.6517195 0.0616241
000250 3b 98 4d be 02 a7 36 3b e8 dc 58 be 10 bd 03 bd
       -0.20077603 0.002787054 -0.21178019 -0.032162726
000260 22 00 20 3d 07 7a ad be 55 b8 b0 bb 3f e0 b9 bd
       0.039062627 -0.33882162 -0.005393068 -0.09075975
000270 d2 de 7d 3e 6f 73 6d be e9 c9 3b bd d3 00 17 be
       0.2479203 -0.23188566 -0.045846853 -0.14746408
000280 d7 1a 51 3f 17 ec 6b be 2a 13 75 be a6 0d ea be
       0.8168158 -0.2303928 -0.23933092 -0.45713538
000290 84 a1 8d bf 91 6f 2b 3e 6a 93 d3 be f3 41 e1 bb
       -1.1064916 0.16741778 -0.41323406 -0.006874317
0002a0 a2 12 81 3c 79 8a 6c be a8 bf 7b be 37 82 86 bd
       0.015755955 -0.23099698 -0.2458483 -0.06567805
0002b0 29 ac 8a 3e 27 18 c5 3e 01 54 cc be bd c2 d8 3e
       0.27084473 0.3849499 -0.3990784 0.42336074
0002c0 c6 c0 e3 be 48 ad 0a bf bf 2d 89 be 03 25 52 3d
       -0.44483012 -0.54170656 -0.26792714 0.05130483
0002d0 9e 19 0a 3e 9c da 4c 3e 6c f2 4e be 4f ef 20 bd
       0.13486335 0.20005268 -0.20209664 -0.039290722
0002e0 8d d5 08 3e ad 09 a6 3e a0 a0 e4 3d 51 66 14 be
       0.13362713 0.32429257 0.11163449 -0.14492156
0002f0 7e bc bd 3e 53 fe 0b bf d2 34 33 bf 1d be 2d be
       0.3705787 -0.5468494 -0.7000247 -0.16967054
000300 2e a1 6e be 2b 96 e3 bd 99 c2 07 bf 23 d2 30 be
       -0.23303673 -0.11112627 -0.5303131 -0.17267661
000310 c6 66 88 3e 62 3f ba bc 17 27 85 be f5 f6 43 3b
       0.2664091 -0.022735301 -0.26006386 0.0029901837
000320 cd 06 4b be a9 56 66 bd 0d 6b 9b 3e ff 79 25 bf
       -0.19826813 -0.05623499 0.3035511 -0.64639276
000330 a8 33 1e bf da 1a 89 3d 5b 4c 4c 3e f1 dd a0 bd
       -0.6179757 0.06694575 0.19951002 -0.07854832
000340 79 2d 92 bd c6 85 9a be db c8 80 3c d3 02 5a bf
       -0.071375795 -0.30180186 0.015720775 -0.8516056
000350 bd d0 17 bb 57 54 84 bd e4 39 c5 be fb df 68 bd
       -0.002316519 -0.06461399 -0.3852073 -0.05685423
000360 63 86 6c 3d 98 7d b8 bd c5 f0 c1 3e a0 ce 35 3e
       0.05774535 -0.0900833 0.37879005 0.17754602
000370 af d7 18 be 2b 89 7e be 91 67 9d 3c 9c 71 05 3f
       -0.14926027 -0.24857013 0.019214423 0.5212648
000380 07 ae 54 bf 84 f4 a4 3e 9c 11 09 3e ed 8a 97 3d
       -0.83078045 0.322178 0.13385624 0.07399545
000390 82 ae 8f be 33 ea 37 3e 6b 04 a4 be 64 4b 97 bd
       -0.28062826 0.17960434 -0.3203462 -0.073874265
0003a0 a8 a7 82 3d 64 d6 f7 3d 5c 52 43 bf 3d 8b 67 bf
       0.06379634 0.12101439 -0.76297545 -0.90446836
0003b0 22 74 93 be 17 82 ff bd af 0e 80 bd 8c 68 c1 be
       -0.2879954 -0.124759845 -0.06252801 -0.37775075
0003c0 11 84 ca bd 85 c9 2b bf ff b0 6f be 37 62 46 be
       -0.09888471 -0.6710437 -0.23407362 -0.19373403
0003d0 ed 00 24 be 72 93 04 3f 9d 7a 2d 3d a6 fa 31 bd
       -0.16015978 0.51787484 0.04235326 -0.043451928
0003e0 1b 6b e2 be 12 aa 8f 3c f0 d6 42 be fa f8 b1 3e
       -0.4422234 0.01753715 -0.19027305 0.34760267
0003f0 fe 87 75 bf 0d f2 16 bf 9a 81 f4 bd 91 7e 3c 3e
       -0.9591063 -0.5896309 -0.11938782 0.18407656

feature_layer.2.bias f4 [128]
000000 43 7b 17 3f 19 ea c6 3e cb cb 19 3f 9c 29 a0 3e
       0.5917246 0.38850477 0.6007659 0.31281745
000010 18 70 c6 bd b5 88 e9 3e 47 5f e9 3e 1a 08 8b be
       -0.09689349 0.45612112 0.45580503 -0.27154619
000020 38 c9 29 3f 41 f1 29 3f 77 2a 79 3e 2c 44 0d bd
       0.6632266 0.6638375 0.24332605 -0.034488842
000030 4c 39 03 3f 90 00 cf be d4 60 83 bd ba 38 2d 3f
       0.51259303 -0.40430117 -0.06414953 0.6766468
000040 b6 5a a2 bd 02 71 cb be 95 cf 7d 3e e5 ec 16 3f
       -0.07927458 -0.39734656 0.24786218 0.5895522
000050 bd bb 2b bd 34 84 cb 3e ae 8f 56 3e a8 65 2b 3f
       -0.041927088 0.397493 0.20953247 0.6695199
000060 0e 1e ab bd c3 7d 1d 3f b4 f3 15 3f 9f 4d b2 bd
       -0.08355342 0.6152002 0.58574986 -0.08706211
000070 94 3d 38 be f3 f8 4e 3f 2c 06 dd 3e 3b ec 6f 3d
       -0.1799224 0.80848616 0.4316877 0.058574896
000080 74 65 f6 bd ee e1 a3 3e 1a 3d 22 3f 46 ae 35 3f
       -0.120310694 0.32008308 0.63374484 0.70969045
000090 46 9f 64 bd 54 04 c1 bd e4 b8 1d 3f 79 90 d3 bd
       -0.055815957 -0.09424654 0.61610246 -0.1033029
0000a0 5b 2a c1 bd 26 ec 85 bd aa 11 0f 3e fd eb 09 3f
       -0.09431907 -0.06539182 0.13971582 0.53875715
0000b0 70 83 b2 3e e6 5a e6 3e 37 61 53 bd b7 3c 77 3e
       0.34865904 0.44991225 -0.051606383 0.24144255
0000c0 9e a3 66 be c9 a5 5b bd dd 6a ee 3e fa 6c 3b bd
       -0.22523353 -0.053624902 0.46565905 -0.045758225
0000d0 80 32 c4 3e a5 b6 d8 3e 0f d2 87 be d5 eb 0f 3f
       0.38319778 0.42326847 -0.2652745 0.56219226
0000e0 82 ca 10 bf 09 6b 1e 3f 52 a9 dc bd 3b 3a 03 3e
       -0.56559 0.6188207 -0.10774483 0.12815182
0000f0 2d ae 71 be ef da 62 bd a1 8b 94 3e 2c 0f 03 bf
       -0.23601599 -0.055384573 0.29012778 -0.51195025
000100 e4 97 0c be ea 16 8d bd 4f df 03 be 15 61 12 3f
       -0.13729817 -0.06889136 -0.12878154 0.57179385
000110 4c 6e 4c 3e 96 28 2f 3f a8 6b 1f be 4d cb 06 3f
       0.1996395 0.68421304 -0.15568411 0.5265396
000120 f8 6d 97 bd ce de bc bd c3 12 90 3e 90 20 1a 3f
       -0.07394022 -0.09222184 0.28139314 0.60205936
000130 68 e9 1c 3f 67 23 ef 3e de fe 8e bd d8 1c 4d bd
       0.6129365 0.46706697 -0.06982206 -0.050076336
000140 13 f7 30 3f 3d fd 27 3f 00 bc e4 bc 0f 36 26 3f
       0.69127005 0.65620786 -0.027921677 0.64926237
000150 d4 e5 a1 bc 75 bb 39 3f 47 42 f2 bd e9 bd c9 bd
       -0.01976291 0.7255166 -0.11829048 -0.098506756
000160 5e 9b 1a 3f cf 8f a3 bd a6 4c 29 3f 6b 09 e7 3e
       0.6039332 -0.07986414 0.6613258 0.45124373
000170 c0 62 1d 3f c4 25 42 3f d8 36 a3 bd 8f ff d4 3e
       0.61478806 0.75838876 -0.07969445 0.41601226
000180 31 be 2a bd f9 23 26 3f ec e3 4f bc 0d 9f ed 3e
       -0.041685287 0.6489864 -0.012688618 0.4641041
000190 da d8 fc 3e cc 77 ad 3e ef c9 ab bd 3f ed 02 3f
       0.49384195 0.3388046 -0.08388125 0.5114326
0001a0 e4 2d 80 bd 68 84 ef 3e fc 09 2e 3e 96 f2 db 3e
       -0.06258753 0.46780705 0.16995996 0.42958516
0001b0 97 d9 e7 bd 14 e3 22 3f f3 b9 99 bc da 78 4c be
       -0.11320799 0.63627744 -0.018765425 -0.19967976
0001c0 df b8 03 be 9a 67 25 3f 5d e6 1c 3f f2 9b 05 bd
       -0.12863491 0.6461121 0.61289006 -0.032619424
0001d0 85 fb 88 bd b6 71 14 3f 78 ef 2c 3f 5e 37 d8 3e
       -0.066885985 0.5798601 0.675529 0.42229742
0001e0 c4 63 a5 3e 6e 7e e8 3e 27 84 93 be d9 f2 8c bd
       0.32302678 0.45408958 -0.28811762 -0.06882257
0001f0 e0 c7 25 be 62 fb 36 bd eb 51 29 3f 8b 16 0c 3e
       -0.16189528 -0.04467333 0.6614062 0.13680474

value_stream.0.weight f4 [64, 128]
000000 8a 52 f5 3d 99 47 1f 3e 0f c7 d9 3d 48 e1 80 3c
       0.11978634 0.15554656 0.106336705 0.015732422
000010 10 40 96 3c 2d d7 94 3e a8 74 42 3e 62 b9 82 bd
       0.018341094 0.29070416 0.18989813 -0.06383015
000020 06 43 f5 3e 43 10 b1 3e 6a fa 15 3e 0a 08 10 3c
       0.47902697 0.3458272 0.14646307 0.008790979
000030 f2 eb e2 3c c1 15 05 3e c7 14 05 be 89 8a af 3e
       0.027700398 0.1299658 -0.12996207 0.3428538
000040 c0 6e f4 3d e0 16 92 3e 6e 5c 34 be c9 61 b2 3e
       0.119351864 0.28533077 -0.17613384 0.3484023
000050 00 27 11 3e d9 e1 aa 3c 7a ec 1b be b9 5d 49 3e
       0.14175034 0.020859646 -0.15226927 0.19664659
000060 6c 92 db 3c 92 43 59 3d e3 85 0c 3e cc 47 65 bc
       0.026803218 0.053042956 0.13722949 -0.0139941685
000070 72 77 8b bf d1 90 07 3f 49 46 1c 3d 9d 91 35 be
       -1.0895827 0.5295535 0.038152967 -0.17731328
000080 ee 39 d5 3d c4 c0 93 3e c7 9c 48 3e a1 c1 ab 3e
       0.1041144 0.28858006 0.19591056 0.33546165
000090 ff 78 0d be b2 92 ce bd 4b 5a 78 3e 2b 27 28 bc
       -0.13815688 -0.10086574 0.24253194 -0.010263245
0000a0 15 21 01 3e 57 0e 12 be 83 b5 10 bd 10 af 0b 3f
       0.12610276 -0.14263283 -0.035329353 0.54564
0000b0 1a cd b9 bc ec 39 1b bd 4b f1 f8 bd 8a ca 44 bb
       -0.022680808 -0.037897035 -0.12155398 -0.003002795
0000c0 7b 7d 7c 3e 23 17 37 3e c1 3c 0a 3e 43 e0 e2 bd
       0.24657242 0.1787992 0.13499738 -0.11077931
0000d0 ea da 95 3d 14 aa af bd 2d c9 97 3e 55 9a 92 3e
       0.07317145 -0.08577362 0.29645672 0.2863337
0000e0 41 f4 00 bf 19 5e 98 3d 49 84 98 bd d6 fd 95 bd
       -0.503727 0.07439823 -0.074471064 -0.07323806
0000f0 48 72 b1 3e 9e d0 ac bd 05 72 23 bd 60 8e 15 3e
       0.34657502 -0.08438228 -0.03990366 0.14605093
000100 cd a5 f7 3d 31 c8 29 3d 78 81 aa bd 57 93 8a bd
       0.12092171 0.041450683 -0.083254755 -0.06766384
000110 79 90 b7 bd 57 6c c5 3d 46 64 ca be b7 f1 db bc
       -0.08963103 0.09639805 -0.39529628 -0.026848657
000120 18 55 c5 bc 07 46 5d bc a4 1c 17 bc 4b 25 67 3e
       -0.024088427 -0.013505465 -0.009223137 0.2257282
000130 f2 bb af 3e 2c 32 0f 3e 21 ef 48 3d 64 c5 6b bc
       0.34323078 0.13983983 0.049056176 -0.014390323
000140 e1 6a c5 3e 6b 69 5e 3e eb 24 f1 3d 02 20 de 3e
       0.38558105 0.21719901 0.1177462 0.43383795
000150 32 24 f5 bd e8 89 da 3e fc cd 52 3c 99 f3 a8 3d
       -0.11969794 0.4268334 0.012866493 0.082495876
000160 a8 81 3c 3d 3e d9 ab bd d2 55 9e 3d db 5f 06 3e
       0.046022087 -0.08391045 0.07731213 0.13122503
000170 27 02 2c 3d 00 42 7a 3d 12 f8 8e 3d f6 a2 00 bd
       0.04199424 0.0610981 0.069809094 -0.03140541
000180 37 c9 d2 bd e9 14 4c 3e 8a 38 2d 3d 83 06 22 bd
       -0.10292285 0.19929852 0.042290248 -0.03955699
000190 ca d7 e5 3d d0 39 4f bd 01 11 35 3d 26 8f a4 3e
       0.11222799 -0.050592244 0.04420567 0.32140464
0001a0 da 80 7e 3d 07 9e b8 3e c7 43 27 3e fd 09 66 3d
       0.0621346 0.36058065 0.16334449 0.05616187
0001b0 7e 8b ba 3d 71 bf fe 3e fe 37 c0 3c 97 82 75 be
       0.09108637 0.49755433 0.0234642 -0.23975597
0001c0 98 1e 13 3e e7 23 b7 3e 8f b1 63 3e 0b 6f ce 3c
       0.1436714 0.3576958 0.22235702 0.025199434
0001d0 28 c4 ad bd 8f 52 59 3e 6e 6f 7b 3e 6a e1 6c 3b
       -0.084846795 0.212229 0.24554226 0.00361451
0001e0 6c 25 f8 bc 23 1b da 3d 2b 90 16 3e 0c e5 e5 bc
       -0.030291282 0.10649707 0.14703433 -0.02806332
0001f0 44 97 17 be dc 00 8e 3d 3b 4a de 3e 8c 2d 0e be
       -0.14803797 0.06933758 0.43416008 -0.13884562
000200 d3 61 94 3d 1c 95 b2 3d 22 75 e5 bd 46 cb d1 3c
       0.07245221 0.087198466 -0.11203982 0.025609624
000210 eb f9 78 bc 08 30 3b 3e 8b b3 f1 3d ab 14 7b 3c
       -0.015196304 0.18280041 0.11801823 0.015324752
000220 f2 51 1e 3d cf ba 82 3e 70 64 25 3e a8 91 86 bd
       0.038652368 0.2553315 0.16151595 -0.065707505
000230 0d 47 2e 3e a1 42 02 bc 99 a2 85 bd 71 ab 77 3d
       0.17019291 -0.007950456 -0.06525154 0.060466234
000240 38 10 ec bd 44 78 68 3e 16 6b 7d be 70 cf 45 3e
       -0.11526531 0.22702128 -0.24747881 0.19317412
000250 89 e4 56 bd 1f e8 18 3c 8d 98 0b 3d 35 a1 0d bd
       -0.05246404 0.009332686 0.03408103 -0.034577567
000260 0d 54 9e bd fd d0 66 3e 9c 17 ae bb b6 f5 d9 bd
       -0.07730875 0.2254066 -0.005312873 -0.10642569
000270 84 03 80 bf 15 69 12 3e 4f 7f 67 be 41 3a 3f be
       -1.0001073 0.14297898 -0.22607158 -0.18674566
000280 d6 0b 8f 3d bc 2c 64 3e 8c af c8 3d 47 b5 52 3e
       0.069846794 0.2228269 0.09799108 0.20576964
000290 04 6f d5 bd df 6e d5 bc f9 03 71 3e be 44 e4 3d
       -0.10421565 -0.026053844 0.23536672 0.11145924
0002a0 d3 b6 35 3e 47 c1 86 bc 51 0f 18 be 4f 5d 33 3e
       0.17745523 -0.016449584 -0.14849593 0.17516063
0002b0 23 20 9a 3d bf 23 c9 bd a1 31 25 bd cc bc 72 3d
       0.07525661 -0.09821271 -0.040330533 0.059262082
0002c0 70 2e 7e 3e 94 dd 01 bd 28 09 b0 3d 86 1c db bd
       0.24822402 -0.031705454 0.085954964 -0.106988
0002d0 0c 30 05 be 35 9f 51 be c6 8e f1 3e 9d 89 72 bd
       -0.1300661 -0.20470889 0.4717924 -0.05921327
0002e0 ba d8 e8 be 2e f6 49 3e 02 d4 cb 3c 76 30 68 bd
       -0.4547785 0.19722816 0.024881367 -0.05668684
0002f0 68 62 c1 3e 85 be ba 3c 6a d7 13 3e 8b d8 5b 3e
       0.3777039 0.022795925 0.14437643 0.21469323
000300 8a 5b 11 3e 2a eb 16 3e 39 b8 c2 bd 31 bb 1c 3e
       0.14195076 0.14738145 -0.09507794 0.15305783
000310 9e 5c e7 bd b5 87 61 3e 0c 0d f5 be 45 7d 4c be
       -0.11296962 0.22024424 -0.47861516 -0.19969662
000320 99 03 f7 3c 56 26 94 3d 83 76 4b bc 28 04 02 bb
       0.030153083 0.072338745 -0.012418392 -0.0019838903
000330 eb a8 64 3e e5 90 16 3e 4f 99 ef 3c de 12 0c 3e
       0.22330062 0.1470371 0.029247908 0.13679072
000340 9c c7 cd 3e 5f a1 ae 3e b8 d8 ae 3c 68 b8 10 3e
       0.40191352 0.3410749 0.021343574 0.14132845
000350 3e 6b 0a be 2c 48 8b 3e c8 8c 75 3d 92 20 4e bd
       -0.13517472 0.272035 0.059948713 -0.05032403
000360 aa 95 cc bc ba 17 be bd c1 03 4d 3d df fe c5 3b
       -0.02497371 -0.09281869 0.050052408 0.006042346
000370 7b 5a 08 3e 6d 4c a0 bc 74 2a 80 3d 29 66 cb bd
       0.13315766 -0.019567693 0.06258097 -0.09931595
000380 bb 19 20 be 7a 14 95 3e b0 41 58 3e ff bd ee 3d
       -0.15634815 0.29117185 0.21118808 0.11657333
000390 e7 d0 c8 3d 3d f2 f9 bd b8 d9 2d 3d 86 9b 09 3e
       0.0980547 -0.122044064 0.04244396 0.13438234
0003a0 fc 94 d1 bd 85 9d 76 3e 27 9d 60 be b2 aa 62 bd
       -0.10233495 0.24083526 -0.21934949 -0.05533857
0003b0 fb 29 2e bd 2d 16 9a 3e 2c ff 8c 3e 3a c6 b1 bd
       -0.042520504 0.30095044 0.2753843 -0.08680387
0003c0 82 a7 98 bd 43 b1 96 3e 56 0e ce bd 3f e5 3d bc
       -0.074538246 0.29432115 -0.10061328 -0.011590301
0003d0 b8 dd 12 be 22 c3 0e 3d 97 20 91 3e df 98 c8 bc
       -0.14342391 0.034854062 0.28345177 -0.024486957
0003e0 f6 65 bd be 2f a1 34 be 12 a7 5e 3e ae 7c c6 bd
       -0.36991853 -0.17639612 0.2174342 -0.096917495
0003f0 13 d1 43 be 0f c4 19 3e a0 59 58 3e 82 0a 7c be
       -0.19122724 0.15016197 0.21127939 -0.24613383

value_stream.0.bias f4 [64]
000000 8b 7a 8c 3f 0a e1 7b 3f 62 1a eb bc ec d5 6d bd
       1.0974897 0.9839026 -0.028699104 -0.05806534
000010 52 c9 a5 bd 78 28 75 3f 34 45 90 3f ae 72 72 3f
       -0.080950394 0.95764875 1.1271119 0.9470624
000020 ac 0a a6 3d 75 61 10 be 8c d3 85 3f 5f 7a 99 bd
       0.08107504 -0.14099677 1.0455184 -0.074940436
000030 e5 2b 1a bd cb 0c 68 bd 1c b3 85 3f 72 e5 8f 3f
       -0.037639517 -0.056652825 1.0445285 1.1241896
000040 b6 d8 ce 3e e8 d1 39 3d e1 84 c9 3d 54 bd 75 3f
       0.40399712 0.045366198 0.09839798 0.95992017
000050 95 d6 dd 3c 89 1f 8b 3f 13 91 84 3f ca 3b 1c bd
       0.02707986 1.0868999 1.0356773 -0.038142957
000060 d8 d9 8b 3f 3a 83 8a 3f 46 e6 8d 3f f1 6b 37 bc
       1.0925856 1.0821297 1.1085899 -0.011195169
000070 79 bf 0a bc 4d 27 7d 3f 5c ac cd bc e3 20 8c 3f
       -0.008468502 0.98888093 -0.025106601 1.0947536
000080 05 0d 03 bd 27 85 7d bd 27 42 b8 bd 2e 4b 2a 3f
       -0.03199484 -0.061894562 -0.089969926 0.66520965
000090 f3 33 a9 bd 73 36 a5 bd 40 fc 74 3f 9b 3c 90 3f
       -0.08261862 -0.08067026 0.956974 1.1268495
0000a0 a9 ba fe bc 46 3b 86 3f dd ee 8c 3f 00 6a 63 bd
       -0.031094866 1.0486839 1.1010395 -0.05552101
0000b0 f1 ee 85 bd 1e 31 34 be 6e 1e 31 bc 07 9d 8e 3f
       -0.06539715 -0.17596862 -0.010810478 1.1141671
0000c0 9d 9a 8d 3f 56 94 bd bc af 7b 8f 3f 13 4a 2a bd
       1.1062809 -0.023142021 1.120962 -0.04157455
0000d0 8e f8 9d bd bf 3e 73 bc 4e 3a 86 3f 7e 0e 5e bd
       -0.07713424 -0.014846503 1.0486543 -0.05421304
0000e0 aa 36 31 bd e3 10 15 bc f5 42 19 3d fa 4c 74 3f
       -0.043265022 -0.009098264 0.03741737 0.95429957
0000f0 89 ae 24 3e 1a 09 5c bd 19 3b e2 bc d0 5f 0f 3c
       0.16082205 -0.053719617 -0.02761607 0.008750871

value_stream.2.weight f4 [1, 64]
000000 f5 84 a6 3e 07 49 2a 3e dc 37 7f be db 24 03 3d
       0.32523313 0.1662942 -0.24923652 0.03201757
000010 45 b3 9e bd fb 29 53 3e a1 00 fa 3e 71 11 08 3e
       -0.07749037 0.20621483 0.48828605 0.13287903
000020 c7 e0 99 bf 6a 56 87 bf 65 5e 84 3e 53 d4 1e bf
       -1.2021722 -1.0573246 0.25853267 -0.6204273
000030 27 61 f0 bd 81 d3 ff bf 19 e2 51 3e b9 96 f0 3e
       -0.1173728 -1.9986421 0.20496406 0.46989992
000040 c7 85 b0 b9 cf 8e 5d bf 05 5d fc bf 25 70 d1 3e
       -0.00033669008 -0.86546034 -1.9715887 0.40905872
000050 7f 37 5a bf ad 2d a5 3e 3d 26 67 3e ff 25 54 bd
       -0.8524093 0.3226141 0.2257318 -0.05179405
000060 37 8b b5 3e 16 7d a9 3e 3a 11 cd 3e 21 4b 8c be
       0.35457775 0.33103245 0.40052205 -0.2740107
000070 41 ef 38 be 27 ae b8 3e 90 ee 53 bc 7c 85 b9 3e
       -0.18060018 0.36070368 -0.012935296 0.36234653
000080 ed ce c5 bc 61 1e 6a bb 38 a7 d3 bd 81 31 9c bc
       -0.024146521 -0.0035723674 -0.10334629 -0.019066574
000090 7d 52 39 bd 98 12 78 bd f4 a5 ba 3e 61 db d2 3e
       -0.045244683 -0.060564607 0.36454737 0.41182998
0000a0 a2 47 92 bf c6 7e 80 3e 13 00 c5 3e 7a 69 fe bd
       -1.1428111 0.2509672 0.3847662 -0.12422462
0000b0 4b 55 58 be cb b7 44 bf 9d a1 8d be 0b e6 cc 3e
       -0.21126287 -0.76842946 -0.27662364 0.4001926
0000c0 ce 29 c1 3e 03 bb d9 bf 9a 58 ea 3e ab c7 cd bd
       0.37727207 -1.7010196 0.45770723 -0.10047849
0000d0 56 c0 b4 bf 04 4a 90 bf fd 8f 8f 3e d8 27 9e bd
       -1.4121196 -1.1272588 0.28039542 -0.07722443
0000e0 23 58 4e bd ed f5 67 be f1 06 ec bf 29 e0 ec 3e
       -0.050377022 -0.22652407 -1.8439618 0.4626477
0000f0 a7 db 93 bf 65 51 3f be 33 c1 d3 bd fd c6 47 bf
       -1.1551408 -0.18683393 -0.10339584 -0.7803801

advantage_stream.0.weight f4 [64, 128]
000000 09 e1 8a 3e f0 14 1c c0 8d 27 8c be a9 c6 76 be
       0.27124813 -2.438778 -0.27373925 -0.2409922
000010 77 5b 1c 3e 88 d9 06 c0 25 fc 84 bd e4 69 72 3c
       0.15269266 -2.107027 -0.06493405 0.014795754
000020 11 7a fc bf d5 bc 64 3e 49 e6 18 be 23 be 8b 3d
       -1.9724752 0.22337659 -0.14931597 0.06823375
000030 e1 60 02 be 93 42 c9 3e 8b f8 e2 3d 40 30 17 c0
       -0.12732269 0.39308605 0.11082562 -2.36232
000040 a0 24 de bd 72 65 a7 bd ef dd 85 bf 5b 6e eb bf
       -0.108468294 -0.08173646 -1.0458354 -1.8393053
000050 8a 41 1a 3e 3f 83 c6 bf 20 bd 84 3e 0e d1 00 c0
       0.15064064 -1.5508803 0.2592554 -2.0127597
000060 ec 71 47 3e f3 d8 4f be cc e1 a2 3d 3f 81 e5 3d
       0.19477051 -0.20297603 0.079532236 0.11206292
000070 37 d3 5f 40 9d 3a 49 be 7a 13 d0 bf 65 0d ed bf
       3.4972665 -0.19651265 -1.6255944 -1.8519713
000080 0d 33 31 3e 57 bd a6 3e df f4 a6 be e0 98 a9 3c
       0.1730463 0.3256633 -0.32608697 0.02070278
000090 f8 1a 57 bc 6a 34 b3 be 5b 5d 8d be db 1f b9 3b
       -0.013128988 -0.35000926 -0.27610287 0.0056495494
0000a0 ce ba 07 3e b2 4c d2 bd af 04 95 39 19 6f b1 3e
       0.13254854 -0.10268535 0.00028422984 0.34655073
0000b0 6f 1a 1d be f3 ed b0 be 3c b6 af bd a2 ae af be
       -0.15342115 -0.3455654 -0.0857968 -0.34312922
0000c0 79 e4 44 40 d8 d0 16 3d 35 15 0d be 10 0b b5 bc
       3.0764449 0.036820263 -0.13777621 -0.022100002
0000d0 ac e1 c2 be c6 62 d6 bd 0a 92 a8 3d d2 40 e1 3c
       -0.380628 -0.10468058 0.0823098 0.027496729
0000e0 d3 44 86 bd ab 2e d9 bf 55 83 11 3d 42 7b e2 bd
       -0.06556096 -1.6967367 0.03552564 -0.11058666
0000f0 17 82 38 40 62 1b 80 3d de b6 c9 bf 17 c6 19 3e
       2.88294 0.06255223 -1.5758932 0.15016972
000100 9a 8c cb 3e 0f ee 18 3e cf 08 6a 3c 42 61 c0 be
       0.39755708 0.14934562 0.014284327 -0.37574202
000110 32 5b 0f c0 44 01 1f bd 64 54 de bc c6 aa cb bb
       -2.2399411 -0.038819566 -0.02713985 -0.006215426
000120 f1 a7 21 be 66 5e e0 bd 0c 82 1a 3e 24 9e 1f c0
       -0.15786721 -0.10955505 0.15088671 -2.4940271
000130 d2 8e 37 be 0a 77 4d be 60 d4 ea bc 1b 62 24 be
       -0.17925575 -0.20064941 -0.028665721 -0.1605305
000140 0e 69 09 c0 43 35 40 3e a8 07 54 3f b5 10 0b c0
       -2.147037 0.18770318 0.8282418 -2.1728947
000150 9a 51 3e 3e c2 cc 26 bd 5a 6b 23 3e 33 9a c0 bd
       0.18585816 -0.040722616 0.1595892 -0.09404411
000160 f2 62 c2 be e6 f6 b3 3d 97 b5 10 c0 e1 68 02 c0
       -0.37966114 0.087873265 -2.2610834 -2.0376513
000170 ae fb c5 bf 4d 0a b5 be f0 d3 c6 bd f4 69 0e c0
       -1.5467432 -0.3535942 -0.097083926 -2.2252169
000180 fe a1 36 3e b9 35 7a bf b9 75 03 be 15 48 39 c0
       0.17835233 -0.97738224 -0.12837876 -2.8950245
000190 aa e9 a8 be 67 36 a4 3d f2 8d 23 be 7e 62 cc bd
       -0.32990772 0.08018189 -0.15972117 -0.099797234
0001a0 a3 6c 37 3e 64 b6 b2 3d b5 6d 17 c0 05 2a d1 3a
       0.17912535 0.087261945 -2.366071 0.0015957957
0001b0 01 38 e7 bd 39 5a 37 3d e4 8b 87 3e 5f d7 1c be
       -0.11289979 0.044763777 0.26473916 -0.15316533
0001c0 11 89 ba bd 20 4c 1a c0 39 a4 3d be bd 31 06 3f
       -0.091081746 -2.4108963 -0.18519677 0.52419645
0001d0 50 22 02 3e f8 78 14 bd 92 ba 0f be 39 52 33 be
       0.12708402 -0.036248177 -0.14036015 -0.17511834
0001e0 e7 28 85 bf 47 02 07 bf 3b ab cf 3f 8b 2a b4 bd
       -1.0403107 -0.5273785 1.622413 -0.08797177
0001f0 a0 53 f2 3d 33 ab 96 bd e5 0a f3 bf 08 c0 14 bf
       0.118323565 -0.073568724 -1.89877 -0.58105516
000200 65 26 5e be 86 ef 57 bc e3 56 f1 3d 8b d7 1c 3e
       -0.21694334 -0.013179665 0.117841505 0.15316598
000210 8f 90 31 bd 1e 8b d7 bb 50 29 2c be af ec da bd
       -0.043350752 -0.0065778634 -0.16812634 -0.10689675
000220 fa af a8 3d 2e 8d f4 bc ee 7d 36 3d 7a bc c7 3c
       0.0823669 -0.029852476 0.04455369 0.024381865
000230 eb ac c2 bd 9b 38 ef 3d 03 5d 30 3e b1 2e cf 3c
       -0.09505638 0.116807185 0.17222981 0.025290819
000240 47 da 22 3e 04 39 4a 3d ed 09 ec 3d 1a 74 2f be
       0.15903579 0.04937078 0.11525331 -0.17134133
000250 73 50 76 3d 7b db 32 be 69 d8 5c bd a7 41 33 be
       0.060135316 -0.17466538 -0.053917322 -0.17505513
000260 89 ef 83 3d 17 5b 46 be 7e 7c 64 bd ba 1d 91 bd
       0.06442172 -0.19370686 -0.055782788 -0.07085748
000270 46 76 f1 3d fe 2c 4f be e9 70 cc bd e2 96 fa 3d
       0.11790137 -0.20232007 -0.099824734 0.1223581
000280 bb 4d a7 3d f9 94 b9 3d 19 20 e5 3d cf 2a 21 be
       0.08169123 0.090616174 0.11187763 -0.15738986
000290 e8 ed 25 3d 8e 6a 37 be cc 6e fb bd 0e 01 01 bd
       0.04051009 -0.17911741 -0.12276992 -0.031495146
0002a0 6b 17 c0 bd 2b 60 16 bc f5 89 b4 3c 1b b5 fe bc
       -0.093794666 -0.009178202 0.02203844 -0.031092217
0002b0 34 44 b6 3d 8a 7f e5 bc 54 d1 10 3e 1c bc 57 bd
       0.088997275 -0.028014917 0.14142352 -0.05266963
0002c0 72 33 fd 3d 27 3f 13 3e 0e 6c 0f 3e 53 9b ae bd
       0.12363328 0.1437956 0.14006063 -0.085257195
0002d0 30 f6 c1 bd 23 58 12 be 1e 6d 8f bd 21 f5 04 3e
       -0.09470785 -0.14291434 -0.07003234 0.12984134
0002e0 3f b1 a0 bd 17 5b 1b be 1a 57 03 be 71 1f 29 be
       -0.07846307 -0.15171467 -0.12826195 -0.165159
0002f0 13 4d b6 bd 80 2d 73 3d 03 e7 fd bd 3a ff c9 bd
       -0.089014195 0.059369564 -0.123975776 -0.09863134
000300 3d 87 57 be 80 b8 27 be 28 1a bf bd b8 be 3f be
       -0.21047683 -0.16378975 -0.09331161 -0.18725097
000310 b8 30 16 bd 06 bb 8c bd 36 d5 a7 bd 7a 35 0a be
       -0.036667556 -0.068716094 -0.08194964 -0.13496962
000320 80 2d 6a 3d dc 92 a7 3d a8 a4 a3 bd 63 79 88 3a
       0.0571723 0.08182308 -0.0799039 0.0010412153
000330 94 df eb 3d 47 db 75 bd 28 2e d6 bd e5 cd ec 3d
       0.115172535 -0.060023572 -0.10458022 0.11562709
000340 46 f8 cc bd 9e 67 0b be 64 a2 ba 3d bc c4 fb 3b
       -0.10008292 -0.13613746 0.09113005 0.0076833647
000350 a7 df 09 be e4 77 0f 3d 28 83 4e 3d 9f 46 26 3e
       -0.13464223 0.035026446 0.05041805 0.16237877
000360 ac c1 0d be 3e 00 b7 3d a2 3e a6 bd 6d c7 05 bc
       -0.13843411 0.08935593 -0.08117415 -0.008165223
000370 93 0c 37 be bb cf 4c be 9d d0 b9 3d 42 41 39 bd
       -0.1787589 -0.20001118 0.09072993 -0.04522825
000380 01 a3 97 3d 44 5c 1f be fa c6 c8 3d f4 5c f6 bd
       0.074041374 -0.1556254 0.09803577 -0.12029448
000390 a2 20 fc bd dc 95 06 3e 2e c3 e2 bd 7e 88 f6 bd
       -0.12310912 0.13143104 -0.11072384 -0.120377526
0003a0 06 1d 1b be 4d 8e 8b 3d 41 e8 f1 bc 66 3a 32 bd
       -0.1514779 0.06814251 -0.029529693 -0.043512724
0003b0 76 51 52 3d ac 58 f2 bd 9f 5f 32 3b 7f 20 01 be
       0.05134722 -0.11833319 0.002721764 -0.12610053
0003c0 2b af 2e bd 8f dc 2f 3d 97 76 0e 3c 9e a2 ba 3d
       -0.042647522 0.04293495 0.008695266 0.09113048
0003d0 8a d6 2f 3e 0e c3 e7 3d 11 36 02 be f7 66 13 be
       0.17171684 0.113165006 -0.12715937 -0.14394747
0003e0 ac 9b ae bd 16 96 3a bd 87 30 11 3e 5b a8 da 3c
       -0.08525786 -0.04555329 0.14178668 0.026691606
0003f0 41 50 e0 bc 5e 75 00 3e 82 ff 94 3c 75 da 00 3e
       -0.027382018 0.12544772 0.018188242 0.12583335

advantage_stream.0.bias f4 [64]
000000 19 95 3d be 43 28 a8 bd ce f6 4f bd 11 d6 2f 3e
       -0.18513907 -0.08210804 -0.05077248 0.17171504
000010 23 6a 99 3c fe fa f6 3d 89 f9 55 be b2 76 04 3e
       0.018727368 0.12059592 -0.20895971 0.12935904
000020 87 08 2a bd d6 fa ea bd b6 e8 60 3e 45 0f 39 bd
       -0.04151204 -0.114736244 0.21963772 -0.045180578
000030 eb e9 3b bd c1 ef 48 be 3f c4 d7 bc 17 db 07 bd
       -0.04587738 -0.19622709 -0.026338695 -0.033167925
000040 c8 bd d2 3e 33 5f a6 3b 31 35 98 3c 78 3e 08 3f
       0.41160417 0.0050772666 0.018580051 0.5322032
000050 b9 29 b8 bd 3b d0 ad bd b2 06 46 bd 54 4e e9 bc
       -0.08992333 -0.084869824 -0.04834623 -0.028479733
000060 fe ea 32 bd b3 c7 48 be 14 f3 0c be 24 79 93 bd
       -0.043681137 -0.19607429 -0.13764602 -0.0720084
000070 ef 54 0e bd 9c be d2 3c 20 80 0f 3e 55 aa e7 bc
       -0.034748968 0.025725655 0.1401372 -0.028279463
000080 97 47 43 3d c8 6c 32 bd 2e 28 7c bd b7 04 b9 3d
       0.047675695 -0.043560773 -0.061561756 0.090341024
000090 af 99 08 be 24 22 68 bd 5c c2 05 be a8 f4 24 bd
       -0.13339876 -0.056673184 -0.13062423 -0.040272385
0000a0 50 40 35 3e e9 76 0a 3d 7b 9d b3 3c 2d 53 5f 3d
       0.17700315 0.033804808 0.021925678 0.054522682
0000b0 2a 1f f2 bc 87 d0 20 3d 1a 00 38 bd 2e 65 88 3d
       -0.029555876 0.039261367 -0.04492197 0.066599235
0000c0 c9 4d db bc 31 c0 e0 3e ab ba 57 bd 3d 58 b5 bc
       -0.02677049 0.4389663 -0.052668255 -0.022136802
0000d0 b2 4f 1a 3e 03 aa 30 bd f2 0e 79 3e 4f 63 84 bd
       0.15069464 -0.043130886 0.24322107 -0.06464254
0000e0 54 e5 17 be 6c 13 67 bd 3a 7e 8a 3a 70 30 0c bd
       -0.14833575 -0.056415007 0.0010566183 -0.03422588
0000f0 f7 a3 9f 3e ce 9d 2d 3d be 31 ef 3d d4 5c f3 bc
       0.31179783 0.042386822 0.116794094 -0.02970735

advantage_stream.2.weight f4 [2, 64]
000000 a1 8c 3d bf 62 e9 d8 3c d1 b8 91 bd 38 65 a6 3d
       -0.7404271 0.026478473 -0.07115329 0.08124775
000010 f4 17 af be 87 47 41 bf 57 e9 79 be 47 a8 33 3f
       -0.34197962 -0.7549977 -0.24405418 0.70178646
000020 18 c5 80 3e 39 d9 1d 3e 81 f5 44 3f 40 10 bb bc
       0.2515037 0.15414895 0.7693711 -0.022834897
000030 e7 ab 00 bf bc dd 7e 3b 49 9e 12 bd 18 3f 55 3c
       -0.502623 0.0038889488 -0.035795484 0.013015531
000040 ad b0 ab 3f 44 f4 42 bd 08 bf ec bc fe 08 d6 bf
       1.3413292 -0.04759623 -0.028899685 -1.6721494
000050 36 27 28 be 92 43 4d bd dc 5b 11 3e 59 46 64 3c
       -0.16421208 -0.05011327 0.14195198 0.013932788
000060 75 1a 5b be 70 2c 9c 3d 72 f4 f6 3d 4d 08 0d bf
       -0.21396811 0.07625663 0.12058343 -0.5509079
000070 d6 a8 80 bd 09 e2 3b bf f2 8c 02 3e 98 6f 2d 3e
       -0.06282203 -0.7339178 0.12749079 0.16937101
000080 6b 20 63 be e5 2e fc 3d 44 dd 51 be 08 1f 16 bf
       -0.22180335 0.12313632 -0.20494562 -0.586411
000090 13 4a 6f 3e ae 4a e5 be 29 a9 84 3e 1f 72 bd 3d
       0.23368101 -0.4478354 0.2591031 0.092502825
0000a0 98 df 8f 3f 8c 53 40 bc 34 75 ee 3e 88 38 85 3f
       1.124011 -0.011738669 0.46573794 1.0407877
0000b0 40 2e f0 bb be 1d 2c 3f 1c ae 47 bf ce 4e fa be
       -0.007329732 0.6723288 -0.78000045 -0.48888248
0000c0 2d b6 aa 3d ca 9a 9d 3f e0 3b bc be e3 9f 21 be
       0.083355285 1.2312863 -0.3676443 -0.15783648
0000d0 59 b3 83 3f c0 a2 3c 3e 0b d2 86 bd 9a dd 16 bf
       1.0289108 0.18421459 -0.06583031 -0.5893189
0000e0 e3 5e 5c 3e dd 88 4b bb ce 50 46 bf 61 03 0a 3e
       0.21520571 -0.0031056919 -0.7746705 0.13477851
0000f0 68 f8 3b 3f 70 20 86 3f 7d 3f 63 3f 4f 0b c5 bc
       0.7342591 1.0478649 0.8876875 -0.024053244
000100 23 3a a1 3f d7 07 5d be e8 0b c7 3d 7c c0 a0 be
       1.2595867 -0.21585022 0.09719068 -0.31396854
000110 c6 cb 98 3e 09 5b 32 3f cb be df bd 38 25 c7 be
       0.29842967 0.6967016 -0.10925063 -0.38895583
000120 a7 08 0d 3d 65 14 e5 bd 23 0d 4a bf 88 8c 0f bc
       0.03443208 -0.111855306 -0.78926295 -0.008761533
000130 b3 6c 49 3f 27 c7 f3 3c 78 b2 58 3c 10 83 65 3c
       0.78681487 0.02975805 0.013226144 0.0140082985
000140 ab 5e b8 bf 5b 94 ae bc 49 2e 11 be 7a 81 d1 3f
       -1.440389 -0.021310976 -0.14177813 1.6367638
000150 00 27 36 be 7d be a1 3b ec 08 6c 3d 2d 30 a2 bd
       -0.17788315 0.004936038 0.057625696 -0.07919345
000160 9b a9 24 3e af c2 e8 3d 50 f8 20 3e 39 65 47 3f
       0.16080324 0.11365258 0.15719724 0.7788883
000170 8e b8 dc 3d b5 35 53 3f 89 db f1 bd c1 72 cd bc
       0.107773885 0.82503825 -0.11809451 -0.025079133
000180 85 24 f1 3e 45 a5 05 3e 7a 8a 38 be bc d0 32 3f
       0.47098175 0.13051327 -0.18021575 0.69849753
000190 af ff 9b be e7 22 6a 3f b9 c2 57 be 86 86 1f 3d
       -0.3046851 0.91459507 -0.21070375 0.03894665
0001a0 4d 9d 5e bf fa f0 de 3e 20 2c c7 be 55 23 32 bf
       -0.8695877 0.43543226 -0.38900852 -0.6958516
0001b0 b5 d7 f1 3c c2 c4 90 bf cf ba 7d 3f fd 2b 78 3e
       0.029521802 -1.1310046 0.9911317 0.2423553
0001c0 cb 6e 58 be d2 c8 c4 bf e7 77 11 be 2e 0f 89 3d
       -0.21136014 -1.5373785 -0.14205895 0.066923484
0001d0 58 39 23 bf 36 9a 6a 3e 0b 7b 06 bf ee 08 ee 3e
       -0.63759375 0.2291039 -0.525315 0.46491188
0001e0 c6 f2 71 3e 5b d0 79 be ec d0 50 3f 64 6c 6b be
       0.23627767 -0.24395888 0.8156879 -0.22990566
0001f0 3c 86 63 bf 4e 6d 84 bf 02 a1 12 bf f0 ad df bd
       -0.888767 -1.0345857 -0.5727693 -0.10921848

advantage_stream.2.bias f4 [2]
000000 f1 60 05 bb f1 60 05 3b
       -0.002035197 0.002035197

exp_avg f4 [128, 4]
000000 04 00 00 00 04 00 00 00 04 00 00 80 04 00 00 00
       6e-45 6e-45 -6e-45 6e-45
000010 04 00 00 00 04 00 00 00 04 00 00 80 04 00 00 00
       6e-45 6e-45 -6e-45 6e-45
000020 e7 05 d6 b8 52 2c b9 39 08 0a 24 37 1a 5e ff b8
       -0.000102054146 0.0003531897 9.777497e-06 -0.00012176875
000030 04 00 00 80 04 00 00 80 04 00 00 00 04 00 00 00
       -6e-45 -6e-45 6e-45 6e-45
000040 f0 1f 06 36 06 68 3c 38 51 b6 f1 34 57 c3 be b7
       1.9986146e-06 4.4919572e-05 4.50224e-07 -2.2740727e-05
000050 04 00 00 00 04 00 00 00 04 00 00 80 04 00 00 00
       6e-45 6e-45 -6e-45 6e-45
000060 04 00 00 00 04 00 00 00 04 00 00 00 04 00 00 80
       6e-45 6e-45 6e-45 -6e-45
000070 04 00 00 80 04 00 00 00 04 00 00 00 04 00 00 00
       -6e-45 6e-45 6e-45 6e-45
000080 04 00 00 00 04 00 00 00 04 00 00 00 04 00 00 80
       6e-45 6e-45 6e-45 -6e-45
000090 04 00 00 00 04 00 00 80 04 00 00 00 04 00 00 00
       6e-45 -6e-45 6e-45 6e-45
0000a0 04 00 00 80 04 00 00 80 04 00 00 80 04 00 00 00
       -6e-45 -6e-45 -6e-45 6e-45
0000b0 04 00 00 00 04 00 00 80 04 00 00 00 04 00 00 80
       6e-45 -6e-45 6e-45 -6e-45
0000c0 04 00 00 00 04 00 00 00 04 00 00 00 04 00 00 80
       6e-45 6e-45 6e-45 -6e-45
0000d0 04 00 00 80 04 00 00 00 04 00 00 80 04 00 00 00
       -6e-45 6e-45 -6e-45 6e-45
0000e0 04 00 00 80 04 00 00 80 04 00 00 80 04 00 00 00
       -6e-45 -6e-45 -6e-45 6e-45
0000f0 04 00 00 00 04 00 00 80 04 00 00 00 04 00 00 80
       6e-45 -6e-45 6e-45 -6e-45
000100 7d e5 73 bb aa 04 57 bb 1b 2d 8c 39 a4 4b 4e ba
       -0.0037215643 -0.0032809176 0.00026736487 -0.00078695477
000110 96 0a 9a bb 7c 4e e9 3b 74 55 ab ba ea 9f 26 b9
       -0.004700969 0.007119952 -0.0013071732 -0.00015890566
000120 00 27 7b b7 36 e4 eb ba 28 de 2a b9 3a ed 0c ba
       -1.4969846e-05 -0.0017997089 -0.00016295223 -0.00053759257
000130 04 00 00 00 04 00 00 00 04 00 00 00 04 00 00 80
       6e-45 6e-45 6e-45 -6e-45
000140 e3 93 55 b6 47 af 1e b4 fa 1b 29 b3 26 a6 5d b6
       -3.1825555e-06 -1.4778662e-07 -3.9373823e-08 -3.3028277e-06
000150 4b 87 cc 39 b3 6c 5f 36 ce 84 95 36 63 1e d2 b8
       0.00039010713 3.329286e-06 4.4560065e-06 -0.0001001924
000160 04 00 00 00 04 00 00 00 04 00 00 80 04 00 00 80
       6e-45 6e-45 -6e-45 -6e-45
000170 04 00 00 00 04 00 00 00 04 00 00 00 04 00 00 80
       6e-45 6e-45 6e-45 -6e-45
000180 e0 eb c0 b9 42 ac b9 ba 8c b5 92 38 bf 52 d9 ba
       -0.00036796834 -0.0014165717 6.995638e-05 -0.0016580446
000190 04 00 00 00 04 00 00 00 04 00 00 00 04 00 00 00
       6e-45 6e-45 6e-45 6e-45
0001a0 04 00 00 00 04 00 00 00 04 00 00 00 04 00 00 80
       6e-45 6e-45 6e-45 -6e-45
0001b0 04 00 00 80 04 00 00 00 04 00 00 00 04 00 00 00
       -6e-45 6e-45 6e-45 6e-45
0001c0 c2 4c d0 36 b9 d7 d7 b6 d4 7a a5 b3 64 86 3a 38
       6.207819e-06 -6.4326127e-06 -7.7057535e-08 4.4471017e-05
0001d0 04 00 00 80 04 00 00 00 04 00 00 00 04 00 00 00
       -6e-45 6e-45 6e-45 6e-45
0001e0 15 2e 08 3b ba 42 1e 3a 78 3a 96 38 7a c6 b2 b9
       0.002077942 0.0006037165 7.163448e-05 -0.00034098682
0001f0 7d ed 76 18 2b f4 45 19 31 99 52 98 f6 79 8c 99
       3.1914656e-24 1.0233971e-23 -2.7219206e-24 -1.452492e-23
000200 86 b3 56 b4 22 05 73 b3 00 f4 16 b2 b5 c8 74 b4
       -1.9995613e-07 -5.6582515e-08 -8.786628e-09 -2.2797288e-07
000210 04 00 00 00 04 00 00 00 04 00 00 80 04 00 00 80
       6e-45 6e-45 -6e-45 -6e-45
000220 09 9b 52 3a ae 01 08 3a 9f d5 94 b6 c2 3d ef 38
       0.00080339663 0.00051882386 -4.4356125e-06 0.000114079114
000230 6e 8e f1 b9 56 d6 0b b9 18 ae 21 38 f2 41 0c 3a
       -0.0004607322 -0.0001333592 3.854753e-05 0.0005350403
000240 51 24 8f bd 27 ee c0 3c d2 5b da bb ec d4 26 3c
       -0.06989349 0.02355106 -0.006663778 0.0101826005
000250 de 31 d4 3c 19 7d 2b bb 4f 0e 89 3a 76 9c a9 3b
       0.025902685 -0.0026167093 0.0010456535 0.0051761223
000260 71 50 a2 39 8d 2e 3c 39 5d 6a ac 37 a4 b3 8f b8
       0.0003095898 0.00017946419 2.0553527e-05 -6.852232e-05
000270 bb 48 1f bb 6c f9 22 bb 5a fe df 38 46 d0 22 39
       -0.0024304825 -0.0024867905 0.00010680845 0.00015527112
000280 04 00 00 80 04 00 00 80 04 00 00 80 04 00 00 80
       -6e-45 -6e-45 -6e-45 -6e-45
000290 50 04 6b 3b 5d d6 16 bb 3c e2 aa b9 ca d8 b5 ba
       0.0035860725 -0.0023015954 -0.00032593485 -0.0013873812
0002a0 b7 6b 81 36 db 16 9d b7 d0 4a 73 35 2f 73 a9 36
       3.8570392e-06 -1.8726501e-05 9.063342e-07 5.0500016e-06
0002b0 04 00 00 00 04 00 00 80 04 00 00 80 04 00 00 00
       6e-45 -6e-45 -6e-45 6e-45
0002c0 e5 05 91 ba d7 95 9f 3b ba 96 2b ba a5 5f 92 3a
       -0.0011064379 0.004870157 -0.00065455923 0.001116742
0002d0 cc d6 e2 bb 4d a8 bb 3a 8e b1 1a b9 77 89 00 3a
       -0.0069225784 0.0014317125 -0.00014752729 0.00049032964
0002e0 e3 f6 a6 38 7d 59 5f 38 c8 d6 fd b6 d9 6d 4d b7
       7.961483e-05 5.3250686e-05 -7.5649914e-06 -1.2244528e-05
0002f0 01 cd 00 bb 7a c3 99 bb f6 0c ad 39 da c1 79 3a
       -0.0019653442 -0.004692492 0.00033006788 0.00095274823
000300 2b 2f 59 39 1f 55 6c b9 25 27 a2 b7 89 5a 51 b6
       0.00020712304 -0.00022538424 -1.9330133e-05 -3.1196125e-06
000310 04 00 00 00 04 00 00 00 04 00 00 80 04 00 00 80
       6e-45 6e-45 -6e-45 -6e-45
000320 04 00 00 00 04 00 00 00 04 00 00 00 04 00 00 00
       6e-45 6e-45 6e-45 6e-45
000330 04 00 00 80 04 00 00 00 04 00 00 00 04 00 00 80
       -6e-45 6e-45 6e-45 -6e-45
000340 04 00 00 00 04 00 00 80 04 00 00 80 04 00 00 80
       6e-45 -6e-45 -6e-45 -6e-45
000350 37 b1 37 35 ec d6 8d 33 8f 08 60 32 2f 9d 42 35
       6.8430694e-07 6.604918e-08 1.3040462e-08 7.2499364e-07
000360 04 00 00 00 04 00 00 80 04 00 00 80 04 00 00 00
       6e-45 -6e-45 -6e-45 6e-45
000370 2f d6 84 38 a4 a2 d9 b7 f0 95 7b 34 bf c8 9f 38
       6.334145e-05 -2.5944151e-05 2.3430744e-07 7.619103e-05
000380 ce 51 d7 35 78 28 d9 33 fb 03 c9 32 b6 00 e1 35
       1.6042557e-06 1.0112211e-07 2.340129e-08 1.6764013e-06
000390 b4 fc 3d b9 72 fa 6a 3a bb f4 c0 36 2a 46 a8 b9
       -0.00018118584 0.0008963711 5.7505363e-06 -0.00032095733
0003a0 32 a2 18 b6 4a 54 ea b3 42 b9 f5 b2 eb 80 1e b6
       -2.2744175e-06 -1.0911806e-07 -2.8606e-08 -2.3618875e-06
0003b0 d2 fd e9 ba fb df d9 ba d4 c6 9b 38 c6 f6 90 b9
       -0.0017852134 -0.0016622538 7.4280106e-05 -0.0002764968
0003c0 04 00 00 00 04 00 00 80 04 00 00 80 04 00 00 80
       6e-45 -6e-45 -6e-45 -6e-45
0003d0 aa 24 23 bb 77 63 c1 bb b8 99 2d 38 9a b2 9d b9
       -0.002489368 -0.0059017497 4.1389576e-05 -0.00030078442
0003e0 04 00 00 00 04 00 00 00 04 00 00 00 04 00 00 00
       6e-45 6e-45 6e-45 6e-45
0003f0 04 00 00 00 04 00 00 80 04 00 00 00 04 00 00 00
       6e-45 -6e-45 6e-45 6e-45
