CartPoleHighRewardIn2026/checkpoints/checkpoint_ep550_reward193.00.pt (torch, 421217 bytes, 33 tensors)

feature_layer.0.weight f4 [128, 4]
00000000: 27eb f1bc fa94 153d b395 f7be 79f1 2f3e
00000010: fd1d ac3b f0f3 e43d d87b 203f 0df0 be3c
00000020: 3242 b5bd 68eb 0cbb c230 86bf a070 1abe
00000030: 8327 8f3d 362a 2ebd e41d 9f3e 036c 77bd
00000040: 71e4 9bbc e82a 53bd ce85 4f3f 12a5 933d
00000050: d6ee 3bbc fdef 9138 210e 8cbe f931 41bd
00000060: 36e2 87bc 4b2e b43c 4a16 94bc d25e 4b3b
00000070: a27c a7bd 62f1 e43d aead ccbe 3fd6 833d
00000080: 0269 edbd 4ce0 5c3b 382f 053f 95cf b8bd
00000090: 539a 193e ead0 9dbd 9fc7 dabe e752 2abe
000000a0: 5994 d13c a253 48bd 168a 57bf e7eb 3fbe
000000b0: 6410 40be b647 ed3d edb7 1b3f ff16 c23d
000000c0: f06c 30bc 9e34 b4bc b30f 553e 3b13 cbbc
000000d0: 9978 4dbd e497 aa3d 5eb8 23bf 8683 763d
000000e0: 252a 8d3a 0271 86bb 3d67 13be a547 98bb
000000f0: 3a1e d638 6837 30bd d322 293f 4445 94be
00000100: c0a7 a33d ff63 0ebc 860f bb3e 8fdd 073b
00000110: 05d3 dbbe bca0 db3d 5ee2 ccbe 0069 533d
00000120: 499c 88bc bc96 2f3c f686 81bf b19f dabd
00000130: abca 20bb 35f1 84bd 2ab7 333f 7c22 30be
00000140: edbb 5cbb 92cd b7bb f0b5 7dbf 9999 e6bd
00000150: 2950 0a3c 631e 13bd d8b8 f73e 368c ca3e
00000160: 8e67 663e fa0b 6dbd b2de 0abe acbf 1abe
00000170: 0700 5dbc 28c1 b8bd 74be 273f 0508 f4bb
00000180: e27a c0bc a852 853c 5662 8b3f 7fb7 133e
00000190: 99cc 8fbd d5a2 e83d 6c54 713c 8cff a33d
000001a0: dab3 b13b 7973 34bb b173 e53d a7f7 d33b
000001b0: 040f c0bd 3e8f fa3d 88de 913d c427 f13d
000001c0: e914 3b3e 4a32 353e 7bfe ef3e 4bf5 133e
000001d0: 6808 0abd 6ed4 f23c 7009 f5be 6820 133d
000001e0: 2a47 f83d 480a edbd 7131 523e 70ce 0f3e
000001f0: 7e7d 17bc 9ae9 b93b fed7 8a3f 6313 f43d
00000200: 3e0e ec3c 6e4e 85bd 84f2 2a3f 00a9 80be
00000210: 7097 bfbb 36a6 553c 5512 34be b505 dabb
00000220: 6065 79bd b287 07be f2f6 4bbf d980 56be
00000230: cac4 263e 2dd5 fdbd 3f1e 923e 1430 18bd
00000240: 4e6c 02be c27d aa3d f63b 613f 9219 8bbd
00000250: 132a 41be 34f5 5d3d cc37 143f 3862 fa3d
00000260: e5ea 093e 95d3 2fbd a14d 7b3f 0df6 4a3d
00000270: 80b3 96bd 2607 da3d 5c6b 813f 79b9 a3be
00000280: f952 ae3d b0a2 66bd 20c1 e93e 5093 24be
00000290: 5464 f03c 714b 253e cc92 433e 6a07 3f3e
000002a0: 19d7 0abe 1216 f8ba 9a46 f5be 45ff 8cbe
000002b0: 1973 04bd 1af0 533d 31dc 283c 8abd 2c3d
000002c0: f962 0fbe f174 edbc 9c38 643e 5bb8 ac3e
000002d0: ffeb 7bbc 56ea cabc d1f6 1dbe 96b7 79bd
000002e0: 5700 0a3e a5ec 8dbd 68d4 be3e 132b 5dbd
000002f0: 3156 cabc e571 18be c79c 873e 774d d8bd
00000300: 52b2 a6bd d5d3 403d 0c83 3ebf f689 663d
00000310: b004 0e38 63db 34bc 465f 95bf 20ef 10be
00000320: e9d9 563e 3f71 b5bd aa5a f13e be03 363e
00000330: 5e7d 993b 5cba 373b 02c7 debd a025 0bbc
00000340: b26f 813e 80a3 ee3d d5ad 8b3e 095f a13d
00000350: 19ea b2bd d69e 31bd 8adc 153f 3a93 5ebe
00000360: b956 f43d 5fd4 bcbd a963 32be 32c9 b5bb
00000370: eda4 6cbc 76b7 a33c bb88 883f a92b 053e
00000380: 93a6 ddbc b311 263d 5ef7 ad3e 3fa7 643e
00000390: fb64 6fbc d155 453d 6449 30bf 11d3 903d
000003a0: 5477 f53c 540a e4bc 7f34 8ebf dd32 3ebe
000003b0: e67f 903c ec44 08bd d865 273f 53f8 88bd
000003c0: 6498 96bb 726e d4b9 476f 8fbf 05e6 dbbd
000003d0: 60e8 fcbc 42c9 aa3c 3492 6e3f 0a09 f63c
000003e0: cc16 f8bc 7eb6 513b 5ec3 763f cef6 48bb
000003f0: 72e2 cabc ca7e 983c 50fd 833f 120e 063e
-0.029531075 0.03651903 -0.483564 0.17181958 0.0052525983 0.1117934 0.6268897 0.023307825
-0.088505164 -0.0021502618 -1.048363 -0.15082026 0.06989958 -0.042520724 0.31077492 -0.060405742
-0.019029828 -0.05155459 0.81063545 0.07209219 -0.011470517 6.95884e-05 -0.2735453 -0.0471668
-0.016587358 0.02199473 -0.018077035 0.003103186 -0.08178069 0.111788526 -0.39976257 0.064373486
-0.11592294 0.0033703027 0.52025175 -0.09023968 0.15000276 -0.07705863 -0.42730424 -0.16633187
0.025583433 -0.048907883 -0.8419508 -0.18742333 -0.18756253 0.115859434 0.60827523 0.094770424
-0.01076816 -0.021997746 0.2080677 -0.024789443 -0.05016384 0.08329752 -0.63953197 0.060184024
0.0010770006 -0.004102827 -0.14394851 -0.0046472126 0.00010209945 -0.04302159 0.6606876 -0.28959095
0.0799098 -0.008690833 0.3653528 0.0020731424 -0.42934433 0.10724017 -0.40016454 0.051613808
-0.016676085 0.01071709 -1.0119312 -0.1067499 -0.0024534862 -0.06491319 0.7020136 -0.17200655
-0.0033681348 -0.0056092227 -0.9910574 -0.11259765 0.008441963 -0.03591765 0.48383212 0.39560097
0.2250044 -0.05787275 -0.13561514 -0.1511218 -0.013488776 -0.09021217 0.65524983 -0.007447245
-0.023496095 0.016274765 1.0889385 0.14425467 -0.07021446 0.11359183 0.0147296 0.08007726
0.0054230513 -0.0027534647 0.11203707 0.0064687314 -0.09377864 0.122343525 0.071225226 0.11775163
0.18269695 0.17694965 0.4687384 0.1444904 -0.033699423 0.02964231 -0.47858763 0.035919577
0.121229485 -0.115742266 0.20526673 0.14043593 -0.009246228 0.0056735994 1.0847166 0.1191776
0.028815385 -0.065091 0.667763 -0.25128937 -0.00584691 0.013040116 -0.17585118 -0.0066535124
-0.060887694 -0.13235357 -0.79673684 -0.20947589 0.16286007 -0.12394176 0.285387 -0.037155226
-0.12736627 0.08324768 0.8798212 -0.067919865 -0.18863706 0.054188922 0.5789764 0.12225765
0.13468511 -0.04292639 0.9816533 0.04955106 -0.07358456 0.10645895 1.0110888 -0.31977442
0.085119195 -0.056307495 0.45655155 -0.1607182 0.029344715 0.1614206 0.19098967 0.18655172
-0.13558616 -0.0018927476 -0.47905427 -0.27538505 -0.03233633 0.05174265 0.010306404 0.042172946
-0.14002599 -0.028986426 0.2228722 0.33734402 -0.01537609 -0.024769943 -0.15426184 -0.060966097
0.13476692 -0.06929902 0.37271428 -0.053996157 -0.024699302 -0.14887197 0.264868 -0.1056165
-0.08139481 0.04707702 -0.7441871 0.056283914 3.3859804e-05 -0.011038634 -1.16697 -0.14153719
0.20981564 -0.088594906 0.47139484 0.17774865 0.0046841344 0.0028034663 -0.108778015 -0.008492857
0.2528053 0.11652279 0.2728106 0.07879455 -0.08736057 -0.04336437 0.5853964 -0.2173585
0.119306035 -0.09220194 -0.1742083 -0.005547666 -0.014443618 0.019984942 1.0666727 0.13004936
-0.027056968 0.040544223 0.3397779 0.22329424 -0.014611478 0.048177544 -0.68861985 0.07071508
0.029964127 -0.027836956 -1.110977 -0.1857409 0.017639112 -0.033268854 0.65389776 -0.06687989
-0.004595803 -0.0004051808 -1.1205834 -0.10737232 -0.030872524 0.02084792 0.9319184 0.030033607
-0.030284308 0.0031999643 0.96391857 -0.0030664685 -0.02476618 0.018615145 1.031168 0.13091305

feature_layer.0.bias f4 [128]
00000000: 70b1 173d 7bf5 4fbe bbbe 42bd e28f 523e
00000010: 9c96 89bd bbde 22be c7d5 c7bd a3b8 823d
00000020: 7631 f13b 1592 853e 1669 70be f324 733d
00000030: ea58 cdbd e58f 363e 3f4f 2dbd fa3b 193d
00000040: 98ca 6e3e 2466 7dbc 2cd1 39be ee42 9e3d
00000050: 3278 47be 40c0 96be 37af aabe 8c32 073e
00000060: e4be 56be 1436 6ebe e33e f9bd 036c c0bd
00000070: 56cf 01bf a020 34be c02f b0be 1ce6 5ebe
00000080: e448 713d 925a eabd 8eb0 0fbe 26f4 8d3d
00000090: 21ed 6dbd f91f 3a3e 3737 10be e730 8ebe
000000a0: 4524 47be 91b8 7bbe c37f c3be 60d9 e4bd
000000b0: 6835 cabe 7fe5 2bbe dd89 8ebe 08c3 44bd
000000c0: 1eae 453e d840 72be f7eb 80be 8d79 59bd
000000d0: b679 16bf 9dcd a3bc 16f0 3c3e ee78 63be
000000e0: dab4 6dbe faf6 4a3e d84d 76be 738c e0bd
000000f0: 5b84 5abe 7f79 17be 99f0 0fbe 4bd5 4bbe
00000100: eecb 56be 19fe 223e 4eaa 75be fedb d9bd
00000110: 3e67 02be a257 fc3d eccf 6ebe 645f 4e3d
00000120: 18d4 b9bd 0426 0a3e 36bd 44be 7659 44be
00000130: 85ef 4ebe c06f 43bd 253f d2be 25e7 56be
00000140: 5748 22be 164c 18be a1da 053e b3e0 f8bd
00000150: 305f 6cbe 7dab c23d 7fdd 12bf 4f34 c0bd
00000160: 3e42 2fbe b4be 46be 4f72 c3be ab19 a6bd
00000170: 8eff a3be c2ef 433e 3f3e dfbe fe01 3abe
00000180: 2c35 78be aba0 1bbe 29bb 0ebe a380 28be
00000190: 8adb 66be f0a6 57bd 3ec2 60be fbf6 85bc
000001a0: 8586 d8bd 60f8 62bd 6119 77be 7782 52be
000001b0: 5251 69be 25eb d2bd f633 ce3c 7a67 60bd
000001c0: 574c 76be c28d 53be e719 7a3e 850f 053e
000001d0: d1f1 e4bd 0fa1 60be beac 4d3e 419c 3bbe
000001e0: 404f bebe 2e7b 3ebe f989 d8be 13fc 6abe
000001f0: db01 db3d 02d4 8dbe e69f 0ebe 5318 20be
0.037034452 -0.20308487 -0.047545176 0.205627 -0.067181796 -0.15905277 -0.09757572 0.06382873
0.0073606325 0.26088014 -0.23477587 0.05936141 -0.10026725 0.17828329 -0.042311903 0.037410714
0.23319471 -0.015466247 -0.18146199 0.077276096 -0.19479445 -0.2944355 -0.33336803 0.13202876
-0.20971256 -0.23262817 -0.12170198 -0.093956016 -0.50706995 -0.1759057 -0.3441143 -0.21767467
0.058907405 -0.11443056 -0.14032194 0.06931333 -0.058087472 0.18176259 -0.14083563 -0.27771685
-0.1944743 -0.24582125 -0.38183412 -0.111742735 -0.3949387 -0.16786765 -0.27839556 -0.04803756
0.19304702 -0.23657548 -0.25180027 -0.053094435 -0.58779466 -0.019995505 0.1845096 -0.222141
-0.2321352 0.19820777 -0.24053133 -0.109642886 -0.21339552 -0.14792441 -0.14056624 -0.19905584
-0.2097623 0.15917243 -0.23990747 -0.10637663 -0.12734696 0.12321402 -0.23321503 0.05038394
-0.09073657 0.13491064 -0.19212803 -0.19174752 -0.20208557 -0.047713995 -0.410638 -0.20986612
-0.15847908 -0.14872774 0.13071682 -0.12152233 -0.23083186 0.09505365 -0.57369226 -0.09384977
-0.17115113 -0.19408685 -0.38173148 -0.081103645 -0.3203091 0.19134429 -0.43602178 -0.18164822
-0.24239033 -0.15198009 -0.13938583 -0.16455321 -0.22544685 -0.05264944 -0.21949098 -0.016353121
-0.105725326 -0.05541265 -0.24130775 -0.20557581 -0.22784927 -0.102987565 0.025171261 -0.054786183
-0.24052559 -0.20659545 0.24423943 0.12994201 -0.11178935 -0.21936439 0.20085427 -0.18321325
-0.37169838 -0.18601677 -0.42292765 -0.22947721 0.10693713 -0.27700812 -0.13928184 -0.15634279

feature_layer.2.weight f4 [128, 128]
00000000: 8d2d a83d 5dfb 2c3e 284b 853d 6725 8d3e
00000010: 1949 003e bf3c 09bd 4b40 4b3d 0aa3 2abd
00000020: e110 343c 0bd5 ab3c e466 40bf 65e4 883d
00000030: d6ec 543d f6db 0bbe 6c5c 023e e757 bfbc
00000040: 222c 7c3e 8090 8ebd d946 6ebf 8303 6f3e
00000050: 243f b8bf 5c94 903e ece3 323d 29ee 263e
00000060: d740 b93e 95e2 95bd 0e56 e23d 7942 02bd
00000070: 9d59 b2be 2e55 3abe c828 1d3e 7cb3 223f
00000080: dddd 1d3e 87be 163c d755 a7bd 0047 f03d
00000090: 4bbb 763e b366 333c c930 ee3d f208 80be
000000a0: 8354 c2bd 1ffc 113e 6266 a9be 0eef 0f3e
000000b0: 3392 b73e c3b2 0a3e 4be6 74bd f163 91bd
000000c0: 669a 8dbd 6ef5 eabf c52e 1c3e 2ab1 ff3d
000000d0: d02a 26bf 78e8 35be 8dd9 1e3d ddf5 8f3e
000000e0: 66b5 673e 540a 323d fdc9 91bf 2679 023e
000000f0: f806 d9bf b09f 763e 6902 713f adff 1f3e
00000100: 0e6c 663f 0752 a5bc 7055 23bd 8be3 5c3d
00000110: 8856 303e 4cfb 303e 5ed2 ef3e f7ec 063e
00000120: 6827 f8bd 0ab6 3fbd 82d6 3b3e 81f3 723f
00000130: 2b99 a73f c7ed 3a3d b957 a23c 2b35 02bd
00000140: 0f60 a2bb bb98 66bb e03d a4bd 33b2 ae3d
00000150: 9132 6bbd eaf7 633d b2a9 28be 0258 2abd
00000160: a3cb 87bb 0003 c43a 11af 56bd b8bb ec3c
00000170: 02df c3bd 0578 523c 4db3 b83d cd1e 633e
00000180: 64c0 993e e4f5 7e3d 5b6e a9bd 216c c23e
00000190: 98ff b53b 2086 c0bd e350 523f 77fb 143e
000001a0: 74fc b73d 576e f33e ec9c 7b3f 38e2 f0bf
000001b0: 4347 4c3f 7d8d 843c d5a8 9a3d 6a1d e0bc
000001c0: 2a33 b53d 3c53 99bf 61e3 223e 520b 063e
000001d0: d959 463e 8367 a0bb 66e8 053e dc7c 913b
000001e0: b2e2 debd ba92 933e 12e9 5c3e 3873 23be
000001f0: 04ee 9c3d 6531 833e e6ce 333e 6616 35bf
00000200: 8572 9fbc 80d2 06bd 0bd9 ac3d 6317 19be
00000210: a804 853c 8f25 a2bd 6086 463d 00cf 983a
00000220: 0635 acbc 3f20 663d b810 bc3b 1440 1abe
00000230: 10c4 c8bc 2407 8a3d 9fb6 f03d 91cc 7ebd
00000240: f27d f5ba 4d56 793d d6de 023e c881 18be
00000250: c4a9 40bd d017 4a3d 7b09 d9bd f07f 0bbd
00000260: 9606 923d e69d 3cbd 4010 81be 5291 6dbe
00000270: 25ac 91bd 90ce f6bd e28a 6d3d 2344 91bd
00000280: ee9f eebc e8fc 763d 17ec 0c3e df07 12be
00000290: 01cb cabd 223e 74bc 10f8 69bd 5031 df3a
000002a0: 2362 bbbc cb31 e3bd 83ef 35bd e1ec 23bd
000002b0: 2e15 8e3d dde3 773e 91e5 04be 5ab1 ca3d
000002c0: 7927 0fbe 63d5 ddbc a08c 9e3c 3f54 5e3d
000002d0: fd0f 923d dfa8 6bbe 8d2d 78bc 9976 42be
000002e0: 0c39 f73d c32a e63d 0d00 11be 33c5 933c
000002f0: a177 c03d 6ed5 1bbe 51dd c2bc 465a 1cbe
00000300: 26ae 13be 245f b5bd 57cc 51bd 05db 0abe
00000310: 97cb 163d d9f9 a53d e35b 34bc ac0c 35bc
00000320: 7c53 42be 7a86 bfbc a94e 123e e588 983b
00000330: aa3c d13d 8314 5b3d b244 d93d fcc4 40be
00000340: 746e 97bd 857c 92bd 589f 2cbd 653e a0bb
00000350: ae21 97bc 61f3 15be d089 113c 8e3b 24be
00000360: 9fcb aabd 187d 493d 6544 4d3d 1e74 a53d
00000370: ad5b 563d 4ae9 61be fbd5 9e3d 7282 7dbd
00000380: b4a0 2fbc 1158 213e 5089 f13d fd2f ca3d
00000390: cdc3 32bd bc0e f63d c2f3 3fbe ec8a 16be
000003a0: 9d94 a53c c3ea 1b3e 9a6e 143d 844d 37be
000003b0: 49b2 0b3d 6a40 e0bd 1b83 033d 1062 02be
000003c0: 7d34 bfbd 33a1 fcbc 9fb6 ecbc e994 193d
000003d0: e0e9 bebc bb75 1ebd 7de3 68bc 3873 cdbd
000003e0: 4e64 b1bd f36f 073e 9d87 723d 8797 54bd
000003f0: 5143 1ebc f656 443e b2bf b33c c170 103d
0.08211813 0.16892762 0.065084755 0.27567598 0.12527885 -0.033505198 0.04962186 -0.041659392
0.010990352 0.02097561 -0.75157 0.06684188 0.051983677 -0.13658127 0.12730569 -0.023357345
0.2462621 -0.06961155 -0.93076855 0.23341183 -1.4394269 0.2823819 0.043674394 0.16301788
0.3618228 -0.07318608 0.1105157 -0.031801675 -0.34833995 -0.18196556 0.15347588 0.6355512
0.15416665 0.009200699 -0.081706695 0.11732292 0.24094884 0.010949778 0.11630399 -0.25006825
-0.094887756 0.14256333 -0.33085924 0.14056036 0.3585373 0.13544755 -0.059789937 -0.070991404
-0.06914215 -1.8356149 0.15252216 0.12484963 -0.64909077 -0.17764461 0.03878169 0.28117266
0.22627792 0.04346688 -1.1389767 0.12741527 -1.6955252 0.24084353 0.941443 0.15624876
0.9000863 -0.020180715 -0.0398764 0.05392794 0.17220509 0.17283362 0.46840185 0.13176332
-0.12116891 -0.046804465 0.18343547 0.9490281 1.3093618 0.04563692 0.01981722 -0.031788986
-0.0049552987 -0.003518625 -0.08019614 0.085300826 -0.05742127 0.05565635 -0.16470984 -0.041587837
-0.0041441484 0.0014954507 -0.05241305 0.028898105 -0.0956402 0.012845998 0.09018574 0.22179718
0.30029595 0.06224622 -0.08273002 0.3797312 0.005554151 -0.09400582 0.82154673 0.14549051
0.089836985 0.4754512 0.9828632 -1.8819036 0.79796237 0.016180748 0.075517334 -0.027357776
0.088476494 -1.1978526 0.1590705 0.13090256 0.19370212 -0.004895152 0.13076934 0.004439933
-0.108830824 0.2882288 0.21573284 -0.15961921 0.076625854 0.25623623 0.17559394 -0.707373
-0.019463787 -0.032915592 0.08439835 -0.14950328 0.016237572 -0.0791732 0.048467994 0.001165837
-0.021021377 0.056183096 0.0057392977 -0.15063506 -0.024507552 0.06739643 0.11753582 -0.06220681
-0.0018729551 0.06087332 0.12780318 -0.14893258 -0.0470369 0.049339116 -0.105975114 -0.034057558
0.071301624 -0.04604902 -0.2520771 -0.23199967 -0.07112912 -0.120511174 0.057993777 -0.07093074
-0.029128995 0.060299784 0.13761936 -0.14260815 -0.09902001 -0.014907392 -0.057121336 0.0017028246
-0.022873944 -0.11093482 -0.04441787 -0.040020827 0.069376335 0.24208017 -0.12978198 0.098971084
-0.13979901 -0.02707929 0.019354165 0.054279562 0.07131956 -0.23013638 -0.015147579 -0.18990554
0.12071428 0.11238625 -0.14160176 0.018038368 0.093978174 -0.15218136 -0.023787173 -0.15268812
-0.14421901 -0.08856037 -0.051220264 -0.13560112 0.036815252 0.08104295 -0.011008236 -0.0110503845
-0.1897716 -0.023379553 0.14287819 0.004654991 0.10216649 0.05348636 0.10608806 -0.18825144
-0.07394114 -0.071526565 -0.04214415 -0.0048902505 -0.018448677 -0.14643623 0.008882955 -0.16038343
-0.08339619 0.049191564 0.050114054 0.08078788 0.052333523 -0.22061649 0.07755657 -0.06189198
-0.010719467 0.15756251 0.117937684 0.09872434 -0.04364376 0.12014529 -0.1874533 -0.14701432
0.020212466 0.15226273 0.03623829 -0.17900664 0.034105573 -0.10949786 0.032107454 -0.1273272
-0.09336183 -0.030838585 -0.028895674 0.037495527 -0.02330488 -0.038686495 -0.014214394 -0.10031742
-0.0866171 0.13226299 0.059211362 -0.05190232 -0.009659604 0.19173798 0.021941993 0.03526378

feature_layer.2.bias f4 [128]
00000000: e052 8b3e b6ab 91bd 06ad 933e 5af0 273c
00000010: 2d1b 3abd ec7d 8f3e d5e8 ad3e 6dcd 40bd
00000020: 5f32 9c3e f75b 33bd cc04 8a3e 2e38 dbbc
00000030: 9bc9 ac3e 9ce9 3fbe 9305 85bc 36aa 9f3e
00000040: 688e b4bc f4dd 563d 9f1d b53e dbcf a03e
00000050: 3307 2dbd ca8c 943e 255d 49bd 9f22 a43e
00000060: 57bd 85bd 6eed 3e3e adb7 a93e 8249 14bd
00000070: dd6d 5dbe cf24 083e 05d2 a83e ea55 9d3e
00000080: 7aee 0dbd 8b39 6b3e 95e4 ad3e 8d2f b83e
00000090: 56f6 2cbd 0628 9b3e 6df2 ae3e 5d32 0cbd
000000a0: 0efd 0fbd bdb8 33bd ac88 0fbe 48d1 403e
000000b0: f551 a83e 0353 583e 223f 36be fadf 793e
000000c0: 82fb 88bd cb25 56bc c91f 923e c974 01bd
000000d0: ec85 bb3e 8180 1ebd fa0a 1cbd 0466 b93e
000000e0: 05b6 05bd 1dad 8f3e f99b c0bc 2fe9 0abc
000000f0: 4b07 84be b66d a4bd 5c5a 9cbd 469d 23be
00000100: 3e76 103e c3f1 d7bc a286 26bc f295 a93e
00000110: 1a07 923e e970 a23e 391f 2abe fb54 b93e
00000120: 93a0 0ebd b1eb 1ebd 85e1 a33e 9293 9e3e
00000130: 9f3a a93e a3f2 833e 8881 e1bd d80f 4dbc
00000140: cc14 8c3e b44c be3e 317a d7bd b2b4 9e3e
00000150: 005a 82bd 0dea b13e bfa7 68be 3037 9d3e
00000160: 6fb4 b63e 7a98 4fbd 5805 b33e d691 b33e
00000170: 3c07 9a3e 83e9 8d3e 7723 9abd 5428 8c3e
00000180: 6943 2ebd 42d8 a23e 8207 883e 38c0 9e3e
00000190: c7aa ac3e 876b a9bc dadc 50bd fdf8 b63e
000001a0: 55e5 4fbd 81be 833e d258 ab3e c9c5 9f3e
000001b0: 0441 f7bc 7096 943e 60a7 4bbd 4bb2 60be
000001c0: 28ca 3abd 2ac7 a63e 8b51 24bd 0fff 0fbe
000001d0: 2cb3 3ebd 1be5 be3e 7865 a03e 25c0 473e
000001e0: 4f87 ae3e d244 a03e daf4 96be 9bd8 9d3e
000001f0: 307d 4bbe a8c7 bcbc bbaa ae3e ef94 b03e
0.27211666 -0.071128294 0.28842944 0.010250175 -0.045436073 0.28025758 0.339667 -0.04707091
0.3050718 -0.043788876 0.26956785 -0.026760187 0.33747563 -0.18741459 -0.01623801 0.31184548
-0.02204056 0.052457765 0.35374162 0.3140858 -0.042243194 0.29013664 -0.049161095 0.32057664
-0.06530254 0.1864526 0.33147946 -0.036202915 -0.21623941 0.13295291 0.32972732 0.3072961
-0.034651257 0.2297117 0.33963457 0.35973778 -0.04222711 0.30303973 0.3416933 -0.034227718
-0.03515344 -0.043877352 -0.1401698 0.18829834 0.32875028 0.21125416 -0.17797521 0.24401847
-0.06688596 -0.013070534 0.28539875 -0.031605516 0.36625612 -0.03869677 -0.038096406 0.36210644
-0.03264429 0.28061762 -0.023511874 -0.008478447 -0.25786814 -0.08028738 -0.07634422 -0.15977964
0.14107606 -0.026360398 -0.010163935 0.33122212 0.28521043 0.3172677 -0.16613473 0.36197647
-0.034821104 -0.03879899 0.32007995 0.30971962 0.33052537 0.25771055 -0.11011034 -0.0125159845
0.27359617 0.37167895 -0.10521353 0.30997235 -0.063648224 0.3474888 -0.2272024 0.30706167
0.35684535 -0.050682522 0.34965014 0.35072201 0.30083644 0.27717218 -0.07526296 0.27374518
-0.042544756 0.31805617 0.26568228 0.31006026 0.33724043 -0.020681156 -0.05099187 0.35736838
-0.050755817 0.2573128 0.33466202 0.31205586 -0.030182369 0.29021025 -0.049720168 -0.21943013
-0.045602947 0.32573825 -0.040116828 -0.14062141 -0.04655759 0.3728417 0.31327415 0.19506891
0.34087607 0.31302506 -0.29483682 0.3082932 -0.19871974 -0.023044422 0.34114632 0.34488627

value_stream.0.weight f4 [64, 128]
00000000: 7c31 333c 1df3 873d e215 713d d383 873d
00000010: 65d0 663d 1749 5e3e 9ea1 223e 83ab 983f
00000020: ea20 823e 6a3a bc3c 379b 1d3e ba7a 4e3d
00000030: 7c80 bb3d 4866 35c0 2f0d 0bbe 0429 4f3e
00000040: fa84 053e 9510 693e 9755 a63c 8810 723e
00000050: 2507 183e cb1a 023e 68df 69be 9f1f 0d3e
00000060: 79e0 4b3d 7b4e c2bd b877 e73d 204c 66bd
00000070: d827 89bf 7e30 2e3d 1491 043e 3885 d4bb
00000080: a98d 1b3e 32d2 d83d 19cd 353e d075 713e
00000090: ce64 3cbe 47c6 9fbb f098 5c3e e71e 39bd
000000a0: fd90 f83d 70a8 943b 1f06 4ec0 c676 283e
000000b0: 300b df3d 1518 003e 9043 76bf 4917 afbb
000000c0: 69df 6e3d b377 083e d966 263e ed75 f3bd
000000d0: b086 9e3e c82b c3be c71f 83be db7c b93e
000000e0: fc73 87bd 12ed edbb f6ba 86bd cb42 9dbd
000000f0: 5d22 edbf f20c 41bd e4db b7bd 2959 51bf
00000100: 35b1 babc b957 14bc b322 97bd 53a3 bebb
00000110: a917 323c 7633 2a3d 8996 a4bf 0594 d03d
00000120: 191f 1f3d b15a abbc 07ae 113d 7f8c 513e
00000130: 2248 7b3e bc3a 223e 2c2b 753d 5884 e1bb
00000140: 6cc2 4d3e 82d1 0a3d 5c68 4fbf 5f50 383e
00000150: 13e9 5dbd 3bdc 943e c32f 89bf 828c 783e
00000160: 4e4c a53d 1502 c7bd 2a3b ef3d 34b5 663e
00000170: affc 113d 9e48 1abc 8911 623d 60f0 ed3b
00000180: 1a0e a0bd 604c 17bc a798 e0bc 2474 3dbc
00000190: dc34 333e fb8f dcbc 8f53 143d e468 a93e
000001a0: 828d 8e3d f06e 933e 7c4e 9a3e 38f6 503d
000001b0: ecac 893d 7483 a33e b07d 01bf 2f52 c0bf
000001c0: 77d0 183e a19b 453e 5ac4 cb3d a457 f1bf
000001d0: ca8b 8abd 932c 943e c528 d43d a733 d63d
000001e0: 42a8 b43e 0eef 563e b837 a4c0 a081 993d
000001f0: 9025 c4be 0a16 313d 6be9 993e ead2 dc3d
00000200: 2dc3 8d3d 311d d93d d284 b1bd e17f 263e
00000210: 1e3f f73c 9799 3c3e 18d0 ef3d e745 223f
00000220: c586 eabd 6f3f 4a3c b405 273e 241d 36bd
00000230: e5c5 513e 94df 8dbe e6b4 9bbd 5b1e 13bd
00000240: 24d1 d1bd f7c5 423e 9157 a73a 1bf9 0e3e
00000250: 77fb 44bd 62aa 143e 38a2 8b3e 3506 99bd
00000260: 3ae3 51bd 86eb 243e 8e74 3839 effb 03be
00000270: 08fc cfbe 6c95 4fbe 8be9 a2bd 946a 253d
00000280: b3af f83d 01d1 6d3d 97b4 273e 6df4 b83d
00000290: f2ae 0abe 4c75 f83d f558 653e 7c4b 9d3d
000002a0: 92b3 2c3e 30f5 2d3e 12e8 15bf 7f57 17be
000002b0: ac63 5e3e 2397 103e e973 19bf bf60 a13c
000002c0: db30 433d a71c 9bbd e308 173e de8d f7bd
000002d0: 1d1e 053e 5b98 c4bd 9f2d b23d 81b1 1b3d
000002e0: f008 63bc dc96 3f3e 3584 1c3d eed6 8b3c
000002f0: 7550 21bd 7878 613d b1f6 5b3e e665 07bf
00000300: 118a 1f3e d64f d23d 70fa 5cbd ed11 8f3e
00000310: 3945 3e3d 0c0f 4c3e 2b0b 8ebf 96cb 87bd
00000320: c47c b83d bd07 863d 3dc1 0d3d 6465 403d
00000330: 5867 6a3e ff32 443e 66ff 393d 2c0e 173e
00000340: 8f8e 9b3e 9da6 523e c844 1bbd d310 abbb
00000350: 76ed d3bd 5a1e 3e3e 2c6a 4bbf 3b92 78bc
00000360: 402a 1f3d dd81 d0bd 822b b33d 778f 3e3e
00000370: 519d 4c3e 0a5d 08bd af01 763d cc93 73bb
00000380: ce27 09be 849f 1c3e 13cc 2a3e 5a3b 513e
00000390: 6aae 583e 6ab2 40bd 709e ce3c 3381 1a3e
000003a0: 134c cdbd 1388 613e a7a6 75bc d35e 833d
000003b0: 43b2 97bd 3230 2a3e 3672 1a3e 81dc 89bf
000003c0: b274 8ebd ee21 4f3e 3a2a 03be 5e1f 23bf
000003d0: 7092 00be 5692 d93d 3763 5c3e 4d7a 223e
000003e0: 1bb4 8b3d 0381 49bd 4ac9 11bf 3be2 3dbd
000003f0: ef34 e43c 8ed6 e33d 096f 0b3e 9b1f d3bc
0.010937091 0.06638167 0.05885876 0.0661694 0.056351084 0.21707569 0.15881965 1.1927341
0.25415736 0.022977073 0.15391241 0.05041001 0.09155366 -2.8343678 -0.13579248 0.2023049
0.13039008 0.22760232 0.020304484 0.23639119 0.14846475 0.12705533 -0.22839129 0.13781594
0.04977462 -0.09487625 0.113021314 -0.056224942 -1.0715284 0.042526715 0.12945968 -0.0064856075
0.15190758 0.105869666 0.1775402 0.23580098 -0.18397829 -0.0048759314 0.21542716 -0.045195486
0.12137029 0.004536681 -3.2191236 0.16451558 0.10890806 0.12509187 -0.9619684 -0.005343352
0.05831853 0.13326912 0.16250171 -0.11887727 0.30962133 -0.3811934 -0.25610182 0.3622807
-0.06613919 -0.007260927 -0.06578629 -0.076787554 -1.8526112 -0.047131486 -0.08977488 -0.8177667
-0.022789577 -0.009054118 -0.07379665 -0.0058178096 0.010869899 0.041552983 -1.285844 0.101844825
0.038848016 -0.020917268 0.035566356 0.20463751 0.24539235 0.15842718 0.059855625 -0.0068822317
0.20093697 0.03389121 -0.81018615 0.17999409 -0.054177355 0.29074273 -1.0717701 0.2427235
0.080711946 -0.09717194 0.116812065 0.22530061 0.03564137 -0.009416727 0.055192504 0.007261321
-0.0781519 -0.009234518 -0.02741654 -0.011563335 0.17500633 -0.026924124 0.0362125 0.33087838
0.06960584 0.28795576 0.30138004 0.051016062 0.06722435 0.31936228 -0.5058241 -1.502508
0.14923273 0.19297649 0.099495605 -1.8854871 -0.06764944 0.28940257 0.10359339 0.10459071
0.3528462 0.2098963 -5.1318016 0.07495427 -0.38309908 0.04323391 0.30060896 0.10782416
0.069219925 0.10601271 -0.086679116 0.1625972 0.030181464 0.18417965 0.117096126 0.6338791
-0.114514865 0.012344225 0.1631077 -0.044461384 0.20485647 -0.2770964 -0.07602863 -0.03591762
-0.102449685 0.1902083 0.0012767186 0.13962214 -0.048091378 0.14518121 0.272722 -0.07471887
-0.05124209 0.1610547 0.00017591027 -0.12889074 -0.40621972 -0.20271844 -0.07954701 0.040384844
0.12142887 0.05806065 0.16377483 0.090309955 -0.13543299 0.121317476 0.22397216 0.07680413
0.16865376 0.16988063 -0.58557236 -0.14779471 0.2171771 0.14120154 -0.5994249 0.019699452
0.047654014 -0.075738244 0.14749484 -0.12087606 0.12999769 -0.09599372 0.08700108 0.038011078
-0.013857111 0.18709892 0.03821202 0.01707026 -0.03938337 0.05504653 0.21480824 -0.5288986
0.15580012 0.10269134 -0.053949773 0.27943364 0.046452735 0.19927615 -1.1097158 -0.06630628
0.09008172 0.06544445 0.034608115 0.046971694 0.22890985 0.19160078 0.045409583 0.147515
0.303822 0.2057137 -0.03790739 -0.0052205115 -0.103480265 0.18566266 -0.7945888 -0.015171583
0.038858652 -0.101810195 0.08748533 0.18609415 0.19981886 -0.033291854 0.0600602 -0.0037166951
-0.1339409 0.15295225 0.1667941 0.20432797 0.21160284 -0.04704515 0.025222033 0.15088348
-0.10024276 0.22024564 -0.014993346 0.06414571 -0.074070476 0.16619948 0.1508263 -1.0770417
-0.069558516 0.20227787 -0.12809077 -0.6371974 -0.12555861 0.106236145 0.21522222 0.15866967
0.06821462 -0.0491953 -0.5694777 -0.04635833 0.027857272 0.111249074 0.13616575 -0.025771907

value_stream.0.bias f4 [64]
00000000: ce3c f43e bc84 d43e e1ad 27bd 99a8 b639
00000010: 646f 89bc 8b37 f13e 742e e33e 648c c43e
00000020: cd01 b0bc 0a84 3dbd 3b8a d83e 3843 febb
00000030: 5b21 28bd ba88 4abc 97ab fe3e a781 e23e
00000040: 0ac8 bc3e b544 543e 566a 31bc bf32 fa3e
00000050: 217a 3fbd 0a5f ec3e 21a9 f03e e52f 4abd
00000060: 9111 de3e 34db dc3e 0071 e13e e92f 03bd
00000070: 4a30 5dbd f31b f83e a5ba bdbd e64a de3e
00000080: 9baf 65bc 8c83 91bc 0f65 69bd 67f9 d93e
00000090: 3e7c a5bd b1ad 81bd 6339 f73e 5edb f73e
000000a0: f4a9 4f3d aae8 d73e 0cf7 f03e ea1f debc
000000b0: d070 24bd 7847 90bc f5da 0fbd 4bb3 ec3e
000000c0: 9caf f53e 2500 babd 57fb d83e 8fd5 38bd
000000d0: b421 c73b 879a a0bb cb58 e53e daeb c6bc
000000e0: aebc aabd bb7b 31bd dac8 a2bc f5b6 e83e
000000f0: 0a03 073d 769e 3abc e663 02bd 7697 b6bd
0.4770264 0.41507518 -0.04093731 0.0003483936 -0.016776748 0.47112688 0.44371378 0.3838836
-0.021485234 -0.0462685 0.4229296 -0.007759478 -0.041047435 -0.0123617 0.49740288 0.44239542
0.36871368 0.20729335 -0.010828575 0.4886684 -0.04674733 0.4616626 0.47004035 -0.049362082
0.43372777 0.4313599 0.44031525 -0.032028113 -0.05400113 0.48458824 -0.09264115 0.43416518
-0.014018918 -0.017762922 -0.056981143 0.4257309 -0.08080338 -0.06331957 0.4828597 0.4840955
0.05069919 0.42169696 0.47063482 -0.027114827 -0.04014665 -0.017612204 -0.035120923 0.4623054
0.47985542 -0.09082059 0.42379257 -0.04512554 0.006077016 -0.0049012336 0.44794306 -0.024282385
-0.08336769 -0.04333089 -0.019871164 0.45452085 0.032961883 -0.011390319 -0.03183355 -0.08915608

value_stream.2.weight f4 [1, 64]
00000000: 08d4 e33e e603 2c3e 3333 7bbe f0f4 703f
00000010: ffa3 32be 2430 d33e 7b65 c93e af08 cb3d
00000020: eab6 62be 645b b4bd 7a58 403e ccf8 66bf
00000030: 2566 bdbd ccb7 67be afeb 833e 3629 bd3e
00000040: 6c2a 8c3d 1747 adbf 4224 e6bd 700c 023f
00000050: f55e 52be 19a1 b03e 577b cc3e 1c41 15bd
00000060: 3eed 8b3e d405 7f3e af34 a03e c4a2 c8bf
00000070: 2840 07be 6cfe d63e 1407 a73c bd25 893e
00000080: ce1a 34bd a4a4 35bd a7df a4bd a3a4 143e
00000090: 0d09 32bd 4df8 babc fe9c f43e 58a9 f73e
000000a0: 83d8 32bf d0dd 6d3e 5650 c13e b524 2bbe
000000b0: f549 debc 40d8 efbc ed61 5bbe ae6e 073f
000000c0: 5338 b63e 874e 57be 7dfa be3e a214 cebd
000000d0: f598 31bf 3cf0 38bf 46f3 803e 3910 04be
000000e0: 6cc5 28bc 34a0 25bf a326 39be a330 cb3e
000000f0: 4a87 45bf 600a 46be 4c48 87bd cc8b c1bf
0.44497705 0.16798362 -0.2453125 0.94123745 -0.17445372 0.41247666 0.39335236 0.09913766
-0.22140089 -0.08806494 0.18783751 -0.90223384 -0.09247998 -0.22628707 0.2576575 0.36945504
0.06844029 -1.353732 -0.112373844 0.5080023 -0.20544036 0.34497908 0.3993785 -0.036439046
0.2732944 0.24904567 0.31290194 -1.5674672 -0.13208067 0.41990983 0.020389117 0.26786605
-0.043970875 -0.044346467 -0.08050471 0.14515929 -0.043465663 -0.022823477 0.47776026 0.48371387
-0.6986162 0.23229146 0.37756604 -0.16713221 -0.027134875 -0.02927792 -0.21424074 0.5290326
0.35589847 -0.2102605 0.37300482 -0.10062529 -0.6937402 -0.7224157 0.25185603 -0.12896813
-0.010300975 -0.64697576 -0.18081145 0.39685544 -0.7715956 -0.19339895 -0.066055864 -1.5120788

advantage_stream.0.weight f4 [64, 128]
00000000: 969c db3e 76a9 ee3c 5a27 58bd 335e a63b
00000010: 96ed 0d3e 494c 4f3d 505f 673e d8a6 dd3d
00000020: ee70 2fbc 7d5e 23be 5294 243d f643 9a3d
00000030: 7492 933e f6ca 933e 2d84 ad3d 6365 63bd
00000040: a2b8 f0bd 2e65 8fbe 5f4a 3ebe 98fe 743e
00000050: c7e6 053e 1644 423c 6e83 e33e 7511 563c
00000060: e1f1 573e a392 87bf 45d9 e93e 4968 d03d
00000070: c0bf a43e 2a79 47bf 032e 303e a528 5b3e
00000080: 3b8a 0c3e e26b dbbc b732 06c0 7760 853e
00000090: c228 24bf 139d 38be eeff 143e 50bb 063a
000000a0: 691f 003e 358b e43d d6a3 113e 4587 eb3e
000000b0: c2e3 413e d4e1 71bf 1125 acbd 07de 443e
000000c0: 89b6 673e 85d5 8ebb c899 0e3e 100b b5bc
000000d0: 9f48 133e 121e 003f f460 bf3c a9b6 c43e
000000e0: 3fa0 48be 266f 033e 21ec 473d 8a24 58bc
000000f0: a0d5 2b3f 09de 873d 5af2 a63e 5abb 093e
00000100: 3f16 0bbf d717 183e 2e87 68be b5cb ebbf
00000110: 83aa 44be 405b b73e 6478 48bd 493f aa3e
00000120: a852 a7bd b712 dabd 57bd 943e cb42 7e3d
00000130: 7ea5 15c0 7a30 bb3e 9959 4fbd 2262 24be
00000140: 63ee c43e 860e fa3e 2b56 103f bcb0 85be
00000150: f22c 303e c272 833e 1b48 293e be4d 003e
00000160: 921b 063e e6f6 b33d dcd9 013e f159 84be
00000170: 41f3 1c3e b023 bd3d 89d1 cebd 6d0c f43d
00000180: ec77 153e c83a 21bd 46c0 c23d 2e7f b73c
00000190: 751f b8bd 7fda cd3d 30cb 24be a5c6 903e
000001a0: 437d 0d3e c5fe 813e 1cd7 d53d 94d7 4ac0
000001b0: c8ef 1abe f1f5 b43e f341 d53e 2df9 9cbe
000001c0: be34 0ebe 5b45 373c f6db edbd eecb 883e
000001d0: d059 263e 6e42 db3e 5ba9 683e 5129 5e3e
000001e0: f736 e8bf b268 a63d da1e 5b3e 1591 19bd
000001f0: a14e 383e f401 60bd 60c6 9e3d 2df0 3f3d
00000200: 28dc 14be d052 9a3c 8e5c 243e 3537 253e
00000210: 2b62 2fbd 2013 3c3d 3490 27be f348 e5bd
00000220: 9767 013e c4ef dc3c 36d8 273d 130b dd3c
00000230: e7a3 9dbd 3a88 143e bbed 363e c338 8b3d
00000240: d009 2a3e eefd 4f3d 7134 043e 74db efbd
00000250: e81f 6d3d 560d 06be 8bd0 e6bc 7ca1 f9bd
00000260: 4c53 843d 9ddb 30be 7783 62bd 252d 82bd
00000270: f788 e53d fd88 01be 0c4a bdbd 56d4 133e
00000280: fe7e a83d 093a 0b3e 8b38 213e bb41 ddbd
00000290: e7e4 2e3d 3907 0dbe 283f 83bd a1e0 e0bc
000002a0: 1116 b5bd 488f 163d 822d ea3c eaa9 053d
000002b0: 6727 be3d 138c aebc 0086 0e3e c133 92bc
000002c0: 267d 033e b74d 113e b88c 223e 539b aebd
000002d0: a471 8bbd a58e 0fbe e31a 9fbd 4959 293e
000002e0: 40be 51bc 1217 d3bd e571 03be 86b9 0abe
000002f0: 2ee3 c7bd 802d 733d d048 b8bd 2056 88bd
00000300: bb7d 1bbe c686 2bbe f383 bfbd 4dde 28be
00000310: 7b3b 92bc 2c25 80bd 7aca acbd 1f11 ecbd
00000320: e85c 803d 59c0 a43d af88 1fbd 3e8e 843d
00000330: 4de5 1e3e 8742 66bd 823a d3bd 91b8 ec3d
00000340: f67c 39bd aaf9 8dbd 95fc e53d e7f9 553d
00000350: e53b f4bd 0ddf 2a3d 2fef 9d3d 67c1 2c3e
00000360: ac69 b8bd 3e00 b73d bb9e f5bc 20a7 6c3c
00000370: 80ab 2bbe cfab 24be c570 c03d bb6b 9fba
00000380: 77ca ac3d ab8d e4bd 27fd 063e 1579 8ebd
00000390: 9c73 f4bd aa22 1a3e 0b87 d4bd d72e d9bd
000003a0: 16c6 16be f1b7 983d 696b 76bc e385 1dbc
000003b0: 0030 713d c49a 4abd 0cda 023d eb38 c7bd
000003c0: a0ec 30bd 958b bf3d e48c 5a3d 6110 f83d
000003d0: c6b3 303e 8b2e f73d 3b9a 96bd 3748 15be
000003e0: cdf3 a2bd d79b a7bc df6c 2f3e 6e42 a73c
000003f0: 2b78 e7bc ff4d 063e 9122 893d 11c4 113e
0.42892903 0.02913354 -0.052771904 0.0050771474 0.13860163 0.05060986 0.22594953 0.108228385
-0.010708077 -0.15954013 0.04018051 0.07532494 0.28822672 0.28865784 0.08472476 -0.05551661
-0.11753966 -0.2800688 -0.18583058 0.23925245 0.13076316 0.011857053 0.4443621 0.0130656855
0.21088363 -1.0591625 0.45673576 0.10176141 0.32177544 -0.77919257 0.17205052 0.21402223
0.13724606 -0.026784841 -2.0968454 0.2605016 -0.6412469 -0.18028669 0.14550754 0.0005139606
0.12511982 0.11159364 0.14222655 0.4600164 0.18934539 -0.9448521 -0.08405507 0.19225322
0.22628225 -0.0043589496 0.1392585 -0.022100002 0.14383171 0.50045884 0.02336166 0.3842061
-0.19592379 0.12835369 0.048809174 -0.013192305 0.6712284 0.06634147 0.32606775 0.13450375
-0.5433082 0.14852844 -0.22707817 -1.8421541 -0.1920567 0.35811806 -0.04894294 0.33251408
-0.08170062 -0.10648101 0.29050705 0.062075417 -2.3382258 0.36560422 -0.050622556 -0.1605306
0.38463125 0.48839206 0.5638148 -0.261114 0.17204645 0.2567349 0.16531412 0.12529656
0.13096455 0.087873265 0.12680763 -0.2584987 0.15327169 0.092353225 -0.100985594 0.119164325
0.14596528 -0.0393627 0.095093295 0.022399511 -0.08990375 0.100514404 -0.16093135 0.28276554
0.13817315 0.25389686 0.104414195 -3.1694078 -0.15130532 0.35343888 0.41651878 -0.30658856
-0.13887307 0.011185969 -0.1161422 0.26718086 0.16245198 0.4282412 0.22720854 0.21695448
-1.8141774 0.08125438 0.21398488 -0.037491877 0.17998745 -0.054689363 0.07752681 0.04685991
-0.14537108 0.018838316 0.16050932 0.16134341 -0.04281823 0.045916677 -0.16363603 -0.111955546
0.12637173 0.026969798 0.04097768 0.02698282 -0.076972775 0.14505091 0.17864124 0.06797936
0.16605306 0.050779276 0.1291063 -0.11711779 0.057891756 -0.13091025 -0.028175613 -0.12189004
0.064612 -0.17271276 -0.055301156 -0.06356267 0.112077646 -0.12649913 -0.09242639 0.14436468
0.08227347 0.13596357 0.15744226 -0.10803553 0.042698767 -0.13772286 -0.064085305 -0.027450861
-0.088420995 0.036757737 0.028586153 0.032632746 0.09284859 -0.021307027 0.13918304 -0.017846944
0.12840709 0.14189802 0.15873992 -0.085257195 -0.068087846 -0.14019258 -0.077688 0.16537966
-0.012801707 -0.10307135 -0.12836416 -0.13547334 -0.09760128 0.059369564 -0.08998263 -0.06657052
-0.15184681 -0.1675063 -0.09351339 -0.16491051 -0.017850628 -0.0625709 -0.08437057 -0.11526703
0.062677205 0.080445 -0.03894871 0.06472443 0.15517159 -0.05621579 -0.10313894 0.11558641
-0.045285188 -0.06932385 0.11229817 0.05224028 -0.119254865 0.041716624 0.07711636 0.16870652
-0.0900453 0.08935593 -0.029982915 0.014444143 -0.16764641 -0.16081165 0.09396509 -0.0012162843
0.084370546 -0.111598335 0.13182507 -0.06956688 -0.11936113 0.15052286 -0.1037732 -0.10604637
-0.14724001 0.07456959 -0.015040257 -0.009614441 0.058883667 -0.049464002 0.031946227 -0.09727653
-0.043194413 0.09352795 0.05335702 0.12112499 0.17256078 0.12069424 -0.07353636 -0.14578329
-0.079566576 -0.020460052 0.17131375 0.020417418 -0.028255543 0.1311569 0.06696046 0.1423495

advantage_stream.0.bias f4 [64]
00000000: c6c0 443e 4e8a a8ba 68ff 573c 1b8e 8f3e
00000010: 91b3 163d 0be4 ae3d 3d37 e93d 3ad6 af3d
00000020: 30f2 eebc 04d3 9ebc 9a68 203e 3f96 57bc
00000030: 1566 d1bc 7de1 853c 4e0b 2a3e 9ef4 073d
00000040: b52c 773d 7659 f33b 0ec9 19bd 5719 c2bc
00000050: 9178 a7bc 8af3 2cbd 79bb b4bc 14d7 13bd
00000060: e32c 10bd 961a 39bd dae4 8abc 9a36 f1bc
00000070: f904 bf3d febf 42bd 6a87 943d a5de 85bb
00000080: 96e2 953d 2c9d 5d3b 2d89 bd3c 07ec 0a3e
00000090: a556 1f3d 489d 923d 4ee2 913e 1756 41bd
000000a0: 3591 513d 4599 c43d aba8 22bd 6b22 c33d
000000b0: dff1 903d 686c 793e ab74 d83d da5a 933d
000000c0: 0941 25bd 1f88 063d f967 ea3d 83e5 aa3d
000000d0: 7beb d43d e58c 12bd 33c0 05bc 7dfc 433e
000000e0: fbf0 a63d 3c7f 853d d364 403e f4a6 943d
000000f0: e963 8dbd c649 bfbc 6ec0 b3bd 6737 533e
0.19214162 -0.0012858601 0.013183452 0.28038105 0.03679234 0.085395895 0.11387489 0.08585782
-0.029168218 -0.01938773 0.15664902 -0.01315838 -0.025561372 0.016342873 0.16605875 0.03319227
0.06034537 0.007426436 -0.037545256 -0.023693724 -0.020443233 -0.042224444 -0.02206205 -0.036093786
-0.035199057 -0.04519137 -0.016954828 -0.029444981 0.0932712 -0.04754638 0.07252391 -0.004085379
0.073186085 0.0033815606 0.0231367 0.135666 0.03890099 0.07158905 0.2849297 -0.047201242
0.05116387 0.09599546 -0.039711636 0.09528049 0.07077383 0.2435776 0.10569128 0.07195063
-0.040345225 0.03284466 0.114456125 0.08344557 0.10396477 -0.0357789 -0.0081635 0.19139285
0.08151432 0.06518409 0.18788461 0.07258406 -0.06903822 -0.023350608 -0.087769374 0.20626603

advantage_stream.2.weight f4 [2, 64]
00000000: 2092 cdbe 177d 863d 4bc2 303e 8e54 113f
00000010: 74b8 6dbf 3e1b b5be 3d45 cebe a576 183f
00000020: 87aa 8f3e 23df 723f 4a29 003f 3556 2c3e
00000030: 79f1 093e 56fa 9ebc 7ff8 23bf cb16 9f3e
00000040: f61e 4e3f e741 913f 0c20 30bd adff 7bbe
00000050: 52d1 38be 623a b5bd d475 683e 8b60 263d
00000060: 9ced 5fbe 2a57 a33d 592f 0c3e eeac fa3d
00000070: 1a26 99be 33e9 16bd 6a21 ef3e 1b4d 843e
00000080: f23e c9bd 93f7 51be f997 3f3c 6db1 1ebf
00000090: bb16 513f ee94 a23d cb7a 303f c428 a23d
000000a0: 3d8f 2b3d 44d7 81bc 024a 053d e64e 7b3f
000000b0: 19e4 7a3e a0ac c73e 7276 8dbd b026 bbbe
000000c0: 640d 913d af36 223e 391e fabe 26ac a3be
000000d0: 15ab 6cbb 7856 333e 0f31 97be 8d1b 96bf
000000e0: 0d85 9c3d 196f 963e f625 9fbf 8227 7f3f
000000f0: 358d 9bbc 8c24 4a3e c251 6a3f 3b3b 413e
00000100: 63b0 6b3f a594 82be 1719 16be 10e8 4cbf
00000110: 6292 623f 8442 973e a709 4b3d 8ac3 90be
00000120: 7fe7 ae3b 4f0b 68bf d040 05bf 43b1 4cbe
00000130: bb10 193e 8a4e 593d 7b31 1e3f b740 91be
00000140: a27a 67bf db13 9abf 14bf 02be 08c3 573e
00000150: e47c 25be 3169 313d 99bc e0bc 9fd7 d8bd
00000160: c97c 293e 7897 e13d f942 103e a03a d83d
00000170: 2c2a b03e a808 033e be51 eabe 26b2 e9bd
00000180: f0e3 b13e 0fda ea3e 6c30 cbbe 1b63 3b3f
00000190: 0344 63bf 2b56 c63e 0917 24bf 4719 563d
000001a0: c29f 593e 750a e13e fbff 343d a402 23bf
000001b0: 652a 64be 5742 59bf 6f77 8f3e 3eb4 f33d
000001c0: 6d9a 4bbe 2bd2 edbe 8b7f adbc c640 6a3e
000001d0: c237 ca3e 56e6 733e e679 97be d12e 863f
000001e0: 6d07 c03e bd76 0abf 0c66 a43f d1c0 8bbf
000001f0: 0bc6 0abe 298b 3cbe 40b3 19bf e7d9 a4be
-0.40150547 0.06566828 0.17261617 0.56769645 -0.9285958 -0.35372347 -0.402872 0.5955604
0.2805979 0.9487173 0.50063 0.1682976 0.13471021 -0.019406479 -0.6405105 0.31072077
0.8051599 1.1348237 -0.042999312 -0.24609251 -0.180486 -0.08849026 0.22701198 0.040619414
-0.21867985 0.079756096 0.13689937 0.12240015 -0.29911882 -0.03684349 0.4670518 0.25840077
-0.09826459 -0.20504598 0.011693948 -0.6198948 0.8167531 0.07938562 0.6893737 0.07917932
0.04188465 -0.015849717 0.032541282 0.98167264 0.24501075 0.3899889 -0.06907357 -0.36552954
0.07082632 0.15841173 -0.48851183 -0.31967276 -0.0036112715 0.17513454 -0.29529616 -1.1727158
0.07642565 0.29381636 -1.243346 0.9966966 -0.018988231 0.19740504 0.91531 0.18870251
0.9206602 -0.25504032 -0.14658009 -0.800416 0.8850461 0.29542935 0.049569752 -0.28274184
0.005337655 -0.90642256 -0.5205202 -0.19989495 0.14947788 0.053053416 0.6179425 -0.28369686
-0.904215 -1.203731 -0.12768203 0.21070492 -0.16160923 0.04331321 -0.02743368 -0.105880015
0.16551508 0.110152185 0.14088048 0.10558057 0.34407175 0.12796271 -0.4576549 -0.11410932
0.34744215 0.4586949 -0.3968538 0.731981 -0.8877565 0.38737616 -0.6409765 0.0522702
0.21252349 0.4395329 0.044189434 -0.63675904 -0.22281797 -0.8486685 0.28020808 0.11899613
-0.19883128 -0.46449408 -0.021178981 0.22876272 0.39495665 0.23818335 -0.2958519 1.0483037
0.37505665 -0.5408743 1.2843642 -1.0918218 -0.1355211 -0.1841246 -0.6003914 -0.32197496

advantage_stream.2.bias f4 [2]
00000000: 571e 0a3d 571e 0abd
0.03372034 -0.03372034

exp_avg f4 [128, 4]
00000000: c706 a23a a680 0f39 d69e a638 bf4b 1a38
00000010: a36e 9139 cb38 883a cf26 2739 008c 013a
00000020: 9fe2 2f3b 5f83 5c3b add6 cbb9 9910 8abb
00000030: 9e79 fa3b c10d 73bc d2fe 1b39 d0f7 6e3c
00000040: 1c89 adba 1c3d 633c 9da3 493a dde3 cabb
00000050: 7794 7f2f a329 0531 4c07 93ae 4516 0ab1
00000060: 0400 0080 0400 0000 0400 0000 0400 0000
00000070: 7b80 6e3a 2657 47bb 10bc e438 75a1 573b
00000080: f5d5 c539 e680 a73a 0eb2 78b9 5cdd afba
00000090: a2c6 fc3b f93b c7bc c4d6 143a 04b5 b73c
000000a0: afb1 ce3a 2e96 823a ffdf 72ba a9a8 8abb
000000b0: f9b5 01bb f0e5 253a 9495 e638 25c3 03ba
000000c0: 0400 0080 0400 0080 0400 0000 0400 0080
000000d0: 6944 b63b 0489 39bc d099 0739 a288 1e3c
000000e0: 0400 0000 0400 0000 0400 0080 0400 0080
000000f0: f67d cab9 59ed 923a 04bc c3b9 9f6c b3ba
00000100: 1815 223c 0b05 a0bc c26e bc39 5bfe a03c
00000110: 9b80 f3b9 d8ca 76bb 5959 4aba 8abe ebb9
00000120: 7522 343c 8295 273c f151 ffba f682 5bbc
00000130: facf 32ba 730c 5b3a 6cb9 a039 d95c b43a
00000140: 48ab 673c d8a1 423c 1fdf 15bb f86d 86bc
00000150: 844e c9ba fb13 903b 1854 9238 2bfa 7fbb
00000160: 0fbf 8d39 5f11 c6b6 3d29 fa37 a13b b0b9
00000170: fb7d a23b 90c9 d8bb f986 8e39 2418 f23b
00000180: 4f02 8d3a cbc6 5d3c 42bc ce3a 2e07 d7ba
00000190: 0400 0080 0400 0080 0400 0080 0400 0000
000001a0: 0400 0080 0400 0080 0400 0000 0400 0000
000001b0: 29e3 053a 4666 c038 3ec1 4438 6ff1 9039
000001c0: 57c1 21bd 7da6 0fbd 010b fcba ddd0 e7bb
000001d0: 0400 0080 0400 0000 0400 0080 0400 0080
000001e0: 8a15 dd39 7565 68ba 0bfa 15b8 602f 213a
000001f0: cc4d 253b fc37 323d 11d9 993b 433e 1bbc
00000200: ffd8 ccba 2ddc 3fb9 e66c d5b9 7362 9aba
00000210: 0400 0000 0400 0000 0400 0080 0400 0080
00000220: 88b1 3f3a 8a74 083b 7e6c d5b9 1634 3bbb
00000230: 738a 8439 aac2 ecb9 8d1b ed39 1d9f 163b
00000240: dc70 5c3a e8cb 9c3b f401 65b9 5db4 17bb
00000250: 141b 183c 7bc8 49bc 5170 4f39 ee64 683c
00000260: 7d00 acba 7c63 d53b 02be 8db9 141c 7fbb
00000270: af36 2d38 c471 eaba c695 7ab9 e2eb c339
00000280: b81f b0b8 ef37 2039 1602 4337 daee 9cb8
00000290: b35a 60ba edb8 4dba 7b39 c4b8 8017 0c39
000002a0: 59f6 1fba 90b7 803a 5216 38b9 3465 11bb
000002b0: 0400 0080 0400 0080 0400 0080 0400 0000
000002c0: 6d63 40ba d03a f739 3584 47b8 d71e c7ba
000002d0: 0400 0080 0400 0080 0400 0080 0400 0080
000002e0: 774a 0b39 3227 0638 c34f ed36 1650 fe37
000002f0: 7f47 b5ba b1e4 f53a bbdb cbb7 d9da c7ba
00000300: 0ae0 a93b 70a1 78bc 8939 083a d1ac 5e3c
00000310: 3c91 a83c ebde 8a3c b35f 54bb d0e1 b4bc
00000320: d001 6bba f7b5 323b 9a15 a8b8 d416 6bbb
00000330: 0400 0000 0400 0000 0400 0080 0400 0080
00000340: 5756 30bd a154 1dbd 9e98 baba 94f5 05bc
00000350: 2d82 5339 5c7e f13a b8c8 8eb7 e440 d7ba
00000360: c32f b63b 74aa 45bc a67f 1c39 4ccb 3f3c
00000370: 1b42 cc3a 1e69 c03c 5ad8 5f3b 3026 1f3a
00000380: ebff 09b9 62f6 8c3a 55e2 b9b8 955f 02bb
00000390: 1c77 cd3b 131b 3bbc 9c05 6439 b93b 293c
000003a0: aec0 173c a7b1 d83b b931 b7ba 0eac 23bc
000003b0: 4a63 7fb8 5300 8eb8 f46a bfb5 d0eb 40b7
000003c0: e91f d33c b414 a33c fa31 6fbb 8378 c1bc
000003d0: 9091 8e3a a398 193c ee4d bb3a 1ba8 df3a
000003e0: 9ca3 8039 5589 953c ba6b a73a 88f2 79bb
000003f0: 4400 8c3a f6b2 493c f1ac c53a 6f09 aeba
0.0012361639 0.00013685468 7.945082e-05 3.6787005e-05 0.00027738986 0.0010392902 0.00015940818 0.0004941821
0.0026837958 0.003364764 -0.00038879123 -0.0042134044 0.0076438924 -0.014834822 0.0001487688 0.01458545
-0.0013239714 0.01386955 0.0007691922 -0.006191714 2.324486e-10 1.9377715e-09 -6.686082e-11 -2.0094302e-09
-6e-45 6e-45 6e-45 6e-45 0.00090981246 -0.0030416935 0.000109069166 0.0032902632
0.00037734178 0.0012779504 -0.00023717454 -0.0013417411 0.0077141086 -0.02432059 0.00056777545 0.022425182
0.0015769507 0.000996297 -0.00092649454 -0.0042315316 -0.0019792302 0.0006328514 0.00010995116 -0.0005026332
-6e-45 -6e-45 6e-45 -6e-45 0.0055623543 -0.011324171 0.00012931903 0.0096761305
6e-45 6e-45 -6e-45 -6e-45 -0.0003862229 0.0011209651 -0.0003733338 -0.0013688988
0.009892724 -0.019533655 0.00035940675 0.019652536 -0.0004644439 -0.0037657525 -0.00077190023 -0.00044964656
0.010994543 0.0102285165 -0.0019479376 -0.013397923 -0.0006821152 0.0008356042 0.00030655728 0.0013760581
0.014139958 0.011879407 -0.0022868586 -0.016409859 -0.0015358482 0.004396913 6.977486e-05 -0.0039059024
0.00027035965 -5.902882e-06 2.9821525e-05 -0.00033613763 0.0049588657 -0.006615825 0.00027184913 0.0073881317
0.0010758134 0.0135361655 0.0015772658 -0.0016405338 -6e-45 -6e-45 -6e-45 6e-45
-6e-45 -6e-45 6e-45 6e-45 0.0005107397 9.174323e-05 4.6910012e-05 0.00027645702
-0.039491024 -0.035070885 -0.0019229354 -0.007074459 -6e-45 6e-45 -6e-45 -6e-45
0.00042168453 -0.0008865216 -3.575724e-05 0.0006148722 0.0025223373 0.043510422 0.004695066 -0.009475294
-0.0015628635 -0.00018297201 -0.00040707662 -0.0011778608 6e-45 6e-45 -6e-45 -6e-45
0.0007312526 0.0020821416 -0.0004070736 -0.0028564981 0.00025280155 -0.00045158464 0.0004522469 0.0022983022
0.00084091513 0.0047850497 -0.0002183987 -0.0023148276 0.0092838 -0.012315865 0.000197829 0.01418422
-0.0013122704 0.0065121036 -0.00027035183 -0.0038926648 4.1297342e-05 -0.0017886688 -0.00023897653 0.00037369045
-8.398242e-05 0.00015279626 1.1623391e-05 -7.483149e-05 -0.0008558437 -0.00078476855 -9.356715e-05 0.00013360195
-0.00061020773 0.0009820331 -0.00017555922 -0.0022185566 -6e-45 -6e-45 -6e-45 6e-45
-0.00073390343 0.0004715533 -4.7568425e-05 -0.0015191686 -6e-45 -6e-45 -6e-45 -6e-45
0.00013283813 3.1984593e-05 7.072436e-06 3.0316452e-05 -0.0013830512 0.0018760172 -2.4301806e-05 -0.0015247717
0.0051841782 -0.015175208 0.00051965617 0.013591007 0.020577066 0.016951999 -0.0032405674 -0.022080332
-0.00089648087 0.0027269104 -8.014888e-05 -0.003587176 6e-45 6e-45 -6e-45 -6e-45
-0.04305109 -0.038410787 -0.0014236157 -0.008176226 0.00020171022 0.0018424499 -1.7021186e-05 -0.0016422537
0.005559893 -0.012064565 0.00014924872 0.011706185 0.0015583666 0.023487624 0.0034156055 0.0006071059
-0.00013160675 0.001075458 -8.863645e-05 -0.0019893397 0.0062703025 -0.011420029 0.00021745864 0.01032918
0.009262247 0.0066129747 -0.001397661 -0.0099897515 -6.0889208e-05 -6.771148e-05 -1.4261736e-06 -1.1498996e-05
0.025772052 0.019907333 -0.0036498294 -0.023617035 0.0010877121 0.00937477 0.0014290193 0.0017063649
0.0002453596 0.018253962 0.0012773194 -0.0038138945 0.0010681232 0.012310734 0.0015081448 -0.0013277958
