CartPoleHighRewardIn2026/checkpoints/checkpoint_ep100_reward123.00.pt (torch, 421217 bytes, 33 tensors)

feature_layer.0.weight f4 [128, 4]
0	0x3dae1383	0.08499815
1	0xbe0c9cc5	-0.13731678
2	0xbeb2eb3a	-0.3494509
3	0x3d436db9	0.04771206
4	0x3e00cd73	0.12578373
5	0x3de6fd06	0.11278729
6	0xbe6e2683	-0.23256879
7	0xbd5fb9cb	-0.054620545
8	0xbe05b9ab	-0.13059108
9	0x3d39671c	0.04526435
10	0xbe9be6ae	-0.30449432
11	0xbe334d40	-0.17509937
12	0xbd209d47	-0.03921249
13	0xbdcf64dd	-0.1012666
14	0x3de1aa11	0.11018766
15	0xbda8eae8	-0.0824793
16	0x3d384860	0.044990897
17	0xbdbfd0c0	-0.09365988
18	0x3ea6aa27	0.3255169
19	0x3dc6f9b8	0.09715599
20	0x3dd0254b	0.10163363
21	0x3d1eee7f	0.038801666
22	0xbe54f4e1	-0.20796539
23	0xbdd82b65	-0.10555152
24	0x3ce553d4	0.027994074
25	0x3ce998b8	0.028515205
26	0x3b7450b7	0.0037279555
27	0x3d13654b	0.035985272
28	0xbc6541b2	-0.013992714
29	0x3decb1e9	0.11557371
30	0xbdec7e20	-0.11547494
31	0x3dc098ea	0.09404166
32	0xbe55d205	-0.20880897
33	0x3e0dbac9	0.13840784
34	0x3e43d4b9	0.19124116
35	0xbb9d09c8	-0.004792426
36	0x3e06d61c	0.13167614
37	0xbdfaea8a	-0.12251766
38	0xbe0569b6	-0.13028607
39	0xbdb820a8	-0.08990604
40	0x3d9f7512	0.07786001
41	0xbdfbb7bf	-0.12290906
42	0x3d53e130	0.051728427
43	0xbd919202	-0.07107927
44	0x3dbb7078	0.09152311
45	0x3e0e203d	0.13879485
46	0x3e84ab3f	0.259119
47	0x3de7563b	0.11295744
48	0xbe0017ac	-0.1250903
49	0x3b1b1898	0.0023665782
50	0x3de7832c	0.11304316
51	0x3c814969	0.015782075
52	0x3e18946b	0.14900367
53	0x3da14d2c	0.078760475
54	0xbea476a6	-0.32121772
55	0x3dcfe883	0.1015177
56	0x3dc49620	0.095989466
57	0x3d9df0ab	0.077119194
58	0x3bab384f	0.0052252184
59	0x3beab332	0.007162475
60	0xbdbf1c78	-0.09331602
61	0xbbe879cf	-0.007094599
62	0x3d35b665	0.044363398
63	0xbdeb84b0	-0.114999175
64	0x3c026f6f	0.007961138
65	0xbcfa7dc5	-0.03057755
66	0x3e049966	0.12949142
67	0xbce21816	-0.027599376
68	0xbe0c1903	-0.13681416
69	0x3de92532	0.113840476
70	0xbd1a1d05	-0.03762533
71	0x3c17eb3e	0.009272395
72	0x3db76ee0	0.089566946
73	0x3d69917d	0.057023514
74	0xbeba581c	-0.36395347
75	0x3c6d4fd4	0.014484365
76	0xbe451fab	-0.19250362
77	0xbd7eae80	-0.062178135
78	0x3e898ec0	0.26866722
79	0xbe013ba3	-0.12620406
80	0x3e1df0b2	0.15423849
81	0xbda0fd40	-0.078608036
82	0xbe6f777b	-0.23385422
83	0xbda97558	-0.08274335
84	0x3c8242d7	0.015901012
85	0xbd19ac4a	-0.037517823
86	0x3e859286	0.2608835
87	0x3e38422c	0.17993993
88	0x3e58470f	0.21120857
89	0xbdeab1b2	-0.11459674
90	0xbe4dbc5b	-0.20091383
91	0xbdb25960	-0.08708453
92	0xbdd80dda	-0.10549517
93	0xbc2750f5	-0.010212173
94	0x3e7c985c	0.24667495
95	0xbd6e5ed1	-0.058195893
96	0x3da3df31	0.08001555
97	0x3d66f874	0.056389287
98	0x3e8d4088	0.27588296
99	0x3e0b1541	0.13582326
100	0x3d0f9fb3	0.03506441
101	0x3d7809cd	0.06055622
102	0x3c689512	0.014195697
103	0x3dae1589	0.08500201
104	0xbe4ec0a4	-0.20190674
105	0xbcef50a1	-0.029213252
106	0xbdc2687c	-0.09492585
107	0x3d93c8f1	0.07216061
108	0xbe2ed31c	-0.1707272
109	0xbc24eac8	-0.010065742
110	0xbd567842	-0.05236078
111	0x3e156449	0.14589037
112	0x3e16a153	0.14709978
113	0x3e0bfdf1	0.1367109
114	0xbe4399c6	-0.19101629
115	0xbe3f2ca4	-0.18669373
116	0xbd4b5e19	-0.049650285
117	0x3dca4e01	0.09878159
118	0x3e49fd7d	0.19725604
119	0x3d1334b8	0.03593895
120	0x3e0e6036	0.13903889
121	0xbe386b9a	-0.18009797
122	0x3e880d36	0.2657258
123	0x3d5432ee	0.051806383
124	0xbdb99bbd	-0.09062908
125	0x3d41346c	0.047169134
126	0x3e5b1a58	0.21396768
127	0x3d792c23	0.060833108
128	0x3c7b8487	0.015351421
129	0x3cfef6ee	0.031123605
130	0x3dd5da23	0.10441997
131	0xbdb1618e	-0.08661185
132	0x3dc2ec3a	0.09517713
133	0xbe14679e	-0.14492652
134	0xbe6133e4	-0.21992451
135	0xbd8ddf4f	-0.06927358
136	0x3d8109b9	0.063006826
137	0xbe690f6e	-0.22759792
138	0xbe704249	-0.23462786
139	0xbe448fcf	-0.19195484
140	0x3e8cc0e0	0.27490902
141	0xbdd27509	-0.10276229
142	0xbdee539f	-0.11637043
143	0x3d3e2c68	0.046429068
144	0xbe68484d	-0.2268383
145	0xbcf85844	-0.030315526
146	0x3ea16980	0.31525803
147	0xbe2d065a	-0.16896954
148	0xbccc28f7	-0.024921877
149	0x3e091fc5	0.13391025
150	0x3e8e4f91	0.2779508
151	0x3d7f52cc	0.06233482
152	0x3da69225	0.081333436
153	0xbd3d67cf	-0.046241578
154	0x3f0a3bf4	0.5399773
155	0xbbce7373	-0.0063003837
156	0xbe757e5a	-0.2397398
157	0x3d90e480	0.07074833
158	0x3e9221e0	0.2854147
159	0xbe0f545d	-0.13997026
160	0x3d3b6de9	0.045759115
161	0x3d24933e	0.040179484
162	0x3e92f2bb	0.28700814
163	0xbe2df7c1	-0.16989042
164	0x3e29c616	0.1657947
165	0x3e2eca72	0.17069414
166	0xbe316863	-0.17324977
167	0x3d699d32	0.05703468
168	0xbdcca4c5	-0.09992365
169	0xbae24eb5	-0.0017265888
170	0xbeab0007	-0.33398458
171	0xbe4bf8d9	-0.19919147
172	0x3e35e773	0.17764072
173	0x3e3c123e	0.18366334
174	0x3cb67793	0.022273814
175	0x3dc14d6c	0.09438595
176	0xbdfb42ae	-0.122685775
177	0xbe12ed14	-0.1434825
178	0x3ea3889e	0.31940168
179	0x3e2588ae	0.1616542
180	0xbe05754e	-0.1303303
181	0xbe43aa0e	-0.1910784
182	0xbe47c00d	-0.19506855
183	0xbe047cae	-0.12938187
184	0x3e23754a	0.15962711
185	0xbe1b233c	-0.1515016
186	0xbd86f1f7	-0.0658912
187	0xba55739e	-0.00081425335
188	0xbdffe1ec	-0.12494263
189	0xbe38e1a4	-0.18054825
190	0x3df953f4	0.12174216
191	0xbe188a59	-0.14896525
192	0xbdce4fd8	-0.10073823
193	0x3d41c469	0.047306452
194	0xbe9a5462	-0.30142504
195	0x3bbf6bf7	0.005841728
196	0x3e172e7e	0.14763829
197	0xbddf3d38	-0.109003484
198	0xbed6e854	-0.41974127
199	0xbe0e1890	-0.13876557
200	0x3e0da50e	0.13832495
201	0xbdcfebdf	-0.10152411
202	0x3e911a34	0.28340304
203	0x3dd3e2fb	0.103460275
204	0xbd5e051d	-0.054204095
205	0x3da85e04	0.08221057
206	0xbd19794b	-0.03746919
207	0xbe01c542	-0.12672904
208	0x3e669af1	0.22520043
209	0x3d657308	0.056017905
210	0xbddf5e1f	-0.10906624
211	0xbdd4e48d	-0.10395155
212	0xbe33de64	-0.17565304
213	0x3e16e0bb	0.14734165
214	0x3e932051	0.28735593
215	0xbde77a40	-0.11302614
216	0x3dfd0caa	0.12355931
217	0xbde97a2b	-0.11400255
218	0xbe0395ce	-0.12850115
219	0xbc75e7e7	-0.015008903
220	0xbe5b68f6	-0.21426758
221	0x3d097355	0.033557255
222	0x3e16e45c	0.1473555
223	0x3e21c4d5	0.15797742
224	0xbe2f0b3d	-0.17094131
225	0xbe22c27e	-0.15894505
226	0x3e36adbb	0.1783971
227	0x3e37ab23	0.17936377
228	0x3e5b8ad6	0.2143968
229	0x3dc48229	0.095951386
230	0xbe9333c2	-0.28750426
231	0x3df4c974	0.11952487
232	0x3e5b675d	0.21426149
233	0xbe2eebb6	-0.17082104
234	0xbe9c5455	-0.3053309
235	0xbe58f9cf	-0.21189044
236	0xbe62f230	-0.221627
237	0xbc81d953	-0.015850699
238	0x3e8296ef	0.25505778
239	0xbe111c6d	-0.14171
240	0x3e45349f	0.19258355
241	0xbcda0da0	-0.026617825
242	0xbecae917	-0.39630958
243	0xbd5102d8	-0.051028103
244	0xbe66a7f1	-0.22525002
245	0xbdd6a408	-0.10480505
246	0x3ec44d98	0.3834045
247	0x3e224c40	0.158494
248	0xbcf67d85	-0.03008915
249	0xbbabca04	-0.005242588
250	0x3e043ad7	0.1291307
251	0x3d39a5ad	0.045324016
252	0xbe038f9f	-0.12847756
253	0xbdaff66b	-0.085919224
254	0x3e5357cb	0.20638959
255	0x3da601ae	0.08105789

feature_layer.0.bias f4 [128]
0	0x3d4ee2cf	0.05050927
1	0xbd7d020c	-0.06176953
2	0xbb0bce9f	-0.0021332873
3	0x3da7c278	0.08191389
4	0x3d03c9aa	0.032174744
5	0x3d1ad1a5	0.03779759
6	0x3db21c26	0.08696775
7	0x3db588e2	0.08863999
8	0x3d9353c1	0.07193709
9	0x3d6a0705	0.0571356
10	0xbd5a7d35	-0.053342063
11	0x3ca9f9c2	0.020748977
12	0x3db8404a	0.08996637
13	0x3d415ac4	0.0472057
14	0x3d8c79a4	0.068591386
15	0xbce7a815	-0.02827839
16	0x3db37de1	0.08764244
17	0xbd39afdc	-0.04533373
18	0xbd3cea70	-0.046122015
19	0xbc47d7b2	-0.012197422
20	0xbd91f433	-0.071266554
21	0xbd6d8d9f	-0.05799639
22	0x3cf02a0f	0.02931693
23	0x3d818adf	0.06325316
24	0xbd5b064a	-0.053472795
25	0xbd2f07eb	-0.04273216
26	0x3d0b5006	0.034011863
27	0x3d678c33	0.05653019
28	0xbd849271	-0.06473244
29	0x3cf709ce	0.030156042
30	0xbcee440c	-0.029085182
31	0xbd293830	-0.04131335
32	0x3d25a709	0.0404425
33	0x3d6f8f82	0.05848647
34	0xbdc0d344	-0.09415296
35	0x3d490e67	0.049086
36	0x3c21f898	0.0098859295
37	0x3daf81dd	0.08569691
38	0xbd95ebca	-0.07320364
39	0x3c60af9e	0.013713745
40	0x3d8fa121	0.07013155
41	0xbda9aa54	-0.08284441
42	0xbd9c9df4	-0.07647315
43	0x3cf13b90	0.029447347
44	0xbdc40c25	-0.09572629
45	0x3d8bf47f	0.06833743
46	0x3d962275	0.07330791
47	0x3d5f674a	0.054541864
48	0x3d9d0cfe	0.07668494
49	0xbdd3b991	-0.10338128
50	0xbd8f3d14	-0.069940716
51	0x3d5b9dd5	0.053617317
52	0xbd3e2a6c	-0.046427175
53	0x3bbc7adb	0.00575195
54	0x3d9cee6d	0.076626636
55	0xbd4ce780	-0.050025463
56	0xbdb7f8e3	-0.08983018
57	0x3da696f3	0.0813426
58	0xbde3e769	-0.11128122
59	0x3c8d04a4	0.017214127
60	0xbdac97dd	-0.08427403
61	0xbc2a9ddf	-0.010413616
62	0xbd951482	-0.07279302
63	0x3d452e45	0.04813983
64	0xbd9c8761	-0.07643009
65	0x3dc7871f	0.09742569
66	0xbd7fd40b	-0.06245808
67	0x3daeb3b4	0.085303694
68	0xbc1c1d30	-0.009528443
69	0x3da4d676	0.08048718
70	0xbc48ad74	-0.012248386
71	0x3d5cf915	0.05394848
72	0x3d0ff3ff	0.035144802
73	0x3d96162c	0.07328448
74	0xbdb736b3	-0.0894598
75	0xbd862dd4	-0.0655171
76	0xbd848498	-0.06470603
77	0x3d878b2d	0.066183425
78	0xbd788aff	-0.060679432
79	0x3d82b6c9	0.0638252
80	0xbde0361b	-0.1094782
81	0x3d3ffd6f	0.046872552
82	0x3d896e7c	0.06710526
83	0x3d5a1900	0.053246498
84	0x3d6635a0	0.056203485
85	0x3d7cab69	0.061686907
86	0xbc89208e	-0.016739156
87	0x3dbe1439	0.09281201
88	0x3d93b586	0.07212357
89	0xbc91b202	-0.017785076
90	0xbd89e63b	-0.06733366
91	0x3d23a061	0.03994787
92	0x3c55a17e	0.013038991
93	0x3d91d837	0.07121318
94	0xbda0fc19	-0.07860584
95	0xbb95e9ca	-0.004574989
96	0xbe11eb48	-0.14249909
97	0xbda7ae2e	-0.08187519
98	0x3cc742a9	0.024323778
99	0xbd7e2eed	-0.06205647
100	0x3d80e415	0.06293503
101	0x3daf998f	0.08574211
102	0xbc936904	-0.017994411
103	0x3c9f94d8	0.019480154
104	0x3d893517	0.06699579
105	0x3ca8f1d9	0.020623134
106	0xbdd6faab	-0.1049703
107	0xbd9346b7	-0.07191222
108	0xbd1c7d3a	-0.038205363
109	0x3d77984b	0.060447972
110	0x3daf7707	0.085676245
111	0x3da54135	0.08069078
112	0x3d6b3a8a	0.057428874
113	0xbd91b067	-0.07113724
114	0x3da775f1	0.081767924
115	0x3d9db521	0.07700563
116	0x3d3ddcde	0.046353213
117	0xbd856f30	-0.06515348
118	0xbd88ee10	-0.06686032
119	0x3d9eb846	0.07749991
120	0x3c84154e	0.01612344
121	0xbd22e243	-0.03976656
122	0xbda39949	-0.07988221
123	0xbd8da4f7	-0.0691623
124	0x3d809f53	0.06280389
125	0xbd25ae49	-0.040449414
126	0x3d82bd40	0.06383753
127	0xbd87a298	-0.06622809

feature_layer.2.weight f4 [128, 128]
0	0xbd978161	-0.07397724
1	0x3ceffdc6	0.029295813
2	0xbd6f68b1	-0.05844945
3	0x3e7e5716	0.24837908
4	0x3da4e5c7	0.08051639
5	0xbdb3fe81	-0.08788777
6	0x3da3225f	0.0796554
7	0x3ca5571c	0.020183139
8	0x3e0923f7	0.13392626
9	0xbdc85880	-0.09782505
10	0x3db78ef4	0.08962813
11	0x3d8b61f1	0.0680579
12	0x3da51671	0.08060921
13	0xbe79e441	-0.24403478
14	0x3e03606d	0.12829752
15	0xbe1e7fd0	-0.15478444
16	0x3e3687a1	0.17825176
17	0xbdfba022	-0.12286402
18	0xbe842eb5	-0.25816885
19	0x3e1c225d	0.15247484
20	0x3b57f56f	0.0032952686
21	0x3b0bd296	0.0021335236
22	0x3e2261c6	0.1585761
23	0x3e2a8e66	0.16655883
24	0x3db23ec9	0.087033816
25	0xbe0244b5	-0.12721522
26	0x3dcccce9	0.10000021
27	0xbbd8dfb6	-0.0066184653
28	0x3d77642f	0.060398277
29	0xbb50016b	-0.0031739126
30	0x3ccb6710	0.024829417
31	0xbbaa9e88	-0.0052068867
32	0x3da1e706	0.07905392
33	0xbe34641a	-0.1761631
34	0xbe2a0366	-0.16602859
35	0x3d3ecafa	0.046580292
36	0x3d059ca3	0.032620084
37	0x3d3ac584	0.04559852
38	0xbaf2db65	-0.001852852
39	0xbdbaccc0	-0.09121084
40	0x3d564c76	0.052319013
41	0xbd2d022e	-0.042238407
42	0xbe029999	-0.12753905
43	0x3dd51736	0.10404818
44	0x3e047d8a	0.12938514
45	0x3bd86949	0.006604348
46	0xbda9455c	-0.082651824
47	0x3c9c9f8d	0.019119048
48	0xbe13a0cc	-0.14416808
49	0xbe498201	-0.19678499
50	0x3d6c8dfe	0.0577526
51	0x3dc7dd90	0.097590566
52	0x3dbac13b	0.09118887
53	0xbd8286e0	-0.063733816
54	0xbda18e1e	-0.07888435
55	0x3d5c83c0	0.053836584
56	0xbc00b7f8	-0.007856362
57	0xbc10e371	-0.008843289
58	0xbe9f8b42	-0.31160933
59	0x3e00b864	0.1257034
60	0xbc5c2044	-0.013435427
61	0x3e3058c6	0.17221364
62	0xbd27fa86	-0.041010402
63	0x3dc5ebb3	0.09664097
64	0x3d9d8ec6	0.076932475
65	0xbdc6fd7a	-0.097163156
66	0xbdad7500	-0.084695816
67	0x3e19e0d2	0.15027168
68	0xbde44d75	-0.11147586
69	0x3d2cd39c	0.042193994
70	0x3dda30e2	0.10653855
71	0x3e2235ad	0.15840788
72	0x3e20d5de	0.15706584
73	0xbd2d0553	-0.042241406
74	0x3dcac831	0.09901465
75	0x3e06b172	0.13153628
76	0x3df8d351	0.121496804
77	0x3d9b440f	0.075813405
78	0x3df6a686	0.120434806
79	0x3e080551	0.13283278
80	0x3eb9597b	0.3620108
81	0x39eaebf4	0.00044807757
82	0xbdeb292b	-0.114824615
83	0xbe0dd4cf	-0.13850711
84	0x3c187327	0.009304798
85	0x3e55da65	0.20884092
86	0xbdfcc792	-0.123427525
87	0xbd82479c	-0.06361315
88	0x3e87ea47	0.26545927
89	0xbda97796	-0.08274762
90	0xbd3f1875	-0.046654183
91	0x3d1da6a9	0.038489018
92	0x3d178cb1	0.03699941
93	0x3c5fb4d4	0.013653953
94	0x3e26b5d2	0.16280296
95	0x3de32e74	0.110928446
96	0x3e0c403c	0.13696378
97	0x3e26fccb	0.1630737
98	0xbdd712bf	-0.105016224
99	0x3e6915c1	0.22762205
100	0x3db742c7	0.08948284
101	0xbceb5ff5	-0.02873228
102	0xbd41079a	-0.04712639
103	0xbcd4eeb4	-0.025992729
104	0x3dbfd96d	0.093676426
105	0x3dd70da2	0.10500647
106	0x3e293b56	0.16526541
107	0xbe19bb22	-0.15012792
108	0x3dcde0ba	0.10052629
109	0xbdb852d3	-0.090001725
110	0x3c9ffaca	0.019528765
111	0xbcdf4290	-0.02725342
112	0x3d8d1323	0.06888416
113	0xbe4993bc	-0.19685262
114	0x3d8e5cf3	0.069513224
115	0xbb8d7a45	-0.004317554
116	0x3c9423a0	0.018083394
117	0xbddd5197	-0.10806578
118	0x3e8f0347	0.27932188
119	0xbddbde6b	-0.10735782
120	0xbd865f46	-0.06561141
121	0xbd2fae1b	-0.04289065
122	0x3ccddbca	0.025129218
123	0x3cfc09ae	0.030766334
124	0x3d97aba0	0.07405782
125	0x3dab5a04	0.083667785
126	0x3e40e47d	0.18837161
127	0xbe0ca1d0	-0.13733602
128	0x3d88fd9d	0.06688998
129	0xbd936baa	-0.0719827
130	0xbc3da7a0	-0.011575609
131	0xbd120694	-0.035650805
132	0x3d8c89d2	0.06862225
133	0xbd8d8ba1	-0.06911398
134	0x3deaa434	0.114571005
135	0x3df2dea8	0.118588746
136	0x3e30086c	0.17190713
137	0x3e083e27	0.13304959
138	0x3c0bdc76	0.008536449
139	0xbd8a14a1	-0.06742216
140	0x3d9f1d9f	0.07769322
141	0x3e2ad8c7	0.16684256
142	0x3e0aafc6	0.13543615
143	0xbd8f6eaf	-0.07003533
144	0x3dfe9e90	0.12432587
145	0xbca4f0cb	-0.02013435
146	0x3d542810	0.05179602
147	0x3c2261c3	0.0099110035
148	0xbe346e33	-0.17620163
149	0x3d321d12	0.043484755
150	0xbe0ac0ef	-0.13550161
151	0x3da74eaa	0.08169301
152	0x3da7b573	0.081889056
153	0xbcc1bec6	-0.023650538
154	0xbe11c040	-0.14233494
155	0xbe18f5cb	-0.14937513
156	0xbded65e2	-0.11591698
157	0xbd905286	-0.0704699
158	0x3d8089e1	0.06276298
159	0xbcfe57c6	-0.031047713
160	0xbc7bc58e	-0.015366925
161	0x3e0b3fee	0.13598606
162	0xbdbaf4e3	-0.0912874
163	0xbddaa7e7	-0.10676556
164	0x3d979152	0.074007645
165	0x3e111891	0.14169528
166	0xbe26db06	-0.16294488
167	0x3d9727ec	0.07380661
168	0xbcb2645b	-0.021776369
169	0xbdef4080	-0.11682224
170	0xbdd179e9	-0.10228331
171	0xbd832740	-0.06403971
172	0x3d992c71	0.0747918
173	0x3e2f7c87	0.17137347
174	0xbdc2822a	-0.09497483
175	0x3e00867a	0.12551299
176	0xbcd0d0c6	-0.025490176
177	0xbe25c3fe	-0.16188046
178	0x3bb5698d	0.0055362643
179	0x3d53fcd8	0.051754802
180	0x3cdfec98	0.027334496
181	0xbdd77d59	-0.10521955
182	0x3d5f4858	0.05451235
183	0xbe108219	-0.14112128
184	0x3e13353d	0.14375778
185	0x3e5d1a84	0.21592146
186	0xbe82df2a	-0.25560886
187	0x3df2d5f4	0.118572146
188	0xbdb5e4b9	-0.08881516
189	0xbdc547f8	-0.096328676
190	0x3d003290	0.03129822
191	0xbd9de685	-0.07709984
192	0xbdfebab0	-0.124379516
193	0xbc47a86b	-0.01218615
194	0xbe78bd5d	-0.24290986
195	0xbd09d332	-0.033648677
196	0x3c8f2d81	0.017477753
197	0x3e3bfa18	0.18357122
198	0x3cd2a5dc	0.025713854
199	0x3d1543f5	0.036441762
200	0xbdc54d01	-0.09633828
201	0x3df33591	0.11875451
202	0x3d3a6681	0.04550791
203	0xbd9cb3d9	-0.07651491
204	0x3d7cc0e5	0.061707396
205	0x3e339760	0.17538214
206	0x3d34f42f	0.044178184
207	0xbdf67e4b	-0.12035807
208	0xbe6bf2b3	-0.23041801
209	0xbcd8ed9a	-0.026480485
210	0x3c98f8c7	0.018673314
211	0xbd261073	-0.04054303
212	0xbd2873e5	-0.04112615
213	0x3cccbfba	0.024993766
214	0x3bec217c	0.00720614
215	0xbdabf4c8	-0.08396298
216	0xbc0b800d	-0.008514416
217	0xbd411d12	-0.047146864
218	0x3e0f1b91	0.1397536
219	0x3e165766	0.14681777
220	0x3ddec553	0.1087748
221	0xbde65e70	-0.11248481
222	0xbd28eb1a	-0.041239835
223	0xbd4389ba	-0.04773877
224	0x3d29bcd5	0.04143985
225	0x3d126847	0.035743978
226	0x3df27d11	0.11840261
227	0x3de40009	0.11132819
228	0xbd4a006a	-0.0493168
229	0x3e448275	0.1919039
230	0xbd935503	-0.07193949
231	0xbdd5856a	-0.10425837
232	0x3d812e60	0.063076735
233	0x3d05affd	0.03263854
234	0xbd128b46	-0.035777353
235	0xbef446c4	-0.4771024
236	0x3da30d4c	0.079615206
237	0xbd177a09	-0.036981616
238	0x3d97826d	0.073979236
239	0xbd40703c	-0.046982035
240	0xbd691686	-0.056906246
241	0xbdd00610	-0.10157406
242	0x3d4eea24	0.050516263
243	0x3dc248a0	0.09486508
244	0xbd63903f	-0.055557486
245	0xbdfb347e	-0.122658715
246	0xbc3f3673	-0.011670697
247	0xbd06a88f	-0.032875594
248	0xbda019e9	-0.07817442
249	0xbd40bf95	-0.047057707
250	0xbde8195b	-0.11332961
251	0xbd054e64	-0.032545462
252	0x3d5a628e	0.053316645
253	0x3e1844a7	0.14869939
254	0x3dcad093	0.099030636
255	0xbd6a638b	-0.057223838

feature_layer.2.bias f4 [128]
0	0x3d363b43	0.04449011
1	0x3d9d9330	0.076940894
2	0x3d89627b	0.06708237
3	0x3d67a1d1	0.056550805
4	0xbc0465cf	-0.008080914
5	0x3dad3d18	0.08458918
6	0x3d9300ea	0.07177909
7	0xbcc0bb2a	-0.023526747
8	0x3d9ed91f	0.07756256
9	0xbc973ec1	-0.01846254
10	0x3d713f9e	0.05889856
11	0xbc36a4ff	-0.011147737
12	0x3d9e04f8	0.077157915
13	0xbd5a3b49	-0.053279195
14	0xbc4a4bea	-0.012347201
15	0x3da84441	0.082161434
16	0xbc64e453	-0.013970452
17	0xbbe685a6	-0.007034975
18	0x3d981269	0.074253865
19	0x3d9b104c	0.07571468
20	0xbb1b84c6	-0.0023730262
21	0x3d9eec54	0.0775992
22	0xbd1ad991	-0.037805144
23	0x3da15883	0.078782104
24	0xbca65761	-0.020305337
25	0x3d6a417b	0.057191353
26	0x3d990f8e	0.0747367
27	0xbc1a8101	-0.009430171
28	0xbd1e4b53	-0.038646054
29	0x3db3087c	0.08741853
30	0x3daf33f4	0.08554831
31	0x3d890b61	0.066916235
32	0xbc374000	-0.011184692
33	0x3d9fb34c	0.0779787
34	0x3cc937c0	0.024562716
35	0x3d8cc152	0.068728104
36	0xbc331140	-0.010929406
37	0x3d944f72	0.072417155
38	0x3daf178d	0.08549414
39	0xbc609c94	-0.013709206
40	0xbc4226cb	-0.011850069
41	0xbc6e523c	-0.014545973
42	0x3b86667c	0.0041015726
43	0x3d8b8486	0.06812386
44	0x3d8b2d1b	0.067957126
45	0x3bb71048	0.0055866577
46	0xbceffc7c	-0.029295199
47	0x3d82a617	0.063793354
48	0xbd8fda73	-0.07024088
49	0xbc3d61dd	-0.011558977
50	0x3d60f88e	0.05492454
51	0x00000000	0.0
52	0x3d9c6d91	0.07638086
53	0x3c84e201	0.016221048
54	0xbccb07b9	-0.024783956
55	0x3d94f3ff	0.07273101
56	0xbc4f22fd	-0.012642619
57	0x3da87bdd	0.0822675
58	0xbc21f06a	-0.009883979
59	0xbbd5ff25	-0.0065306597
60	0xbd1dffad	-0.03857391
61	0xbba78298	-0.0051120035
62	0xbcf7ac78	-0.030233607
63	0xbd7abbab	-0.06121413
64	0x3d5de720	0.054175496
65	0x3db78913	0.08961692
66	0xbca77064	-0.020439334
67	0x3d844d6b	0.06460079
68	0x3d8ae5fb	0.067821465
69	0x3d9e91c6	0.07742648
70	0xbc8c0d7e	-0.017096277
71	0x3d934daa	0.071925476
72	0xbc2db688	-0.010602601
73	0xbc0aeed4	-0.008479793
74	0x3d926c5f	0.071495764
75	0x3da1a7c9	0.078933306
76	0x3d03fd01	0.032223705
77	0x3d99c0c6	0.07507472
78	0xbc9518f4	-0.018200375
79	0x3b85ae92	0.0040796483
80	0x3d7c6ea5	0.061628956
81	0x3da4db11	0.08049596
82	0xbd5fcff6	-0.054641686
83	0x3d877095	0.0661327
84	0xbcc72ecb	-0.024314305
85	0x3da8cf61	0.082426794
86	0xbd832b6c	-0.064047664
87	0xbcb79684	-0.022410639
88	0x3dc02de1	0.09383751
89	0x00000000	0.0
90	0x3da22153	0.07916512
91	0x3da2cc26	0.079490945
92	0x3d7c37e5	0.061576743
93	0x3d94e3c6	0.07270007
94	0xbc990d97	-0.018683238
95	0x3d846f29	0.064665146
96	0xbc1eccb2	-0.009692358
97	0x3daaf5e1	0.08347679
98	0x3d6ccd5b	0.05781303
99	0x3d9fa152	0.07794441
100	0x3db59019	0.08865375
101	0xbc8fb2af	-0.017541258
102	0x3ce45ab1	0.027875276
103	0x3db03a21	0.08604837
104	0x3bc985a4	0.0061499644
105	0x3d8aa275	0.067692675
106	0x3dac09a1	0.08400274
107	0x3d86f12e	0.0658897
108	0xbc34f357	-0.011044345
109	0x3d906040	0.07049608
110	0xbd543701	-0.05181027
111	0xbd4fbdd0	-0.05071813
112	0xbc82f32e	-0.015985098
113	0x3daa6249	0.08319528
114	0xbcbf0749	-0.023318904
115	0xbcc0c500	-0.023531437
116	0xbd21c44b	-0.03949384
117	0x3d911c5d	0.07085488
118	0x3daa823c	0.083256215
119	0x3cdf6672	0.02727053
120	0x3d8c9c2b	0.06865724
121	0x3da2f991	0.07957757
122	0xbd12f174	-0.0358748
123	0xbc017fc6	-0.007903999
124	0xbd4d9522	-0.050191052
125	0xbc18b34f	-0.009320094
126	0x3d9aa64f	0.07551252
127	0x3da62b01	0.08113671

value_stream.0.weight f4 [64, 128]
0	0xbe261e05	-0.16222389
1	0x3e21da41	0.15805914
2	0x3c94abb0	0.018148273
3	0x3d946894	0.07246509
4	0x3d9e1c88	0.07720286
5	0x3e43f03a	0.19134608
6	0x3caadbe7	0.02085681
7	0xbd40ccef	-0.04707044
8	0x3e6423b3	0.22279243
9	0xbab25db9	-0.0013608254
10	0x3d75f68e	0.060049586
11	0x3d1dc624	0.03851904
12	0x3b95cb39	0.004571345
13	0x3d260b6b	0.040538233
14	0xbe07d890	-0.13266206
15	0x3e00d479	0.12581052
16	0x3dd17b48	0.10228592
17	0x3ddc6e6b	0.10763248
18	0xbd83e47c	-0.06440064
19	0x3e591f86	0.21203431
20	0x3e273d61	0.16332008
21	0x3d2c91ca	0.042131223
22	0xbe808f5d	-0.25109378
23	0x3d57ada7	0.052655842
24	0x3c78fe84	0.0151974
25	0xbded94af	-0.11600625
26	0x3c93a412	0.01802257
27	0xbd4cc1c0	-0.049989462
28	0xbe74d1ef	-0.23908208
29	0x3e4ba9eb	0.19889037
30	0x3dd0ed7b	0.10201546
31	0xbcc964b9	-0.024584161
32	0x3e2c5387	0.16828738
33	0x3d7f384d	0.062309552
34	0x3d464b09	0.048411403
35	0x3d3e7de5	0.04650678
36	0xbe539176	-0.20660958
37	0xbd1eb560	-0.03874719
38	0x3da28b6a	0.07936747
39	0xbd5fbaa4	-0.054621354
40	0x3ddfba7d	0.10924242
41	0x3c9062bb	0.017625203
42	0x3d8d3ae2	0.06895997
43	0x3e4bd13a	0.19904032
44	0xbd1eb311	-0.03874499
45	0xbad7f765	-0.0016476928
46	0xbe2b5c29	-0.16734375
47	0xbe155fb4	-0.14587289
48	0xbe553973	-0.20822696
49	0x3e09e304	0.13465506
50	0x3ddf147f	0.10892581
51	0xbe0e469a	-0.1389412
52	0x3e281f4c	0.16418189
53	0xbe18d5fe	-0.14925382
54	0xbdd9823c	-0.10620543
55	0x3e438a62	0.19095758
56	0xbdbacb0f	-0.091207616
57	0xbd249b03	-0.040186893
58	0xbd84ac54	-0.064781815
59	0xbda195ed	-0.07889924
60	0xbd9d072b	-0.07667383
61	0xbdb499b6	-0.088183805
62	0xbe1fa4ca	-0.15590206
63	0xbe3c1dbb	-0.18370716
64	0x3d0b22bc	0.033968672
65	0x3d976342	0.07391979
66	0x3cfef99b	0.03112488
67	0xbe04b764	-0.12960583
68	0xbcaf06cc	-0.021365546
69	0xbd74e882	-0.05979205
70	0xbd3505ad	-0.044194866
71	0xbd27d7fc	-0.040977463
72	0x3b645f18	0.003484672
73	0xbcc7a926	-0.024372648
74	0xbdcc7ab6	-0.09984343
75	0x3e27f3f0	0.16401649
76	0x3d98998c	0.07451162
77	0x3da3710f	0.079805486
78	0x3da72540	0.08161402
79	0xbb5025ec	-0.0031760884
80	0x3d4067bc	0.04697393
81	0xbe13d9ec	-0.144386
82	0xbd06ed06	-0.032940887
83	0x3e2e01c8	0.16992867
84	0xbdc81fce	-0.09771691
85	0x3e410ea5	0.18853243
86	0xbe05c146	-0.13062009
87	0x3d939a3d	0.07207153
88	0x3cb59a13	0.022168195
89	0xbdca8c8c	-0.098900884
90	0xbb0420ac	-0.0020161076
91	0x3e3cbc1e	0.18431136
92	0xbafc3f57	-0.0019244951
93	0xbddb1389	-0.106970854
94	0xbd27f14b	-0.0410016
95	0xbd7c3986	-0.061578296
96	0xbdd03f70	-0.1016835
97	0xbd601d81	-0.054715637
98	0xbdafa531	-0.0857643
99	0xbd2bb210	-0.04191786
100	0x3e122f8e	0.14275953
101	0xbd3a56c0	-0.045492887
102	0x3d0ae692	0.033911295
103	0x3e674c1f	0.22587632
104	0x3d6a3da0	0.057187676
105	0x3e44ed81	0.19231226
106	0x3e69c4aa	0.22828928
107	0x3d263862	0.040581115
108	0x3da97d7e	0.08275889
109	0x3e4bbfb4	0.19897348
110	0xbe4d435a	-0.20045224
111	0xbe911b0f	-0.28340957
112	0x3e0b579c	0.13607639
113	0x3e1c890c	0.15286654
114	0x3d05bf4c	0.032653138
115	0x3d08f36a	0.033435263
116	0xbda7ec35	-0.0819935
117	0x3dc9629b	0.098332606
118	0x3d57330a	0.05253891
119	0x3d144bcc	0.036205098
120	0x3e51c95b	0.20486967
121	0x3e0bff12	0.1367152
122	0xbe431f02	-0.19054797
123	0xbd06e0b2	-0.03292913
124	0xbe804985	-0.2505609
125	0x3d7771a7	0.06041112
126	0x3e81bde1	0.2534018
127	0xbc8aba05	-0.016934404
128	0xbdd95b98	-0.10613173
129	0x3e3eab57	0.18620048
130	0xbdd53401	-0.104103096
131	0x3e3daf7b	0.18523972
132	0x3d272005	0.04080202
133	0x3e402c37	0.18766867
134	0x3d4cad34	0.049969867
135	0x3d6786f7	0.056525197
136	0xbde6a6c9	-0.112622805
137	0xbc45593e	-0.012045203
138	0x3e27a590	0.16371751
139	0xbd666c89	-0.05625585
140	0x3e777e50	0.24169278
141	0xbd8e796f	-0.06956755
142	0xbd97f70f	-0.074201696
143	0xbd51ae06	-0.051191352
144	0xbdf639e0	-0.120227575
145	0x3d5b5390	0.05354649
146	0xbd23bfe4	-0.039977923
147	0x3e229daf	0.15880464
148	0xbd1fb7f2	-0.038993783
149	0x3e08ce29	0.13359894
150	0x3d8f9fcb	0.070129
151	0xbd99e303	-0.07514002
152	0xbdb6e249	-0.08929879
153	0x3e2141b8	0.15747726
154	0xbcad81d3	-0.02118007
155	0xbe0cf27a	-0.13764372
156	0xbe1a080f	-0.15042137
157	0xbdaf9222	-0.085727945
158	0xbd6e6959	-0.058205936
159	0x3d41806a	0.047241606
160	0x3e0a63ed	0.13514681
161	0x3da555d9	0.08073015
162	0x3d579b17	0.05263814
163	0x3c7a06e5	0.015260433
164	0xbe187b88	-0.14890873
165	0x3deef2cb	0.11667403
166	0x3e30b533	0.17256622
167	0x3d8cc671	0.06873787
168	0x3e2828c7	0.16421805
169	0x3e3aa748	0.18227875
170	0x3d399c9e	0.045315377
171	0xbd94570d	-0.07243166
172	0x3e239c7e	0.15977666
173	0x3d1ea58f	0.038732108
174	0xbd8784d0	-0.06617129
175	0xbc41e602	-0.011834623
176	0xbe52004a	-0.20507923
177	0xbd9699e0	-0.07353568
178	0x3e22dcda	0.1590456
179	0xbe0987a2	-0.13430646
180	0x3d70f7ee	0.058830194
181	0xbe2100c8	-0.15722954
182	0x3daf04f9	0.0854587
183	0xbd5ee775	-0.054419953
184	0xbcb55e4d	-0.022139693
185	0x3e3f515a	0.18683377
186	0x3d21125c	0.03932415
187	0x3c850aac	0.01624044
188	0xbc9ab73b	-0.0188862
189	0x3c8dcfc9	0.017310994
190	0x3e0f795e	0.14011142
191	0xbdcb96fb	-0.099409066
192	0x3e03d994	0.12875968
193	0x3e3639da	0.17795506
194	0xbb63f754	-0.003478487
195	0x3e412a7b	0.18863861
196	0x3d646ab0	0.055765808
197	0x3e29cd35	0.16582187
198	0xbe1a428c	-0.15064448
199	0xbdeb7a3a	-0.11497922
200	0x3d686cd8	0.056744426
201	0x3d80d6f1	0.06290997
202	0xbbce291e	-0.0062915226
203	0x3d1cf39f	0.038318273
204	0x3d7f78e0	0.062371135
205	0x3e402eec	0.187679
206	0x3d60b27d	0.05485772
207	0x3e1a957b	0.15096085
208	0x3e315f87	0.17321597
209	0x3da48a95	0.08034245
210	0xbdc17943	-0.09446957
211	0xbc965863	-0.018352693
212	0xbe135817	-0.14389072
213	0x3e0b8b58	0.13627374
214	0xbd7bed28	-0.061505467
215	0xbd8893e1	-0.06668831
216	0x3d400fca	0.046890058
217	0xbdd21fd5	-0.10259978
218	0x3d90ff2d	0.07079921
219	0x3e268a77	0.16263758
220	0x3e41ab53	0.18913011
221	0xbdae8db1	-0.08523119
222	0xbd08d39d	-0.033404935
223	0xbce830f2	-0.028343651
224	0xbe215617	-0.15755497
225	0x3e100546	0.14064512
226	0x3e24da5e	0.16098925
227	0x3e5d4dec	0.21611756
228	0x3e69ef90	0.22845292
229	0xbd400080	-0.046875477
230	0x3d106da0	0.035260797
231	0x3e069880	0.13144112
232	0xbdd6eb7e	-0.10494135
233	0x3e32cf4e	0.17461893
234	0xbd936167	-0.071963124
235	0x3d01483b	0.031563025
236	0xbd485f1e	-0.048918836
237	0x3dd8c16a	0.10583766
238	0x3d9e8116	0.07739465
239	0xbde5e53e	-0.11225365
240	0xbd8a252b	-0.067453705
241	0x3e477581	0.19478418
242	0xbe466774	-0.19375402
243	0xbc0cd4b0	-0.0085956305
244	0xbe063c1e	-0.1310887
245	0x3cc67fb3	0.024230814
246	0x3e470897	0.1943687
247	0x3dde8653	0.10865464
248	0xbd26805d	-0.04064976
249	0xbd3fd535	-0.04683419
250	0xbdc9d88f	-0.098557584
251	0xbdd180cf	-0.102296464
252	0xbe8116f9	-0.2521284
253	0x3e193ace	0.14963838
254	0x3e0659df	0.1312022
255	0xbd81481a	-0.063125804

value_stream.0.bias f4 [64]
0	0x3da8ab27	0.0823577
1	0x3d91f318	0.071264446
2	0xbbb62733	-0.005558872
3	0x00000000	0.0
4	0xbc8e1f72	-0.017348979
5	0x3d9b724e	0.07590161
6	0x3d8d7d5c	0.06908676
7	0x3d8e1fb2	0.06939639
8	0xbc4ba16f	-0.0124286255
9	0xbc1acbe5	-0.009448026
10	0x3d8efcdb	0.06981822
11	0xbb09a678	-0.0021003764
12	0xbbc4c9c0	-0.006005496
13	0xbc02c73a	-0.00798207
14	0x3db607f9	0.088882394
15	0x3d8d37a9	0.06895382
16	0x3d9cc8c3	0.0765548
17	0x3aafe2e8	0.0013419064
18	0xbc81a604	-0.015826233
19	0x3da8acb2	0.08236064
20	0xbc370dd9	-0.011172735
21	0x3da64ad1	0.08119739
22	0x3d9373d3	0.07199826
23	0x3d32a14b	0.043610852
24	0x3d8eb72f	0.06968533
25	0x3d8ebc7b	0.069695435
26	0x3d922aac	0.07137045
27	0xbc288d49	-0.010287591
28	0xbcdbc21f	-0.026825963
29	0x3da5c7a7	0.08094721
30	0xbc133c05	-0.008986478
31	0x3d8eba82	0.06969167
32	0xbc0c43ec	-0.008561116
33	0xbc8bae30	-0.017050833
34	0xbcce8815	-0.025211373
35	0x3d9fd7e8	0.07804853
36	0xbc89e9ea	-0.016835172
37	0xbc3d5855	-0.0115567045
38	0x3daecd63	0.08535268
39	0x3db066b9	0.08613343
40	0x3d4d4d51	0.050122563
41	0x3d9977c1	0.07493544
42	0x3d9d5a64	0.07683256
43	0xbc51b555	-0.012799581
44	0xbc1cc406	-0.00956822
45	0xba700e35	-0.00091573905
46	0xbc2f37d6	-0.010694465
47	0x3d991992	0.0747558
48	0x3d9019c1	0.07036162
49	0xbc65d116	-0.014026901
50	0x3d8d4c84	0.0689936
51	0xbc464c10	-0.012103096
52	0x3b52b1cd	0.0032149435
53	0xbc7d7672	-0.015470134
54	0x3d98595f	0.07438921
55	0xbc2ed844	-0.010671679
56	0xbc4a61be	-0.012352405
57	0x00000000	0.0
58	0xbd053514	-0.032521322
59	0x3d9ad5f9	0.07560343
60	0xbb98f9a6	-0.0046684323
61	0xb9cf23d8	-0.00039508822
62	0xbc6f1c94	-0.014594216
63	0x3b0e2b36	0.0021693236

value_stream.2.weight f4 [1, 64]
0	0x3e515e8b	0.20446222
1	0x3de8bd0c	0.11364183
2	0xbe8ed383	-0.27895746
3	0x3d343240	0.043993235
4	0xbe333be1	-0.1750331
5	0x3e321180	0.17389488
6	0x3eb078b9	0.34467104
7	0x3daa3fd5	0.08312956
8	0xbe8f8dcf	-0.2803788
9	0xbdfd7cc2	-0.12377311
10	0x3e11bced	0.14232226
11	0xbe7dd2ef	-0.24787496
12	0xbe0ffcc9	-0.14061274
13	0xbe67446b	-0.22584693
14	0x3d936532	0.07197036
15	0x3ea45310	0.32094622
16	0x3d9aa859	0.07551641
17	0xbedd1991	-0.43183568
18	0xbe3b5925	-0.18295725
19	0x3e90ff1b	0.2831963
20	0xbe735c62	-0.2376571
21	0x3dc79ed8	0.09747094
22	0x3e292aef	0.16520284
23	0xbed7e696	-0.4216811
24	0x3e73358f	0.237509
25	0x3e4db99e	0.20090339
26	0x3e9341b0	0.28761053
27	0xbe8d0fdd	-0.27551165
28	0xbe2a5334	-0.16633302
29	0x3e658363	0.22413401
30	0xbd1dae7f	-0.03849649
31	0x3e615ac5	0.22007282
32	0xbd560d2f	-0.052258667
33	0xbd368811	-0.044563357
34	0xbe29757a	-0.1654872
35	0x3dc2e80f	0.09516918
36	0xbdd87698	-0.10569495
37	0xbd86f62e	-0.06589924
38	0x3e7d411b	0.24731867
39	0x3e9525c0	0.29130363
40	0xbec1c931	-0.3784881
41	0x3e2a404b	0.16626088
42	0x3e2af765	0.16695936
43	0xbe39f814	-0.1816104
44	0xbe6d705d	-0.23187394
45	0xbde15ff3	-0.11004629
46	0xbe8d9c8f	-0.27658507
47	0x3e8c5ac8	0.2741301
48	0x3e33f796	0.17574915
49	0xbe94d825	-0.29071155
50	0x3ea37815	0.31927553
51	0xbdf2c97a	-0.11854835
52	0xbe13bed3	-0.14428262
53	0xbe211e09	-0.15734114
54	0x3e3ad798	0.18246305
55	0xbe0e8e27	-0.13921414
56	0xbd8ff1e0	-0.07028556
57	0xbe6380f3	-0.22217159
58	0xbe2b24d1	-0.16713263
59	0x3eb06486	0.34451693
60	0xbde4b9bc	-0.111682385
61	0xbe668a0a	-0.22513595
62	0xbdfcd916	-0.12346093
63	0xbe951e2b	-0.2912458

advantage_stream.0.weight f4 [64, 128]
0	0x3e878e23	0.2647563
1	0x3bae660b	0.005322223
2	0xbd8a1e6b	-0.06744083
3	0xbd88e0fe	-0.06683539
4	0x3e0ff9af	0.1406009
5	0xbc172b23	-0.009226593
6	0x3d185fa5	0.03720059
7	0x3cb3becf	0.02194157
8	0xbd7dd816	-0.061973654
9	0xbe08dffc	-0.13366693
10	0xbda49d7d	-0.08037851
11	0x3d637198	0.055528253
12	0x3de32a5f	0.11092066
13	0xbe2bc6b3	-0.16775016
14	0x3db60612	0.088878766
15	0xbe068047	-0.13134871
16	0xbdf41e5f	-0.11919855
17	0xbdcc9d67	-0.099909596
18	0xbe6d1f4a	-0.23156467
19	0x3dbf0a13	0.093280934
20	0x3e10bade	0.14133784
21	0xbd802458	-0.06256932
22	0x3d84f986	0.06492905
23	0xbd9492cc	-0.07254562
24	0x3e33249a	0.17494431
25	0x3ddb3743	0.107039
26	0x3e464e8d	0.19365902
27	0x3dc44b7d	0.09584711
28	0xbb927351	-0.004469313
29	0xbde285c8	-0.11060673
30	0x3c563a1f	0.013075381
31	0xbd3b7708	-0.045767814
32	0x3e11c438	0.14235008
33	0xbde72560	-0.112864256
34	0xbeaa6615	-0.33281007
35	0x3c8a2729	0.016864376
36	0xbf36f111	-0.7146159
37	0xbe7895a9	-0.24275841
38	0x3cceffb2	0.02526841
39	0x3c21420e	0.009842409
40	0x3dfdfc80	0.12401676
41	0x3e20eca6	0.15715274
42	0xbcca263c	-0.024676435
43	0x3e4f8f8c	0.20269603
44	0xbdd6921c	-0.10477087
45	0xbe4b2922	-0.1983991
46	0xbdf4fa4c	-0.11961803
47	0xbcf7fc54	-0.030271687
48	0xbe05e727	-0.13076459
49	0x3be36261	0.006939218
50	0xbd84dd48	-0.064875185
51	0xbcb50b10	-0.022100002
52	0xbd9a8e7f	-0.0754671
53	0x3e1ff967	0.15622483
54	0xbd1844f8	-0.03717515
55	0x3e1b530b	0.15168397
56	0xbe1615a9	-0.146567
57	0x3dd60e01	0.1045189
58	0x3d142aec	0.036173746
59	0xbb2c7840	-0.0026316792
60	0x3de8a856	0.113602325
61	0x3d882cf3	0.066491984
62	0xbdc4b250	-0.09604323
63	0x3df4d05b	0.11953803
64	0xbe2ee184	-0.17078215
65	0x3d165361	0.03670061
66	0xbdb66beb	-0.089073025
67	0x3b2471ef	0.0025092324
68	0xbe2e78bb	-0.17038243
69	0x3e1f445e	0.15553424
70	0xbcd4dd9b	-0.025984576
71	0x3df96b82	0.121787086
72	0xbe10d118	-0.14142263
73	0xbddf1b7f	-0.10893916
74	0xbd9e90dd	-0.07742474
75	0xbde69941	-0.112596996
76	0x3e4b226e	0.19837353
77	0x3d5f8860	0.054573417
78	0xbcee47e9	-0.029087024
79	0xbd7cb8c0	-0.06169963
80	0x3db77a01	0.08958817
81	0x3e8188ec	0.25299776
82	0xbe2b5aa2	-0.16733792
83	0xbbe6de12	-0.007045516
84	0x3e106dd6	0.14104399
85	0x3de71f70	0.11285293
86	0x3dffd7b7	0.12492316
87	0xbd8b87af	-0.06812989
88	0x3dd4cedd	0.103910185
89	0x3db3f6e6	0.087873265
90	0xbc976038	-0.018478498
91	0xbe79b458	-0.24385202
92	0x3dda7368	0.10666543
93	0xbe001c60	-0.12510824
94	0xbdefa85b	-0.11702033
95	0x3cad7cb7	0.021177633
96	0x3e3732de	0.17890498
97	0xbdebd5c6	-0.115153834
98	0xbe0c83ea	-0.13722196
99	0xbe11c2bd	-0.14234443
100	0xbe57d623	-0.2107778
101	0x3dad7c7a	0.08471008
102	0xbe567bab	-0.20945613
103	0x3e33b6c3	0.17550187
104	0x3e32a368	0.17445147
105	0x3de67aa5	0.11253861
106	0xbe081567	-0.13289414
107	0xbdefdade	-0.117116675
108	0xbe25ef9d	-0.16204686
109	0x3e0238a8	0.12716925
110	0x3d66d69f	0.056357022
111	0xbe4d9bc2	-0.20078948
112	0xbe0f9bda	-0.14024296
113	0xbeb0b3a9	-0.3451207
114	0xbdec0616	-0.11524598
115	0x3e24913a	0.16071025
116	0x3da34530	0.07972181
117	0x3e3c266e	0.18374035
118	0x3df205a4	0.11817482
119	0x3d7f7c42	0.06237436
120	0xbe4f2113	-0.2022746
121	0x3d10b21a	0.0353261
122	0x3d985b05	0.074392356
123	0xbdb6050c	-0.08887681
124	0x3e1810ec	0.14850205
125	0xbce3784c	-0.027767323
126	0xbda2b77b	-0.07945152
127	0xbe239ce5	-0.1597782
128	0xbe18649c	-0.1488213
129	0x3c684661	0.014176936
130	0x3e263e60	0.16234732
131	0x3e29c983	0.16580777
132	0xbd1c8f49	-0.038222585
133	0x3d4ab14b	0.049485486
134	0xbe2ae84f	-0.16690181
135	0xbdef9fae	-0.11700378
136	0x3e03a739	0.12856759
137	0x3cd21147	0.025643004
138	0x3d204427	0.039127495
139	0x3cd37b07	0.0258155
140	0xbd9da9ca	-0.076984
141	0x3e11d7e2	0.14242509
142	0x3e2e202c	0.1700446
143	0x3d903777	0.07041829
144	0x3e323ba1	0.17405559
145	0x3d53b7be	0.051688902
146	0x3e04d000	0.1296997
147	0xbded3077	-0.115815096
148	0x3d7b57f2	0.061363168
149	0xbe0443eb	-0.12916534
150	0xbcda070d	-0.02661469
151	0xbdefcd6c	-0.11709103
152	0x3d73c2ad	0.05951183
153	0xbe24f652	-0.16109589
154	0xbd60a939	-0.054848883
155	0xbd90074d	-0.070326425
156	0x3de4626c	0.11151585
157	0xbe03d1e8	-0.12873042
158	0xbdb99ec2	-0.09063484
159	0x3e13aa11	0.14420344
160	0x3d903e73	0.07043161
161	0x3e0baf46	0.1364108
162	0x3e2302bd	0.15919013
163	0xbddec2df	-0.108770125
164	0x3d4ae099	0.0495306
165	0xbe0a7dd8	-0.13524568
166	0xbd7fa52e	-0.062413387
167	0xbd0fcb2a	-0.03510586
168	0xbda2bf9e	-0.07946704
169	0x3d168f48	0.036757737
170	0x3ccbd786	0.024883043
171	0x3d058b97	0.032603826
172	0x3dbf0d25	0.09328679
173	0xbcba5e01	-0.022749903
174	0x3e0cc678	0.13747585
175	0xbc8b7e30	-0.017027944
176	0x3df75cf3	0.120782755
177	0x3e031a2a	0.1280295
178	0x3e23bd45	0.1599017
179	0xbdae9b53	-0.085257195
180	0xbd65a18c	-0.056062266
181	0xbe0e65a3	-0.13905959
182	0xbd9df273	-0.07712259
183	0x3e25de52	0.1619809
184	0xbca4c0e8	-0.020111516
185	0xbdc05fe1	-0.093932875
186	0xbe03e024	-0.12878472
187	0xbe16e7f2	-0.14736918
188	0xbdcdfcad	-0.1005796
189	0x3d732d80	0.059369564
190	0xbdcab605	-0.09897999
191	0xbd80c1fd	-0.06287
192	0xbe1ba6ea	-0.15200391
193	0xbe26bac2	-0.1628218
194	0xbde047ec	-0.10951218
195	0xbe3173f8	-0.17329395
196	0xbc5b24bc	-0.013375457
197	0xbd80f889	-0.06297404
198	0xbdb3eb78	-0.087851465
199	0xbde793ba	-0.113074735
200	0x3d925df1	0.07146824
201	0x3da660d7	0.081239395
202	0xbd1404b4	-0.036137298
203	0x3d8b94f5	0.06815521
204	0x3e208ce0	0.1567874
205	0xbd6c55b4	-0.05769892
206	0xbdd931c4	-0.10605195
207	0x3dec49d9	0.11537523
208	0xbd2b4893	-0.04181726
209	0xbd94fb94	-0.07274547
210	0x3de5e2e1	0.11224914
211	0x3d5312ae	0.051531486
212	0xbdfa649b	-0.1222622
213	0x3d1ff26f	0.039049562
214	0x3d9baff1	0.076019175
215	0x3e35539c	0.17707676
216	0xbdbff3d3	-0.09372678
217	0x3db7003e	0.08935593
218	0xbc9fe710	-0.019519359
219	0x3cdb331b	0.026757767
220	0xbe2c3a7c	-0.16819185
221	0xbe2425b6	-0.1603001
222	0x3dd1433a	0.102179006
223	0xbab0dadd	-0.0013492961
224	0x3d94a3a6	0.07257776
225	0xbde1d20a	-0.1102639
226	0x3e0674dc	0.13130516
227	0xbd87771a	-0.06614514
228	0xbdf0f817	-0.117660694
229	0x3e187470	0.14888167
230	0xbde31235	-0.11087457
231	0xbdca0bd4	-0.09865537
232	0xbe1ddf0f	-0.15417121
233	0x3d9b1a98	0.07573432
234	0xbcbe589c	-0.023235612
235	0xbc028706	-0.007966762
236	0x3d44f353	0.048083615
237	0xbd4e92a6	-0.050432824
238	0x3cecd965	0.028912256
239	0xbdc95c4f	-0.098320596
240	0xbd3454f8	-0.044026345
241	0x3dc4de5e	0.09612726
242	0x3d41a63b	0.04727767
243	0x3def354f	0.1168009
244	0x3e27155f	0.16316746
245	0x3df96087	0.12176614
246	0xbd81c573	-0.063364886
247	0xbe19157c	-0.14949602
248	0xbda528f2	-0.0806445
249	0xbc9f4f44	-0.019446976
250	0x3e2b4ea2	0.16729215
251	0x3cdaa5ed	0.026690448
252	0xbced0d7c	-0.028937094
253	0x3df12743	0.11775067
254	0x3d875d59	0.066096015
255	0x3e107070	0.14105392

advantage_stream.0.bias f4 [64]
0	0x3d2fd70b	0.04292969
1	0xba8a82be	-0.0010567529
2	0xbab180e1	-0.0013542437
3	0xba966b97	-0.0011476156
4	0xbc358f0d	-0.011081469
5	0x3b306547	0.0026915835
6	0x3cd4d20a	0.02597906
7	0x3b9f0cff	0.004853844
8	0xbbc4c8f2	-0.0060054
9	0x3a1a2f0a	0.0005881643
10	0x3c4e80e7	0.012603975
11	0x3b460065	0.0030212638
12	0xbc40f1c1	-0.011776389
13	0xbba9e975	-0.005185301
14	0xbcea5ed7	-0.028609676
15	0xbba5baf3	-0.0050576865
16	0x3b21600c	0.0024623899
17	0xbc0e1af4	-0.008673418
18	0xbc881437	-0.016611202
19	0xbcb5969f	-0.022166548
20	0xbcb76961	-0.022389116
21	0xbce8b7c6	-0.028407943
22	0xbc2f10ce	-0.010685159
23	0xbc300cd4	-0.010745246
24	0x3bac96db	0.005267007
25	0xbca6b2ae	-0.020348873
26	0x3bca942d	0.0061822147
27	0xbb21e71e	-0.0024704407
28	0xbb26d383	-0.002545566
29	0xbb3e887f	-0.0029073057
30	0x3c44a4c2	0.012002172
31	0xbc5a0a6e	-0.013308151
32	0xbaf97b3c	-0.0019033919
33	0x00000000	0.0
34	0xbbfaa30a	-0.0076488303
35	0xbb8a060c	-0.0042121466
36	0x3b8fd5e3	0.004389511
37	0xbbfef383	-0.0077804937
38	0x3bfd0c8a	0.007722442
39	0xba1262fa	-0.00055842067
40	0xbd008a9f	-0.0313822
41	0xbc9e4255	-0.019318739
42	0xbc336b61	-0.010950894
43	0xba107bda	-0.00055116194
44	0x3bcec315	0.0063098767
45	0x3b038896	0.0020070425
46	0xbc3f9114	-0.011692304
47	0xbb7dc31f	-0.0038721038
48	0xbc599964	-0.0132812
49	0xbac17c6f	-0.0014761816
50	0x3c901624	0.017588682
51	0x3bad360f	0.0052859853
52	0xbc9244bf	-0.017855046
53	0x3c735f12	0.0148542095
54	0xbbfe6b38	-0.0077642463
55	0xbc81e0eb	-0.01585432
56	0x3a425b3b	0.0007414107
57	0xbc112231	-0.0088582495
58	0xbc4c4af8	-0.012469046
59	0xbbb4d380	-0.005518377
60	0xba346856	-0.00068820023
61	0xbc689d51	-0.014197663
62	0xbc358898	-0.01107993
63	0x3c9bba86	0.01900984

advantage_stream.2.weight f4 [2, 64]
0	0x3e02227b	0.12708466
1	0x3d83d98a	0.06437977
2	0x3e731e54	0.23742038
3	0x3deccfc7	0.11563068
4	0xbe5a5e59	-0.21325053
5	0xbe922534	-0.2854401
6	0xbe8ee0f4	-0.27906
7	0x3e6959ef	0.22788213
8	0x3e955e10	0.29173326
9	0x3e0341e3	0.12818103
10	0x3e2fb6ec	0.17159623
11	0x3e01026e	0.12598583
12	0x3e08ea69	0.1337067
13	0xbd7059df	-0.058679458
14	0xbcfb1a90	-0.030652314
15	0x3e34f3b1	0.17671086
16	0x3ca14107	0.019684328
17	0x3decbcc5	0.115594424
18	0x3ccbf714	0.02489809
19	0xbe8ec33c	-0.27883327
20	0xbe266ae3	-0.16251712
21	0xbe0272e7	-0.12739144
22	0x3e4fdc8e	0.20298979
23	0x3d95f1f2	0.07321538
24	0xbebadf6e	-0.36498588
25	0x3cfdf5f4	0.031001069
26	0x3dd881b4	0.10571614
27	0x3daa4a07	0.08314901
28	0xbe72e31c	-0.23719448
29	0xbd9ac95d	-0.07557938
30	0x3e4ccc14	0.19999725
31	0x3e80de16	0.25169438
32	0xbabbca04	-0.0014327173
33	0x3d92f720	0.071760416
34	0xbe0f70c3	-0.14007859
35	0xbe02a298	-0.12757337
36	0x3d4ed6d1	0.050497834
37	0x3e4cd855	0.20004399
38	0x3e6a921a	0.22907296
39	0x3d6330ce	0.055466466
40	0x3d79a703	0.06095029
41	0x3e19417c	0.14966387
42	0x3d748bdb	0.05970369
43	0x3e733038	0.23748863
44	0x3d203860	0.039116263
45	0xbe07c97c	-0.13260454
46	0x3de3cacc	0.11122665
47	0xbe85844b	-0.26077494
48	0x3dd94f35	0.10610811
49	0xbd87f7cf	-0.066390626
50	0xbea229f3	-0.3167263
51	0xbe8931b9	-0.26795748
52	0x3e37a922	0.17935613
53	0x3e1004cf	0.14064334
54	0xbe9c69f2	-0.3054958
55	0xbd644d16	-0.055737577
56	0x3e5fd171	0.2185724
57	0x3cc103da	0.023561407
58	0xbc1d31f1	-0.0095944265
59	0x3ea1b204	0.31581128
60	0x3df5c817	0.12001055
61	0x3e641a48	0.2227565
62	0x3e8dc545	0.27689567
63	0x3da5e127	0.08099585
64	0x3ec8be31	0.39207605
65	0xbe81ebbe	-0.2537517
66	0xbe58754e	-0.21138498
67	0xbeb25ac1	-0.34834865
68	0x3e2dc5f6	0.16970047
69	0x3e6898e9	0.2271458
70	0xbd980ddb	-0.07424518
71	0x3dadf0c4	0.08493188
72	0xbbbdf8e2	-0.0057974914
73	0xbdafe5dc	-0.08588764
74	0xbe44156c	-0.19148797
75	0xbe215d7c	-0.15758318
76	0x3e1a17c5	0.1504813
77	0x3dbd156b	0.09232601
78	0x3c046e6e	0.008082969
79	0xbe19479b	-0.14968722
80	0xbdf32cda	-0.11873789
81	0xbe3cedb2	-0.18450049
82	0xbe4845da	-0.19557896
83	0x3e7949af	0.24344514
84	0xbe37e353	-0.17957811
85	0x3da86007	0.08221441
86	0xbb5f9c6d	-0.0034120337
87	0xbe0dcca8	-0.13847601
88	0x3e9fa6fb	0.31182083
89	0x3e22b896	0.15890726
90	0x3e303171	0.1720636
91	0x3e144ec0	0.14483166
92	0x3e907590	0.28214693
93	0x3e2ab2fc	0.1666984
94	0xbe432cb2	-0.19060019
95	0xbddbf5f8	-0.10740274
96	0x3e80500d	0.25061074
97	0x3e3a4120	0.18188906
98	0xbe7af6c5	-0.24508198
99	0x3e7569d4	0.23966151
100	0xbdf8d550	-0.12150061
101	0x3e888ef6	0.2667157
102	0xbe390278	-0.18067348
103	0x3d9b9d0d	0.075983144
104	0x3e461a7d	0.19346042
105	0x3e8c4cce	0.27402347
106	0x3c8b7c25	0.01702697
107	0x3ddc0100	0.10742378
108	0xbc8aa498	-0.016924188
109	0xbea6f323	-0.32607374
110	0x3dcc9c8a	0.09990795
111	0x3c694ed5	0.014239986
112	0xbe6fbb59	-0.23411311
113	0xbe75729a	-0.23969498
114	0xbe459885	-0.19296463
115	0x3e354b78	0.1770457
116	0x3e591368	0.21198809
117	0x3e8b9c07	0.27267477
118	0xbe924103	-0.28565225
119	0xbd8ca156	-0.0686671
120	0x3e6e808f	0.23291229
121	0xbe8a8f7a	-0.2706259
122	0x3d4f4d60	0.0506109
123	0xbed2667a	-0.41093808
124	0xbe8c8de3	-0.27452
125	0xbe5680e4	-0.20947605
126	0x3d1bc16f	0.03802627
127	0xbe5b68e0	-0.21426725

advantage_stream.2.bias f4 [2]
0	0xb8c39f96	-9.32805e-05
1	0x38c39f96	9.32805e-05

exp_avg f4 [128, 4]
0	0x39766650	0.00023498503
1	0x3bd81920	0.006594792
2	0xbb1149a0	-0.0022169128
3	0xbc1e38a2	-0.009657057
4	0xb8d87a60	-0.00010322477
5	0x3a71e752	0.000922789
6	0x39018b54	0.00012354302
7	0xba857039	-0.001018054
8	0x397c7eeb	0.00024079873
9	0x39dafb6c	0.00041767524
10	0xb8e0ad1c	-0.000107133965
11	0xba81f64a	-0.0009915319
12	0x3ab37688	0.0013691941
13	0xbb0918bc	-0.0020919284
14	0xba3d4e1c	-0.0007221417
15	0x3bccd3c9	0.0062508327
16	0x39f19d42	0.00046084268
17	0xbb28d505	-0.0025761735
18	0x39b0d324	0.00033726648
19	0x3bb51892	0.0055266107
20	0xb9048c6f	-0.00012640817
21	0xba2e31cc	-0.00066449936
22	0xb7afc715	-2.095433e-05
23	0x3a2019f8	0.0006107385
24	0x3a87b43a	0.0010353394
25	0x3adf2258	0.0017023785
26	0xba5591ee	-0.00081470504
27	0x3a480600	0.00076302886
28	0x3a51fa99	0.0008010059
29	0x3bb2ff39	0.005462554
30	0xbb0e22f6	-0.0021688319
31	0xbbc45096	-0.005991052
32	0x3b154712	0.0022777957
33	0x3b229504	0.0024808059
34	0xba28cc87	-0.00064391684
35	0x3aa4b955	0.001256744
36	0x3a87eb46	0.00103698
37	0xbb1ea1c8	-0.0024205316
38	0xb9d4adea	-0.00040565367
39	0x3bb96812	0.005658158
40	0xb80ee3b3	-3.40675e-05
41	0xb99fb7d5	-0.0003046381
42	0xb99605b5	-0.00028614482
43	0xba8069ca	-0.0009797153
44	0xb868ff98	-5.555115e-05
45	0xbaecdf7f	-0.0018071978
46	0x399f7446	0.00030413474
47	0x3b417da4	0.002952435
48	0x3a16a5d0	0.0005746754
49	0xb94dd1a0	-0.00019628415
50	0xba11fd45	-0.0005569051
51	0x3b426f32	0.0029668328
52	0xba4160bc	-0.000737678
53	0x3b819955	0.003955046
54	0xba8b7763	-0.0010640438
55	0xbb7dca4a	-0.003872531
56	0xb8003bd8	-3.0573312e-05
57	0x39a9b8f8	0.00032372004
58	0xba156c1d	-0.0005700009
59	0x39474880	0.00019005127
60	0x35957b40	1.1137236e-06
61	0xb81b3120	-3.700063e-05
62	0x38aed243	8.336131e-05
63	0x39eceace	0.0004518837
64	0x3ae68331	0.0017586706
65	0x3a09f030	0.0005261926
66	0xbab93584	-0.0014130329
67	0x3b953684	0.004553618
68	0x38c4ac14	9.37806e-05
69	0x3a91c66f	0.001112176
70	0x38948299	7.081516e-05
71	0xba73625a	-0.000928437
72	0x3ac89818	0.0015304117
73	0x3a88a52e	0.0010425204
74	0x3a3da404	0.0007234218
75	0x3aabae78	0.001309826
76	0x3a44cabf	0.0007507018
77	0x38291fc0	4.032231e-05
78	0xba5844ef	-0.0008250018
79	0xb9e66120	-0.00043941382
80	0xba5014a2	-0.0007937645
81	0xbc0559b5	-0.008139064
82	0xba22d21c	-0.00062111183
83	0x3b807664	0.0039203633
84	0x38fdd7c0	0.00012104167
85	0xbb0c4e3d	-0.0021408938
86	0x3a5a635a	0.00083308446
87	0x3b81266a	0.003941347
88	0xba98efef	-0.0011668185
89	0xbabae2ef	-0.0014258305
90	0xb9a3dfce	-0.0003125653
91	0xba8ebd90	-0.0010890234
92	0xb9284088	-0.00016045768
93	0xbb8a41fc	-0.0042192917
94	0x38a21446	7.728538e-05
95	0x3bf8749b	0.00758226
96	0x3878b358	5.9294835e-05
97	0xbb0168dc	-0.001974634
98	0x3a1b085f	0.0005914028
99	0x3b8214e0	0.0039697737
100	0x398cf00c	0.0002688173
101	0xb8ffa940	-0.00012190873
102	0x389f4cf9	7.596048e-05
103	0x3a880ca3	0.0010379743
104	0x3a1ecef7	0.0006058062
105	0x3b13bc4f	0.002254266
106	0xb9a6f3d6	-0.0003184366
107	0xbb1b6bb9	-0.002371533
108	0x39bea8af	0.00036365303
109	0x39c63980	0.00037808344
110	0xb9fdc742	-0.0004840438
111	0x38a2a3e0	7.755286e-05
112	0xb9c3be4f	-0.0003733509
113	0x399bc018	0.00029707025
114	0xb92bacf0	-0.00016372255
115	0xbb0d21a6	-0.0021534949
116	0x3a47d97d	0.0007623656
117	0xbb40c704	-0.0029415498
118	0x3999157e	0.00029198447
119	0x3bca71be	0.00617811
120	0xb88f83d0	-6.843323e-05
121	0xbb6c7751	-0.003608186
122	0x3a826bcf	0.0009950342
123	0x3bbe7ce6	0.005813229
124	0x3838cc6a	4.4059394e-05
125	0x3abb9068	0.0014310004
126	0xb9b94a7c	-0.00035341445
127	0xbb3b9f1a	-0.0028628767
128	0x3997c7ff	0.00028949973
129	0x3a060e3f	0.0005113817
130	0x386a357c	5.583976e-05
131	0xb78310c0	-1.5624217e-05
132	0x3b4e42fb	0.003147303
133	0x3c3bfec8	0.011474319
134	0xbb1658b0	-0.0022941045
135	0xbc5c2dcb	-0.013438652
136	0xb9c40cf6	-0.0003739369
137	0xbb9f4793	-0.0048608272
138	0xba360918	-0.0006944104
139	0x3a362028	0.00069475407
140	0xb88f34dc	-6.828617e-05
141	0x39d016f2	0.00039689947
142	0xb8f16a70	-0.00011511601
143	0xb99ab80c	-0.00029510295
144	0x3a43e8b0	0.0007473333
145	0x3a2c2690	0.00065670256
146	0xba11212e	-0.0005536255
147	0xb9be8340	-0.00036337413
148	0x3a9dbefe	0.001203507
149	0xbb807c0a	-0.0039210366
150	0xbad945b1	-0.0016576556
151	0x3ba07c3e	0.0048976233
152	0x383e5540	4.5378925e-05
153	0xbc97cb30	-0.018529505
154	0x3b8f7ec4	0.0043791253
155	0x3d06deb7	0.03292724
156	0x3904383a	0.00012609447
157	0x37083980	8.119619e-06
158	0xb932d5d0	-0.00017055054
159	0xb8652010	-5.4627715e-05
160	0x3a39292c	0.0007063325
161	0xb78f9080	-1.7114216e-05
162	0xb86f414c	-5.7042853e-05
163	0x3aceb00e	0.0015769021
164	0x3aebab77	0.0017980178
165	0x3acb93a4	0.0015531671
166	0x39aeb645	0.00033323668
167	0x3ae61b64	0.001755577
168	0x39b1233b	0.0003378632
169	0x3ac9ab46	0.0015386126
170	0xb9906fec	-0.0002754921
171	0xbb4d1693	-0.0031293973
172	0xb992417e	-0.00027896086
173	0xbb5d161a	-0.0033735097
174	0x3920ed0e	0.00015347099
175	0x3bac137e	0.005251347
176	0xbb08b91e	-0.0020862292
177	0xbb1d0ac0	-0.0023962706
178	0x3a453018	0.000752212
179	0xb928a060	-0.00016081473
180	0x3b3f21f9	0.0029164536
181	0x3c322622	0.010873349
182	0xbb43cde2	-0.0029877354
183	0xbc66ddf7	-0.0140910065
184	0x39e5713b	0.00043762647
185	0x3af3c41f	0.0018597877
186	0xba087851	-0.0005205917
187	0xbabed5b5	-0.0014559539
188	0x3ab39d5a	0.0013703511
189	0x3abba90a	0.0014317345
190	0xba69a3ea	-0.000891267
191	0xb8f03080	-0.000114531256
192	0x3be40e27	0.006959695
193	0x3b0fa00c	0.0021915464
194	0xba0cf31b	-0.0005376802
195	0x3c4e47b0	0.012590334
196	0xba783121	-0.000946777
197	0xbc12b7e5	-0.008954977
198	0xba57ac72	-0.00082272955
199	0x3b5ec53f	0.003399208
200	0x39bf5b6c	0.00036498473
201	0xbb1b3932	-0.0023685214
202	0x3a6ee041	0.0009112396
203	0x3ba82a15	0.0051319697
204	0x39e2d9e2	0.00043268414
205	0xba041fa2	-0.0005040114
206	0x397389ae	0.00023225576
207	0x3b0993c4	0.0020992616
208	0x3aa0426b	0.0012226825
209	0x3a70ca0f	0.00091853825
210	0x39a09409	0.00030627873
211	0x3aa68d51	0.001270691
212	0x399f1bda	0.00030347594
213	0x38cd8cb8	9.801373e-05
214	0x38c674f1	9.463158e-05
215	0x39b280ab	0.0003404667
216	0x3a61c460	0.0008612331
217	0x3c0818e1	0.008306713
218	0xbae6ecac	-0.0017618141
219	0xbc116bb2	-0.008875774
220	0xb9438a74	-0.00018648227
221	0xba057203	-0.00050905364
222	0x39570135	0.00020504447
223	0x39eb2ee4	0.0004485763
224	0xbac61a2a	-0.0015113999
225	0xbb3f4061	-0.002918266
226	0x3a79b1f5	0.0009525114
227	0x3b0b4414	0.0021250295
228	0x3a803a50	0.0009783003
229	0x3bc147f7	0.0058984715
230	0xbb4ddd40	-0.0031412393
231	0xbc02dfcd	-0.007987929
232	0xba4c7fb0	-0.00078010093
233	0xbbec7357	-0.007215898
234	0xba567930	-0.00081815105
235	0x3b009823	0.001962193
236	0x39c34174	0.00037242065
237	0xb9157838	-0.00014254532
238	0xb9a0efd1	-0.00030696255
239	0x3a0c8cc2	0.0005361551
240	0xbb0358b5	-0.0020041887
241	0xbc2c73a3	-0.010525617
242	0xba4f4624	-0.0007906875
243	0x3b77fed2	0.0037841094
244	0xb9b8fc2a	-0.00035283092
245	0xbae59a32	-0.0017517267
246	0x39f216b9	0.00046174767
247	0x3b1564b9	0.002279563
248	0xba0f4afc	-0.00054661906
249	0xbac3fbee	-0.00149524
250	0x39a1a504	0.0003083126
251	0x3ac5b086	0.0015082515
252	0xb7a78240	-1.9968604e-05
253	0x3a614219	0.0008592918
254	0xb99b7b6c	-0.0002965586
255	0xbafa3d79	-0.0019091807
