CartPoleHighRewardIn2026/checkpoints/checkpoint_ep850_reward500.00.pt (torch, 421217 bytes, 33 tensors)

feature_layer.0.weight f4 [128, 4]
00000000: 7092 debc 6bd5 743d f960 52be 9ad0 1c3e
00000010: 8d27 41bd e6bd 75bd 9467 a8be 0e08 ddbe
00000020: 6f8d a9bb b882 96bb dabd 97bf a39a 683c
00000030: 9d1f 8c3c c467 753c d0d7 e93e 5e4f 143d
00000040: 5596 5abc 1f5e 8dbc 1da1 d53f f4e5 ba3c
00000050: 7389 58bd 697a 423d b91b e9be 7f30 933d
00000060: f81d 733c de85 8ebc 8ae3 613e 41a4 2abd
00000070: 6e83 89bd deda c13d 4cd2 46be 151a 2d3d
00000080: 0b98 edbd 5a82 d43d 7f7a ff3e e7b3 9a3d
00000090: 814b c93c 1879 5cba fe40 5f3e c1e2 193d
000000a0: 9172 ae3c 594d b2bc 6948 c2be 5948 1f3d
000000b0: 873a 493d 5328 29bd 701b 023e 21cc f5bc
000000c0: fae5 1c3d 61fc c9bd 0a07 703d eeaf d6bd
000000d0: 4f62 13be 7752 9e3e ab8d a4be ea21 413e
000000e0: 15e1 073d e202 ebbb 19c3 7f3e 5d4a a7bc
000000f0: 2fbd 8fbc b9cd 59bd 1fa0 d73e c157 7fbe
00000100: 1f38 6d3c b446 8e3d c680 fd3e 1dce bc3d
00000110: 2d02 1bbd 9d03 663d a3ee 04bf d326 423d
00000120: 14dd 06bd ff34 83bb 69f3 cc3f 81d6 b23d
00000130: 4fe7 313d 83dd a3bd e03d 543f 5ead 8fbd
00000140: e42e 83bc e94a f2bc dd9a c3bf 0e3e 6cbe
00000150: 73b2 b53c 777f 113e ad20 b13f 8ea0 9b3e
00000160: fd2b 703a f6d0 303c 67c1 92bf df92 bc3c
00000170: b8af e03c 0b9f a8bc 4b40 f53e 8747 0ebd
00000180: a73d 653e 952b 9c3e 4835 323f e505 813e
00000190: ee25 15bd bbaa 7b3d f0fd 02bf fc15 c13d
000001a0: 5c0b eabb 1bf4 5bbc a13c d43f ecc0 4dba
000001b0: 4ae7 7dbd 4d21 8a3d 56ad 3cbe 0e80 933d
000001c0: cb6a 75bd 3bfa 29bd e142 94bf f8b3 9bbe
000001d0: c67c 5cbd dcf0 e93d 83bf 36bd 9d36 033e
000001e0: 0bb4 cfbb aec5 3b3d eb20 113f 829e 923e
000001f0: ef43 c0bc 12e9 07bd 46a0 d33f a8e2 10bd
00000200: e4dd 66bc d83e 44bc 8331 0f3e 9928 2bbd
00000210: 7b5b 99bb 26a4 c33c c2f7 d5be ad33 d73c
00000220: 744c 51bd f604 a7bc 38f3 7dbf 1f05 9dbd
00000230: f91d a33c d993 79bd bbfe 063e 5c0e 45bd
00000240: 3331 163e 4d5d 9c3e bbe2 4f3f 357c 873e
00000250: cb85 fc3d f77f 303e 1fc9 3d3f a3ca bf3d
00000260: 58b6 c1bb 88f7 0dba 3b44 af3f 32b8 e4bc
00000270: 31ed 7dbb f436 d83b 3496 d33d c1be 5ebe
00000280: b024 5e3d b45a 9dbd 6676 8d3e 8c3b b2bd
00000290: b56b 1dbe 5c29 2f3e 6c5b 213f b575 263e
000002a0: 1e86 b3be 574b 9bbe 8acb 36bf 7b99 88be
000002b0: 0fa6 e33c 1eee 773c 8160 923d a0ac 613d
000002c0: 3f5e 54be 11bd cbbd a741 d2bd 1140 35bd
000002d0: 98a0 32bc cf93 b5bb 8dd8 babd 8092 e7bc
000002e0: a72a c03e 3afd 133e aca0 1e3f a23a 0a3e
000002f0: a603 9f3e e88d ffbc ac67 893e fa96 163a
00000300: 0eb0 a3bc 55e9 3bbc 4e78 adbf 77c9 8dbd
00000310: 735e b4bc 21f6 c8bc ed4d d7bf 8cb5 05be
00000320: 3e88 72bc 09b9 60bc ad96 bc3f 2d94 0f3c
00000330: be02 b5bb 079e a5bc 159b 43be 486f babc
00000340: 7002 b23c bb9e 9cbd f1b5 f53c 0dac 45be
00000350: 4b2c db3c 6eee 56bd 53e5 bc3e 8d5b 58bd
00000360: 08d9 383d 16fc a4bc a4c1 2ebe e76f a4bb
00000370: 022d 1abd 54aa 643b 68e2 b23f 52c4 c53e
00000380: 335d b8bd 9c73 f03c c9f1 13bf 0503 523e
00000390: 177e 66bd 659e 393d 44b4 0dbf eeca c23d
000003a0: 6bc7 51bc 806f 00bd a49f d0bf 9103 3bbe
000003b0: a5ca 9d3c 1fe1 2dbd 7ac1 a33e 77da d4bd
000003c0: 3923 a8bc 15ba f4bc f244 ccbf 03c6 2cbe
000003d0: b01e bfbc bf60 afbb 4713 de3f 355e 073e
000003e0: 7649 89bc d703 88bc 3261 c53f 2585 e03d
000003f0: 10c0 e83c ad45 44bd 6f20 103e 67c3 7abd
-0.027169436 0.059773844 -0.20544805 0.1531395 -0.04715686 -0.059995554 -0.32891524 -0.43170208
-0.005174331 -0.0045932196 -1.1854813 0.0141970245 0.017104918 0.014978353 0.45672464 0.036208503
-0.013341506 -0.017256794 1.6689793 0.022814728 -0.052865457 0.04748002 -0.45528963 0.07186984
0.014838688 -0.017397817 0.22059456 -0.04166055 -0.06714521 0.09465574 -0.1941616 0.042261202
-0.116012655 0.10376425 0.49898145 0.07553845 0.024572136 -0.00084103784 0.21802136 0.037569765
0.021294864 -0.021765398 -0.3794587 0.038887355 0.04912808 -0.04129822 0.12705779 -0.030004563
0.03830526 -0.098625906 0.058600463 -0.10482775 -0.1439297 0.3092229 -0.32139334 0.18860593
0.03317364 -0.0071719745 0.24976768 -0.020421201 -0.017546264 -0.053174708 0.4211435 -0.24935819
0.014478712 0.06947079 0.4951231 0.092190005 -0.03784387 0.05615579 -0.5192663 0.047400307
-0.03292568 -0.0040041204 1.6011783 0.087323196 0.043433484 -0.080012344 0.82906914 -0.07015489
-0.01601357 -0.029576736 -1.5281636 -0.23070547 0.022179818 0.1420878 1.3838097 0.3039593
0.0009161828 0.010792008 -1.1465272 0.023019252 0.02742754 -0.02058365 0.47900614 -0.034736183
0.223868 0.30502 0.6961255 0.2519981 -0.036413126 0.06144212 -0.5116873 0.09428021
-0.0071424674 -0.0134248985 1.6581002 -0.0007848877 -0.061988153 0.06744633 -0.18425497 0.07202159
-0.0599163 -0.041498404 -1.158291 -0.30410743 -0.05382993 0.114228934 -0.044616234 0.12813802
-0.0063386015 0.04584282 0.56690854 0.28636557 -0.023469893 -0.033181258 1.6533287 -0.035372406
-0.014090989 -0.011977874 0.13983731 -0.041786764 -0.004680095 0.023881983 -0.41790587 0.026269758
-0.051098302 -0.020388108 -0.9919925 -0.076669924 0.019911753 -0.060932014 0.1318311 -0.048109397
0.14667206 0.30539933 0.8120534 0.2646195 0.123302065 0.17236315 0.7413501 0.09364822
-0.0059116296 -0.0005415608 1.3692697 -0.027919862 -0.0038746113 0.006598348 0.10331383 -0.21752454
0.054234207 -0.07683316 0.27629393 -0.08702764 -0.15373118 0.17105621 0.63030124 0.16255839
-0.3506326 -0.30330917 -0.71404326 -0.26679596 0.027789144 0.015132455 0.07147313 0.05509627
-0.20739077 -0.09948171 -0.102664284 -0.04425055 -0.010902546 -0.005541302 -0.09123335 -0.028268099
0.3753254 0.14452067 0.61963916 0.13498929 0.3105747 -0.031195596 0.26836908 0.0005744543
-0.01998141 -0.011469205 -1.3552339 -0.06923192 -0.022017693 -0.024531426 -1.6820656 -0.13057536
-0.0148029905 -0.013715991 1.4733483 0.008763355 -0.0055240085 -0.020216955 -0.19102128 -0.022758141
0.021729678 -0.07647463 0.029993983 -0.19303913 0.026754519 -0.052473478 0.3689371 -0.052821685
0.045128852 -0.020139735 -0.17066056 -0.0050182226 -0.03764058 0.0034891563 1.3975344 0.38626343
-0.09002151 0.029352002 -0.5779081 0.20508964 -0.056272592 0.045317072 -0.5535319 0.09511362
-0.012803893 -0.031356335 -1.6298718 -0.18263079 0.019261668 -0.04245102 0.31983548 -0.10393231
-0.020524608 -0.029873887 -1.595854 -0.1687241 -0.023330063 -0.005352109 1.7349633 0.13219531
-0.016758662 -0.016603393 1.5420287 0.10962895 0.028411895 -0.04791801 0.14074872 -0.061221506

feature_layer.0.bias f4 [128]
00000000: 1081 88be 6dbd cbbe f3c6 92be 731a 863e
00000010: d67a 98be 5989 42be 40d3 cfbd c8fd 833d
00000020: b91a bfbe cf2e 23be d8ca bcbe ba62 4bbe
00000030: 1508 89be 3bfb 0dbe d4ee 00be 3c67 15bf
00000040: 4dcf 8a3e 69a0 3ebe 10e2 a1be 1dd4 2fbe
00000050: e315 aebe fe8b a5be f0e8 85be 1c52 22be
00000060: a226 1cbf 28d4 42be 048d b8be 64b3 2dbe
00000070: f447 d8be 7dfa 8cbe d689 03bf 55ea 95be
00000080: e756 1dbe 41d7 3cbe 0c5e 06bf 82ff 68be
00000090: 3a58 e2be 44c2 fcbe 6611 96be 6130 48bd
000000a0: 9d84 7abe a205 00bf b8b8 3abf b277 28be
000000b0: ee10 26bf 726a 2abe 20ea 39bf 62df d3be
000000c0: 9f3d 71be 29b9 a4be 734f a9be a369 09be
000000d0: 1fba fdbe 9c10 38be 950d 20be 7791 eabe
000000e0: 0948 fbbe 014b 7cbe a83c afbe 45c3 8fbe
000000f0: 672c a7be 1dff adbe 1510 9dbe 0f30 1fbe
00000100: ffc4 abbe 6fb4 f0bd 1b76 b2be bddb 91be
00000110: aab6 b3be 6d3c 35be b37d c0be 495d 12be
00000120: 505c cebe d640 3cbe 2a1a b2be 1f4f f6bd
00000130: 93bb 7fbe 004c 5bbe 5867 fabe 3bda edbd
00000140: fdae aebe 3fbf c8bd 78e7 a3be 524e 9cbe
00000150: d309 01bf 0b03 7dbe bfc0 f5be 3e11 5abe
00000160: c145 69be 192e 7fbe d284 87be 2cfb 80be
00000170: cf4e a5be db13 84be 3efd 9bbe bf25 a7be
00000180: 78e8 39bf 3f58 82be ab67 4ebe 1420 d8be
00000190: 1b5b 92be 1adf 3fbe 3de1 35be 97fb 5b3d
000001a0: 38c3 41be 148c e4be 82ed bbbe e7b5 b2be
000001b0: f3d9 b6be 547b 3abe 1930 2cbe 12c5 0cbe
000001c0: 2a4c f0be ad3f 85be 6c7b 863e 5e86 84be
000001d0: 47b9 58bd 5e75 7bbe 97e7 353e d0de 20be
000001e0: cba7 d4be 0f99 0dbe 78b3 9ebe 7427 d7be
000001f0: 71a1 4bbe 82d4 6abe e1da bfbe a734 80be
-0.26660967 -0.39792958 -0.2866741 0.26192054 -0.29781216 -0.18997706 -0.101477146 0.06444889
-0.37325075 -0.15935825 -0.36873507 -0.1986188 -0.2676398 -0.13865368 -0.12591106 -0.5836065
0.27111283 -0.18615879 -0.31617785 -0.17170759 -0.34001073 -0.32333368 -0.2615428 -0.15851635
-0.6099645 -0.19026244 -0.36045086 -0.16962963 -0.42242396 -0.27534857 -0.51382196 -0.29280344
-0.15365182 -0.18441488 -0.52487254 -0.22753718 -0.44207937 -0.49366963 -0.2931015 -0.048874263
-0.2446465 -0.50008595 -0.7293811 -0.1645191 -0.6486958 -0.16642168 -0.7262287 -0.41381365
-0.23558663 -0.32172516 -0.33068427 -0.13419203 -0.49556062 -0.17975086 -0.15630181 -0.45814106
-0.49078396 -0.24637987 -0.34225965 -0.28078666 -0.32651064 -0.33983698 -0.30676332 -0.15545677
-0.33548734 -0.11753165 -0.34855732 -0.2848796 -0.351003 -0.17698832 -0.375959 -0.14293398
-0.40304804 -0.18384108 -0.34785587 -0.1202681 -0.24973898 -0.2141571 -0.4890697 -0.1161389
-0.3411788 -0.09802102 -0.32012534 -0.30528504 -0.50405616 -0.24708192 -0.47998616 -0.2129564
-0.22780515 -0.24919929 -0.2646852 -0.2519163 -0.3228669 -0.257964 -0.30466646 -0.32645985
-0.72620344 -0.2545795 -0.20156734 -0.42211974 -0.28585133 -0.1873745 -0.17761703 0.05370673
-0.18922126 -0.4463812 -0.36704642 -0.34904405 -0.35713157 -0.18211108 -0.16815223 -0.13747051
-0.4693311 -0.26025143 0.26266038 -0.25883764 -0.05291107 -0.24556491 0.17764126 -0.15709996
-0.41534266 -0.13827918 -0.309963 -0.42022288 -0.19885804 -0.22932628 -0.3747168 -0.2504017

feature_layer.2.weight f4 [128, 128]
00000000: af4f c9bd 94d0 abbe 6f78 8dbe 1776 a13e
00000010: 2f2d 3e3e 10fb 92bd f34c bc3d 1a00 103d
00000020: 409c 753e cf79 923d 3f7c de3d 8cc7 533e
00000030: 2be5 143e 57d3 09be 8c8e 4b3e c21f f6bd
00000040: 088c 873e 489d e6bc 91b1 9c3f c48a c53e
00000050: e51b edbf de3a 803d 8c8c 993c 379b 483e
00000060: d3cc 9c3d 4bbc a0bc a7b9 c73e 06a3 6dbb
00000070: c470 c0be 6224 82be bc84 94be 7d1c e03e
00000080: ae6d d33d 2839 3dbe ab86 cc3b a166 1d3e
00000090: 6a9c 593e f01e e2bd c36f 5dbd 40ba a4be
000000a0: 9fb7 72bc 9278 bd3d a46f 06bd 8f88 5a3e
000000b0: 8811 b13e 27d2 43bc 3ce7 863f 01ee 0a3f
000000c0: 164d 9abf 2f22 46c0 d014 883d 0985 7a3d
000000d0: f12c f8be f64b 8bbd b142 a73d 37d9 a73d
000000e0: 50cb f9bd 933d 3e3d 34bd 12c0 f40e f43d
000000f0: 2f1c 50c0 ba53 d93e 1fa2 753f 73de ec3d
00000100: 6ba6 713f 7876 1dbe aeee 623c 9207 d53e
00000110: 18b1 fabf 5660 e43d 5830 053f fed0 803d
00000120: 3dd5 653e 4a3b 62bd 617f 1b3e 29c5 e23e
00000130: edfd c53f 0b30 f13d 9b43 dc3e 2813 303e
00000140: dc87 713f 0e74 8b3c 0107 f2bd 6f87 5ebf
00000150: b52a b93c f5a4 f93d 3f6f 463e 9afc 923e
00000160: e079 a33e cc42 c4be ed9c 4cbe 13d5 2e3e
00000170: 3de7 593d 9181 113e 3613 a83e f21f 8abf
00000180: dc79 c53e b2bc da3d a341 d7bc cec3 0a3e
00000190: 03db 1d3e d235 263d eec6 be3e 3e0d d6bd
000001a0: 8495 ca3e 6d51 40c0 c446 b93f e04e 4bc0
000001b0: 72d7 203f 3f8a 6fbd 87f8 f7bb 8d25 8e3d
000001c0: 10c9 cb3c cd93 dbbf 9407 bebc 9f9b 64be
000001d0: 5d31 803e 1d71 edbe 3503 8b3e 8c3a fabb
000001e0: 6893 d8bd 935a 7c3d 13a1 94bf 32f8 0a3d
000001f0: c48c 9d3d 25aa cebe 00da 28bd 9545 bdbe
00000200: 168f 713c e727 9abd 2e1b 97bd 2532 0ebe
00000210: d166 733d 1144 c9bd 4ea6 483d 7245 29bc
00000220: dc99 423d 1069 8c3d 0b0c 85bb 3ae1 babd
00000230: 15ff b73c 35d1 8d3d cde5 f63d ce54 28be
00000240: c163 27bc a16d 96bd 02f0 e53d 5567 96bd
00000250: 30f3 3bbd a010 1b3d 3e13 0dbe 9069 633c
00000260: 4282 8e3d 1c24 87bd 09e9 1fbe 9842 40be
00000270: 0b53 02be f6c5 1fbe 405a 413d 534a 57bd
00000280: dc8c 58bd bfa0 bd3d 8cab f13b a806 12be
00000290: 3651 aebc 05a1 113d acd7 98bd 616d 28bd
000002a0: 94f4 4cbd dd4e 07be b235 1bbe 7a12 d7bd
000002b0: a7f8 843d 1e7b e73d 3ddb fbbd ac32 8e3d
000002c0: d655 c8bd 727c 52bd 228f 6dbb ab4e 283d
000002d0: 6bb6 d13c a1fc 29be 1e2f 1b3c a927 2bbe
000002e0: fd97 ec3d 7450 d93d a2aa 22be 26d2 e93c
000002f0: 7ab3 ac3d 86d1 e6bd 17f0 073d c382 ddbd
00000300: f0b6 debd b330 b8bd 4500 85bd e8b2 15be
00000310: cbda 1c3c 2697 fa3d f9f4 863c a084 a2bc
00000320: 857c 36be e4f7 21bc 6833 c73d 5b4c 91bc
00000330: 4f18 173e 5847 e93d e8f4 443d 9dc0 2ebe
00000340: e2db 68bd 495f 93bd 782f 58bd 3be0 f8bd
00000350: 3fb5 98bd 8ff2 9fbd 7f3a 85bd c370 1ebe
00000360: 7dc5 02be e87e 3c3d 7e9a f23d 060f ed3d
00000370: e1e5 943d 53f9 39be ca06 6bbd 61e1 99bd
00000380: 8685 223d 151c 133e 9b96 953d e678 6f3d
00000390: 9113 d4bd 053c ce3d 297e 1ebe 9a95 14be
000003a0: 6b15 b13c aef2 c73d 3030 a23d 9a14 35be
000003b0: 4534 863d f391 9cbd e2a5 7bbc f5df d5bd
000003c0: 2328 0cbe 5935 35bd fe14 44bd cca0 7c3d
000003d0: 8170 0abe b8d1 67bd 8cce 433c b20a acbd
000003e0: c5ea 0ebe 2d0e 50bc f76c fb3b 505a 69bd
000003f0: 335a 2bbc 1442 c83d d267 313d a6dc b83b
-0.098296516 -0.3355757 -0.27630946 0.31535408 0.18571924 -0.071767926 0.091943644 0.035156347
0.23985386 0.071521394 0.10863542 0.2068159 0.14540546 -0.13459526 0.19878596 -0.12017776
0.26474023 -0.02815117 1.2241689 0.38582432 -1.8524138 0.06261228 0.018743776 0.1959046
0.076562546 -0.019621035 0.3900883 -0.00362605 -0.37586033 -0.25418383 -0.29007518 0.43771735
0.10323654 -0.18478835 0.0062416396 0.15371181 0.21251073 -0.11041057 -0.054061662 -0.32173347
-0.0148142865 0.092515126 -0.032821313 0.21341155 0.34583688 -0.01195196 1.0539317 0.54269415
-1.2054775 -3.0958364 0.06644595 0.06116203 -0.48471788 -0.06801598 0.08167017 0.08195727
-0.12196982 0.04644544 -2.292798 0.119169146 -3.2517202 0.4244669 0.959505 0.11565866
0.9439456 -0.15377223 0.013850851 0.41607338 -1.9585295 0.11151187 0.5202689 0.06289862
0.22444625 -0.055232324 0.1518531 0.44291046 1.5468117 0.117767416 0.4302033 0.17194808
0.9434793 0.017023113 -0.11817742 -0.86925405 0.022603372 0.12189666 0.19378375 0.28708345
0.3192892 -0.38332212 -0.19981737 0.17073469 0.05319904 0.14209582 0.32827157 -1.0790999
0.38569534 0.10680522 -0.026276415 0.13551256 0.15415578 0.04057867 0.37261146 -0.104517445
0.39567196 -3.0049698 1.4474721 -3.1766891 0.62828743 -0.05848145 -0.0075674686 0.06940756
0.024876148 -1.715448 -0.023196973 -0.2232499 0.2503766 -0.4637536 0.27150884 -0.007636374
-0.105749905 0.061609816 -1.1611656 0.033928104 0.076928645 -0.40364185 -0.041223526 -0.3696715
0.014743587 -0.07527142 -0.07378231 -0.13886316 0.059424225 -0.09827436 0.048986726 -0.010331498
0.047510013 0.068559766 -0.0040602735 -0.0912499 0.0224605 0.06924669 0.1205555 -0.164386
-0.010216654 -0.07345129 0.112274185 -0.07343928 -0.04588622 0.03785765 -0.13776872 0.0138801485
0.069584385 -0.06598684 -0.1561624 -0.18775403 -0.12726991 -0.1560286 0.04720521 -0.052561115
-0.05286871 0.092591755 0.0073751863 -0.14260352 -0.021278959 0.03555395 -0.07463011 -0.041119937
-0.050037935 -0.13213678 -0.15157202 -0.10501571 0.06492739 0.113027796 -0.12297676 0.06943259
-0.09781997 -0.05138821 -0.0036248644 0.04109065 0.025599679 -0.16600277 0.009471683 -0.16714348
0.11552427 0.10611048 -0.15885404 0.02854259 0.0843267 -0.11270432 0.033187952 -0.108159564
-0.10874736 -0.08993664 -0.06494192 -0.14619029 0.009573649 0.122358605 0.016474234 -0.019838631
-0.17820938 -0.009885762 0.09726602 -0.017736604 0.14755367 0.11390561 0.048085123 -0.17065664
-0.05685032 -0.071959086 -0.052779645 -0.121521436 -0.07456445 -0.07809936 -0.06505298 -0.15472703
-0.12770648 0.046019465 0.11845873 0.11575131 0.072704084 -0.18161516 -0.05737952 -0.07513691
0.03967812 0.14366181 0.07304116 0.058464907 -0.103552945 0.100700416 -0.15477814 -0.14510193
0.021616658 0.09763084 0.07919347 -0.1768364 0.06552938 -0.07645025 -0.015359374 -0.10443107
-0.13687186 -0.04424033 -0.047871582 0.061676785 -0.1351948 -0.056596488 0.0119511 -0.084004775
-0.13956745 -0.012698692 0.0076729017 -0.056970894 -0.010458517 0.097782284 0.0433119 0.0056415377

feature_layer.2.bias f4 [128]
00000000: fce2 da3e 7252 8cbd eb10 9b3e 7f8d a13e
00000010: 84f6 85bd 35da e33e 1fc4 1c3f c58d 02be
00000020: d10f 1c3f 9435 38bd 7bfe f8bd af96 32bd
00000030: b89e 303f 66af b3be a875 64be 34d3 043f
00000040: d39c 8cbc 2810 09be 47ec 0a3f db2c 053f
00000050: dd86 c9bd 6d17 053f 4144 41be 2ae2 1b3f
00000060: bc41 cabd 923b f43e 5a6f be3e b5da 09be
00000070: e44a 25be 1f8e dc3e de34 f63e a388 dd3e
00000080: 6a90 45bd 62a9 163e 5476 1a3e 11bd c93e
00000090: 993c 19bd 4116 1e3f 66c0 fb3e 3a96 2bbd
000000a0: 49c8 f7be 3d8e 97bd 73cb bd3e 1112 243f
000000b0: dd3d ee3e b190 1dbd 481d 05bd 1407 8c3e
000000c0: 5618 e1bd f9bd 63bc e7c4 d53e 8af8 1dbd
000000d0: b9e9 e73e ea10 133f c7d0 efbd 9d1c 083f
000000e0: f0db 76bd 9d99 0d3f 7888 afbd 5c35 a3bd
000000f0: d02b 80be c51c 26bd f3df 90bd 1c02 a1be
00000100: d119 113f d5e8 3abd 1538 82bd b1cd 283f
00000110: 38d1 f73e 9594 d33e e689 2fbd eabe fa3e
00000120: 2dd6 5dbd 4d0a 87bd d1f5 e23e 72a7 cf3e
00000130: f9af f83e 621a 113f 6347 41bd ab53 8ebd
00000140: 1c05 573e 3f3e 073f 0d40 a4be 66fd e93e
00000150: b55f 71bd 6663 f73e fb7b f8bd 6126 84bd
00000160: 6574 123f eb89 09be 9a83 073f c1c3 053f
00000170: 3c79 0f3f f2fe da3e 3be1 0a3f f83d 063f
00000180: fb76 84bd 6c00 143f 60f8 cdbd 71d8 ef3e
00000190: 1d79 073f 9756 08bd aa07 1a3f e725 fe3e
000001a0: bf83 68bd d4de 0b3f 8006 1c3f 03b8 113f
000001b0: 8a98 20bd 05ce 113f 6148 0abe a59b d6be
000001c0: f1b6 9dbd 9404 133f 1a03 053f e90e 62bd
000001d0: 7315 a2bc 0b24 eb3e f93d 1d3f f44f da3e
000001e0: cc00 533f 6818 ff3e fd19 7abe ab35 ed3e
000001f0: a580 d5bd 0182 54bc 7943 1d3f 2c66 113f
0.427513 -0.06851663 0.30286345 0.31553265 -0.0654116 0.44502416 0.6123676 -0.12749393
0.60961634 -0.04497297 -0.12157913 -0.043600734 0.68992186 -0.35094756 -0.22310507 0.5188477
-0.017164623 -0.1338507 0.5426678 0.5202157 -0.09840176 0.5198887 -0.18873693 0.60891974
-0.09875819 0.477017 0.3719433 -0.13462336 -0.1614185 0.4307718 0.4808721 0.43268308
-0.048233427 0.14713052 0.15084201 0.3940206 -0.037411306 0.61752707 0.49170226 -0.041891314
-0.48394993 -0.07400177 0.37069282 0.6409007 0.46531573 -0.038468067 -0.032498628 0.2734915
-0.1099097 -0.0139002735 0.41751787 -0.038567103 0.45295504 0.57447684 -0.11709743 0.5316866
-0.060268342 0.5531252 -0.08570951 -0.07969162 -0.25033426 -0.04055478 -0.07073965 -0.31446922
0.5668002 -0.045632202 -0.06358353 0.6593886 0.4840181 0.41324297 -0.04285612 0.4897378
-0.054159332 -0.065937616 0.44328168 0.40557438 0.48571756 0.5668088 -0.04718722 -0.06949552
0.20998043 0.52829355 -0.32080117 0.4570114 -0.058929164 0.48318022 -0.121330224 -0.06452633
0.57208854 -0.13431518 0.52935183 0.5225182 0.56044364 0.42772633 0.54249924 0.52438307
-0.06468006 0.57813144 -0.100571394 0.4684482 0.5291918 -0.033285704 0.60167944 0.49638292
-0.056766268 0.54636884 0.6094742 0.56921405 -0.039207973 0.56954986 -0.13504173 -0.41915622
-0.07700909 0.5742886 0.5195786 -0.05519 -0.019785618 0.45925936 0.6142269 0.42639124
0.8242309 0.49823308 -0.24423976 0.46330008 -0.104249276 -0.0129704485 0.6143108 0.56796527

value_stream.0.weight f4 [64, 128]
00000000: 2a09 d9bc 0bc8 643d cbfb 03be 04cd 5b3e
00000010: e680 533d 9af8 483e 29e8 143e f574 00bf
00000020: 6b77 d33e a957 86bc e69d 983e 734d a33c
00000030: 804d fa3d 3d6b b1bf 2219 9fbf e7be a93e
00000040: c0cb d03d 10a2 ecbd d1b8 aebc 4362 853e
00000050: 4e6c 1c3e 5cd8 5b3e 7e60 6ebf 5cf3 643e
00000060: 9858 24ba f28e acbd 202b 8cbc 970a 8ebd
00000070: 1b8b 92bf 2db4 813e f630 013e 3f56 813d
00000080: 8ad9 443e 1c41 b5bc 6d33 b63e d381 8f3d
00000090: bc31 f1bd 2c40 5a3e f40f 293e b4e3 d2bc
000000a0: 8215 16be 87e9 c43c e8b8 953e 08c8 073f
000000b0: 8e11 2d3c 4975 2dbd 5d67 eebd 82a0 4f3b
000000c0: b030 54bf f7a1 0a3e 81d0 c03d 7ddc 09be
000000d0: dc31 513e a118 753e 7e66 5cbf d72e 8a3e
000000e0: 0bb2 aebd 2f04 f03d 150e 2ebd 8279 9bbd
000000f0: 9d51 83bf d6a2 89bd ea0a 01be 7575 813d
00000100: f1ee c43e 1f52 193d 6310 1a3d 50a9 7c3d
00000110: 7f77 023e b5b3 06bd 6fdc 56be 8b5c b03d
00000120: fba9 eabd 5568 0e3d 67a9 d7bc 9dfc 093e
00000130: e77b 883e 6342 1f3e b614 6a3d 89c1 973c
00000140: 7b2d c83e 3709 a23d 5c64 ddbf e97a 9d3e
00000150: 2219 d5bd 6788 6a3e 4bd6 a5bc f310 bc3d
00000160: 9c97 e13d e74f 4cbe 2c43 fe3b 4971 563e
00000170: b12c 0a3e 2564 b8bd 51a1 683e 86e3 a13d
00000180: 62dc ffbd 630d fa3d 19a7 77bd 48a4 98bb
00000190: bedf 403e 9118 ffbc c5cc a43e cf99 bd3e
000001a0: aee2 813d 05a0 c13e b7c9 9d3e 9e86 a13e
000001b0: ff4d 333d a4a9 e23e fe31 81bf 523d 4ebe
000001c0: 5090 193e eb7c 943e 45f2 493e 2016 073d
000001d0: 8894 b4bd afa7 3a3e 71e8 823e 68cf 873c
000001e0: 62f4 123f 566c 3f3e fa1a babf bdbd 013d
000001f0: 7416 6638 6326 703d c541 d33e 240a aa3d
00000200: 8119 253d fa75 cb3d df45 bebe fb65 d63e
00000210: 7099 2c3c c6af c73d 2736 123e 0016 153e
00000220: 32da 50bd c16a a5bc 1d9c a33e 2a74 85bd
00000230: 3029 7b3e d740 b1bd 682e 20be 48b5 db3c
00000240: 182a f8bd b713 10be 32f9 f7bd 79c0 b23d
00000250: c4a1 73bd cdd2 7a3e 7212 1f3f f1f3 dfbc
00000260: 6d3e d4bd 127e 633d 46fd 01bd 9ee5 22be
00000270: 6301 8fbd 8795 c9bd 0741 2abe e153 4139
00000280: a538 1b3e d64b acbd b715 933e f687 b3bd
00000290: 69f5 b1bd a89b 823e 3ddf 4e3e b8ac c23d
000002a0: 08e4 42bd 0444 3f3e 862a 8e3e 073e 743e
000002b0: a4b6 153e 8006 f33a 7c1a 13bd 2000 ea3c
000002c0: 6576 093d eeae 91bd 2233 df3c 5998 03be
000002d0: abc2 093d d5a9 763e 44a4 f93d 7ce2 0dbd
000002e0: 4bb4 99bc b97a 7e3e 3b69 453d 1277 5f3c
000002f0: 0c0e fa3d 5da2 0e3d b637 0f3e 590b 103e
00000300: cfae b83e c99c 103e 7f5a c2b9 005e 7b3e
00000310: 3f4e 9e3d f80c f83d 60c0 9cbe ee5b ecbd
00000320: 8dbb e0bc 5d6e f53d cc02 7abd c01b d7bd
00000330: b1e8 053e e439 473e eb78 dc3c 5dfe 303e
00000340: 9a3b ce3e 056a a73e 12d2 8f3e 123a b13d
00000350: fd0c 24be 5f07 043e e8e2 273d 2a3c 1cbd
00000360: 6114 c83c df71 2dbe 2729 3abd e828 773d
00000370: b689 4f3e e98c d7bd bff1 053e 616a c23c
00000380: 2948 77be 8e50 3d3e db3a 713e 6d12 033e
00000390: d0a8 0d3e ee52 cabc 2571 4f3e 797d 4a3e
000003a0: 47fe d9bd 19ff 9d3e b97a e8bd d75b 363e
000003b0: de2a b2bd 0eee a23e 0fa4 8f3e 42a8 2ebd
000003c0: de72 a7bd 171d 513e 9313 dabd 944d 09bc
000003d0: 0e3d 13be bac8 f63c 7b8e 953e b177 893d
000003e0: fd63 4f3e d259 edbd 0c91 a43e d377 2bbe
000003f0: 5df5 0ebd b6b7 193e 3aac 293e 9785 b0bd
-0.026493628 0.05585484 -0.1288902 0.21464926 0.0516366 0.19626084 0.14541687 -0.5017846
0.41302046 -0.016399221 0.29807967 0.019934392 0.12221813 -1.3860852 -1.2429545 0.3315346
0.10195112 -0.115543485 -0.021328362 0.2605153 0.1527569 0.21469253 -0.93115985 0.22358459
-0.0006269305 -0.08425702 -0.017110407 -0.069356136 -1.1448702 0.25332776 0.12616333 0.06315278
0.1922361 -0.022125773 0.3558611 0.07007184 -0.11777064 0.21313542 0.16509992 -0.025743343
-0.14656642 0.024037136 0.29242635 0.530396 0.010563267 -0.04234818 -0.11640809 0.0031681363
-0.8288679 0.13538347 0.09414769 -0.13463016 0.20429176 0.23935176 -0.8609389 0.2698886
-0.08530053 0.11719548 -0.0424939 -0.07591535 -1.0259281 -0.067205116 -0.1260182 0.06321231
0.38463548 0.037431832 0.037613284 0.061684906 0.12740897 -0.032886226 -0.20982526 0.08611401
-0.114582025 0.034767468 -0.026325895 0.1347527 0.2665703 0.15552668 0.057148658 0.018524902
0.390972 0.07911914 -1.7296252 0.30757836 -0.10405184 0.22903596 -0.020243784 0.0918292
0.11015245 -0.19952355 0.0077594724 0.20941652 0.13493611 -0.09003476 0.22717787 0.07904725
-0.124932066 0.122095846 -0.06046209 -0.0046582557 0.18835351 -0.031139644 0.32187477 0.3703141
0.06342064 0.37817398 0.3081796 0.31548017 0.043775555 0.4427005 -1.0093381 -0.2014058
0.14996457 0.29001555 0.19721325 0.032980084 -0.088173926 0.18228029 0.25567964 0.016578391
0.5740415 0.1869367 -1.4539483 0.03167509 5.4857184e-05 0.05863036 0.41261116 0.083027154
0.040307526 0.099346116 -0.37162682 0.4187468 0.010534629 0.09750323 0.1427847 0.14559174
-0.050989337 -0.020192506 0.31955042 -0.06516297 0.2452743 -0.08654945 -0.15642703 0.02681984
-0.12117404 -0.1407002 -0.12108077 0.087281175 -0.059480444 0.24494477 0.6213752 -0.027338
-0.10363469 0.055540152 -0.03173568 -0.15907905 -0.06982686 -0.09842973 -0.16626368 0.00018437162
0.15158327 -0.08412902 0.28727505 -0.08766167 -0.086893864 0.2550938 0.20202346 0.095056
-0.04758075 0.1867829 0.27766818 0.23851787 0.14620453 0.0018541366 -0.03591393 0.028564513
0.033560175 -0.07113443 0.027246062 -0.12851085 0.033632915 0.24088223 0.12189534 -0.03463982
-0.018762728 0.24851502 0.04819606 0.013639228 0.122097105 0.03482281 0.13986096 0.14066829
0.36070868 0.14122309 -0.00037069988 0.24547577 0.07729768 0.121118486 -0.3061552 -0.11540972
-0.027433181 0.11983941 -0.061037824 -0.1050334 0.13077046 0.19455677 0.026913127 0.17284532
0.40279847 0.32698074 0.28089958 0.08653654 -0.1602058 0.12893437 0.04098788 -0.038143314
0.02442378 -0.1693797 -0.045449402 0.060341746 0.20267376 -0.10524923 0.130805 0.023732366
-0.2414862 0.1848776 0.23557608 0.12799998 0.13833928 -0.024697747 0.20258005 0.19774427
-0.10644203 0.30858687 -0.113515325 0.17808472 -0.086995825 0.31822246 0.28054854 -0.042640932
-0.08176206 0.20421253 -0.10648265 -0.0083803125 -0.1437876 0.03012501 0.29210266 0.067122824
0.20252986 -0.115893975 0.32141912 -0.16744928 -0.034901965 0.15011486 0.16569605 -0.0861923

value_stream.0.bias f4 [64]
00000000: 2832 6c3f 5359 513f 7853 56bd 773e a23c
00000010: b9c3 243e c177 423f 18ad 733f d528 553f
00000020: 5e41 a0bc 35df 123d 7c6d 603f 54de efbd
00000030: a195 e73e 4dfe b2bc 693d 563f c105 723f
00000040: 2cc3 213f 65d7 2d3d 0c3e d8bc 10ad 503f
00000050: 3ac8 84bc 5b4b 003f 5662 653f 0c18 873d
00000060: 02db 6c3f 7539 6a3f 7c8c 6f3f 4364 2cbd
00000070: d303 253e 1c46 453f 86d4 0bbd 0952 6d3f
00000080: 3357 0bbd 7768 babc dad5 aebd 6494 0c3f
00000090: 10e5 b9bd 98d0 26bd 211a 523f 528a 703f
000000a0: 77b6 b7bd 19c3 3c3f b92b 6b3f cac3 c03e
000000b0: 4a0a 12bd d754 51bd 4401 adbc 5b5c 6f3f
000000c0: bc06 683f 4d30 1d3e 0bb7 723f c414 e5bc
000000d0: b609 553e aafa 613e 7173 493f ad54 30bd
000000e0: b3b7 533c 4fc1 b9bd cde3 6cbd de9e 563f
000000f0: c109 ef3d 498c 53bc 44ab 46bd 09a7 973d
0.9226403 0.8177692 -0.052325696 0.019805176 0.16090287 0.7596398 0.95185995 0.8326543
-0.01956242 0.035857398 0.8766706 -0.117123276 0.45231345 -0.021849776 0.83687454 0.9454003
0.63188434 0.042441744 -0.026396774 0.8151407 -0.016208757 0.50114983 0.89603174 0.065963835
0.9252168 0.9149392 0.9357374 -0.042087805 0.1611474 0.77060103 -0.034138225 0.927033
-0.034018707 -0.02275489 -0.08536883 0.54913926 -0.09076893 -0.040726274 0.8207112 0.9396106
-0.08970349 0.73735195 0.9186359 0.37649375 -0.035654344 -0.0511063 -0.021118768 0.935003
0.90635276 0.15350457 0.9481055 -0.027964003 0.20804486 0.22068277 0.78691775 -0.043049503
0.012922215 -0.09070074 -0.057834435 0.8383616 0.11671782 -0.012911865 -0.048503175 0.07404906

value_stream.2.weight f4 [1, 64]
00000000: e209 c33e 17a9 1f3e 521f 65be 71ba b63d
00000010: bb77 a7bf 840f 7b3e e4ab fd3e f021 443e
00000020: 0693 81be 04bf c7bf 9f3f 7b3e 78e4 23bf
00000030: a5e5 acbf 8498 57be e95a 0d3e cca3 ec3e
00000040: b5f7 76bb 08ed aebf 5b24 26be 0e7f c23e
00000050: bafe 54be 30cb a1bb eb09 a83e ceed a0bf
00000060: 5306 bd3e cbf3 ad3e 58a7 cd3e 0c7d 80be
00000070: 86f0 8abf fadb 823e e7dc 4bb9 2279 c33e
00000080: f549 013d 5ab1 00bd 4da6 d8bd ff5f 91bb
00000090: 0836 aeba fb9a 88bc 52b5 ba3e 5700 f03e
000000a0: 143f bf3b 2516 313e 5e96 bd3e 09ce c3bf
000000b0: 8e49 57be 1a4c 323a 0765 43be d8f8 c23e
000000c0: f632 ab3e ab26 4cbf 903a f33e 496f d8bd
000000d0: 2673 9ebf 2dd8 93bf c48b 743e f2f2 dabd
000000e0: e83e d0bf b1e4 07be 6f37 0ebe 9835 ec3e
000000f0: 238e 80bf 9a67 47be fbf6 b9bd 7cae 97bf
0.38093477 0.15591846 -0.22375229 0.089222796 -1.3083414 0.24517637 0.49545205 0.19153571
-0.25307482 -1.5605168 0.24535988 -0.6402049 -1.3507582 -0.21054274 0.1380421 0.46218717
-0.0037684266 -1.3666086 -0.16224806 0.3798756 -0.20800295 -0.004937552 0.32820067 -1.2572572
0.36918887 0.33975062 0.40166736 -0.25095403 -1.0854652 0.25558454 -0.00019441881 0.38178355
0.03156467 -0.031419136 -0.10578594 -0.0044364925 -0.0013291249 -0.016675463 0.3646646 0.4687526
0.005836377 0.17293604 0.37028784 -1.5297252 -0.21024153 0.0006801501 -0.19081508 0.38080478
0.33437318 -0.797465 0.47505617 -0.10568101 -1.237889 -1.1550347 0.23881441 -0.106908694
-1.6269197 -0.13270833 -0.13888334 0.4613464 -1.0043377 -0.19473115 -0.09080311 -1.1850123

advantage_stream.0.weight f4 [64, 128]
00000000: 4133 e73e 1610 ba3c baff 653d b1c9 6bbb
00000010: bd98 143e 81aa 143e 3b5d 923d 1fe5 533e
00000020: 42c3 673e 6f99 04be b7e9 84bf 963d 8d3d
00000030: 3565 44be 8a3f 27bd 88f0 b8be 5ce3 e7bd
00000040: 6ff6 fcbd 9c0a b2bd 0cfb 01c0 a1f7 bb3e
00000050: 30ae 103e e0d9 16bf 2fae 2b3f 7c13 00c0
00000060: 722d 3b3e 1ce8 e7bf a97d f73d 4aa5 c73d
00000070: ec3e 5a3b 053a 1dbf 386b f8bf 72a2 e33e
00000080: 1b1b 153e 1bcb 95be 4146 023e 11e4 e1be
00000090: eb16 c6bc 1844 3fbf d9d4 70bf f18f 873b
000000a0: a686 17bd 8139 253e 2ad0 8ebe 2e32 ec3d
000000b0: d5e4 a8bf 332b d5bd aaeb bfbd a3e4 793e
000000c0: 9825 9f3d 5441 293c 8e53 37bf 58be 8fbd
000000d0: e1d8 74bf 89fd 193e 846c e4be 140b 11be
000000e0: 3536 19be 1070 65bf 9891 4c3d 2792 44bc
000000f0: f0ea 7b3e fde2 663d 3c28 dd3d e80c 7b3e
00000100: 8cd5 08bf 0c79 133e 8f41 1e3d 5d56 2f3d
00000110: 6685 c53e c6bc fcbe eeea c7bf 24a9 e33e
00000120: fd6c 0fbe a850 c6bd 964e 3ebe a017 5ebf
00000130: ec9d fabd d51e 7cbf a340 8ebc d2b8 18be
00000140: 7082 40bf d48e dc3e 9f69 ccbd 1530 2d3e
00000150: f597 313e f31b 29bf a47a c43d e8a3 0bbe
00000160: 26ac c5be 9f33 123e 4d6a e93d 7c50 c6bf
00000170: c372 1ac0 6615 37bf 2d1b 723e ef9d 27bf
00000180: 8e4b 063f 03f7 c6bf 4a45 ccbe 4259 453e
00000190: 2729 0ac0 83f8 c13d 6f55 8bbf 2467 e8be
000001a0: e2b5 2a3e d4d9 78bd 3b19 19bf f77f 02be
000001b0: b9d1 09be 07ae 39bd 6efe 28be dacd a1be
000001c0: 6376 0ebe cb65 01c0 6daa 07be 6fa9 283e
000001d0: dee6 0d3e dcf1 1cbd a229 15bf 8ca2 bbbe
000001e0: 4aca 7bbf 3f71 ea3d 7f4b 8b3e 8050 2dc0
000001f0: 3c7c 573e 0bf0 7dbd a52e 473e 3b34 07c0
00000200: b5c5 28be 209e 753c a15b 223e c767 183e
00000210: a8b3 2abd dae0 353d 2b69 32be 4afd eebd
00000220: 300f 013e 519f c43c 2823 273d cad6 a43c
00000230: 1e83 8dbd bf66 0b3e 5380 203e e791 893d
00000240: 470f 213e 0767 473d 4baa 023e 7aa0 f7bd
00000250: 136d 743d a7b4 08be fe2a fabc 5f83 01be
00000260: 59c7 6b3d ff80 35be 2f74 6fbd 8ad8 8bbd
00000270: f3ca e03d 787d 18be 5009 bdbd 2f41 143e
00000280: cded 9b3d fb84 db3d a6c7 213e c10b d6bd
00000290: 936a 323d 60e5 0cbe 8a07 96bd 3afe fcbc
000002a0: 8ba1 b5bd 488f 163d 690f 013d 6907 e73c
000002b0: e1df b53d 899b 98bc 8ff1 0d3e 280b 92bc
000002c0: 4282 df3d 862a 083e f0fb 203e 539b aebd
000002d0: 783e 96bd 316f 13be 8201 a5bd 86e9 223e
000002e0: d647 8bbc e2b8 d0bd a2f9 11be 8abf 0abe
000002f0: 7a6f d9bd 802d 733d 28b6 c5bd b25f 88bd
00000300: 92ca 1bbe ca89 1bbe 8eca d2bd 3c61 2fbe
00000310: 819c 97bc cc75 95bd be12 aebd 2d0b e5bd
00000320: 9916 673d e096 8c3d c728 1dbd 6b3e 383d
00000330: 4795 1f3e f642 65bd 6dee d0bd 7c36 cd3d
00000340: 94a3 34bd 1c60 96bd 82d5 d93d e0a5 473d
00000350: 7806 f7bd 7934 1c3d 575f 9c3d f46d 293e
00000360: 4c08 dabd 3e00 b73d 6103 6abd 91b0 983c
00000370: 895d 2abe 5367 29be 438f c03d ab3b 56bb
00000380: a017 9d3d 2b19 e4bd 0f89 023e 6ee8 90bd
00000390: 4042 e7bd 77eb 193e 943c ddbd 5075 0bbe
000003a0: e1f0 14be af5b 953d dbf6 69bc b64a 1abc
000003b0: 3a63 3f3d 9e31 63bd 79ae d93c 6861 c8bd
000003c0: b3f1 39bd c8d5 be3d cce2 af3c 7b3d f93d
000003d0: c7df 283e 2785 f53d b32d 98bd 2fcf 19be
000003e0: 8c28 a3bd b225 acbc e522 203e f8c6 4d3c
000003f0: 1a5b e6bc cfdc 023e e48d 893d 20de 0b3e
0.4515629 0.022712748 0.056152083 -0.0035978372 0.1451139 0.14518167 0.071466886 0.20692872
0.22633079 -0.12949155 -1.0383824 0.06896512 -0.19179232 -0.04083208 -0.3612101 -0.11322662
-0.12351691 -0.0869343 -2.0309477 0.36712363 0.14128947 -0.589262 0.6706266 -2.0011892
0.18279055 -1.8117709 0.12084515 0.09748323 0.0033301665 -0.61416656 -1.940772 0.44459873
0.14561121 -0.2925652 0.12722112 -0.44119313 -0.02418085 -0.7471328 -0.9407478 0.004137032
-0.036993645 0.16135217 -0.27893192 0.115330085 -1.3194834 -0.1040863 -0.09371121 0.24403624
0.07770842 0.010330517 -0.7161187 -0.07018727 -0.9564343 0.15038122 -0.4461404 -0.14164382
-0.14962085 -0.8962412 0.049943537 -0.011997736 0.2460134 0.056368817 0.1079869 0.24516642
-0.53450847 0.14401644 0.03863674 0.04280697 0.38578337 -0.49362773 -1.561857 0.44464982
-0.1400642 -0.09683353 -0.18584666 -0.867548 -0.122371525 -0.98484546 -0.017364806 -0.14914253
-0.7519903 0.4307772 -0.09981083 0.16912873 0.17343123 -0.6605827 0.09593704 -0.13636744
-0.386079 0.14277504 0.113972284 -1.5493312 -2.4132545 -0.71517026 0.23643179 -0.6547536
0.5245904 -1.5544132 -0.39896613 0.1927233 -2.1587617 0.09471228 -1.0885447 -0.4539119
0.16670945 -0.060754612 -0.59804124 -0.12744127 -0.13458909 -0.04533198 -0.16503307 -0.31602365
-0.13912348 -2.021838 -0.13248606 0.16470884 0.138576 -0.038316593 -0.5826665 -0.3664745
-0.98355544 0.11447381 0.27206036 -2.7080383 0.21043485 -0.0619965 0.19451387 -2.112563
-0.16481669 0.014991313 0.15855266 0.14883338 -0.04167524 0.04440389 -0.17422931 -0.11669405
0.1260345 0.02400175 0.040805012 0.02012195 -0.06909774 0.13613413 0.15673952 0.06717282
0.15728484 0.04868224 0.12760274 -0.12091155 0.059674334 -0.13350163 -0.030538078 -0.1264777
0.05756316 -0.1772499 -0.05846041 -0.06828411 0.109762095 -0.14891613 -0.09230292 0.1447799
0.07613716 0.107187234 0.15798816 -0.10451461 0.04355867 -0.13759375 -0.07325657 -0.030882943
-0.088687025 0.036757737 0.031508837 0.028201776 0.08880592 -0.018628852 0.13861679 -0.017827585
0.109135166 0.13297471 0.15721107 -0.085257195 -0.07336134 -0.14397885 -0.08056928 0.15909395
-0.017002027 -0.101915136 -0.14255384 -0.13549629 -0.106169656 0.059369564 -0.09653884 -0.066588774
-0.15213993 -0.15189281 -0.102925405 -0.17126936 -0.018507244 -0.072978586 -0.084996685 -0.11183772
0.056418035 0.068647146 -0.038368966 0.0449814 0.15584289 -0.055972062 -0.10201726 0.10020158
-0.044101313 -0.0734255 0.106364265 0.048742175 -0.12061781 0.03813598 0.07635372 0.1654585
-0.10646114 0.08935593 -0.05713213 0.01863888 -0.16637243 -0.16543321 0.09402325 -0.0032689373
0.07670522 -0.11137613 0.12747596 -0.070755824 -0.11291933 0.15031229 -0.1080257 -0.1361897
-0.14545013 0.07292878 -0.014280046 -0.009417227 0.04672549 -0.05546724 0.026572453 -0.09784204
-0.045396518 0.09318119 0.02147045 0.121699296 0.16491614 0.119882874 -0.074305914 -0.1502044
-0.07966718 -0.021014068 0.15638311 0.012559645 -0.028119612 0.12779544 0.067165166 0.13658953

advantage_stream.0.bias f4 [64]
00000000: ee49 173e 11d4 65bb 2496 113d e864 183e
00000010: 03f2 0e3d 0b99 173d e34c 0dbd 77f3 0dbe
00000020: 8389 09bb 8a35 ae3e b287 eb3e 0cac b1bd
00000030: 5d4c 003f f332 ebbd fb9d 63bd 6e73 e43d
00000040: 2fd4 babc dabb 873d ec86 853d cf9f 88bd
00000050: f435 17bd a2aa 87bd 1a25 2d3e 22ae a6be
00000060: f962 72bd 5a1a 86bd 41b5 3abd 11f0 39bc
00000070: 88d6 213d e627 bb3d c96b 7c3d 07ab 2d3e
00000080: bfa8 3dbe c1c7 c4bd 8344 c3bc 7ecd ff3d
00000090: e366 02be e37f 09be d205 57bd f4a0 553e
000000a0: 5c90 5cbc 16e1 bebd 3a7d cc3e 9378 6cbd
000000b0: b9f8 ff3d 5118 203e be6c 493e ca77 f83d
000000c0: bc71 06bd 4a99 ad3c f3ec b3bc 9020 00be
000000d0: 8772 47bc b75c 32bd 693c 0ebd b898 97bd
000000e0: 807d c8bc 5b05 b33d ba78 a5bc 5a02 53bd
000000f0: 9e95 94bc af70 97bd 8058 81bd 58c4 44bd
0.14774296 -0.0035069028 0.035543576 0.14882243 0.03489877 0.037011188 -0.034497153 -0.13862406
-0.0020986504 0.34025222 0.46001965 -0.086753935 0.5011652 -0.11484327 -0.055570584 0.11154829
-0.022806255 0.06627627 0.06519875 -0.06671106 -0.036916688 -0.066243425 0.16908684 -0.32554728
-0.05917642 -0.06547995 -0.045583013 -0.01134874 0.039511234 0.091384694 0.06162623 0.16959773
-0.18521403 -0.096084125 -0.02383638 0.124903664 -0.1273456 -0.13427691 -0.052495785 0.2086218
-0.013462152 -0.093202755 0.3993929 -0.057732176 0.12498612 0.15634276 0.19670388 0.12132223
-0.03282331 0.021191258 -0.021963572 -0.12512422 -0.012173302 -0.04354545 -0.03472558 -0.07402176
-0.024473906 0.08741256 -0.020199168 -0.051515914 -0.01813775 -0.073945396 -0.06315708 -0.04803881

advantage_stream.2.weight f4 [2, 64]
00000000: 6205 753f 4769 843d ff06 d33d 3450 123f
00000010: 501c 8ebe d0bd b6be 0038 4fbe c105 1a3e
00000020: b1ec 8f3e ffd2 963f a2c4 473f 57d0 99bd
00000030: 7f10 97bf c84f 1b3c 9fd2 d8bc 8d2c 393e
00000040: 96de eabc c008 713c e00a 7e3c 0405 57be
00000050: 4371 35be df55 c2bd 07f7 a23f c2c3 56bc
00000060: 5e5f 49be 7963 bf3d a3d3 4e3e 650e dd3d
00000070: bf3f babd ed5b aabf 4b12 263d 13cb c23e
00000080: 0769 0d3e b11c 023e 2803 56be c05e 4ebf
00000090: 6b7a 9c3e 5d02 7a3e d820 3c3e 2c74 923f
000000a0: 9664 153d 244e 253e 39bb 893f 063e 223f
000000b0: 6ea8 313f 5c3b 343f e556 93bf 90be 27bf
000000c0: 530d b03d f173 4ebb a650 c3be 3d3c b9bd
000000d0: 368a 6c3d 5030 3b3e 7732 9fbe 9868 20bd
000000e0: 5815 163e b338 0b3e ae0f 1c3d 3a92 a9bd
000000f0: 7586 52bd 6b42 203e c996 513f 73cd eebc
00000100: fe3b e0be b10f 82be 93b5 9dbd a4e3 4dbf
00000110: 0ba0 6f3e fce4 983e c390 1abe 8e4c 263e
00000120: 5a5e 9e3b fd68 91bf 42dc 4cbf 0734 323d
00000130: ab70 bb3f 1dfa c53c 487a 7f3b c17f 1dbe
00000140: cc24 90bd df3f abbd 9aa8 3ebe 33c8 323e
00000150: f3dc 28be 43a0 4b3d 876b 89bf 519d 55bd
00000160: 7bee 123e 078b c53d 353d 9b3d 23d9 f53d
00000170: c127 0b3e b905 b63f ef28 ffbc 05d5 71be
00000180: de7d e33d f39f 013e 2264 34be f20f 6b3f
00000190: 1fd5 c0be bff4 633e 3691 0abe 9fa0 81bf
000001a0: fc28 5f3e 6f46 863e 69d1 7fbf 6ee4 93be
000001b0: 00fa 2bbf 55d3 94bf 535d ae3f 8d42 d13e
000001c0: 691a 5bbe 161a 9bbe 894a 03be f953 f2b9
000001d0: 05cd aa3e 7c0c 6c3e 7e78 8fbe 8993 aebd
000001e0: 721e 9c3e 8a1b c4be a713 3f3b faff 49bc
000001f0: 5d2c d3bd 09a9 12be d5f7 00bf 763d d5bd
0.9571134 0.064653926 0.10304069 0.5715363 -0.27755976 -0.3569169 -0.20236206 0.15041257
0.2811027 1.1783141 0.7803441 -0.07510441 -1.1801909 0.009479471 -0.02646762 0.18083401
-0.02867059 0.014711559 0.0155055225 -0.20998007 -0.17718987 -0.09489035 1.2731637 -0.013108196
-0.19665286 0.09345145 0.2019792 0.10793761 -0.0909419 -1.3309304 0.04054479 0.38045558
0.13809596 0.12706257 -0.20899642 -0.8061333 0.30562147 0.24414964 0.18371904 1.1441703
0.03647288 0.1614309 1.0760261 0.6337589 0.6939763 0.70403075 -1.1510893 -0.6552515
0.085962914 -0.0031502212 -0.38147467 -0.09044693 0.057748996 0.18280149 -0.3109319 -0.03916225
0.1465658 0.13595848 0.03810089 -0.08279844 -0.05139776 0.15650336 0.81870705 -0.0291507
-0.4379577 -0.25402597 -0.07700648 -0.8042548 0.23400895 0.298622 -0.15094285 0.16240141
0.004833025 -1.1360165 -0.80023587 0.04350665 1.4643759 0.024167115 0.0038982797 -0.15380765
-0.070382684 -0.08361792 -0.18619004 0.17459182 -0.16490535 0.049713384 -1.073594 -0.05215198
0.14348786 0.09645658 0.07580034 0.12004306 0.13589384 1.4220496 -0.031147448 -0.23616417
0.11107992 0.12658672 -0.17616323 0.91821206 -0.37662598 0.22261332 -0.13531956 -1.0127143
0.21792978 0.26225612 -0.9992891 -0.28885216 -0.67178345 -1.1626993 1.362223 0.40871087
-0.21396793 -0.3029334 -0.12821402 -0.000462204 0.33359542 0.23051637 -0.28021616 -0.08524234
0.30491978 -0.3830226 0.0029156 -0.012329096 -0.10311196 -0.14322294 -0.5037816 -0.10412113

advantage_stream.2.bias f4 [2]
00000000: 99a6 f2bd 99a6 f23d
-0.11848182 0.11848182

exp_avg f4 [128, 4]
00000000: 0400 0080 0400 0080 0400 0000 0400 0000
00000010: e6bf 8039 2ecb 8d39 6e91 1a39 d24b d539
00000020: 0400 0080 0400 0080 0400 0080 0400 0080
00000030: ea5b 303c ace7 04bd f091 2f38 89d3 443c
00000040: 6d08 923a 2c95 8cb9 23a4 80ba 53f4 77b8
00000050: 0400 0080 0400 0000 0400 0080 0400 0080
00000060: 0400 0000 0400 0080 0400 0000 0400 0080
00000070: a6d5 9fbb babd d7bb 0592 e639 57df d83a
00000080: 0400 0080 0400 0000 0400 0000 0400 0080
00000090: 0400 0080 0400 0080 0400 0000 0400 0000
000000a0: 0400 0000 0400 0080 0400 0080 0400 0000
000000b0: 0400 0000 0400 0080 0400 0080 0400 0000
000000c0: 0400 0000 0400 0080 0400 0080 0400 0080
000000d0: 3430 deba 3c50 543a 9d0b d339 b0f4 203b
000000e0: 0400 0080 0400 0080 0400 0000 0400 0000
000000f0: 0400 0080 0400 0080 0400 0080 0400 0080
00000100: e000 4f3c 90a0 2cbd 3209 c338 28e6 713c
00000110: 0400 0080 0400 0000 0400 0080 0400 0080
00000120: cd08 a73c 8980 ca3b 3996 fcba fe3b 4dbc
00000130: f87c 4838 5c96 36b9 46f4 bc37 c899 d137
00000140: 60d7 333a b0e4 a6bb a60b b939 cdef 523b
00000150: e75c 163b fedd d7ba 510d 0eba 10da 2abb
00000160: 0400 0080 0400 0080 0400 0080 0400 0000
00000170: 0400 0000 0400 0000 0400 0000 0400 0080
00000180: 931f e93c a62a 073d a2d7 7abb cbf0 6dbc
00000190: 0400 0000 0400 0000 0400 0080 0400 0080
000001a0: 0400 0080 0400 0080 0400 0000 0400 0000
000001b0: 0400 0080 0400 0000 0400 0000 0400 0000
000001c0: c04f 3cba 7796 3cbb 1fa2 8139 3a8e 713b
000001d0: 0400 0000 0400 0000 0400 0000 0400 0080
000001e0: 0400 0080 0400 0080 0400 0080 0400 0080
000001f0: a5f1 713a d3e5 1eb9 5620 c2ba 84f8 dbb9
00000200: 0400 0000 0400 0080 0400 0000 0400 0000
00000210: 0400 0000 0400 0000 0400 0080 0400 0080
00000220: 4300 0080 2800 0080 0500 0080 4600 0080
00000230: 0400 0080 0400 0080 0400 0000 0400 0000
00000240: 6efd dd3b 1755 553c 0a37 953a 3005 383a
00000250: 38ea b0bb 7e6b 8abb 7712 2739 7fa5 6c3a
00000260: 0400 0080 0400 0000 0400 0000 0400 0080
00000270: 9807 9dba a654 f83a c476 c6b8 8af8 48bb
00000280: 0400 0000 0400 0080 0400 0080 0400 0000
00000290: 5e41 3698 a115 1618 d640 c116 3490 2796
000002a0: 145d 88bb 128f 9bbb 0334 76b8 0d15 fbba
000002b0: 0400 0000 0400 0080 0400 0080 0400 0000
000002c0: 5800 0080 3700 0080 0800 0080 5e00 0080
000002d0: 0400 0000 0400 0080 0400 0080 0400 0080
000002e0: ee2a 06bd 6492 223b ecbc e9ba 0217 b9bb
000002f0: 7ee5 2a3b 5748 873b bc45 86ba e03a e2bb
00000300: cb61 9739 4c17 9b3a f0a5 4036 227e 4139
00000310: 694a 07bb 90e1 f3bb 359e 833a 9056 593c
00000320: 0400 0080 0400 0080 0400 0000 0400 0000
00000330: 0400 0000 0400 0000 0400 0080 0400 0080
00000340: 0400 0080 0400 0080 0400 0000 0400 0080
00000350: 0400 0080 0400 0080 0400 0000 0400 0080
00000360: 0400 0000 0400 0080 0400 0080 0400 0000
00000370: cbbe b23b eaa4 823b b214 42ba e016 83bb
00000380: 0400 0080 0400 0080 0400 0080 0400 0000
00000390: 0400 0080 0400 0080 0400 0080 0400 0000
000003a0: cd4a 9b38 090e 8fbb c9d7 013a cd92 e83b
000003b0: 0400 0080 0400 0080 0400 0000 0400 0080
000003c0: 384a 17b8 5940 d7bb 739c 453a cd88 2b3c
000003d0: 4801 243c 56a8 e53b 7418 b1ba 79fb f4bb
000003e0: 03a5 763c 497a 363c fad1 07bb c0ba 3dbc
000003f0: 0400 0000 0400 0080 0400 0000 0400 0000
-6e-45 -6e-45 6e-45 6e-45 0.00024557038 0.00027044996 0.00014740761 0.00040683016
-6e-45 -6e-45 -6e-45 -6e-45 0.0107641015 -0.032447502 4.1859166e-05 0.012013325
0.0011141427 -0.00026814023 -0.0009814542 -5.9116934e-05 -6e-45 6e-45 -6e-45 -6e-45
6e-45 -6e-45 6e-45 -6e-45 -0.004877764 -0.0065838965 0.00043977812 0.0016546053
-6e-45 6e-45 6e-45 -6e-45 -6e-45 -6e-45 6e-45 6e-45
6e-45 -6e-45 -6e-45 6e-45 6e-45 -6e-45 -6e-45 6e-45
6e-45 -6e-45 -6e-45 -6e-45 -0.0016951622 0.0008099114 0.0004025371 0.0024559908
-6e-45 -6e-45 6e-45 6e-45 -6e-45 -6e-45 -6e-45 -6e-45
0.012634486 -0.04214531 9.300037e-05 0.014764346 -6e-45 6e-45 -6e-45 -6e-45
0.020389939 0.0061798734 -0.0019270844 -0.01252651 4.7800102e-05 -0.00017412886 2.2525095e-05 2.4986351e-05
0.00068604015 -0.0050931796 0.00035294628 0.003218639 0.0022943558 -0.0016469357 -0.00054188544 -0.0026069917
-6e-45 -6e-45 -6e-45 6e-45 6e-45 6e-45 6e-45 -6e-45
0.028457439 0.032999657 -0.00382755 -0.014522742 6e-45 6e-45 -6e-45 -6e-45
-6e-45 -6e-45 6e-45 6e-45 -6e-45 6e-45 6e-45 6e-45
-0.00071835145 -0.0028776207 0.00024725587 0.0036858455 6e-45 6e-45 6e-45 -6e-45
-6e-45 -6e-45 -6e-45 -6e-45 0.0009229428 -0.0001515367 -0.0014810662 -0.00041956094
6e-45 -6e-45 6e-45 6e-45 6e-45 6e-45 -6e-45 -6e-45
-9.4e-44 -5.6e-44 -7e-45 -9.8e-44 -6e-45 -6e-45 6e-45 6e-45
0.006774596 0.013020775 0.0011384201 0.0007019816 -0.005399015 -0.00422424 0.0001593324 0.00090273464
-6e-45 6e-45 6e-45 -6e-45 -0.0011980413 0.0018946126 -9.4634976e-05 -0.003066572
6e-45 -6e-45 -6e-45 6e-45 -2.355595e-24 1.9397965e-24 3.122175e-25 -1.3535655e-25
-0.0041614864 -0.00474728 -5.869941e-05 -0.0019156054 6e-45 -6e-45 -6e-45 6e-45
-1.23e-43 -7.7e-44 -1.1e-44 -1.32e-43 6e-45 -6e-45 -6e-45 -6e-45
-0.032755785 0.0024806494 -0.0017832792 -0.0056484947 0.002607673 0.0041284966 -0.0010244171 -0.006903991
0.00028873826 0.0011832505 2.8706818e-06 0.00018452902 -0.0020643717 -0.0074426606 0.0010041656 0.013265267
-6e-45 -6e-45 6e-45 6e-45 6e-45 6e-45 -6e-45 -6e-45
-6e-45 -6e-45 6e-45 -6e-45 -6e-45 -6e-45 6e-45 -6e-45
6e-45 -6e-45 -6e-45 6e-45 0.005454873 0.0039869444 -0.00074035965 -0.0040005296
-6e-45 -6e-45 -6e-45 6e-45 -6e-45 -6e-45 -6e-45 6e-45
7.404909e-05 -0.004365687 0.0004953114 0.007097578 -6e-45 -6e-45 6e-45 -6e-45
-3.6070327e-05 -0.00656895 0.00075382664 0.010469628 0.010010071 0.0070085926 -0.0013511316 -0.007476267
0.01505399 0.0111375535 -0.002072452 -0.011580169 6e-45 -6e-45 6e-45 6e-45
