CartPoleHighRewardIn2026/checkpoints/checkpoint_ep150_reward124.00.pt (torch, 421217 bytes, 33 tensors)

feature_layer.0.weight f4 [128, 4]
0.028903442 -0.13902818 -0.35477772 0.048729032 0.107371494 0.06380304 -0.34175494 -0.034060426
-0.18041031 0.032744955 -0.43244988 -0.16696413 -0.020014094 -0.08998928 0.17203078 -0.09030473
0.0943251 -0.072773345 0.46755046 0.058268253 0.13045585 0.024927847 -0.2546455 -0.08201257
0.013601732 0.021534117 0.02183909 0.028068997 -0.0521326 0.1066668 -0.15179773 0.081119955
-0.2544571 0.11582434 0.19874908 1.2763208e-05 0.11355119 -0.10972586 -0.114331074 -0.11753985
0.10468965 -0.11212194 0.029181885 -0.039035257 0.101953566 0.119809695 0.39174557 0.09799456
-0.11075456 0.009700091 0.19425388 -0.00090862764 0.096329674 0.07553254 -0.40590197 0.10057571
0.07518157 0.06263552 -0.08530622 -0.011360484 -0.02703151 -0.005506968 0.035662256 -0.13426088
0.019697843 -0.029475486 0.16093068 -0.032557447 -0.13205573 0.1737703 0.039468367 0.06145484
0.0034943782 0.030938774 -0.5184898 -0.012373207 -0.09416846 -0.028143793 0.30958876 -0.1516176
0.12873743 -0.06461286 -0.40195906 -0.076988325 0.060111575 -0.0046662265 0.36334062 0.17194867
0.268716 -0.08039432 -0.43655005 -0.12613541 -0.054977126 -0.017673478 0.39850667 -0.05654201
0.07754827 0.045960374 0.38493025 0.10804465 0.017869337 0.052208897 -0.034732588 0.05284721
-0.15969 0.031317014 -0.14954042 0.07374152 -0.1240089 0.02432193 -0.048661083 0.1642856
0.09836629 0.14151257 -0.22854073 -0.17160952 -0.07321466 0.07543388 0.33000708 0.012197268
0.20247069 -0.18905006 0.29680985 0.032080937 -0.05613249 0.035316292 0.5492217 0.07709895
0.061222866 0.017783942 0.099007055 -0.10731039 0.04107363 -0.12965831 -0.23369846 -0.07143283
0.079374805 -0.19996811 -0.38386345 -0.18830003 0.19419198 -0.112410896 -0.118561424 0.07600547
-0.15483941 -0.026849218 0.33008248 -0.15972893 -0.019499067 0.11715672 0.37412176 0.0856194
0.08485849 -0.051405266 0.66483307 0.009873464 -0.16251355 0.116455294 0.3115735 -0.11248932
0.101045415 0.04981191 0.2613965 -0.15484855 0.14872748 0.14407852 -0.09872882 0.087734796
-0.061464116 0.00019072666 -0.51169956 -0.17703728 0.1357565 0.17792974 0.030048113 0.12483787
-0.041776147 -0.1446362 0.38113782 0.16525681 -0.055371985 -0.17919025 -0.21969642 -0.14796646
0.11999806 -0.11297123 -0.058789752 -0.0006534003 -0.11216021 -0.20892973 0.21237159 -0.12273795
-0.053808257 0.078861594 -0.3982225 -0.0073451 0.08220277 -0.08350958 -0.5948195 -0.14535116
0.16589634 -0.111154385 0.36256197 0.08551251 -0.05663271 0.06016701 -0.06867749 -0.07173171
0.2236949 0.020738367 -0.18808107 -0.091175355 -0.11327941 0.13871853 0.24652602 -0.10145637
0.116420135 -0.097139694 -0.16457382 -0.016411668 -0.0980652 0.0836562 0.31479916 0.15753262
-0.12903966 -0.17446835 0.22520989 0.15883467 0.1788357 0.10964362 -0.33646026 0.11850712
0.14714932 -0.13465689 -0.46941385 -0.23035446 -0.13635455 -0.00576298 0.2879772 -0.14137456
0.17031944 -0.009647438 -0.5078192 -0.061648805 -0.18294366 -0.09609412 0.46019816 0.10422339
-0.07215262 -0.010305323 0.18054327 0.082494944 0.016315456 -0.034395803 0.36026248 0.06686477
00000000: e9c6 ec3c 675d 0ebe 6da5 b5be 1898 473d
00000010: 96e5 db3d 2bab 823d 81fa aebe f282 0bbd
00000020: 7bbd 38be 931f 063d 126a ddbe a5f8 2abe
00000030: 99f4 a3bc 4d4c b8bd d628 303e b0f1 b8bd
00000040: 852d c13d 310a 95bd c662 ef3e b1aa 6e3d
00000050: 3896 053e 7c35 cc3c e560 82be 35f6 a7bd
00000060: cdd9 5e3c 5168 b03c e4e7 b23c f4f0 e53c
00000070: fe88 55bd 2074 da3d dd70 1bbe 3822 a63d
00000080: 3348 82be 5035 ed3d e184 4b3e 9021 5637
00000090: 878d e83d f4b7 e0bd 6926 eabd bcb8 f0bd
000000a0: 8767 d63d 30a0 e5bd d90e ef3c 6fe3 1fbd
000000b0: 08cd d03d c95e f53d e092 c83e 5fb1 c83d
000000c0: 49d3 e2bd 21ed 1e3c 7dea 463e f830 6eba
000000d0: 7e48 c53d ceb0 9a3d 62d2 cfbe a3fa cd3d
000000e0: ccf8 993d 0d47 803d 07b5 aebd 5321 3abc
000000f0: 2f71 ddbc cc73 b4bb 9612 123d af7b 09be
00000100: 5f5d a13c 9376 f1bc 03cb 243e f55a 05bd
00000110: 9e39 07be d7f0 313e 95a9 213d 12b8 7b3d
00000120: f001 653b 5073 fd3c bfbb 04bf feb8 4abc
00000130: 65db c0bd d08d e6bc 6b82 9e3e a541 1bbe
00000140: bfd3 033e bf53 84bd 94cd cdbe 0eac 9dbd
00000150: 8e37 763d 25e7 98bb c807 ba3e 5013 303e
00000160: 2595 893e c7a5 a4bd 7d83 dfbe a429 01be
00000170: b22f 61bd f8c7 90bc 1109 cc3e 9898 67bd
00000180: a1d1 9e3d f240 3c3d 9415 c53e 8346 dd3d
00000190: b762 923c ffd8 553d c243 0ebd 5176 583d
000001a0: c685 23be 4546 003d 2021 19be cb05 973d
000001b0: 61f8 fdbd c93e c73c d850 47bd 7c3a 283e
000001c0: 4474 c93d ace8 103e 9506 6abe 68ba 2fbe
000001d0: 91f1 95bd 147d 9a3d b0f6 a83e 0dd7 473c
000001e0: 7a54 4f3e 5796 41be 76f7 973e 4d67 033d
000001f0: 2feb 65bd d1a7 103d cb99 0c3f 0ee6 9d3d
00000200: d4c4 7a3d a1af 913c 36c4 ca3d 8dc5 dbbd
00000210: d33c 283d 26c5 04be a64e 6fbe 604b 92bd
00000220: 428f a23d 71c4 4cbe c089 c4be b9d1 40be
00000230: 43da 463e af37 e6bd 55d0 f2bd c1a8 9b3d
00000240: 398e 1ebe e4f2 dbbc 9200 a93e fb8f 23be
00000250: 82bc 9fbc ddef ef3d e38c bf3e 3959 af3d
00000260: 4aca ad3d 548e 52bd 8032 2a3f 4fc4 213c
00000270: f469 26be 1d80 ee3d 9086 9f3e cd60 e6bd
00000280: e6f0 ce3d 9307 4c3d c3d5 853e 9e90 1ebe
00000290: 044c 183e 5289 133e 5632 cabd 4dae b33d
000002a0: ccc1 7bbd ccfd 4739 befe 02bf 4349 35be
000002b0: c003 0b3e 3733 363e 7627 f63c ffaa ff3d
000002c0: 771d 2bbd 831b 14be 7f24 c33e 1539 293e
000002d0: bccd 62bd a67d 37be 19f8 60be 8584 17be
000002e0: 8bc1 f53d 765d e7bd 86cd 70bd f448 2bba
000002f0: 41b4 e5bd adf1 55be f077 593e 095e fbbd
00000300: 0c66 5cbd 3082 a13d d2e3 cbbe 2aaf f0bb
00000310: ed59 a83d 1207 abbd 1746 18bf efd6 14be
00000320: bbe0 293e e9a4 e3bd b9a1 b93e 2f21 af3d
00000330: b3f7 67bd af71 763d c9a6 8cbd 13e8 92bd
00000340: 4710 653e 82e3 a93c 5398 40be 25ba babd
00000350: 09ff e7bd 3b0c 0e3e 5171 7c3e 5bc8 cfbd
00000360: ae6d ee3d 2df1 c6bd 0a86 28be c371 86bc
00000370: 68d6 c8bd f153 ab3d 5b2d a13e 3b50 213e
00000380: f922 04be d5a7 32be 6c9d 663e 8ea5 223e
00000390: b520 373e d68c e03d 8544 acbe dcb3 f23d
000003a0: 50ae 163e 7fe3 09be 0357 f0be 0ae2 6bbe
000003b0: 87a0 0bbe 61d7 bcbb bf71 933e 7ec4 10be
000003c0: 3868 2e3e 4a10 1ebc 7000 02bf 7583 7cbd
000003d0: 9555 3bbe fecc c4bd 189f eb3e 1373 d53d
000003e0: c1c4 93bd a8d7 28bc 56e0 383e 1cf3 a83d
000003f0: fea7 853c 9de2 0cbd 5374 b83e 66f0 883d

feature_layer.0.bias f4 [128]
0.053655826 -0.08799507 -0.030641986 0.10841005 -0.007853457 0.060974445 0.1131546 0.11291752
0.06264774 0.091047905 -0.111986846 -0.044505488 0.11291416 0.050301805 0.08435624 -0.10940255
0.11264641 -0.0815138 -0.054479238 0.00046882092 -0.0937841 -0.058153965 0.047769494 0.08754258
-0.090057 -0.094287984 0.0017192359 0.06936112 -0.056483947 0.002347372 -0.025940593 -0.07334486
0.009169197 0.070518106 -0.10455111 0.0620626 0.006144354 0.074775554 -0.09185198 -0.03305025
0.059915848 -0.14047922 -0.123599246 -0.000588299 -0.12805863 0.058633562 0.083223656 0.04030947
0.113380976 -0.146349 -0.0905853 0.057856336 -0.08262815 -0.015727514 0.09845482 -0.09401157
-0.062531896 0.094389215 -0.15362036 0.00063525233 -0.097344376 -0.030709688 -0.11612352 -0.04192439
-0.09744237 0.12530662 -0.08323632 0.06433908 -0.098813206 0.11275307 -0.060995243 0.054934412
0.019064436 0.0942544 -0.06836368 -0.08096643 -0.08025534 0.08602846 -0.065534 0.076773524
-0.1493744 0.07032794 0.13083506 0.06781709 0.0489181 0.10133017 -0.011639765 0.105985016
0.07033918 -0.07191475 -0.097495735 0.036368676 -0.015549288 0.08072062 -0.083748735 -0.08878131
-0.13374372 -0.078886576 -0.02470547 -0.08657761 0.0811934 0.108719334 -0.08097935 0.050631873
0.07956173 -0.0009879319 -0.13073915 -0.09171509 -0.034139466 0.016391298 0.10675005 0.101134285
0.06573189 -0.093302764 0.09779002 0.09293914 0.063048206 -0.09239915 -0.0958545 0.06891214
-0.005680938 -0.0823072 -0.10491846 -0.11197484 0.07737308 -0.05847022 0.069610015 -0.096539795
00000000: 36c6 5b3d c236 b4bd e704 fbbc 1706 de3d
00000010: c9ab 00bc 57c0 793d 99bd e73d 4d41 e73d
00000020: 754d 803d 5377 ba3d 5c59 e5bd 634b 36bd
00000030: 8a3f e73d 4409 4e3d f7c2 ac3d 720e e0bd
00000040: 29b3 e63d b5f0 a6bd 9f25 5fbd 14cc f539
00000050: e111 c0bd da32 6ebd f2a9 433d 8649 b33d
00000060: ce6f b8bd 0f1a c1bd fc57 e13a 340d 8e3d
00000070: b65b 67bd 5ed6 193b 5e81 d4bc d435 96bd
00000080: 663a 163c cc6b 903d e41e d6bd 5a35 7e3d
00000090: 9456 c93b ed23 993d e41c bcbd b35f 07bd
000000a0: 526a 753d c9d9 0fbe 9a21 fdbd 1438 1aba
000000b0: cd21 03be bf29 703d 2a71 aa3d 8b1b 253d
000000c0: 4934 e83d 83dc 15be c984 b9bd c4fa 6c3d
000000d0: f338 a9bd fdd6 80bc aea2 c93d 2389 c0bd
000000e0: b910 80bd 224f c13d a84e 1dbe 1087 263a
000000f0: 7d5c c7bd e292 fbbc 2bd2 edbd e9b8 2bbd
00000100: de8f c7bd 6150 003e ce77 aabd 35c4 833d
00000110: 945e cabd 15eb e63d 26d6 79bd e802 613d
00000120: 052d 9c3c 7308 c13d 4202 8cbd bad1 a5bd
00000130: e95c a4bd b02f b03d b136 86bd 703b 9d3d
00000140: 9af5 18be 1808 903d a0f9 053e b0e3 8a3d
00000150: 585e 483d 3186 cf3d b7b4 3ebc ac0e d93d
00000160: fd0d 903d 0a48 93bd d8ab c7bd 52f7 143d
00000170: 71c2 7ebc da50 a53d 7584 abbd fad2 b5bd
00000180: 1df4 08be 498f a1bd 2063 cabc 9a4f b1bd
00000190: ba48 a63d 3ea8 de3d 80d8 a5bd 5e63 4f3d
000001a0: 43f1 a23d 7e7d 81ba 7ce0 05be 1fd5 bbbd
000001b0: d3d5 0bbd 0b47 863c c59f da3d 7e1f cf3d
000001c0: 719e 863d 8515 bfbd 2246 c83d e056 be3d
000001d0: 6b1f 813d c43b bdbd 5d4f c4bd cf21 8d3d
000001e0: 2927 babb ad90 a8bd 7ddf d6bd 1153 e5bd
000001f0: c775 9e3d 787e 6fbd b28f 8e3d a8b6 c5bd

feature_layer.2.weight f4 [128, 128]
-0.051987298 0.02250798 -0.047459975 0.3052823 0.14140713 -0.01724993 0.12282941 0.018181844
0.08570892 -0.05793925 0.053780142 0.13051502 0.11369871 -0.26033577 0.12134702 -0.16260535
0.24137497 -0.10299242 -0.3483002 0.10997218 -0.1469759 0.086388245 0.27164203 0.22068366
0.15885551 -0.13921867 0.09751888 0.009422783 0.079859056 0.0038651638 0.12728602 0.18482824
0.10516217 -0.14826347 -0.17800906 0.12976499 0.011621546 0.0861619 0.28943723 -0.13022847
0.09466874 0.040542096 -0.2107381 0.12260099 0.23276727 -0.01718815 -0.009630951 0.03883881
-0.20939203 -0.40936092 0.1411804 0.097239055 0.12009904 -0.09405368 -0.02761334 0.13975772
0.06546157 0.010177282 -0.4892306 0.10620251 -0.08625503 0.22940835 -0.039652597 0.13835955
0.18218742 -0.1208326 -0.09144715 0.18875942 -0.10031717 0.06556566 0.15701394 0.22835478
-0.021073729 -0.07815212 0.18363877 0.34532037 0.40335193 0.053967472 0.22799513 0.15786399
0.5994985 0.03181534 -0.13085036 -0.08985781 0.09193495 0.2442291 -0.14974739 -0.03376832
0.2973931 -0.09382602 0.055822745 0.080877736 0.044723317 -0.02502235 0.11797079 0.114890695
0.137079 0.28121868 -0.10897237 0.31772628 0.14881498 0.00036907056 -0.14185342 -0.024391875
0.1299962 0.12490602 0.35876343 -0.22314334 0.20886657 -0.06933705 0.03919821 0.052864697
0.17507064 -0.33787677 0.06434038 0.023986649 -0.08576723 -0.15173484 0.36705154 -0.078915894
-0.047197007 -0.094734 -0.068267636 0.030385226 0.075750396 0.0840125 0.23424911 -0.3456535
0.06589121 -0.08909964 -0.044625353 -0.030239314 0.07576718 -0.06810574 0.11998971 0.11592685
0.15422519 0.12978627 0.032777358 -0.07600617 0.087874904 0.14459166 0.12450402 -0.088975675
0.13086243 -0.025364786 -0.04807341 -0.009137997 -0.31413603 0.06114433 -0.1158105 0.08395544
0.08265868 -0.025218857 -0.13427094 -0.13154218 -0.12181972 -0.08547041 0.075537555 0.0055481964
-0.025932385 0.12326641 -0.12545602 -0.10401836 0.053224042 0.1287191 -0.23183626 0.04896959
-0.03027652 -0.14016873 -0.15291254 -0.06394584 0.116829835 0.15498534 -0.08832808 0.130075
-0.025966119 -0.3115863 0.021124547 0.03277229 0.016441979 -0.12175873 0.05895009 -0.10901784
0.18741103 0.20533007 -0.32851112 0.098287225 -0.20084038 -0.06186261 0.09436995 -0.05783189
-0.09929548 -0.016298145 -0.26544583 -0.04083326 0.006952298 0.18411852 0.06928959 0.035926264
-0.092062 0.11092861 0.095063105 -0.11303404 0.010557311 0.18476312 0.05396113 -0.11121301
-0.22954068 -0.012885984 0.016173286 -0.04865141 -0.050901424 0.021644086 -0.025930686 -0.094311446
-0.02160347 -0.051091757 0.12431215 0.1657826 0.11750854 -0.12279236 0.01847683 -0.06948778
0.09370783 0.026076578 0.10358634 0.13011168 -0.04125149 0.18505748 -0.079544574 -0.09416331
0.07431969 0.023550587 -0.04715611 -0.5946465 0.06906915 -0.036510434 0.0670799 -0.041365072
-0.06693585 -0.24201965 0.048216436 0.09121445 -0.06670096 -0.1564838 0.009018535 -0.04126756
-0.089658946 -0.054218877 -0.1489209 -0.06927933 0.058202058 0.12207753 0.1095707 -0.26972297
00000000: a2f0 54bd a862 b83c 6465 42bd f64d 9c3e
00000010: 08cd 103e ba4f 8dbc fc8d fb3d 17f2 943c
00000020: 2988 af3d b551 6dbd 9148 5c3d bba5 053e
00000030: dfda e83d bb4a 85be c984 f83d 0482 26be
00000040: 002b 773e b1ed d2bd 6754 b2be 1839 e13d
00000050: da80 16be 52ec b03d aa14 8b3e e6fa 613e
00000060: 05ab 223e 578f 0ebe fbb7 c73d 0462 1a3c
00000070: 258d a33d b04e 7d3b 4457 023e 9d43 3d3e
00000080: 445f d73d 61d2 17be 0248 36be 1de1 043e
00000090: 4c68 3e3c a675 b03d 1e31 943e 9d5a 05be
000000a0: afe1 c13d 780f 263d bacb 57be 3a16 fb3d
000000b0: 8b5a 6e3e 2ace 8cbc 23cb 1dbc 7215 1f3d
000000c0: dd6a 56be c197 d1be 9891 103e 4525 c73d
000000d0: 7cf6 f53d 379f c0bd 5f35 e2bc a61c 0f3e
000000e0: b710 863d 9dbe 263c 6f7c fabe b480 d93d
000000f0: 7aa6 b0bd 06ea 6a3e c36a 22bd 20ae 0d3e
00000100: 578f 3a3e 1577 f7bd a548 bbbd 264a 413e
00000110: 1773 cdbd 4a47 863d 43c8 203e d6d5 693e
00000120: d0a2 acbc 380e a0bd cd0b 3c3e d5cd b03e
00000130: 2584 ce3e ff0c 5d3d 8e77 693e 19a7 213e
00000140: bc78 193f cd50 023d a3fd 05be 5f07 b8bd
00000150: 6448 bc3d 3117 7a3e 6157 19be a650 0abd
00000160: e943 983e db27 c0bd 64a6 643d 3aa3 a53d
00000170: cc2f 373d acfb ccbc ab9a f13d d04b eb3d
00000180: 705e 0c3e e5fb 8f3e e82c dfbd 05ad a23e
00000190: f462 183e d07f c139 0642 11be 78d1 c7bc
000001a0: b91d 053e bace ff3d d7af b73e b07f 64be
000001b0: 1ee1 553e 9500 8ebd 4d8e 203d a788 583d
000001c0: b845 333e 2ffe acbe e4c4 833d a67f c43c
000001d0: bba6 afbd 6160 1bbe 2eee bb3e a89e a1bd
000001e0: a651 41bd e603 c2bd e7cf 8bbd 70ea f83c
000001f0: 0623 9b3d bf0e ac3d 00df 6f3e 7ff9 b0be
00000200: f9f1 863d df79 b6bd 13c9 36bd 70b8 f7bc
00000210: d32b 9b3d 067b 8bbd 2abd f53d 0e6b ed3d
00000220: 35ed 1d3e b1e6 043e 8d41 063d 1fa9 9bbd
00000230: c2f7 b33d d60f 143e f7fb fe3d e138 b6bd
00000240: cd00 063e d0c9 cfbc a0e8 44bd 8ab7 15bc
00000250: 70d6 a0be 7a72 7a3d 0e2e edbd d4f0 ab3d
00000260: f448 a93d c797 cebc 527e 09be feb2 06be
00000270: 9e7c f9bd 1c0b afbd 6fb3 9a3d a5cd b53b
00000280: 2770 d4bc 1973 fc3d 8b77 00be 9407 d5bd
00000290: 7401 5a3d f1ce 033e 7c66 6dbe 5694 483d
000002a0: 7706 f8bc 6488 0fbe 1b95 1cbe 09f6 82bd
000002b0: 7b44 ef3d 7ab4 1e3e 5ae5 b4bd 6132 053e
000002c0: e6b6 d4bc 3d88 9fbe 630d ad3c 3d3c 063d
000002d0: 54b1 863c a45c f9bd a675 713d bf44 dfbd
000002e0: ade8 3f3e 0c42 523e 9c32 a8be d04a c93d
000002f0: 1aa9 4dbe a663 7dbd 0845 c13d 22e1 6cbd
00000300: 6e5b cbbd b083 85bc 84e8 87be c740 27bd
00000310: 1ad0 e33b 9189 3c3e b3e7 8d3d 6b27 133d
00000320: 008b bcbd 8a2e e33d 72b0 c23d 647e e7bd
00000330: 92f8 2c3c 8b32 3d3e 5906 5d3d a6c3 e3bd
00000340: b60c 6bbe bc1f 53bc d77d 843c b346 47bd
00000350: 037e 50bd f04e b13c 976c d4bc 5c26 c1bd
00000360: c3f9 b0bc 9745 51bd 5e97 fe3d eac2 293e
00000370: 51a8 f03d 907a fbbd b95c 973c 9c4f 8ebd
00000380: e4e9 bf3d 8c9e d53c 1325 d43d ff3b 053e
00000390: 53f7 28bd b57f 3d3e 44e8 a2bd b2d8 c0bd
000003a0: ec34 983d 29ed c03c c426 41bd c13a 18bf
000003b0: 2074 8d3d f78b 15bd 3061 893d 6c6e 29bd
000003c0: aa15 89bd 00d4 77be 997e 453d a4ce ba3d
000003d0: 839a 88bd 4a3d 20be 7ac2 133c 2c08 29bd
000003e0: 1c9f b7bd 9d14 5ebd b87e 18be 52e2 8dbd
000003f0: 4865 6e3d c903 fa3d 9a66 e03d 2119 8abe

feature_layer.2.bias f4 [128]
0.08989984 0.10127097 0.09831397 0.077799395 -0.008080914 0.11638051 0.10423139 -0.028482385
0.12217486 -0.021383967 0.097229764 -0.011310435 0.107005775 -0.06258758 -0.012347201 0.12181432
-0.053616557 -0.05732299 0.11136719 0.10809718 -0.0023730262 0.11224949 -0.041167308 0.109736554
-0.020305337 0.07504436 0.11023134 -0.012145522 -0.029986423 0.12490141 0.12487482 0.10347635
-0.011184692 0.098301925 0.055340447 0.10979139 -0.010069553 0.105336435 0.123281695 -0.013709206
-0.012513335 -0.014545973 0.013545699 0.09776357 0.09589068 0.037047897 -0.08468759 0.08560117
-0.06817199 -0.014884749 0.08213965 0.0 0.10827633 0.051458582 -0.046038352 0.107011326
-0.012642619 0.11397679 -0.009883979 -0.0065306597 -0.051262617 -0.0051120035 -0.03866526 -0.07923909
0.089947805 0.1330691 -0.025702013 0.09499487 0.107023574 0.110672005 -0.017096277 0.10539529
-0.02079319 -0.013819417 0.106198944 0.09980409 0.06328591 0.10125936 -0.0184305 0.011615731
0.09597695 0.12710546 -0.05755782 0.10309647 -0.024314305 0.11886405 -0.06576143 -0.054994076
0.11793594 0.0 0.104336485 0.122427456 0.080620795 0.10184429 -0.08413718 0.09378358
-0.013439258 0.11988932 0.08015807 0.11630427 0.13007627 -0.018138772 0.024658179 0.12133727
-0.022222789 0.09874705 0.12309639 0.104788214 -0.011044345 0.10518348 -0.061652355 -0.060002718
-0.015985098 0.1279555 -0.023318904 -0.047551133 -0.03949384 0.104312345 0.11095809 0.05857681
0.10189422 0.10842697 -0.042328484 -0.007903999 -0.05108235 -0.009320094 0.106516406 0.10815808
00000000: 681d b83d 2867 cf3d d658 c93d 4a55 9f3d
00000010: cf65 04bc e858 ee3d 4477 d53d e453 e9bc
00000020: d036 fa3d 6e2d afbc 6620 c73d 674f 39bc
00000030: d825 db3d eb2d 80bd ea4b 4abc c979 f93d
00000040: 099d 5bbd 83cb 6abd 7b14 e43d 0e62 dd3d
00000050: c684 1bbb 10e3 e53d 0d9f 28bd 8fbd e03d
00000060: 6157 a6bc dbb0 993d f8c0 e13d 03fe 46bc
00000070: 16a6 f5bc 4fcc ff3d 5fbe ff3d 69eb d33d
00000080: 0040 37bc 8552 c93d aaac 623d 4fda e03d
00000090: c4fa 24bc a1ba d73d 1d7b fc3d 949c 60bc
000000a0: bb04 4dbc 3c52 6ebc c8ee 5d3c 4438 c83d
000000b0: 5562 c43d 89bf 173d b070 adbd ab4f af3d
000000c0: c29d 8bbd 2adf 73bc d538 a83d 0000 0000
000000d0: fbbf dd3d 3cc6 523d b692 3cbd c128 db3d
000000e0: fd22 4fbc aa6c e93d 6af0 21bc 25ff d5bb
000000f0: c0f8 51bd 9882 a7bb 775f 1ebd 1b48 a2bd
00000100: 8e36 b83d 4443 083e 078d d2bc ac8c c23d
00000110: 2d2f db3d 01a8 e23d 7e0d 8cbc 7cd9 d73d
00000120: 7b56 aabc d66a 62bc d57e d93d 1666 cc3d
00000130: 0b9c 813d 1161 cf3d 8ffb 96bc e84f 3e3c
00000140: 908f c43d ef27 023e c0c1 6bbd 3e24 d33d
00000150: cb2e c7bc ff6e f33d eead 86bd 7841 61bd
00000160: 6688 f13d 0000 0000 5eae d53d 3fbb fa3d
00000170: 841c a53d bd93 d03d 1d50 acbd 9b11 c03d
00000180: 5530 5cbc 8888 f53d ea29 a43d ef30 ee3d
00000190: b732 053e c397 94bc f3ff c93c ad7f f83d
000001a0: 910c b6bc e53b ca3d f619 fc3d 349b d63d
000001b0: 57f3 34bc 706a d73d 2e87 7cbd 69c5 75bd
000001c0: 2ef3 82bc c406 033e 4907 bfbc fac4 42bd
000001d0: 4bc4 21bd b6a1 d53d ff3d e33d 3dee 6f3d
000001e0: ebad d03d f60e de3d a260 2dbd c67f 01bc
000001f0: ba3b 51bd 4fb3 18bc 4625 da3d fc81 dd3d

value_stream.0.weight f4 [64, 128]
-0.16668878 0.16204551 0.03282952 0.055671398 0.07720286 0.19911078 0.022527164 -0.046439324
0.2390202 -0.0012245143 0.06181235 0.03963342 0.01542069 -0.1761734 -0.13266206 0.1327878
0.082781255 0.10036662 -0.04254081 0.24122319 0.16332008 0.046148673 -0.50818974 0.059578903
0.0151974 -0.1002333 0.010717059 -0.0842206 -0.308962 0.21741995 0.11859687 -0.006186036
0.16828738 0.07016782 0.052015655 0.048439194 -0.21837941 -0.03861939 0.077030614 -0.054621354
0.11896699 0.017625203 0.049785692 0.18938377 -0.043686498 -0.01799971 -0.16841851 -0.15355884
-0.500512 0.11816472 0.12825985 -0.1389412 0.1633326 -0.15474695 -0.15071975 0.19203755
-0.091207616 -0.02621078 -0.064781815 -0.07889924 -0.19992794 -0.088183805 -0.2450384 -0.30375066
0.036387738 0.09215266 0.032163642 -0.11943435 -0.011982681 -0.0576595 -0.044194866 -0.025533823
0.0041646743 -0.024372648 -0.07902146 0.17411463 0.08491804 0.079716496 0.081691824 0.008006756
0.03560118 -0.15178898 -0.30576706 0.17530735 -0.09771691 0.18872125 -0.20737052 0.020218646
0.04163839 -0.098900884 0.003083581 0.2006178 0.0004138571 -0.1079008 -0.044969272 -0.057280023
-0.07467234 -0.046578396 -0.09224852 -0.025936723 0.17579594 -0.03380946 0.016823841 0.23503612
0.02729915 0.18147305 0.25220782 0.051278673 0.08275889 0.19508232 -0.32059246 -0.40071678
0.13607639 0.17176302 0.032653138 0.03799511 -0.0819935 0.09837551 0.05859751 0.038474083
0.2098248 0.14260244 -0.3449578 -0.03292913 -0.39175317 0.06041112 0.2812779 -0.015036293
-0.07035418 0.1938713 -0.09226078 0.19016959 0.04080202 0.19765577 0.06892087 0.057007805
-0.094642855 -0.01201666 0.17476857 -0.056014165 0.24772231 -0.0827047 -0.074201696 -0.042913657
-0.13965307 0.04683414 -0.021238348 0.18483675 -0.038993783 0.13900833 -0.028749792 -0.07398252
-0.08929879 0.16417213 -0.012349867 -0.17384355 -0.12339391 -0.06659311 -0.042366926 0.062301844
0.13514681 0.08284476 0.05395045 0.019430492 -0.1534787 0.118960306 0.17967965 0.06873787
0.17125271 0.18227875 0.028483974 -0.06803735 0.1649886 0.019752648 -0.026242007 -0.010258046
-0.43737498 -0.085604 0.17408076 -0.13430646 0.055420645 -0.116756834 0.10055774 -0.04049341
-0.022139693 0.19573139 0.03932415 0.01624044 -0.008090947 0.017310994 0.052423786 -0.18680544
0.15150058 0.19276778 0.0033494155 0.19833107 0.07205921 0.17574023 -0.15064448 -0.103019685
0.05719927 0.0637435 0.010935007 0.040711176 0.0844301 0.19417271 0.054914158 0.20898628
0.20712258 0.09857763 -0.22229674 -0.012264643 -0.14389072 0.14521298 -0.10629609 -0.10327909
0.060513657 -0.10259978 0.0711379 0.17943141 0.18374401 -0.079801284 -0.0014594947 -0.024533102
-0.13155012 0.14944968 0.16604498 0.23192528 0.25811324 -0.046644717 0.027210787 0.1337038
-0.13474686 0.18152319 -0.051266927 0.05025259 -0.048918836 0.12079451 0.08405092 -0.19069195
-0.067453705 0.21593668 -0.19375402 -0.00528404 -0.1310887 0.036153607 0.19288018 0.112187445
-0.03494514 -0.047645926 -0.11447053 -0.102296464 -0.2509578 0.14963838 0.15586059 -0.06335687
00000000: 77b0 2abe 42ef 253e 3f78 063d b107 643d
00000010: 881c 9e3d b2e3 4b3e e38a b83c 2937 3ebd
00000020: b6c1 743e e27f a0ba f22e 7d3d a756 223d
00000030: 10a7 7c3c cd66 34be 90d8 07be 86f9 073e
00000040: 3889 a93d 048d cd3d 463f 2ebd 3603 773e
00000050: 613d 273e 6406 3d3d b918 02bf 0209 743d
00000060: 84fe 783c 1e47 cdbd 9a96 2f3c da7b acbd
00000070: 4430 9ebe 56a3 5e3e eae2 f23d 3bb4 cabb
00000080: 8753 2c3e 25b4 8f3d 5e0e 553d 2d68 463d
00000090: da9e 5fbe 5e2f 1ebd 3ac2 9d3d a4ba 5fbd
000000a0: f7a4 f33d bb62 903c 15ec 4b3d d2ed 413e
000000b0: 9df0 32bd 2174 93bc e775 2cbe 873e 1dbe
000000c0: 8e21 00bf 5800 f23d 8d56 033e 9a46 0ebe
000000d0: a940 273e fc75 1ebe 4756 1abe 7ea5 443e
000000e0: 0fcb babd fdb7 d6bc 54ac 84bd ed95 a1bd
000000f0: e9b9 4cbe b699 b4bd 59eb 7abe 3585 9bbe
00000100: 4f0b 153d 89ba bc3d 06be 033d ff99 f4bd
00000110: 0253 44bc 5e2c 6cbd ad05 35bd 4f2c d1bc
00000120: d277 883b 26a9 c7bc 01d6 a1bd 1b4b 323e
00000130: 82e9 ad3d 6742 a33d 0b4e a73d c52e 033c
00000140: 8bd2 113d 926e 1bbe 808d 9cbe c583 333e
00000150: ce1f c8bd 2540 413e f058 54be 93a1 a53c
00000160: 048d 2a3d 8c8c cabd e815 4a3b c16e 4d3e
00000170: f6fa d839 18fb dcbd b331 38bd 759e 6abd
00000180: d0ed 98bd fdc8 3ebd cbec bcbd 4079 d4bc
00000190: da03 343e ca7b 0abd 27d2 893c 4fad 703e
000001a0: 78a2 df3c 12d4 393e 6221 813e 9609 523d
000001b0: 7e7d a93d a9c3 473e b224 a4be c02a cdbe
000001c0: 9c57 0b3e a5e2 2f3e 4cbf 053d c3a0 1b3d
000001d0: 35ec a7bd 1979 c93d f103 703d 0097 1d3d
000001e0: 50dc 563e 6006 123e 4f9e b0be b2e0 06bd
000001f0: df93 c8be a771 773d a803 903e c95a 76bc
00000200: da15 90bd 3386 463e 38f3 bcbd d1bb 423e
00000210: 0520 273d 4666 4a3e 6326 8d3d 0481 693d
00000220: 1dd4 c1bd 86e1 44bc 88f6 323e 1c6f 65bd
00000230: ebaa 7d3e 1561 a9bd 0ff7 97bd 3bc6 2fbd
00000240: 3701 0fbe 28d5 3f3d 0bfc adbc d845 3d3e
00000250: f2b7 1fbd 3358 0e3e af84 ebbc 2684 97bd
00000260: 49e2 b6bd bd1c 283e 1957 4abc 0b04 32be
00000270: f2b5 fcbd f861 88bd f188 2dbd 3830 7f3d
00000280: ed63 0a3e 83aa a93d 26fb 5c3d b22c 9f3c
00000290: 8529 1dbe 76a1 f33d f1fd 373e 71c6 8c3d
000002a0: df5c 2f3e 48a7 3a3e 3957 e93c 2b57 8bbd
000002b0: c6f2 283e 4ed0 a13c 7af9 d6bc 5d11 28bc
000002c0: 9def dfbe 2651 afbd 3a42 323e a287 09be
000002d0: c200 633d 351e efbd 37f1 cd3d 6bdc 25bd
000002e0: 4d5e b5bc cf6d 483e 5c12 213d ac0a 853c
000002f0: e48f 04bc c9cf 8d3c 53ba 563d ed49 3fbe
00000300: f822 1b3e eb64 453e de81 5b3b 4d17 4b3e
00000310: c793 933d 3ff5 333e 8c42 1abe fcfb d2bd
00000320: c849 6a3d f48b 823d be28 333c c3c0 263d
00000330: b0e9 ac3d 36d5 463e abed 603d 8000 563e
00000340: f117 543e 12e3 c93d c2a1 63be a4f1 48bc
00000350: 1758 13be b6b2 143e c4b1 d9bd fd83 d3bd
00000360: 2bdd 773d d51f d2bd bfb0 913d debc 373e
00000370: 6427 3c3e db6e a3bd 844c bfba a5f9 c8bc
00000380: 13b5 06be 5609 193e b207 2a3e d27d 6d3e
00000390: 6b27 843e 880e 3fbd 28e9 de3c a6e9 083e
000003a0: 15fb 09be 37e1 393e 45fd 51bd a9d5 4d3d
000003b0: 1e5f 48bd 1d63 f73d e422 ac3d c044 43be
000003c0: 2b25 8abd 811e 5d3e 7467 46be bd25 adbb
000003d0: 1e3c 06be ce15 143d 6282 453e 88c2 e53d
000003e0: a322 0fbd 6028 43bd 866f eabd cf80 d1bd
000003f0: 8a7d 80be ce3a 193e eb99 1f3e 3fc1 81bd

value_stream.0.bias f4 [64]
0.11675006 0.11094863 -0.005558872 0.0 -0.01776418 0.11747716 0.10889946 0.10729685
-0.015690368 -0.009448026 0.10967565 0.024057053 -0.006005496 -0.00798207 0.15074763 0.10886563
0.117280215 0.026543943 -0.015826233 0.11430802 -0.014152482 0.12207291 0.11192008 0.06660476
0.10941866 0.1094705 0.111463055 -0.010287591 -0.026825963 0.12256033 -0.010367641 0.10973891
-0.033035614 -0.017050833 -0.025211373 0.11929649 -0.016835172 -0.0115567045 0.13825136 0.12776254
0.062135033 0.11373145 0.117737934 -0.012799581 -0.00956822 0.023870926 -0.010694465 0.11541284
0.119248785 -0.014026901 0.10884318 -0.012103096 0.017893458 -0.009076691 0.10867708 -0.010671679
-0.014016873 0.0 -0.032521322 0.11599581 0.011921622 0.015958885 -0.014594216 0.025686508
00000000: a81a ef3d 0939 e33d 3327 b6bb 0000 0000
00000010: 3086 91bc de97 f03d ae06 df3d 73be db3d
00000020: 1689 80bc e5cb 1abc a19d e03d 4c13 c53c
00000030: c0c9 c4bb 3ac7 02bc 965d 1a3e f2f4 de3d
00000040: 9c30 f03d af72 d93c 04a6 81bc 531a ea3d
00000050: d0df 67bc 5d01 fa3d 5b36 e53d 1468 883d
00000060: e416 e03d 1232 e03d be46 e43d 498d 28bc
00000070: 1fc2 dbbc e900 fb3d 0add 29bc cbbe e03d
00000080: 5a50 07bd 30ae 8bbc 1588 cebc b851 f43d
00000090: eae9 89bc 5558 3dbc c491 0d3e 2fd4 023e
000000a0: 4e81 7e3d 09ec e83d 9620 f13d 55b5 51bc
000000b0: 06c4 1cbc f68c c33c d637 2fbc 915d ec3d
000000c0: b538 f43d 16d1 65bc 2ce9 de3d 104c 46bc
000000d0: 4d95 923c 67b6 14bc 1792 de3d 44d8 2ebc
000000e0: 07a7 65bc 0000 0000 1435 05bd 368f ed3d
000000f0: e852 433c 35bc 823c 941c 6fbc 836c d23c

value_stream.2.weight f4 [1, 64]
0.23271076 0.12588722 -0.27895746 0.043993235 -0.17489511 0.18984963 0.3605853 0.09301781
-0.25161988 -0.12377311 0.1570731 -0.41763535 -0.14061274 -0.22584693 0.11572124 0.33877665
0.0885529 -0.55148673 -0.18295725 0.32634348 -0.23621933 0.11122645 0.17568646 -0.6021939
0.25073427 0.21357463 0.30003616 -0.27551165 -0.16633302 0.23912752 -0.037374627 0.23744732
-0.023641616 -0.044563357 -0.1654872 0.11254481 -0.10569495 -0.06589924 0.28762776 0.30858612
-0.54477847 0.17783765 0.18353777 -0.1816104 -0.23187394 -0.38735765 -0.27658507 0.28740317
0.21200876 -0.29071155 0.33504727 -0.11854835 -0.34023055 -0.31319684 0.2028421 -0.13921414
-0.06851627 -0.22217159 -0.16713263 0.35664463 -0.27821976 -0.4234761 -0.12346093 -0.4310921
00000000: bb4b 6e3e 94e8 003e 83d3 8ebe 4032 343d
00000010: b417 33be f167 423e a39e b83e 1f80 be3d
00000020: 52d4 80be c27c fdbd c5d7 203e 4dd4 d5be
00000030: c9fc 0fbe 6b44 67be 42ff ec3d 2274 ad3e
00000040: 395b b53d 3c2e 0dbf 2559 3bbe 7e16 a73e
00000050: 7be3 71be b1ca e33d 27e7 333e 6129 1abf
00000060: 3e60 803e 4fb3 5a3e 579e 993e dd0f 8dbe
00000070: 3453 2abe d8dd 743e 2316 19bd 6425 733e
00000080: 10ac c1bc 1188 36bd 7a75 29be e57d e63d
00000090: 9876 d8bd 2ef6 86bd f243 933e 00ff 9d3e
000000a0: 9a76 0bbf 131b 363e 53f1 3b3e 14f8 39be
000000b0: 5d70 6dbe be53 c6be 8f9c 8dbe 8226 933e
000000c0: d318 593e 25d8 94be 518b ab3e 7ac9 f2bd
000000d0: b332 aebe 565b a0be d7b5 4f3e 278e 0ebe
000000e0: 4252 8cbd f380 63be d124 2bbe 209a b63e
000000f0: d272 8ebe dcd1 d8be 16d9 fcbd 1bb8 dcbe

advantage_stream.0.weight f4 [64, 128]
0.34212822 0.0039308313 -0.077785544 0.012134036 0.1406009 -0.035694875 0.08909349 0.02194157
-0.1654816 -0.13366693 -0.011822534 0.055528253 0.09352729 -0.29223695 0.088878766 -0.13240866
-0.049179584 -0.15025347 -0.34694248 0.09762424 0.14133784 -0.061836936 0.047904905 -0.06879069
0.17494431 0.1221218 0.2303552 0.09584711 -0.011323834 -0.23797376 -0.11816712 -0.04709235
0.14235008 -0.1554496 -0.40042707 0.06338911 -1.289975 -0.3046075 0.06707652 0.009842409
0.12401676 0.15715274 0.0012020727 0.24274105 -0.07676674 -0.41988802 -0.11961803 -0.058533184
-0.21972959 0.006939218 -0.105881914 -0.022100002 -0.07906507 0.22046903 0.015510792 0.21794045
-0.146567 0.10823631 0.036173746 -0.0026316792 0.3091624 0.066491984 -0.23098561 0.11953803
-0.16808736 0.01112067 -0.17328884 -0.15477712 -0.6727228 0.20324051 -0.025984576 0.12750122
-0.14142263 -0.09361994 -0.048920777 -0.11790098 0.21560563 0.07594173 -0.024650238 0.18845712
0.19245116 0.3233403 -0.23529471 -0.0066593345 0.14104399 0.12846898 0.12492316 -0.06812989
0.097850576 0.087873265 -0.027318882 -0.32004505 0.08182534 -0.09192456 -0.11702033 0.0107045
0.15462005 -0.12534463 -0.11064627 -0.2637262 -0.2585254 0.08471008 -0.41569453 0.21822682
0.17445147 0.14758733 -0.21313788 -0.66133124 -0.16204686 0.17394675 0.23921785 -0.20078948
-0.14024296 -0.5722481 -0.11524598 0.11397264 0.07972181 0.23991513 0.08000594 0.117254294
-0.34088972 0.0084919855 0.20246387 -0.08887681 0.31120604 -0.027767323 -0.1216139 -0.1676429
-0.1488213 0.014176936 0.16234732 0.16580777 -0.038222585 0.049485486 -0.16690181 -0.11700378
0.12856759 0.025643004 0.039127495 0.0258155 -0.076984 0.14242509 0.1700446 0.07041829
0.17405559 0.051688902 0.1296997 -0.115815096 0.061363168 -0.12916534 -0.02661469 -0.11709103
0.05951183 -0.16109589 -0.054848883 -0.070326425 0.11151585 -0.12873042 -0.09063484 0.14420344
0.07043161 0.1364108 0.15919013 -0.108770125 0.0495306 -0.13524568 -0.062413387 -0.03510586
-0.07946704 0.036757737 0.024883043 0.032603826 0.09328679 -0.022749903 0.13747585 -0.017027944
0.120782755 0.1280295 0.1599017 -0.085257195 -0.056062266 -0.13905959 -0.07712259 0.1619809
-0.020111516 -0.093932875 -0.12878472 -0.14736918 -0.1005796 0.059369564 -0.09897999 -0.06287
-0.15200391 -0.1628218 -0.10951218 -0.17329395 -0.013375457 -0.06297404 -0.087851465 -0.113074735
0.07146824 0.081239395 -0.036137298 0.06815521 0.1567874 -0.05769892 -0.10605195 0.11537523
-0.04181726 -0.07274547 0.11224914 0.051531486 -0.1222622 0.039049562 0.076019175 0.17707676
-0.09372678 0.08935593 -0.019519359 0.026757767 -0.16819185 -0.1603001 0.102179006 -0.0013492961
0.07257776 -0.1102639 0.13130516 -0.06614514 -0.117660694 0.14888167 -0.11087457 -0.09865537
-0.15417121 0.07573432 -0.023235612 -0.007966762 0.048083615 -0.050432824 0.028912256 -0.098320596
-0.044026345 0.09612726 0.04727767 0.1168009 0.16316746 0.12176614 -0.063364886 -0.14949602
-0.0806445 -0.019446976 0.16729215 0.026690448 -0.028937094 0.11775067 0.066096015 0.14105392
00000000: 6e2b af3e 34ce 803b 074e 9fbd d6cd 463c
00000010: aff9 0f3e ca34 12bd a676 b63d cfbe b33c
00000020: 0274 29be fcdf 08be 4db3 41bc 9871 633d
00000030: 3c8b bf3d 15a0 95be 1206 b63d 2396 07be
00000040: 8870 49bd 0cdc 19be 72a2 b1be 38ef c73d
00000050: deba 103e ba48 7dbd ef37 443d 22e2 8cbd
00000060: 9a24 333e ff1a fa3d 3ce2 6b3e 7d4b c43d
00000070: 9a87 39bc 65af 73be 9a01 f2bd e8e3 40bd
00000080: 38c4 113e 2e2e 1fbe c704 cdbe 26d2 813d
00000090: e71d a5bf 84f5 9bbe 6a5f 893d 0e42 213c
000000a0: 80fc fd3d a6ec 203e de8e 9d3a 1c91 783e
000000b0: e137 9dbd 90fb d6be 4cfa f4bd 7ec0 6fbd
000000c0: cb00 61be 6162 e33b 9ed8 d8bd 100b b5bc
000000d0: deec a1bd a2c2 613e fa20 7e3c c82b 5f3e
000000e0: a915 16be 00ab dd3d ec2a 143d 4078 2cbb
000000f0: 894a 9e3e f32c 883d 7e87 6cbe 5bd0 f43d
00000100: 181f 2cbe 7833 363c a172 31be e57d 1ebe
00000110: 9037 2cbf 481e 503e 9bdd d4bc ae8f 023e
00000120: 18d1 10be d0bb bfbd 2761 48bd 1276 f1bd
00000130: b9c7 5c3e 5687 9b3d 4cef c9bc e7fa 403e
00000140: eb11 453e dc8c a53e 19f1 70be 8c36 dabb
00000150: d66d 103e 5f8d 033e b7d7 ff3d af87 8bbd
00000160: e265 c83d e6f6 b33d d9cb dfbc f2dc a3be
00000170: 0b94 a73d f242 bcbd 5ba8 efbd ed61 2f3c
00000180: b854 1e3e 585a 00be 839a e2bd 1f07 87be
00000190: 715d 84be 7a7c ad3d ead5 d4be da76 5f3e
000001a0: 68a3 323e 2221 173e d140 5abe 014d 29bf
000001b0: 9def 25be 191f 323e 86f5 743e c29b 4dbe
000001c0: da9b 0fbe da7e 12bf 1606 ecbd 7d6a e93d
000001d0: 3045 a33d 50ac 753e 27da a33d 0523 f03d
000001e0: 1989 aebe f821 0b3c b052 4f3e 0c05 b6bd
000001f0: 6656 9f3e 4c78 e3bc b510 f9bd 95aa 2bbe
00000200: 9c64 18be 6146 683c 603e 263e 83c9 293e
00000210: 498f 1cbd 4bb1 4a3d 4fe8 2abe ae9f efbd
00000220: 39a7 033e 4711 d23c 2744 203d 077b d33c
00000230: caa9 9dbd e2d7 113e 2c20 2e3e 7737 903d
00000240: a13b 323e beb7 533d 00d0 043e 7730 edbd
00000250: f257 7b3d eb43 04be 0d07 dabc 6ccd efbd
00000260: adc2 733d 52f6 24be 39a9 60bd 4d07 90bd
00000270: 6c62 e43d e8d1 03be c29e b9bd 11aa 133e
00000280: 733e 903d 46af 0b3e bd02 233e dfc2 debd
00000290: 99e0 4a3d d87d 0abe 2ea5 7fbd 2acb 0fbd
000002a0: 9ebf a2bd 488f 163d 86d7 cb3c 978b 053d
000002b0: 250d bf3d 015e babc 78c6 0c3e 307e 8bbc
000002c0: f35c f73d 2a1a 033e 45bd 233e 539b aebd
000002d0: 8ca1 65bd a365 0ebe 73f2 9dbd 52de 253e
000002e0: e8c0 a4bc e15f c0bd 24e0 03be f2e7 16be
000002f0: adfc cdbd 802d 733d 05b6 cabd fdc1 80bd
00000300: eaa6 1bbe c2ba 26be ec47 e0bd f873 31be
00000310: bc24 5bbc 89f8 80bd 78eb b3bd ba93 e7bd
00000320: f15d 923d d760 a63d b404 14bd f594 8b3d
00000330: e08c 203e b455 6cbd c431 d9bd d949 ec3d
00000340: 9348 2bbd 94fb 94bd e1e2 e53d ae12 533d
00000350: 9b64 fabd 6ff2 1f3d f1af 9b3d 9c53 353e
00000360: d3f3 bfbd 3e00 b73d 10e7 9fbc 1b33 db3c
00000370: 7c3a 2cbe b625 24be 3a43 d13d ddda b0ba
00000380: a6a3 943d 0ad2 e1bd dc74 063e 1a77 87bd
00000390: 17f8 f0bd 7074 183e 3512 e3bd d40b cabd
000003a0: 0fdf 1dbe 981a 9b3d 9c58 bebc 0687 02bc
000003b0: 53f3 443d a692 4ebd 65d9 ec3c 4f5c c9bd
000003c0: f854 34bd 5ede c43d 3ba6 413d 4f35 ef3d
000003d0: 5f15 273e 8760 f93d 73c5 81bd 7c15 19be
000003e0: f228 a5bd 444f 9fbc a24e 2b3e eda5 da3c
000003f0: 7c0d edbc 4327 f13d 595d 873d 7070 103e

advantage_stream.0.bias f4 [64]
0.0770559 -0.0010567529 0.00080716354 0.018466614 -0.011081469 0.0076558376 0.035315376 0.0008432238
-0.024159705 0.038655434 0.018246196 0.015462802 -0.031409603 -0.012345567 -0.038852654 0.013826523
0.0056186984 -0.008673418 -0.016611645 -0.022758354 -0.022389116 -0.029501623 -0.010685159 -0.020625658
0.071177855 -0.020348873 0.0054003396 0.0016675943 0.00695676 -0.016720543 0.033072814 -0.013018326
0.0027106884 0.0 0.017418541 0.030332124 0.022595199 -0.01440989 0.027252346 -0.00055842067
-0.05056847 -0.023784906 -0.012963284 0.0075270617 0.013988105 0.036059257 -0.026415348 -0.005921299
-0.0132812 -0.0021321166 0.023036804 0.016825756 0.053475022 0.051669534 -0.01708561 -0.035584208
0.0115949055 -0.0088582495 0.04788115 0.016918933 0.036057707 -0.014197663 -0.015014785 0.059477277
00000000: 7ccf 9d3d be82 8aba d497 533a 4c47 973c
00000010: 0d8f 35bc d2dd fa3b dba6 103d cb0b 5d3a
00000020: 93ea c5bc 2955 1e3d 0c79 953c b157 7d3c
00000030: 5ba7 00bd 1045 4abc f623 1fbd a488 623c
00000040: 0f1d b83b f41a 0ebc 2515 88bc ba6f babc
00000050: 6169 b7bc 63ad f1bc ce10 2fbc 24f7 a8bc
00000060: b2c5 913d aeb2 a6bc 55f5 b03b 2e93 da3a
00000070: 88f5 e33b 85f9 88bc 5c77 073d d14a 55bc
00000080: cea5 313b 0000 0000 54b1 8e3c 137b f83c
00000090: 9119 b93c 7617 6cbc 5040 df3c fa62 12ba
000000a0: e220 4fbd 90d8 c2bc f463 54bc 92a5 f63b
000000b0: 5d2e 653c dfb2 133d 0065 d8bc 7507 c2bb
000000c0: 6499 59bc fbba 0bbb aeb7 bc3c 2bd6 893c
000000d0: a008 5b3d 6fa3 533d 1ff7 8bbc bfc0 11bd
000000e0: 8ff8 3d3c 3122 11bc 061f 443d 9399 8a3c
000000f0: 3fb1 133d 519d 68bc 9300 76bc 729e 733d

advantage_stream.2.weight f4 [2, 64]
-0.04607169 0.06437977 0.2624078 0.3396662 -0.21325053 -0.3369901 -0.35664362 0.22769767
0.28221828 0.41565895 0.18503253 0.14591764 0.12419466 -0.045111723 -0.027137136 0.22721902
0.0241131 0.115594424 0.024898028 -0.27879387 -0.16251712 -0.12718034 0.20298979 0.06261453
-0.62149215 0.031001069 0.106612965 -0.011299149 -0.29762122 -0.056631524 0.2573623 0.25175
-0.07540304 0.071760416 -0.04152222 -0.34360158 -0.005257636 0.21694756 0.3006672 0.055466466
-0.13426253 0.14754336 0.057924397 0.23428455 0.049250603 0.15100473 0.121105574 -0.30799
0.10610811 -0.07096432 -0.38803655 -0.33843538 -0.05701341 -0.026813421 -0.3071632 -0.059215922
0.13684276 0.023561407 -0.27627575 0.57705843 0.39249116 0.2227565 0.27660874 0.23863506
0.56523263 -0.2537517 -0.23637287 -0.5723845 0.16970047 0.27869588 0.003338613 0.08511656
0.003717535 -0.37336582 -0.20492427 -0.17751475 0.15999317 0.0787582 0.0045677647 -0.20019537
-0.12316669 -0.18450049 -0.19557896 0.2434058 -0.17957811 0.08200336 -0.0034120337 -0.12787524
0.5683267 0.15890726 0.1711668 0.23927973 0.34257367 0.14775063 -0.24796537 -0.10745838
0.32458037 0.18188906 -0.3436388 0.45568955 -0.06574494 0.2498123 -0.25226745 0.075983144
0.3886734 0.2761442 0.018806253 0.110627346 -0.027058538 -0.6096818 0.090029456 0.0614547
-0.23411311 -0.23512083 -0.12165483 0.24752411 0.44835696 0.4401317 -0.28398484 -0.065189056
0.31464157 -0.2706259 0.31729233 -0.6721851 -0.54700005 -0.20947605 0.038313318 -0.37190786
00000000: abb5 3cbd 8ad9 833d 515a 863e bae8 ad3e
00000010: 595e 5abe f789 acbe fe99 b6be 9429 693e
00000020: ea7e 903e 40d1 d43e 2b79 3d3e 6f6b 153e
00000030: c559 fe3d 12c7 38bd b34e debc 1aac 683e
00000040: d688 c53c c5bc ec3d f3f6 cb3c 12be 8ebe
00000050: e36a 26be 903b 02be 8edc 4f3e 0c3c 803d
00000060: 1c1a 1fbf f4f5 fd3c e657 da3d 1120 39bc
00000070: cf61 98be 75f6 67bd fec4 833e 60e5 803e
00000080: e96c 9abd 20f7 923d 3413 2abd 8cec afbe
00000090: 3f48 acbb 8027 5e3e 0df1 993e ce30 633d
000000a0: 1e7c 09be 9b15 173e 2242 6d3d 4ae8 6f3e
000000b0: 00bb 493d fca0 1a3e 3306 f83d deb0 9dbe
000000c0: 354f d93d be55 91bd baac c6be 6747 adbe
000000d0: e586 69bd d2a7 dbbc 7f44 9dbe 658c 72bd
000000e0: 8220 0c3e da03 c13c 0474 8dbe 1aba 133f
000000f0: 9af4 c83e 481a 643e a99f 8d3e c05c 743e
00000100: 16b3 103f beeb 81be bb0b 72be ca87 12bf
00000110: f6c5 2d3e 3ab1 8e3e a2cc 5a3b 9751 ae3d
00000120: e3a1 733b ce29 bfbe abd7 51be 6dc6 35be
00000130: 40d5 233e fb4b a13d 30ad 953b 0400 4dbe
00000140: d13e fcbd b2ed 3cbe da45 48be 5f3f 793e
00000150: 53e3 37be 61f1 a73d 6d9c 5fbb baf1 02be
00000160: dc7d 113f 96b8 223e 5a46 2f3e bf05 753e
00000170: d165 af3e f14b 173e a2ea 7dbe 2413 dcbd
00000180: 662f a63e 2041 3a3e 6df1 afbe 2450 e93e
00000190: 48a5 86bd ccce 7f3e 3329 81be 0d9d 9b3d
000001a0: 3300 c73e c662 8d3e 920f 9a3c 9790 e23d
000001b0: dea9 ddbc 1b14 1cbf 5d61 b83d ecb7 7b3d
000001c0: 59bb 6fbe 84c3 70be 2b26 f9bd f676 7d3e
000001d0: 0b8f e53e f158 e13e 7666 91be d781 85bd
000001e0: b318 a13e 7a8f 8abe 2474 a23e 5314 2cbf
000001f0: 3208 0cbf e480 56be 6dee 1c3d b56a bebe

advantage_stream.2.bias f4 [2]
0.0029300584 -0.0029300584
00000000: 3906 403b 3906 40bb

exp_avg f4 [128, 4]
0.0045264373 0.003075045 -0.0002877448 -0.0018737859 0.0004842165 8.999382e-05 0.0005879805 0.0029872814
-0.008842813 -0.007976669 0.00065484724 0.0035842597 0.008844779 0.0037008594 -0.0019006697 -0.007889537
-0.00082377635 -0.0023641011 -9.6079515e-05 0.001105452 -0.00070423895 -0.0026833955 -4.2700267e-05 -0.00020431576
0.0034541017 0.0006683497 -0.00073639455 -0.005741961 0.007313001 0.0036164764 -0.000932336 -0.008446153
0.0042031924 0.0030312631 -0.00023124056 -0.0033235464 0.0062315804 0.0046634926 -0.0006830691 -0.0072231456
-1.714928e-05 -0.000113603346 -2.280462e-06 9.309126e-05 -0.0023690867 -0.0036059278 0.00025274837 0.0024648646
0.005752404 0.0034899102 -0.0014098716 -0.007055307 -0.00012353412 -0.0016206414 -0.0013364678 -0.0048661376
-0.00038336124 0.00050963066 -0.00033945253 -0.0036456282 -0.00020857384 -0.00011094468 6.6721004e-05 8.558437e-05
0.0075665205 0.001007908 -0.0014855746 -0.00859289 -0.00015816384 0.002219177 0.00067190453 0.0011319477
0.0053658076 -0.009259926 0.0018406413 0.019815627 0.0016592215 0.002636607 -0.00017783571 -0.0028451858
0.0003808732 -0.012509833 0.00058715174 0.016575586 0.00048980257 -0.0013346251 -0.00018153219 0.0028400877
-0.0018981822 -0.004881269 -0.00086898875 -0.0018771408 0.005440839 0.001966858 -0.0020665952 -0.006497581
3.7308666e-05 -0.00038564834 0.00043412787 0.00283647 -1.0824704e-05 3.1656043e-06 1.4804525e-06 -4.0328387e-06
-0.0010257211 -0.0014004271 0.00019044853 0.00032521534 0.0017320598 -0.0011677434 2.8299059e-05 0.00052196404
8.01093e-05 -0.0003746716 0.00035581435 0.0019158841 -0.0006899235 -0.00074757216 -0.0002855095 -0.0006967675
0.0005877588 0.0008153679 0.00020937328 0.0015280372 0.00043954226 -0.00012923824 -0.00017816958 0.0003472971
-0.00023352081 0.001116956 0.00043064062 -0.0010288691 0.0041460036 0.0035327745 -0.00012202431 -0.0022373332
-0.013365572 -0.011071639 0.0010249267 0.006393009 -0.0022401311 -0.0024840399 0.00029362086 -0.00036120904
0.0025891773 0.002198393 0.00048863655 -0.00076451903 -0.003193051 -0.005353312 -0.0012786336 -0.005281204
0.00400621 -0.011720344 -0.002227454 0.023882044 -0.00047930662 0.0007556769 -0.00023343462 -0.0015181135
-0.0010541293 -0.00051450566 -0.0003933668 -0.00398803 -0.00021482994 0.00016294682 -0.00020155996 -0.0006854586
-0.015103475 -0.013856723 0.00065712584 0.0056425417 -0.002372796 -0.0019326203 -0.00014290352 -0.0021433528
-0.004641904 -0.0040855547 2.6687601e-05 0.0015879474 0.007488774 0.0036711886 -0.0007800962 -0.0026060417
-0.0010766323 -0.0017936034 -0.00014326963 -0.002069669 0.009130439 0.006177123 -0.00064042246 -0.0038113305
0.012921418 0.006460584 0.000341733 -0.0015926121 -0.001053941 -0.0175106 0.0018539008 0.025773425
0.00064765755 -0.00010745553 0.0006541927 0.0039442107 0.0005894203 0.00011363556 0.0004124767 0.00038321805
8.833522e-05 -0.0005876536 0.0005008008 0.0027607963 -0.0005011335 0.00015940395 0.00013473505 -0.0004851736
9.507092e-05 -0.0012651603 -0.0003519136 -0.005986238 -2.8690905e-05 -0.0011803029 8.820973e-05 0.0016946956
-0.0020145122 -0.001213993 6.512106e-05 0.00015730457 -0.0024537784 -0.0030321507 -0.0011079598 -0.008064423
0.0012032238 -0.0099952705 0.0016251497 0.01863328 0.0013203796 0.0013809723 8.37283e-06 -0.0007842774
0.0013826278 -0.01250057 0.002444127 0.026372373 0.0005660233 -9.680283e-05 -9.126538e-05 0.0006720504
-0.0019773322 -0.0016166556 -0.0004267319 -0.00021874043 -0.00041084483 -0.0018857184 -0.00014384031 0.0007581542
00000000: 8252 943b b286 493b 74dc 96b9 d299 f5ba
00000010: 70de fd39 10bb bc38 b422 1a3a 44c6 433b
00000020: 72e1 10bc 93b0 02bc 0eaa 2b3a e6e5 6a3b
00000030: b1e9 103c 1e8a 723b e41f f9ba 1e43 01bc
00000040: b2f2 57ba 09ef 1abb 4c7e c9b8 d0e4 903a
00000050: ad9c 38ba e8db 2fbb 1019 33b8 983d 56b9
00000060: 365e 623b 3034 2f3a 9a0a 41ba 0f27 bcbb
00000070: e6a1 ef3b 6802 6d3b 0368 74ba bc61 0abc
00000080: efba 893b 28a8 463b 2a79 72b9 dbcf 59bb
00000090: 4932 cc3b 36d0 983b fe0f 33ba 23b0 ecbb
000000a0: ccdb 8fb7 553e eeb8 0a0a 19b6 fd39 c338
000000b0: ae42 1bbb 6e51 6cbb 5083 8439 9189 213b
000000c0: aa7e bc3b fab6 643b 71cb b8ba 3430 e7bb
000000d0: f088 01b9 b46b d4ba 6b2c afba 1f74 9fbb
000000e0: e0fd c8b9 bc98 053a 8cf8 b1b9 7eeb 6ebb
000000f0: 9db4 5ab9 f9aa e8b8 91ec 8b38 c27b b338
00000100: 93f0 f73b c81b 843a 9db7 c2ba 31c9 0cbc
00000110: c8d8 25b9 9d6f 113b c022 303a dd5d 943a
00000120: a8d3 af3b f2b6 17bc ac41 f13a 6254 a23c
00000130: 3c7a d93a edca 2c3b 6979 3ab9 4c76 3abb
00000140: f0af c739 0bf6 4cbc 16eb 193a 86c9 873c
00000150: 1866 003a 96ee aeba ad59 3eb9 c420 3a3b
00000160: 6dcc f8ba 0df3 9fbb d9cc 63ba 650a f6ba
00000170: 1149 b23b 67e6 003b b76f 07bb a9e9 d4bb
00000180: e07b 1c38 d830 cab9 a89b e339 12e4 393b
00000190: c09b 35b7 ab70 5436 f6b3 c635 d251 87b6
000001a0: 7d71 86ba 898e b7ba 23b3 4739 aa81 aa39
000001b0: 4806 e33a f70e 99ba c463 ed37 6ad4 083a
000001c0: 5a00 a838 926f c4b9 988c ba39 671e fb3a
000001d0: fbdb 34ba b8f8 43ba 70b0 95b9 47a7 36ba
000001e0: d313 1a3a 6abe 553a 368b 5b39 6c48 c83a
000001f0: 5d72 e639 2084 07b9 08d3 3ab9 6d15 b639
00000200: 44dd 74b9 d366 923a 9bc7 e139 1edb 86ba
00000210: 33db 873b 1f86 673b 4de7 ffb8 39a0 12bb
00000220: 46fb 5abc d265 35bc d556 863a 727c d13b
00000230: 2acf 12bb 46cb 22bb 20f1 9939 a860 bdb9
00000240: 30af 293b ea12 103b d817 003a 016a 48ba
00000250: 8242 51bb d66a afbb d397 a7ba f30d adbb
00000260: 8646 833b b006 40bc 7afa 11bb 47a4 c33c
00000270: 724b fbb9 9e18 463a 21c6 74b9 70fb c6ba
00000280: b62a 8aba e4df 06ba cc3c ceb9 05ae 82bb
00000290: f943 61b9 b4dc 2a39 d759 53b9 59b0 33ba
000002a0: 9174 77bc 4f07 63bc f842 2c3a 12e5 b83b
000002b0: e980 1bbb fa4f fdba 5fd8 15b9 7e77 0cbb
000002c0: 1d1b 98bb 1ee0 85bb 30df df37 ac22 d03a
000002d0: 6464 f53b 5398 703b 5f7f 4cba 20ca 2abb
000002e0: c91d 8dba 5817 ebba a63a 16b9 49a3 07bb
000002f0: d697 153c 7769 ca3b 06e2 27ba 84c7 79bb
00000300: 5bb4 533c 4eb3 d33b a02a b339 32bf d0ba
00000310: 6424 8aba 6472 8fbc 97fe f23a ca22 d33c
00000320: 90c7 293a c059 e1b8 217e 2b3a 703e 813b
00000330: 5483 1a3a a04f ee38 af41 d839 a8ea c839
00000340: 9c40 b938 c40c 1aba 2c48 033a 7aee 343b
00000350: 805e 03ba ac25 2739 aa47 0d39 e65e feb9
00000360: d060 c738 bcd3 a5ba 0b81 b8b9 3428 c4bb
00000370: 40ad f0b7 65b4 9aba 3dfd b838 8c20 de3a
00000380: e805 04bb d81e 9fba 9a91 8838 20f2 2439
00000390: 92cf 20bb 0cb7 46bb f638 91ba a420 04bc
000003a0: 7eb5 9d3a 34c3 23bc fa02 d53a d2a4 983c
000003b0: 9610 ad3a be01 b53a 0879 0c37 f797 4dba
000003c0: 4a39 b53a 31cf 4cbc a62d 203b e00a d83c
000003d0: 2e61 143a a002 cbb8 ba65 bfb8 8a2c 303a
000003e0: 2196 01bb f6e5 d3ba fcba dfb9 b05d 65b9
000003f0: a966 d7b9 362a f7ba d7d3 16b9 debe 463a
