CartPoleHighRewardIn2026/checkpoints/checkpoint_ep700_reward500.00.pt (torch, 421217 bytes, 33 tensors)

feature_layer.0.weight f4 [128, 4]
-0.007416693 -0.054776005 -0.5171917 0.18162365 0.24200085 0.16258585 0.50841683 0.1376068
-0.118386455 0.026044613 -0.7806693 -0.207816 0.032872662 -0.06371623 0.43695313 -0.028349672
0.023306264 -0.07078819 0.8942444 -0.10517472 -0.03002821 0.04955384 -0.38312018 0.09179523
0.020315163 0.014413199 0.13073221 0.008766681 -0.101366736 0.102350846 -0.2516904 0.08807644
-0.09289687 0.022492448 0.27701667 -0.041084684 0.20735593 -0.035960384 -0.25558048 -0.024892313
0.06639028 -0.06342673 0.1495419 -0.09915645 0.056384187 -0.09242374 0.34285522 -0.06447174
0.02263738 -0.014524316 0.5615338 0.0013067527 -0.008740518 0.138058 -0.58032966 0.19122106
0.005034221 -0.015248385 -0.10457767 0.0063692373 0.082568616 -0.08105806 0.7341592 -0.2233017
0.009650899 -0.046591505 0.49102083 0.018500036 -0.26088706 0.0030824428 -0.41452667 -0.016069504
0.00027313404 0.0041447026 1.2053691 0.13625963 -0.009330206 -0.10766832 0.86838835 -0.054886233
0.00076078804 -0.007374691 -1.1997467 -0.1081544 -0.056453783 0.046219118 0.805877 0.30725095
0.122802824 -0.11713695 -0.8985764 -0.13528565 0.062416475 -0.017781818 0.6084163 -0.094165474
0.0018426157 0.0010914108 1.2400956 0.14813006 -0.0037228507 -0.007270082 1.0766518 0.10278187
0.011922507 -0.022687458 0.9960527 -0.039521407 -0.06463618 0.051599275 -0.03984944 0.06286002
0.26146042 0.20149362 0.5694103 0.18135703 -0.09012554 0.09270612 0.46976084 0.13503264
0.3693218 -0.030587103 0.45765072 0.066244245 0.0028080961 0.013482799 1.1242043 0.13901903
0.017818183 -0.076693706 0.18928932 -0.20336138 0.052494653 -0.058061484 -0.4831054 -0.0828908
-0.17015123 -0.077083215 -0.8525149 -0.21174057 0.25461575 -0.09825007 0.27594024 -0.24447927
-0.2637423 -0.072261736 -0.13919748 -0.03898807 -0.106433995 0.06622189 0.65915847 0.10221681
0.17070344 -0.022339508 1.1740173 0.029089315 0.058879234 -0.063264675 0.91823155 -0.122085996
-0.0037736536 0.02974907 0.13265575 -0.25797406 -0.024806716 0.011535476 1.1124234 0.13546754
-3.217726e-05 -0.011730249 -1.3789659 -0.17075029 0.03743566 -0.034730338 0.042816807 -0.018897992
-0.20032299 -0.09069485 -0.63593674 0.06291258 -0.12065211 -0.122740835 -0.23882024 -0.15162154
0.2233116 -0.038898006 -0.06428885 -0.026302045 -0.13460557 -0.27585244 0.27713516 -0.26093638
-0.11538125 0.008296418 -1.090539 -0.12132527 0.011388146 -0.009018653 -1.3931956 -0.16148399
-0.000637903 0.0027826722 1.0300052 0.1602126 -0.024295513 0.024423407 -0.06565696 0.011955388
0.2175948 -0.02889357 0.0025943334 -0.1200361 -0.1659221 0.104345426 0.7105591 -0.30712983
0.06444578 -0.08799776 -0.4043045 0.0027372593 0.00044597735 0.029070044 0.33830693 0.4204828
-0.12791578 -0.05998235 -0.091386154 -0.109566286 0.07872569 0.2294751 -0.31621403 0.18505557
0.026403999 -0.0013430095 -1.2677189 -0.19800857 0.06840242 -0.04729495 0.8270484 -0.2592838
0.21255979 0.04162623 -0.074033715 -0.037048504 -0.012433244 0.034913484 1.1332211 0.03449925
-0.00036427382 0.021778144 1.1213261 0.1017727 0.16049242 -0.05153887 0.37924084 -0.0056334925
00000000: bb07 f3bb ce5c 60bd ad66 04bf 8dfb 393e
00000010: 12cf 773e e87c 263e 9b27 023f cce8 0c3e
00000020: 9974 f2bd 835b d53c f1d9 47bf b8cd 54be
00000030: 7ca5 063d a87d 82bd 52b8 df3e 923d e8bc
00000040: c7ec be3c 66f9 90bd 33ed 643f d865 d7bd
00000050: b8fd f5bc f8f8 4a3d 5428 c4be 23ff bb3d
00000060: fc6b a63c 5725 6c3c aade 053e 20a2 0f3c
00000070: 5d99 cfbd 529d d13d 90dd 80be 6c61 b43d
00000080: b740 bebd 1542 b83c 21d5 8d3e 6a48 28bd
00000090: 1d55 543e 324b 13bd 72db 82be f7ea cbbc
000000a0: a1f7 873d e0e5 81bd 8321 193e 8912 cbbd
000000b0: 1bf3 663d a848 bdbd b88a af3e c209 84bd
000000c0: 0772 b93c 66f7 6dbc aec0 0f3f 5847 ab3a
000000d0: 6434 0fbc 145f 0d3e 7c90 14bf 74cf 433e
000000e0: 1bf6 a43b 5dd4 79bc d12c d6bd 09b5 d03b
000000f0: bc19 a93d c501 a6bd dbf1 3b3f 33a9 64be
00000100: ce1e 1e3c bcd6 3ebd 1567 fb3e 638d 973c
00000110: fd92 85be cf02 4a3b d73c d4be 31a4 83bc
00000120: 6e33 8f39 49d0 873b 8949 9a3f a587 0b3e
00000130: b8dd 18bc 3581 dcbd b34e 5e3f 63d0 60bd
00000140: 9f6f 473a 64a7 f1bb 4d91 99bf 0e80 ddbd
00000150: 153c 67bd 4250 3d3d f44d 4e3f ff4f 9d3e
00000160: 0c80 fb3d 7fe5 efbd 1a09 66bf 5288 0abe
00000170: 6ba8 7f3d 2dab 91bc 2cc1 1b3f d4d9 c0bd
00000180: ec83 f13a ab0d 8f3a 74bb 9e3f 68af 173e
00000190: 12fb 73bb de39 eebb bacf 893f 4d7f d23d
000001a0: 9e56 433c 0cdb b9bc 4ffd 7e3f 33e1 21bd
000001b0: f95f 84bd c359 533d 2b39 23bd c1bc 803d
000001c0: 24de 853e 5854 4e3e e0c4 113f a8b5 393e
000001d0: bd93 b8bd b5dc bd3d 7e84 f03e ff45 0a3e
000001e0: bf17 bd3e ce91 fabc 3251 ea3e 10ab 873d
000001f0: 0908 383b f5e6 5c3c ede5 8f3f 015b 0e3e
00000200: 70f7 913c 9711 9dbd 0fd5 413e f73d 50be
00000210: a204 573d e1d1 6dbd 9759 f7be a7c2 a9bd
00000220: 203c 2ebe cedd 9dbd 6b3e 5abf 85d2 58be
00000230: ff5c 823e 5537 c9bd 0a48 8d3e c658 7abe
00000240: 3b09 87be f6fd 93bd c989 0ebe f4b1 1fbd
00000250: 11fa d9bd 589f 873d 9cbe 283f 0c57 d13d
00000260: e2cc 2e3e 5801 b7bc 3346 963f b74c ee3c
00000270: 5a2b 713d e990 81bd 3911 6b3f 3908 fabd
00000280: 674f 77bb 52b4 f33c e9d6 073e 2d15 84be
00000290: 7437 cbbc 4bff 3c3c e463 8e3f 01b8 0a3e
000002a0: 12f6 06b8 3b30 40bc f481 b0bf 2ad9 2ebe
000002b0: 2256 193d 6641 0ebd ad60 2f3d f6cf 9abc
000002c0: 7821 4dbe 39be b9bd c0cc 22bf 50d8 803d
000002d0: 7418 f7bd 8c5f fbbd 4b8d 74be ad42 1bbe
000002e0: ccab 643e 8453 1fbd dfa9 83bd 6377 d7bc
000002f0: 0bd6 09be 883c 8dbe a9e4 8d3e 7499 85be
00000300: 014d ecbd b3ed 073c c896 8bbf 6279 f8bd
00000310: 5995 3a3c f9c2 13bc 3c54 b2bf 0f5c 25be
00000320: f238 27ba 7e5d 363b 36d7 833f c60e 243e
00000330: 6207 c7bc 9913 c83c 2877 86bd 88e0 433c
00000340: 2cd1 5e3e 35b2 ecbc b105 2a3b 7dd5 f5bd
00000350: 7ce7 29be 0eb3 d53d 34e7 353f 1f40 9dbe
00000360: 26fc 833d 2b38 b4bd 0001 cfbe 9763 333b
00000370: 11d2 e939 4d24 ee3c 9136 ad3e 8649 d73e
00000380: 5bfc 02be 0db0 75bd aa28 bbbd 4a64 e0bd
00000390: ef3a a13d 85fb 6a3e cee6 a1be 357f 3d3e
000003a0: 334d d83c ec07 b0ba 9d44 a2bf c2c2 4abe
000003b0: 9116 8c3d 59b8 41bd 72b9 533f d9c0 84be
000003c0: 46a9 593e 4480 2a3d fd9e 97bd 2cc0 17bd
000003d0: ceb4 4bbc 7101 0f3d 640d 913f 164f 0d3d
000003e0: 01fc beb9 1468 b23c 9d87 8f3f 356e d03d
000003f0: 2058 243e 6c1a 53bd db2b c23e 2999 b8bb

feature_layer.0.bias f4 [128]
0.041565854 -0.5740354 -0.31265208 0.1635652 -0.16884904 -0.17012645 -0.109497204 -0.29126737
0.032919295 0.098244846 -0.23981711 -0.13417138 0.12037416 0.009133613 -0.120096065 0.06265535
0.23549879 -0.2971401 -0.24282812 0.042190254 -0.23494518 -0.28459987 -0.21783186 0.11180608
-0.20764746 -0.18222721 -0.15218994 -0.20605049 -0.51421463 -0.40406302 -0.45484072 -0.23439631
-0.39214474 0.20957123 -0.41180554 -0.38314813 -0.56614953 0.3220032 -0.16837196 -0.08956633
-0.024109852 -0.22523873 -0.2812092 -0.12680209 -0.41066843 -0.1391703 -0.435572 -0.33366075
-0.18334457 -0.27134073 -0.25141886 -0.15382358 -0.43225524 -0.3457236 0.09835256 -0.44620004
-0.33464518 0.017447082 -0.29727742 0.10241888 -0.16941242 -0.163818 -0.21926613 0.047576915
-0.21010487 0.10438192 -0.2172904 -0.0469322 -0.25832444 0.09085338 -0.27535224 -0.037000652
-0.21592829 -0.24710771 -0.14837511 -0.24831764 -0.22836143 0.09976734 -0.19069476 -0.08087515
-0.22319686 -0.2703678 -0.15783654 0.22219661 -0.23620866 0.18397959 -0.32596424 -0.19300078
-0.09780142 -0.34545597 -0.45766822 -0.047758892 -0.32184377 0.08024515 -0.57545877 -0.3065016
-0.66913795 -0.23712663 -0.15763651 -0.14550501 -0.18580659 -0.12440143 -0.1937548 0.0044402964
-0.11010732 -0.07048635 -0.27600554 -0.24517263 -0.27477643 -0.14178419 0.05997278 0.095504716
-0.24714811 -0.23534653 0.30874497 0.1521756 -0.101373814 -0.37231362 0.23627053 -0.15135813
-0.091846846 -0.2104854 -0.12991287 -0.24939005 -0.06854733 -0.1501236 -0.06579591 -0.5453154
00000000: f540 2a3d fcf3 12bf ef13 a0be a37d 273e
00000010: c3e6 2cbe a135 2ebe 1240 e0bd ff20 95be
00000020: 62d6 063d 9834 c93d 9e92 75be 3964 09be
00000030: ba86 f63d 26a5 153c edf4 f5bd 7351 803d
00000040: 9826 713e bf22 98be efa7 78be b0cf 2c3d
00000050: 7895 70be 13b7 91be 510f 5fbe 96fa e43d
00000060: 89a1 54be c599 3abe aed7 1bbe e6fe 52be
00000070: 92a3 03bf 59e1 cebe e2e0 e8be 9605 70be
00000080: 32c7 c8be d799 563e 2dd8 d2be fe2b c4be
00000090: 2def 10bf 9add a43e b369 2cbe 8d6e b7bd
000000a0: 0682 c5bc fba4 66be a7fa 8fbe 68d8 01be
000000b0: 2243 d2be a982 0ebe 4b03 dfbe 95d5 aabe
000000c0: aebe 3bbe 2ced 8abe f9b9 80be ee83 1dbe
000000d0: 8f50 ddbe af02 b1be 116d c93d 5574 e4be
000000e0: 9d56 abbe 2fed 8e3c bf34 98be fdc0 d13d
000000f0: 737a 2dbe e8bf 27be 4d87 60be 03e0 423d
00000100: bb25 57be 30c6 d53d 6081 5ebe fb3b 40bd
00000110: 1a43 84be 5611 ba3d f8fa 8cbe ff8d 17bd
00000120: 4e1c 5dbe ce09 7dbe a5ef 17be fb46 7ebe
00000130: 94d7 69be d252 cc3d 7d45 43be dfa1 a5bd
00000140: b88d 64be a66d 8abe e79f 21be 8287 633e
00000150: afe0 71be 2565 3c3e c9e4 a6be ffa1 45be
00000160: 1c4c c8bd 9bdf b0be 7d53 eabe d49e 43bd
00000170: b5c8 a4be 9257 a43d 4451 13bf c7ed 9cbe
00000180: a04c 2bbf 53d1 72be 776b 21be 44ff 14be
00000190: 1544 3ebe 2dc6 febd a967 46be e87f 913b
000001a0: f27f e1bd 265b 90bd 9950 8dbe 890e 7bbe
000001b0: 7faf 8cbe e02f 11be 05a6 753d fa97 c33d
000001c0: 6514 7dbe aefe 70be d213 9e3e ecd3 1b3e
000001d0: 139d cfbd e49f bebe e7f0 713e a0fd 1abe
000001e0: 331a bcbd 7c89 57be e107 05be 1b60 7fbe
000001f0: 8b62 8cbd 00ba 19be 02c0 86bd ca99 0bbf

feature_layer.2.weight f4 [128, 128]
-0.33289677 -0.45580995 0.017082265 0.36121488 0.30704263 0.04206834 0.077088825 0.14644898
0.28494957 -0.0062689804 0.16568434 0.09473493 0.1519905 -0.1728244 0.07627175 -0.010359053
0.38314718 0.18845125 1.5335408 0.5028997 -1.2990644 -0.07946416 0.16831848 0.2497683
0.07449578 -0.26771963 0.27748835 -0.03115934 -0.07272381 -0.12956813 0.024655508 0.13962658
-0.29646558 -0.062080074 -0.36889026 -0.06442131 0.07322854 0.3718096 0.06676155 -0.24386893
0.14934325 0.5556283 -0.8464459 0.150623 0.006127377 0.03137687 -0.1438252 0.13820782
-1.2142984 -1.7428987 -0.24799691 0.10928211 0.021140188 -0.6150078 -0.07176224 0.00012987218
0.0170963 0.17183585 -1.2753364 0.30674335 -0.17907004 0.3320553 0.74166787 0.15428272
-0.024678811 -0.07032755 -0.15093131 0.20554265 -0.2736054 0.027026296 0.20685826 0.10652646
0.18776385 -0.028980989 0.4013977 1.0885144 1.6079667 -0.3158985 0.035062402 0.14135413
0.20465 0.10091482 -0.022884974 -0.03902835 0.096685186 0.37707192 -0.078341335 0.105299585
0.032045882 -0.3012818 -0.51991975 -0.25085488 0.001067585 0.030680394 0.41831344 -0.09934549
0.09959383 0.027023995 -0.077580556 0.06798604 0.033636365 -0.061740145 0.4271276 -0.48196477
0.12128643 -0.07155924 1.575031 -1.7242805 0.24673894 -0.32237932 0.048564587 0.11077385
-0.10611846 -0.9831788 0.17948815 0.08977917 0.093676485 -0.29616508 0.36443987 -0.054439213
0.12661937 -0.11271533 0.1557826 -0.115053676 0.07288394 -0.068386935 -0.005751723 -0.51171273
-0.00043649427 -0.09520099 0.12174276 -0.13266598 -0.24230726 -0.09616145 0.06334859 -0.00049000175
0.16234253 0.03040895 0.028489888 -0.065698154 0.045814656 0.12460105 0.097005285 -0.27301723
0.070335925 0.14196533 -0.7430131 -0.034527555 -0.655769 -0.11126152 -0.34139818 -0.031442348
-0.04526456 -0.2890372 -0.044099867 -0.14776762 0.036185484 -0.232407 0.019418722 -0.27953118
0.15246743 0.019192345 -0.29862282 -0.20213304 -0.8878795 0.19319688 -0.47333208 -0.18926385
-0.11892689 -0.52709454 -0.5400331 -0.06567805 0.12813365 0.2600232 -0.20882949 0.31633228
-0.69947654 -0.8921577 -0.21222691 0.05130483 0.12042784 0.2023515 -0.09012584 -0.2334105
0.2877964 0.36237377 -0.5073132 -0.18460529 0.1005215 -0.37968123 -0.58902234 -0.11554664
-0.28852865 -0.048878927 -0.34320554 -0.07146846 0.05339261 0.09929846 -0.22390102 0.0029901837
-0.08234429 -0.051248167 -0.078589626 -0.7631323 -0.7648193 0.21037628 -0.2212924 -0.047679428
-0.071375795 -0.3574935 0.014541529 -0.108524404 -0.002316519 -0.0130183445 -0.048890766 -0.05685423
-0.098316565 -0.0900833 0.35180262 0.072283335 0.10106386 -0.24227479 -0.29325512 0.12604505
-1.1919963 0.32512364 0.13385624 0.16028889 -0.27941698 0.17960434 -0.4409145 0.028963832
0.06379634 0.12813523 -0.83129334 -1.2118937 -0.24944575 -0.124759845 -0.029449185 -0.08459417
-0.15782508 -0.7052416 0.045159224 -0.039135113 -0.021283852 0.32019943 0.19254228 -0.043451928
-0.077180445 0.01753715 -0.43199825 0.20457481 -0.3400407 -0.07706564 -0.14306709 -0.10429667
00000000: 7271 aabe ec5f e9be 1bf0 8b3c 28f1 b83e
00000010: b134 9d3e da4f 2c3d bfe0 9d3d b9f6 153e
00000020: e9e4 913e 056c cdbb 28a9 293e 6304 c23d
00000030: 66a3 1b3e e1f8 30be 5d34 9c3d 04b9 29bc
00000040: de2b c43e 5df9 403e 114b c43f 09be 003f
00000050: be47 a6bf 1bbe a2bd ae5b 2c3e 43c3 7f3e
00000060: 3e91 983d 8c12 89be f412 8e3e df41 ffbc
00000070: 39f0 94bd 82ad 04be 59fa c93c 45fa 0e3e
00000080: 56ca 97be ad47 7ebd 2fdf bcbe 52ef 83bd
00000090: d8f8 953d d45d be3e 48ba 883d c7b8 79be
000000a0: 70ed 183e a83d 0e3f aeb0 58bf ea3c 1a3e
000000b0: 2ac8 c83b 0885 003d ea46 13be 5a86 0d3e
000000c0: 216e 9bbf 4e17 dfbf e7f2 7dbe 4dcf df3d
000000d0: 302e ad3c 2771 1dbf 15f8 92bd 4c2e 0839
000000e0: 8a0d 8c3c bdf5 2f3e 393e a3bf 770d 9d3e
000000f0: 235e 37be 2703 aa3e f2dd 3d3f 4afc 1d3e
00000100: 382b cabc e407 90bd bd8d 1abe c679 523e
00000110: 0216 8cbe 4066 dd3c a7d2 533e 8b2a da3d
00000120: 2b45 403e 8a69 edbc 0084 cd3e 7154 8b3f
00000130: dad1 cd3f 73bd a1be 989d 0f3d 23bf 103e
00000140: c58f 513e 6eac ce3d 4579 bbbc 31dc 1fbd
00000150: e202 c63d 920f c13e 6c71 a0bd 4fa7 d73d
00000160: 8b42 033d 9c41 9abe 7619 05bf 0d70 80be
00000170: 35ee 8b3a 7355 fb3c 2e2d d63e a675 cbbd
00000180: daf7 cb3d 6d61 dd3c 8ee2 9ebd 443c 8b3d
00000190: 49c6 093d 3ce3 7cbd 78b0 da3e 16c4 f6be
000001a0: 0565 f83d a78d 92bd 9e9a c93f 39b5 dcbf
000001b0: 22a9 7c3e e70e a5be a9eb 463d 66dd e23d
000001c0: a354 d9bd 9bb1 7bbf becb 373e 24de b73d
000001d0: 75d9 bf3d f3a2 97be dd97 ba3e a7fb 5ebd
000001e0: 82a8 013e 4cd7 e6bd 7985 1f3e 43a1 ebbd
000001f0: 2d44 953d 730e 8cbd f378 bcbb 9bff 02bf
00000200: 45d9 e4b9 bdf8 c2bd 4554 f93d 97d9 07be
00000210: 651f 78be 4bf0 c4bd e8bc 813d 7673 00ba
00000220: 1f3d 263e 311c f93c a063 e93c c18c 86bd
00000230: 26a8 3b3d d62e ff3d b5aa c63d eac8 8bbe
00000240: 480c 903d 5c5f 113e 1b36 3ebf c46c 0dbd
00000250: 7ae0 27bf 14dd e3bd becb aebe b1c9 00bd
00000260: 5567 39bd affc 93be 10a2 34bd 6550 17be
00000270: 3b37 143d 1afc 6dbe 0314 9f3c b61e 8fbe
00000280: 6c20 1c3e 4439 9d3c 17e5 98be f7fb 4ebe
00000290: 124c 63bf 67d5 453e 9558 f2be 62ce 41be
000002a0: f18f f3bd abef 06bf 9c3f 0abf 3782 86bd
000002b0: 7835 033e c321 853e 66d7 55be 4ef6 a13e
000002c0: e510 33bf 7264 64bf 0352 59be 0325 523d
000002d0: dfa2 f63d 3b35 4f3e e593 b8bd 2a03 6fbe
000002e0: 0d5a 933e 0e89 b93e 47df 01bf 2b09 3dbe
000002f0: 37de cd3d 9465 c2be 2bca 16bf b7a3 ecbd
00000300: 07ba 93be 4535 48bd a3b8 afbe 0e5e 92bd
00000310: 36b2 5a3d fe5c cb3d 4f46 65be f5f6 433b
00000320: 20a4 a8bd 99e9 51bd 99f3 a0bd a35c 43bf
00000330: 33cb 43bf e16c 573e 7a9a 62be 814b 43bd
00000340: 792d 92bd 6309 b7be 983f 6e3c 0b42 debd
00000350: bdd0 17bb e54a 55bc af41 48bd fbdf 68bd
00000360: 325a c9bd 987d b8bd 791f b43e 4909 943d
00000370: 92fa ce3d e216 78be 8925 96be f411 013e
00000380: 5693 98bf 9b76 a63e 9c11 093e c522 243e
00000390: be0f 8fbe 33ea 373e 8cbf e1be 8f45 ed3c
000003a0: a8a7 823d e235 033e a4cf 54bf 551f 9bbf
000003b0: b56e 7fbe 1782 ffbd 6b3f f1bc b53f adbd
000003c0: e69c 21be b78a 34bf e1f8 383d 244c 20bd
000003d0: 795b aebc 2ef1 a33e ce29 453e a6fa 31bd
000003e0: c810 9ebd 12aa 8f3c e02e ddbe 0f7c 513e
000003f0: d119 aebe 97d4 9dbd 2e80 12be 7e99 d5bd

feature_layer.2.bias f4 [128]
0.40277952 0.38116893 0.41058275 0.31955555 -0.048016693 0.37905052 0.35471722 -0.2176842
0.46739605 0.40820146 0.3167523 -0.034488842 0.40391737 -0.111147985 -0.06414953 0.4729443
-0.048221357 -0.16945732 0.31436616 0.43687803 -0.041927088 0.36509836 0.13708481 0.4561783
-0.059474193 0.440822 0.43936718 -0.048470225 -0.17691381 0.53701055 0.41437703 0.32187015
-0.047278438 0.29984334 0.39808366 0.5020295 -0.024396503 0.29250622 0.41729444 -0.07157339
-0.040326606 0.22285043 0.18026225 0.33340317 0.38534874 0.35178146 -0.051606383 0.22981106
-0.12760976 -0.053624902 0.38307503 -0.017290143 0.36014035 0.30112132 -0.036607537 0.42042628
-0.40655762 0.42115018 -0.009132685 0.18642953 -0.2092637 -0.055384573 0.26925018 -0.13961142
0.20951033 -0.021969175 -0.018118031 0.41273168 0.36562198 0.4666632 -0.18371458 0.4043434
-0.015792891 -0.036618263 0.26480633 0.44224694 0.39600688 0.3892832 -0.038155284 -0.043962892
0.47980845 0.43356678 -0.09714161 0.45402187 -0.013221993 0.46751732 -0.15354143 -0.075450905
0.44459298 -0.024497602 0.45282632 0.41636297 0.44919643 0.4640424 -0.048032604 0.36198503
-0.041685287 0.461582 0.08194466 0.41933826 0.41357753 0.22768448 -0.030570317 0.40160343
-0.0308733 0.34464487 0.39509267 0.39547786 -0.07993729 0.42572644 -0.09780874 -0.14462261
-0.025671842 0.4589005 0.42923313 -0.14826591 -0.018495385 0.4333174 0.4384327 0.2752876
0.1901112 0.40546855 -0.18411076 -0.03725056 -0.15906338 -0.013301435 0.47270885 0.35148242
00000000: 1e39 ce3e 9328 c33e e737 d23e c99c a33e
00000010: 27ad 44bd e912 c23e 7f9d b53e 9be8 5ebe
00000020: 894e ef3e c8ff d03e 5c2d a23e 2c44 0dbd
00000030: 42ce ce3e 8ea1 e3bd d460 83bd c125 f23e
00000040: c283 45bd 3886 2dbe 9af4 a03e 7aae df3e
00000050: bdbb 2bbd 2cee ba3e f65f 0c3e 3490 e93e
00000060: 369b 73bd 6cb3 e13e bcf4 e03e b788 46bd
00000070: e528 35be 8679 093f 3a29 d43e 2acc a43e
00000080: 09a7 41bd 1185 993e 9fd1 cb3e 0185 003f
00000090: 2ddb c7bc 60c3 953e 9ea7 d53e 1295 92bd
000000a0: 832d 25bd e732 643e ab96 383e d2b3 aa3e
000000b0: 6e4c c53e b31c b43e 3761 53bd 9753 6b3e
000000c0: 22ac 02be c9a5 5bbd 6922 c43e 0fa4 8dbc
000000d0: 5164 b83e 932c 9a3e c9f1 15bd 1d42 d73e
000000e0: 5228 d0be ffa0 d73e 42a1 15bc 62e7 3e3e
000000f0: 3949 56be efda 62bd 29db 893e 4cf6 0ebe
00000100: e089 563e b3f8 b3bc 446c 94bc 9151 d33e
00000110: ce32 bb3e 7bee ee3e ad1f 3cbe 1906 cf3e
00000120: 1860 81bc 08fd 15bd b294 873e 316e e23e
00000130: 6ac1 ca3e 2150 c73e b748 1cbd 6f12 34bd
00000140: 74a9 f53e 77fc dd3e 2ef2 c6bd 8e75 e83e
00000150: 0fa1 58bc 6e5e ef3e f739 1dbe 0186 9abd
00000160: b1a1 e33e 32af c8bc dad8 e73e 872d d53e
00000170: 13fd e53e f796 ed3e d6bd 44bd 1a56 b93e
00000180: 31be 2abd 7a54 ec3e 9ad2 a73d 81b3 d63e
00000190: 6fc0 d33e 1f26 693e 9a6e fabc f79e cd3e
000001a0: 01ea fcbc 4b75 b03e 9649 ca3e 137c ca3e
000001b0: 29b6 a3bd d1f8 d93e f34f c8bd f317 14be
000001c0: c14d d2bc 02f5 ea3e 72c4 db3e 05d3 17be
000001d0: a283 97bc c7db dd3e 407a e03e 7ff2 8c3e
000001e0: 83ac 423e 9399 cf3e 8887 3cbe 0b94 18bd
000001f0: 83e1 22be 43ee 59bc e506 f23e 81f5 b33e

value_stream.0.weight f4 [64, 128]
0.035604604 0.14428687 0.063091315 0.05456958 0.07211719 0.26459908 0.12374783 -0.06389472
0.40306312 0.2546404 0.19023928 0.008790979 -0.01788954 0.15934813 -0.12996207 0.29755622
0.095933415 0.4304111 -0.13627025 0.28399605 0.14175034 0.09437434 -0.14864196 0.14527637
0.026023852 -0.0051905974 0.11902427 -0.06740363 -0.51836485 0.40000826 0.062052168 -0.08761095
0.17291993 0.2900544 0.19872414 0.25643864 -0.11559085 -0.0051029 0.17271864 -0.035402603
0.12467582 -0.044329844 0.0817814 0.39880973 0.006020283 0.016261665 -0.12155398 0.15684612
0.09021016 0.1787992 0.13597716 -0.11049066 0.16184855 0.012784767 0.24154562 0.28739113
-0.6138226 0.060268033 -0.0647166 -0.07350592 -0.19084789 -0.08438228 -0.046887334 0.0960623
0.16552453 -0.004171513 0.01661775 -0.035540808 -0.01873657 0.08041872 -0.12459736 -0.013168727
0.024807433 -0.048618153 -0.06266988 0.2238203 0.24880491 0.13791808 0.061984807 0.0028886378
0.26629862 0.07616752 0.09900771 0.3524532 -0.11280725 0.314435 0.11585764 0.116335675
0.03719131 -0.07161357 0.06464653 0.14507662 0.0315192 0.07463288 0.04949207 -0.034035385
-0.10292285 0.11686831 -0.030832399 0.026490973 0.10583733 0.0017419538 0.035189472 0.34801447
0.08654375 0.3117288 0.18573378 0.15212817 0.05671538 0.40549535 -0.08553346 -0.08013867
0.14692543 0.2939233 0.19845784 -0.023231762 -0.067835666 0.19120401 0.15401985 0.009160079
0.193205 0.14583193 -0.003402025 -0.026210424 -0.13222168 0.05346052 0.37563077 -0.103535585
0.044918086 0.13142188 -0.09928514 0.12000512 0.040647812 0.21491304 0.109233305 0.026913412
0.022073844 0.22297594 0.24834432 -0.065707505 0.18006238 0.02464792 -0.06525154 0.073821224
-0.13460277 0.3822401 -0.1555263 0.18775636 -0.05246404 0.14052081 0.093923 -0.02731146
-0.07777306 0.22413196 0.033741955 -0.15869965 -0.4303174 0.07201119 -0.14472815 -0.061869163
0.1411137 0.2740972 0.1591117 0.18403304 -0.08577003 0.10564038 0.22379297 0.090008594
0.1766338 0.09104191 0.02107348 0.08495997 0.15890126 0.011864534 -0.040330533 0.2567934
0.09278002 -0.031705454 0.14382981 -0.10682625 0.015595487 -0.048996154 0.42500928 -0.0023545932
-0.5530705 0.24156967 0.039557848 -0.010548813 -0.1580075 0.022795925 0.19360383 0.16958244
0.22237703 0.10165392 8.538598e-05 0.24363862 0.013539147 0.26215255 -0.20693792 -0.1306081
0.07478838 0.0412934 -0.012416147 0.054522976 0.18648054 0.20224035 0.038300533 0.15665479
0.34180388 0.25839725 0.006827736 0.11927102 -0.1324813 0.21807191 0.1739825 -0.015108183
0.021192266 -0.0787559 0.095867716 0.07778037 0.18106003 0.051205546 0.046218697 -0.043655246
-0.15634815 0.2669868 0.17587715 0.24019656 0.14919153 -0.012171354 0.033324525 0.21644385
-0.0816178 0.24805194 -0.15948977 0.09769429 -0.07747427 0.26719436 0.17328672 0.07682394
-0.06603422 0.29016533 -0.06876565 -0.05315454 -0.1222474 0.070858195 0.25053596 0.038053475
-0.093549706 -0.0806723 0.06919057 -0.09578335 -0.17079934 0.1384546 0.21226513 -0.1922819
00000000: 22d6 113d f0bf 133e 0536 813d 5a84 5f3d
00000010: 2db2 933d 8879 873e 816f fd3d 3cdb 82bd
00000020: 4a5e ce3e 3a60 823e 16ce 423e 0a08 103c
00000030: 168d 92bc 282c 233e c714 05be 4a59 983e
00000040: bd78 c43d d85e dc3e 6e8a 0bbe ee67 913e
00000050: 0027 113e 5547 c13d 9935 18be 54c3 143e
00000060: f92f d53c e315 aabb ffc2 f33d ea0a 8abd
00000070: 8fb3 04bf e2cd cc3e 6a2a 7e3d 5f6d b3bd
00000080: ec11 313e 0382 943e 577e 4b3e ed4b 833e
00000090: e5ba ecbd 3a36 a7bb 28dd 303e 5202 11bd
000000a0: 0956 ff3d 3693 35bd 027d a73d ca30 cc3e
000000b0: cb45 c53b 2f37 853c 4bf1 f8bd 459c 203e
000000c0: 1bc0 b83d 2317 373e 993d 0b3e ed48 e2bd
000000d0: a0bb 253e 3377 513c bc57 773e ee24 933e
000000e0: 7a23 1dbf 9ddb 763d 238a 84bd 468a 96bd
000000f0: a16d 43be 9ed0 acbd ef0c 40bd 50bc c43d
00000100: 437f 293e 30b1 88bb f321 883c 3d93 11bd
00000110: 6f7d 99bc 92b2 a43d e72c ffbd a5c1 57bc
00000120: f538 cb3c d423 47bd 1159 80bd 2631 653e
00000130: b7c6 7e3e 663a 0d3e c8e3 7d3d 4d4f 3d3b
00000140: 4b58 883e b7fd 9b3d 8ec4 ca3d bf74 b43e
00000150: 7d07 e7bd a0fd a03e c546 ed3d 6641 ee3d
00000160: ea55 183d 23aa 92bd 6665 843d f78e 143e
00000170: 471a 013d 20d9 983d 32b8 4a3d b068 0bbd
00000180: 37c9 d2bd a758 ef3d 3a94 fcbc 9903 d93c
00000190: 3ec1 d83d 4552 e43a d622 103d f42e b23e
000001a0: d93d b13d eb9a 9f3e ff30 3e3e 7dc7 1b3e
000001b0: 634e 683d 169d cf3e 2b2c afbd be1f a4bd
000001c0: 9f73 163e 1d7d 963e 8838 4b3e 8950 bebc
000001d0: 6ded 8abd fcca 433e 61b7 1d3e 2814 163c
000001e0: 88d7 453e f754 153e 82f4 5ebb 3eb7 d6bc
000001f0: 1f65 07be 6bf9 5a3d ad52 c03e 770a d4bd
00000200: 07fc 373d 7593 063e 0256 cbbd 3fc5 f53d
00000210: 527e 263d 2a12 5c3e b6b5 df3d 8479 dc3c
00000220: 35d4 b43c ce53 643e f94d 7e3e a891 86bd
00000230: 4662 383e 6fea c93c 99a2 85bd 952f 973d
00000240: 4fd5 09be f9b4 c33e 4942 1fbe 3443 403e
00000250: 89e4 56bd b0e4 0f3e b45a c03d 48bc dfbc
00000260: 7b47 9fbd d982 653e 0135 0a3d 2982 22be
00000270: 9052 dcbe 9a7a 933d 9e33 14be 856a 7dbd
00000280: 1c80 103e 7856 8c3e 2dee 223e 2873 3c3e
00000290: 33a8 afbd fc59 d83d fc29 653e 6d56 b83d
000002a0: 7edf 343e 2e74 ba3d 4aa2 ac3c 7eff ad3d
000002b0: 03b7 223e 7663 423c a131 25bd 6d7a 833e
000002c0: 7303 be3d 94dd 01bd 1f48 133e b9c7 dabd
000002d0: 3784 7f3c 31b0 48bd d19a d93e 854f 1abb
000002e0: 0796 0dbf 0a5e 773e 6907 223d eed4 2cbc
000002f0: b8cc 21be 85be ba3c 1540 463e 05a7 2d3e
00000300: ceb6 633e ee2f d03d 4011 b338 677c 793e
00000310: 4cd3 5d3c dc38 863e 89e7 53be 21be 05be
00000320: a62a 993d 4523 293d 186d 4bbc 7c53 5f3d
00000330: c1f4 3e3e 1818 4f3e 05e1 1c3d 1d6a 203e
00000340: eb00 af3e a54c 843e 33bb df3b 5d44 f43d
00000350: 2ea9 07be 3e4e 5f3e 7828 323e 5088 77bc
00000360: 679b ad3c c64a a1bd 4b56 c43d 514b 9f3d
00000370: cd67 393e e8bc 513d d14f 3d3d d8cf 32bd
00000380: bb19 20be 7eb2 883e 2419 343e 16f6 753e
00000390: aac5 183e 5c6a 47bc 4c7f 083d 75a3 5d3e
000003a0: 3c27 a7bd 5401 7e3e 4951 23be f213 c83d
000003b0: d4aa 9ebd b3cd 883e 1372 313e df55 9d3d
000003c0: f33c 87bd 8d90 943e 01d5 8cbd 93b8 59bd
000003d0: d85c fabd 1a1e 913d 4046 803e f6dd 1b3d
000003e0: fd96 bfbd 8537 a5bd c9b3 8d3d 102a c4bd
000003f0: 06e6 2ebe 0bc7 0d3e 085c 593e 8ce5 44be

value_stream.0.bias f4 [64]
0.69572216 0.64175004 -0.028699104 -0.05806534 -0.04341118 0.6124035 0.69948035 0.62743646
0.034824956 -0.004610223 0.66312456 -0.013716617 -0.006005485 0.05105099 0.69307303 0.69856715
0.44118464 0.048462436 -0.047367994 0.6324399 0.014131298 0.69330245 0.663459 -0.038142957
0.68393755 0.67911905 0.6920856 -0.011195169 -0.008468502 0.6374661 -0.025106601 0.6852263
-0.03199484 -0.061894562 -0.06573958 0.5955745 -0.05131123 -0.08067026 0.6321567 0.708715
-0.086040124 0.6680745 0.70316803 -0.05552101 -0.024924636 -0.1305167 -0.010810478 0.6976585
0.70088995 -0.07901431 0.6968394 -0.04157455 -0.031198466 0.022731949 0.65499145 -0.05421304
-0.043265022 -0.009098264 0.0030694446 0.603792 0.068525024 -0.053719617 -0.02761607 0.027642103
00000000: d91a 323f bb49 243f 621a ebbc ecd5 6dbd
00000010: eccf 31bd 7ac6 1c3f 2511 333f ad9f 203f
00000020: 9da4 0e3d 5b11 97bb 88c2 293f a9bb 60bc
00000030: a9c9 c4bb d81a 513d 3c6d 313f 4cd5 323f
00000040: f4e2 e13e 8c80 463d f104 42bd 95e7 213f
00000050: f686 673c 457c 313f 73d8 293f ca3b 1cbd
00000060: 8816 2f3f bfda 2d3f 862c 313f f16b 37bc
00000070: 79bf 0abc fa30 233f 5cac cdbc fe6a 2f3f
00000080: 050d 03bd 2785 7dbd 79a2 86bd 9277 183f
00000090: b92b 52bd 7336 a5bd 06d5 213f 596e 353f
000000a0: ce35 b0bd ee06 2b3f d202 343f 006a 63bd
000000b0: c02e ccbc 2ba6 05be 6e1e 31bc bf99 323f
000000c0: 866d 333f 41d2 a1bd 1164 323f 134a 2abd
000000d0: ed93 ffbc 5a38 ba3c 85ad 273f 7e0e 5ebd
000000e0: aa36 31bd e310 15bc bc28 493b 1d92 1a3f
000000f0: d956 8c3d 1a09 5cbd 193b e2bc b171 e23c

value_stream.2.weight f4 [1, 64]
0.28464445 0.17127495 -0.24923652 0.03201757 -0.14040944 0.2256159 0.43602106 0.15439028
-1.4570775 -0.3145669 0.22838761 -0.70387334 -0.14061312 -1.8867451 0.2052635 0.4184482
-0.0002817698 -0.7836338 -1.930533 0.40351245 -0.7648731 0.28390124 0.21581179 -0.05179405
0.31567562 0.289863 0.357122 -0.2740107 -0.18060018 0.36293626 -0.012935296 0.31744078
-0.024146521 -0.0035723674 -0.10976188 0.13585873 -0.07433332 -0.060564607 0.37760955 0.36687797
-1.119575 0.22645938 0.34519947 -0.12422462 -0.21480034 -0.5548215 -0.27662364 0.35850102
0.33512893 -1.7046748 0.40614066 -0.10047849 -1.386751 -1.0501397 0.26357248 -0.07722443
-0.050377022 -0.22652407 -0.89708424 0.46945757 -1.0269086 -0.18683393 -0.10339584 -0.6697431
00000000: ebbc 913e b362 2f3e dc37 7fbe db24 033d
00000010: 7ec7 0fbe db07 673e 273e df3e 7c18 1e3e
00000020: 8481 babf ea0e a1be 71de 693e 0b31 34bf
00000030: e3fc 0fbe dd80 f1bf 9830 523e d83e d63e
00000040: 81ba 93b9 3a9c 48bf b51b f7bf 2f99 ce3e
00000050: b9ce 43bf 815b 913e c4fd 5c3e ff25 54bd
00000060: 3ca0 a13e ec68 943e b2d8 b63e 214b 8cbe
00000070: 41ef 38be c8d2 b93e 90ee 53bc 9987 a23e
00000080: edce c5bc 611e 6abb d6ca e0bd 8d1e 0b3e
00000090: 113c 98bd 9812 78bd 0a56 c13e 6ed7 bb3e
000000a0: 3c4e 8fbf f8e4 673e fcbd b03e 7a69 febd
000000b0: 9ff4 5bbe c808 0ebf 9da1 8dbe 728d b73e
000000c0: 0596 ab3e c932 dabf abf1 cf3e abc7 cdbd
000000d0: 0f81 b1bf fa6a 86bf f9f2 863e d827 9ebd
000000e0: 2358 4ebd edf5 67be 50a7 65bf be5c f03e
000000f0: be71 83bf 6551 3fbe 33c1 d3bd 4974 2bbf

advantage_stream.0.weight f4 [64, 128]
0.18979603 -1.4894322 -0.3046699 -0.2409922 0.15269266 -1.3334556 -0.12224305 0.014795754
-1.3064398 0.1922065 -0.20789036 0.06823375 -0.020941895 0.17173044 0.11082562 -1.3208845
-0.108468294 -0.08173646 -0.802783 -1.0539517 0.15064064 -0.776177 0.22765663 -1.4477434
0.1968317 -0.11381289 0.07361315 0.11206292 2.3281376 -0.2425217 -0.98373675 -1.5408103
0.13875632 0.023418427 -0.32608697 -0.06878307 -0.013128988 -0.44615006 -0.29481322 0.0056495494
0.13254854 -0.098784745 0.0034723089 0.2404276 -0.13138644 -0.3455654 -0.0857968 -0.5758672
2.7973256 0.036820263 0.08793328 -0.022100002 -0.34950924 -0.20445043 -0.07516751 0.023430575
-0.22826518 -0.8601279 0.03552564 0.27847195 2.0267174 0.06255223 -1.0143934 0.15016972
0.082136564 0.14934562 0.05131221 -0.34328446 -1.6318824 -0.051841177 -0.02713985 0.044835106
-0.12623113 -0.10955505 0.069764644 -1.6361057 -0.26761788 0.018790262 -0.028665721 -0.1605305
-1.5380327 0.14404175 0.71052825 -1.3613883 0.16830103 -0.10293981 0.1595892 -0.09404411
-0.3301401 0.087873265 -1.3469886 -1.3025117 -0.7619136 -0.39061728 -0.097083926 -1.5635754
0.17835233 -0.41585383 -0.034259003 -2.0144055 -0.2492034 0.1305979 -0.15972117 -0.18843769
0.17912535 0.0045062453 -1.9287968 -0.06065805 -0.11289979 -0.0036087614 0.1524157 -0.15316533
-0.13668363 -1.4514703 -0.19477154 0.3791647 0.13044007 0.030745262 -0.19703428 -0.12909816
-1.0403107 -0.32744667 1.4388288 -0.08797177 0.118323565 -0.073568724 -1.3031597 -0.5272679
-0.18518695 -0.013179665 0.14959206 0.15316598 -0.043350752 -0.0065778634 -0.16812634 -0.10689675
0.0823669 -0.029852476 0.04455369 0.024381865 -0.09505638 0.14856495 0.17222981 0.025290819
0.15903579 0.04937078 0.11525331 -0.17134133 0.060135316 -0.17466538 -0.053917322 -0.17505513
0.06442172 -0.19370686 -0.055782788 -0.07085748 0.11790137 -0.17057997 -0.099824734 0.1223581
0.08169123 0.090616174 0.11187763 -0.12563515 0.04051009 -0.17911741 -0.12276992 -0.031495146
-0.093794666 0.022528699 0.02203844 0.0006615675 0.088997275 -0.028014917 0.14142352 -0.05266963
0.12363328 0.1437956 0.14006063 -0.085257195 -0.09470785 -0.14291434 -0.07003234 0.16157603
-0.046706904 -0.15171467 -0.12826195 -0.165159 -0.089014195 0.059369564 -0.123975776 -0.09863134
-0.1787485 -0.16378975 -0.09331161 -0.18725097 -0.036667556 -0.068716094 -0.08194964 -0.13496962
0.0571723 0.08182308 -0.0799039 0.0010412153 0.115172535 -0.060023572 -0.10458022 0.11562709
-0.10008292 -0.1044096 0.122878425 0.0076833647 -0.13464223 0.035026446 0.05041805 0.16237877
-0.106697075 0.08935593 -0.08117415 -0.008165223 -0.1787589 -0.16826758 0.09072993 -0.04522825
0.074041374 -0.1556254 0.09803577 -0.12029448 -0.12310912 0.13143104 -0.11072384 -0.120377526
-0.1514779 0.06814251 -0.029529693 -0.043512724 0.05134722 -0.08661391 0.03447429 -0.12610053
-0.042647522 0.04293495 0.040439446 0.12288504 0.17171684 0.113165006 -0.12715937 -0.14394747
-0.08525786 -0.04555329 0.17353891 0.026691606 -0.027382018 0.12544772 0.018188242 0.12583335
00000000: e459 423e b7a5 bebf b1fd 9bbe a9c6 76be
00000010: 775b 1c3e acae aabf 905a fabd e469 723c
00000020: 6b39 a7bf c8d1 443e 36e1 54be 23be 8b3d
00000030: 568e abbc 1bda 2f3e 8bf8 e23d be12 a9bf
00000040: a024 debd 7265 a7bd 3083 4dbf e4e7 86bf
00000050: 8a41 1a3e 89b3 46bf d21e 693e a84f b9bf
00000060: 408e 493e bc16 e9bd 7ec2 963d 3f81 e53d
00000070: 3500 1540 9c57 78be 2cd6 7bbf 4639 c5bf
00000080: 2316 0e3e 00d8 bf3c dff4 a6be 23de 8cbd
00000090: f81a 57bc c86d e4be c2f1 96be db1f b93b
000000a0: ceba 073e a84f cabd ad8f 633b a732 763e
000000b0: 2b8a 06be f3ed b0be 3cb6 afbd 086c 13bf
000000c0: 6207 3340 d8d0 163d 5d16 b43d 100b b5bc
000000d0: e0f2 b2be 745b 51be 6cf1 99bd 7af1 bf3c
000000e0: 59be 69be 5831 5cbf 5583 113d e093 8e3e
000000f0: bdb5 0140 621b 803d a5d7 81bf 17c6 193e
00000100: 3737 a83d 0fee 183e c02c 523d fbc2 afbe
00000110: 86e1 d0bf 6a57 54bd 6454 debc 04a5 373d
00000120: bc42 01be 665e e0bd c4e0 8e3d e96b d1bf
00000130: 3605 89be 09ee 993c 60d4 eabc 1b62 24be
00000140: 41de c4bf ae7f 133e 2ee5 353f f941 aebf
00000150: 1b57 2c3e 1bd2 d2bd 5a6b 233e 339a c0bd
00000160: 2008 a9be e6f6 b33d 1f6a acbf b4b8 a6bf
00000170: c50c 43bf fdfe c7be f0d3 c6bd 3d23 c8bf
00000180: fea1 363e cbea d4be 2b53 0cbd 05ec 00c0
00000190: 2d2f 7fbe 75bb 053e f28d 23be cff5 40be
000001a0: a36c 373e 20a9 933b d0e2 f6bf 9374 78bd
000001b0: 0138 e7bd f880 6cbb dc12 1c3e 5fd7 1cbe
000001c0: cbf6 0bbe c7c9 b9bf 3172 47be e021 c23e
000001d0: 1592 053e 7ddd fb3c 5bc3 49be 4f32 04be
000001e0: e728 85bf 17a7 a7be 8b2b b83f 8b2a b4bd
000001f0: a053 f23d 33ab 96bd f0cd a6bf 07fb 06bf
00000200: a6a1 3dbe 86ef 57bc a92e 193e 8bd7 1c3e
00000210: 8f90 31bd 1e8b d7bb 5029 2cbe afec dabd
00000220: faaf a83d 2e8d f4bc ee7d 363d 7abc c73c
00000230: ebac c2bd 6921 183e 035d 303e b12e cf3c
00000240: 47da 223e 0439 4a3d ed09 ec3d 1a74 2fbe
00000250: 7350 763d 7bdb 32be 69d8 5cbd a741 33be
00000260: 89ef 833d 175b 46be 7e7c 64bd ba1d 91bd
00000270: 4676 f13d 84ac 2ebe e970 ccbd e296 fa3d
00000280: bb4d a73d f994 b93d 1920 e53d 80a6 00be
00000290: e8ed 253d 8e6a 37be cc6e fbbd 0e01 01bd
000002a0: 6b17 c0bd 1b8e b83c f589 b43c 0b6d 2d3a
000002b0: 3444 b63d 8a7f e5bc 54d1 103e 1cbc 57bd
000002c0: 7233 fd3d 273f 133e 0e6c 0f3e 539b aebd
000002d0: 30f6 c1bd 2358 12be 1e6d 8fbd 3074 253e
000002e0: bd4f 3fbd 175b 1bbe 1a57 03be 711f 29be
000002f0: 134d b6bd 802d 733d 03e7 fdbd 3aff c9bd
00000300: d909 37be 80b8 27be 281a bfbd b8be 3fbe
00000310: b830 16bd 06bb 8cbd 36d5 a7bd 7a35 0abe
00000320: 802d 6a3d dc92 a73d a8a4 a3bd 6379 883a
00000330: 94df eb3d 47db 75bd 282e d6bd e5cd ec3d
00000340: 46f8 ccbd b3d4 d5bd afa7 fb3d bcc4 fb3b
00000350: a7df 09be e477 0f3d 2883 4e3d 9f46 263e
00000360: ff83 dabd 3e00 b73d a23e a6bd 6dc7 05bc
00000370: 930c 37be 564e 2cbe 9dd0 b93d 4241 39bd
00000380: 01a3 973d 445c 1fbe fac6 c83d f45c f6bd
00000390: a220 fcbd dc95 063e 2ec3 e2bd 7e88 f6bd
000003a0: 061d 1bbe 4d8e 8b3d 41e8 f1bc 663a 32bd
000003b0: 7651 523d a262 b1bd ea34 0d3d 7f20 01be
000003c0: 2baf 2ebd 8fdc 2f3d d5a3 253d 27ab fb3d
000003d0: 8ad6 2f3e 0ec3 e73d 1136 02be f766 13be
000003e0: ac9b aebd 1696 3abd 2fb4 313e 5ba8 da3c
000003f0: 4150 e0bc 5e75 003e 82ff 943c 75da 003e

advantage_stream.0.bias f4 [64]
-0.20049326 -0.05035701 0.043399394 0.16324936 0.016885256 -0.02493676 -0.12356743 0.052002776
-0.04151204 -0.114736244 0.13951692 0.1485541 0.018621746 -0.1413978 -0.026338695 0.15179074
0.2932689 0.0050772666 0.17582862 0.42438698 -0.060869325 -0.05521551 -0.04834623 -0.028479733
-0.043681137 -0.13654703 -0.0520503 -0.019952508 -0.033301342 0.03836653 0.16908625 -0.021156562
-0.07852903 -0.043560773 -0.061561756 0.035000715 0.0030310308 -0.057183858 0.023334635 -0.015331176
-0.03341173 -0.023439318 -0.015439943 0.016063469 -0.029555876 0.02275702 0.0051944754 -0.05751316
-0.02677049 0.35736853 -0.03441921 -0.046518248 0.114255965 -0.043130886 0.22048351 0.006229354
-0.14716758 -0.024698768 0.04204543 -0.03422588 0.111439124 0.034256447 -0.017702885 -0.02970735
00000000: 1b4e 4dbe 2743 4ebd 90c3 313d d72a 273e
00000010: f352 8a3c 2d48 ccbc ec10 fdbd dd00 553d
00000020: 8708 2abd d6fa eabd 86dd 0e3e 911e 183e
00000030: a28c 983c 96ca 10be 3fc4 d7bc 086f 1b3e
00000040: 5727 963e 335f a63b 6b0c 343e 4049 d93e
00000050: 1d52 79bd a929 62bd b206 46bd 544e e9bc
00000060: feea 32bd fcd2 0bbe b232 55bd 7173 a3bc
00000070: fd66 08bd 3926 1d3d f224 2d3e 8750 adbc
00000080: d4d3 a0bd c86c 32bd 2e28 7cbd e95c 0f3d
00000090: 42a4 463b 9f39 6abd 4728 bf3c 9d2f 7bbc
000000a0: bdda 08bd d003 c0bc d1f7 7cbc 8997 833c
000000b0: 2a1f f2bc ee6c ba3c 6b36 aa3b eb92 6bbd
000000c0: c94d dbbc 02f9 b63e 28fb 0cbd eb89 3ebd
000000d0: 08ff e93d 03aa 30bd 6ec6 613e 9c1f cc3b
000000e0: 19b3 16be 1255 cabc d437 2c3d 7030 0cbd
000000f0: 323a e43d 7d50 0c3d a405 91bc d45c f3bc

advantage_stream.2.weight f4 [2, 64]
-0.58093953 0.05813019 -0.07135383 0.13423175 -0.43270817 -0.706981 -0.17833833 0.741608
0.2515037 0.15414895 0.7657224 0.19762267 -0.6695482 0.044669494 -0.035795484 0.24351414
1.1155722 -0.04759623 0.17545418 -1.2986258 -0.18426976 -0.06534418 0.14195198 0.013932788
-0.21396811 0.073828354 0.112041816 -0.6777326 -0.24356548 -0.93152946 0.2745608 0.18078873
0.04026327 0.12313632 -0.20494562 -1.0081595 0.39799353 -0.5682842 0.36282694 0.061903194
0.2520328 0.037971433 0.52245766 1.0437518 -0.007329732 0.6518548 -0.8582685 -0.29565817
0.083355285 1.0173559 -0.5190885 -0.2245132 1.0143145 0.18421459 0.019636929 -0.7770359
0.20030473 0.0062545487 -0.86265886 0.13477851 0.72069734 1.0407702 1.0297558 -0.024053244
1.1001012 -0.24750187 0.097390555 -0.36695 0.38915822 0.6486849 -0.17496656 -0.4287894
0.03443208 -0.111855306 -0.78561425 -0.22922026 0.95374006 -0.011022675 0.013226144 -0.21649025
-1.214632 -0.021310976 -0.3461316 1.2632402 -0.15782547 0.020166963 0.057625696 -0.07919345
0.16080324 0.11608124 0.16573796 0.90571296 0.2885155 1.0226487 -0.26516366 -0.036496937
0.20891653 0.13051327 -0.18021575 1.1202443 -0.4689975 1.0350543 -0.3144275 0.069546334
0.0023781743 0.3857178 -0.44572327 -0.6988299 0.029521802 -1.1105338 1.0693964 0.049124938
-0.21136014 -1.3234481 0.009392102 0.13360068 -0.62297225 0.2291039 -0.6107871 0.65262944
0.2511788 -0.25331905 0.9036763 -0.22990566 -0.8752052 -1.0274893 -0.71483046 -0.10921848
00000000: 74b8 14bf ec19 6e3d f521 92bd 0c74 093e
00000010: ed8b ddbe b5fc 34bf 539e 36be 06da 3d3f
00000020: 18c5 803e 39d9 1d3e 6206 443f 995d 4a3e
00000030: 8367 2bbf 5cf7 363d 499e 12bd c55b 793e
00000040: 12cb 8e3f 44f4 42bd 43aa 333e 5f39 a6bf
00000050: 36b1 3cbe 2bd3 85bd dc5b 113e 5946 643c
00000060: 751a 5bbe 5233 973d 2e76 e53d e27f 2dbf
00000070: 3b69 79be b778 6ebf 3c93 8c3e ae20 393e
00000080: 19eb 243d e52e fc3d 44dd 51be 5f0b 81bf
00000090: cfc5 cb3e 137b 11bf 74c4 b93e 348e 7d3d
000000a0: 710a 813e ef87 1b3d c9bf 053f a999 853f
000000b0: 402e f0bb f5df 263f 7cb7 5bbf 8260 97be
000000c0: 2db6 aa3d b838 823f fce2 04bf cae6 65be
000000d0: 0fd5 813f c0a2 3c3e a0dd a03c d3eb 46bf
000000e0: af1c 4d3e f5f2 cc3b 36d7 5cbf 6103 0a3e
000000f0: 9f7f 383f f537 853f 0acf 833f 4f0b c5bc
00000100: 1ed0 8c3f 2171 7dbe b374 c73d dfe0 bbbe
00000110: bf3f c73e 3710 263f 6f2a 33be 498a dbbe
00000120: a708 0d3d 6514 e5bd 041e 49bf b7b8 6abe
00000130: 4f28 743f 7398 34bc 78b2 583c 9faf 5dbe
00000140: 1079 9bbf 5b94 aebc 2938 b1be dbb1 a13f
00000150: 009d 21be 3035 a53c ec08 6c3d 2d30 a2bd
00000160: 9ba9 243e 00bc ed3d 36b7 293e cedc 673f
00000170: 4eb8 933e 27e6 823f 88c3 87be d07d 15bd
00000180: 37ee 553e 45a5 053e 7a8a 38be 2a64 8f3f
00000190: 7120 f0be a97c 843f a4fc a0be 4f6e 8e3d
000001a0: 25db 1b3b ce7c c53e d735 e4be 84e6 32bf
000001b0: b5d7 f13c f925 8ebf fbe1 883f 3b37 493d
000001c0: cb6e 58be bf66 a9bf 55e1 193c 9ece 083e
000001d0: 1c7b 1fbf 369a 6a3e 8b5c 1cbf b912 273f
000001e0: 829a 803e 09b3 81be 5457 673f 646c 6bbe
000001f0: 730d 60bf c584 83bf 21ff 36bf f0ad dfbd

advantage_stream.2.bias f4 [2]
0.0038824368 -0.0038824368
00000000: 7b70 7e3b 7b70 7ebb

exp_avg f4 [128, 4]
0.0017065792 -0.001392451 -0.0013226516 -0.0024019112 -0.0013494882 -0.0064621405 -0.0008904147 0.003514302
-0.00057115924 0.0001293341 0.0001277294 0.0005337351 0.0057812487 0.0038625277 0.0007831608 0.004171323
0.00035649992 0.00026956908 -4.0252078e-05 -6.6704975e-05 6.7711374e-16 -1.8803513e-15 1.3961905e-16 -1.4119507e-15
6e-45 6e-45 6e-45 -6e-45 -6e-45 6e-45 6e-45 6e-45
-0.0014323783 -0.00087195134 0.00025374212 0.0008290033 0.0023438483 0.0014028103 -0.0006196358 0.00074118446
-6e-45 -6e-45 -6e-45 6e-45 0.00010394352 0.00018865634 -9.899259e-06 -3.3229553e-05
0.0036021853 0.004687934 0.0008480959 0.0017546774 -0.00025955876 -0.00057957455 0.00038344596 0.0019331172
-6e-45 -6e-45 -6e-45 6e-45 0.00018199382 0.0035254217 0.0026744462 0.006625802
0.01136563 0.00816266 0.0009891721 0.005819592 -0.004171458 -0.004631666 3.98632e-05 0.00048654806
0.0018272487 0.0073532914 0.0022802353 -0.0041634394 0.00028946233 -0.0010453259 0.0003646042 0.0018793121
0.0034189913 -0.01056377 -0.0070803394 -0.01644712 0.00065176084 0.0013010938 2.8344843e-06 -0.0011674778
0.00033458814 -0.0009636073 -0.00022003871 0.0002904085 0.0018385195 0.0053673983 0.0015577306 0.0028101236
0.0020101403 0.0018090262 0.00034058897 -0.00074233173 0.0007663606 0.0016542526 0.00015301215 -0.0015174216
-6.249115e-05 -0.0008138463 0.0007704798 0.002594939 -6e-45 6e-45 6e-45 -6e-45
-0.0049282983 -0.00822432 -0.00064808567 0.0015566164 -5.0736015e-09 3.771181e-09 5.6384114e-10 8.813423e-10
-0.0008002687 0.00016621087 2.1346637e-05 0.00031292695 0.0012065629 0.002908608 0.00045618167 -0.0021830965
-6e-45 -6e-45 -6e-45 -6e-45 0.0073815547 0.0019697186 -0.00038278353 0.0038341086
-0.0015546469 -0.0030620743 -0.00013802493 0.0009830756 -0.000677824 -0.00057669886 4.371344e-05 9.846156e-05
-0.06265532 -0.040181927 0.0015726401 0.0034329141 0.017755192 0.011354748 0.0016118123 0.010106626
-0.0045100898 -0.0038767187 0.0021144652 0.003592315 0.00012586958 -0.0006875766 0.0010258694 0.0033557024
-0.0014501903 -0.0014971329 0.00026168424 0.0013392349 0.0013891399 0.0029196644 0.0011146024 -0.001279069
0.004967123 -0.0057837777 -0.006046476 -0.015465758 6e-45 -6e-45 -6e-45 6e-45
-0.0021418561 -0.0022549622 -6.620329e-05 0.000117209136 -0.001378183 -0.0016041261 0.00017632624 0.0009576971
-0.0011885678 -0.0004938699 4.3393346e-05 1.5743381e-06 -0.0015945775 -0.00083557545 0.00021347663 0.0002379716
-0.006649382 -0.017910764 -0.0051770443 -0.007224836 0.0038605253 -0.010351872 -0.008469956 -0.021607604
0.0005023744 0.0010942357 0.00031704732 -0.0002283061 -6e-45 6e-45 6e-45 -6e-45
-0.0009215835 -0.00051151734 -3.7661057e-06 -9.736081e-05 -0.0008438623 -0.00036915822 2.7737718e-05 -0.00029099453
0.0026040012 -8.226049e-05 -0.00014458266 0.0024612164 0.0002048251 0.002152398 -0.0003424011 -0.003544852
-0.00011763986 -0.00045353803 -5.9749007e-05 0.00012189378 0.0022289706 0.002361236 -0.00040598912 -0.0005468603
0.0046489527 0.004781705 -0.0025990668 -0.009411356 0.0012308994 0.005079987 0.0031878182 0.007633754
-0.0006049671 -0.0012380818 -0.000102676546 0.00018391575 0.0017917122 0.00229503 0.00052789145 -0.00029537673
0.0021194632 0.003286323 0.0011294553 -0.0013009999 0.000886293 0.0008343485 -9.382795e-05 1.590624e-05
00000000: 4caf df3a e782 b6ba d35c adba 6269 1dbb
00000010: 4fe1 b0ba 5dc0 d3bb b86a 69ba 3450 663b
00000020: d9b9 15ba dc9d 0739 1aef 0539 5bea 0b3a
00000030: a170 bd3b 7622 7d3b 084d 4d3a 98af 883b
00000040: 9ce8 ba39 f354 8d39 57d4 28b8 f6e3 8bb8
00000050: 2d2a 4326 5c7e 07a7 45f8 2025 c97b cba6
00000060: 0400 0000 0400 0000 0400 0000 0400 0080
00000070: 0400 0080 0400 0000 0400 0000 0400 0000
00000080: a4be bbba aa93 64ba b108 8539 7851 593a
00000090: 409b 193b 81de b73a 0e6f 22ba 0c4c 423a
000000a0: 0400 0080 0400 0080 0400 0080 0400 0000
000000b0: 41fc d938 0dd2 4539 fe14 26b7 f65f 0bb8
000000c0: a412 6c3b 3e9d 993b c152 5e3a 34fd e53a
000000d0: 6315 88b9 97ee 17ba 3f09 c939 a660 fd3a
000000e0: 0400 0080 0400 0080 0400 0080 0400 0000
000000f0: 98d5 3e39 c30a 673b c345 2f3b 411d d93b
00000100: e836 3a3c adbc 053c 1ca7 813a 47b2 be3b
00000110: bab0 88bb 3bc5 97bb c932 2738 6017 ff39
00000120: 4b80 ef3a e1f3 f03b 0070 153b 766d 88bb
00000130: fac2 9739 5103 89ba 5928 bf39 4053 f63a
00000140: 2811 603b aa13 2dbc 3102 e8bb 1cbc 86bc
00000150: eeda 2a3a 7789 aa3a 1238 3e36 0e06 99ba
00000160: a96b af39 979a 7cba 31ba 66b9 f841 9839
00000170: 7afa f03a 00e1 af3b c42c cc3a 0d2a 383b
00000180: 8fbc 033b d91c ed3a 1491 b239 0a99 42ba
00000190: 97e5 483a 82d3 d83a e371 2039 38e4 c6ba
000001a0: ae0d 83b8 4d58 55ba 06fa 493a da0f 2a3b
000001b0: 0400 0080 0400 0000 0400 0000 0400 0080
000001c0: 907d a1bb 4cbf 06bc 4be4 29ba 6107 cc3a
000001d0: df53 aeb1 a993 8131 cbfc 1a30 f342 7230
000001e0: 20c9 51ba e448 2e39 8e11 b337 5810 a439
000001f0: 8825 9e3a 589e 3e3b ab2b ef39 4812 0fbb
00000200: 0400 0080 0400 0080 0400 0080 0400 0080
00000210: f8e0 f13b 6516 013b 56b0 c8b9 ab45 7b3b
00000220: 4bc5 cbba 15ad 48bb c9ba 10b9 8bda 803a
00000230: 00b0 31ba 9b2d 17ba f358 3738 267d ce38
00000240: 6f51 80bd ce95 24bd 0c21 ce3a befa 603b
00000250: 5673 913c 4409 3a3c 7243 d33a 4396 253c
00000260: 60c9 93bb 8c10 7ebb d792 0a3b 0b6d 6b3b
00000270: dcfb 0339 7c3e 34ba 7776 863a 58eb 5b3b
00000280: 5014 beba 723b c4ba aa32 8939 4489 af3a
00000290: cd13 b63a d757 3f3b da17 923a 6fa6 a7ba
000002a0: 3fc3 a23b d885 bdbb 8421 c6bb 1764 7dbc
000002b0: 0400 0000 0400 0080 0400 0080 0400 0000
000002c0: 625e 0cbb fdc7 13bb 9fd6 8ab8 2dce f538
000002d0: 26a4 b4ba 8a41 d2ba 37e4 3839 f70d 7b3a
000002e0: b8c9 9bba 0c77 01ba 4001 3638 d84d d335
000002f0: 2401 d1ba 850a 5bba b2d8 5f39 0488 7939
00000300: 0fe3 d9bb 98b9 92bc 32a4 a9bb 51be ecbb
00000310: de00 7d3b e69a 29bc 92c5 0abc 6e02 b1bc
00000320: c6b1 033a 756c 8f3a 5f39 a639 7465 6fb9
00000330: 0400 0080 0400 0000 0400 0000 0400 0080
00000340: 6c96 71ba 5917 06ba 34bd 7cb6 302e ccb8
00000350: a436 5dba 948b c1b9 4cae e837 a090 98b9
00000360: e4a7 2a3b 4483 acb8 1d9b 17b9 5c4c 213b
00000370: 52c6 5639 3f0f 0d3b 4c84 b3b9 bf50 68bb
00000380: 6bb5 f6b8 d8c8 edb9 029b 7ab8 3aa1 ff38
00000390: ec13 123b f7be 1a3b f0da d4b9 2c5b 0fba
000003a0: 3e56 983b d9af 9c3b 1b55 2abb 1732 1abc
000003b0: 2156 a13a 0576 a63b b7ea 503b 9224 fa3b
000003c0: a896 1eba 2247 a2ba 0d54 d7b8 82d9 4039
000003d0: e3d7 ea3a 3768 163b 3262 0a3a cbdc 9ab9
000003e0: b1e6 0a3b 5a5f 573b 3b0a 943a 5086 aaba
000003f0: 1e56 683a 2eb8 5a3a 7fc5 c4b8 646e 8537
