CartPoleHighRewardIn2026/checkpoints/checkpoint_ep350_reward93.00.pt (torch, 421167 bytes, 33 tensors)

feature_layer.0.weight f4 [128, 4]
0.14361502 -0.030054832 -0.37911165 0.2045105 0.004261199 0.050566144 0.07017113 -0.21191402
-0.11601573 0.010503991 -0.653833 -0.11750717 0.05550212 -0.06639774 0.24557078 -0.058586042
0.03806219 -0.04298147 0.89093983 0.022395488 -0.06329306 0.06419542 -0.48780918 -0.03414016
0.02390407 0.014051258 0.18291518 0.017352464 -0.046023417 0.09899135 -0.15368736 0.09669837
-0.12873212 0.13781466 0.26364985 -0.02845749 0.21648198 -0.052883297 -0.22645397 -0.11382904
0.05154308 -0.15040275 -0.28894728 -0.06625151 0.2272467 0.052786022 0.23208159 0.0598675
0.04697745 -0.038114984 0.3654344 0.006722047 0.0969382 0.14633349 -0.43833986 0.07997183
0.02632208 -0.026753997 0.22264035 -0.026041044 -0.08333402 -0.043004863 0.26233757 -0.25227264
0.040866468 -0.020043112 0.23140292 -0.02529938 -0.10463692 0.08014045 -0.35141653 0.11496569
-0.003755799 0.009378988 0.70435715 0.09095899 -0.010179531 -0.047129855 0.7943945 -0.10961404
0.012121995 0.00704599 -0.7353559 -0.086032614 0.10049808 -0.028122973 0.5450175 0.18334141
0.02836095 -0.009972077 -0.67056787 -0.06904833 -0.015771838 -0.025963407 0.4394366 -0.060806245
0.18575619 0.046555284 0.03503621 0.04692024 -0.10322391 0.08072283 -0.3709437 0.2588876
0.0230791 -0.018329153 0.8764927 0.091524675 -0.17085014 0.017505188 -0.1140198 0.06620206
-0.020789739 0.0038702001 -0.43132794 -0.18125471 -0.06246403 0.089153975 0.07616592 0.16015875
0.2150547 -0.18419701 0.43248433 0.07002335 0.0039108032 -0.0069756056 0.7954903 0.09262641
0.021187264 -0.03571695 0.15581772 -0.0521125 0.031630926 -0.014014265 -0.4270944 -0.022414397
-0.06705306 -0.26833075 -0.4969528 -0.241814 0.09661704 -0.065558426 0.025848415 -0.03166611
-0.019996643 0.06159436 0.33516225 -0.15568161 -0.08417944 0.10901695 0.7405244 0.10877411
0.12486511 -0.08719642 0.87520087 -0.0077611106 0.014960947 0.08555409 0.36263078 -0.30751228
0.14804882 -0.028094068 0.21504706 -0.1678053 -0.006572163 0.26425552 0.29028773 0.14590149
-0.24351035 -0.015149323 -0.42750958 -0.07014247 0.036885157 -0.0007574702 0.075051166 0.040774863
-0.10718291 -0.13469794 0.32513478 0.17100808 0.004207998 -0.13577002 -0.4198591 -0.14980122
0.22598791 -0.1897297 0.27357596 -0.087320775 0.014412533 -0.16580789 0.3856311 -0.11500213
0.0006064398 0.00872984 -0.7887272 0.0053401487 0.020760624 0.0012993781 -0.8953599 -0.11110138
0.1108439 -0.06350214 0.71343553 0.14042778 0.014732891 -0.011310323 -0.22848833 -0.059936192
0.05678591 0.033270326 -0.037847113 -0.27246544 -0.079598576 0.08477376 0.27875224 -0.17287908
0.12316872 -0.11344825 -0.20997453 0.008767043 -0.031755887 0.05102344 0.5469459 0.20025025
-0.048327457 -0.09755549 0.121235944 0.20932384 0.10178381 0.09092264 -0.45428142 0.11183191
0.07887425 -0.06169074 -0.79807293 -0.16469112 0.056374155 -0.057829615 0.4211048 -0.26859203
0.0028577049 -0.004768722 -0.8169844 -0.08006216 0.036861356 -0.038591236 0.81426316 0.14139706
-0.0011929508 -0.0018459139 0.6598795 0.07883133 0.01059204 -0.06564438 0.083337754 -0.0187172
00000000: d10f 133e 8d35 f6bc ec1a c2be 336b 513e
00000010: 87a1 8b3b 721e 4f3d e2b5 8f3d fdff 58be
00000020: a899 edbd ee18 2c3c 9961 27bf 99a7 f0bd
00000030: 3156 633d 8afb 87bd e876 7b3e ebf7 6fbd
00000040: 19e7 1b3d 560d 30bd a214 643f be76 b73c
00000050: cb9f 81bd e378 833d 20c2 f9be 8dd6 0bbd
00000060: 78d2 c33c 3f37 663c 1e4e 3b3e c126 8e3c
00000070: 0d83 3cbd fabb ca3d 3860 1dbe cc09 c63d
00000080: 5ad2 03be 491f 0d3e 1dfd 863e af1f e9bc
00000090: 74ad 5d3e 289c 58bd 8de3 67be 331f e9bd
000000a0: d61e 533d 2e03 1abe e6f0 93be dfae 87bd
000000b0: 5cb3 683e 2836 583d cca6 6d3e a037 753d
000000c0: 6d6b 403d 751e 1cbd 381a bb3e 9e44 dc3b
000000d0: 8987 c63d 72d8 153e 156e e0be 45c8 a33d
000000e0: 67a1 d73c 332b dbbc d5fb 633e 0754 d5bc
000000f0: 07ab aabd de25 30bd 1c51 863e e129 81be
00000100: 9963 273d 7431 a4bc e3f4 6c3e a540 cfbc
00000110: e24b d6bd ad20 a43d deec b3be 2273 eb3d
00000120: da23 76bb 54aa 193c c050 343f b548 ba3d
00000130: 0cc8 26bc 3c0b 41bd 705d 4b3f 537d e0bd
00000140: 559b 463c 0ce2 e63b 4940 3cbf de31 b0bd
00000150: f0d1 cd3d 2662 e6bc 4486 0b3f dabd 3b3e
00000160: 3955 e83c ec61 23bc 56aa 2bbf 3669 8dbd
00000170: f133 81bc 36b1 d4bc d6fd e03e f80f 79bd
00000180: df36 3e3e c1b0 3e3d 2182 0f3d 702f 403d
00000190: 0f67 d3bd 0352 a53d 55ec bdbe ea8c 843e
000001a0: 6110 bd3c 0527 96bc d361 603f 4a71 bb3d
000001b0: 57f3 2ebe 0a67 8f3c 3783 e9bd f294 873d
000001c0: 3e4f aabc 2fa3 7d3b 04d7 dcbe d69a 39be
000001d0: 48da 7fbd 5c96 b63d e1fc 9b3d a800 243e
000001e0: 4d37 5c3e 249e 3cbe 966e dd3e 6768 8f3d
000001f0: 3226 803b 9f93 e4bb 41a5 4b3f eab2 bd3d
00000200: ea90 ad3c f04b 12bd ae8e 1f3e eb73 55bd
00000210: 6e8f 013d 169c 65bc 1eac dabe 669e b7bc
00000220: 1d53 89bd a662 89be 9970 febe 179e 77be
00000230: 28df c53d 7f43 86bd 0ec0 d33c 53b4 01bd
00000240: 00d0 a3bc 5e4a 7c3d 639a ab3e 006b 1fbe
00000250: 4566 acbd 4744 df3d 0293 3d3f f6c4 de3d
00000260: 47b9 ff3d 0994 b2bd 2a0d 603f ea50 febb
00000270: c31e 753c fc36 af3d beaa b93e 4072 9dbe
00000280: 1c9a 173e 8825 e6bc 4c35 5c3e 27d5 2bbe
00000290: 4d5b d7bb 804c 873e 98a0 943e 3367 153e
000002a0: c75a 79be de34 78bc 89e2 dabe dba6 8fbd
000002b0: e414 173d f790 46ba 6db4 993d 8b03 273d
000002c0: b782 dbbd 42ee 09be 1178 a63e be1c 2f3e
000002d0: 3fe3 893b 4c07 0bbe c6f7 d6be 7e65 19be
000002e0: 6069 673e 8148 42be 2612 8c3e 3cd5 b2bd
000002f0: 8b22 6c3c 8bc9 29be 7171 c53e 3d86 ebbd
00000300: 7cf9 1e3a 9a07 0f3c 07ea 49bf 6afc ae3b
00000310: 2f12 aa3c e54f aa3a 4e36 65bf 1f89 e3bd
00000320: 2002 e33d 690d 82bd b6a3 363f 4dcc 0f3e
00000330: 3962 713c ef4e 39bc d8f8 69be a77f 75bd
00000340: 5898 683d 7746 083d 9305 1bbd 9780 8bbe
00000350: 9404 a3bd dd9d ad3d 9db8 8e3e 3707 31be
00000360: e23f fc3d 8e57 e8bd 9003 57be a5a3 0f3c
00000370: 7612 02bd f4fd 503d a604 0c3f 670e 4d3e
00000380: 03f3 45bd 2ccb c7bd 8d4a f83d fd58 563e
00000390: 0874 d03d a635 ba3d 9397 e8be 2108 e53d
000003a0: d388 a13d 6eaf 7cbd 824e 4cbf caa4 28be
000003b0: 96e8 663d bfde 6cbd 0c9b d73e e584 89be
000003c0: 5548 3b3b f142 9cbb e425 51bf a1f7 a3bd
000003d0: effb 163d d811 1ebd 8d73 503f 64ca 103e
000003e0: c95c 9cba 98f2 f1ba dded 283f 5272 a13d
000003f0: 3c8a 2d3c 9070 86bd fcac aa3d d054 99bc

feature_layer.0.bias f4 [128]
0.0013257029 -0.21828626 -0.09051467 0.21825826 -0.0842392 0.14319645 0.14503178 0.20473401
-0.19593573 0.1447757 -0.100595795 0.065742545 0.108898126 0.104919486 -0.05606703 -0.19771829
0.21329819 0.0019574 -0.14642033 0.1443409 -0.14441141 -0.15003887 -0.111443944 0.11721833
-0.35929614 -0.032875605 -0.12996428 0.054517984 -0.16644135 -0.12325495 -0.11924213 -0.14318383
-0.06789171 -0.081539206 -0.17118211 -0.096546516 -0.11172751 0.08507691 -0.04655176 -0.008618884
0.08789552 -0.20714866 -0.35255232 -0.14333226 -0.19019933 0.076140106 -0.06545574 0.0068979645
-0.12683539 -0.18577798 -0.11927911 -0.07110232 -0.19540456 0.022743784 0.103346564 -0.19559892
-0.16443463 0.09346438 -0.18851085 -0.0039942334 -0.16379103 -0.14889629 -0.13563602 -0.015005781
-0.17111945 0.1485577 -0.21121679 0.10124564 -0.14971596 0.13149203 -0.18721187 -0.0005248471
-0.026785666 0.18213414 -0.13802934 -0.13906206 -0.13731411 -0.009040822 -0.2002062 0.10325409
-0.18860607 -0.06494187 -0.1265198 -0.14599149 -0.030585412 -0.04651699 -0.123652264 0.058052223
-0.017149804 -0.06084962 -0.090437405 -0.0420212 -0.16173539 0.08909104 -0.07620977 -0.16013859
-0.2994002 -0.11467437 -0.079786 -0.14258897 0.016403325 0.16619042 -0.17118436 0.047902912
0.023553178 -0.17541924 -0.19312556 -0.15391569 -0.16042866 0.053573478 0.11857264 0.13443826
-0.013071263 -0.13949426 0.21299131 -0.08396293 -0.10951557 -0.08707538 0.19841924 0.098668955
-0.008334274 -0.02771286 -0.15731192 -0.18281777 0.08627787 -0.10051051 -0.021494666 -0.06984116
00000000: 35c3 ad3a 6f86 5fbe c15f b9bd 187f 5f3e
00000010: 9a85 acbd 17a2 123e 3683 143e cba5 513e
00000020: 60a3 48be 1540 143e 2b05 cebd 07a4 863d
00000030: fb05 df3d 07e0 d63d 8ba6 65bd aa76 4abe
00000040: d76a 5a3e b947 003b 36ef 15be 1ace 133e
00000050: 96e0 13be caa3 19be b93c e4bd 2a10 f03d
00000060: aaf5 b7be 92a8 06bd 5b15 05be 404e 5f3d
00000070: 9a6f 2abe 176d fcbd 3835 f4bd c89e 12be
00000080: cf0a 8bbd 07fe a6bd 5d4a 2fbe 2eba c5bd
00000090: 65d1 e4bd ce3c ae3d 0fad 3ebd 3836 0dbc
000000a0: 9102 b43d c71e 54be bd81 b4be b1c5 12be
000000b0: 9dc3 42be 58ef 9b3d a90d 86bd 5208 e23b
000000c0: 23e1 01be 953c 3ebe 9b48 f4bd 189e 91bd
000000d0: 2218 48be 2c51 ba3c 5da7 d33d 154b 48be
000000e0: 8d61 28be 416a bf3d fd08 41be 0fe2 82bb
000000f0: d6b8 27be 4578 18be 2be4 0abe cfda 75bc
00000100: f039 2fbe 821f 183e 3749 58be e059 cf3d
00000110: 244f 19be d9a5 063e 78b4 3fbe e595 09ba
00000120: 9d6d dbbc 5f81 3a3e 9057 0dbe 4966 0ebe
00000130: 129c 0cbe f51f 14bc db02 4dbe e176 d33d
00000140: f321 41be 3e00 85bd 688e 01be cb7e 15be
00000150: 428e fabc 9988 3ebd 663d fdbd 2bc8 6d3d
00000160: bf7d 8cbc 733d 79bd 3f37 b9bd 6c1e 2cbd
00000170: f69d 25be 5d75 b63d de13 9cbd 5ffb 23be
00000180: fc4a 99be 65da eabd d866 a3bd d802 12be
00000190: 4460 863c d22d 2a3e f44a 2fbe d835 443d
000001a0: 98f2 c03c 1aa1 33be b5c2 45be 139c 1dbe
000001b0: 6947 24be dd6f 5b3d 36d6 f23d 2faa 093e
000001c0: da28 56bc 95d7 0ebe 651a 5a3e c2f4 abbd
000001d0: b349 e0bd 9454 b2bd 6a2e 4b3e f312 ca3d
000001e0: 7b8c 08bc 1406 e3bc 6016 21be 9534 3bbe
000001f0: 74b2 b03d 74d8 cdbd 9515 b0bc e208 8fbd

feature_layer.2.weight f4 [128, 128]
-0.16960064 -0.19262955 -0.13082294 0.3509363 0.19593477 -0.10364731 0.15263805 0.09421005
0.07546631 -0.04492424 0.075031325 0.1979343 0.10593428 -0.17972666 0.19062369 -0.20384787
0.27404878 0.093187876 0.27826315 0.40209392 -0.9578325 -0.039490648 0.08055143 0.1728716
-0.09393481 0.067778 0.12103914 0.068329 -0.14291511 -0.16254146 0.008286163 0.19422774
0.076905586 -0.18264244 -0.16169181 0.1595893 -0.17666525 0.058087647 0.22812128 -0.19882739
0.020882042 0.109923914 -0.123336375 0.16202118 0.11147421 0.05660868 0.07384428 0.1508445
-1.0090088 -1.2687944 0.08118832 0.03243311 -0.10262471 -0.14053266 0.02976096 0.00070060894
-0.048982553 0.05820826 -0.9296676 0.022598907 -1.4733917 0.15968835 0.2037761 0.07272703
0.09583554 -0.06591088 -0.4605788 0.26546064 -0.78138274 0.090637945 0.15688106 0.14301077
0.22754358 -0.01249807 0.16681068 0.54471713 0.73584926 0.13922021 0.306323 0.19807035
0.71659166 0.0032196164 -0.27053732 -0.24558802 0.08617705 0.052986212 -0.17561157 0.05508689
0.20367078 -0.13492581 -0.14507851 0.055927444 -0.015401058 0.022340002 0.2535229 -0.23928097
0.006226253 0.24373898 -0.015664935 0.050617047 0.10824823 0.06359565 0.23184463 -0.0640862
0.16589351 -1.1723204 0.41145247 -1.5744222 0.30858806 -0.102965586 0.09041416 0.059831467
0.16581267 -0.8683172 0.098645404 -0.07809788 0.0960689 -0.26624256 0.23908067 -0.06104031
-0.061328545 0.0006824967 -0.51997036 -0.10743554 0.19553588 -0.20286088 0.17754002 -0.32976502
0.014743587 -0.07527142 -0.07378231 -0.107483685 0.059424225 -0.09827436 0.048986726 0.02116915
0.047510013 0.068559766 -0.0040602735 -0.0912499 0.0224605 0.1007276 0.1205555 -0.164386
0.021218184 -0.07345129 0.112274185 -0.07343928 -0.04588622 0.03785765 -0.13776872 0.0138801485
0.069584385 -0.06598684 -0.1561624 -0.18775403 -0.12726991 -0.1560286 0.04720521 -0.052561115
-0.05286871 0.092591755 0.0073751863 -0.14260352 -0.021278959 0.03555395 -0.07463011 -0.009947901
-0.050037935 -0.13213678 -0.15157202 -0.10501571 0.06492739 0.113027796 -0.12297676 0.06943259
-0.09781997 -0.05138821 -0.0036248644 0.04109065 0.025599679 -0.16600277 0.009471683 -0.16714348
0.11552427 0.10611048 -0.15885404 0.02854259 0.0843267 -0.11270432 0.033187952 -0.108159564
-0.10874736 -0.08993664 -0.06494192 -0.14619029 0.009573649 0.122358605 0.016474234 -0.019838631
-0.17820938 0.021543218 0.09726602 -0.017736604 0.14755367 0.11390561 0.048085123 -0.17065664
-0.05685032 -0.071959086 -0.052779645 -0.121521436 -0.07456445 -0.07809936 -0.06505298 -0.15472703
-0.12770648 0.046019465 0.11845873 0.11575131 0.072704084 -0.18161516 -0.05737952 -0.07513691
0.03967812 0.14366181 0.07304116 0.058464907 -0.103552945 0.100700416 -0.15477814 -0.14510193
0.021616658 0.09763084 0.07919347 -0.1768364 0.06552938 -0.07645025 -0.015359374 -0.10443107
-0.13687186 -0.04424033 -0.016321635 0.061676785 -0.1351948 -0.056596488 0.043455847 -0.084004775
-0.13956745 -0.012698692 0.029695945 -0.056970894 -0.010458517 0.12743807 0.0433119 0.0056415377
00000000: caab 2dbe ae40 45be 73f6 05be ecad b33e
00000010: 20a3 483e 0a45 d4bd 264d 1c3e 33f1 c03d
00000020: 158e 9a3d 7b02 38bd 06aa 993d 4aaf 4a3e
00000030: 12f4 d83d 440a 38be db32 433e 7fbd 50be
00000040: 1f50 8c3e 49d9 be3d 8278 8e3e 41df cd3e
00000050: 8334 75bf f2c0 21bd 26f8 a43d 4105 313e
00000060: e560 c0bd 31cf 8a3d 5ee3 f73d 13f0 8b3d
00000070: 5758 12be 4571 26be b0c2 073c a3e3 463e
00000080: ad80 9d3d 9f06 3bbe 8a92 25be 616b 233e
00000090: bce7 34be 50ed 6d3d a098 693e 6899 4bbe
000000a0: d110 ab3c ca1f e13d c897 fcbd e1e8 253e
000000b0: 974c e43d 81de 673d ab3b 973d fb76 1a3e
000000c0: 3327 81bf db67 a2bf 1046 a63d 95d8 043d
000000d0: e72c d2bd cbe7 0fbe 42cd f33c 12a9 373a
000000e0: eea1 48bd c96b 6e3d b2fe 6dbf 5821 b93c
000000f0: 1998 bcbf 5885 233e afaa 503e e9f1 943d
00000100: 6c45 c43d 49fc 86bd fcd0 ebbe 75ea 873e
00000110: b308 48bf 63a0 b93d 6ea5 203e 6a71 123e
00000120: 2f01 693e b4c4 4cbc 6bd0 2a3e 9572 0b3f
00000130: 9e60 3c3f be8f 0e3e 5ed6 9c3e f4d2 4a3e
00000140: 8d72 373f 3300 533b de83 8abe 6d7b 7bbe
00000150: 987d b03d 1208 593d 85d3 33be caa2 613d
00000160: 138f 503e fe29 0abe 768f 14be 2d14 653d
00000170: b854 7cbc 6102 b73c c1cd 813e 1206 75be
00000180: 9905 cc3b b696 793e c053 80bc d253 4f3d
00000190: 3fb1 dd3d 703e 823d ae68 6d3e a03f 83bd
000001a0: fddf 293e 980e 96bf e6a9 d23e ab86 c9bf
000001b0: 41ff 9d3e 9fdf d2bd 0f2b b93d d711 753d
000001c0: ccca 293e 094a 5ebf 9a06 ca3d c8f1 9fbd
000001d0: c5bf c43d f250 88be 90d1 743e 6705 7abd
000001e0: a433 7bbd 94e9 323a c71c 05bf 2a07 dcbd
000001f0: 8f3a 483e c3ba 4fbe 0dcd 353e f6d6 a8be
00000200: 168f 713c e727 9abd 2e1b 97bd 6820 dcbd
00000210: d166 733d 1144 c9bd 4ea6 483d ed6a ad3c
00000220: dc99 423d 1069 8c3d 0b0c 85bb 3ae1 babd
00000230: 15ff b73c 464a ce3d cde5 f63d ce54 28be
00000240: c2d1 ad3c a16d 96bd 02f0 e53d 5567 96bd
00000250: 30f3 3bbd a010 1b3d 3e13 0dbe 9069 633c
00000260: 4282 8e3d 1c24 87bd 09e9 1fbe 9842 40be
00000270: 0b53 02be f6c5 1fbe 405a 413d 534a 57bd
00000280: dc8c 58bd bfa0 bd3d 8cab f13b a806 12be
00000290: 3651 aebc 05a1 113d acd7 98bd 85fc 22bc
000002a0: 94f4 4cbd dd4e 07be b235 1bbe 7a12 d7bd
000002b0: a7f8 843d 1e7b e73d 3ddb fbbd ac32 8e3d
000002c0: d655 c8bd 727c 52bd 228f 6dbb ab4e 283d
000002d0: 6bb6 d13c a1fc 29be 1e2f 1b3c a927 2bbe
000002e0: fd97 ec3d 7450 d93d a2aa 22be 26d2 e93c
000002f0: 7ab3 ac3d 86d1 e6bd 17f0 073d c382 ddbd
00000300: f0b6 debd b330 b8bd 4500 85bd e8b2 15be
00000310: cbda 1c3c 2697 fa3d f9f4 863c a084 a2bc
00000320: 857c 36be 677b b03c 6833 c73d 5b4c 91bc
00000330: 4f18 173e 5847 e93d e8f4 443d 9dc0 2ebe
00000340: e2db 68bd 495f 93bd 782f 58bd 3be0 f8bd
00000350: 3fb5 98bd 8ff2 9fbd 7f3a 85bd c370 1ebe
00000360: 7dc5 02be e87e 3c3d 7e9a f23d 060f ed3d
00000370: e1e5 943d 53f9 39be ca06 6bbd 61e1 99bd
00000380: 8685 223d 151c 133e 9b96 953d e678 6f3d
00000390: 9113 d4bd 053c ce3d 297e 1ebe 9a95 14be
000003a0: 6b15 b13c aef2 c73d 3030 a23d 9a14 35be
000003b0: 4534 863d f391 9cbd e2a5 7bbc f5df d5bd
000003c0: 2328 0cbe 5935 35bd f3b4 85bc cca0 7c3d
000003d0: 8170 0abe b8d1 67bd c2fe 313d b20a acbd
000003e0: c5ea 0ebe 2d0e 50bc e944 f33c 505a 69bd
000003f0: 335a 2bbc 207f 023e d267 313d a6dc b83b

feature_layer.2.bias f4 [128]
0.16576307 -0.03683999 0.22122467 0.14106703 -0.02178842 0.22167856 0.25243947 -0.07212598
0.26573297 -0.04497297 0.09760988 -0.043600734 0.19024469 -0.08632116 -0.14488553 0.25027102
-0.017164623 -0.103948645 0.23383442 0.23698997 -0.0062065925 0.24525873 -0.0423609 0.26732036
-0.03113612 0.22672473 0.204312 -0.03231413 -0.10915437 0.22997409 0.2459181 0.24557038
-0.034028437 0.18068926 0.12940328 0.22346506 -0.037411306 0.24585113 0.2312095 -0.014357254
-0.31943783 -0.02027565 0.06358778 0.2594888 0.23623314 -0.025980586 -0.032498628 0.1688895
-0.1321937 -0.0139002735 0.23449692 -0.038567103 0.22774489 0.17726025 -0.12970847 0.2462582
-0.028547589 0.24888162 -0.010579896 -0.047944136 -0.056848682 -0.028764574 -0.028145246 -0.09315436
0.23258911 -0.045632202 -0.01929415 0.21522526 0.22480427 0.2307664 -0.098694764 0.21902224
-0.04237698 -0.008004288 0.24681647 0.21749237 0.17091326 0.25121206 -0.04718722 -0.006119212
0.13337763 0.24376717 -0.10141116 0.20964514 -0.034390464 0.23739885 -0.14084561 -0.06452633
0.2680944 0.0 0.22565368 0.23981991 0.24505521 0.21718416 0.09051637 0.21429022
-0.074818574 0.25876456 0.113074966 0.23480931 0.26544413 -0.033285704 0.2916313 0.23196177
-0.028194072 0.2148434 0.25020695 0.25621644 -0.039207973 0.23763381 -0.08801264 -0.16240865
-0.03136043 0.2728186 0.25954473 -0.05519 -0.019785618 0.20681655 0.25343943 0.19259247
0.25857404 0.24045707 -0.10137981 0.24107105 -0.11800271 -0.0129704485 0.26272893 0.26462626
00000000: cbbd 293e 88e5 16bd b888 623e e073 103e
00000010: a17d b2bc b4ff 623e bf3f 813e c9b6 93bd
00000020: 270e 883e 9435 38bd b0e7 c73d af96 32bd
00000030: 81cf 423e 26c9 b0bd df5c 14be 8623 803e
00000040: d39c 8cbc 07e3 d4bd 4a72 6f3e 80ad 723e
00000050: ac60 cbbb 1b25 7b3e a082 2dbd 37de 883e
00000060: 2d11 ffbc 872a 683e 2a37 513e d25b 04bd
00000070: 548c dfbd 547e 6b3e f4d1 7b3e cd76 7b3e
00000080: 6761 0bbd 9b06 393e 4b82 043e 06d4 643e
00000090: 993c 19bd 66c0 7b3e 2fc2 6c3e b03a 6bbc
000000a0: 5b8d a3be 1f19 a6bc 4f3a 823d b7db 843e
000000b0: 1ae7 713e 3dd5 d4bc 481d 05bd 5ef1 2c3e
000000c0: c95d 07be f9bd 63bc f61f 703e 8af8 1dbd
000000d0: f535 693e b683 353e 4cd2 04be 1c2b 7c3e
000000e0: a2dc e9bc d3da 7e3e 4d57 2dbc 1261 44bd
000000f0: 2ada 68bd afa3 ebbc dc90 e6bc b7c7 bebd
00000100: d72b 6e3e d5e8 3abd c40e 9ebc 0364 5c3e
00000110: 1733 663e 074e 6c3e 7b20 cabd 5e47 603e
00000120: 7c93 2dbd 6b24 03bc 75bd 7c3e 52b6 5e3e
00000130: e303 2f3e de9e 803e 6347 41bd ac83 c8bb
00000140: 2594 083e 1a9e 793e a7b0 cfbd 37ad 563e
00000150: 04dd 0cbd af18 733e d539 10be 6126 84bd
00000160: ab43 893e 0000 0000 c211 673e 5a93 753e
00000170: c1ef 7a3e 8665 5e3e a660 b93d e56e 5b3e
00000180: 7b3a 99bd ca7c 843e d993 e73d da71 703e
00000190: 4be8 873e 9756 08bd b350 953e 6387 6d3e
000001a0: 41f7 e6bc e9ff 5b3e 201b 803e cd2e 833e
000001b0: 8a98 20bd 4756 733e f93f b4bd 744e 26be
000001c0: cb73 00bd e1ae 8b3e 0ce3 843e e90e 62bd
000001d0: 7315 a2bc b8c7 533e d0c2 813e f636 453e
000001e0: d163 843e 613a 763e 38a0 cfbd 54db 763e
000001f0: 68ab f1bd 0182 54bc 6884 863e 187d 873e

value_stream.0.weight f4 [64, 128]
-0.12375056 0.053678 0.058303006 0.11430158 0.07851848 0.24113062 0.076984935 -0.22754946
0.29537112 -0.016399221 0.06007752 0.019934392 0.012986726 -0.96142334 -0.8197114 0.218429
0.10195112 -0.6653503 -0.028162148 0.24574874 0.17074105 0.10779317 -0.5005662 0.13608177
0.016711034 -0.0437592 0.020856453 -0.07295037 -0.6144157 0.22071306 0.17336063 0.054058645
0.17542168 0.061761435 0.0900887 0.084029615 -0.11777064 0.062166575 0.12789753 -0.054583732
-0.430373 0.0036838895 0.21753255 0.28819883 -0.006134959 -0.0073969816 -0.11640809 -0.09504775
-0.3519685 0.13538347 0.14932561 -0.13463016 0.20440358 -0.03241255 -0.42256585 0.22591199
-0.11213371 0.03016794 -0.06054515 -0.100014895 -0.4938101 -0.07329828 -0.14099771 -0.158925
0.166457 0.037431832 0.04716679 -0.07887876 0.013564631 -0.038938724 -0.1964651 -0.031530876
-0.0055895434 -0.025142148 -0.03592621 0.18209945 0.18747677 0.14323507 0.057148658 -0.002744971
0.16226028 -0.12140169 -0.69363654 0.19675818 -0.06776685 0.21831256 -0.07127988 0.0918292
0.06978129 -0.098900884 0.00460496 0.24287494 0.061197456 -0.08030522 0.09655125 -0.02484493
-0.060008198 0.047026545 -0.09993494 -0.0044850116 0.18244773 -0.031139644 0.17259352 0.2806553
0.06253271 0.23936002 0.2545118 0.16542207 0.043775555 0.26565757 -0.6957902 -0.3828921
0.16915585 0.22280754 0.15982807 0.032980084 -0.088173926 0.15056472 0.119881965 0.05895191
0.3326877 0.17181084 -0.9701795 0.087576255 -0.27490506 0.05863036 0.29383963 0.031902857
-0.04056283 0.09835446 -0.1026971 0.22336765 0.039881933 0.18748015 0.105058536 0.17233174
-0.068021566 -0.020192506 0.13969885 -0.06516297 0.23448832 -0.5591645 -0.31952113 0.009723745
-0.12117404 -0.6894213 -0.027180824 0.17363486 -0.037241653 0.16042005 -0.06482337 -0.014328235
-0.087276034 0.1930216 -0.010408355 -0.1630029 -0.12132583 -0.10540426 -0.018044116 0.09297284
0.13998511 0.038006514 0.06933626 0.02792892 -0.086893864 0.17284344 0.1886098 0.069293335
-0.33592033 0.1693784 0.116838634 0.019080622 0.17446312 0.03259064 -0.03591393 0.0016945743
0.043187395 -0.07113443 0.16152617 -0.12851085 0.062483773 -0.011340277 0.093649335 -0.03821603
-0.041459914 0.2137215 0.042962503 -0.004257534 -0.30820197 0.031928197 0.13016525 -0.070949316
0.23637432 0.14122309 0.00747987 0.20293224 0.06199915 0.1694783 -0.2752186 -0.13404493
0.051259506 0.06213825 0.030212568 0.012839977 0.14901248 0.23630413 0.026913127 0.15232578
0.24676257 0.12195339 0.015398798 -0.0057979687 -0.12342231 0.14950295 0.0009603389 -0.038143314
0.050148714 -0.10259978 0.052845456 0.19518743 0.23112237 -0.064267375 0.096664965 -0.024631996
-0.09170371 0.21035838 0.16481695 0.22964779 0.23423521 -0.024697747 0.15391618 0.14629723
-0.10685834 0.20740025 -0.06581025 0.12792979 -0.086995825 0.16378804 0.040272616 -0.21090527
-0.06531685 0.238448 -0.09105857 -0.0083803125 -0.1437876 0.047622543 0.22899716 0.13818483
0.060170237 -0.029476818 -0.12581818 -0.00838304 -0.30167302 0.15011486 0.14883935 -0.036146615
00000000: ef70 fdbd 76dd 5b3d 22cf 6e3d f216 ea3d
00000010: 4cce a03d f2ea 763e 47aa 9d3d ba02 69be
00000020: e23a 973e a957 86bc d813 763d 734d a33c
00000030: 47c6 543c d71f 76bf 9bd8 51bf daab 5f3e
00000040: c0cb d03d 6654 2abf 4eb4 e6bc 8fa5 7b3e
00000050: bed6 2e3e aac2 dc3d 1b25 00bf 0559 0b3e
00000060: 94e5 883c d93c 33bd 27db aa3c 0167 95bd
00000070: 594a 1dbf 9b02 623e 7385 313e 996c 5d3d
00000080: bea1 333e 8ff9 7c3d 6d80 b83d b817 ac3d
00000090: bc31 f1bd 61a2 7e3d 92f7 023e 3193 5fbd
000000a0: da59 dcbe 696d 713b dac0 5e3e cc8e 933e
000000b0: c407 c9bb 6162 f2bb 5d67 eebd 65a8 c2bd
000000c0: 3735 b4be f7a1 0a3e d0e8 183e 7ddc 09be
000000d0: 2c4f 513e 06c3 04bd 8d5a d8be 7955 673e
000000e0: 5ca6 e5bd c122 f73c 31fe 77bd 9cd4 ccbd
000000f0: add4 fcbe 691d 96bd b461 10be 3cbd 22be
00000100: b473 2a3e 1f52 193d f731 413d 308b a1bd
00000110: 303e 5e3c 367e 1fbd 262e 49be 8526 01bd
00000120: 7d28 b7bb e8f6 cdbc 5d27 13bd 4778 3a3e
00000130: e9f9 3f3e 37ac 123e b614 6a3d f9e4 33bb
00000140: 8f27 263e 73a1 f8bd 2a92 31bf fa7a 493e
00000150: 59c9 8abd 548d 5f3e 30fb 91bd f310 bc3d
00000160: 7ee9 8e3d 8c8c cabd 34e5 963b 35b4 783e
00000170: 2faa 7a3d 1077 a4bd a9bc c53d 9887 cbbc
00000180: 28cb 75bd e89e 403d b1aa ccbd 01f7 92bb
00000190: 94d3 3a3e 9118 ffbc 5bbc 303e 0db2 8f3e
000001a0: 2611 803d cb1a 753e 5f4f 823e 6764 293e
000001b0: ff4d 333d 4504 883e 4e1f 32bf 6f0a c4be
000001c0: 3137 2d3e a927 643e f8a9 233e 2016 073d
000001d0: 8894 b4bd a32d 1a3e ad84 f53d 8f77 713d
000001e0: 0b56 aa3e 2eef 2f3e af5d 78bf 2e5b b33d
000001f0: 5bc0 8cbe 6326 703d 2672 963e 92ac 023d
00000200: 3625 26bd 106e c93d db52 d2bd 7dba 643e
00000210: 3d5b 233d ccfa 3f3e ee28 d73d bb77 303e
00000220: e44e 8bbd c16a a5bc 370d 0f3e 2a74 85bd
00000230: b51d 703e 6825 0fbf 4698 a3be 5850 1f3c
00000240: 182a f8bd ea7d 30bf 52aa debc 56cd 313e
00000250: b48a 18bd 2745 243e 1dc2 84bd f9c0 6abc
00000260: c7bd b2bd 74a7 453e ce87 2abc 3bea 26be
00000270: ad79 f8bd 30de d7bd 41d1 93bc 8b68 be3d
00000280: 4258 0f3e b8ac 1b3d 2b00 8e3d 31cb e43c
00000290: 69f5 b1bd dffd 303e ed22 413e aae9 8d3d
000002a0: c0fd abbe 8871 2d3e 1849 ef3d f74e 9c3c
000002b0: 76a6 323e c37d 053d 7c1a 13bd 7a1c de3a
000002c0: 44e5 303d eeae 91bd 1e67 253e 5998 03be
000002d0: fcee 7f3d 92cc 39bc 39cb bf3d 6988 1cbd
000002e0: dfd1 29bd cfd9 5a3e 73f9 2f3d c982 8bbb
000002f0: a6cc 9dbe 24c7 023d 0a4a 053e e04d 91bd
00000300: 1c0c 723e c99c 103e b319 f53b 78cd 4f3e
00000310: d2f2 7d3d b88b 2d3e 74e9 8cbe 1343 09be
00000320: 7df5 513d ad84 7e3d 5980 f73c c45e 523c
00000330: ba96 183e b6f9 713e eb78 dc3c 4afb 1b3e
00000340: 54af 7c3e b3c2 f93d 3d4b 7c3c e3fc bdbb
00000350: d6c4 fcbd 4d17 193e 41bf 7b3a 2a3c 1cbd
00000360: bd68 4d3d d51f d2bd 7a74 583d 37df 473e
00000370: 58ab 6c3e 9d9e 83bd 48f8 c53d 0ac9 c9bc
00000380: 28cf bbbd 3068 573e c6c5 283e ca28 6b3e
00000390: 5bdb 6f3e ee52 cabc 349c 1d3e f1ce 153e
000003a0: 8cd8 dabd bb60 543e 86c7 86bd 0700 033e
000003b0: de2a b2bd 0db8 273e e6f4 243d 8df7 57be
000003c0: d7c4 85bd b62b 743e ea7c babd 944d 09bc
000003d0: 0e3d 13be db0f 433d 3b7e 6a3e 5380 0d3e
000003e0: 1175 763d 5e79 f1bc 7bd6 00be 0559 09bc
000003f0: e374 9abe b6b7 193e 5869 183e 790e 14bd

value_stream.0.bias f4 [64]
0.32242694 0.28490052 -0.020754214 0.0 0.049766324 0.2746161 0.29847577 0.28233156
-0.01956242 0.010028755 0.29040915 -0.017338876 -0.0060054953 -0.021849776 0.32130656 0.2972845
0.28461117 0.034087416 -0.026396774 0.28894573 -0.01134537 0.27880675 0.30826396 0.13506502
0.29535553 0.29398233 0.29757202 -0.010345283 0.06734227 0.28006217 -0.0111481035 0.29569483
-0.021220772 -0.02275489 -0.021996573 0.27722389 -0.016467713 -0.013807538 0.3018197 0.3248592
-0.027224367 0.26808605 0.31692314 -0.017107984 -0.010401196 -0.021633793 -0.010969767 0.30135286
0.3163001 -0.019229287 0.29797748 -0.012139473 0.07033985 0.044123188 0.28183123 -0.011336836
-0.039670568 -0.027241372 -0.026175903 0.29338583 0.13537602 -0.012911865 -0.016782837 0.092974626
00000000: 2515 a53e 7bde 913e be04 aabc 0000 0000
00000010: c6d7 4b3d 7b9a 8c3e d1d1 983e c38d 903e
00000020: 5e41 a0bc a64f 243c 82b0 943e 420a 8ebc
00000030: bfc9 c4bb 4dfe b2bc 4b82 a43e ad35 983e
00000040: 8eb8 913e 3f9f 0b3d 0c3e d8bc b2f0 933e
00000050: eee1 39bc c2bf 8e3e c6d4 9d3e 7c4e 0a3e
00000060: d738 973e da84 963e 5c5b 983e 437f 29bc
00000070: beea 893d 4f64 8f3e 89a6 36bc 5065 973e
00000080: 2fd7 adbc 7768 babc 2832 b4bc 4af0 8d3e
00000090: 4ce7 86bc 0339 62bc 1d88 9a3e f253 a63e
000000a0: a305 dfbc 9342 893e c043 a23e 0b26 8cbc
000000b0: c769 2abc 5a39 b1bc 8aba 33bc ec4a 9a3e
000000c0: 16f2 a13e bd86 9dbc 8190 983e a4e4 46bc
000000d0: 570e 903d 84ba 343d 2f4c 903e 23be 39bc
000000e0: 9b7d 22bd 4c29 dfbc d96e d6bc ab36 963e
000000f0: 03a0 0a3e 498c 53bc 297c 89bc 7b69 be3d

value_stream.2.weight f4 [1, 64]
0.30638945 0.14294659 -0.253992 0.043993235 -0.89623976 0.25932565 0.3948494 0.13442741
-0.25307482 -0.81550556 0.18633015 -0.47958148 -0.14061297 -0.21054274 0.154652 0.3619336
0.10434156 -0.9538612 -0.16224806 0.37673938 -0.23781307 0.14797907 0.26117554 -0.7377119
0.28139433 0.24383932 0.32030168 -0.2742047 -0.5583525 0.26764223 -0.03642551 0.27369174
-0.027289145 -0.031419136 -0.16827719 0.13782847 -0.10591461 -0.057812516 0.35265577 0.38979116
-0.011316938 0.21064892 0.2806369 -0.16018127 -0.23178561 -0.028205572 -0.27710074 0.30561557
0.2582804 -0.2893768 0.36953923 -0.11813046 -0.8804204 -0.8151552 0.23006816 -0.13835289
-0.047294524 -0.19505349 -0.16841404 0.44722286 -0.5902763 -0.19473115 -0.12237446 -0.68291676
00000000: 14df 9c3e 9760 123e 3d0b 82be 4032 343d
00000010: f86f 65bf 55c6 843e b329 ca3e 57a7 093e
00000020: 0693 81be f9c4 50bf 55cd 3e3e b48b f5be
00000030: d9fc 0fbe 8498 57be 185d 1e3e 5c4f b93e
00000040: 07b1 d53d 3f30 74bf 5b24 26be fce3 c03e
00000050: 4585 73be d387 173e cdb8 853e b0da 3cbf
00000060: eb12 903e 04b1 793e 95fe a33e 8f64 8cbe
00000070: 30f0 0ebf 6708 893e ea32 15bd 5321 8c3e
00000080: 7c8d dfbc 5ab1 00bd db50 2cbe e822 0d3e
00000090: c2e9 d8bd d1cc 6cbd 4c8f b43e b592 c73e
000000a0: ae6a 39bc 5ab4 573e a4af 8f3e 8f06 24be
000000b0: 3559 6dbe 5f0f e7bc 26e0 8dbe a579 9c3e
000000c0: 543d 843e 3229 94be 3f34 bd3e 62ee f1bd
000000d0: 3b63 61bf 03ae 50bf fd96 6b3e 61ac 0dbe
000000e0: e7b7 41bd 1abc 47be bb74 2cbe 65fa e43e
000000f0: 591c 17bf 9a67 47be 769f fabd a2d3 2ebf

advantage_stream.0.weight f4 [64, 128]
0.14952826 0.022712748 -0.08499484 -0.10999773 0.1451139 0.02368384 -0.051471625 0.005573923
0.022917794 -0.12949155 -0.16840422 0.06896512 0.011461775 -0.04083208 0.04609328 -0.11624723
-0.12351691 -0.0869343 -0.18097378 0.13727227 0.14128947 -0.10854293 0.08702063 -0.12502708
0.18279055 -0.15413824 0.14297293 0.09748323 -0.020180702 -0.059954874 0.12153954 0.047043003
0.14561121 -0.15253067 -0.16388911 -0.074951 -0.02418085 -0.15890285 -0.056185372 0.004137032
0.22499816 0.16135217 0.035934426 0.14901221 -0.16632476 -0.1040863 -0.09371121 -0.058792002
-0.16010319 0.010330517 -0.00892951 -0.07018727 -0.07391048 0.15044864 -0.14485136 0.054160498
-0.14962085 0.06911968 0.049943537 -0.011997736 -0.019667456 0.06574836 0.1079869 0.21615191
-0.13332842 0.14401644 0.0600017 0.06805755 -0.0016766803 0.06243251 -0.034950603 0.042375922
-0.12592888 -0.09683353 0.023922797 -0.19063638 0.1517255 0.005309784 -0.017364806 -0.14914253
0.004417245 0.14420798 -0.21598485 -0.05211601 0.17343123 0.042686176 0.18100704 -0.13636744
0.0012677952 0.087873265 -0.07779135 -0.1948089 0.1411664 -0.21894385 -0.08767689 -0.023208806
0.24805832 -0.072831415 -0.19232017 -0.035704758 -0.14810017 0.09471228 -0.13263975 0.05859138
0.16670945 0.07112138 -0.060358007 0.099234715 -0.13458909 0.05563276 -0.024358874 -0.040126737
-0.13912348 -0.121804744 -0.11483934 0.16470884 0.138576 0.053143766 0.10036643 -0.056326017
-0.22322455 0.019876145 0.04816207 -0.12830622 0.21043485 -0.0619965 -0.04059952 -0.13670392
-0.16481669 0.014991313 0.15855266 0.14883338 -0.04167524 0.04440389 -0.17422931 -0.11669405
0.1260345 0.02400175 0.040805012 0.02012195 -0.06909774 0.13613413 0.15673952 0.06717282
0.15728484 0.04868224 0.12760274 -0.12091155 0.059674334 -0.13350163 -0.030538078 -0.1264777
0.05756316 -0.1772499 -0.05846041 -0.06828411 0.109762095 -0.14891613 -0.09230292 0.1447799
0.07613716 0.107187234 0.15798816 -0.10451461 0.04355867 -0.13759375 -0.07325657 -0.030882943
-0.088687025 0.036757737 0.031508837 0.028201776 0.08880592 -0.018628852 0.13861679 -0.017827585
0.109135166 0.13297471 0.15721107 -0.085257195 -0.07336134 -0.14397885 -0.08056928 0.15909395
-0.017002027 -0.101915136 -0.14255384 -0.13549629 -0.106169656 0.059369564 -0.09653884 -0.066588774
-0.15213993 -0.15189281 -0.102925405 -0.17126936 -0.018507244 -0.072978586 -0.084996685 -0.11183772
0.056418035 0.068647146 -0.038368966 0.0449814 0.15584289 -0.055972062 -0.10201726 0.10020158
-0.044101313 -0.0734255 0.106364265 0.048742175 -0.12061781 0.03813598 0.07635372 0.1654585
-0.10646114 0.08935593 -0.05713213 0.01863888 -0.16637243 -0.16543321 0.09402325 -0.0032689373
0.07670522 -0.11137613 0.12747596 -0.070755824 -0.11291933 0.15031229 -0.1080257 -0.1361897
-0.14545013 0.07292878 -0.014280046 -0.009417227 0.04672549 -0.05546724 0.026572453 -0.09784204
-0.045396518 0.09318119 0.02147045 0.121699296 0.16491614 0.119882874 -0.074305914 -0.1502044
-0.07966718 -0.021014068 0.15638311 0.012559645 -0.028119612 0.12779544 0.067165166 0.13658953
00000000: f01d 193e 1610 ba3c c611 aebd 7d46 e1bd
00000010: bd98 143e 9d04 c23c e9d3 52bd 74a5 b63b
00000020: 19be bb3c 6f99 04be 2872 2cbe 963d 8d3d
00000030: 2bca 3b3c 8a3f 27bd 4fcc 3c3d 0713 eebd
00000040: 6ff6 fcbd 9c0a b2bd 3151 39be 1a91 0c3e
00000050: 30ae 103e c14b debd df37 b23d 1907 00be
00000060: 722d 3b3e 6ad6 1dbe 7f67 123e 4aa5 c73d
00000070: 0052 a5bc 3e93 75bd b9e9 f83d 2ab0 403d
00000080: 1b1b 153e 0031 1cbe 8cd2 27be e97f 99bd
00000090: eb16 c6bc 6eb7 22be a222 66bd f18f 873b
000000a0: eb65 663e 8139 253e fa2f 133d a896 183e
000000b0: 0a51 2abe 332b d5bd aaeb bfbd e2cf 70bd
000000c0: 17f2 23be 5441 293c 144d 12bc 58be 8fbd
000000d0: 615e 97bd 350f 1a3e ea53 14be 66d7 5d3d
000000e0: 3536 19be 9e8e 8d3d 9891 4c3d 2792 44bc
000000f0: a51d a1bc 13a7 863d 3c28 dd3d ed56 5d3e
00000100: 3f87 08be 0c79 133e 58c4 753d c261 8b3d
00000110: 0ec4 dbba 3bb9 7f3d 5d28 0fbd 6092 2d3d
00000120: 80f3 00be a850 c6bd bef9 c33c 2f36 43be
00000130: ee5d 1b3e b2fd ad3b a340 8ebc d2b8 18be
00000140: 89be 903b 42ab 133e 222b 5dbe 9977 55bd
00000150: f597 313e b3d7 2e3d e959 393e e8a3 0bbe
00000160: 262c a63a e6f6 b33d 1251 9fbd fc7b 47be
00000170: ed8d 103e d132 60be f18f b3bd 6520 bebc
00000180: 0003 7e3e a328 95bd 94ef 44be 273f 12bd
00000190: 92a7 17be 83f8 c13d b7d2 07be 84fd 6f3d
000001a0: e2b5 2a3e 16a8 913d f539 77bd 923b cb3d
000001b0: b9d1 09be 2ddf 633d 438c c7bc ef5b 24bd
000001c0: 6376 0ebe c474 f9bd e330 ebbd 6fa9 283e
000001d0: dee6 0d3e 47ad 593d ea8c cd3d 1cb6 66bd
000001e0: fa94 64be 4cd3 a23c 9745 453d b562 03be
000001f0: 3c7c 573e 0bf0 7dbd af4b 26bd 1dfc 0bbe
00000200: b5c5 28be 209e 753c a15b 223e c767 183e
00000210: a8b3 2abd dae0 353d 2b69 32be 4afd eebd
00000220: 300f 013e 519f c43c 2823 273d cad6 a43c
00000230: 1e83 8dbd bf66 0b3e 5380 203e e791 893d
00000240: 470f 213e 0767 473d 4baa 023e 7aa0 f7bd
00000250: 136d 743d a7b4 08be fe2a fabc 5f83 01be
00000260: 59c7 6b3d ff80 35be 2f74 6fbd 8ad8 8bbd
00000270: f3ca e03d 787d 18be 5009 bdbd 2f41 143e
00000280: cded 9b3d fb84 db3d a6c7 213e c10b d6bd
00000290: 936a 323d 60e5 0cbe 8a07 96bd 3afe fcbc
000002a0: 8ba1 b5bd 488f 163d 690f 013d 6907 e73c
000002b0: e1df b53d 899b 98bc 8ff1 0d3e 280b 92bc
000002c0: 4282 df3d 862a 083e f0fb 203e 539b aebd
000002d0: 783e 96bd 316f 13be 8201 a5bd 86e9 223e
000002e0: d647 8bbc e2b8 d0bd a2f9 11be 8abf 0abe
000002f0: 7a6f d9bd 802d 733d 28b6 c5bd b25f 88bd
00000300: 92ca 1bbe ca89 1bbe 8eca d2bd 3c61 2fbe
00000310: 819c 97bc cc75 95bd be12 aebd 2d0b e5bd
00000320: 9916 673d e096 8c3d c728 1dbd 6b3e 383d
00000330: 4795 1f3e f642 65bd 6dee d0bd 7c36 cd3d
00000340: 94a3 34bd 1c60 96bd 82d5 d93d e0a5 473d
00000350: 7806 f7bd 7934 1c3d 575f 9c3d f46d 293e
00000360: 4c08 dabd 3e00 b73d 6103 6abd 91b0 983c
00000370: 895d 2abe 5367 29be 438f c03d ab3b 56bb
00000380: a017 9d3d 2b19 e4bd 0f89 023e 6ee8 90bd
00000390: 4042 e7bd 77eb 193e 943c ddbd 5075 0bbe
000003a0: e1f0 14be af5b 953d dbf6 69bc b64a 1abc
000003b0: 3a63 3f3d 9e31 63bd 79ae d93c 6861 c8bd
000003c0: b3f1 39bd c8d5 be3d cce2 af3c 7b3d f93d
000003d0: c7df 283e 2785 f53d b32d 98bd 2fcf 19be
000003e0: 8c28 a3bd b225 acbc e522 203e f8c6 4d3c
000003f0: 1a5b e6bc cfdc 023e e48d 893d 20de 0b3e

advantage_stream.0.bias f4 [64]
-0.04343784 -0.0035069028 0.02900779 0.06606346 0.037120298 0.02295895 -0.0027722619 -0.022975147
-0.0060054557 0.18225208 0.18406284 0.013230558 0.21827118 -0.020065486 -0.026159909 0.052900944
0.049361657 0.056727234 0.07811562 -0.031751513 -0.02549507 -0.045791738 0.14106028 -0.03592679
-0.05917642 -0.033044532 -0.042763963 -0.01134874 0.011581599 0.17039852 0.077911064 0.09118748
-0.010893799 -0.02308597 0.04276398 0.10189627 -0.0035776272 -0.03078299 -0.020786038 0.10733362
0.019826809 -0.07322267 0.20362881 -0.029466636 0.09164727 0.078399934 0.15455468 -0.002298364
-0.0010707839 0.020508615 0.01938533 0.00033342763 0.027184414 -0.031493213 -0.03472558 -0.042543195
0.018251032 -0.004958342 0.00014726711 0.07897322 0.070734985 -0.042207982 -0.004477507 -0.04803881
00000000: e0eb 31bd 11d4 65bb bfa1 ed3c 484c 873d
00000010: 740b 183d 6814 bc3c d6ae 35bb 6036 bcbc
00000020: 6ac9 c4bb 4aa0 3a3e f87a 3c3e fbc4 583c
00000030: 7b82 5f3e 6060 a4bc 4e4d d6bc a9ae 583d
00000040: 732f 4a3d d15a 683d 15fb 9f3d e00d 02bd
00000050: 09db d0bc 1e90 3bbd 1b72 103e f827 13bd
00000060: f962 72bd b459 07bd 4429 2fbd 11f0 39bc
00000070: bfc0 3d3c f37c 2e3e d68f 9f3d 80c0 ba3d
00000080: e87b 32bc ca1e bdbc 4829 2f3d feae d03d
00000090: a076 6abb 9c2c fcbc 7b47 aabc bbd1 db3d
000000a0: d56b a23c c4f5 95bd 1284 503e 0464 f1bc
000000b0: 90b1 bb3d 2590 a03d 9543 1e3e 26a0 16bb
000000c0: 8c59 8cba af01 a83c fccd 9e3c e6cf ae39
000000d0: d9b1 de3c 07ff 00bd 693c 0ebd c641 2ebd
000000e0: 3083 953c 9679 a2bb b76b 1a39 b6bc a13d
000000f0: 81dd 903d 47e2 2cbd 0db8 92bb 58c4 44bd

advantage_stream.2.weight f4 [2, 64]
0.2662125 0.064653926 0.31285456 0.50990444 -0.35872653 -0.41425288 -0.2334973 0.21380837
0.29172418 0.8086952 0.7224465 0.13993953 -0.47145024 -0.045955054 -0.01726687 0.3273474
0.075332195 0.23358199 0.17583239 -0.25648525 -0.16948824 -0.12193511 0.9508955 0.09592612
-0.19665286 0.05098909 0.16626689 0.10793761 -0.25460792 -1.1192279 0.26175192 0.4775797
0.0176154 0.09295153 -0.025172666 -0.77448285 0.38568348 0.20537855 0.19081602 0.7675854
-0.065026805 0.15682921 0.7349516 0.6641739 0.49207473 0.43888667 -0.9487739 -0.2723607
0.1168168 0.3048349 -0.4552624 -0.27508008 -0.0435751 0.17202313 -0.3109319 -0.0707389
0.043322396 0.01765181 0.019604286 0.15946336 0.07909289 0.18759456 0.78234786 -0.0291507
0.25294894 -0.25402597 -0.28681895 -0.7426229 0.3151768 0.35595798 -0.11980759 0.099005654
-0.0057883784 -0.76640105 -0.74233824 -0.17153688 0.7556371 0.079601735 -0.0053024683 -0.30032384
-0.17438516 -0.30249068 -0.3465127 0.22109699 -0.17260699 0.07675815 -0.7513184 -0.16118643
0.14348786 0.1389189 0.11151286 0.12004306 0.2995594 1.2103472 -0.25235492 -0.333288
0.231562 0.1606979 -0.3599871 0.8865713 -0.45668614 0.26138443 -0.14241654 -0.6361353
0.31943607 0.26685777 -0.65822065 -0.31926715 -0.46988225 -0.89756215 1.1599123 0.02582434
-0.24482176 -0.6109218 -0.054429352 0.18416855 0.43491697 0.24129476 -0.28021616 -0.05366572
0.40816316 -0.26471633 0.021412203 -0.2545896 -0.23360111 -0.17431414 -0.4674268 -0.10412113
00000000: 014d 883e 4769 843d 792e a03e 1989 023f
00000010: 01ab b7be f418 d4be eb19 6fbe 95f0 5a3e
00000020: df5c 953e a606 4f3f 41f2 383f 4f4c 0f3e
00000030: ed61 f1be 5e3b 3cbd 4073 8dbc 149a a73e
00000040: c447 9a3d 1e30 6f3e 680d 343e 0952 83be
00000050: 538e 2dbe 1db9 f9bd e36d 733f ea74 c43d
00000060: 5e5f 49be f0d9 503d de41 2a3e 650e dd3d
00000070: f85b 82be dc42 8fbf 5904 863e 5485 f43e
00000080: 2c4e 903c 5f5d be3d e836 cebc 8244 46bf
00000090: 4e78 c53e c14e 523e 4665 433e 7a80 443f
000000a0: c62c 85bd d697 203e ca25 3c3f 4d07 2a3f
000000b0: 38f1 fb3e c1b5 e03e d9e2 72bf dd72 8bbe
000000c0: a53d ef3d 5213 9c3e 2718 e9be 4cd7 8cbe
000000d0: ce7b 32bd d526 303e 7732 9fbe 8edf 90bd
000000e0: d372 313d 879a 903c 2b99 a03c 5d4a 233e
000000f0: 74fb a13d ca18 403e f347 483f 73cd eebc
00000100: 8682 813e b10f 82be efd9 92be 891c 3ebf
00000110: db5e a13e 2040 b63e af5d f5bd 7ac3 ca3d
00000120: 70ac bdbb dc32 44bf e109 3ebf 5da7 2fbe
00000130: 6f71 413f 3c06 a33d 54c0 adbb 0cc4 99be
00000140: 0692 32be 0fe0 9abe 1d6a b1be 4067 623e
00000150: e3bf 30be 6033 9d3d 6756 40bf 0e0e 25be
00000160: 7bee 123e c240 0e3e db60 e43d 23d9 f53d
00000170: da5f 993e a8ec 9a3f aa34 81be baa4 aabe
00000180: 971e 6d3e fe8d 243e 3b50 b8be 56f6 623f
00000190: c4d2 e9be 2ed4 853e a4d5 11be c3d9 22bf
000001a0: 208d a33e 95a1 883e 2681 28bf fc76 a3be
000001b0: 6894 f0be a2c6 65bf 0278 943f 918d d33c
000001c0: 8eb2 7abe 5f65 1cbf 50f1 5ebd ae96 3c3e
000001d0: 70ad de3e f915 773e 7e78 8fbe 96d0 5bbd
000001e0: c3fa d03e e688 87be a568 af3c 9159 82be
000001f0: 2135 6fbe 687f 32be 9152 efbe 763d d5bd

advantage_stream.2.bias f4 [2]
-0.026598884 0.026598884
00000000: e7e5 d9bc e7e5 d93c

exp_avg f4 [128, 4]
-0.0024988246 -0.0037869178 -0.00040228007 -0.00093207543 6.5466375e-05 -0.0024169146 0.00042757063 0.003382079
0.006772887 0.0041514537 -0.00034156002 -0.0019027445 -0.027569722 -0.021991575 0.00053248345 0.007865621
-0.0002498615 0.0042376844 -0.0005428066 -0.00539043 -0.00721573 -0.014588403 0.00020733246 0.008997207
-0.012103988 -0.0096396115 -4.879548e-06 0.0023626327 -0.021321258 -0.020794515 -3.1582953e-05 0.0070913737
-0.0016341752 -0.0002932608 -2.1964719e-05 -0.0006879742 -0.0030424322 -0.011823131 0.00034050705 0.009032736
-0.00018958043 0.000100293546 0.0001221027 0.00015321272 0.001487649 0.0006272091 0.00063018186 0.0023289528
-0.0059955744 -0.0049422984 6.278063e-05 0.0018550446 -0.0028781476 -0.010995816 0.0007566897 0.010573062
6e-45 6e-45 6e-45 -6e-45 0.0033084971 0.0016283565 0.00036529137 0.0019663945
-0.02635216 -0.02148146 0.00036631865 0.0074559613 0.0016569791 -0.00023888116 2.8873947e-05 0.00096641044
-0.008156611 0.02426878 -0.0015256854 -0.026692182 -0.013962597 -0.0066607078 3.5282283e-05 0.00043327967
-0.0061896243 -0.0074695228 -0.0019486524 -0.0035427124 0.00087045395 0.0049027773 -0.00080252916 -0.006431332
0.0014488244 0.0009647886 -0.00045109578 -0.0017235023 -0.012083062 -0.0072054197 0.00027217928 0.0016189762
-0.0018601641 -0.0009056495 -1.1696625e-05 0.0011685011 0.0010134868 -0.001581788 -0.00036958215 -0.00024216509
-0.00029701533 0.006534069 -0.00063735683 -0.0072775907 -0.004070558 -0.005003213 9.140055e-05 0.0018968304
-0.00040277845 -0.0012167509 7.670437e-05 0.00061208045 -3.9298175e-05 0.00033217386 -0.0001229005 -0.00077170326
0.00039356132 0.0027635635 -0.00072789774 -0.0046862247 -0.0022183044 0.008048907 -0.0009116992 -0.010051386
6e-45 6e-45 -6e-45 -6e-45 7.717017e-05 0.00013880178 -0.000100875666 -0.00042211774
0.025186779 0.021690419 0.0015170606 -0.0017020818 0.0010674229 0.001094582 -4.7668407e-05 -0.00036546553
-0.00080670335 -0.0018917806 0.00022906944 0.0016280388 -0.010191896 -0.0045719617 4.3472573e-05 0.001693686
8.087065e-05 0.0119149 -0.00063855154 -0.010791898 -0.0018210636 -0.003229164 -0.0020287842 -0.005476126
-0.0011302968 -0.0020171306 -0.00051447074 -0.0016101506 0.002523159 0.0063387463 0.0021207342 0.0050428864
0.020244682 0.013299974 0.0010603487 0.0017952551 6e-45 -6e-45 6e-45 6e-45
0.0036163735 0.005947799 -0.00038028162 -0.0049916087 -0.00765689 -0.004698697 -0.0001851503 0.00016574399
0.0021822331 0.00261875 4.5302626e-05 -0.00075966906 -0.0071493266 -0.0040677562 -0.00013205377 -0.00049756793
0.0040600686 0.00570977 -0.0031523139 -0.010743497 -0.005851082 -0.008671765 -0.0024553232 -0.0037867972
0.00046357748 0.005491445 -0.000830204 -0.0067750607 0.0005537576 0.0003985159 -0.00017060112 -0.0004474165
-0.00064557744 -0.0024537484 0.00029893868 0.00255271 -0.0003750055 0.0011908548 -0.00047035268 -0.0024455048
-0.004541111 -0.00921078 -6.266016e-05 0.0050453176 -0.0010458294 0.004365525 -0.0009257103 -0.008029565
0.003692064 0.00519759 -0.00035570032 -0.00418772 -0.0017957975 -0.005418503 0.00011007278 0.0032163952
-0.00479218 -0.005244725 -0.0019244491 -0.0041347407 -0.00084164756 -0.00024833623 -0.0003221653 -0.001341055
0.013669493 0.011386912 -0.0031354139 -0.009202197 -0.00028196495 0.00318688 -0.00066444324 -0.005233528
-0.0068251546 0.014877094 -0.0012649313 -0.018778613 -0.00109878 -0.00037899276 -0.00018296028 -0.0015496217
00000000: 52c3 23bb f02d 78bb 1ee9 d2b9 8656 74ba
00000010: fe4a 8938 1965 1ebb 8f2b e039 dfa5 5d3b
00000020: 18ef dd3b eb08 883b 6913 b3b9 8365 f9ba
00000030: e6d9 e1bc ad27 b4bc 5c96 0b3a cede 003c
00000040: d8ff 82b9 46dc 8a3b 224b 0eba 34a2 b0bb
00000050: ee71 ecbb 3204 6fbc 6267 5939 0569 133c
00000060: ce4f 46bc 76ef 1dbc 00bb a3b6 66d6 1a3b
00000070: eba9 aebc 4259 aabc f077 04b8 c15e e83b
00000080: d231 d6ba ccc0 99b9 e040 b8b7 2b59 34ba
00000090: 8b63 47bb ceb5 41bc 1586 b239 0afe 133c
000000a0: 1cca 46b9 b054 d238 b208 0039 baa7 2039
000000b0: 38fd c23a 4a6b 243a ca32 253a 58a1 183b
000000c0: 8676 c4bb 01f3 a1bb 18a9 8338 f824 f33a
000000d0: 4e9f 3cbb cc27 34bc 965c 463a a33a 2d3c
000000e0: 0400 0000 0400 0000 0400 0000 0400 0080
000000f0: 5fd3 583b 946e d53a 9484 bf39 a0de 003b
00000100: 7ce0 d7bc e3f9 afbc 750e c039 2351 f43b
00000110: fe2e d93a 2c7c 7ab9 5436 f237 b556 7d3a
00000120: 4ea3 05bc 52cf c63c 82f9 c7ba 90a9 dabc
00000130: 60c3 64bc 1142 dabb 10fc 1338 d029 e339
00000140: 55d2 cabb e6c2 f4bb ed69 ffba da2c 68bb
00000150: 2d2f 643a 7aa7 a03b d260 52ba ecbd d2bb
00000160: 7be6 bd3a dee9 7c3a 0d81 ecb9 24e7 e1ba
00000170: 09f8 45bc 711b ecbb 49b3 8e39 d433 d43a
00000180: c0d0 f3ba 1c69 6dba 9f3c 44b7 6428 993a
00000190: f9d6 843a ff53 cfba 7ac4 c1b9 b2ed 7db9
000001a0: b9b8 9bb9 be1b d63b 4b14 27ba db78 eebb
000001b0: 5162 85bb fef1 a3bb 4cae bf38 119f f83a
000001c0: 022c d3b9 637b 9fba 58dc a038 0674 203a
000001d0: 18d4 24b8 9f27 ae39 dade 00b9 214c 4aba
000001e0: e856 ce39 e71c 353b 64d0 3eba e78e 99bb
000001f0: f960 11bb 90df 033c 19ff 6eba 92ae 24bc
00000200: 0400 0000 0400 0000 0400 0080 0400 0080
00000210: 6bd6 a138 528b 1139 368d d3b8 af4f ddb9
00000220: 8154 ce3c 1bb0 b13c 1bd8 c63a 6318 dfba
00000230: c5e8 8b3a 1478 8f3a 90ef 47b8 f49b bfb9
00000240: f278 53ba a0f5 f7ba 5c32 7039 eb63 d53a
00000250: e9fb 26bc 65d0 95bb 5256 3638 acfe dd3a
00000260: 1a99 a938 b636 433c 7864 27ba 80d0 30bc
00000270: c1b0 eeba 62a0 53bb 5af5 04bb 1371 b3bb
00000280: 7826 94ba d631 04bb 8cdd 06ba b00b d3ba
00000290: 955b 253b 42b5 cf3b 04fc 0a3b cc3e a53b
000002a0: 2dd8 a53c 22e8 593c 66fb 8a3a c44e eb3a
000002b0: 0400 0000 0400 0080 0400 0000 0400 0000
000002c0: ae00 6d3b c1e5 c23b 8960 c7b9 a690 a3bb
000002d0: a6e6 fabb 87f7 99bb e824 42b9 90cb 2d39
000002e0: cc03 0f3b 569f 2b3b 5303 3e38 8724 47ba
000002f0: e644 eabb d04a 85bb ea77 0ab9 386f 02ba
00000300: 530a 853b 0619 bb3b 0d97 4ebb 7e05 30bc
00000310: 6fba bfbb 0514 0ebc 7de9 20bb ea2b 78bb
00000320: 510c f339 94f1 b33b 0ca2 59ba 5401 debb
00000330: 0b2a 113a e6ef d039 64e3 32b9 3a93 eab9
00000340: f83b 29ba 11cf 20bb dfba 9c39 5e4b 273b
00000350: 639c c4b9 7516 9c3a ab99 f6b9 c344 20bb
00000360: 9acd 94bb d0e8 16bc 6b68 83b8 3153 a53b
00000370: 3614 89ba ae0c 8f3b 5eab 72ba 708e 03bc
00000380: 8ef6 713b 8c50 aa3b 4a7d bab9 2439 89bb
00000390: f760 ebba b38d b1bb e0d6 e638 28ca 523b
000003a0: b807 9dbb f1db abbb cc3d fcba b87c 87bb
000003b0: 03a2 5cba 2033 82b9 4be8 a8b9 57c6 afba
000003c0: 02f6 5f3c 2c90 3a3c 847b 4dbb d0c4 16bc
000003d0: b2d4 93b9 f9da 503b 082e 2eba 047e abbb
000003e0: 8ca5 dfbb 0ebf 733c 0dcc a5ba 9bd5 99bc
000003f0: f004 90ba 8cb3 c6b9 07d9 3fb9 ad1c cbba
