CartPoleHighRewardIn2026/checkpoints/checkpoint_ep250_reward33.00.pt (torch, 421167 bytes, 33 tensors)

feature_layer.0.weight f4 [128, 4]
0	0x3e0d28b1	0.13785054
1	0xbd80c958	-0.06288403
2	0xbea71aef	-0.32637736
3	0x3e0f9297	0.14020763
4	0xbd7eabe4	-0.062175646
5	0x3cd4ef3d	0.025992984
6	0x3e0a0192	0.13477162
7	0xbe23a65f	-0.15981434
8	0xbdf7096b	-0.12062343
9	0x3c992122	0.018692557
10	0xbf0ee6fc	-0.55821204
11	0xbe18a092	-0.14905003
12	0x3d37d947	0.044884946
13	0xbd8cb8a2	-0.068711534
14	0x3e61216f	0.2198541
15	0xbd7d3b3b	-0.061824065
16	0x3d42a1c0	0.047517538
17	0xbd022f6f	-0.031783517
18	0x3f471a77	0.7777476
19	0x3d3b8ba9	0.045787487
20	0xbdab81b2	-0.08374347
21	0x3db052db	0.086095534
22	0xbeb189ae	-0.34675354
23	0xbd5b5077	-0.053543534
24	0x3c438335	0.011933138
25	0x3c12c307	0.008957631
26	0x3e0d5598	0.13802183
27	0x3c8a5360	0.01688546
28	0xbd6147b9	-0.05500004
29	0x3dcef9ac	0.10106215
30	0xbe03f283	-0.1288548
31	0x3dc01718	0.09379405
32	0xbe4b9944	-0.19882685
33	0x3dc6fb8b	0.09715947
34	0x3eafb758	0.34319568
35	0x3cfbaffd	0.030723566
36	0x3e529447	0.20564376
37	0xbd683af7	-0.05669686
38	0xbe69d6fc	-0.22835916
39	0xbde116c7	-0.109906726
40	0x3d613f01	0.054991726
41	0xbe1ff5c8	-0.15621102
42	0xbe3482e3	-0.17628054
43	0xbd9eae19	-0.0774805
44	0x3e7ccc81	0.24687387
45	0x3deb1b2d	0.11479793
46	0x3ea722f5	0.32643858
47	0x3de77ee3	0.113034986
48	0x3cc10261	0.023560705
49	0xbcb898cf	-0.022533802
50	0x3e9d437e	0.30715555
51	0x3c73510b	0.014850865
52	0x3def1c32	0.116753
53	0x3e2c1ffe	0.16809079
54	0xbedfa443	-0.4368001
55	0x3d51adbb	0.051191073
56	0x3dc11f8c	0.09429845
57	0x3c4ebf09	0.0126187885
58	0x3e0606e6	0.13088569
59	0x3be7c656	0.007073204
60	0xbd67890f	-0.056527194
61	0xbd009a2f	-0.03139704
62	0x3ea137b4	0.3148781
63	0xbe60eb08	-0.21964657
64	0x3cf6e60c	0.030138992
65	0xbc960c31	-0.01831636
66	0x3e4fcef9	0.20293798
67	0xbcfa6ff5	-0.030570963
68	0xbe06a339	-0.13148202
69	0x3dbe9a1a	0.09306736
70	0xbeb02c24	-0.34408677
71	0x3d951844	0.07280019
72	0xbcbd7eb3	-0.023131704
73	0x3c91dc3a	0.017805208
74	0x3f119b2d	0.56877404
75	0x3dc18700	0.09449577
76	0xbd9340ab	-0.07190069
77	0xbd6e9779	-0.058249924
78	0x3f2f75f6	0.6853937
79	0xbdc8e7b2	-0.098098174
80	0x3bc7c1be	0.006096094
81	0xbc1fc175	-0.009750714
82	0xbf1de2cd	-0.61674196
83	0xbd9cae0d	-0.07650385
84	0x3da4464c	0.080212206
85	0xbbfc0660	-0.0076911896
86	0x3ef02970	0.46906614
87	0x3e38a0c6	0.1803008
88	0x3d3a76ea	0.04552356
89	0xb9b7f080	-0.00035083666
90	0xbef76973	-0.4832264
91	0xbd9debe5	-0.07711009
92	0xbcad04b7	-0.021120412
93	0xbc90a794	-0.017658032
94	0x3eb5b95d	0.35492983
95	0xbd4cf699	-0.05003986
96	0x3e03bd0c	0.12865084
97	0x3b8ef476	0.004362638
98	0xbd8c92c5	-0.068639316
99	0xbd167428	-0.03673187
100	0xbde3ac13	-0.11116805
101	0x3dc0206f	0.09381186
102	0xbec13371	-0.3773456
103	0x3e160dc9	0.14653696
104	0x3bdf6463	0.006817387
105	0xbc1d92da	-0.009617532
106	0x3f3e03a3	0.742243
107	0x3d9f1435	0.07767526
108	0xbe6a254d	-0.22865792
109	0xbc4295b4	-0.011876512
110	0xbd96cd68	-0.07363397
111	0x3df1acd9	0.11800546
112	0xbd5e3bd9	-0.054256294
113	0xbc3fcd24	-0.011706624
114	0xbe9d2fd4	-0.30700552
115	0xbdde67e1	-0.10859657
116	0xbd91a8b6	-0.07112257
117	0x3da493b4	0.08035985
118	0xbcc93fa9	-0.024566488
119	0x3d5c1d24	0.05373873
120	0x3e564e8c	0.20928401
121	0xbe34a1bf	-0.17639826
122	0x3ec93250	0.39296198
123	0x3d86a4d6	0.06574409
124	0x3cf379fa	0.029721249
125	0xbb343dfd	-0.0027502768
126	0x3f2d4af5	0.676925
127	0x3dcd8cb4	0.100366026
128	0x3ceb8ef7	0.028754694
129	0xbcf4826b	-0.029847344
130	0x3e1d70b7	0.15375029
131	0xbdb861ac	-0.090030044
132	0x3d8dae78	0.06918043
133	0xbd929cfd	-0.071588494
134	0xbebcefc6	-0.36901683
135	0xbd2c4307	-0.04205611
136	0xbd26b4f0	-0.0406999
137	0xbe8c0e31	-0.27354577
138	0xbeb8247d	-0.35965338
139	0xbe630db8	-0.22173202
140	0x3df0b2c2	0.11752845
141	0xbd7c521f	-0.061601754
142	0x3bfb6293	0.007671663
143	0xbc8dc549	-0.017305987
144	0xbcd44b6d	-0.025914872
145	0x3d2b1bf3	0.0417747
146	0x3e90d5ad	0.28288022
147	0xbde60d6d	-0.112330295
148	0xbddb9925	-0.107225694
149	0x3dd91b92	0.10600962
150	0x3f1768ef	0.5914449
151	0x3dcce0ad	0.10003791
152	0x3deba1ad	0.115054466
153	0xbdb8ef0c	-0.090299696
154	0x3f3fda4a	0.7494246
155	0xbbe83850	-0.007086791
156	0xbcbbe1ef	-0.022934882
157	0x3d775e69	0.06039277
158	0x3eb1bf41	0.34716228
159	0xbe6174a8	-0.22017157
160	0x3e280550	0.16408277
161	0xbbd591bf	-0.0065176184
162	0x3e649a52	0.22324494
163	0xbe3c4f77	-0.18389688
164	0x3d9d5478	0.07682127
165	0x3e7c0107	0.24609767
166	0x3e433e14	0.1906665
167	0x3e0ea04b	0.13928334
168	0xbe594c33	-0.21220474
169	0x3d01e142	0.031708963
170	0xbebca3ab	-0.3684362
171	0xbe17daec	-0.14829606
172	0x3d9ad1bd	0.07559536
173	0x3d828189	0.06372363
174	0xbaf25d54	-0.0018490949
175	0x3d678e19	0.056532
176	0xbd9ffccc	-0.07811889
177	0xbe1350c4	-0.14386278
178	0x3ea87b70	0.32906675
179	0x3e17a589	0.1480924
180	0xbcc6a8b4	-0.024250366
181	0xbe2e2e9c	-0.17009968
182	0xbea9d7f2	-0.33172566
183	0xbe114441	-0.14186193
184	0x3e81252b	0.2522367
185	0xbe0967f4	-0.13418561
186	0x3e7b69a8	0.24552023
187	0xbdc1ca51	-0.09462417
188	0xbd41f1cf	-0.047349747
189	0xbe54b96e	-0.20773861
190	0x3e99ea2f	0.3006148
191	0xbdef504b	-0.116852365
192	0xbcee4196	-0.029084008
193	0x3c4be69f	0.012445121
194	0xbf2cf1d8	-0.67556524
195	0x3c46d095	0.012134691
196	0x3c97dcc5	0.018537888
197	0xbcc11c14	-0.023572959
198	0xbf47cac3	-0.78043765
199	0xbde64504	-0.112436324
200	0x3e1121d1	0.14173056
201	0xbd81763d	-0.0632138
202	0x3f1b0fef	0.6057119
203	0x3e11a588	0.14223301
204	0x3d24b4f9	0.04021165
205	0x3d1bee21	0.038068894
206	0xbe42e879	-0.19033994
207	0xbdcc2696	-0.09968297
208	0x3cce1331	0.025155636
209	0x3bf78871	0.007554107
210	0xbd9d4403	-0.07678988
211	0xbe55c478	-0.20875728
212	0xbdb4b548	-0.08823639
213	0x3de106e2	0.10987641
214	0x3e5f7bb8	0.21824539
215	0xbe09877d	-0.13430591
216	0x3e1c1604	0.15242773
217	0xbdc16ea9	-0.09444935
218	0xbe545128	-0.20734084
219	0x3b3bb5d8	0.0028642323
220	0xbbdebefd	-0.00679767
221	0x3d1403c2	0.036136396
222	0x3ee14a4c	0.44001997
223	0x3e4267a3	0.18984847
224	0xbd0331fd	-0.032030094
225	0xbe03e279	-0.12879361
226	0x3d48b5ef	0.04900163
227	0x3e3f8d32	0.18706205
228	0x3e278e94	0.16362983
229	0x3de1c7e4	0.11024454
230	0xbef2d29c	-0.47426307
231	0x3dcf3a96	0.10118596
232	0x3d973747	0.0738359
233	0xbd889b77	-0.066702776
234	0xbf30660f	-0.6890573
235	0xbe2e8368	-0.17042315
236	0x3d4ae46e	0.049534254
237	0xbd8b0e2d	-0.06789813
238	0x3ea5c7df	0.32379052
239	0xbe42b436	-0.19014058
240	0xbb010d3e	-0.001969173
241	0xbac61413	-0.0015112184
242	0xbf35a12b	-0.7094905
243	0xbd94767c	-0.072491616
244	0x3d1ad5a4	0.0378014
245	0xbd834135	-0.06408922
246	0x3f2ae40a	0.6675421
247	0x3e23cca3	0.15996031
248	0x3ac8b27e	0.0015311984
249	0xbaf7a694	-0.0018894249
250	0x3f0d042b	0.55084485
251	0x3d7ff036	0.062484942
252	0xbd7efa33	-0.062250327
253	0xbd8fcbe0	-0.07021308
254	0x3ddee39b	0.10883256
255	0xbab826cc	-0.0014049648

feature_layer.0.bias f4 [128]
0	0x3c7d8077	0.015472523
1	0xbe342740	-0.17593098
2	0xbd74ed50	-0.05979663
3	0x3e2ed043	0.17071633
4	0xbd09b262	-0.033617385
5	0x3dfdb69f	0.12388348
6	0x3df0b9bc	0.11754176
7	0x3e255543	0.16145806
8	0xbcfa7738	-0.030574426
9	0x3df23db6	0.11828177
10	0xbdb78ace	-0.08962022
11	0x3d3e6723	0.046485078
12	0x3db4ecf7	0.0883426
13	0x3db4f3ba	0.0883555
14	0xbc423ca6	-0.01185528
15	0xbe24a98a	-0.16080299
16	0x3e275b08	0.1634332
17	0x3d0d8231	0.03454799
18	0xbe00a138	-0.125615
19	0x3e01fc03	0.12693791
20	0xbdf5f317	-0.12009256
21	0xbdf4b378	-0.119482934
22	0xbdbb84f4	-0.09156218
23	0x3dded321	0.108801134
24	0xbe57f853	-0.21090822
25	0xbcdd5845	-0.02701963
26	0xbdefdb63	-0.117117666
27	0x3da656da	0.08122034
28	0xbe1456dc	-0.14486259
29	0xbda9bf07	-0.08288389
30	0xbdd54c54	-0.10414949
31	0xbdc763b6	-0.09735815
32	0xbc3ed647	-0.011647767
33	0x3c26d707	0.010183102
34	0xbe21b8f5	-0.15793212
35	0x3ca813c9	0.020517247
36	0xbda53675	-0.080670275
37	0x3db2b272	0.08725442
38	0xbd573f50	-0.052550614
39	0xba931f22	-0.0011224488
40	0x3dcbe88c	0.09956464
41	0xbe22dbca	-0.15904155
42	0xbe642085	-0.2227803
43	0xbd3cf9de	-0.04613673
44	0xbe2f8816	-0.17141756
45	0x3dafcae1	0.08583618
46	0xbc9ad203	-0.01889897
47	0x3d1d957f	0.03847265
48	0xbddaf18a	-0.10690601
49	0xbe21d8c1	-0.15805341
50	0xbda1dc39	-0.07903332
51	0x3c98b83c	0.018642537
52	0xbe2815a7	-0.1641451
53	0x3d335e56	0.043791138
54	0x3dbc8a06	0.092060134
55	0xbe24d25d	-0.16095872
56	0xbdfcd66d	-0.12345586
57	0x3d922e96	0.07137792
58	0xbe3462b2	-0.17615774
59	0xbaa6f8ef	-0.0012738983
60	0xbe0b77c2	-0.13619903
61	0xbdd72a48	-0.105061114
62	0xbdd4f8ac	-0.10398993
63	0x3d28e590	0.041234553
64	0xbe0ba2d1	-0.13636328
65	0x3e1ce982	0.15323451
66	0xbe2e508c	-0.17022914
67	0x3dd6c7a7	0.104872994
68	0xbdfb905e	-0.12283395
69	0x3dd59951	0.104296334
70	0xbe30e630	-0.1727531
71	0x3d93cf23	0.072172426
72	0x3c94a552	0.018145237
73	0x3e12481e	0.14285323
74	0xbdf66fe7	-0.120330624
75	0xbdfa9ec8	-0.12237316
76	0xbde056a4	-0.109540254
77	0x3d75c78e	0.060004763
78	0xbe12281a	-0.1427311
79	0x3da93430	0.08261907
80	0xbe2d13b4	-0.16902047
81	0xbd292613	-0.041296076
82	0xbdc375f8	-0.09543985
83	0xbdd68b95	-0.10475842
84	0xbc27d470	-0.01024352
85	0xbc3dc513	-0.011582631
86	0xbd7a8862	-0.06116522
87	0x3d8c81a3	0.06860664
88	0x3d27cb83	0.04096557
89	0xbd91d6dd	-0.0712106
90	0xbd87cc48	-0.066307604
91	0xbb8797ab	-0.0041379533
92	0xbdc1c812	-0.094619885
93	0x3dada901	0.084795006
94	0xbd80b713	-0.06284919
95	0xbe0f24e3	-0.13978915
96	0xbe437362	-0.19086984
97	0xbe00a9d1	-0.1256478
98	0x3cc226e9	0.023700194
99	0xbde09790	-0.10966408
100	0x3b4ca7ef	0.0031228026
101	0x3e0e9e2a	0.13927522
102	0xbe0d131d	-0.13776822
103	0x3d46aceb	0.04850475
104	0x3d89f51c	0.06736204
105	0xbe1a1981	-0.15048791
106	0xbe2c44ac	-0.16823071
107	0xbe007e26	-0.12548122
108	0xbdedd9f6	-0.116138384
109	0x3da151c5	0.078769244
110	0x3ddbf81c	0.107406825
111	0x3dd54d41	0.10415126
112	0x3d7e3bfc	0.062068924
113	0xbdf65158	-0.12027234
114	0x3e27d73f	0.16390704
115	0xbdac0746	-0.08399825
116	0xbd949cf2	-0.072564974
117	0xbda10700	-0.07862663
118	0x3e416d79	0.18889417
119	0x3da0fb49	0.07860429
120	0x3d4a413d	0.049378622
121	0x3cc2ea95	0.023793498
122	0xbe178be8	-0.14799464
123	0xbe26dd39	-0.16295327
124	0x3dcb7339	0.09934086
125	0xbdc107ce	-0.09425317
126	0x3c99d6e0	0.018779218
127	0xbd7e39e8	-0.062066942

feature_layer.2.weight f4 [128, 128]
0	0xbdfea736	-0.12434237
1	0xbddd29ae	-0.107989654
2	0xbe1b813a	-0.15186015
3	0x3ea3b411	0.31973317
4	0x3e01cd8b	0.12676065
5	0xbdfb1b3a	-0.122610524
6	0x3e0c3882	0.13693431
7	0x3d352d58	0.044232696
8	0x3e1690e9	0.14703716
9	0xbcb64bcf	-0.022252945
10	0x3ce2ce60	0.027686298
11	0x3e42a5cb	0.19008557
12	0x3dcc1dce	0.09966622
13	0xbe38fc3b	-0.18064968
14	0x3e65552a	0.22395769
15	0xbe49e6ed	-0.19716997
16	0x3e7b0a61	0.24515678
17	0xbd534bd6	-0.051585995
18	0x3e6082ba	0.21924868
19	0x3ebd6eb0	0.3699851
20	0xbf3a3d90	-0.72750187
21	0x3c671176	0.014103284
22	0x3e08faa4	0.13376862
23	0x3e208e49	0.15679277
24	0x3e099231	0.13434674
25	0xbd7e8dff	-0.062147137
26	0x3d19f7b3	0.03758974
27	0x3ae34a45	0.001734086
28	0xbda96f18	-0.082731426
29	0xbe18db53	-0.14927416
30	0x3dc132f8	0.0943355
31	0x3e05339a	0.13007966
32	0x3db99cfd	0.09063146
33	0xbe08cc39	-0.13359155
34	0xbe550aec	-0.20804948
35	0x3e28f994	0.16501456
36	0xbcac5c94	-0.021040238
37	0x3d49b192	0.04924161
38	0x3e512bcd	0.20426865
39	0xbe00abbf	-0.12565516
40	0x3d719900	0.058983803
41	0x3df65a88	0.12028986
42	0xbe2e1dd0	-0.1700356
43	0x3e31b2bb	0.17353337
44	0x3dc7daca	0.097585276
45	0x3d32b02d	0.043625046
46	0x3dc5401a	0.09631367
47	0x3e01a532	0.12660673
48	0xbf46d7bf	-0.7767295
49	0xbf5e50c4	-0.8684199
50	0x3decaa18	0.1155588
51	0x3d1d1c7f	0.038357254
52	0x3c6ccaab	0.014452617
53	0xbda7e90a	-0.081987455
54	0x3ce669e6	0.028126668
55	0x3c35ea92	0.011103289
56	0xbcf998ba	-0.030468334
57	0x3d853caa	0.065057114
58	0xbf3c5f33	-0.7358276
59	0x3dd13dfc	0.10216901
60	0xbf8167a8	-1.0109758
61	0x3e18eadc	0.14933342
62	0x3e015083	0.12628369
63	0x3d9c9a90	0.07646668
64	0x3d98deb8	0.07464355
65	0xbdf885a5	-0.12134866
66	0xbedbc68c	-0.42924917
67	0x3e73af45	0.23797329
68	0xbf00e4f7	-0.5034937
69	0x3d54b5a6	0.051931046
70	0x3db2ff14	0.087400585
71	0x3e1d11e5	0.15338857
72	0x3e0b0723	0.13576941
73	0xbd806db9	-0.06270928
74	0x3daf0ff2	0.08547963
75	0x3f06e620	0.5269489
76	0x3f176bfe	0.5914916
77	0x3daa6840	0.08320665
78	0x3eabd482	0.33560568
79	0x3e464717	0.19363056
80	0x3f23650d	0.63826066
81	0x39fb90da	0.00047982374
82	0xbe69cd22	-0.22832158
83	0xbe85bbcb	-0.26119837
84	0x3df8c89d	0.12147639
85	0x3d823dd6	0.063594505
86	0xbe50531b	-0.20344202
87	0x3d22d8c3	0.0397575
88	0x3e7d620f	0.24744438
89	0xbdee7dd3	-0.11645093
90	0xbd9e5ad4	-0.07732168
91	0x3d6149a3	0.055001866
92	0xbcbe7c3b	-0.023252597
93	0xbc5b7bd6	-0.013396224
94	0x3e3e4f91	0.1858504
95	0xbe096f2a	-0.13421312
96	0xbd1f72ba	-0.03892777
97	0x3e4f0f9c	0.20220798
98	0xbdb2bf09	-0.08727843
99	0x3d7e0aca	0.062022008
100	0x3e0575e2	0.1303325
101	0x3d22ecd1	0.039776627
102	0x3dfff112	0.124971524
103	0xbd9724f7	-0.07380097
104	0x3de2c68c	0.11073026
105	0xbf3c5f8b	-0.73583287
106	0x3eb67498	0.3563583
107	0xbf8aa4e7	-1.0831574
108	0x3e684ec2	0.22686294
109	0xbda08d74	-0.0783948
110	0x3dc4bb11	0.096059926
111	0x3d712f45	0.05888297
112	0x3e539f8b	0.2066633
113	0xbefa0589	-0.48832348
114	0x3d95b1ee	0.07309328
115	0xbc89cd7c	-0.016821615
116	0xbac1ed14	-0.0014795386
117	0xbe8e1cc4	-0.2775632
118	0x3e425efc	0.18981546
119	0xbda69d23	-0.0813544
120	0xbd626b56	-0.055278145
121	0xbd2b66c0	-0.041846037
122	0xbec55ba6	-0.38546485
123	0xbdc97038	-0.09835857
124	0x3e488594	0.19582206
125	0xbe267248	-0.16254532
126	0x3e5bb15f	0.2145438
127	0xbeb04bc0	-0.34432793
128	0x3d15958a	0.036519565
129	0xbd9a27e7	-0.07527142
130	0xbd971b2e	-0.07378231
131	0xbdb979f4	-0.09056464
132	0x3d7366d1	0.059424225
133	0xbdc12095	-0.09430043
134	0x3d880c0b	0.06642922
135	0x3d229086	0.03968861
136	0x3d4299dc	0.047510013
137	0x3db581b4	0.088626295
138	0x3c6f063c	0.014588889
139	0xbdbae13a	-0.0912499
140	0x3d1c7fb8	0.03820774
141	0x3dce4a46	0.1007276
142	0x3df6e5cd	0.1205555
143	0xbe2854ce	-0.164386
144	0x3d1bbc09	0.03802112
145	0xbd86aad0	-0.06575549
146	0x3de5f002	0.112274185
147	0xbd966755	-0.07343928
148	0xbd3bf330	-0.04588622
149	0x3d179213	0.03700454
150	0xbe0d133e	-0.13776872
151	0x3c8d155d	0.0172221
152	0x3d8e8242	0.069584385
153	0xbd3e5250	-0.046465218
154	0xbe1fe909	-0.1561624
155	0xbe345c38	-0.17613304
156	0xbe02530b	-0.12726991
157	0xbe1fc5f6	-0.1560286
158	0x3d8a3600	0.06748581
159	0xbd574a53	-0.052561115
160	0xbd588cdc	-0.05286871
161	0x3dd31ee6	0.10308628
162	0x3c468210	0.01211597
163	0xbdfb982a	-0.12284882
164	0xbcae5136	-0.021278959
165	0x3d11a105	0.03555395
166	0xbd98d7ac	-0.07463011
167	0xbc22fc85	-0.009947901
168	0xbd4cf494	-0.050037935
169	0xbe074edd	-0.13213678
170	0xbe1b35b2	-0.15157202
171	0xbdd7127a	-0.10501571
172	0x3da091d6	0.07840316
173	0x3e025bcd	0.12730332
174	0xbdde96f9	-0.108686395
175	0x3da7c8b1	0.08192576
176	0xbdc855d6	-0.09781997
177	0xbd527c72	-0.05138821
178	0x3a8464e0	0.0010100864
179	0x3d284eab	0.04109065
180	0x3cd1b66b	0.025599679
181	0xbe29fca1	-0.16600277
182	0x3d0274c0	0.031849623
183	0xbe2b27a9	-0.16714348
184	0x3e05280c	0.13003558
185	0x3e03b3ac	0.12861508
186	0xbe22aaa2	-0.15885404
187	0x3ce9d226	0.02854259
188	0x3dacb37a	0.0843267
189	0xbde7bc94	-0.11315265
190	0x3d07f017	0.033187952
191	0xbdcc7fb9	-0.09985299
192	0xbddeb6f0	-0.10874736
193	0xbd9a2473	-0.075264834
194	0xbd850045	-0.06494192
195	0xbe15b2e8	-0.14619029
196	0x3c1cdacb	0.009573649
197	0x3e152de5	0.14568289
198	0x3c86f4f9	0.016474234
199	0xbc72d399	-0.014820957
200	0xbe367c85	-0.17820938
201	0x3d1c354e	0.038136773
202	0x3dc73368	0.09726602
203	0xbc914c5b	-0.017736604
204	0x3e17184f	0.14755367
205	0x3e005ec2	0.12536147
206	0x3d44f4e8	0.048085123
207	0xbe1aa875	-0.15103324
208	0xbd68dbe2	-0.05685032
209	0xbd935f49	-0.071959086
210	0xbd582f78	-0.052779645
211	0xbddfd4d0	-0.10929263
212	0xbd5d77e8	-0.05406943
213	0xbd9ff28f	-0.07809936
214	0xbd853a7f	-0.06505298
215	0xbe1e70c3	-0.15472703
216	0xbe02c57d	-0.12770648
217	0x3d8dcb5f	0.069235556
218	0x3df29a7e	0.11845873
219	0x3ded0f06	0.11575131
220	0x3d94e5e1	0.072704084
221	0xbe264245	-0.16236217
222	0xbd6b06ca	-0.05737952
223	0xbd99e161	-0.07513691
224	0x3d228586	0.03967812
225	0x3e131c15	0.14366181
226	0x3d95969b	0.07304116
227	0x3d6f78e6	0.058464907
228	0xbdd38ba7	-0.10329371
229	0x3de4c63c	0.11170623
230	0xbe1e7e29	-0.15477814
231	0xbdfb6221	-0.12274576
232	0x3d067705	0.03282835
233	0x3dc7f2ae	0.09763084
234	0x3da23030	0.07919347
235	0xbe35149a	-0.1768364
236	0x3d863445	0.06552938
237	0xbd5c856d	-0.053838182
238	0x3c00487f	0.007829784
239	0xbdb3f7c2	-0.087874904
240	0xbdeb5345	-0.11490492
241	0xbd353559	-0.04424033
242	0x3b8ca856	0.004292528
243	0x3dac4066	0.084107205
244	0xbe0a7081	-0.1351948
245	0xbd67d1b8	-0.056596488
246	0x3d31fec2	0.043455847
247	0xbd90802f	-0.07055699
248	0xbe0eeac5	-0.13956745
249	0x3b268adc	0.0025412356
250	0x3cf344e9	0.029695945
251	0xbd695a50	-0.056970894
252	0x3c2c9a4b	0.010534833
253	0x3e0ea8b4	0.13931543
254	0x3d365a17	0.04451951
255	0x3bb8dca6	0.0056415377

feature_layer.2.bias f4 [128]
0	0x3dc67261	0.09689785
1	0xbcb94b19	-0.022618817
2	0x3e2aa462	0.1666427
3	0x3e0a89ea	0.13529173
4	0xbcb27da1	-0.02178842
5	0x3e32e810	0.17471337
6	0x3e331265	0.17487486
7	0xbdb82076	-0.089905664
8	0x3e4de72d	0.20107718
9	0xbd0552c8	-0.03254965
10	0x3d8a7955	0.067614235
11	0xbc446708	-0.011987455
12	0x3e072c36	0.13200459
13	0xbdbe3602	-0.09287645
14	0xbdd2753b	-0.10276266
15	0x3e414a1e	0.1887593
16	0xbc8c9cd3	-0.017164623
17	0xbdbeae13	-0.09310546
18	0x3e37db7a	0.17954817
19	0x3e30c698	0.17263258
20	0xbbcb60ac	-0.0062065925
21	0x3e3b0f2d	0.18267508
22	0xbd2ca508	-0.042149574
23	0x3e450f31	0.19244076
24	0xbcbd86b7	-0.023135526
25	0x3e210fee	0.15728733
26	0x3e22cc54	0.15898257
27	0xbd045bd2	-0.03231413
28	0xbdc3f5b4	-0.095683485
29	0x3e32778c	0.17428416
30	0x3e3b5a10	0.18296075
31	0x3e2d4bb3	0.16923408
32	0xbc55e8bc	-0.0130559765
33	0x3e0aba74	0.13547689
34	0x3dccf047	0.10006767
35	0x3e27fe3c	0.16405576
36	0xbd193c99	-0.037411306
37	0x3e3d4cac	0.18486279
38	0x3e3831c8	0.1798774
39	0xbc6b3ab0	-0.014357254
40	0xbe57e2b4	-0.21082574
41	0xbca6191f	-0.02027565
42	0x3c1800f0	0.009277567
43	0x3e466db9	0.19377793
44	0x3e337c26	0.17527828
45	0xbcd4d53d	-0.025980586
46	0xbd051d48	-0.032498628
47	0x3e0bb499	0.13643111
48	0xbdca9369	-0.098913975
49	0xbc63bdf9	-0.0139002735
50	0x3e314ebb	0.1731519
51	0xbd1df88a	-0.038567103
52	0x3e3146c0	0.17312145
53	0x3df6c8eb	0.12050041
54	0xbdecce59	-0.11562795
55	0x3e3d3699	0.18477859
56	0xbce9dca2	-0.028547589
57	0x3e3f7658	0.18697488
58	0xbc2d574d	-0.010579896
59	0xbd446112	-0.047944136
60	0xbd405a22	-0.046960957
61	0xbceba3af	-0.028764574
62	0xbce690dc	-0.028145246
63	0xbd658b8f	-0.056041297
64	0x3e314b80	0.17313957
65	0xbd3ae8d5	-0.045632202
66	0xbc9e0ec4	-0.01929415
67	0x3e1d618e	0.15369245
68	0x3e335228	0.17511809
69	0x3e2fda61	0.17173149
70	0xbda568e9	-0.08076651
71	0x3e2237cf	0.15841602
72	0xbd2d937c	-0.04237698
73	0xbc03246b	-0.008004288
74	0x3e39b82f	0.18136667
75	0x3e27408e	0.1633322
76	0x3e0ab450	0.13545346
77	0x3e353c3f	0.17698763
78	0xbd414763	-0.04718722
79	0xbbc883ac	-0.006119212
80	0x3ddc30fb	0.1075153
81	0x3e4244b3	0.18971519
82	0xbdc46523	-0.09589603
83	0x3e10340b	0.14082353
84	0xbd0cdd04	-0.034390464
85	0x3e3a2ad8	0.18180406
86	0xbdb76cd2	-0.08956303
87	0xbd38d36a	-0.045123495
88	0x3e4e2caf	0.20134233
89	0x00000000	0.0
90	0x3e246eeb	0.16057937
91	0x3e3549ef	0.17703985
92	0x3e3a71be	0.18207452
93	0x3e259de4	0.16173512
94	0x3cb42466	0.021990012
95	0x3e28d714	0.16488296
96	0xbd8c67a4	-0.068557054
97	0x3e418a4b	0.18900411
98	0x3dd22b1d	0.102621295
99	0x3e30a300	0.1724968
100	0x3e49aa35	0.19693835
101	0xbd085697	-0.033285704
102	0x3e628804	0.22122198
103	0x3e3a69cf	0.18204425
104	0xbce6f741	-0.028194072
105	0x3e2da739	0.16958322
106	0x3e38745c	0.18013138
107	0x3e41da20	0.18930864
108	0xbd20988a	-0.039207973
109	0x3e3a06c0	0.18166637
110	0xbd3edcbe	-0.046597235
111	0xbdd476ee	-0.103742465
112	0xbc96f815	-0.018428842
113	0x3e5335a1	0.20625927
114	0x3e40f278	0.18842494
115	0xbcccbf05	-0.024993429
116	0xbca21573	-0.019785618
117	0x3e2b57b0	0.16732669
118	0x3e43e8a4	0.19131714
119	0x3ddfea07	0.10933309
120	0x3e2950f4	0.16534787
121	0x3e351a75	0.17685874
122	0xbd8a1905	-0.06743053
123	0x3e3672de	0.17817256
124	0xbdc93357	-0.098242454
125	0xbc548201	-0.0129704485
126	0x3e46cc98	0.19413984
127	0x3e4a9159	0.19782008

value_stream.0.weight f4 [64, 128]
0	0xbe0a49dc	-0.13504738
1	0x3d9373d2	0.07199825
2	0x3d83d84b	0.06437739
3	0x3dcb60b6	0.099305555
4	0x3da0ce4c	0.07851848
5	0x3e73994c	0.23788947
6	0x3d5320cb	0.051544946
7	0xbe2ca3e5	-0.16859396
8	0x3e8abc90	0.27096987
9	0x397c5e75	0.00024067781
10	0x3daf5e9e	0.08562969
11	0x3d02169d	0.031759847
12	0x3ca95a10	0.020672828
13	0xbf1e5020	-0.6184101
14	0xbf30ba4c	-0.69034266
15	0x3e43413c	0.19067854
16	0x3dd0cbc0	0.10195112
17	0xbf18c4d0	-0.5967531
18	0xbd01cc93	-0.031689238
19	0x3e7ab6df	0.24483822
20	0x3e2ed6be	0.17074105
21	0x3da99472	0.08280267
22	0xbed84005	-0.42236343
23	0x3dd6d02c	0.104889244
24	0x3c80af1d	0.0157085
25	0xbd61b46d	-0.055103708
26	0x3d35f77a	0.044425465
27	0xbd956701	-0.07295037
28	0xbefcd63e	-0.49382204
29	0x3e5d6402	0.21620181
30	0x3e2dc4fa	0.16969672
31	0x3cd3d1ea	0.02585693
32	0x3e2f62fe	0.17127606
33	0x3da9ef85	0.08297638
34	0x3d9b7d19	0.0759222
35	0x3dbb290d	0.09138689
36	0xbdf131bc	-0.11777064
37	0x3cc3d878	0.023906931
38	0x3e011c82	0.12608531
39	0xbd5f9331	-0.054583732
40	0xbca9482a	-0.020664293
41	0x3b716d69	0.0036838895
42	0x3e5a89bb	0.21341603
43	0x3e77cac9	0.2419845
44	0xbbfcc29c	-0.007713629
45	0xbbf26261	-0.0073969816
46	0xbdee675d	-0.11640809
47	0xbdd74883	-0.105118774
48	0xbe44c8dd	-0.19217248
49	0x3e0aa1f7	0.13538347
50	0x3e1a1be9	0.1504971
51	0xbe09dc7d	-0.13463016
52	0x3e52087f	0.20511054
53	0xbdca026c	-0.09863743
54	0xbe9983a1	-0.29983237
55	0x3e663101	0.22479631
56	0xbde5a65c	-0.11213371
57	0x3bed7820	0.007246986
58	0xbd77fe31	-0.06054515
59	0xbdccd49c	-0.100014895
60	0xbea3ce48	-0.31993318
61	0xbd961d69	-0.07329828
62	0xbe1061b4	-0.14099771
63	0xbe5fa156	-0.21838889
64	0x3ddd7847	0.10813957
65	0x3d19521f	0.037431832
66	0x3d4131f7	0.04716679
67	0xbdc75593	-0.09733119
68	0x3c3e8b3f	0.011629879
69	0xbd15c0b9	-0.036560748
70	0xbe7cb505	-0.24678428
71	0xbc8c55c4	-0.01713074
72	0xbbb7287d	-0.0055895434
73	0xbccdf6e8	-0.025142148
74	0xbd652ac0	-0.055948973
75	0x3e466f91	0.19378497
76	0x3e2d0010	0.16894555
77	0x3e006897	0.12539898
78	0x3d6a14b6	0.057148658
79	0xbb33e4f9	-0.002744971
80	0x3db47a08	0.08812338
81	0xbdf5afc1	-0.11996413
82	0xbedd08df	-0.4317083
83	0x3e3e2e32	0.1857231
84	0xbd8ac959	-0.06776685
85	0x3e5cd4b0	0.21565509
86	0xbe14ec23	-0.14543204
87	0x3dba9548	0.091105044
88	0x3d83cb10	0.064352155
89	0xbdca8c8c	-0.098900884
90	0x3c9af08d	0.018913532
91	0x3e7a3e58	0.24437845
92	0x3d21dc36	0.03951665
93	0xbda3a9f8	-0.07991403
94	0x3d55f2a0	0.05223334
95	0xbd2b38fe	-0.0418024
96	0xbe1b3f58	-0.15160882
97	0x3c8025a3	0.015642947
98	0xbdb07485	-0.08615974
99	0xbb0e0639	-0.002167119
100	0x3e3bba68	0.18332827
101	0xbcff1891	-0.031139644
102	0x3e066621	0.13124897
103	0x3e8d581c	0.27606285
104	0x3d801126	0.06253271
105	0x3e66475f	0.22488163
106	0x3e7cb5d6	0.2467874
107	0x3e03fac6	0.12888631
108	0x3d334dff	0.043775555
109	0x3e6a017f	0.22852133
110	0xbf1358b3	-0.5755722
111	0xbec1c817	-0.3784797
112	0x3e2f2c01	0.1710663
113	0x3e4dfc56	0.2011579
114	0x3e230ff6	0.15924057
115	0x3d023b97	0.03179511
116	0xbdb49488	-0.088173926
117	0x3e11f82e	0.1425483
118	0x3dc21326	0.094763085
119	0x3d411586	0.047139667
120	0x3e8bf50f	0.27335402
121	0x3e350206	0.17676553
122	0xbf453e16	-0.7704786
123	0x3da9e7da	0.08296175
124	0xbea1c790	-0.31597567
125	0x3d702663	0.05863036
126	0x3e8e9192	0.27845436
127	0x3c5551f0	0.013020024
128	0xbd6923b8	-0.05691883
129	0x3dec14ba	0.11527391
130	0xbdac99a9	-0.08427746
131	0x3e47ed73	0.19524173
132	0x3d235b3d	0.039881933
133	0x3e471d3c	0.19444746
134	0x3dab0c5d	0.083519675
135	0x3e0a7bb7	0.13523756
136	0xbdab2046	-0.08355765
137	0xbc1dfe73	-0.009643185
138	0x3e30f7f6	0.1728209
139	0xbd710483	-0.058842193
140	0x3e8021ac	0.2502569
141	0xbef0fac9	-0.47066334
142	0xbea641a2	-0.3247195
143	0xbc24a10b	-0.010048161
144	0xbdf82a18	-0.12117404
145	0xbf1f446e	-0.6221379
146	0xbcb1de65	-0.021712491
147	0x3e3a3e1a	0.18187752
148	0xbd188ab4	-0.037241653
149	0x3e11d65d	0.1424193
150	0xbd852587	-0.065012984
151	0xbd15fe51	-0.03661949
152	0xbdb3cb43	-0.087790035
153	0x3e431ff8	0.19055164
154	0x3b83faba	0.0040276917
155	0xbe26ea3b	-0.1630029
156	0xbe095a5d	-0.13413377
157	0xbdcc2d98	-0.09969634
158	0xbc49c864	-0.012315843
159	0x3d97a42d	0.07404361
160	0x3e0da29e	0.13831565
161	0x3d970c85	0.07375435
162	0x3d85f1ea	0.06540282
163	0x3d36aa97	0.04459628
164	0xbdb1f569	-0.086893864
165	0x3e141216	0.14460024
166	0x3e45b6e5	0.1930805
167	0x3d8de9aa	0.069293335
168	0x3d7fc64b	0.062444966
169	0x3e2d7188	0.1693784
170	0x3e0bcff1	0.13653542
171	0xbce272dc	-0.02764266
172	0x3e35aa65	0.17740782
173	0x3d057dc3	0.03259064
174	0xbd131a7c	-0.03591393
175	0xbb2582be	-0.002525493
176	0x3d8ebbc4	0.06969407
177	0xbd91aeee	-0.07113443
178	0x3e300f73	0.17193393
179	0xbe039859	-0.12851085
180	0x3d8dc168	0.06921655
181	0xbdab3300	-0.08359337
182	0x3dc7fa8f	0.09764587
183	0xbd103573	-0.035207223
184	0xbd29d1df	-0.041459914
185	0x3e4d8276	0.20069298
186	0x3d2ff973	0.042962503
187	0xbb8b82c9	-0.004257534
188	0xbe58cee2	-0.2117267
189	0x3d02c724	0.031928197
190	0x3e054a0a	0.13016525
191	0xbe046188	-0.1292783
192	0x3e3d6ce8	0.18498576
193	0x3e109cc9	0.14122309
194	0x3bf519b3	0.00747987
195	0x3e45a29d	0.19300313
196	0x3d8d8bef	0.06911456
197	0x3e363edc	0.17797416
198	0xbea61c43	-0.32443437
199	0xbde276e3	-0.11057832
200	0x3d51f57d	0.051259506
201	0x3d7e84ad	0.06213825
202	0x3c9a558f	0.018839626
203	0x3d17322f	0.036913093
204	0x3e0d0b87	0.13773929
205	0x3e6473ba	0.22309771
206	0x3cdc78eb	0.026913127
207	0x3e1bfb4a	0.15232578
208	0x3e38277a	0.17983809
209	0x3df13249	0.11777169
210	0xbdbf08aa	-0.093278244
211	0xbc8f7a06	-0.01751424
212	0xbdfcc4d6	-0.12342231
213	0x3e1c3717	0.1525539
214	0xbd93d0f4	-0.07217589
215	0xbd1ef8ed	-0.038811613
216	0x3d63af7d	0.05558728
217	0xbdd21fd5	-0.10259978
218	0x3d9c4796	0.076308414
219	0x3e527e43	0.20555978
220	0x3e5fa1bd	0.21839042
221	0xbd7c231f	-0.06155693
222	0x3d78b466	0.060718916
223	0xbd05a23f	-0.032625433
224	0xbe49a5f7	-0.19692217
225	0x3e405ee8	0.18786204
226	0x3e29041f	0.16505478
227	0x3e76dddd	0.24108072
228	0x3e7a8aba	0.24466982
229	0xbcca52ee	-0.024697747
230	0x3df85a8c	0.121266454
231	0x3e1baf7b	0.15203659
232	0xbddad88c	-0.10685834
233	0x3e48013e	0.19531724
234	0xbd843681	-0.06455708
235	0x3dcce783	0.10005095
236	0xbdb22ade	-0.086995825
237	0x3e063f8b	0.13110177
238	0xbccd7da9	-0.025084333
239	0xbe52ffb9	-0.20605363
240	0xbd8498d2	-0.06474461
241	0x3e673e2e	0.22582313
242	0xbdacebc9	-0.0844341
243	0xbc138d5e	-0.0090058725
244	0xbe133d0e	-0.1437876
245	0x3d4012a5	0.04689278
246	0x3e59d6b1	0.21273305
247	0x3e002972	0.1251581
248	0x3c15f47f	0.009152531
249	0xbc7c6cc7	-0.015406794
250	0xbe64a9ed	-0.22330447
251	0xbb417bde	-0.0029523293
252	0xbeaf659f	-0.34257218
253	0x3e19b7b6	0.15011486
254	0x3e12124b	0.1426479
255	0xbd3d3d04	-0.046200767

value_stream.0.bias f4 [64]
0	0x3e61b631	0.22042157
1	0x3e44611c	0.1917767
2	0xbcaa04be	-0.020754214
3	0x00000000	0.0
4	0x3d000c68	0.03126183
5	0x3e3ea953	0.1861928
6	0x3e482a59	0.19547404
7	0x3e4293c3	0.19001679
8	0xbca0415e	-0.01956242
9	0xbcbe1b21	-0.023206295
10	0x3e465888	0.1936971
11	0x3c99aeb9	0.018760072
12	0xbbc4c9bf	-0.0060054953
13	0xbcb2fe4d	-0.021849776
14	0x3e68d9bd	0.2273931
15	0x3e47857a	0.19484511
16	0x3e4a36e7	0.19747506
17	0xbc0376f5	-0.008023967
18	0xbcd83e0c	-0.026396774
19	0x3e5654dc	0.20930809
20	0xbc39e1ee	-0.01134537
21	0x3e4bba7a	0.19895354
22	0x3e569542	0.20955375
23	0x3e04d694	0.1297248
24	0x3e4744bd	0.19459815
25	0x3e46fb4b	0.19431798
26	0x3e48b2c6	0.19599447
27	0xbc297f43	-0.010345283
28	0x3c9d9ff2	0.019241307
29	0x3e4c8d9e	0.19975898
30	0xbc36a689	-0.0111481035
31	0x3e47a657	0.19497047
32	0xbcadd72f	-0.021220772
33	0xbcba6877	-0.02275489
34	0xbcb43228	-0.021996573
35	0x3e4b10f1	0.19830681
36	0xbc86e74c	-0.016467713
37	0xbc623903	-0.013807538
38	0x3e5da5f3	0.21645336
39	0x3e622054	0.22082645
40	0xbcdf05a3	-0.027224367
41	0x3e418e2e	0.18901893
42	0x3e5df674	0.21676046
43	0xbc8c260b	-0.017107984
44	0xbc2a69c7	-0.010401196
45	0xbcb1395a	-0.021633793
46	0xbc33ba8a	-0.010969767
47	0x3e4cf0ce	0.20013735
48	0x3e5c95b1	0.21541478
49	0xbc9d86bd	-0.019229287
50	0x3e47fbf0	0.195297
51	0xbc46e4a4	-0.012139473
52	0x3d505d4c	0.050870225
53	0x3cbdc523	0.023165291
54	0x3e498dc5	0.19682987
55	0xbc39be23	-0.011336836
56	0xbc334a45	-0.010943
57	0xbcdf294c	-0.027241372
58	0xbcd66ed9	-0.026175903
59	0x3e561f57	0.20910393
60	0x3df9b90f	0.121935
61	0xbc538c49	-0.012911865
62	0xbc897c29	-0.016782837
63	0x3db1933f	0.08670663

value_stream.2.weight f4 [1, 64]
0	0x3e909e41	0.28245738
1	0x3e0b2b1e	0.13590667
2	0xbe820b3d	-0.253992
3	0x3d343240	0.043993235
4	0xbf17ae34	-0.5925019
5	0x3e78285e	0.24234149
6	0x3ec22af7	0.37923405
7	0x3df25c4b	0.1183401
8	0xbe819306	-0.25307482
9	0xbf2cd450	-0.67511463
10	0x3e3302f5	0.17481597
11	0xbec67d3a	-0.38767415
12	0xbe0ffcd9	-0.14061297
13	0xbe579884	-0.21054274
14	0x3e0bc095	0.13647683
15	0x3eb2a8c7	0.34894392
16	0x3dc98501	0.098398216
17	0xbf3490c6	-0.70533407
18	0xbe26245b	-0.16224806
19	0x3eb900f2	0.36133534
20	0xbe738545	-0.23781307
21	0x3e15f67d	0.14644809
22	0x3e75a9fc	0.23990625
23	0xbf12dcf5	-0.57368404
24	0x3e8932ca	0.2679656
25	0x3e6aa7c5	0.22915561
26	0x3e9e9347	0.3097174
27	0xbe8c648f	-0.2742047
28	0xbe10804e	-0.14111444
29	0x3e870dc7	0.263777
30	0xbd1532ea	-0.03642551
31	0x3e82dd98	0.25559688
32	0xbcdf8d7c	-0.027289145
33	0xbd00b15a	-0.031419136
34	0xbe2c50db	-0.16827719
35	0x3e08d5ba	0.1336278
36	0xbdd8e9c2	-0.10591461
37	0xbd6cccd1	-0.057812516
38	0x3eaad4b8	0.33365417
39	0x3eba4266	0.36378783
40	0xbc396aae	-0.011316938
41	0x3e563daa	0.2092196
42	0x3e823681	0.25432208
43	0xbe24068f	-0.16018127
44	0xbe6d5935	-0.23178561
45	0xbce70f5f	-0.028205572
46	0xbe8de026	-0.27710074
47	0x3e97b16b	0.29627547
48	0x3e71a477	0.23597895
49	0xbe942932	-0.2893768
50	0x3eb48936	0.35260934
51	0xbdf1ee62	-0.11813046
52	0xbf1c36c5	-0.6102107
53	0xbf0b8c5a	-0.54511034
54	0x3e68e9c5	0.22745426
55	0xbe0dac61	-0.13835289
56	0xbda25489	-0.0792628
57	0xbe47bc1a	-0.19505349
58	0xbe2c74bb	-0.16841404
59	0x3edc4197	0.4301879
60	0xbed7958f	-0.42106292
61	0xbe47679a	-0.19473115
62	0xbdfa9f76	-0.12237446
63	0xbf0d406e	-0.55176437

advantage_stream.0.weight f4 [64, 128]
0	0x3e0a6c0d	0.1351778
1	0x3cba1016	0.022712748
2	0xbda225b0	-0.079173446
3	0xbdf17a76	-0.11790936
4	0x3e1498bd	0.1451139
5	0x3c9e70c1	0.019340875
6	0xbd82df53	-0.06390252
7	0x3a0e7e5b	0.00054356985
8	0x3d11b596	0.035573564
9	0xbe04996f	-0.12949155
10	0xbe31de11	-0.17369868
11	0x3d8d3d96	0.06896512
12	0x3c91f309	0.017816084
13	0xbd273f8a	-0.04083208
14	0x3d286f2e	0.041121654
15	0xbdeed360	-0.1166141
16	0xbdfcf66f	-0.12351691
17	0xbdbb0467	-0.09131699
18	0xbe3661e7	-0.17810784
19	0x3e0e6bb7	0.13908277
20	0x3e10ae30	0.14128947
21	0xbdea200c	-0.11431894
22	0x3db237df	0.08702063
23	0xbdef59d1	-0.11687053
24	0x3e3b2d72	0.18279055
25	0xbe1dd66a	-0.15413824
26	0x3e0d08df	0.13772915
27	0x3dc7a54a	0.09748323
28	0xbc9d4922	-0.019199912
29	0xbd9c30c2	-0.07626487
30	0x3df8f914	0.12156883
31	0x3d18bb6a	0.037288107
32	0x3e151b1b	0.14561121
33	0xbe19aa71	-0.15006424
34	0xbe2bd0a0	-0.16778803
35	0xbdabe8a8	-0.08393985
36	0xbcc616eb	-0.02418085
37	0xbe185ce0	-0.14879179
38	0xbd83ae11	-0.06429685
39	0x3b878ff1	0.004137032
40	0x3e4ecb08	0.20194638
41	0x3e253981	0.16135217
42	0x3cb8bd2a	0.022551138
43	0x3e13eda5	0.14446123
44	0xbe348105	-0.17627342
45	0xbdd52b33	-0.1040863
46	0xbdbfebaa	-0.09371121
47	0xbd921250	-0.07132399
48	0xbe281b63	-0.16416697
49	0x3c294154	0.010330517
50	0xbbe32cc4	-0.0069328267
51	0xbd8fbe58	-0.07018727
52	0xbdacdead	-0.084409095
53	0x3e166935	0.14688571
54	0xbe1ab090	-0.15106416
55	0x3d441df7	0.04788014
56	0xbe193635	-0.14962085
57	0x3d87f7df	0.066390745
58	0x3d4c9198	0.049943537
59	0xbc449227	-0.011997736
60	0xbca11da5	-0.019667456
61	0x3d86a713	0.06574836
62	0x3ddd283c	0.1079869
63	0x3e5b4bce	0.21415636
64	0xbe0dd125	-0.13849314
65	0x3e13790c	0.14401644
66	0x3d75c458	0.0600017
67	0x3d87130c	0.0659543
68	0xbc10a7a6	-0.008829033
69	0x3d59c977	0.053170647
70	0xbcee4ea9	-0.029090242
71	0x3d237756	0.03990873
72	0xbe00f380	-0.12592888
73	0xbdc650a8	-0.09683353
74	0x3d01b75b	0.031669002
75	0xbe41c38f	-0.18922256
76	0x3e1fbd1c	0.15599483
77	0xbb89a646	-0.0042007295
78	0xbc8e40a3	-0.017364806
79	0xbe18b8d2	-0.14914253
80	0x3c3adbea	0.011404971
81	0x3e062ce1	0.13103057
82	0xbe525fb6	-0.20544323
83	0xbd89f394	-0.06735912
84	0x3e3197f5	0.17343123
85	0x3d0dfbce	0.034663968
86	0x3e3ff5e5	0.18746145
87	0xbe0ba3e8	-0.13636744
88	0xbb9c20cd	-0.0047646523
89	0x3db3f6e6	0.087873265
90	0xbd9fce3f	-0.0780301
91	0xbe44beed	-0.19213457
92	0x3e189276	0.1489962
93	0xbe660341	-0.22462179
94	0xbdb3ec18	-0.08785266
95	0xbcba5a8e	-0.022748258
96	0x3e662f6a	0.22479025
97	0xbd87b5ca	-0.066264704
98	0xbe4220d4	-0.18957835
99	0xbcfc9d1a	-0.03083663
100	0xbe17fce8	-0.1484257
101	0x3dc1f883	0.09471228
102	0xbdfd82fd	-0.123785
103	0x3d301a5e	0.042993896
104	0x3e2ab5e2	0.16670945
105	0x3d9b8a06	0.07594685
106	0xbd598a9d	-0.053110708
107	0x3dd8fb2d	0.10594783
108	0xbe09d1b9	-0.13458909
109	0x3d44989c	0.047997102
110	0xbc3e3275	-0.01160871
111	0xbd8afd8e	-0.06786643
112	0xbe0e7663	-0.13912348
113	0xbdea6152	-0.114443436
114	0xbdff5b46	-0.12468581
115	0x3e28a96f	0.16470884
116	0x3e0de6de	0.138576
117	0x3d6e41f6	0.058168374
118	0x3dd980b0	0.10620248
119	0xbd6a3a34	-0.057184413
120	0xbe5c0c24	-0.21489006
121	0x3ca05d5e	0.019575771
122	0x3d454597	0.04816207
123	0xbe06b3c4	-0.13154513
124	0x3e5550ad	0.20831557
125	0xbd7df00b	-0.0619965
126	0xbd0ecaf1	-0.03486151
127	0xbe02d12a	-0.12775102
128	0xbe28c5b5	-0.16481669
129	0x3c759e20	0.014991313
130	0x3e225ba1	0.15855266
131	0x3e1867c7	0.14883338
132	0xbd2ab3a8	-0.04167524
133	0x3d35e0da	0.04440389
134	0xbe32692b	-0.17422931
135	0xbdeefd4a	-0.11669405
136	0x3e010f30	0.1260345
137	0x3cc49f51	0.02400175
138	0x3d272328	0.040805012
139	0x3ca4d6ca	0.02012195
140	0xbd8d831e	-0.06909774
141	0x3e0b66bf	0.13613413
142	0x3e208053	0.15673952
143	0x3d8991e7	0.06717282
144	0x3e210f47	0.15728484
145	0x3d476707	0.04868224
146	0x3e02aa4b	0.12760274
147	0xbdf7a07a	-0.12091155
148	0x3d746d13	0.059674334
149	0xbe08b4a7	-0.13350163
150	0xbcfa2afe	-0.030538078
151	0xbe01835f	-0.1264777
152	0x3d6bc759	0.05756316
153	0xbe3580ff	-0.1772499
154	0xbd6f742f	-0.05846041
155	0xbd8bd88a	-0.06828411
156	0x3de0caf3	0.109762095
157	0xbe187d78	-0.14891613
158	0xbdbd0950	-0.09230292
159	0x3e14412f	0.1447799
160	0x3d9bedcd	0.07613716
161	0x3ddb84fb	0.107187234
162	0x3e21c7a6	0.15798816
163	0xbdd60bc1	-0.10451461
164	0x3d326a93	0.04355867
165	0xbe0ce560	-0.13759375
166	0xbd96078a	-0.07325657
167	0xbcfcfe3a	-0.030882943
168	0xbdb5a18b	-0.088687025
169	0x3d168f48	0.036757737
170	0x3d010f69	0.031508837
171	0x3ce70769	0.028201776
172	0x3db5dfe1	0.08880592
173	0xbc989b89	-0.018628852
174	0x3e0df18f	0.13861679
175	0xbc920b28	-0.017827585
176	0x3ddf8242	0.109135166
177	0x3e082a86	0.13297471
178	0x3e20fbf0	0.15721107
179	0xbdae9b53	-0.085257195
180	0xbd963e78	-0.07336134
181	0xbe136f31	-0.14397885
182	0xbda50182	-0.08056928
183	0x3e22e986	0.15909395
184	0xbc8b47d6	-0.017002027
185	0xbdd0b8e2	-0.101915136
186	0xbe11f9a2	-0.14255384
187	0xbe0abf8a	-0.13549629
188	0xbdd96f7a	-0.106169656
189	0x3d732d80	0.059369564
190	0xbdc5b628	-0.09653884
191	0xbd885fb2	-0.066588774
192	0xbe1bca92	-0.15213993
193	0xbe1b89ca	-0.15189281
194	0xbdd2ca8e	-0.102925405
195	0xbe2f613c	-0.17126936
196	0xbc979c81	-0.018507244
197	0xbd9575cc	-0.072978586
198	0xbdae12be	-0.084996685
199	0xbde50b2d	-0.11183772
200	0x3d671699	0.056418035
201	0x3d8c96e0	0.068647146
202	0xbd1d28c7	-0.038368966
203	0x3d383e6b	0.0449814
204	0x3e1f9547	0.15584289
205	0xbd6542f6	-0.055972062
206	0xbdd0ee6d	-0.10201726
207	0x3dcd367c	0.10020158
208	0xbd34a394	-0.044101313
209	0xbd96601c	-0.0734255
210	0x3dd9d582	0.106364265
211	0x3d47a5e0	0.048742175
212	0xbdf70678	-0.12061781
213	0x3d1c3479	0.03813598
214	0x3d9c5f57	0.07635372
215	0x3e296df4	0.1654585
216	0xbdda084c	-0.10646114
217	0x3db7003e	0.08935593
218	0xbd6a0361	-0.05713213
219	0x3c98b091	0.01863888
220	0xbe2a5d89	-0.16637243
221	0xbe296753	-0.16543321
222	0x3dc08f43	0.09402325
223	0xbb563bab	-0.0032689373
224	0x3d9d17a0	0.07670522
225	0xbde4192b	-0.11137613
226	0x3e02890f	0.12747596
227	0xbd90e86e	-0.070755824
228	0xbde74240	-0.11291933
229	0x3e19eb77	0.15031229
230	0xbddd3c94	-0.1080257
231	0xbe0b7550	-0.1361897
232	0xbe14f0e1	-0.14545013
233	0x3d955baf	0.07292878
234	0xbc69f6db	-0.014280046
235	0xbc1a4ab6	-0.009417227
236	0x3d3f633a	0.04672549
237	0xbd63319e	-0.05546724
238	0x3cd9ae79	0.026572453
239	0xbdc86168	-0.09784204
240	0xbd39f1b3	-0.045396518
241	0x3dbed5c8	0.09318119
242	0x3cafe2cc	0.02147045
243	0x3df93d7b	0.121699296
244	0x3e28dfc7	0.16491614
245	0x3df58527	0.119882874
246	0xbd982db3	-0.074305914
247	0xbe19cf2f	-0.1502044
248	0xbda3288c	-0.07966718
249	0xbcac25b2	-0.021014068
250	0x3e2022e5	0.15638311
251	0x3c4dc6f8	0.012559645
252	0xbce65b1a	-0.028119612
253	0x3e02dccf	0.12779544
254	0x3d898de4	0.067165166
255	0x3e0bde20	0.13658953

advantage_stream.0.bias f4 [64]
0	0xbd3db92e	-0.04631918
1	0xbb65d411	-0.0035069028
2	0x3d1788cc	0.036995694
3	0x3d874918	0.066057384
4	0x3c55dd3a	0.013053233
5	0xbb64c3bc	-0.0034906706
6	0xbb35aed6	-0.0027722619
7	0xbcbc3660	-0.022975147
8	0xbbc4c96a	-0.0060054557
9	0x3e1ae2cf	0.15125583
10	0x3e02fa26	0.12790737
11	0x391a4a0c	0.00014714169
12	0x3e312973	0.17300968
13	0xbccffb74	-0.025388457
14	0xbcd64d4e	-0.026159909
15	0x3d65591f	0.055993196
16	0x3d5eb455	0.054371197
17	0x3d61087f	0.054939743
18	0x3d9233b4	0.07138768
19	0xbd020de0	-0.031751513
20	0xbcd0db09	-0.02549507
21	0xbd3b901e	-0.045791738
22	0x3dfc1883	0.12309363
23	0xbd0fcc20	-0.03510678
24	0xbd7262f9	-0.05917642
25	0xbd0759b4	-0.033044532
26	0xbc49629d	-0.012291578
27	0xbc39f011	-0.01134874
28	0xbb6dd5e0	-0.003629081
29	0x3e352cd6	0.17692885
30	0x3d9ec07f	0.077515595
31	0x3db566fe	0.08857535
32	0xbc77cf34	-0.015125085
33	0xbcbd1eca	-0.02308597
34	0x3d4ba62f	0.049719032
35	0x3d947c69	0.07250292
36	0xbc91044f	-0.01770225
37	0xbcad5df6	-0.021162968
38	0xbcaa477b	-0.020786038
39	0x3dc75d03	0.097345375
40	0xbbbf6f1c	-0.0058421027
41	0xbd2a0edb	-0.041518074
42	0x3e10db4c	0.14146155
43	0xbd55fd8b	-0.05224375
44	0x3dae6ee0	0.085172415
45	0x3da4bfc9	0.080443926
46	0x3e274ef3	0.1633871
47	0xbc38f20a	-0.011288175
48	0xba8c598c	-0.0010707839
49	0x3c99b853	0.01876465
50	0xbb4abbb3	-0.0030934631
51	0xbbe14a8e	-0.0068753427
52	0x3bc697f8	0.0060605966
53	0xbd00ff07	-0.031493213
54	0xbd0e3c69	-0.03472558
55	0xbd2e41c6	-0.042543195
56	0xbbe899bc	-0.0070984047
57	0xbba27996	-0.004958342
58	0x391a6bb7	0.00014726711
59	0x3d9a1960	0.07524371
60	0x3d902368	0.07038003
61	0xbd2ce247	-0.042207982
62	0xbcd71d5f	-0.026259122
63	0xbd44c458	-0.04803881

advantage_stream.2.weight f4 [2, 64]
0	0x3e889048	0.26672578
1	0x3d846947	0.064653926
2	0x3ea7c250	0.32765436
3	0x3edaa47a	0.4270361
4	0xbead9478	-0.33902335
5	0xbecc1210	-0.3985753
6	0xbe6f19eb	-0.2334973
7	0x3e5af095	0.21380837
8	0x3e955cdf	0.29172418
9	0x3f35bb43	0.70988864
10	0x3f23231e	0.6372546
11	0x3e3aee9e	0.18255088
12	0xbec16721	-0.37773994
13	0xbd9591e6	-0.073032185
14	0xbc8d7340	-0.01726687
15	0x3ea9adf3	0.33140525
16	0x3dd2eedc	0.10299465
17	0x3e766c3d	0.24064727
18	0x3e36d94c	0.1785633
19	0xbe835209	-0.25648525
20	0xbe2d8e53	-0.16948824
21	0xbdf9b91d	-0.12193511
22	0x3f5d8aad	0.8653973
23	0x3dc329b1	0.095294364
24	0xbe495f5e	-0.19665286
25	0x3d50d9f0	0.05098909
26	0x3e09e99c	0.13468021
27	0x3ddd0e65	0.10793761
28	0xbe8a21a0	-0.2697878
29	0xbf6e1eda	-0.93015826
30	0x3e888e31	0.26670983
31	0x3ef3d1d9	0.4762104
32	0xbbd8ff26	-0.006622213
33	0x3dbe5d5f	0.09295153
34	0xbcbdf15a	-0.023186374
35	0xbf1f79c8	-0.622952
36	0x3ec90acb	0.39266047
37	0x3e294e06	0.1653367
38	0x3e436546	0.19081602
39	0x3f2cbadd	0.6747263
40	0xbd5ccfff	-0.053909298
41	0x3e00b3c8	0.12568581
42	0x3f223d23	0.6337454
43	0x3f21d4da	0.6321541
44	0x3ed6916b	0.4190782
45	0x3eb7d439	0.359041
46	0xbf423689	-0.75864464
47	0xbe96fe99	-0.29491118
48	0x3def3da5	0.1168168
49	0x3e94c2d1	0.29054883
50	0xbedf81ec	-0.4365381
51	0xbe95c192	-0.29249245
52	0xbcb23a81	-0.021756412
53	0x3e3026d5	0.17202313
54	0xbe9f3277	-0.3109319
55	0xbd90df8e	-0.0707389
56	0x3d6551c0	0.055986166
57	0x3c909a87	0.01765181
58	0x3ca0992b	0.019604286
59	0x3e38a393	0.18031149
60	0x3dda4ee9	0.10659582
61	0x3e4018ca	0.18759456
62	0x3f4249de	0.7589396
63	0xbceecd73	-0.0291507
64	0x3e813f3f	0.25243565
65	0xbe820fb1	-0.25402597
66	0xbe9a6dc6	-0.30161875
67	0xbf28e5a8	-0.6597543
68	0x3e974852	0.29547364
69	0x3eae393c	0.3402804
70	0xbdf55daf	-0.11980759
71	0x3dcac37a	0.099005654
72	0xbbbdac70	-0.0057883784
73	0xbf2ae779	-0.6675945
74	0xbf283abe	-0.65714633
75	0xbe5b49ac	-0.21414822
76	0x3f29740b	0.6619269
77	0x3dda7a6e	0.10667883
78	0xbbadc054	-0.0053024683
79	0xbe9bd7eb	-0.3043817
80	0xbe4ee5a8	-0.20204794
81	0xbe9e7e0f	-0.3095555
82	0xbeb2d036	-0.34924477
83	0x3e626740	0.22109699
84	0xbe30bfe3	-0.17260699
85	0x3d9d3360	0.07675815
86	0xbf2a7331	-0.6658202
87	0xbe24688c	-0.16055506
88	0x3e12ee7b	0.14348786
89	0x3e0e40c2	0.1389189
90	0x3e1288b2	0.14309958
91	0x3df5d923	0.12004306
92	0x3ea12582	0.3147393
93	0x3f82b94f	1.0212802
94	0xbe83be80	-0.25731277
95	0xbea9f13f	-0.3319187
96	0x3e82f848	0.2558005
97	0x3e248dfe	0.1606979
98	0xbeb95497	-0.3619735
99	0x3f3c2b9c	0.7350404
100	0xbeed6541	-0.46366313
101	0x3e9a545e	0.30142492
102	0xbe11d5a4	-0.14241654
103	0xbf0b1426	-0.5432762
104	0x3e9ddbe9	0.3083184
105	0x3e989396	0.298001
106	0xbf0e987f	-0.5570144
107	0xbe9311d9	-0.28724554
108	0xbecb349b	-0.39688572
109	0xbf5155e1	-0.81771666
110	0x3f784379	0.96977955
111	0x3d4625a6	0.048375748
112	0xbe7ab28e	-0.24482176
113	0xbf18bd01	-0.596634
114	0xbd95d115	-0.0731527
115	0x3e4e6b5b	0.2015814
116	0x3ed381b6	0.413099
117	0x3e7715f9	0.24129476
118	0xbe8f787e	-0.28021616
119	0xbd5bd096	-0.05366572
120	0x3eca7ef5	0.39549986
121	0xbe8788e6	-0.26471633
122	0x3caf68a5	0.021412203
123	0xbe8d062d	-0.27543774
124	0xbe85af90	-0.26110506
125	0xbe327f68	-0.17431414
126	0xbee3568c	-0.44401968
127	0xbdd53d76	-0.10412113

advantage_stream.2.bias f4 [2]
0	0xbb59ebc8	-0.003325211
1	0x3b59ebc8	0.003325211

exp_avg f4 [128, 4]
0	0xbb15fa6b	-0.0022884856
1	0xbb16dac6	-0.0023018583
2	0x39b05ef2	0.00033640076
3	0xb9eefa80	-0.00045581535
4	0xbb0e4651	-0.0021709392
5	0xbaf043a0	-0.0018330701
6	0x39fff1a3	0.00048817424
7	0x3ac9d348	0.001539805
8	0xbb5e25de	-0.0033897082
9	0x3b078525	0.0020678726
10	0x39c5da55	0.00037737438
11	0xbb20fec5	-0.0024565917
12	0x3c141a3b	0.009039457
13	0xbc80c163	-0.015717214
14	0x3a917f95	0.0011100644
15	0x3cc18a9c	0.023625664
16	0x3b741d30	0.0037248842
17	0x3b01132f	0.0019695272
18	0xb93a674e	-0.00017776826
19	0x3b441db6	0.0029924936
20	0xbafcd2d5	-0.0019288907
21	0xbc1da26e	-0.009621246
22	0x3a1d3dd0	0.00059982855
23	0x3bd37bdd	0.0064539746
24	0x3bc2bc9e	0.005942895
25	0xbbc36c70	-0.0059638545
26	0x391307f0	0.0001402197
27	0x3c1ef7a5	0.009702598
28	0x3be3a6fe	0.0069473973
29	0xbc568dbe	-0.013095317
30	0x3a2d8512	0.00066192553
31	0x3c891ea1	0.016738238
32	0xbb031c91	-0.002000604
33	0xb9fe6832	-0.00048524287
34	0x38145ec7	3.5374218e-05
35	0xb92a8004	-0.00016260153
36	0x39c278f4	0.0003709268
37	0xbc038094	-0.008026261
38	0xba6c4553	-0.00090130157
39	0x3bd4dfc1	0.0064964
40	0x3a89e3bd	0.0010520142
41	0x3b994108	0.004676942
42	0xb88be1ed	-6.6701185e-05
43	0xbb42aad8	-0.0029703882
44	0x3b0a08f5	0.0021062468
45	0xbb19de56	-0.002347847
46	0x38a63e40	7.927092e-05
47	0x3bb764a3	0.0055967136
48	0x3bc62197	0.0060464847
49	0xbb950e82	-0.0045488486
50	0x3a8b5dde	0.0010632833
51	0x3c3bb15a	0.011455858
52	0x3a97b2c2	0.001157366
53	0xbbb71356	-0.005587022
54	0x382b3310	4.0817133e-05
55	0x3bd99666	0.0066402433
56	0x3a90330b	0.001100154
57	0x39c99320	0.00038447324
58	0x380915bd	3.268359e-05
59	0x3a810163	0.0009842332
60	0xbc02b8a8	-0.007978596
61	0xbb082013	-0.002077107
62	0x3a2ee9b9	0.00066724006
63	0xbaece322	-0.0018073062
64	0x3c172f21	0.009227545
65	0xbc81bb01	-0.01583624
66	0x3a82fbc6	0.0009993247
67	0x3cc1efab	0.023673853
68	0x3a7bf146	0.00096108427
69	0x3a1eb2ad	0.00060538464
70	0xb9781ac9	-0.00023661101
71	0xbadae316	-0.0016699757
72	0x3b56981b	0.003274447
73	0x3c11f34b	0.008908103
74	0x3ab35303	0.0013681356
75	0x3ca0a52b	0.019610008
76	0x3926c530	0.00015904452
77	0xbc265902	-0.010153057
78	0x3aa7b394	0.0012794607
79	0x3c607698	0.01370015
80	0x3c5ad9a0	0.01335755
81	0x3c6ae790	0.014337435
82	0xba2520e6	-0.0006299153
83	0xbb9ca4dc	-0.004780395
84	0x39bde2a1	0.0003621774
85	0x3aec520b	0.0018029822
86	0x37f9e3f0	2.9789255e-05
87	0x3a7177be	0.00092112634
88	0x3a9851c3	0.0011621047
89	0x3aaeacb6	0.0013326618
90	0x39e42994	0.00043518527
91	0x3ae42ecc	0.0017408966
92	0x3b89f8e0	0.0042105764
93	0xbc136b72	-0.008997785
94	0x39d10d00	0.00039873272
95	0x3c5284de	0.012849061
96	0x39818b94	0.0002470879
97	0xba27429b	-0.00063804694
98	0x3702cd0f	7.796348e-06
99	0x39d4bbb6	0.00040575647
100	0xbb0df61f	-0.0021661592
101	0x3aea9932	0.0017898439
102	0xb93c5004	-0.00017958885
103	0xbb78c725	-0.0037960496
104	0x3b5a01ac	0.0033265157
105	0x3b300fc1	0.0026864859
106	0xb8ecf184	-0.00011298343
107	0x3b1a3cbd	0.0023534738
108	0xb8f8a657	-0.00011856545
109	0xbb7ecbd4	-0.0038878815
110	0xb9dea209	-0.00042463865
111	0x38b14fc0	8.454872e-05
112	0x399f9512	0.0003043791
113	0x3979d1c4	0.00023824634
114	0x3912e576	0.00014009126
115	0x3a414ebe	0.0007374099
116	0x3763f12b	1.3586406e-05
117	0x37b6a1fd	2.1771522e-05
118	0x36abc68e	5.119312e-06
119	0x37959e87	1.7836004e-05
120	0x3a93adfb	0.001126706
121	0x3a2a26d9	0.0006490774
122	0xb92b2927	-0.00016323161
123	0x3abb9d3f	0.0014313831
124	0x3b46930c	0.003030005
125	0x3b28bd8f	0.0025747751
126	0xb941d864	-0.00018486526
127	0x3b78946e	0.0037930268
128	0xba4bd572	-0.0007775641
129	0xb8b6ffe6	-8.726101e-05
130	0xb84acf82	-4.835381e-05
131	0xba24e513	-0.0006290238
132	0x3a518b75	0.0007993498
133	0x3a203b7b	0.0006112379
134	0xb9080ef4	-0.00012975541
135	0xba211cb5	-0.000614594
136	0xbbfeb374	-0.0077728573
137	0x3b8692a0	0.0041068345
138	0x3ac412b6	0.001495919
139	0xbb8e04c4	-0.004334064
140	0xba19cec7	-0.0005867299
141	0xbaabdbf9	-0.0013111822
142	0x3986dcee	0.00025723077
143	0x3a548192	0.00081064657
144	0xbadabdc2	-0.0016688632
145	0xb900f554	-0.00012298423
146	0xb75ee140	-1.3284676e-05
147	0xbac2be66	-0.0014857769
148	0x3c29a8e4	0.010355208
149	0xba3d6a60	-0.0007225629
150	0xb9f17b8e	-0.00046059157
151	0x3c1c2820	0.009531051
152	0x3badbf96	0.00530238
153	0x3bb81fe8	0.005619038
154	0xb8b2bac8	-8.522492e-05
155	0x3ba0b836	0.004904772
156	0xba9440d5	-0.0011310825
157	0xbb154b66	-0.0022780537
158	0xb9cb637a	-0.00038793293
159	0x385d4e50	5.276344e-05
160	0xb99c00aa	-0.00029755133
161	0xbb5b7e5e	-0.0033492069
162	0x3aa17e86	0.0012321032
163	0x3be353aa	0.006937464
164	0xba4806d2	-0.0007630411
165	0x3a819c34	0.0009888471
166	0x3adfb80a	0.0017068398
167	0x3b99f369	0.004698206
168	0xbc0b56b8	-0.008504562
169	0xbb6c8332	-0.003608894
170	0x3aa2bec9	0.0012416478
171	0x3ae61b88	0.0017555812
172	0x39c4c7a8	0.0003753279
173	0x398c9bc2	0.0002681893
174	0x38087a85	3.2539032e-05
175	0x39e8db34	0.00044413807
176	0xb9f0ed9a	-0.00045953394
177	0x3a8d4c06	0.0010780103
178	0xb92c9d9e	-0.00016461915
179	0xba1b93a9	-0.0005934784
180	0x3b23cfe8	0.0024995748
181	0xbc307876	-0.010770908
182	0x3ac3ff07	0.0014953323
183	0x3c56242e	0.013070149
184	0x3a7a9374	0.00095587154
185	0xbae0ba24	-0.0017145318
186	0xb7ab092a	-2.0389056e-05
187	0x3b307990	0.0026927926
188	0x398b9e6a	0.00026630174
189	0xbb69c020	-0.0035667494
190	0xba1b1e20	-0.000591727
191	0x3ae2e23f	0.0017309858
192	0x3c09e60a	0.008416662
193	0xba99b24c	-0.001172611
194	0xb916e1e8	-0.00014389271
195	0x3afdba44	0.001935788
196	0x3ce84ace	0.028355982
197	0x3cfa83b0	0.030580372
198	0xbb2487d9	-0.0025105386
199	0xbc7f9cda	-0.015601361
200	0x3aaf2901	0.001336366
201	0x3b094979	0.0020948334
202	0x3905c8de	0.00012758697
203	0x3b19e9a0	0.0023485199
204	0x3a633254	0.0008666862
205	0x3a4b036d	0.0007744346
206	0x3a2e9ae7	0.00066606555
207	0x3b2c4afe	0.0026289816
208	0x39975ed8	0.00028871628
209	0xba106eb4	-0.000550966
210	0x3996d7e0	0.0002877107
211	0x3b214fcc	0.0024614213
212	0x3ac6ac4b	0.0015157548
213	0xba668871	-0.0008794135
214	0x37223e50	9.670461e-06
215	0x3b2423c5	0.0025045734
216	0xbb23792c	-0.002494405
217	0xbc0af4b6	-0.008481195
218	0x39f9169f	0.00047509835
219	0x3bbd4be7	0.0057768705
220	0x39b06160	0.00033641886
221	0xba3db23f	-0.00072363386
222	0x35a40ad0	1.2222099e-06
223	0x3b1b53f6	0.0023701168
224	0xba21c4d8	-0.00061709946
225	0x3a912cfb	0.0011076027
226	0xb7a2ee7e	-1.9422961e-05
227	0xba23963a	-0.0006240342
228	0x3aa22156	0.0012369554
229	0xbb4ea498	-0.003153121
230	0xb99c31f6	-0.00029791862
231	0x3b2c0645	0.0026248854
232	0x3c3f17a9	0.011663356
233	0x3c4d5688	0.012532838
234	0xba0c9543	-0.0005362818
235	0xbbafe702	-0.0053681144
236	0xba226598	-0.0006194948
237	0xbb0dd73a	-0.0021643178
238	0x39f74536	0.00047163077
239	0x3afb7756	0.0019185345
240	0x3ca9fc98	0.020750329
241	0x3ca580d4	0.020203032
242	0xbb50a582	-0.0031836932
243	0xbc6b6858	-0.014368139
244	0x3b0dfe56	0.0021666489
245	0x3a4eeadb	0.00078932726
246	0xb9045ec2	-0.00012623801
247	0x3b0bd24d	0.0021335066
248	0xba55962e	-0.00081476837
249	0x3b9740b4	0.0046158675
250	0x3a6d174c	0.0009044304
251	0x3c1f7832	0.009733247
252	0xbb026b9a	-0.0019900561
253	0xbb30f8d7	-0.002700379
254	0xb9f42968	-0.00046570157
255	0xba3b6499	-0.0007148474
