CartPoleHighRewardIn2026/checkpoints/checkpoint_ep950_reward392.00.pt (torch, 421217 bytes, 33 tensors)

feature_layer.0.weight f4 [128, 4]
0	0xbcbdf928	-0.023190096
1	0x3d842793	0.06452861
2	0xbeb04169	-0.34424904
3	0x3db46f24	0.08810261
4	0x3e8446e9	0.2583535
5	0x3e90ebcb	0.28304896
6	0x3f596dc5	0.8493312
7	0x3e8903b3	0.26760635
8	0xbcf1139d	-0.029428298
9	0xbe11f684	-0.14254194
10	0xbf897899	-1.0739928
11	0xbea42bba	-0.3206461
12	0x3cfd6bca	0.030935187
13	0xbd12c477	-0.035831895
14	0x3ed6e694	0.41972792
15	0xbd1b6b23	-0.03794397
16	0x3e400bc3	0.18754487
17	0xbe1260c6	-0.14294729
18	0x3f9ff63e	1.2497022
19	0xbb9e7c41	-0.0048365896
20	0xbcb3edb4	-0.021963932
21	0x3d2fd5b3	0.04292841
22	0xbeb1d462	-0.34732348
23	0x3d938383	0.07202818
24	0x3ca66bfc	0.020315163
25	0x3c6c2557	0.014413199
26	0x3e05deaa	0.13073221
27	0x3c0fa220	0.008766681
28	0xbd8ea3fa	-0.0696487
29	0x3d90c73b	0.0706925
30	0xbe8ef736	-0.27922982
31	0x3d7830dd	0.060593475
32	0x399f5bd1	0.00030395252
33	0xb9ba25f2	-0.00035504956
34	0x3e29255c	0.16518158
35	0xbba25bf0	-0.0049548075
36	0x3d687005	0.056747455
37	0xbd6eb851	-0.058281247
38	0x3ea7e5fb	0.3279265
39	0xbcac35c7	-0.021021737
40	0x3d87f7a1	0.06639028
41	0xbd81e5e0	-0.06342673
42	0x3e192183	0.1495419
43	0xbdcb1289	-0.09915645
44	0x3cd51864	0.026012607
45	0xbd3348ba	-0.04377053
46	0x3eb538c4	0.3539487
47	0xbd1fef7e	-0.039046757
48	0x3caff54a	0.021479268
49	0xbd12e3b5	-0.03586169
50	0x3ed07ca7	0.40720102
51	0xbd78f439	-0.060779784
52	0xbc841624	-0.016123839
53	0x3d1b29bf	0.03788161
54	0xbf005c65	-0.5014098
55	0x3d81241b	0.06305715
56	0x3ba4f61b	0.005034221
57	0xbc79d45d	-0.015248385
58	0xbdd62cd1	-0.10457767
59	0x3bd0b509	0.0063692373
60	0x3ca78fe1	0.020454349
61	0xbd505dfe	-0.050870888
62	0x3f427fbd	0.75976163
63	0xbe13879a	-0.14407197
64	0x3da6de18	0.0814783
65	0xbd9caab3	-0.07649746
66	0x3f1ac095	0.60450107
67	0xbc948fd4	-0.018134989
68	0xbea57c8f	-0.32321593
69	0xbddda43a	-0.10822339
70	0xbf0df099	-0.5544525
71	0xbdc1c3fc	-0.09461209
72	0x3c071991	0.008245842
73	0x3bc5aa20	0.0060322434
74	0x3fd48af1	1.6604902
75	0x3e62d816	0.22152743
76	0x3cb177d0	0.021663576
77	0xbc8be02b	-0.017074665
78	0x3f447bf9	0.7675167
79	0xbd9e557c	-0.077311486
80	0x3c854c24	0.016271658
81	0xbc4fe5dd	-0.012689081
82	0xbfc83f5d	-1.5644337
83	0xbe1dc012	-0.154053
84	0x3c02b3e8	0.007977463
85	0x3dbd5629	0.09244949
86	0x3f96148d	1.1725022
87	0x3ebb3752	0.36565644
88	0x3c90a358	0.017656013
89	0x3ba3609b	0.0049858815
90	0xbf84e739	-1.0383064
91	0xbc338233	-0.010956335
92	0x3d095586	0.033528827
93	0xbd2e0786	-0.042487644
94	0x3f015a34	0.50528264
95	0xbd9885ea	-0.07447417
96	0x3891aa83	6.945899e-05
97	0x3c32c3d6	0.010910949
98	0x3fd68f51	1.6762487
99	0x3e5cac13	0.21550016
100	0xbbaa0c60	-0.0051894635
101	0xbc3c72ad	-0.01150195
102	0x3f995852	1.1980078
103	0x3c1f72f0	0.009731993
104	0xbbb44ad8	-0.005502086
105	0xbc5f7c01	-0.013640405
106	0x3f9eaed7	1.2397107
107	0xbcf6a4bd	-0.03010785
108	0xbd6006c2	-0.054693945
109	0x3d29580f	0.041343745
110	0xbd3a8f35	-0.04554673
111	0x3d821b12	0.063528195
112	0x3e8b14aa	0.27164203
113	0x3e95c894	0.2925459
114	0x3f4bff54	0.79686475
115	0x3e870707	0.2637255
116	0xbd9c53e8	-0.07633191
117	0x3da755d1	0.08170665
118	0x3ee86021	0.4538584
119	0x3df3ad19	0.1189825
120	0x3ed28b5c	0.41121948
121	0x3d8d50b1	0.06900156
122	0x3f078fec	0.5295398
123	0x3cbe4f21	0.023231091
124	0xbc812471	-0.015764447
125	0x3baa112b	0.005190035
126	0x3fc83223	1.56403
127	0x3e12098c	0.14261454
128	0x3db75eae	0.089536056
129	0xbe2c55a7	-0.16829549
130	0x3da4c778	0.08045858
131	0xbea54759	-0.32280996
132	0x3887bc73	6.472403e-05
133	0x3bbda00b	0.005786901
134	0xbee49852	-0.4464746
135	0x3cbee9b5	0.0233048
136	0xbe3d9440	-0.18513584
137	0xbe50ca88	-0.2038976
138	0xbf8ff25f	-1.1245841
139	0xbe82b2d7	-0.2552707
140	0x3eb84988	0.359936
141	0xbe23b606	-0.15987405
142	0x3e37d1bd	0.17951103
143	0xbe0c2715	-0.13686784
144	0xbe9b1194	-0.3028685
145	0xbe6b2ced	-0.22966357
146	0xbf2c1b4d	-0.6722916
147	0xbe3422c5	-0.17591389
148	0xbde68aa0	-0.11256909
149	0x3d1a08e2	0.037606128
150	0x3f612856	0.8795217
151	0x3d6deb73	0.05808587
152	0x3e32e8fb	0.17471687
153	0xbc9b7705	-0.018977651
154	0x3fa7f5fd	1.3121945
155	0x3e1a0734	0.1504181
156	0xbc635266	-0.013874626
157	0xbca05071	-0.019569607
158	0x3fa8d564	1.3190122
159	0xbd4fbae6	-0.05071535
160	0x3cc2be30	0.02377233
161	0xbc788cdb	-0.015170301
162	0x3e0e2264	0.13880306
163	0xbdcf7b4e	-0.101309404
164	0xbcae2ae8	-0.021260694
165	0xbd23c9fd	-0.039987553
166	0x3fcd0595	1.6017329
167	0x3e3c6b4f	0.1840031
168	0x3aedcefe	0.0018143354
169	0xbcdda103	-0.027054315
170	0xbfdf69b4	-1.7454133
171	0xbe49ebab	-0.19718806
172	0x3d195622	0.03743566
173	0xbd0e4166	-0.034730338
174	0x3d2f60ad	0.042816807
175	0xbc9acff6	-0.018897992
176	0xbe8aa2f5	-0.2707745
177	0xbe08e7a5	-0.13369615
178	0xbf329513	-0.6975872
179	0x3ca824e7	0.020525409
180	0xbe49ccaa	-0.1970698
181	0xbe3110ff	-0.1729164
182	0xbf27bf12	-0.65525925
183	0xbe275a07	-0.16342936
184	0x3ea7fc08	0.32809472
185	0xbc32af38	-0.010906033
186	0xbe1ebf85	-0.15502746
187	0xbc8621d2	-0.016373549
188	0xbd854314	-0.06506935
189	0xbeb89d41	-0.36057475
190	0xbf11e1e0	-0.5698528
191	0xbe97d7d6	-0.29656857
192	0xbced2083	-0.028946167
193	0xbd178138	-0.036988467
194	0xbfb36788	-1.401597
195	0xbdce0ffb	-0.10061642
196	0xbbb97490	-0.0056596473
197	0xbbe79795	-0.0070676305
198	0xbfda012d	-1.7031609
199	0xbe53d13b	-0.20685284
200	0xbcdd4066	-0.027008247
201	0x3bc419f7	0.0059845406
202	0x3f880799	1.0627319
203	0x3de09c78	0.10967344
204	0xbcc70762	-0.024295513
205	0x3cc81399	0.024423407
206	0xbd867728	-0.06565696
207	0x3c43e088	0.011955388
208	0x3e593cd7	0.21214615
209	0xbd6ea5f0	-0.05826372
210	0xbe2357fe	-0.15951535
211	0xbda754f0	-0.081704974
212	0xbdb6785d	-0.08909676
213	0x3cacb368	0.021081641
214	0x3f595d98	0.8490844
215	0xbe925f57	-0.28588364
216	0x3cefbf6d	0.029266084
217	0xbce12a7d	-0.02748608
218	0xbe9de074	-0.30835307
219	0xbbc70d68	-0.006074596
220	0x3d9e790d	0.07737932
221	0x3cc8426a	0.024445731
222	0x3f4d10e6	0.8010391
223	0x3efa46f4	0.48882258
224	0x3c979e47	0.01850809
225	0x3c7d2995	0.015451808
226	0xbe2b4fda	-0.1672968
227	0xbeaf8368	-0.34279943
228	0xbc6d9fe6	-0.014503455
229	0x3e28aec1	0.16472913
230	0xbeb57f79	-0.35448816
231	0x3db9ebbc	0.09078166
232	0x3c15c028	0.009140052
233	0xbb704c58	-0.0036666598
234	0xbfcf607a	-1.6201317
235	0xbe80f6ad	-0.251882
236	0x3b6b809b	0.003593481
237	0xbd5b0f2f	-0.053481277
238	0x3f4c67e1	0.79846007
239	0xbea2f8e4	-0.31830513
240	0x3e0f585c	0.1399855
241	0xbd717f8f	-0.05895954
242	0xbc02db9b	-0.007986928
243	0xbd63986e	-0.05556529
244	0xbacc5ac5	-0.0015591016
245	0xbc3cf8e4	-0.0115339495
246	0x3fcf6158	1.6201582
247	0x3d03fb64	0.032222167
248	0xbc3a3968	-0.011366226
249	0x3b8b63c4	0.0042538363
250	0x3fb65b5e	1.4246633
251	0x3cd04ba1	0.025426688
252	0x3d1f8fa1	0.038955335
253	0xbd6de368	-0.0580782
254	0x3ed6c01b	0.4194344
255	0xbc27979f	-0.01022902

feature_layer.0.bias f4 [128]
0	0xbe643210	-0.22284722
1	0xbf351926	-0.707415
2	0xbeb75cb4	-0.35812914
3	0xbe1fd12d	-0.15607138
4	0xbed46ac2	-0.414877
5	0xbe5b6d5e	-0.21428439
6	0xbde04012	-0.109497204
7	0xbea55804	-0.32293713
8	0xbd132f66	-0.035933875
9	0xbe5af2d6	-0.21381697
10	0xbe75929e	-0.23981711
11	0xbe4c4299	-0.1994728
12	0xbe1bb7fc	-0.15206903
13	0xbe8df200	-0.27723694
14	0xbdf5f4ed	-0.120096065
15	0xbe43e79d	-0.19131322
16	0x3d3e21a5	0.046418805
17	0xbee5e6b9	-0.4490259
18	0xbeb46c14	-0.35238707
19	0xbe5d6b32	-0.21622923
20	0xbea31537	-0.31852123
21	0xbedcabce	-0.43099827
22	0xbe999cf3	-0.30002555
23	0xbe397c3b	-0.18113796
24	0xbeb5acb5	-0.35483328
25	0xbe9a0c7f	-0.3008766
26	0xbe99b78b	-0.30022845
27	0xbe67957e	-0.2261562
28	0xbf2e9ba8	-0.6820626
29	0xbed5c134	-0.41748965
30	0xbf297a51	-0.66202265
31	0xbeb2922c	-0.34877145
32	0xbefa5680	-0.4889412
33	0xbde7b0ac	-0.11312994
34	0xbf081458	-0.5315604
35	0xbeefbe5c	-0.4682492
36	0xbf34b22b	-0.7058436
37	0x3eab1478	0.33414054
38	0xbe7922e3	-0.24329714
39	0xbe470adf	-0.1943774
40	0xbe5a5fba	-0.2132558
41	0xbe8668c8	-0.26251817
42	0xbec1df05	-0.37865463
43	0xbe01d868	-0.12680209
44	0xbf19e6da	-0.60117877
45	0xbe90a723	-0.28252515
46	0xbf265b95	-0.64983493
47	0xbed1d7fd	-0.40985098
48	0xbe758a6b	-0.23978584
49	0xbed416df	-0.414237
50	0xbedc0b67	-0.4297745
51	0xbe1d83ee	-0.15382358
52	0xbf111444	-0.5667155
53	0xbe9987ba	-0.29986364
54	0xbe20233b	-0.1563844
55	0xbf15b2c4	-0.584759
56	0xbf05387d	-0.5203932
57	0xbd988227	-0.074466996
58	0xbedb4a21	-0.42829993
59	0x3ddb51eb	0.10708984
60	0xbeb994b5	-0.36246267
61	0xbe85178f	-0.25994536
62	0xbeb5effd	-0.3553466
63	0xbe66f738	-0.22555244
64	0xbeb5d267	-0.35512087
65	0xbe411390	-0.18855119
66	0xbea5cbaf	-0.3238196
67	0xbe2b7b6c	-0.167463
68	0xbea9645d	-0.33084384
69	0xbe669c57	-0.22520576
70	0xbecce70f	-0.40020034
71	0xbd178dff	-0.037000652
72	0xbef86780	-0.48516464
73	0xbe8310ed	-0.2559885
74	0xbe8e90e6	-0.27844924
75	0xbeb4b2bc	-0.35292614
76	0xbed2b881	-0.4115639
77	0x3b4df169	0.003142441
78	0xbeab997f	-0.33515546
79	0xbe6680e0	-0.225101
80	0xbe648db8	-0.22319686
81	0xbef9be17	-0.4877784
82	0xbe275c51	-0.1634381
83	0xbb32e6cf	-0.0027298217
84	0xbe71e0af	-0.23620866
85	0xbe2c62d9	-0.16834582
86	0xbf19fdfb	-0.6015317
87	0xbe661497	-0.22468792
88	0xbe8a56da	-0.27019387
89	0xbeb0df9b	-0.34545597
90	0xbf056fee	-0.52123916
91	0xbe69afec	-0.22821015
92	0xbf234b2e	-0.6378659
93	0xbe40aa1b	-0.1881489
94	0xbf2dc473	-0.6787788
95	0xbeccc246	-0.3999197
96	0xbf3b66f0	-0.73203945
97	0xbf002eb6	-0.50071275
98	0xbe216b77	-0.15763651
99	0xbdf41b6f	-0.11919295
100	0xbe607712	-0.21920422
101	0xbdfec62d	-0.12440143
102	0xbeb7e77c	-0.35918796
103	0x3db0b372	0.086279765
104	0xbde17ff2	-0.11010732
105	0xbd9b2b2a	-0.07576592
106	0xbec35dae	-0.3815741
107	0xbeab57a0	-0.3346529
108	0xbeb67809	-0.35638455
109	0xbe112fe0	-0.14178419
110	0xbe6fde14	-0.2342456
111	0xbdd2bcb8	-0.102899015
112	0xbe9f5ecd	-0.31127015
113	0xbeabdf67	-0.3356888
114	0x3ec18796	0.37798756
115	0xbe0c2292	-0.13685063
116	0xbe9471d9	-0.2899311
117	0xbeb8f42f	-0.36123797
118	0xbd521a1c	-0.05129443
119	0xbe1afda0	-0.15135813
120	0xbe4258be	-0.18979165
121	0xbe57897c	-0.2104854
122	0xbe6d204c	-0.23156852
123	0xbebe096d	-0.37116566
124	0xbe8079cd	-0.25092927
125	0xbe739e8b	-0.23790948
126	0xbeb4d2e5	-0.3531715
127	0xbf315150	-0.692647

feature_layer.2.weight f4 [128, 128]
0	0xbea397f6	-0.31951874
1	0xbebb6a0d	-0.36604348
2	0xbc80a06a	-0.015701491
3	0x3e9b44bc	0.30325878
4	0x3e3169ac	0.17325467
5	0x3d104466	0.03522148
6	0x3d9de0bf	0.077088825
7	0x3e0feac4	0.140544
8	0x3e5768fb	0.2103614
9	0x3e0ee455	0.1395429
10	0x3e29a928	0.16568434
11	0x3df688f1	0.12037838
12	0x3db148b4	0.08656445
13	0xbe3c210c	-0.18371981
14	0x3d9c345d	0.07627175
15	0x3c81b58c	0.015833639
16	0x3eb2ca8f	0.34920165
17	0x3d99665e	0.07490228
18	0x3fe3c0bd	1.7793194
19	0x3eefa1f0	0.46803236
20	0xbfac5706	-1.3464057
21	0xbea1e1ab	-0.31617483
22	0x3e37c50d	0.17946263
23	0x3e5dbdc0	0.21654415
24	0x3d75ac5f	0.05997884
25	0xbeb20959	-0.34772757
26	0x3eaa1323	0.33217725
27	0xbd93691e	-0.07197784
28	0x3cbdecb7	0.023184163
29	0xbe03af15	-0.12859757
30	0x3e02e5ec	0.1278302
31	0x3e06f3b8	0.13178909
32	0xbebf665a	-0.37382776
33	0xbdae21c7	-0.08502536
34	0xbed862b1	-0.42262796
35	0x3e3c8b9b	0.1841263
36	0x3d10e218	0.03537187
37	0x3eb4ea3d	0.3533496
38	0x3de14e0a	0.11001213
39	0xbe46285b	-0.19351332
40	0x3e340a60	0.17582083
41	0x3f2f047c	0.6836622
42	0xbf8230fb	-1.0171198
43	0x3e1a3cea	0.150623
44	0xbe319ad1	-0.17344214
45	0xbda316fd	-0.07963369
46	0xbd8b9a6a	-0.068165615
47	0x3d264bbb	0.040599566
48	0xbf800e94	-1.0004449
49	0xbfe98eac	-1.8246665
50	0xbec3a804	-0.38214123
51	0x3ddfcf4d	0.10928211
52	0x3d70a084	0.05874683
53	0xbf1e1316	-0.6174787
54	0xbd9ba966	-0.076006696
55	0x3dc048a9	0.09388859
56	0x3e0ff7a5	0.14059313
57	0x3ce2a49d	0.027666384
58	0xbfa1b81f	-1.2634314
59	0x3ea5a134	0.3234955
60	0xbe2b86a1	-0.16750576
61	0x3ee3d97c	0.44501865
62	0x3f82917c	1.0200648
63	0x3e38225d	0.17981859
64	0xbe15a180	-0.14612389
65	0xbde4c674	-0.111706644
66	0xbd92fe92	-0.07177462
67	0x3e21f965	0.15817793
68	0xbed06ab9	-0.40706423
69	0xbcbb51db	-0.02286618
70	0x3e89c20a	0.26905853
71	0x3dda2a8b	0.10652646
72	0x3e86825a	0.26271325
73	0xbd19d7cf	-0.037559327
74	0x3e9f5df6	0.31126374
75	0x3fa4e7d8	1.2883253
76	0x3feb7b56	1.8397014
77	0xbec136ec	-0.37737215
78	0x3dbafd4c	0.09130344
79	0x3e3a43fb	0.18189995
80	0x3e518fc5	0.20465
81	0x3cd7e626	0.02635486
82	0xbcb0537c	-0.021524183
83	0xbda63c20	-0.08116937
84	0x3dc602e2	0.096685186
85	0x3ea700fc	0.3261794
86	0x3bc48f3d	0.0059985206
87	0x3dfdc272	0.12390603
88	0x3d9960e6	0.07489185
89	0xbe9a419c	-0.3012818
90	0xbef7407d	-0.48291388
91	0xbeb6a352	-0.3567148
92	0x3ebde0c7	0.37085554
93	0x3cd9403d	0.026519889
94	0x3ead9035	0.33899084
95	0xbe35d0cd	-0.17755432
96	0x3f3413a8	0.70342493
97	0xbe9a0089	-0.30078533
98	0xbd9ee28e	-0.077580556
99	0x3d83f056	0.06442325
100	0x3c00a1b0	0.007851049
101	0xbd7ce33c	-0.061740145
102	0x3edd379e	0.43206495
103	0xbf158365	-0.5840362
104	0x3df86505	0.12128643
105	0xbda83805	-0.0821381
106	0x3ff2000a	1.8906262
107	0xbfe7802f	-1.8085994
108	0x3edcb88a	0.43109542
109	0xbea50ee7	-0.32237932
110	0xbc05ab7c	-0.008158561
111	0x3e316c23	0.17326407
112	0xbd9565d5	-0.072948135
113	0xbf9ebaed	-1.2400795
114	0x3e09e143	0.13464837
115	0x3daa9dde	0.08330892
116	0x3d9df9c2	0.07713653
117	0xbdd83964	-0.105578214
118	0x3e97fd7b	0.29685578
119	0xbd5efba7	-0.054439213
120	0x3e5777bf	0.21041773
121	0xbde6d74c	-0.11271533
122	0x3d965bca	0.07341726
123	0xbeb634a6	-0.35587043
124	0x3e06cce5	0.13164099
125	0xbe0c357b	-0.13692276
126	0xbd25176c	-0.04030554
127	0xbefd9477	-0.49527332
128	0xb930e536	-0.00016870056
129	0x3e31dccb	0.17369382
130	0x3b0cf1db	0.0021506462
131	0xbe4c4773	-0.1994913
132	0xbe324783	-0.17410092
133	0xbde8641b	-0.113472186
134	0x3d81bce8	0.06334859
135	0xbae4f280	-0.001746729
136	0x3e3dcbb4	0.18534738
137	0xbd946d67	-0.07247429
138	0x3ce963a0	0.028489888
139	0xbdab79eb	-0.083728634
140	0x3c67e546	0.014153784
141	0x3d82bf04	0.063840896
142	0x3dc6aab5	0.097005285
143	0xbe746658	-0.23867166
144	0xbe38a835	-0.18032916
145	0x3db3c60f	0.08778011
146	0xbf3aafbe	-0.7292441
147	0x3d7c698d	0.0616241
148	0xbebe0d28	-0.37119412
149	0xbd963739	-0.07334752
150	0xbe58dce8	-0.21178019
151	0xbd03bd10	-0.032162726
152	0xbd513633	-0.05107708
153	0xbead7a07	-0.33882162
154	0xbbb0b855	-0.005393068
155	0xbdb9e03f	-0.09075975
156	0x3e8a1568	0.26969457
157	0xbe6d736f	-0.23188566
158	0x3b3bed71	0.0028675462
159	0xbe8cf390	-0.27529573
160	0x3f052800	0.5201416
161	0xbe6bec17	-0.2303928
162	0xbe8d0b48	-0.2754767
163	0xbe77d343	-0.24201684
164	0xbfa116eb	-1.2585119
165	0x3e3b663e	0.18300721
166	0xbed82ede	-0.42223257
167	0x3d525bea	0.051357187
168	0x3c8112a2	0.015755955
169	0xbeba03b4	-0.3633095
170	0xbec59cdc	-0.38596237
171	0xbd868237	-0.06567805
172	0x3e1cb861	0.1530471
173	0x3eb76b1e	0.3582391
174	0xbeded87a	-0.43524534
175	0x3ee382a4	0.44435608
176	0xbeb0658c	-0.34452474
177	0xbf1f3bbd	-0.6220053
178	0xbe892dbf	-0.26792714
179	0x3d522503	0.05130483
180	0x3e0a199e	0.13486335
181	0x3e8c24ba	0.2737177
182	0xbe4ef26c	-0.20209664
183	0xbdb4aaae	-0.08821617
184	0x3e04815f	0.12939976
185	0x3e98515c	0.29749572
186	0xbde83ed8	-0.113401115
187	0xbe13802b	-0.14404361
188	0x3ebdbc7e	0.3705787
189	0xbf09134a	-0.5354506
190	0xbf3334d2	-0.7000247
191	0xbe2dbe1d	-0.16967054
192	0xbe6ea12e	-0.23303673
193	0xbde3962b	-0.11112627
194	0xbf0c9f6a	-0.54930747
195	0xbe30d223	-0.17267661
196	0x3e3ae30c	0.18250674
197	0xbcba3f62	-0.022735301
198	0xbea07347	-0.3133795
199	0x3b43f6f5	0.0029901837
200	0xbe201619	-0.1563343
201	0xbd6656a9	-0.05623499
202	0x3e496bc4	0.19670016
203	0xbf4022f9	-0.75053364
204	0xbf267323	-0.65019435
205	0x3e3b0b77	0.18266092
206	0x3d7785b9	0.060430262
207	0xbda0ddf1	-0.07854832
208	0xbd922d79	-0.071375795
209	0xbe8dbe42	-0.27684218
210	0x3c80c8db	0.015720775
211	0xbf16e50d	-0.58943254
212	0xbb17d0bd	-0.002316519
213	0xbd845457	-0.06461399
214	0xbeab2c5c	-0.3343228
215	0xbd68dffb	-0.05685423
216	0x3d6c8663	0.05774535
217	0xbdb87d98	-0.0900833
218	0x3ec1f0c5	0.37879005
219	0x3da88294	0.08228031
220	0xbe059c01	-0.13047792
221	0xbe7e892b	-0.24857013
222	0x3b93f805	0.00451565
223	0x3ee07d2a	0.43845493
224	0xbf73972b	-0.9515254
225	0x3eaeb6cf	0.34123847
226	0x3e09119c	0.13385624
227	0x3d79fe1e	0.06103336
228	0xbe8fae82	-0.28062826
229	0x3e37ea33	0.17960434
230	0xbe9fd173	-0.31214485
231	0xbcaf581e	-0.021404322
232	0x3d82a7a8	0.06379634
233	0x3df7071f	0.12061905
234	0xbf5c24ef	-0.85993856
235	0xbf88bf5c	-1.0683398
236	0xbeac891f	-0.33698365
237	0xbdff8217	-0.124759845
238	0xbd800eaf	-0.06252801
239	0xbede6b6a	-0.43441325
240	0xbdca8411	-0.09888471
241	0xbf476d47	-0.7790112
242	0xbe251d91	-0.1612456
243	0xbe466237	-0.19373403
244	0xbe0b6dc7	-0.13616095
245	0x3effd4b1	0.49966958
246	0x3da86c40	0.08223772
247	0xbd31faa6	-0.043451928
248	0xbe41f0fa	-0.18939582
249	0x3c8faa12	0.01753715
250	0xbecd2a16	-0.40071172
251	0x3ecea7b6	0.40362328
252	0xbf4ddaf3	-0.80412215
253	0xbf0b18d9	-0.5433479
254	0xbe2d29d1	-0.16910483
255	0x3e4469e0	0.19181013

feature_layer.2.bias f4 [128]
0	0x3f14773a	0.57994425
1	0x3ed59b2b	0.41719946
2	0x3f176d45	0.5915111
3	0x3e93f935	0.28901067
4	0xbdc67018	-0.09689349
5	0x3ee88ea6	0.45421332
6	0x3ee19b4e	0.440638
7	0xbe7a01b9	-0.2441472
8	0x3f26ba50	0.6512804
9	0x3f1dfad5	0.61710864
10	0x3e6fe896	0.23428568
11	0xbd0d442c	-0.034488842
12	0x3efd953b	0.49527916
13	0xbe965aa1	-0.2936602
14	0xbd8360d4	-0.06414953
15	0x3f26cc9f	0.65155977
16	0xbda25ab6	-0.07927458
17	0xbececff7	-0.4039304
18	0x3e878a16	0.2647254
19	0x3f15447c	0.58307624
20	0xbd2bbbbd	-0.041927088
21	0x3ed76292	0.4206739
22	0x3e65c5c7	0.22438727
23	0x3f22f121	0.63649184
24	0xbdab1e0e	-0.08355342
25	0x3f1b4e6a	0.60666525
26	0x3f10b3fd	0.5652464
27	0xbdb24d9f	-0.08706211
28	0xbe3a3121	-0.18182804
29	0x3f44577f	0.7669601
30	0x3eedf7f2	0.4647823
31	0x3da65b07	0.08122831
32	0xbdf66574	-0.120310694
33	0x3eb543ae	0.35403198
34	0x3f1bb255	0.6081899
35	0x3f310055	0.6914113
36	0xbd649f46	-0.055815957
37	0xbd8b59a5	-0.06804208
38	0x3f15741d	0.583803
39	0xbdd39079	-0.1033029
40	0xbd823525	-0.06357793
41	0x3d33a86c	0.04386179
42	0x3e165661	0.14681388
43	0x3f020439	0.50787693
44	0x3ebbe6e8	0.36699605
45	0x3ee2116a	0.4415391
46	0xbd536137	-0.051606383
47	0x3e61fdee	0.22069523
48	0xbe442a7b	-0.1915683
49	0xbd5ba5c9	-0.053624902
50	0x3f001f37	0.5004763
51	0xbd3b6cfa	-0.045758225
52	0x3ee51bd2	0.44747788
53	0x3ebf0b6f	0.3731341
54	0xbea3b249	-0.31971958
55	0x3f0f7498	0.5603728
56	0xbf108b76	-0.564628
57	0x3f18951e	0.59602535
58	0xbd9bb3e5	-0.076026715
59	0x3e428497	0.18995892
60	0xbe70b252	-0.23505524
61	0xbd62daef	-0.055384573
62	0x3e8729ba	0.26399022
63	0xbf021ba6	-0.5082344
64	0xbdf4bada	-0.119497016
65	0xbd8d16ea	-0.06889136
66	0xbd82b8a1	-0.063828714
67	0x3f0be23c	0.5464208
68	0x3e8d23f6	0.275665
69	0x3f2568cb	0.64613026
70	0xbe3bd250	-0.18341947
71	0x3f06d4d7	0.5266852
72	0xbd976df8	-0.07394022
73	0xbd8bcc6a	-0.06826098
74	0x3e920298	0.28517604
75	0x3f180982	0.5938951
76	0x3f153a16	0.5829176
77	0x3ef7452e	0.48294967
78	0xbd8efede	-0.06982206
79	0xbd4d1cd8	-0.050076336
80	0x3f2de3a0	0.67925453
81	0x3f1fa374	0.62358785
82	0xbde0121a	-0.109409526
83	0x3f20e144	0.6284373
84	0xbcdc7450	-0.02691093
85	0x3f2f9cba	0.6859852
86	0xbdfca72c	-0.12336573
87	0xbdc9bde9	-0.098506756
88	0x3f10760a	0.56430113
89	0xbda38fcf	-0.07986414
90	0x3f216352	0.63042176
91	0x3efdf74f	0.49602744
92	0x3f196659	0.59921795
93	0x3f31c4a6	0.69440687
94	0xbda336d8	-0.07969445
95	0x3ed57774	0.41692698
96	0xbd2abe31	-0.041685287
97	0x3f20ee5b	0.628637
98	0xbc8a8d3f	-0.016913055
99	0x3ef487cd	0.47759858
100	0x3f007093	0.50171775
101	0x3ebd92ac	0.37025964
102	0xbdabc9ef	-0.08388125
103	0x3f0039c7	0.5008816
104	0xbd802de4	-0.06258753
105	0x3ee5a603	0.4485322
106	0x3e27c5c1	0.16384031
107	0x3ee0f65c	0.43937957
108	0xbde7d997	-0.11320799
109	0x3f1ac698	0.6045928
110	0xbc09bafa	-0.008406395
111	0xbe9d1698	-0.306813
112	0xbe03b8df	-0.12863491
113	0x3f1fb8cd	0.6239136
114	0x3f18b244	0.5964701
115	0xbd48416f	-0.048890527
116	0xbd88fb85	-0.066885985
117	0x3f1261fe	0.57180774
118	0x3f23dc6b	0.64008206
119	0x3ee189c2	0.44050413
120	0x3ea7dcbc	0.32785594
121	0x3ef5cedf	0.48009393
122	0xbe8a6eac	-0.2703756
123	0xbd8cf2d9	-0.06882257
124	0xbe2d2cc7	-0.16911612
125	0xbd36fb62	-0.04467333
126	0x3f217d2d	0.6308163
127	0x3e0c168b	0.13680474

value_stream.0.weight f4 [64, 128]
0	0x3dc77531	0.09739149
1	0x3e3b7353	0.18305711
2	0x3dc5c566	0.096567914
3	0x3cadd75f	0.021220861
4	0x3c964010	0.018341094
5	0x3e89a1a1	0.26881126
6	0x3e2db674	0.16964132
7	0xbde76541	-0.112986095
8	0x3ef02685	0.46904388
9	0x3ea99bde	0.3312673
10	0x3dfc9b93	0.12334361
11	0x3c10080a	0.008790979
12	0x3b70a0fc	0.0036717048
13	0x3e14c1e5	0.1452709
14	0xbe0514c7	-0.12996207
15	0x3ead2130	0.33814383
16	0x3df46ec0	0.119351864
17	0x3e7a9576	0.24471077
18	0xbe3a69e3	-0.18204455
19	0x3ea9b2ea	0.33144313
20	0x3e112700	0.14175034
21	0x3cfc1a89	0.030774372
22	0xbe190a93	-0.1494544
23	0x3e42a06a	0.19006506
24	0x3cdb926c	0.026803218
25	0x3d22a3f1	0.039707128
26	0x3e0963c9	0.13416971
27	0xbc6547cc	-0.0139941685
28	0xbf59b996	-0.85048807
29	0x3f032c5b	0.51239556
30	0x3d173d9d	0.036923993
31	0xbe3a7a62	-0.18210748
32	0x3dd539ee	0.1041144
33	0x3eb128cf	0.34601447
34	0x3e50f7e0	0.20407057
35	0x3ea2f99b	0.3183106
36	0xbe0d78ff	-0.13815688
37	0xbd8b3b64	-0.06798437
38	0x3e7107d9	0.2353815
39	0xbc28272b	-0.010263245
40	0x3e00eee2	0.12591127
41	0xbe0c331e	-0.13691375
42	0x3ab8d8fb	0.0014102751
43	0x3f03f795	0.51549655
44	0xbbfa31b9	-0.007635322
45	0xbcdc7093	-0.026909148
46	0xbdf8f14b	-0.12155398
47	0x3dc808a2	0.097672716
48	0x3dde9143	0.1086755
49	0x3e371723	0.1787992
50	0x3e09b0df	0.13446377
51	0xbde2e043	-0.11077931
52	0x3dbe0cc3	0.09279778
53	0xbd97f7b8	-0.074202955
54	0x3e880a33	0.2657028
55	0x3e914964	0.28376305
56	0xbef5dbee	-0.48019356
57	0x3d95fe5c	0.07323906
58	0xbdb23109	-0.08700759
59	0xbdc300c9	-0.09521634
60	0x3e65068a	0.22365776
61	0xbdacd09e	-0.08438228
62	0xbd329f44	-0.04360892
63	0x3e1d4610	0.15358758
64	0x3d9921a2	0.07477118
65	0x3d29c831	0.041450683
66	0xb9f2a055	-0.00046277294
67	0xbd602c94	-0.054730013
68	0xbd6643f0	-0.056217134
69	0x3dc5e810	0.09663403
70	0xbe0d849e	-0.1382012
71	0xbcb64ec9	-0.022254365
72	0xbcc55518	-0.024088427
73	0xbd31c953	-0.04340489
74	0xbcf7d73c	-0.030253999
75	0x3e67407f	0.22583197
76	0x3eac2f0f	0.33629653
77	0x3e0e05c5	0.13869388
78	0x3d48ef21	0.049056176
79	0xbc6bc564	-0.014390323
80	0x3ebb13e2	0.36538607
81	0x3e414d16	0.18877062
82	0x3dc72a90	0.09724915
83	0x3ed86dff	0.4227142
84	0xbdb726a1	-0.08942915
85	0x3ed130ce	0.40857548
86	0x3e001616	0.12508425
87	0x3da8f399	0.082495876
88	0x3d187f11	0.037230555
89	0xbdabd93e	-0.08391045
90	0x3d962c21	0.07332636
91	0x3e0dc17f	0.13843344
92	0x3d1c84ff	0.038212772
93	0x3d67e835	0.056617934
94	0x3d8ef812	0.069809094
95	0xbcebc280	-0.028779268
96	0xbdd2c937	-0.10292285
97	0x3e40e496	0.18837199
98	0x3d72a398	0.059238046
99	0xbcaa60c6	-0.020798098
100	0x3dfbe4f5	0.122995295
101	0xbd668705	-0.05628111
102	0x3d351101	0.04420567
103	0x3ea6e1cc	0.32594144
104	0x3d7e80da	0.0621346
105	0x3eb9bbb6	0.36276025
106	0x3e7f4e28	0.24932158
107	0x3d8e4642	0.06946994
108	0x3dba8b7e	0.09108637
109	0x3ef88ea9	0.4854634
110	0xbc3cfed6	-0.011535367
111	0xbe4157a2	-0.18881086
112	0x3e131e98	0.1436714
113	0x3eb367b2	0.3504005
114	0x3e62209c	0.22082752
115	0x3d427ed9	0.047484253
116	0xbdadc428	-0.084846795
117	0x3e5bbbb4	0.21458322
118	0x3e6e5fc0	0.23278713
119	0xbc302b77	-0.01075255
120	0xbc8867a5	-0.016650984
121	0x3df7062f	0.12061726
122	0x3cfdf606	0.031001102
123	0xbce5e50c	-0.02806332
124	0x3deac56f	0.11463439
125	0x3d8e00dc	0.06933758
126	0x3eda6a6e	0.42659324
127	0xbe0e2d8c	-0.13884562
128	0x3d827a36	0.06370966
129	0x3e0290b3	0.12750511
130	0xbdde63bb	-0.10858866
131	0x3d336a72	0.043802686
132	0xbc78f9eb	-0.015196304
133	0x3e32ca97	0.17460094
134	0x3de44715	0.1114637
135	0xbcf954f7	-0.030436022
136	0x3d2e572e	0.04256361
137	0x3e82597d	0.254589
138	0x3e163900	0.14670181
139	0xbd8691a8	-0.065707505
140	0x3e23238f	0.15931533
141	0x3bf9838d	0.007614559
142	0xbd85a299	-0.06525154
143	0x3d8e3bc6	0.06944995
144	0xbdec1038	-0.11526531
145	0x3e40372c	0.18771046
146	0xbe769529	-0.24080338
147	0x3e42a7c5	0.19009311
148	0xbd56e489	-0.05246404
149	0x3d06414c	0.032777116
150	0x3d4dd99d	0.05025636
151	0xbce0a195	-0.027420798
152	0xbd9e540d	-0.07730875
153	0x3e6725ca	0.22573009
154	0x3baad4e1	0.0052133654
155	0xbdd9f5b6	-0.10642569
156	0xbf42ff5f	-0.76170915
157	0x3e0ed7ce	0.1394951
158	0xbe5b0ecb	-0.21392362
159	0xbe3e3f8d	-0.1857893
160	0x3d8f0bd6	0.069846794
161	0x3e94ee7a	0.29088193
162	0x3df53191	0.11972345
163	0x3e4f3bdf	0.20237683
164	0xbdd56f04	-0.10421565
165	0x3c712d45	0.014720266
166	0x3e77b47f	0.24189948
167	0x3de444be	0.11145924
168	0x3e359c0b	0.17735307
169	0xbc261858	-0.01013764
170	0xbdcc25db	-0.09968158
171	0x3e228acb	0.15873258
172	0x3dd3c52a	0.103403404
173	0xbd97a3cf	-0.07404291
174	0xbd2531a1	-0.040330533
175	0x3e2d11c6	0.16901311
176	0x3de2d571	0.11075867
177	0xbd01dd94	-0.031705454
178	0x3dca8d13	0.09890189
179	0xbddb1c86	-0.106988
180	0xbdc703d3	-0.09717526
181	0xbe380770	-0.17971587
182	0x3ee4dbbe	0.446989
183	0xbd4655fd	-0.04842185
184	0xbedb9642	-0.42888075
185	0x3e56d56f	0.20979856
186	0x3c884c5b	0.016637972
187	0xbd8d7a4e	-0.069080934
188	0x3e82999b	0.25507817
189	0x3cbabe85	0.022795925
190	0x3e1da8ba	0.15396395
191	0x3e6398ad	0.2222621
192	0x3dd82294	0.1055347
193	0x3e16eb2a	0.14738145
194	0xbc61c798	-0.013780497
195	0x3e37fd07	0.17967616
196	0xbd89276e	-0.06696974
197	0x3e6fbfb8	0.23412979
198	0xbe62ebe7	-0.22160302
199	0xbe3a57ac	-0.18197507
200	0x3cf70399	0.030153083
201	0x3d369fdc	0.044586048
202	0xbca806fd	-0.020511145
203	0x3c400f4c	0.011722397
204	0x3e6b2db1	0.22966649
205	0x3e2345ae	0.1594455
206	0x3cef994f	0.029247908
207	0x3e0c12de	0.13679072
208	0x3eca8c8d	0.39560357
209	0x3ea72ab4	0.32649767
210	0x3ae479b4	0.001743129
211	0x3e1389fa	0.14408103
212	0xbdddfb9e	-0.10839008
213	0x3e88f78e	0.2675137
214	0x3e3302aa	0.17481485
215	0xbd4e2092	-0.05032403
216	0xbca7460f	-0.020419149
217	0xbdbe17ba	-0.09281869
218	0x3d74e68f	0.05979019
219	0x3cdadb81	0.026715996
220	0x3e12837b	0.14307968
221	0xbc2bf1e1	-0.01049468
222	0x3d802a74	0.06258097
223	0xbda9f97c	-0.082995385
224	0xbe2019bb	-0.15634815
225	0x3e9682a9	0.2939656
226	0x3e7381db	0.23780005
227	0x3e1857bb	0.14877217
228	0x3dfa4332	0.12219848
229	0xbde9f9e8	-0.11424619
230	0x3d2dd9b8	0.04244396
231	0x3e1bd770	0.15218902
232	0xbdd194fc	-0.10233495
233	0x3e83411a	0.25635606
234	0xbe01c581	-0.12672998
235	0xbcebec43	-0.028799182
236	0xbd2e29fb	-0.042520504
237	0x3e9ae420	0.3025217
238	0x3e77daa2	0.24204496
239	0xbd11d240	-0.0356009
240	0xbd98a782	-0.074538246
241	0x3e9a147a	0.30093747
242	0xbdb5f364	-0.08884314
243	0x3c45b8d9	0.012067997
244	0xbe12ddb8	-0.14342391
245	0x3d4fac71	0.050701562
246	0x3e919e5b	0.28441128
247	0xbccfe453	-0.025377428
248	0xbeb0391c	-0.3441857
249	0xbe18b5a4	-0.1491304
250	0x3dd08c93	0.101830624
251	0xbdc67cae	-0.096917495
252	0x3d927618	0.07151431
253	0x3e19c40f	0.15016197
254	0x3e5ee21b	0.2176594
255	0xbe7c0a82	-0.24613383

value_stream.0.bias f4 [64]
0	0x3f84b981	1.0369111
1	0x3f6ff1e1	0.9372845
2	0xbceb1a62	-0.028699104
3	0xbd6dd5ec	-0.05806534
4	0xbda5c952	-0.080950394
5	0x3f687894	0.9080899
6	0x3f87da6f	1.0613536
7	0x3f68319f	0.90700716
8	0x3cda3933	0.026638603
9	0x3b85f548	0.0040880777
10	0x3f7d29eb	0.98892087
11	0xbd772e25	-0.06034674
12	0xbd1a2be5	-0.037639517
13	0xbca9d2ec	-0.020730458
14	0x3f7f9873	0.99841994
15	0x3f8787ea	1.0588353
16	0x3eced8b6	0.40399712
17	0x3d41915b	0.047257762
18	0x3d907624	0.070537835
19	0x3f67ec40	0.90594864
20	0x3ce15e80	0.027510881
21	0x3f838e7f	1.0277861
22	0x3f7b550f	0.98176664
23	0xbd1c3bca	-0.038142957
24	0x3f83ee07	1.0307015
25	0x3f82b90e	1.0212724
26	0x3f85c556	1.0450847
27	0xbc376bf1	-0.011195169
28	0xbc0abf79	-0.008468502
29	0x3f6e6645	0.931248
30	0xbccdac5c	-0.025106601
31	0x3f842c45	1.032601
32	0xbd030d05	-0.03199484
33	0xbd7d8527	-0.061894562
34	0xbdb84227	-0.089969926
35	0x3f2a4b2e	0.66520965
36	0xbda933f3	-0.08261862
37	0xbda53673	-0.08067026
38	0x3f66f4ac	0.9021709
39	0x3f881041	1.062996
40	0xbdd484fd	-0.10376928
41	0x3f7e1966	0.99257505
42	0x3f854b71	1.0413648
43	0xbd636a00	-0.05552101
44	0xbd85eef1	-0.06539715
45	0xbe2d6d95	-0.16936333
46	0xbc311e6e	-0.010810478
47	0x3f867c1f	1.0506629
48	0x3f86437f	1.0489348
49	0xbbddf8f3	-0.006774062
50	0x3f8726f5	1.0558764
51	0xbd2a4a13	-0.04157455
52	0xbdbae097	-0.09124868
53	0xbce62c2e	-0.028097238
54	0x3f7d906a	0.99048483
55	0xbd5e0e7e	-0.05421304
56	0xbd3136aa	-0.043265022
57	0xbc1510e3	-0.009098264
58	0xbbf0dd14	-0.0073505733
59	0x3f657194	0.8962643
60	0x3dd85555	0.10563151
61	0xbd5c091a	-0.053719617
62	0xbce23b19	-0.02761607
63	0x3b3ad5c6	0.0028508767

value_stream.2.weight f4 [1, 64]
0	0x3ea2e7b0	0.3181739
1	0x3e2f67bc	0.17129415
2	0xbe7f37dc	-0.24923652
3	0x3d0324db	0.03201757
4	0xbd9eb345	-0.07749037
5	0x3e5628de	0.20914027
6	0x3ef4c9ed	0.47810307
7	0x3e112c4a	0.14177051
8	0xbf953476	-1.1656635
9	0xbf864a83	-1.0491489
10	0x3e819d21	0.25315192
11	0xbf1d45b0	-0.6143446
12	0xbdf06127	-0.1173728
13	0xbffe9bbd	-1.9891278
14	0x3e56f2c8	0.20991051
15	0x3eeb7ede	0.4599523
16	0xb9b085c7	-0.00033669008
17	0xbf59f440	-0.8513832
18	0xc0001538	-2.001295
19	0x3ecfd96e	0.40595573
20	0xbf54b2b5	-0.83085185
21	0x3ea3328a	0.31874496
22	0x3e65f90f	0.2245829
23	0xbd5425ff	-0.05179405
24	0x3eb22652	0.3479486
25	0x3ea59268	0.32338262
26	0x3ec8da5b	0.39229092
27	0xbe8c4b21	-0.2740107
28	0xbe38ef41	-0.18060018
29	0x3eb82018	0.35961986
30	0xbc53ee90	-0.012935296
31	0x3eb4d4fc	0.35318744
32	0xbcc5ceed	-0.024146521
33	0xbb6a1e61	-0.0035723674
34	0xbdd3a738	-0.10334629
35	0xbc9c3181	-0.019066574
36	0xbd39527d	-0.045244683
37	0xbd781298	-0.060564607
38	0x3eb9daa8	0.36299634
39	0x3ece7388	0.40322518
40	0xbf8b060e	-1.0861223
41	0x3e7d990d	0.24765415
42	0x3ec1be37	0.37840435
43	0xbdfe697a	-0.12422462
44	0xbe58554b	-0.21126287
45	0xbf26d12f	-0.6516294
46	0xbe8da19d	-0.27662364
47	0x3ec900ae	0.3925833
48	0x3ebdf636	0.37101907
49	0xbfd6f61d	-1.6793858
50	0x3ee533a7	0.4476597
51	0xbdcdc7ab	-0.10047849
52	0xbfade447	-1.358529
53	0xbf90aaf9	-1.1302177
54	0x3e8d8532	0.27640682
55	0xbd9e27d8	-0.07722443
56	0xbd4e5823	-0.050377022
57	0xbe67f5ed	-0.22652407
58	0xbff30c61	-1.8988153
59	0x3eec40f9	0.4614332
60	0xbf95c56e	-1.1700876
61	0xbe3f5165	-0.18683393
62	0xbdd3c133	-0.10339584
63	0xbf429585	-0.760094

advantage_stream.0.weight f4 [64, 128]
0	0x3e684090	0.22680879
1	0xc01ba5fe	-2.4320064
2	0xbea31c2a	-0.31857425
3	0xbe76c6a9	-0.2409922
4	0x3e1c5b77	0.15269266
5	0xbff64294	-1.9239068
6	0xbdd26f8d	-0.10275183
7	0x3c7269e4	0.014795754
8	0xbfee2c79	-1.8607322
9	0x3e64bcd5	0.22337659
10	0xbe3ce932	-0.18448332
11	0x3d8bbe23	0.06823375
12	0xbe4a23ba	-0.19740191
13	0x3e9f9fa5	0.31176487
14	0x3de2f88b	0.11082562
15	0xc011cc1a	-2.2780824
16	0xbdde24a0	-0.108468294
17	0xbda76572	-0.08173646
18	0xbf85ddef	-1.0458354
19	0xbfe39709	-1.7780467
20	0x3e1a418a	0.15064064
21	0xbfb8e0b6	-1.4443576
22	0x3e84bd20	0.2592554
23	0xc000e17f	-2.0137632
24	0x3e4771ec	0.19477051
25	0xbe6120ff	-0.21985243
26	0x3d10a095	0.035309393
27	0x3de5813f	0.11206292
28	0x404b5b2e	3.1774402
29	0xbe73e7d2	-0.23818901
30	0xbfc756a6	-1.5573318
31	0xbfeb7eea	-1.8398106
32	0x3e31330d	0.1730463
33	0x3ea83d9b	0.328595
34	0xbea6f4df	-0.32608697
35	0xbc87261d	-0.016497666
36	0xbc571af8	-0.013128988
37	0xbeb3346a	-0.35000926
38	0xbea282a5	-0.317403
39	0x3bb91fdb	0.0056495494
40	0x3e07bace	0.13254854
41	0xbe442a5b	-0.19156782
42	0x399504af	0.00028422984
43	0x3e9575d3	0.29191455
44	0xbe4ed9d8	-0.20200288
45	0xbeb0edf3	-0.3455654
46	0xbdafb63c	-0.0857968
47	0xbeb1bebc	-0.3471583
48	0x404214dc	3.0325232
49	0x3d16d0d8	0.036820263
50	0xbd2e5c9e	-0.042568795
51	0xbcb50b10	-0.022100002
52	0xbec2e1ac	-0.380628
53	0xbe135495	-0.14387734
54	0x3e17b809	0.14816298
55	0x3b05ccc4	0.002041624
56	0xbdc4bc3d	-0.09606216
57	0xbfc7034b	-1.554788
58	0x3d118355	0.03552564
59	0xbde27b42	-0.11058666
60	0x402e4960	2.7232285
61	0x3d801b62	0.06255223
62	0xbfb6a5b7	-1.4269322
63	0x3e19c617	0.15016972
64	0x3d040caa	0.03223864
65	0x3e18ee0f	0.14934562
66	0x3d522cc0	0.05131221
67	0xbec06142	-0.37574202
68	0xc009ee20	-2.155159
69	0xbda9531f	-0.08267807
70	0xbcde5464	-0.02713985
71	0xbd2a9b28	-0.041651875
72	0xbe21a7f1	-0.15786721
73	0xbde05e66	-0.10955505
74	0x3d980577	0.07422917
75	0xc01f0428	-2.4846287
76	0xbe4f073e	-0.20217606
77	0xbe46bf1b	-0.19408838
78	0xbcead460	-0.028665721
79	0xbe24621b	-0.1605305
80	0xc00e3c7f	-2.2224424
81	0x3e1450fb	0.14484017
82	0x3f4a2a1b	0.789705
83	0xc00ae1ff	-2.1700437
84	0x3e2c571b	0.16830103
85	0xbdb1343b	-0.0865254
86	0x3e236b5a	0.1595892
87	0xbdc09a33	-0.09404411
88	0xbedeab0c	-0.43489873
89	0x3db3f6e6	0.087873265
90	0xc00d30eb	-2.2061107
91	0xbff6e6cb	-1.9289182
92	0xbfa3f084	-1.2807775
93	0xbec81bf0	-0.39083815
94	0xbdc6d3f0	-0.097083926
95	0xc00c5591	-2.1927226
96	0x3e36a1fe	0.17835233
97	0xbf510fde	-0.81664836
98	0xbd88148a	-0.066445425
99	0xc03742cf	-2.8634527
100	0xbeb06488	-0.344517
101	0x3da43667	0.08018189
102	0xbe238df2	-0.15972117
103	0xbe1783a3	-0.14796309
104	0x3e376ca3	0.17912535
105	0x3cf9658d	0.030443931
106	0xc0176db5	-2.366071
107	0xbca11d5d	-0.019667322
108	0xbde73801	-0.11289979
109	0x3b7672ce	0.003760505
110	0x3e6582a0	0.2241311
111	0xbe1cd75f	-0.15316533
112	0xbdba8911	-0.091081746
113	0xc01a4867	-2.410669
114	0xbe640543	-0.22267632
115	0x3ef7fa15	0.48432985
116	0x3e022250	0.12708402
117	0xbd13b8f8	-0.03606507
118	0xbe3e35a5	-0.18575151
119	0xbe74de1c	-0.23912853
120	0xbf8528e7	-1.0403107
121	0xbf193e49	-0.59860665
122	0x3fc99123	1.5747417
123	0xbdb42a8b	-0.08797177
124	0x3df253a0	0.118323565
125	0xbd96ab33	-0.073568724
126	0xbfef0d7c	-1.867599
127	0xbf14c008	-0.58105516
128	0xbe5e2665	-0.21694334
129	0xbc57ef86	-0.013179665
130	0x3df156e3	0.117841505
131	0x3e1cd78b	0.15316598
132	0xbd31908f	-0.043350752
133	0xbbd78b1e	-0.0065778634
134	0xbe2c2950	-0.16812634
135	0xbddaecaf	-0.10689675
136	0x3da8affa	0.0823669
137	0xbcf48d2e	-0.029852476
138	0x3d367dee	0.04455369
139	0x3cc7bc7a	0.024381865
140	0xbdc2aceb	-0.09505638
141	0x3def389b	0.116807185
142	0x3e305d03	0.17222981
143	0x3ccf2eb1	0.025290819
144	0x3e22da47	0.15903579
145	0x3d4a3904	0.04937078
146	0x3dec09ed	0.11525331
147	0xbe2f741a	-0.17134133
148	0x3d765073	0.060135316
149	0xbe32db7b	-0.17466538
150	0xbd5cd869	-0.053917322
151	0xbe3341a7	-0.17505513
152	0x3d83ef89	0.06442172
153	0xbe465b17	-0.19370686
154	0xbd647c7e	-0.055782788
155	0xbd911dba	-0.07085748
156	0x3df17646	0.11790137
157	0xbe4f2cfe	-0.20232007
158	0xbdcc70e9	-0.099824734
159	0x3dfa96e2	0.1223581
160	0x3da74dbb	0.08169123
161	0x3db994f9	0.090616174
162	0x3de52019	0.11187763
163	0xbe212acf	-0.15738986
164	0x3d25ede8	0.04051009
165	0xbe376a8e	-0.17911741
166	0xbdfb6ecc	-0.12276992
167	0xbd01010e	-0.031495146
168	0xbdc0176b	-0.093794666
169	0xbc16602b	-0.009178202
170	0x3cb489f5	0.02203844
171	0xbcfeb51b	-0.031092217
172	0x3db64434	0.088997275
173	0xbce57f8a	-0.028014917
174	0x3e10d154	0.14142352
175	0xbd57bc1c	-0.05266963
176	0x3dfd3372	0.12363328
177	0x3e133f27	0.1437956
178	0x3e0f6c0e	0.14006063
179	0xbdae9b53	-0.085257195
180	0xbdc1f630	-0.09470785
181	0xbe125823	-0.14291434
182	0xbd8f6d1e	-0.07003234
183	0x3e04f521	0.12984134
184	0xbda0b13f	-0.07846307
185	0xbe1b5b17	-0.15171467
186	0xbe03571a	-0.12826195
187	0xbe291f71	-0.165159
188	0xbdb64d13	-0.089014195
189	0x3d732d80	0.059369564
190	0xbdfde703	-0.123975776
191	0xbdc9ff3a	-0.09863134
192	0xbe57873d	-0.21047683
193	0xbe27b880	-0.16378975
194	0xbdbf1a28	-0.09331161
195	0xbe3fbeb8	-0.18725097
196	0xbd1630b8	-0.036667556
197	0xbd8cbb06	-0.068716094
198	0xbda7d536	-0.08194964
199	0xbe0a357a	-0.13496962
200	0x3d6a2d80	0.0571723
201	0x3da792dc	0.08182308
202	0xbda3a4a8	-0.0799039
203	0x3a887963	0.0010412153
204	0x3debdf94	0.115172535
205	0xbd75db47	-0.060023572
206	0xbdd62e28	-0.10458022
207	0x3deccde5	0.11562709
208	0xbdccf846	-0.10008292
209	0xbe0b679e	-0.13613746
210	0x3dbaa264	0.09113005
211	0x3bfbc4bc	0.0076833647
212	0xbe09dfa7	-0.13464223
213	0x3d0f77e4	0.035026446
214	0x3d4e8328	0.05041805
215	0x3e26469f	0.16237877
216	0xbe0dc1ac	-0.13843411
217	0x3db7003e	0.08935593
218	0xbda63ea2	-0.08117415
219	0xbc05c76d	-0.008165223
220	0xbe370c93	-0.1787589
221	0xbe4ccfbb	-0.20001118
222	0x3db9d09d	0.09072993
223	0xbd394142	-0.04522825
224	0x3d97a301	0.074041374
225	0xbe1f5c44	-0.1556254
226	0x3dc8c6fa	0.09803577
227	0xbdf65cf4	-0.12029448
228	0xbdfc20a2	-0.12310912
229	0x3e0695dc	0.13143104
230	0xbde2c32e	-0.11072384
231	0xbdf6887e	-0.120377526
232	0xbe1b1d06	-0.1514779
233	0x3d8b8e4d	0.06814251
234	0xbcf1e841	-0.029529693
235	0xbd323a66	-0.043512724
236	0x3d525176	0.05134722
237	0xbdf258ac	-0.11833319
238	0x3b325f9f	0.002721764
239	0xbe01207f	-0.12610053
240	0xbd2eaf2b	-0.042647522
241	0x3d2fdc8f	0.04293495
242	0x3c0e7697	0.008695266
243	0x3dbaa29e	0.09113048
244	0x3e2fd68a	0.17171684
245	0x3de7c30e	0.113165006
246	0xbe023611	-0.12715937
247	0xbe1366f7	-0.14394747
248	0xbdae9bac	-0.08525786
249	0xbd3a9616	-0.04555329
250	0x3e113087	0.14178668
251	0x3cdaa85b	0.026691606
252	0xbce05041	-0.027382018
253	0x3e00755e	0.12544772
254	0x3c94ff82	0.018188242
255	0x3e00da75	0.12583335

advantage_stream.0.bias f4 [64]
0	0xbe5aa814	-0.21353179
1	0xbda82843	-0.08210804
2	0xbd4ff6ce	-0.05077248
3	0x3d7d3144	0.06181456
4	0x3d0937e1	0.033500556
5	0x3c85c701	0.016330244
6	0xbe55f989	-0.20895971
7	0x3e0e6956	0.1390737
8	0xbd2a0887	-0.04151204
9	0xbdeafad6	-0.114736244
10	0x3e852fbf	0.2601299
11	0xbd390f45	-0.045180578
12	0x3d8164a1	0.063180216
13	0xbe28a4b9	-0.16469087
14	0xbcd7c43f	-0.026338695
15	0xbd07db17	-0.033167925
16	0x3eccd24a	0.40004188
17	0x3ba65f33	0.0050772666
18	0x3e118e67	0.14214478
19	0x3f02494c	0.5089309
20	0xbdb829b9	-0.08992333
21	0xbdadd03b	-0.084869824
22	0xbd4606b2	-0.04834623
23	0xbce94e54	-0.028479733
24	0xbd32eafe	-0.043681137
25	0xbe48c7b3	-0.19607429
26	0xbe0cf314	-0.13764602
27	0xbc95c8f4	-0.018284298
28	0xbc2b818a	-0.010467896
29	0x3c9dcbff	0.019262312
30	0x3e18e388	0.14930546
31	0xbce7aa55	-0.028279463
32	0x3d1fbc0b	0.03899769
33	0xbd326cc8	-0.043560773
34	0xbd7c282e	-0.061561756
35	0x3dce9c85	0.100884475
36	0xbe0899af	-0.13339876
37	0xbcad1a1d	-0.021130616
38	0xbe05c25c	-0.13062423
39	0xbd24f4a8	-0.040272385
40	0x3e2791e9	0.16364254
41	0x3c99b86f	0.018764703
42	0xbcf35e66	-0.029708099
43	0x3c62f220	0.013851672
44	0xbcf21f2a	-0.029555876
45	0x3c3289df	0.010897129
46	0x3aae11ea	0.0013280485
47	0x3cdc88d5	0.026920715
48	0xbcdb4dc9	-0.02677049
49	0x3ef1760d	0.47160378
50	0xbd259b97	-0.040431585
51	0xbd04daf9	-0.03243539
52	0x3dd6d430	0.1048969
53	0xbd30aa03	-0.043130886
54	0x3e6409ba	0.22269335
55	0x3caa0d32	0.020758245
56	0xbe17e554	-0.14833575
57	0xbd67136c	-0.056415007
58	0x3d119482	0.03554202
59	0xbd0c3070	-0.03422588
60	0x3e9df667	0.30852053
61	0x3c9670be	0.018364307
62	0x3d4144d8	0.047184795
63	0xbcf35cd4	-0.02970735

advantage_stream.2.weight f4 [2, 64]
0	0xbf326304	-0.69682336
1	0x3cd8e962	0.026478473
2	0xbd91b8d1	-0.07115329
3	0xbdd44f98	-0.10366744
4	0xbeb487b3	-0.3525978
5	0xbf39a9f8	-0.72524977
6	0xbe79e957	-0.24405418
7	0x3f2bcef9	0.6711269
8	0x3e80c518	0.2515037
9	0x3e1dd939	0.15414895
10	0x3f42e431	0.7612944
11	0xbcbb1040	-0.022834897
12	0xbf176b1e	-0.5914782
13	0xbccbeda6	-0.024893593
14	0xbd129e49	-0.035795484
15	0x3c553f18	0.013015531
16	0x3fa78634	1.308783
17	0xbd42f444	-0.04759623
18	0x3ba3d3a8	0.0049995966
19	0xbfcc67e0	-1.59692
20	0xbe282736	-0.16421208
21	0xbd4d4392	-0.05011327
22	0x3e115bdc	0.14195198
23	0x3c644659	0.013932788
24	0xbe5b1a75	-0.21396811
25	0x3d9c2c70	0.07625663
26	0x3df6f472	0.12058343
27	0xbf18465b	-0.59482354
28	0xbdf35a9f	-0.11882519
29	0xbf599c6d	-0.8500431
30	0x3e3895d0	0.18025899
31	0x3e2d6f98	0.16937101
32	0xbe9398f9	-0.28827646
33	0x3dfc2ee5	0.12313632
34	0xbe51dd44	-0.20494562
35	0xbf26df36	-0.6518434
36	0x3e6f4a13	0.23368101
37	0xbef9d82a	-0.48797733
38	0x3e84a929	0.2591031
39	0x3dbd721f	0.092502825
40	0x3f8c43cb	1.0958189
41	0x3d227048	0.03965786
42	0x3ee02da1	0.43784812
43	0x3f80d142	1.006386
44	0xbbf02e40	-0.007329732
45	0x3f229934	0.6351502
46	0xbf516976	-0.81801546
47	0xbed53684	-0.41643155
48	0x3daab62d	0.083355285
49	0x3f96c23f	1.1778029
50	0xbece18ef	-0.40253398
51	0xbe0542be	-0.13013741
52	0x3f80d11c	1.0063815
53	0x3e3ca2c0	0.18421459
54	0xbd2dbd5a	-0.042416908
55	0xbf3ac867	-0.7296204
56	0x3e5c5ee3	0.21520571
57	0xbb4b88dd	-0.0031056919
58	0xbf508089	-0.8144613
59	0x3e0a0361	0.13477851
60	0x3f36fef9	0.7148281
61	0x3f823f13	1.0175499
62	0x3f60c3af	0.8779859
63	0xbcc50b4f	-0.024053244
64	0x3f9ba57d	1.2159878
65	0xbe5d07d7	-0.21585022
66	0x3dc70be8	0.09719068
67	0xbe0426f3	-0.12905483
68	0x3e9e3b85	0.30904785
69	0x3f2abd7a	0.6669537
70	0xbddfbecb	-0.10925063
71	0xbeb77379	-0.35830286
72	0x3d0d08a7	0.03443208
73	0xbde51465	-0.111855306
74	0xbf47fbd3	-0.7811863
75	0xbc0f8c88	-0.008761533
76	0x3f602bea	0.8756701
77	0x3d6fc83f	0.05854058
78	0x3c58b278	0.013226144
79	0x3c658310	0.0140082985
80	0xbfb43432	-1.4078429
81	0xbcae945b	-0.021310976
82	0xbe33e493	-0.17567663
83	0x3fc7e05c	1.5615344
84	0xbe362700	-0.17788315
85	0x3ba1be7d	0.004936038
86	0x3d6c08ec	0.057625696
87	0xbda2302d	-0.07919345
88	0x3e24a99b	0.16080324
89	0x3de8c2af	0.11365258
90	0x3e20f850	0.15719724
91	0x3f52a347	0.8228039
92	0x3e27b560	0.16377783
93	0x3f70f019	0.9411636
94	0xbe2ef6a0	-0.17086267
95	0xbccd72c1	-0.025079133
96	0x3f099689	0.53745323
97	0x3e05a545	0.13051327
98	0xbe388a7a	-0.18021575
99	0x3f4390ea	0.76392996
100	0xbe9bffaf	-0.3046851
101	0x3f7469a7	0.9547371
102	0xbe57c2b9	-0.21070375
103	0x3d1f8686	0.03894665
104	0xbf5765b0	-0.8413954
105	0x3ec4a00a	0.3840335
106	0xbeb8e48d	-0.3611187
107	0xbf2954e6	-0.6614517
108	0x3cf1d7b5	0.029521802
109	0xbf8c02bc	-1.0938334
110	0x3f83bb0d	1.0291458
111	0x3e2dfa45	0.16990001
112	0xbe586ecb	-0.21136014
113	0xbfbdf047	-1.4838952
114	0xbddb7b1a	-0.10716839
115	0x3d20aa99	0.039225195
116	0xbf1d74f0	-0.6150656
117	0x3e6a9a36	0.2291039
118	0xbf0c7943	-0.5487253
119	0x3f1aef4d	0.60521394
120	0x3e71f2c6	0.23627767
121	0xbe79d05b	-0.24395888
122	0x3f5b00a7	0.8554787
123	0xbe6b6c64	-0.22990566
124	0xbf5e8ccd	-0.86933595
125	0xbf808bf8	-1.0042715
126	0xbf102535	-0.56306773
127	0xbddfadf0	-0.10921848

advantage_stream.2.bias f4 [2]
0	0xbc323b19	-0.010878348
1	0x3c323b19	0.010878348

exp_avg f4 [128, 4]
0	0x00000004	6e-45
1	0x00000004	6e-45
2	0x80000004	-6e-45
3	0x00000004	6e-45
4	0x3db113a4	0.08646324
5	0x3d489381	0.048968796
6	0xbb93312f	-0.004491947
7	0x3c3faa8e	0.011698378
8	0x3a938c58	0.0011257036
9	0x3b1de261	0.0024091231
10	0x38d14da6	9.98036e-05
11	0xb958eb1b	-0.00020686949
12	0x80000004	-6e-45
13	0x80000004	-6e-45
14	0x00000004	6e-45
15	0x00000004	6e-45
16	0xba67ee8c	-0.0008847497
17	0xba9ae488	-0.0011817375
18	0xb8d86db5	-0.00010320117
19	0x3a76a6ec	0.00094090286
20	0x00000004	6e-45
21	0x00000004	6e-45
22	0x80000004	-6e-45
23	0x00000004	6e-45
24	0x00000004	6e-45
25	0x00000004	6e-45
26	0x00000004	6e-45
27	0x80000004	-6e-45
28	0x80000004	-6e-45
29	0x00000004	6e-45
30	0x00000004	6e-45
31	0x00000004	6e-45
32	0x00000004	6e-45
33	0x00000004	6e-45
34	0x00000004	6e-45
35	0x80000004	-6e-45
36	0x00000004	6e-45
37	0x80000004	-6e-45
38	0x00000004	6e-45
39	0x00000004	6e-45
40	0x80000004	-6e-45
41	0x80000004	-6e-45
42	0x80000004	-6e-45
43	0x00000004	6e-45
44	0x00000004	6e-45
45	0x80000004	-6e-45
46	0x00000004	6e-45
47	0x80000004	-6e-45
48	0x00000004	6e-45
49	0x00000004	6e-45
50	0x00000004	6e-45
51	0x80000004	-6e-45
52	0x80000004	-6e-45
53	0x00000004	6e-45
54	0x80000004	-6e-45
55	0x00000004	6e-45
56	0x80000004	-6e-45
57	0x80000004	-6e-45
58	0x80000004	-6e-45
59	0x00000004	6e-45
60	0x38d7d870	0.000102923135
61	0x39799ad3	0.00023804167
62	0x3793dabe	1.7625625e-05
63	0xb958dcf5	-0.00020681678
64	0xbb37643b	-0.0027983326
65	0xbaae2423	-0.0013285916
66	0x35a2318a	1.2084358e-06
67	0xb817f2dc	-3.6227386e-05
68	0xbc0524fe	-0.008126495
69	0xbbd01942	-0.006350667
70	0xb860dde8	-5.3612428e-05
71	0xbad49c6d	-0.0016220935
72	0xba2bd309	-0.0006554579
73	0x3b19bdf1	0.0023459161
74	0xba1fcd35	-0.0006095947
75	0xbbbb3941	-0.0057136123
76	0x00000004	6e-45
77	0x00000004	6e-45
78	0x00000004	6e-45
79	0x80000004	-6e-45
80	0x3b4e0221	0.0031434374
81	0xbb9d7a5e	-0.004805847
82	0xba2de458	-0.0006633452
83	0xb8fd3210	-0.00012073305
84	0x39782d13	0.00023667915
85	0x3a0db1a8	0.0005405196
86	0xb8ce9dc7	-9.852234e-05
87	0xba417489	-0.0007379731
88	0x00000004	6e-45
89	0x00000004	6e-45
90	0x80000004	-6e-45
91	0x80000004	-6e-45
92	0x00000004	6e-45
93	0x00000004	6e-45
94	0x00000004	6e-45
95	0x80000004	-6e-45
96	0xb9db7b39	-0.00041862743
97	0x3b098fca	0.0020990246
98	0xb9e8cbaa	-0.0004440223
99	0xbb032c6d	-0.0020015494
100	0x00000004	6e-45
101	0x00000004	6e-45
102	0x00000004	6e-45
103	0x00000004	6e-45
104	0x00000004	6e-45
105	0x00000004	6e-45
106	0x00000004	6e-45
107	0x80000004	-6e-45
108	0x80000004	-6e-45
109	0x00000004	6e-45
110	0x00000004	6e-45
111	0x00000004	6e-45
112	0x3d149235	0.036272246
113	0x3cb6faa3	0.02233631
114	0xbb2d358c	-0.0026429622
115	0x3bad8496	0.0052953465
116	0x80000004	-6e-45
117	0x00000004	6e-45
118	0x00000004	6e-45
119	0x00000004	6e-45
120	0x3c96c840	0.018406034
121	0x3c021bd0	0.007941201
122	0xbaa838e3	-0.0012834336
123	0x3a800371	0.0009766651
124	0x3a8ec8ff	0.0010893642
125	0x3a0896e5	0.00052104733
126	0xb8a04eb5	-7.644055e-05
127	0xba811583	-0.000984833
128	0xb95e6cc5	-0.0002121209
129	0xb927ae2c	-0.00015991245
130	0xb7e07e2a	-2.676163e-05
131	0xb92fa911	-0.00016752283
132	0x00000004	6e-45
133	0x00000004	6e-45
134	0x80000004	-6e-45
135	0x80000004	-6e-45
136	0x3b22c3e3	0.0024835996
137	0x3b9b7414	0.004744062
138	0x39acefac	0.00032984966
139	0xba04a6a8	-0.0005060234
140	0x3a11b67a	0.0005558502
141	0xb934a6cc	-0.00017228274
142	0xb992f6b4	-0.00028031098
143	0x39a428a3	0.00031310794
144	0xbd390e4e	-0.045179658
145	0xbd3ea744	-0.046546236
146	0x3b70c509	0.0036738536
147	0xbc022560	-0.007943481
148	0xbc6edcf0	-0.014579043
149	0x3ac18eff	0.0014767348
150	0x3abd8726	0.0014459833
151	0xbbcd884d	-0.006272352
152	0x3b1ff803	0.00244093
153	0x39eedac0	0.0004555788
154	0xba27d096	-0.0006401626
155	0x3ab8bd5c	0.001409452
156	0x3a01ed5c	0.0004956329
157	0x397a8106	0.00023889923
158	0xb6fab6ff	-7.471884e-06
159	0xb8d02647	-9.9253426e-05
160	0x80000004	-6e-45
161	0x80000004	-6e-45
162	0x80000004	-6e-45
163	0x80000004	-6e-45
164	0xbb63fd20	-0.0034788325
165	0xbb0c1ff7	-0.0021381357
166	0xb9bf8fc0	-0.0003653746
167	0xbaf01d6a	-0.0018319313
168	0xbacf82d4	-0.0015831836
169	0xbbe0aaf8	-0.0068563186
170	0xba35478d	-0.0006915264
171	0xba9ed0a8	-0.0012116628
172	0x00000004	6e-45
173	0x80000004	-6e-45
174	0x80000004	-6e-45
175	0x00000004	6e-45
176	0x39e97960	0.00044531655
177	0xb8cf89a0	-9.896164e-05
178	0xb76752e0	-1.3787969e-05
179	0x3a880bab	0.0010379454
180	0xba8dc5d5	-0.0010816405
181	0xbb2c0446	-0.0026247664
182	0xb972081d	-0.00023081941
183	0x39a3eeb6	0.00031267636
184	0x3bcf7d8c	0.006332105
185	0x3a161d6c	0.000572643
186	0xba180e04	-0.00058004283
187	0xb924d094	-0.0001571796
188	0x3b14c54b	0.0022700604
189	0xba4f8bcc	-0.00079172547
190	0x3841850c	4.6138695e-05
191	0x3ae6da54	0.0017612674
192	0x39ac4b94	0.00032862707
193	0x3bb68bbe	0.005570858
194	0xb84623ba	-4.724015e-05
195	0xba13e879	-0.0005642246
196	0xb97a3bae	-0.0002386409
197	0xba6ed8f2	-0.0009111307
198	0xb9ba1064	-0.00035488897
199	0xba4c57bb	-0.0007795055
200	0x00000004	6e-45
201	0x00000004	6e-45
202	0x00000004	6e-45
203	0x00000004	6e-45
204	0x80000004	-6e-45
205	0x00000004	6e-45
206	0x00000004	6e-45
207	0x80000004	-6e-45
208	0x00000004	6e-45
209	0x80000004	-6e-45
210	0x80000004	-6e-45
211	0x80000004	-6e-45
212	0x39c4c0df	0.00037527733
213	0x39f484a6	0.00046638137
214	0x3801bbad	3.0930783e-05
215	0x39a04a0b	0.00030572744
216	0x00000004	6e-45
217	0x80000004	-6e-45
218	0x80000004	-6e-45
219	0x00000004	6e-45
220	0x3a390762	0.000705829
221	0x3a8bd661	0.0010668748
222	0xb8b132ec	-8.449503e-05
223	0xbabca5a0	-0.0014392622
224	0xb978c2fb	-0.00023723759
225	0x3893612b	7.027605e-05
226	0xb79174a1	-1.7339657e-05
227	0xb9b266db	-0.0003402744
228	0x3bb3b2dc	0.005483968
229	0x3ab98709	0.0014154623
230	0xb982e4af	-0.00024965915
231	0x3ab8e5b1	0.0014106539
232	0xbac56b22	-0.0015061835
233	0x3bed7a2f	0.0072472314
234	0xb9884975	-0.0002599467
235	0xbb9855b3	-0.004648888
236	0x39f490d2	0.00046647206
237	0xba46b456	-0.0007579973
238	0x388a3478	6.590126e-05
239	0x39825e6b	0.0002486588
240	0x00000004	6e-45
241	0x80000004	-6e-45
242	0x80000004	-6e-45
243	0x80000004	-6e-45
244	0xba67defc	-0.0008845178
245	0x39173f82	0.0001442414
246	0xb903e87b	-0.00012579739
247	0xb9f1b6bf	-0.00046103259
248	0x00000004	6e-45
249	0x00000004	6e-45
250	0x00000004	6e-45
251	0x00000004	6e-45
252	0x00000004	6e-45
253	0x80000004	-6e-45
254	0x00000004	6e-45
255	0x00000004	6e-45
