CartPoleHighRewardIn2026/checkpoints/checkpoint_ep500_reward82.00.pt (torch, 421167 bytes, 33 tensors)

feature_layer.0.weight f4 [128, 4]
00000000: 8ccd d5bb 6653 193c f818 efbe bbe9 3f3e
00000010: 685a ec3c 750f b23d 0f01 083f 6964 1fbb
00000020: d724 02be 8f00 e5bc 4564 6fbf e5e3 30be
00000030: f0af 8b3d fe8e 70bd 3861 933e 7518 7fbd
00000040: 4480 fabc e440 21bd 15d1 483f dce1 0c3d
00000050: 3524 f2bb d8f6 253c ad56 b0be e4a0 dabd
00000060: 36e2 87bc 4b2e b43c 4a16 94bc d25e 4b3b
00000070: 1db8 b3bd 4fa1 e03d 5677 bebe 6694 633d
00000080: a937 e2bd 0baf f43d 7666 dd3e 1293 e3bd
00000090: b7af 1a3e cb03 bdbd 09eb c9be 4b40 22be
000000a0: e668 2e3d e1fc 64bd 65a9 47bf e606 31be
000000b0: a413 62be b32d f13d c2f8 123f f844 003e
000000c0: cb43 2cbc 371d f6bc 290c 4b3e d216 39bd
000000d0: 660f 03bd 11aa ca3d f83b 1ebf 7515 5f3d
000000e0: 252a 8d3a 0271 86bb 3d67 13be a547 98bb
000000f0: 0a14 80bc 7967 5abd dd9a 263f 6bc0 72be
00000100: 09cf 9b3d 1b99 acbc f714 ad3e dadf fbbb
00000110: 0923 c1be e260 053e 843c dbbe 3d11 573d
00000120: b7c0 f7bb 92fe 813a b530 68bf e696 d2bd
00000130: 12cd ed3b f5d5 c0bd 7389 3d3f baff d7bd
00000140: 20d1 cf3a 525f 0abc 6769 62bf e64e e9bd
00000150: d4eb 733c 9b03 6cbd caec dc3e 401a b23e
00000160: 75b9 543e 8761 49bd d524 80be 681b 68be
00000170: 0984 0abc 9715 d9bd 9df5 203f fa63 2ebc
00000180: 72f5 99bc 142a b63c 4e10 833f 4157 0e3e
00000190: 99cc 8fbd d5a2 e83d 6c54 713c 8cff a33d
000001a0: dab3 b13b 7973 34bb b173 e53d a7f7 d33b
000001b0: fd02 f7bd 1109 073e c75a 143d 82bb c93d
000001c0: 7e1a 363e 05f3 223e 1f13 b03e 2f16 f03d
000001d0: 9d9b 98bc 1a31 643d cd7f c5be 486a b43d
000001e0: 72da 803e f8db 22be 6abc 183e b50d ef3d
000001f0: 1bf7 a3ba 1ddd bb3b 0205 843f 1d22 ca3d
00000200: b662 813d bba9 4dbd c2a5 1b3f f49c 75be
00000210: 8a0e 9ebc 8a9c d53c 61b6 66be 5ae7 23bd
00000220: d1cc 33bd da88 0fbe b7d7 41bf 7cd4 71be
00000230: 76b9 423e c59c 20be d71f 9d3e 5dc7 ffbb
00000240: ad31 d2bd 74bd d23d 0512 503f 7477 34bd
00000250: 1df7 36be 7f79 b73d d5bf 0e3f c279 ee3d
00000260: b94d fe3d 3bce 47bd 8fa5 6d3f 7957 253d
00000270: dde9 27be 40ec 013e 05fa 6e3f 05bb 97be
00000280: 4db8 873c 4159 63bd 5b53 033f 59b9 03be
00000290: 68dd 4cbb d680 023e 5b2b 283e fa47 eb3d
000002a0: 94f8 38be 0c73 12bd 3652 0cbf 9636 8cbe
000002b0: 1973 04bd 1af0 533d 31dc 283c 8abd 2c3d
000002c0: fcc0 08bd c751 adbd 7daa 653e 86a0 993e
000002d0: ea43 b1bc bc16 0dbd afa5 26be 1ca3 83bd
000002e0: 04aa 133e ed77 fabd 695e 663e 6104 b0bd
000002f0: 124d d13c 6edc f4bd 83f2 403e 82d0 c9bd
00000300: 0074 a7bd 5080 2f3d f794 34bf 5795 653d
00000310: 161e b63b 7ee4 76bc 61e0 88bf 973e 07be
00000320: 0047 743e 4eae ffbd 7cb1 f93e a53d 203e
00000330: 5e7d 993b 5cba 373b 02c7 debd a025 0bbc
00000340: 81e5 733e c539 ce3d f70e 383e 8c60 9b3d
00000350: 68ba 04be 3110 9f3b c126 063f 3b2c 6cbe
00000360: 6d0e f63d ca94 b6bd 4e90 22be 92b8 b3bc
00000370: e542 64bc d25b 3c3c b5f8 7f3f c816 f93d
00000380: bccb 29bd 359d 9d3c e8e5 b33e 4fd7 493e
00000390: 0e11 b639 7be9 3d3d ccea 2abf 870e 833d
000003a0: c9d7 103d f1c1 58bd f873 79bf 6786 4abe
000003b0: a62e 183c b0e6 8bbc a049 173f bb26 85bd
000003c0: 41da 19bb da6f d1bb 0103 81bf 3fca eebd
000003d0: 312b 36bc 0ebb d73c 16ef 543f 6b16 7e3d
000003e0: 4ba5 64bc 53ec 4c3c 4ec0 633f a0c2 bf3c
000003f0: 9c23 04bd 592b a43c 2797 763f 5285 ee3d
-0.0065247472 0.009358263 -0.46698737 0.18741505 0.028851703 0.086943544 0.53126615 -0.0024321324
-0.12709366 -0.027954368 -0.93512374 -0.17274435 0.06820667 -0.058730118 0.2878511 -0.062279183
-0.03057874 -0.039368525 0.78444034 0.034395084 -0.00738957 0.010129653 -0.34441128 -0.10675219
-0.016587358 0.02199473 -0.018077035 0.003103186 -0.08775351 0.10968267 -0.3720042 0.055561446
-0.110457726 0.11947449 0.43242234 -0.11112036 0.15106092 -0.09229239 -0.3943713 -0.15844838
0.042580508 -0.055905227 -0.7799285 -0.17287788 -0.22077805 0.117762946 0.57410824 0.1252631
-0.01051421 -0.030043228 0.19828857 -0.04518778 -0.031997107 0.09895719 -0.61810255 0.054463822
0.0010770006 -0.004102827 -0.14394851 -0.0046472126 -0.015634555 -0.053321335 0.6508005 -0.23706214
0.07607848 -0.0210691 0.33805057 -0.0076865973 -0.37722042 0.13025239 -0.42819607 0.052506674
-0.007560815 0.0009917787 -0.9069932 -0.10282688 0.0072571123 -0.09415809 0.74037856 -0.10546823
0.0015855171 -0.008445578 -0.8844208 -0.11392002 0.014887769 -0.057620626 0.43149406 0.34785652
0.20773871 -0.049165275 -0.250281 -0.22666705 -0.008454331 -0.10599821 0.62874776 -0.010643953
-0.018793795 0.022236861 1.0239351 0.13900472 -0.07021446 0.11359183 0.0147296 0.08007726
0.0054230513 -0.0027534647 0.11203707 0.0064687314 -0.12061117 0.13187052 0.036219385 0.098502174
0.17783543 0.15913017 0.34389588 0.11722981 -0.01862889 0.05571089 -0.38574067 0.08809334
0.2516666 -0.15904224 0.14915624 0.11672536 -0.0012509556 0.005733146 1.0314028 0.09869788
0.06317656 -0.050210696 0.607998 -0.23985654 -0.019294042 0.02607562 -0.2253051 -0.040015556
-0.0438965 -0.14017048 -0.7571978 -0.23616213 0.1901606 -0.15684803 0.30688354 -0.0078057484
-0.10263381 0.102900416 0.81277496 -0.044059232 -0.17867704 0.089587204 0.5576146 0.11644317
0.12417168 -0.04878066 0.9283075 0.040366624 -0.16397806 0.12687778 0.9335025 -0.29634872
0.016567374 -0.05550504 0.51299065 -0.12863673 -0.0031259898 0.1274446 0.16422789 0.11488338
-0.18063575 -0.03575425 -0.54812944 -0.27385396 -0.03233633 0.05174265 0.010306404 0.042172946
-0.03338717 -0.084628634 0.22428317 0.30005282 -0.02163883 -0.03444551 -0.16274141 -0.06427595
0.14420325 -0.12229905 0.22496952 -0.08594585 0.025549445 -0.11956106 0.18842511 -0.09854223
-0.08176422 0.042846978 -0.705398 0.056050625 0.0055577857 -0.015069125 -1.0693475 -0.1320747
0.2385521 -0.12484418 0.48768222 0.15648516 0.0046841344 0.0028034663 -0.108778015 -0.008492857
0.23818018 0.100696124 0.17974459 0.07586774 -0.12961733 0.004854225 0.52402884 -0.23063748
0.1201447 -0.08915098 -0.1587536 -0.021938596 -0.0139319645 0.011496501 0.9998887 0.12162548
-0.041454062 0.019240001 0.35136342 0.1971104 0.00034726452 0.046365242 -0.6676452 0.06399255
0.03536204 -0.052919332 -0.9744258 -0.19777833 0.009288466 -0.017077774 0.5909672 -0.06501528
-0.0023476037 -0.0063915076 -1.0079042 -0.11659669 -0.011118696 0.026334312 0.83177316 0.0620331
-0.013955425 0.012507516 0.8896531 0.023408234 -0.032260522 0.020040201 0.9632439 0.116465226

feature_layer.0.bias f4 [128]
00000000: 53a0 7c3d ef07 37be 47d6 7fbd 5833 4e3e
00000010: fdf8 49bd b27a 91bd c7d5 c7bd 1c49 de3d
00000020: 35f7 223d 0771 803e c3c1 56be 558a f83d
00000030: 9fb7 12bd 7964 303e 3f4f 2dbd e6bc c73c
00000040: 007a 603e 5fcf b23b a9d7 36be dc0d e63d
00000050: db58 41be 753c 96be 16a8 84be 194c 113e
00000060: 0271 47be 1436 6ebe e33e f9bd 8cde 693c
00000070: 2b12 fdbe 0c02 1dbe 6f28 8cbe 6f89 45be
00000080: ddd3 3a3c 8701 38bd 6c26 e0bd c0e1 9f3d
00000090: f223 5fbd e7f7 3e3e c5e4 0abe 570d 86be
000000a0: 0e74 35be 3e3b 3fbe 82aa a9be 60d9 e4bd
000000b0: 4d5c c2be 6753 23be 3ecc 47be 15c2 bf3b
000000c0: df22 3c3e 2e6d 69be 8ab9 3bbe 8d79 59bd
000000d0: 1244 10bf f334 12bc f616 463e ed0f 4bbe
000000e0: de76 34be bc51 483e 46f9 7ebe d07e a9bd
000000f0: f6e7 58be 0307 19be 716a 03be 5ad9 36be
00000100: e75e 40be 3597 1b3e 3740 59be 41cc efbc
00000110: ac3e febd 279b 0b3e fe49 36be 2b98 e13c
00000120: 25d8 c6bc 6af3 173e 9d72 29be 9ada 38be
00000130: cb1d 3cbe 1cbf 073c 943a c4be 1ac5 47be
00000140: 10a4 09be 164c 18be c389 1e3e 6d65 883b
00000150: 8330 39be 6809 ee3d c2f7 d7be a804 4d3d
00000160: 599a 06be b4be 46be 4f72 c3be 63db 883a
00000170: c969 4bbe c56b 3d3e aa10 cfbe c133 45be
00000180: 7a4f 56be f032 febd b783 1ebe 1cec 22be
00000190: 5da7 1cbe f0a6 57bd 3051 51be c07d b1bb
000001a0: cca1 93bc bf79 56bd ee1f 62be 484f 4ebe
000001b0: b4fd 54be 5673 26b9 6b93 903d eed7 703d
000001c0: 1bef 0ebe f931 53be 21ff 6d3e 7d09 0e3e
000001d0: be81 69bd b8d0 2abe d821 443e 419c 3bbe
000001e0: 9bfd 9ebe b94f 24be 05b8 c1be fc52 3ebe
000001f0: d84e e63d 4e25 82be e6a6 dabd 659a 1dbe
0.061676335 -0.1787412 -0.06246021 0.20136774 -0.04930972 -0.071034804 -0.09757572 0.10853788
0.039786536 0.25086233 -0.20972352 0.1213576 -0.035819646 0.17225827 -0.042311903 0.024382066
0.2192154 0.0054568495 -0.17855705 0.11233112 -0.18881552 -0.29343 -0.2590949 0.14189185
-0.19476703 -0.23262817 -0.12170198 0.014274251 -0.49427924 -0.15332812 -0.27374598 -0.19290708
0.011403051 -0.04492333 -0.109448284 0.0780673 -0.05447764 0.18649255 -0.13563831 -0.26182052
-0.17720053 -0.18674943 -0.331379 -0.111742735 -0.37961045 -0.15949784 -0.19511506 0.005851994
0.18372677 -0.22795555 -0.18332496 -0.053094435 -0.5635387 -0.008923757 0.19344696 -0.19830294
-0.17623469 0.19562429 -0.24899778 -0.08276141 -0.21182236 -0.14944081 -0.12833573 -0.1785635
-0.18786202 0.151944 -0.21215902 -0.0292722 -0.124142975 0.13633405 -0.17801663 0.02753838
-0.024272988 0.14838949 -0.16547628 -0.1805214 -0.1837074 0.00828531 -0.38325942 -0.19508782
-0.13441491 -0.14872774 0.1548224 0.0041624815 -0.18084912 0.11622888 -0.42181212 0.05005327
-0.13144816 -0.19408685 -0.38173148 0.0010441359 -0.19864573 0.18498142 -0.404424 -0.19258024
-0.20928755 -0.12412059 -0.15479933 -0.15910381 -0.15298219 -0.05264944 -0.20441127 -0.005416602
-0.018021487 -0.0523622 -0.22082493 -0.20147431 -0.20799905 -0.0001587396 0.07059368 0.058799677
-0.13958399 -0.20624532 0.23241855 0.13870807 -0.057008497 -0.16681182 0.19153535 -0.18321325
-0.3105286 -0.16046037 -0.37835708 -0.18586344 0.11245507 -0.25419086 -0.106763646 -0.15390928

feature_layer.2.weight f4 [128, 128]
00000000: 21d7 823d 657d 173e 68e4 873d 7107 8f3e
00000010: 7cc4 ef3d da11 d0bc 4b40 4b3d 0bc2 34bd
00000020: a097 443d ed72 133c 0575 26bf 703f 993d
00000030: 72ad 463d e21c 19be 6c5c 023e 014b 71bc
00000040: 5723 743e 6d11 41bd ba25 76bf 88c5 8b3e
00000050: fa5b b3bf ee8a 963e fec9 9d3d 0b4e 433e
00000060: 905f bf3e 95e2 95bd 0e56 e23d 57f4 c8bc
00000070: fa55 c4be bb74 3fbe 3119 223e f361 213f
00000080: 851c 313e 4f9f 21bc c333 d9bd 48d3 283e
00000090: d117 563e c881 de3c b889 2c3e cdc2 86be
000000a0: 5399 26be 3d17 3e3e 925f c5be 0eef 0f3e
000000b0: 7772 c23e 8ca2 0c3e e22e 32bd 042d b1bc
000000c0: ba14 b5bd afb6 dbbf c43f 573e 2ab1 ff3d
000000d0: c624 13bf a78c 1bbe 5085 1f3d 5f5c 9f3e
000000e0: 6b93 4b3e 136d f73c b1dd 84bf 6b9c f93d
000000f0: 7153 cfbf 10bd 8b3e 1030 733f c664 3c3e
00000100: cdc3 5f3f 53b4 dcbb 7a1a f5bd 6f9e 923d
00000110: 8b73 143e 6731 1e3e 66dd e33e 9ddd 093e
00000120: 8a85 e7bd 9c0c 7ebd 0863 403e b19e 5a3f
00000130: e5b1 a03f c869 2b3d e66d 86bb ccc9 0ebd
00000140: 56dc 013d bb98 66bb 613c a6bd b7bd aa3d
00000150: af18 3bbd c16c 863d 8c69 623d 0664 4ebd
00000160: 0f05 743b 0003 c43a 11af 56bd 7292 d43c
00000170: 8519 0cbd 7c12 dd3b 0eb3 173e 6dc6 713e
00000180: dc38 a63e 2ea9 8e3d 0d46 1cbe c43a c13e
00000190: 144b 5d3d 2086 c0bd 7c8c 553f fc36 293e
000001a0: e7f2 b13d 44f1 cf3e 2c88 753f fe65 e7bf
000001b0: fb35 493f 5fa1 fd3c 1e3c 7c3d 389d 9abb
000001c0: 8170 b53d a756 a2bf 3de7 123e 720a f23d
000001d0: dab5 4a3e e15e a9bd 5cb5 103e dc7c 913b
000001e0: abcc 61bd 877c 883e b127 9c3e 8339 5ebd
000001f0: baf9 c83d e349 503e 607c 413e 249e 35bf
00000200: 8572 9fbc 80d2 06bd 0bd9 ac3d 6317 19be
00000210: a804 853c 8f25 a2bd 6086 463d 00cf 983a
00000220: 0635 acbc 3f20 663d b810 bc3b 1440 1abe
00000230: 10c4 c8bc 2407 8a3d 9fb6 f03d 91cc 7ebd
00000240: f27d f5ba 4d56 793d d6de 023e c881 18be
00000250: c4a9 40bd d017 4a3d 7b09 d9bd f07f 0bbd
00000260: 9606 923d e69d 3cbd 4010 81be 5291 6dbe
00000270: 25ac 91bd 90ce f6bd e28a 6d3d 2344 91bd
00000280: ee9f eebc e8fc 763d 17ec 0c3e df07 12be
00000290: 01cb cabd 223e 74bc 10f8 69bd 5031 df3a
000002a0: 2362 bbbc cb31 e3bd 83ef 35bd e1ec 23bd
000002b0: 2e15 8e3d dde3 773e 91e5 04be 5ab1 ca3d
000002c0: 7927 0fbe 63d5 ddbc a08c 9e3c 3f54 5e3d
000002d0: fd0f 923d dfa8 6bbe 8d2d 78bc 9976 42be
000002e0: 0c39 f73d c32a e63d 0d00 11be 33c5 933c
000002f0: a177 c03d 6ed5 1bbe 51dd c2bc 465a 1cbe
00000300: 26ae 13be 245f b5bd 57cc 51bd 05db 0abe
00000310: 97cb 163d d9f9 a53d e35b 34bc ac0c 35bc
00000320: 7c53 42be 7a86 bfbc a94e 123e e588 983b
00000330: aa3c d13d 8314 5b3d b244 d93d fcc4 40be
00000340: 746e 97bd 857c 92bd 589f 2cbd 653e a0bb
00000350: ae21 97bc 61f3 15be d089 113c 8e3b 24be
00000360: 9fcb aabd 187d 493d 6544 4d3d 1e74 a53d
00000370: ad5b 563d 4ae9 61be fbd5 9e3d 7282 7dbd
00000380: b4a0 2fbc 1158 213e 5089 f13d fd2f ca3d
00000390: cdc3 32bd bc0e f63d c2f3 3fbe ec8a 16be
000003a0: 9d94 a53c c3ea 1b3e 9a6e 143d 844d 37be
000003b0: 49b2 0b3d 6a40 e0bd 1b83 033d 1062 02be
000003c0: 7d34 bfbd 33a1 fcbc 9fb6 ecbc e994 193d
000003d0: e0e9 bebc bb75 1ebd 7de3 68bc 3873 cdbd
000003e0: 4e64 b1bd f36f 073e 9d87 723d 8797 54bd
000003f0: 5143 1ebc f656 443e b2bf b33c c170 103d
0.06388689 0.14793928 0.06635362 0.27935365 0.11707398 -0.025399137 0.04962186 -0.044130366
0.047996163 0.008999568 -0.6502231 0.07482803 0.048505254 -0.14952424 0.12730569 -0.014727355
0.23841606 -0.04713576 -0.96151316 0.27299142 -1.4012444 0.2940287 0.077045426 0.1907274
0.37377596 -0.07318608 0.1105157 -0.024530573 -0.38346845 -0.18696873 0.15829922 0.63040084
0.17296036 -0.009864642 -0.10605576 0.16486847 0.20907523 0.027161494 0.1684941 -0.26320496
-0.16269426 0.18563552 -0.38549477 0.14056036 0.37977955 0.13733882 -0.043501742 -0.02162791
-0.08841844 -1.7165126 0.21020418 0.12484963 -0.57477987 -0.15190373 0.038945496 0.3112516
0.19880454 0.030203378 -1.0380155 0.121880375 -1.6197339 0.2729268 0.9499521 0.18397817
0.87408143 -0.0067353635 -0.11967941 0.07159125 0.14497201 0.15448533 0.4450485 0.13463445
-0.113047674 -0.062023744 0.18787777 0.85398394 1.2554289 0.041848928 -0.0041024564 -0.034860417
0.03170427 -0.003518625 -0.08116985 0.083369665 -0.045677837 0.06563712 0.05527644 -0.05038836
0.003723446 0.0014954507 -0.05241305 0.025948737 -0.034204025 0.0067465883 0.14814398 0.2361085
0.32465255 0.06965862 -0.15261097 0.37740147 0.05402668 -0.09400582 0.8341749 0.16524881
0.08688908 0.4061376 0.95910907 -1.8078 0.7859799 0.030960737 0.06158077 -0.004718449
0.08859349 -1.2682694 0.14346023 0.118183985 0.19795933 -0.0827005 0.14131683 0.004439933
-0.055126827 0.26657507 0.30499032 -0.054254066 0.098132566 0.20340686 0.18895102 -0.7094443
-0.019463787 -0.032915592 0.08439835 -0.14950328 0.016237572 -0.0791732 0.048467994 0.001165837
-0.021021377 0.056183096 0.0057392977 -0.15063506 -0.024507552 0.06739643 0.11753582 -0.06220681
-0.0018729551 0.06087332 0.12780318 -0.14893258 -0.0470369 0.049339116 -0.105975114 -0.034057558
0.071301624 -0.04604902 -0.2520771 -0.23199967 -0.07112912 -0.120511174 0.057993777 -0.07093074
-0.029128995 0.060299784 0.13761936 -0.14260815 -0.09902001 -0.014907392 -0.057121336 0.0017028246
-0.022873944 -0.11093482 -0.04441787 -0.040020827 0.069376335 0.24208017 -0.12978198 0.098971084
-0.13979901 -0.02707929 0.019354165 0.054279562 0.07131956 -0.23013638 -0.015147579 -0.18990554
0.12071428 0.11238625 -0.14160176 0.018038368 0.093978174 -0.15218136 -0.023787173 -0.15268812
-0.14421901 -0.08856037 -0.051220264 -0.13560112 0.036815252 0.08104295 -0.011008236 -0.0110503845
-0.1897716 -0.023379553 0.14287819 0.004654991 0.10216649 0.05348636 0.10608806 -0.18825144
-0.07394114 -0.071526565 -0.04214415 -0.0048902505 -0.018448677 -0.14643623 0.008882955 -0.16038343
-0.08339619 0.049191564 0.050114054 0.08078788 0.052333523 -0.22061649 0.07755657 -0.06189198
-0.010719467 0.15756251 0.117937684 0.09872434 -0.04364376 0.12014529 -0.1874533 -0.14701432
0.020212466 0.15226273 0.03623829 -0.17900664 0.034105573 -0.10949786 0.032107454 -0.1273272
-0.09336183 -0.030838585 -0.028895674 0.037495527 -0.02330488 -0.038686495 -0.014214394 -0.10031742
-0.0866171 0.13226299 0.059211362 -0.05190232 -0.009659604 0.19173798 0.021941993 0.03526378

feature_layer.2.bias f4 [128]
00000000: 23ae 6b3e b6ab 91bd 4315 8f3e 5af0 273c
00000010: 2d1b 3abd c4df 873e 8131 9c3e 8578 4ebd
00000020: 295b 933e f75b 33bd 0ce3 7b3e 2e38 dbbc
00000030: eca7 9a3e 5640 15be 9305 85bc d3c4 903e
00000040: 688e b4bc 2811 423c 4ef5 a03e 1098 973e
00000050: 3307 2dbd 18cf 853e 97e8 81bd 202c 913e
00000060: 6c2a 0fbd 3b4c 193e b207 963e 8249 14bd
00000070: bb67 66be 6fd2 043e dfbf 9c3e ffa8 943e
00000080: 7aee 0dbd b1f2 633e e94a 963e 4f16 a33e
00000090: d1f3 e5bc 2840 963e 9afa 9d3e 5d32 0cbd
000000a0: 0efd 0fbd bdb8 33bd 1806 0cbe a655 3c3e
000000b0: 2277 933e e5ec 3d3e 1ce4 45be 5bcb 563e
000000c0: 82fb 88bd cb25 56bc 030c 863e c974 01bd
000000d0: f356 a73e a3fd 79bd c436 803c e29a a23e
000000e0: 7541 8cbc 7d35 853e dd2e 4abc 2fe9 0abc
000000f0: 6e55 4cbe b66d a4bd 5c5a 9cbd 145d 1dbe
00000100: 835d af3d c3f1 d7bc d54b 5dbc ab7c 923e
00000110: b6f9 843e c69e 903e 82ba 22be 91af a23e
00000120: 93a0 0ebd f408 00bc 0afe 8f3e aa54 913e
00000130: 6072 963e 971b 683e 6f55 76bd d80f 4dbc
00000140: e48e 6e3e bf92 aa3e c5fb bcbd 58d3 903e
00000150: 005a 82bd 7020 9f3e 3763 65be ab81 8e3e
00000160: 2d7c a83e 7a98 4fbd d4ad a03e 597f a33e
00000170: 03c0 903e cfea 793e 7723 9abd c218 7d3e
00000180: 6943 2ebd 09d2 943e 4b50 6f3e e8aa 903e
00000190: f430 a33e 876b a9bc dadc 50bd b30e a13e
000001a0: 2a7b cabc 82bc 713e 49cf a03e 2241 843e
000001b0: 0441 f7bc d078 843e 6ff2 63bd 3586 46be
000001c0: 28ca 3abd 5c25 9a3e 8b51 24bd cab9 eebd
000001d0: 2cb3 3ebd e103 a83e 1f75 933e 0e79 283e
000001e0: e5da 983e 38c2 943e 9433 8bbe ab74 933e
000001f0: 3be4 1abe a8c7 bcbc 852e a13e f42d 9e3e
0.23015647 -0.071128294 0.2794591 0.010250175 -0.045436073 0.26537907 0.30506518 -0.050407905
0.28780487 -0.043788876 0.2459833 -0.026760187 0.3020624 -0.14575323 -0.01623801 0.28275165
-0.02204056 0.011844911 0.31437153 0.29608202 -0.042243194 0.26134562 -0.06343191 0.28353977
-0.034952566 0.14970486 0.29302746 -0.036202915 -0.22500508 0.12970899 0.30615136 0.29035184
-0.034651257 0.22260548 0.29354027 0.31852958 -0.028070362 0.29345822 0.30855256 -0.034227718
-0.03515344 -0.043877352 -0.136742 0.18392047 0.2880183 0.185474 -0.19325298 0.20976011
-0.06688596 -0.013070534 0.2618104 -0.031605516 0.32683524 -0.061032902 0.015651114 0.3175879
-0.017121056 0.2601737 -0.012340275 -0.008478447 -0.19954464 -0.08028738 -0.07634422 -0.15367538
0.08562758 -0.026360398 -0.013506849 0.2861074 0.25971764 0.28246135 -0.1589146 0.31774572
-0.034821104 -0.007814635 0.28123504 0.28384906 0.29384136 0.22666775 -0.06014007 -0.0125159845
0.23296696 0.33315083 -0.09227709 0.28286242 -0.063648224 0.31079435 -0.22401129 0.27833304
0.3290724 -0.050682522 0.3138262 0.31933096 0.28271493 0.24405979 -0.07526296 0.24716476
-0.042544756 0.29066494 0.23370473 0.2825539 0.31873286 -0.020681156 -0.05099187 0.31456527
-0.024716932 0.23607066 0.31408146 0.25830942 -0.030182369 0.25873423 -0.055651125 -0.19387133
-0.045602947 0.30106628 -0.040116828 -0.1165653 -0.04655759 0.3281546 0.28800294 0.16452429
0.29854503 0.29054427 -0.27187788 0.28799948 -0.15126126 -0.023044422 0.31480804 0.30894434

value_stream.0.weight f4 [64, 128]
00000000: cb0e 68bc 1df3 873d 50a6 6e3d d383 873d
00000010: 65d0 663d 129a 643e 1220 0e3e b0ac 813f
00000020: 3a90 803e 6a3a bc3c dc17 1e3e ba7a 4e3d
00000030: e009 b43d aa3e 0dc0 2f0d 0bbe 2538 483e
00000040: fa84 053e 5e29 8e3e 8ce1 0f3c b4ee 753e
00000050: 2507 183e 358c f13d 569f 5fbe 20af fa3d
00000060: 64a3 023c eb36 c3bd 15d7 ce3d 204c 66bd
00000070: 28ae 89bf bfa9 123d 98fd 0a3e 5a9f 1dbc
00000080: a98d 1b3e bc48 c23d 243a 2c3e ce55 5e3e
00000090: a08e 44be 6458 6bbb 33a9 493e e71e 39bd
000000a0: fd90 f83d 70a8 943b 0550 27c0 64dd 2d3e
000000b0: 666b c03d 7ef0 e73d 5f21 78bf 7370 f3bc
000000c0: 69df 6e3d b377 083e 2737 2a3e ed75 f3bd
000000d0: bbce 943e 57ad c4be f772 72be 4996 ad3e
000000e0: 0ef3 bfbd 825f 5ebb cd5d 55bd cb42 9dbd
000000f0: acb8 9ebf f20c 41bd e4db b7bd a36b 34bf
00000100: 8768 0a3b b957 14bc 2244 2cbd 31b5 92bc
00000110: fe2a 0a3c 4791 ee3c 72f0 9bbf dc01 b73d
00000120: 191f 1f3d 1734 b8bc e588 6d3c 0933 4f3e
00000130: 95a2 663e f16c 133e e1dd a93d 5884 e1bb
00000140: 5bdf 3c3e de86 c33b a730 44bf 73cd 343e
00000150: 13e9 5dbd 7752 8a3e 7d2e 72bf 0991 743e
00000160: 4084 993d 1502 c7bd 5688 c93d be16 633e
00000170: 088d 2e3d 3c2e c3bc 8911 623d 9251 82b9
00000180: 1a0e a0bd 6311 21bc 6b1c 1bbd 3268 29bc
00000190: e822 2d3e fb8f dcbc 8f53 143d 2d43 a23e
000001a0: 4cbb e43d 39dc 8f3e f217 973e 7b22 f93c
000001b0: ecac 893d 8f5a 993e 1cee febe c28b b0bf
000001c0: 77d0 183e b99b 493e 5ac4 cb3d 70b6 ebbf
000001d0: ca8b 8abd 9cc2 883e 8615 d03d 715e b03d
000001e0: c3fc ae3e 46e3 473e 39e7 8ac0 f80e a43d
000001f0: 5340 b5be 0a16 313d 127c 9a3e 79fa b43d
00000200: 9d61 813d 311d d93d b894 a5bd e17f 263e
00000210: 1e3f f73c 4d1a 483e 4602 e93d 9d92 133f
00000220: f806 e4bd 6f3f 4a3c fa67 2d3e 241d 36bd
00000230: 3a11 583e ac1f 98be e6b4 9bbd e361 0fbd
00000240: 24d1 d1bd a1d5 6f3e e12a 30bb c190 193e
00000250: 77fb 44bd 1fa9 163e 2c77 8f3e 8d8c a3bd
00000260: 74cb c3bd 829d 2b3e e711 2b3b effb 03be
00000270: bea1 d5be d937 54be 2749 87bd 959f 2f3d
00000280: b3af f83d d86e 743d 3ae9 243e deb8 b33d
00000290: 781f 0bbe 7c6f 033e c50b 613e 7c4b 9d3d
000002a0: 92b3 2c3e 30f5 2d3e 9920 68bf 9098 0bbe
000002b0: 5283 603e 54e3 0b3e 40b4 1fbf 6b3d d03b
000002c0: db30 433d a71c 9bbd ec7e 213e de8d f7bd
000002d0: 2064 ff3d 6548 b5bd 2653 b33d 9745 093d
000002e0: f851 cabc dd23 493e cd37 503d eed6 8b3c
000002f0: bad6 3fbd 7878 613d b1f6 5b3e a642 d7be
00000300: c8ac 2f3e d64f d23d 1f7b bdbc b54d 8c3e
00000310: 4e4d 513d abe4 493e b24c 8dbf 7e3b 81bd
00000320: c47c b83d 2db4 843d 7cc2 f13c dab2 4f3d
00000330: bc04 5c3e 31a7 463e 5d2b 7c3d 2c0e 173e
00000340: 82af 9b3e 00f3 493e 51d3 b1bd 2ded 6cbb
00000350: 76ed d3bd 42d3 353e 8dc6 2cbf 2ac1 e4bb
00000360: a8f1 253d dd81 d0bd dff3 ac3d a3d9 403e
00000370: 8953 5a3e 8732 09bd af01 763d 4ee0 4ebb
00000380: ce27 09be 317e 213e 3ce5 263e 5ff2 593e
00000390: 6e05 5a3e 6ab2 40bd 709e ce3c ffbd 193e
000003a0: dfa7 6ebd eee7 643e aeb6 7abc fa9b 493d
000003b0: 43b2 97bd 62bc 273e 6563 213e 0894 7dbf
000003c0: b274 8ebd 5084 593e 3a2a 03be eb8f 54bf
000003d0: 7092 00be 649d cf3d 8193 603e 3482 213e
000003e0: 0530 823d b894 66bd fcd0 0fbf a249 0dbd
000003f0: 7d25 273d 8ed6 e33d 591f 133e 8ee4 edbc
-0.014163683 0.06638167 0.058264077 0.0661694 0.056351084 0.22324398 0.13879421 1.0130825
0.25110036 0.022977073 0.15438789 0.05041001 0.08790946 -2.2069497 -0.13579248 0.19552667
0.13039008 0.27765936 0.008781802 0.2401684 0.14846475 0.117943205 -0.21838126 0.12240434
0.007973526 -0.09531959 0.100996174 -0.056224942 -1.0756273 0.035806414 0.13573301 -0.009620512
0.15190758 0.09486529 0.16819054 0.2171242 -0.19195032 -0.003591084 0.1969345 -0.045195486
0.12137029 0.004536681 -2.614259 0.16978985 0.093954846 0.11325167 -0.9692592 -0.029716706
0.05831853 0.13326912 0.16622601 -0.11887727 0.29063973 -0.38413498 -0.23676668 0.3390372
-0.09372531 -0.0033931439 -0.05209141 -0.076787554 -1.2400107 -0.047131486 -0.08977488 -0.7047674
0.0021119432 -0.009054118 -0.042057164 -0.017908664 0.008433102 0.029122008 -1.2182753 0.089359015
0.038848016 -0.022485776 0.01449797 0.20234312 0.22522958 0.14397027 0.08294273 -0.0068822317
0.18444578 0.005967005 -0.7663674 0.17656498 -0.054177355 0.2701604 -0.94602185 0.23883452
0.07495928 -0.09717194 0.09840457 0.22176644 0.042614967 -0.023825757 0.055192504 -0.00024856307
-0.0781519 -0.0098308055 -0.0378689 -0.0103397835 0.16907847 -0.026924124 0.0362125 0.31691876
0.111685365 0.28097704 0.29510456 0.03041195 0.06722435 0.29951903 -0.49791038 -1.3792651
0.14923273 0.1968831 0.099495605 -1.841505 -0.06764944 0.26710975 0.10160355 0.08611763
0.34177217 0.19520292 -4.3407254 0.080106676 -0.35400638 0.04323391 0.30172783 0.08836836
0.063174464 0.10601271 -0.080850065 0.1625972 0.030181464 0.19541283 0.11377387 0.5764559
-0.11134142 0.012344225 0.16934195 -0.044461384 0.21100321 -0.29711664 -0.07602863 -0.03500546
-0.102449685 0.23421337 -0.0026881027 0.14996625 -0.048091378 0.14712952 0.28020608 -0.07985792
-0.0956029 0.16759303 0.00261032 -0.12889074 -0.41724962 -0.20724429 -0.066057496 0.0428768
0.12142887 0.05967602 0.16104594 0.08775495 -0.13586223 0.12835497 0.21977146 0.07680413
0.16865376 0.16988063 -0.9067474 -0.13632417 0.21925095 0.13660938 -0.62384415 0.006354978
0.047654014 -0.075738244 0.15771073 -0.12087606 0.12470269 -0.08851699 0.08756094 0.03351363
-0.024697289 0.19642587 0.050834466 0.01707026 -0.04683564 0.05504653 0.21480824 -0.42043036
0.17155755 0.10269134 -0.023129998 0.27403036 0.051099114 0.19716136 -1.103903 -0.06310175
0.09008172 0.06479678 0.029511683 0.050707676 0.21486181 0.19399716 0.061564792 0.147515
0.3040734 0.19721603 -0.086828835 -0.003615211 -0.103480265 0.1775637 -0.67490464 -0.0069810348
0.040513664 -0.101810195 0.08444952 0.18833022 0.21320929 -0.033495452 0.0600602 -0.0031566801
-0.1339409 0.15770794 0.16298383 0.21283863 0.21291134 -0.04704515 0.025222033 0.15013884
-0.058265563 0.22354099 -0.015302343 0.049221016 -0.074070476 0.16380456 0.15760572 -0.99054
-0.069558516 0.2124188 -0.12809077 -0.830321 -0.12555861 0.10137442 0.21931268 0.15772325
0.06356815 -0.056294173 -0.5617826 -0.03449405 0.040807236 0.111249074 0.14367427 -0.029039647

value_stream.0.bias f4 [64]
00000000: 0cb4 d33e 2de7 bb3e e1ad 27bd 7203 d2bb
00000010: 646f 89bc c2c1 d13e 471f c63e ddf9 ae3e
00000020: cd01 b0bc 461c 8dbc 8567 be3e 4ab9 683a
00000030: 5b21 28bd ba88 4abc ac47 df3e bc9c c53e
00000040: 2c98 aa3e 8204 533e 3aab 2fbd 43e0 d93e
00000050: 217a 3fbd 5e2a cd3e 5648 cf3e e52f 4abd
00000060: 4f30 c23e 0b57 c13e 7d14 c53e cbcd b1bc
00000070: 4a30 5dbd 6e1b d73e 1511 89bd bb7e c23e
00000080: 9baf 65bc 8c83 91bc 0f65 69bd 75a5 c13e
00000090: 3e7c a5bd b1ad 81bd 01ce d73e d996 d63e
000000a0: 1098 b83d 3eb3 bd3e cede cf3e ea1f debc
000000b0: a0f7 06bd 7847 90bc f5da 0fbd 48f6 cd3e
000000c0: c50a d53e 0c1b 96bd 7357 bd3e 8fd5 38bd
000000d0: 4650 723c 5d65 ce3b c67b ca3e 243f 48bd
000000e0: aebc aabd 8d54 5ebd dac8 a2bc 81a1 cb3e
000000f0: e2c1 da3c 769e 3abc e663 02bd bf52 69bd
0.41348302 0.3669981 -0.04093731 -0.006409102 -0.016776748 0.40968138 0.38695738 0.34175006
-0.021485234 -0.017225396 0.37188354 0.0008877708 -0.041047435 -0.0123617 0.4360937 0.3859614
0.33319223 0.20607188 -0.042887904 0.4255391 -0.04674733 0.40071386 0.40484875 -0.049362082
0.37927482 0.3776172 0.38492194 -0.021704575 -0.05400113 0.42013115 -0.06692711 0.37987313
-0.014018918 -0.017762922 -0.056981143 0.37821546 -0.08080338 -0.06331957 0.42149356 0.41911963
0.090133786 0.37050813 0.40599674 -0.027114827 -0.032950997 -0.017612204 -0.035120923 0.4022696
0.4160978 -0.073293775 0.3698078 -0.04512554 0.0147896465 0.0062987045 0.39547557 -0.04888834
-0.08336769 -0.054279853 -0.019871164 0.39771655 0.026703779 -0.011390319 -0.03183355 -0.05696368

value_stream.2.weight f4 [1, 64]
00000000: a52d d63e 4faf 303e 3333 7bbe 67d8 7a3f
00000010: ffa3 32be c9af c53e 27a3 c83e fe76 df3d
00000020: eab6 62be 6f6f c4bd f69a 453e 03a3 5ebf
00000030: 2566 bdbd ccb7 67be ac42 6d3e fb4c bc3e
00000040: dc21 ab3d 1e34 a2bf 976e d0bd fbff f63e
00000050: f55e 52be 0a4b a23e 7496 be3e 1c41 15bd
00000060: 8b05 8c3e c51c 7e3e 95e0 a03e 5e8d c1bf
00000070: 2840 07be 8f2f cc3e b0c1 c43c d11f 893e
00000080: ce1a 34bd a4a4 35bd a7df a4bd 3849 193e
00000090: 0d09 32bd 4df8 babc 5d97 e63e 019a ea3e
000000a0: 6f68 2fbf 3a83 6c3e 2613 b53e b524 2bbe
000000b0: 26a4 37bd 40d8 efbc ed61 5bbe 007e 003f
000000c0: 6261 aa3e 30c4 6bbe 8be6 bd3e a214 cebd
000000d0: 3a42 28bf cf1c 30bf 8ef8 803e 6736 0bbe
000000e0: 6cc5 28bc 91fb 18bf a326 39be 27b3 ca3e
000000f0: aa43 3bbf 600a 46be 4c48 87bd 4fe4 bbbf
0.418317 0.17254375 -0.2453125 0.97986454 -0.17445372 0.38610676 0.39186975 0.10911368
-0.22140089 -0.09591567 0.19297394 -0.86967486 -0.09247998 -0.22628707 0.23169965 0.3677748
0.083560675 -1.2672155 -0.10177343 0.48242173 -0.20544036 0.31697875 0.37224162 -0.036439046
0.2734798 0.24815662 0.31421342 -1.5121267 -0.13208067 0.39880034 0.024018139 0.26782086
-0.043970875 -0.044346467 -0.08050471 0.14969337 -0.043465663 -0.022823477 0.45037356 0.4582062
-0.6851873 0.23096934 0.35366172 -0.16713221 -0.04483428 -0.02927792 -0.21424074 0.5019226
0.33277422 -0.23024058 0.37089953 -0.10062529 -0.65726054 -0.6879396 0.25189632 -0.13594972
-0.010300975 -0.5975886 -0.18081145 0.39589807 -0.7315012 -0.19339895 -0.066055864 -1.4679049

advantage_stream.0.weight f4 [64, 128]
00000000: 1131 d13e 76a9 ee3c 0448 08be 335e a63b
00000010: 96ed 0d3e a030 6cbc fdcb 493e 1637 1f3e
00000020: 61f9 adbd 7d5e 23be 86eb 2b3c f643 9a3d
00000030: 04db 7d3e 151c 833e 2d84 ad3d 6fbd e3bd
00000040: a2b8 f0bd a272 82be 3d2f 61be b835 2c3e
00000050: c7e6 053e 1d47 f3bc e7e5 e73e 815f 35bd
00000060: 0089 303e a0b8 37bf 29c7 d73e 4968 d03d
00000070: b5f6 9b3e 4a2e 42bf a910 f33d bd8d cf3d
00000080: 3b8a 0c3e 0557 21bd 29a5 dcbf 4580 5a3e
00000090: c069 38bf 1e3d 8fbe 0ab2 e23d 50bb 063a
000000a0: 691f 003e 358b e43d 2e2f a5bd 1380 a03e
000000b0: 427a 173e 8116 2bbf 1125 acbd 0093 083e
000000c0: 89b6 673e 85d5 8ebb db82 923d 100b b5bc
000000d0: 015b db3d b880 fe3e eea1 bd3c 56f8 b63e
000000e0: dee9 1dbe 45f0 3c3d eb53 123d 8a24 58bc
000000f0: 1e5a 263f 09de 873d 5af2 a63e 5abb 093e
00000100: 72c8 8ebe d717 183e d210 c5be de92 b4bf
00000110: 54b2 5abe 4fd7 993e 6478 48bd 34b9 973e
00000120: a852 a7bd 7296 debd 8778 803e d0a3 d5bc
00000130: aa58 fcbf 15d1 a33e 1e78 13be 2262 24be
00000140: df3d b83e 74f6 eb3e 168f 0a3f d9dd abbe
00000150: f22c 303e 197b 613e 1b48 293e 5900 b83d
00000160: abb3 d33d e6f6 b33d 95c4 be3d 4ecd 99be
00000170: 3a66 eb3d 71fb 2c3d 89d1 cebd 296e 493d
00000180: ec77 153e 0831 e0bd f725 143d d4f8 28bd
00000190: c83b 10be 7fda cd3d 30cb 24be b055 6d3e
000001a0: 437d 0d3e 6e92 4b3e c94e 493c 7014 35c0
000001b0: c8ef 1abe 5e5a a33e eee7 d43e 2df9 9cbe
000001c0: be34 0ebe da49 a6bd f6db edbd e82b 913d
000001d0: d059 263e 673a ca3e 0642 213e 0e63 473e
000001e0: 5ac8 b8bf c9b3 563d fa91 403e 49a2 a9bd
000001f0: 281c 213e f401 60bd 99ca d53c f580 6b3c
00000200: 28dc 14be d052 9a3c 8e5c 243e 3537 253e
00000210: 2b62 2fbd 2013 3c3d 3490 27be f348 e5bd
00000220: 9767 013e c4ef dc3c 36d8 273d 130b dd3c
00000230: e7a3 9dbd 3a88 143e bbed 363e c338 8b3d
00000240: d009 2a3e eefd 4f3d 7134 043e 74db efbd
00000250: e81f 6d3d 560d 06be 8bd0 e6bc 7ca1 f9bd
00000260: 4c53 843d 9ddb 30be 7783 62bd 252d 82bd
00000270: f788 e53d fd88 01be 0c4a bdbd 56d4 133e
00000280: fe7e a83d 093a 0b3e 8b38 213e bb41 ddbd
00000290: e7e4 2e3d 3907 0dbe 283f 83bd a1e0 e0bc
000002a0: 1116 b5bd 488f 163d 822d ea3c eaa9 053d
000002b0: 6727 be3d 138c aebc 0086 0e3e c133 92bc
000002c0: 267d 033e b74d 113e b88c 223e 539b aebd
000002d0: a471 8bbd a58e 0fbe e31a 9fbd 4959 293e
000002e0: 40be 51bc 1217 d3bd e571 03be 86b9 0abe
000002f0: 2ee3 c7bd 802d 733d d048 b8bd 2056 88bd
00000300: bb7d 1bbe c686 2bbe f383 bfbd 4dde 28be
00000310: 7b3b 92bc 2c25 80bd 7aca acbd 1f11 ecbd
00000320: e85c 803d 59c0 a43d af88 1fbd 3e8e 843d
00000330: 4de5 1e3e 8742 66bd 823a d3bd 91b8 ec3d
00000340: f67c 39bd aaf9 8dbd 95fc e53d e7f9 553d
00000350: e53b f4bd 0ddf 2a3d 2fef 9d3d 67c1 2c3e
00000360: ac69 b8bd 3e00 b73d bb9e f5bc 20a7 6c3c
00000370: 80ab 2bbe cfab 24be c570 c03d bb6b 9fba
00000380: 77ca ac3d ab8d e4bd 27fd 063e 1579 8ebd
00000390: 9c73 f4bd aa22 1a3e 0b87 d4bd d72e d9bd
000003a0: 16c6 16be f1b7 983d 696b 76bc e385 1dbc
000003b0: 0030 713d c49a 4abd 0cda 023d eb38 c7bd
000003c0: a0ec 30bd 958b bf3d e48c 5a3d 6110 f83d
000003d0: c6b3 303e 8b2e f73d 3b9a 96bd 3748 15be
000003e0: cdf3 a2bd d79b a7bc df6c 2f3e 6e42 a73c
000003f0: 2b78 e7bc ff4d 063e 9122 893d 11c4 113e
0.40857747 0.02913354 -0.13308722 0.0050771474 0.13860163 -0.01441589 0.19706722 0.15548357
-0.08494831 -0.15954013 0.010493165 0.07532494 0.24790579 0.25607362 0.08472476 -0.11120116
-0.11753966 -0.25478083 -0.21990676 0.16817367 0.13076316 -0.029696995 0.4529259 -0.044280533
0.17239761 -0.7176609 0.42144135 0.10176141 0.3046166 -0.7585188 0.11868412 0.10134456
0.13724606 -0.03938963 -1.7237903 0.21337993 -0.7203636 -0.27976316 0.110691145 0.0005139606
0.12511982 0.11159364 -0.080656394 0.31347713 0.14792731 -0.66831213 -0.08405507 0.13337326
0.22628225 -0.0043589496 0.07153865 -0.022100002 0.10710717 0.4970758 0.023148503 0.3573634
-0.15421245 0.046127576 0.03572456 -0.013192305 0.6498126 0.06634147 0.32606775 0.13450375
-0.27887303 0.14852844 -0.38489395 -1.410732 -0.2135709 0.3004708 -0.04894294 0.29633486
-0.08170062 -0.10868539 0.25091955 -0.026079088 -1.9714558 0.31995454 -0.1440129 -0.1605306
0.35984704 0.46086466 0.5412458 -0.33567694 0.17204645 0.22019614 0.16531412 0.08984441
0.10337003 0.087873265 0.09314839 -0.30039448 0.114941075 0.04223198 -0.100985594 0.049177323
0.14596528 -0.10946852 0.03616902 -0.041252926 -0.14085305 0.100514404 -0.16093135 0.23177218
0.13817315 0.19880077 0.01228685 -2.8293724 -0.15130532 0.31904882 0.41583198 -0.30658856
-0.13887307 -0.08119555 -0.1161422 0.070884526 0.16245198 0.39497682 0.15747842 0.1947138
-1.4436142 0.05241755 0.18805686 -0.082829066 0.15733397 -0.054689363 0.026097583 0.0143740075
-0.14537108 0.018838316 0.16050932 0.16134341 -0.04281823 0.045916677 -0.16363603 -0.111955546
0.12637173 0.026969798 0.04097768 0.02698282 -0.076972775 0.14505091 0.17864124 0.06797936
0.16605306 0.050779276 0.1291063 -0.11711779 0.057891756 -0.13091025 -0.028175613 -0.12189004
0.064612 -0.17271276 -0.055301156 -0.06356267 0.112077646 -0.12649913 -0.09242639 0.14436468
0.08227347 0.13596357 0.15744226 -0.10803553 0.042698767 -0.13772286 -0.064085305 -0.027450861
-0.088420995 0.036757737 0.028586153 0.032632746 0.09284859 -0.021307027 0.13918304 -0.017846944
0.12840709 0.14189802 0.15873992 -0.085257195 -0.068087846 -0.14019258 -0.077688 0.16537966
-0.012801707 -0.10307135 -0.12836416 -0.13547334 -0.09760128 0.059369564 -0.08998263 -0.06657052
-0.15184681 -0.1675063 -0.09351339 -0.16491051 -0.017850628 -0.0625709 -0.08437057 -0.11526703
0.062677205 0.080445 -0.03894871 0.06472443 0.15517159 -0.05621579 -0.10313894 0.11558641
-0.045285188 -0.06932385 0.11229817 0.05224028 -0.119254865 0.041716624 0.07711636 0.16870652
-0.0900453 0.08935593 -0.029982915 0.014444143 -0.16764641 -0.16081165 0.09396509 -0.0012162843
0.084370546 -0.111598335 0.13182507 -0.06956688 -0.11936113 0.15052286 -0.1037732 -0.10604637
-0.14724001 0.07456959 -0.015040257 -0.009614441 0.058883667 -0.049464002 0.031946227 -0.09727653
-0.043194413 0.09352795 0.05335702 0.12112499 0.17256078 0.12069424 -0.07353636 -0.14578329
-0.079566576 -0.020460052 0.17131375 0.020417418 -0.028255543 0.1311569 0.06696046 0.1423495

advantage_stream.0.bias f4 [64]
00000000: 2fb3 193e 4e8a a8ba f8c1 f83c c1d3 533e
00000010: 5a6c f83c 1568 933d 1f1c d73d 0a94 c13d
00000020: 30f2 eebc 4918 3dbc 59b6 043e 3f96 57bc
00000030: 1566 d1bc 207c 0d3d ba4f 073e c528 0d3d
00000040: 178d 703d 97c4 e5bb 0ec9 19bd 5719 c2bc
00000050: 9178 a7bc 213c c5bc 063f 5e3b 14d7 13bd
00000060: e32c 10bd 961a 39bd c2d8 6ebc 9a36 f1bc
00000070: 57b1 a33d febf 42bd 31fb 923d a5de 85bb
00000080: 5132 833d b593 81bc 147f cd3c d33a e23d
00000090: fdbc dc3c 6c06 853d 6ee9 613e 1756 41bd
000000a0: 05fd 4b3d 09f8 af3d aba8 22bd 40d4 d53d
000000b0: 1819 993d f7b6 763e bfd2 b63d db1a 7b3d
000000c0: 0941 25bd 2c1e f83c af84 d23d dbef 933d
000000d0: 11a4 bf3d e58c 12bd 33c0 05bc a03e 263e
000000e0: 26d9 973d 5a6f 8b3d 602a 233e 1a78 913d
000000f0: e963 8dbd c649 bfbc 3990 63bd 1996 a43d
0.1500976 -0.0012858601 0.030365929 0.20686246 0.030325104 0.071975864 0.105034105 0.09452064
-0.029168218 -0.011541435 0.12960185 -0.01315838 -0.025561372 0.034542203 0.13214007 0.03446271
0.058728304 -0.0070119607 -0.037545256 -0.023693724 -0.020443233 -0.024076523 0.0033912077 -0.036093786
-0.035199057 -0.04519137 -0.014578046 -0.029444981 0.07992809 -0.04754638 0.07176817 -0.004085379
0.064060815 -0.015817503 0.02508501 0.11046376 0.026945585 0.064953655 0.22061703 -0.047201242
0.049801845 0.08592231 -0.039711636 0.10440874 0.074754894 0.24093233 0.089269154 0.06130491
-0.040345225 0.030287825 0.10279214 0.07223483 0.09357465 -0.0357789 -0.0081635 0.16234827
0.07414465 0.06808348 0.15934134 0.07102986 -0.06903822 -0.023350608 -0.055557463 0.08036441

advantage_stream.2.weight f4 [2, 64]
00000000: f453 a4be 177d 863d ba55 583e 0839 083f
00000010: 048f 61bf 2a0f bbbe 466b d3be a663 1b3f
00000020: 87aa 8f3e 1bea 6a3f 2b25 033f 3556 2c3e
00000030: 79f1 093e b1aa 86bd 78d4 0ebf 5562 a63e
00000040: 5e2b 4b3f 22b7 893f 0c20 30bd adff 7bbe
00000050: 52d1 38be cc02 f4bd a699 733e 8b60 263d
00000060: 9ced 5fbe 2a57 a33d f373 173e eeac fa3d
00000070: ebd4 9fbe 33e9 16bd 5fe4 f03e 1b4d 843e
00000080: 8c16 eebd 33bc 0dbd 80cb f83c 8aae 16bf
00000090: 340c 4d3f a616 703d 3f19 1a3f c428 a23d
000000a0: f2e9 6f3c aaca e8bc 024a 053d 01ac 7c3f
000000b0: 1cd3 833e 6140 c73e 15ab 89bd 2fc2 c2be
000000c0: 640d 913d 8306 2e3e 0bf2 fcbe fa76 aabe
000000d0: ec53 5dbc 7856 333e 0f31 97be 7238 8fbf
000000e0: e043 843d f7f1 9a3e 8779 97bf 3d0d 7a3f
000000f0: 358d 9bbc 8c24 4a3e 155e 643f c52c 583b
00000100: 5711 573f a594 82be 86ac 3dbe 8acc 43bf
00000110: f268 563f 7036 9d3e be39 743d 0e9e 96be
00000120: 7fe7 ae3b 4716 60bf ad3c 08bf 43b1 4cbe
00000130: bb10 193e 6793 cb3d 740d 093f 418c 98be
00000140: 0a87 64bf 1689 92bf 14bf 02be 08c3 573e
00000150: e47c 25be 007d 973d b8ed 1cbd 9fd7 d8bd
00000160: c97c 293e 7897 e13d 60fe 043e a03a d83d
00000170: fdd8 b63e a808 033e b314 ecbe 26b2 e9bd
00000180: bc19 bb3e ef95 933e 76c0 d4be 3860 333f
00000190: 7c39 5fbf 8af8 d03e 7db5 0dbf 4719 563d
000001a0: fe84 753e e679 e73e fbff 343d bf5f 24bf
000001b0: 99ec 70be 4c0c 59bf a684 8e3e fc10 093e
000001c0: 6d9a 4bbe 0aba f3be 1a45 80bc 72d6 773e
000001d0: d048 cf3e 56e6 733e e679 97be 7797 7e3f
000001e0: fd17 c63e 6cb8 0cbf 9db9 9c3f d933 89bf
000001f0: 0bc6 0abe 298b 3cbe 93bf 13bf 42d9 0bbe
-0.320953 0.06566828 0.21126452 0.5321202 -0.8810885 -0.36535007 -0.4129278 0.60698926
0.2805979 0.91763467 0.5122859 0.1682976 0.13471021 -0.065755256 -0.5579295 0.32496896
0.7936305 1.0759013 -0.042999312 -0.24609251 -0.180486 -0.11914596 0.23789081 0.040619414
-0.21867985 0.079756096 0.14790325 0.12240015 -0.3121713 -0.03684349 0.47049233 0.25840077
-0.11625394 -0.03460331 0.030370474 -0.58860075 0.80096745 0.05861535 0.6019477 0.07917932
0.014643179 -0.02841695 0.032541282 0.9869996 0.25747 0.38916305 -0.067220844 -0.38038775
0.07082632 0.16994672 -0.49403414 -0.33293897 -0.013508778 0.17513454 -0.29529616 -1.1189101
0.06458259 0.3026273 -1.1833962 0.9767645 -0.018988231 0.19740504 0.8920606 0.003298567
0.84010834 -0.25504032 -0.18522844 -0.76483977 0.83753884 0.30705595 0.05962538 -0.2941746
0.005337655 -0.8753399 -0.53217584 -0.19989495 0.14947788 0.09940224 0.5353615 -0.29794505
-0.89268553 -1.1448085 -0.12768203 0.21070492 -0.16160923 0.07396889 -0.038312644 -0.105880015
0.16551508 0.110152185 0.12987661 0.10558057 0.35712424 0.12796271 -0.46109542 -0.11410932
0.3654307 0.28825328 -0.41553086 0.70068693 -0.8719709 0.4081462 -0.55355054 0.0522702
0.23976514 0.4521019 0.044189434 -0.64208597 -0.23527755 -0.8478439 0.27835578 0.13385385
-0.19883128 -0.47602874 -0.01565795 0.24202898 0.4048524 0.23818335 -0.2958519 0.99449867
0.38690177 -0.54968905 1.2244145 -1.0718948 -0.1355211 -0.1841246 -0.57714194 -0.13657096

advantage_stream.2.bias f4 [2]
00000000: de1a 223d de1a 22bd
0.039576404 -0.039576404

exp_avg f4 [128, 4]
00000000: 4463 feba 19a6 3bbb a03f 4d39 8057 dc38
00000010: 3e72 c239 fac5 3339 6095 ebb7 450a 3cb9
00000020: b638 0f3a 05c5 09bb 7aac ef39 7b31 813b
00000030: b4c9 2fb9 d1a2 713c c6c9 1e3a 17c7 f7bb
00000040: d1e4 783a d801 32bb 54ea dcb9 628f cb3a
00000050: caea 73b9 e749 0aba f354 9838 1a90 413a
00000060: 0400 0080 0400 0000 0400 0000 0400 0000
00000070: 1766 3b3a 4b34 263b 1815 4239 d63d 33bb
00000080: 382c 843b d807 bd3b ae33 6bba f73e 55bb
00000090: 08bd 193b 5c9a 223c 34c5 37ba 8ee7 31bc
000000a0: b39c 9fbb b4ed a4bb 4d5c 863a b62f b63b
000000b0: d982 a2b9 1992 f73a 3613 9439 d4ea 93b9
000000c0: 9926 77b9 1816 a7b9 0eed 41b8 bcda 2ab9
000000d0: 644a b8ba 4e06 2a3b c40a f739 2421 7fbb
000000e0: 0400 0000 0400 0000 0400 0080 0400 0080
000000f0: 8468 843a 0828 9e39 e027 0fbb 4f34 94bb
00000100: 3127 1d3a 8b83 9d3c 0f5a f239 e720 34bc
00000110: 91aa 393a 861c 17bb 34af cfb9 9d6d 0337
00000120: 9f02 3bbc 193b 7cbc 0d47 313b 635f 8d3c
00000130: 543d b0ba 2538 a13b 201c 8d38 790a 26bb
00000140: fa3e 84bc 35d0 b0bc 5b2b 743b bcdf c23c
00000150: 8186 d43a 5466 92ba 23fb 853a 65fd e43b
00000160: 8ca6 99ba 511e 09bb 7d91 a7b8 60ea 943a
00000170: ac8e 50bb f746 093c 3023 8e3a fc7e 4dbb
00000180: 6400 c93a f0f4 c9b9 f076 2fb9 d287 ad3b
00000190: 0400 0080 0400 0080 0400 0080 0400 0000
000001a0: 0400 0080 0400 0080 0400 0000 0400 0000
000001b0: 84d2 00ba f4ea cab9 a4d9 8b39 d6c1 173a
000001c0: 3078 b33b 860d c73a 8387 26ba 06ef 7c3a
000001d0: 0400 0000 0400 0000 0400 0080 0400 0000
000001e0: 7109 abba dee0 38bb d0e4 4fb8 3648 f33a
000001f0: fc6d c6b9 fa9e 45bb f0b0 04bb 1677 b13b
00000200: 2756 323b c480 593b 7412 14bb 9250 cbbb
00000210: 3a6d 7bb9 3c23 99b9 9c77 d8b6 644b 6739
00000220: b6a9 5d3a c1bd 4ebb 4cd7 243a 2544 a13b
00000230: 8dff 4a3b a6d7 8f3b e978 7038 26b2 d9b9
00000240: 76c7 9939 1db1 ab3a d61b 96ba 88f0 8a3a
00000250: a87b b9ba acf6 3c3c ea0d a43a ea0f 9bbb
00000260: 05f3 c73a ac5b 0dbb c818 89b9 584a 053c
00000270: 5bb5 b8b9 51db e1ba fc72 2839 f97b 433b
00000280: f130 e2b6 7f3e 6eb8 6ce0 d535 a5f9 85b8
00000290: 1a72 0eba b03f 46b9 5421 8ab8 2c8d 29ba
000002a0: 4450 9c3a cb69 17bb b0ee 6b39 c394 783b
000002b0: 0400 0080 0400 0080 0400 0080 0400 0000
000002c0: 802b c438 64ae 3cbb f946 7139 525e 773b
000002d0: 2d7c 0fb8 1bbf 04b8 16d1 43b6 4b8d 6bb7
000002e0: b166 10b9 27a6 9239 8d9f a437 38f1 ffb8
000002f0: 9040 8db9 65e2 363a fd7e 1139 42f8 3eba
00000300: 9db1 e0bb ba41 b1bb 604b 82ba 6343 cabb
00000310: 7cde aebc c6d3 eebc 5b40 9f3b 9018 033d
00000320: 6187 bb3a 3a60 d4b9 709b eb38 d423 303b
00000330: 0400 0000 0400 0000 0400 0080 0400 0080
00000340: 8812 263b 8468 e4b9 3ecd caba a1c9 8a3a
00000350: 0c59 8b3a e22f a5b8 fac9 a5ba b1d7 00bb
00000360: a3df c03a 036c 0a3c c0f6 ba37 38ff c3bb
00000370: bca8 6db9 ca78 56bb b85b 94ba 089f ab3b
00000380: 4e93 0639 035a 30ba 74ec 123a de48 473b
00000390: cdbd 8aba f26e b73b d4d5 a739 3fda bebb
000003a0: c8b5 00bc 81f0 40bc 3462 fc3a 3ac2 453c
000003b0: 255e ca39 a49f 6cba 5008 b2ba 682c 09bb
000003c0: 21a3 cabc 534c 0dbd 05ea b83b b27c 193d
000003d0: 2c39 16b9 a338 763a e0de 95b9 2004 0539
000003e0: 6ffe 453b d76e c53b e7d1 92bb a76a aabb
000003f0: cc04 413a adea 8039 4059 79b9 28fc 2e3b
-0.0019408246 -0.0028632937 0.00019574026 0.000105067156 0.0003708768 0.00017144522 -2.8083741e-05 -0.00017932903
0.00054634677 -0.0021021974 0.00045714137 0.003942666 -0.00016764441 0.014748291 0.0006057288 -0.007561575
0.00094945455 -0.0027161743 -0.00042136258 0.0015530402 -0.00023261752 -0.00052752945 7.263748e-05 0.00073838385
-6e-45 6e-45 6e-45 6e-45 0.00071486965 0.002536076 0.0001850914 -0.002735009
0.0040335916 0.0057687573 -0.00089722394 -0.003253875 0.0023458619 0.009924497 -0.00070102816 -0.01085843
-0.004870975 -0.0050332192 0.0010250896 0.005559887 -0.00030996537 0.0018888145 0.00028243073 -0.00028212985
-0.00023570134 -0.00031869183 -4.623556e-05 -0.00016293948 -0.0014060256 0.00259437 0.00047119532 -0.0038929665
6e-45 6e-45 -6e-45 -6e-45 0.0010101949 0.00030165934 -0.0021843836 -0.004522837
0.00059949147 0.019227764 0.00046224936 -0.010994173 0.00070826063 -0.0023057773 -0.00039612653 7.83373e-06
-0.011414199 -0.015394949 0.0027050406 0.017257398 -0.0013446012 0.004920023 6.7286426e-05 -0.0025335832
-0.01614331 -0.021583656 0.0037257287 0.023788325 0.0016214402 -0.0011169412 0.0010221939 0.006988215
-0.0011722608 -0.002092261 -7.99028e-05 0.0011361353 -0.003182332 0.008378736 0.0010844227 -0.0031356206
0.00153352 -0.000385202 -0.00016733608 0.005295732 -6e-45 -6e-45 -6e-45 6e-45
-6e-45 -6e-45 6e-45 6e-45 -0.0004914182 -0.00038703496 0.000266743 0.00057890767
0.005476974 0.0015186525 -0.000635259 0.00096486544 6e-45 6e-45 -6e-45 6e-45
-0.0013049078 -0.0028210203 -4.9565744e-05 0.0018560949 -0.00037847448 -0.0030154572 -0.0020247065 0.0054158075
0.0027211995 0.0033188323 -0.0022594007 -0.006204673 -0.00023977915 -0.00029208686 -6.451226e-06 0.00022057962
0.000845577 -0.0031546208 0.0006288185 0.0049214535 0.0030975074 0.004389721 5.7333065e-05 -0.00041522196
0.00029331044 0.0013099049 -0.0011452388 0.0010600248 -0.0014151232 0.0115334205 0.0012516354 -0.0047321217
0.001525492 -0.0021569533 -0.0002614914 0.008135401 -0.00035230335 -0.0017231499 0.00016064564 0.0029828532
-6.7410224e-06 -5.6801826e-05 1.5935052e-06 -6.388434e-05 -0.00054338726 -0.00018906477 -6.5865606e-05 -0.00064678746
0.0011925776 -0.002310383 0.00022500264 0.0037930466 -6e-45 -6e-45 -6e-45 6e-45
9.354111e-05 -0.0028790468 0.0002300999 0.0037745428 -3.4209505e-05 -3.1649233e-05 -2.9178968e-06 -1.4039989e-05
-0.00013771166 0.00027971083 1.962462e-05 -0.00012204278 -0.00026941719 0.00069764844 0.00013875584 -0.0007284918
-0.0068571107 -0.0054094465 -0.0009940676 -0.006172584 -0.021346323 -0.029153716 0.0048599667 0.032005847
0.0014307314 -0.00040507485 0.00011234626 0.0026876824 6e-45 6e-45 -6e-45 -6e-45
0.0025340635 -0.0004356542 -0.0015472544 0.0010588655 0.0010631396 -7.876732e-05 -0.0012648695 -0.0019659812
0.0014715086 0.008448604 2.228783e-05 -0.005981352 -0.0002266494 -0.0032725804 -0.0011318838 0.005237464
0.00012834111 -0.000672728 0.0005604692 0.0030408422 -0.001058513 0.0055979425 0.00032012037 -0.005824357
-0.00785584 -0.011776091 0.0019255341 0.012070233 0.00038598586 -0.0009026474 -0.00135828 -0.002093101
-0.024735989 -0.034496617 0.0056431317 0.037472434 -0.00014326413 0.0009392595 -0.0002858555 0.00012685405
0.0030211469 0.006025176 -0.0044805887 -0.005200702 0.00073630805 0.0002458891 -0.00023779739 0.002670059
