CartPoleHighRewardIn2026/checkpoints/checkpoint_ep300_reward153.00.pt (torch, 421217 bytes, 33 tensors)

feature_layer.0.weight f4 [128, 4]
00000000: 36c3 003e 4a1b 1ebd 9cea b4be bdb8 3e3e
00000010: 3938 7eba fc1c 203d bdbb 953d deac 43be
00000020: bb36 efbd 08f3 c83c 3228 20bf 0337 03be
00000030: 271d 6b3d 882d 8cbd 455b 713e 76b8 68bd
00000040: 6823 363d bd0e 2bbd 7811 563f 0827 ef3c
00000050: cfd3 94bd 7ba6 863d 10dc e0be 4720 1bbd
00000060: 74c7 b63c d6c5 063c c504 2d3e 476f 843c
00000070: 281f 35bd da7c c83d a3a2 18be 3424 c83d
00000080: f504 febd a0d1 ef3d 0520 8d3e 186a f83c
00000090: 73bb 653e 1756 39bd 572f 64be 8352 f6bd
000000a0: e7ba 6a3d 3d0d 1dbe 7553 8fbe e6f1 b6bd
000000b0: d887 783e f425 873d 79f8 a33e 66c2 ca3d
000000c0: a7e3 2a3d ab28 2abd baf0 b73e 6e18 783c
000000d0: f74b c73d 1f26 293e dc53 e3be b71e 673d
000000e0: 0d50 3f3d d45e b4ba 18f0 6a3e a2b0 d1bc
000000f0: b3d0 6dbd 6c38 32bc 0560 943e 80ac 66be
00000100: bf2b 2d3d e380 a0bc c572 633e 0772 cdbc
00000110: b28e c5bd 1d07 cc3d 10d0 babe 6ffb c13d
00000120: ee4b dabb fb67 093b 196c 2a3f 8d76 c53d
00000130: ce42 26bc bcde 43bd 9509 463f 4552 cfbd
00000140: 7823 1e3c 9a65 743a 903c 34bf 035f 9dbd
00000150: 7651 c13d 103b 40bc ad35 093f dfa2 433e
00000160: f57b 433d 321c f6bc c393 25bf 294d 3dbd
00000170: e04f cebc 47de fbbc 937d d53e 396c 62bd
00000180: a2ff 253e 58ca 2d3d aea2 eb3c 9681 123d
00000190: 80b2 adbd e7c6 db3d 33d1 b5be f99f 693e
000001a0: 39d6 f63c 214a d0bc be87 513f 909d d33d
000001b0: a49a 44be 4232 833c 698c d7bd 6e0a 803d
000001c0: a3e6 d7bc f4ad 92bb 1cc1 cebe 65c0 20be
000001d0: 924a 2dbd 66c9 b53d 5c10 643c 0c2c fd3d
000001e0: cd76 453e ffe6 37be df54 d33e 1c69 853d
000001f0: e5ee 123c 2255 34bc 78a2 403f 8177 c23d
00000200: ea90 ad3c f04b 12bd ae8e 1f3e eb73 55bd
00000210: 5363 f33c 9fe4 a5bc d011 d2be 0434 0fbd
00000220: 647c 7dbd bbeb 86be 8be0 ddbe 0fc2 78be
00000230: 17e9 983d 4d6b 85bd 4419 503d 2455 f3bc
00000240: 1a62 d4bb 8202 233d b381 943e ec01 15be
00000250: e5ee c3bd 1420 d13d 1cbf 283f fdf2 cb3d
00000260: 38d5 0e3e 165a b8bd 9f01 513f d731 f8ba
00000270: 25aa 30bc 4be8 393d 56ca bb3e 6c90 92be
00000280: ae69 273e b48b ebbc 7da7 583e c8ef 35be
00000290: ab2f 423c a84f 803e bf02 863e ec8d 173e
000002a0: 5448 72be 1356 1fba 9a94 c6be 7b6e 9ebd
000002b0: adf9 2c3d 9b7e 833c 4e10 743d a68e 183d
000002c0: ed30 b4bd a59c 07be 1742 a03e 6366 2f3e
000002d0: b0b3 3f3a 24b3 0fbe a829 cebe ec77 10be
000002e0: 3eca 6c3e a25e 2cbe 13a4 893e 2e38 d7bd
000002f0: fb15 41bc c2d1 41be 401f a63e 4cd3 fabd
00000300: 584f f339 91a4 8e3b 0592 43bf 7529 dbba
00000310: f16e 723c eb1f 9bbb 7f13 5dbf 2fcd dcbd
00000320: f889 063e 1d4f 3dbd 7c9c 2e3f 921d 153e
00000330: 78b6 713c d359 f7bb d930 63be 891e 37bd
00000340: 4902 863d a7d9 dc3c 7fe7 5ebd 74f3 76be
00000350: e3cb b5bd 32af b33d 5db9 943e 3637 24be
00000360: 3fe2 023e ee19 e1bd 85ed 49be c724 003c
00000370: caff 48bc 8630 443d 2282 053f 747c 4c3e
00000380: 113c 9dbc 0a1a c6bd 9dab cb3d 51d7 4c3e
00000390: f943 023e 3384 cc3d ff37 f0be 52e9 df3d
000003a0: 311f ba3d a692 83bd c826 45bf fcf0 1fbe
000003b0: 614b 753d 3a9b 41bd 1994 c83e 6721 85be
000003c0: b94b 2c3c 02f7 50ba 66d1 4abf c5a8 99bd
000003d0: b319 0a3d 92ad 36bd 33db 453f b31c 203e
000003e0: 78dc ad39 5a2c b8bb 5516 213f a4e4 9d3d
000003f0: be7c a33b e03d 5cbd 5b70 d73d 7782 cfbb
0.12574467 -0.038600244 -0.35335243 0.1862516 -0.0009697709 0.03909014 0.07311199 -0.19108912
-0.11680361 0.024529949 -0.62561333 -0.12813954 0.05740085 -0.06844622 0.23569973 -0.05681654
0.04446736 -0.041762102 0.83620405 0.029193416 -0.07266962 0.065747224 -0.43917894 -0.03787258
0.022311904 0.008225879 0.1689635 0.016166342 -0.044219166 0.097894385 -0.14905791 0.0977253
-0.12403289 0.11709905 0.2756349 0.030324027 0.22434787 -0.045248117 -0.22283684 -0.120274566
0.05730715 -0.15337081 -0.2799336 -0.08932857 0.2427057 0.06599036 0.32025507 0.0990036
0.041721012 -0.04154269 0.35925847 0.015142543 0.09731286 0.16518448 -0.44399917 0.056425776
0.0467072 -0.0013761171 0.22943151 -0.02559692 -0.05806036 -0.01087771 0.28979507 -0.22526741
0.042278048 -0.019592708 0.2221175 -0.025078787 -0.096463576 0.09962294 -0.36486864 0.09471785
-0.0066618836 0.0020966518 0.66571194 0.096417524 -0.010147763 -0.047819838 0.7735837 -0.101231135
0.009652011 0.0009323001 -0.7040491 -0.07684138 0.094393656 -0.011732832 0.5359753 0.19105099
0.047725637 -0.030042741 -0.6467859 -0.046216164 -0.025184572 -0.030745639 0.41697368 -0.05527899
0.16210797 0.0424293 0.028764095 0.035768114 -0.08481312 0.10731297 -0.3551117 0.22814931
0.030131446 -0.025425972 0.8184775 0.10332787 -0.19199616 0.016015176 -0.10524828 0.06251989
-0.026355093 -0.0044763032 -0.40381706 -0.15698393 -0.042307444 0.08876304 0.013919916 0.12361917
0.192836 -0.17959212 0.4127569 0.06514189 0.00896809 -0.011006625 0.7524791 0.0949545
0.021187264 -0.03571695 0.15581772 -0.0521125 0.029710447 -0.020250617 -0.41029215 -0.034961715
-0.061886206 -0.26351723 -0.43335375 -0.24292777 0.07466333 -0.065146066 0.050805345 -0.029703684
-0.006481421 0.039797314 0.29005203 -0.14551514 -0.0956705 0.102111965 0.6591661 0.09958456
0.13948524 -0.090015575 0.816431 -0.0018935752 -0.010782753 0.045387547 0.36677808 -0.2862581
0.16348907 -0.02875314 0.21157642 -0.1776725 0.011852185 0.25060773 0.2617397 0.14800233
-0.23660403 -0.0006078195 -0.3878525 -0.07735916 0.042230297 0.016051581 0.05958586 0.037245415
-0.08798394 -0.13243349 0.31300423 0.17128901 0.00073128473 -0.1403318 -0.40266156 -0.14108247
0.23124024 -0.16832975 0.2688299 -0.10508762 -0.011785026 -0.18927673 0.32445717 -0.12247333
0.00046407687 0.004353114 -0.76394683 -0.0016720729 0.014796958 -0.0047340295 -0.86357874 -0.10781323
0.13138568 -0.046218026 0.68207526 0.14562061 0.014752977 -0.0075485497 -0.22186603 -0.044706855
0.065434046 0.026959253 -0.05441999 -0.24116307 -0.08876779 0.0877365 0.2904767 -0.16036686
0.12781619 -0.10991274 -0.19719513 0.007821268 -0.012268016 0.047897838 0.5215169 0.1996935
-0.019193681 -0.09672935 0.09944842 0.20004012 0.12721242 0.099861525 -0.46917722 0.10933174
0.090879805 -0.06424455 -0.770123 -0.15619272 0.05988634 -0.047267176 0.3917549 -0.26002046
0.010516101 -0.00079713773 -0.79225767 -0.07502893 0.033715915 -0.044599123 0.77287596 0.15635948
0.00033161393 -0.0056205215 0.629247 0.07709625 0.0049892357 -0.053769946 0.10519477 -0.0063326913

feature_layer.0.bias f4 [128]
00000000: f475 813c 9c6a 60be 1218 8fbd 84bc 4f3e
00000010: 993b acbd fd6e 083e d2a7 093e 51a1 433e
00000020: 5019 38be 7cf7 023e 24cf b5bd 47cd e23c
00000030: 206c c43d c274 b13d f49b 11bd ab38 52be
00000040: 9126 4a3e 75d5 2c3c 8ac9 0abe 2a70 093e
00000050: 899a 10be eb88 f8bd 901e a9bd 5d1e da3d
00000060: bceb a9be c1bc 32bc 1f8e 00be 8d3f 9b3d
00000070: cd25 24be 7382 08be 4b18 e5bd 496e 07be
00000080: cf0a 8bbd 78c9 68bd ade5 31be 2cd0 5fbd
00000090: f66c e9bd d6be c33d 2c0e 69bd e74e 66bc
000000a0: f9a5 a83d 6347 4dbe 5834 96be 9f36 f9bd
000000b0: a9fe 3bbe aee7 893d 0337 05bd ba2a d03c
000000c0: 7672 ebbd 3805 3abe c090 c9bd bed5 74bd
000000d0: 9872 44be 29ba 6e3c eec1 cc3d f0bf 2fbe
000000e0: b02b 19be 4587 a23d fe8b 39be 8bc9 b3bc
000000f0: 777f 1ebe 7970 02be 515f f7bd d7ce 953b
00000100: 5caf 1cbe 6733 0f3e cf91 57be 2448 cb3d
00000110: 8189 16be 2958 073e 6847 37be bd09 e23c
00000120: c34a e3bc aec9 2d3e d6a5 01be b016 07be
00000130: 09c2 02be 325c 943b 12c2 44be b491 bd3d
00000140: 1a32 36be 3e00 85bd 0631 ddbd 7ad1 05be
00000150: 2f7c 98bc e559 55bd be52 f6bd e97b 4a3d
00000160: 6255 b03a af17 4fbd e3c3 b8bd a859 07bd
00000170: 2506 11be 1b2c ae3d 1314 77bd cfd1 20be
00000180: 9a5e 83be e147 06be c84e 07bd c084 17be
00000190: 87b3 443c d16e 1e3e 7f11 24be cfe6 5c3d
000001a0: 0cde fa3c df37 30be e5da 37be d7d6 16be
000001b0: 3622 18be 7ec5 793d ab13 eb3d 32ac fa3d
000001c0: 966c 753c 4a80 08be e56f 493e 1508 92bd
000001d0: bfe7 b9bd fe60 b3bd f891 3f3e 0387 993d
000001e0: 1d47 1dbc 02c2 d93b 5ca7 1fbe 3947 36be
000001f0: 815b c13d 6834 d2bd 7b3b 8b3c c323 88bd
0.015803315 -0.21915668 -0.06987013 0.20286757 -0.08409805 0.13323589 0.13442925 0.19104506
-0.17978406 0.1278972 -0.088773996 0.027685774 0.09590936 0.08664848 -0.03554912 -0.2052943
0.19741274 0.010548939 -0.13553444 0.13421693 -0.1412145 -0.1213549 -0.082577825 0.106503226
-0.33187664 -0.01090926 -0.12554215 0.07580481 -0.16030045 -0.13331012 -0.11186274 -0.13225664
-0.06789171 -0.05683276 -0.1737277 -0.054641888 -0.11397736 0.095578834 -0.05689828 -0.014056898
0.08234782 -0.20046763 -0.2933681 -0.12168621 -0.18358864 0.067336425 -0.032523166 0.025410999
-0.11496441 -0.18166053 -0.09842062 -0.059774153 -0.19184339 0.014570751 0.09997927 -0.17163062
-0.14958072 0.07935957 -0.18119809 -0.02194669 -0.15478311 -0.12738217 -0.12078727 0.0045717764
-0.1530127 0.13984452 -0.21051715 0.09925869 -0.14700891 0.13217224 -0.17898333 0.027592534
-0.02774561 0.16971466 -0.12660918 -0.13192248 -0.12769331 0.004527592 -0.19214657 0.09256306
-0.1779255 -0.06494187 -0.10800366 -0.1306819 -0.018613903 -0.052087683 -0.120275006 0.049434576
0.001345318 -0.050559696 -0.090217374 -0.033044487 -0.141625 0.08504506 -0.06032188 -0.15705036
-0.25658113 -0.13113357 -0.033034116 -0.14796734 0.012005693 0.1547196 -0.16022299 0.053931054
0.030623458 -0.17208813 -0.17954595 -0.14730392 -0.148568 0.06097936 0.11478361 0.12239875
0.014979502 -0.13330188 0.1967159 -0.07130448 -0.09077405 -0.08758734 0.18708026 0.074964546
-0.009599474 0.006645442 -0.15591186 -0.17800607 0.09441281 -0.10263902 0.016996136 -0.06647446

feature_layer.2.weight f4 [128, 128]
00000000: 799e 33be 6cef d1bd b213 1cbe e381 af3e
00000010: d7eb 0c3e 9ea7 e0bd 637b 173e a5a7 9c3d
00000020: 1733 1c3e 6223 f0bc 383a 943d 8a2a 5c3e
00000030: 992a d23d 2d81 37be 9e6d 473e 4a5d 3ebe
00000040: 61e3 873e f222 5b3d 8c2b 773e 5693 c43e
00000050: 3d92 58bf 40be 5cbd 54f1 0c3e 9e76 253e
00000060: af24 c03b 4af4 ad3c 23cd 933d b1d1 573d
00000070: dd3e d9bd bd78 d5bd fbb1 963c e20a 203e
00000080: ad80 9d3d 9eef fdbd 337b 2fbe db38 3c3e
00000090: da37 e9bd 8460 6f3d 7959 563e 9174 3fbe
000000a0: 8f8e ec3c 2d01 fc3d 7e40 1dbe 4612 243e
000000b0: 1591 763d ffd9 633d 2b98 e33d dee7 1f3e
000000c0: fcef 71bf 3378 91bf e1f3 7c3d 3bef 0f3d
000000d0: cdb3 98bd 006c 0abe 5b91 263d a3f1 3cbc
000000e0: caab 8fbd 4140 8a3d 9afb 50bf d2d1 223d
000000f0: 42cd a6bf e05c 103e 6d51 2b3e 1c69 ad3d
00000100: 50b1 893d 47d9 acbd 5052 d3be 4eb5 843e
00000110: f10d 33bf dba0 b13d e477 de3d fced 163e
00000120: b443 4c3e 0507 01bd a9e6 ec3d ba02 0a3f
00000130: 9128 2e3f c8bd f73d 390c a63e 86dc 383e
00000140: bef9 303f 3300 533b 3368 66be b957 76be
00000150: 66fc 0f3e 53fd 833d cf29 3dbe f061 823d
00000160: 9469 673e e56d cbbd 05a6 d7bd f311 e43c
00000170: 0419 3bbc 2023 593c c50b 5f3e 0d4f 3dbe
00000180: 8d61 89bb 14b9 573e 38ab 55bc d5fd 673d
00000190: b95f 1d3e b73a 583d b48f 463e b5fe 8ebd
000001a0: 744a 1e3e 6eb7 81bf 893a c23e c0fd b3bf
000001b0: e507 833e b0c5 b7bd 9738 d03d d303 793d
000001c0: 8198 423e a2cb 42bf a0a9 c23d 18df 2ebd
000001d0: 4df8 553d 2b33 88be 7414 5d3e a522 81bd
000001e0: e140 57bd e49c d53a f524 f5be b442 f0bd
000001f0: 1625 563e c8ce 36be 94db 643e ea72 aabe
00000200: 168f 713c e727 9abd 2e1b 97bd 6820 dcbd
00000210: d166 733d 1144 c9bd 4ea6 483d ed6a ad3c
00000220: dc99 423d 1069 8c3d 0b0c 85bb 3ae1 babd
00000230: 15ff b73c 464a ce3d cde5 f63d ce54 28be
00000240: c2d1 ad3c a16d 96bd 02f0 e53d 5567 96bd
00000250: 30f3 3bbd a010 1b3d 3e13 0dbe 9069 633c
00000260: 4282 8e3d 1c24 87bd 09e9 1fbe 9842 40be
00000270: 0b53 02be f6c5 1fbe 405a 413d 534a 57bd
00000280: dc8c 58bd bfa0 bd3d 8cab f13b a806 12be
00000290: 3651 aebc 05a1 113d acd7 98bd 85fc 22bc
000002a0: 94f4 4cbd dd4e 07be b235 1bbe 7a12 d7bd
000002b0: a7f8 843d 1e7b e73d 3ddb fbbd ac32 8e3d
000002c0: d655 c8bd 727c 52bd 228f 6dbb ab4e 283d
000002d0: 6bb6 d13c a1fc 29be 1e2f 1b3c a927 2bbe
000002e0: fd97 ec3d 7450 d93d a2aa 22be 26d2 e93c
000002f0: 7ab3 ac3d 86d1 e6bd 17f0 073d c382 ddbd
00000300: f0b6 debd b330 b8bd 4500 85bd e8b2 15be
00000310: cbda 1c3c 2697 fa3d f9f4 863c a084 a2bc
00000320: 857c 36be 677b b03c 6833 c73d 5b4c 91bc
00000330: 4f18 173e 5847 e93d e8f4 443d 9dc0 2ebe
00000340: e2db 68bd 495f 93bd 782f 58bd 3be0 f8bd
00000350: 3fb5 98bd 8ff2 9fbd 7f3a 85bd c370 1ebe
00000360: 7dc5 02be e87e 3c3d 7e9a f23d 060f ed3d
00000370: e1e5 943d 53f9 39be ca06 6bbd 61e1 99bd
00000380: 8685 223d 151c 133e 9b96 953d e678 6f3d
00000390: 9113 d4bd 053c ce3d 297e 1ebe 9a95 14be
000003a0: 6b15 b13c aef2 c73d 3030 a23d 9a14 35be
000003b0: 4534 863d f391 9cbd e2a5 7bbc f5df d5bd
000003c0: 2328 0cbe 5935 35bd f3b4 85bc cca0 7c3d
000003d0: 8170 0abe b8d1 67bd c2fe 313d b20a acbd
000003e0: c5ea 0ebe 2d0e 50bc e944 f33c 505a 69bd
000003f0: 335a 2bbc 207f 023e d267 313d a6dc b83b
-0.17540921 -0.10250744 -0.15241888 0.34278783 0.13761841 -0.109694704 0.14793162 0.07649163
0.15253864 -0.029313747 0.07237667 0.21500602 0.10262031 -0.1792037 0.1947541 -0.18590274
0.26540664 0.053500123 0.24137706 0.38393658 -0.8459814 -0.053892374 0.13763934 0.1615853
0.005863748 0.02123465 0.07216861 0.05269021 -0.10607693 -0.104234196 0.018395415 0.15629151
0.076905586 -0.12399219 -0.1713684 0.18381064 -0.11387606 0.058441654 0.20932569 -0.1869681
0.028876571 0.12304912 -0.15356633 0.16022596 0.060196955 0.05562782 0.11113008 0.15615794
-0.9450681 -1.1364807 0.06175602 0.035140257 -0.07456169 -0.13517761 0.040665966 -0.01153222
-0.07015188 0.06750537 -0.81633914 0.03975088 -1.303139 0.14097929 0.1673028 0.08467314
0.06723273 -0.0843988 -0.41273737 0.25919574 -0.6994315 0.08673259 0.10862711 0.14739221
0.19947702 -0.031500835 0.115674324 0.5391041 0.6803065 0.12096745 0.324312 0.18052873
0.69131076 0.0032196164 -0.22500686 -0.24056901 0.14061126 0.06444802 -0.1847298 0.06366336
0.22598869 -0.0993307 -0.105297126 0.02784059 -0.011419538 0.013253003 0.21781833 -0.18487187
-0.004192537 0.21066695 -0.01304131 0.056638557 0.15368547 0.05279037 0.19390756 -0.06982175
0.15458089 -1.0134103 0.37935284 -1.4061813 0.2559196 -0.08973253 0.10167044 0.060794663
0.19003488 -0.7609197 0.0950501 -0.042693228 0.05223875 -0.26601538 0.21589833 -0.06305436
-0.052552108 0.0016297367 -0.47879758 -0.117314726 0.20912585 -0.17852318 0.22349387 -0.33290797
0.014743587 -0.07527142 -0.07378231 -0.107483685 0.059424225 -0.09827436 0.048986726 0.02116915
0.047510013 0.068559766 -0.0040602735 -0.0912499 0.0224605 0.1007276 0.1205555 -0.164386
0.021218184 -0.07345129 0.112274185 -0.07343928 -0.04588622 0.03785765 -0.13776872 0.0138801485
0.069584385 -0.06598684 -0.1561624 -0.18775403 -0.12726991 -0.1560286 0.04720521 -0.052561115
-0.05286871 0.092591755 0.0073751863 -0.14260352 -0.021278959 0.03555395 -0.07463011 -0.009947901
-0.050037935 -0.13213678 -0.15157202 -0.10501571 0.06492739 0.113027796 -0.12297676 0.06943259
-0.09781997 -0.05138821 -0.0036248644 0.04109065 0.025599679 -0.16600277 0.009471683 -0.16714348
0.11552427 0.10611048 -0.15885404 0.02854259 0.0843267 -0.11270432 0.033187952 -0.108159564
-0.10874736 -0.08993664 -0.06494192 -0.14619029 0.009573649 0.122358605 0.016474234 -0.019838631
-0.17820938 0.021543218 0.09726602 -0.017736604 0.14755367 0.11390561 0.048085123 -0.17065664
-0.05685032 -0.071959086 -0.052779645 -0.121521436 -0.07456445 -0.07809936 -0.06505298 -0.15472703
-0.12770648 0.046019465 0.11845873 0.11575131 0.072704084 -0.18161516 -0.05737952 -0.07513691
0.03967812 0.14366181 0.07304116 0.058464907 -0.103552945 0.100700416 -0.15477814 -0.14510193
0.021616658 0.09763084 0.07919347 -0.1768364 0.06552938 -0.07645025 -0.015359374 -0.10443107
-0.13687186 -0.04424033 -0.016321635 0.061676785 -0.1351948 -0.056596488 0.043455847 -0.084004775
-0.13956745 -0.012698692 0.029695945 -0.056970894 -0.010458517 0.12743807 0.0433119 0.0056415377

feature_layer.2.bias f4 [128]
00000000: 81d6 133e 88e5 16bd a5ee 4d3e 6862 133e
00000010: a17d b2bc c09d 563e 26a1 6d3e 628e 91bd
00000020: 5f8d 7c3e 9435 38bd 94f3 ab3d af96 32bd
00000030: 99a6 273e d889 a4bd 1be7 f9bd 967c 6c3e
00000040: d39c 8cbc 23c4 cabd 3cd2 613e fbd8 5c3e
00000050: ac60 cbbb e917 673e 39da 65bd cbc4 7e3e
00000060: 2d11 ffbc a554 513e 2900 403e d25b 04bd
00000070: 73d1 bcbd 79c7 5d3e 599e 6a3e 8c19 643e
00000080: 6761 0bbd 0ac8 323e e14c f73d be6e 563e
00000090: 993c 19bd 3fb1 693e 2666 5f3e b03a 6bbc
000000a0: 64ae 91be 1f19 a6bc 4dbc 213d f312 743e
000000b0: ffb5 583e 3dd5 d4bc 481d 05bd 049c 213e
000000c0: 0c7c d7bd f9bd 63bc 9550 5a3e 8af8 1dbd
000000d0: 8e63 573e 50ee 213e 3e68 ebbd b708 5f3e
000000e0: a2dc e9bc 0a5a 6c3e 4d57 2dbc 1261 44bd
000000f0: 8775 68bd afa3 ebbc dc90 e6bc fa59 aabd
00000100: 8c6d 5b3e d5e8 3abd c40e 9ebc 3fc5 423e
00000110: 5259 5c3e 566c 583e b379 cfbd c7f7 463e
00000120: 7c93 2dbd 6b24 03bc 714e 653e cc60 4d3e
00000130: 47ba 223e 9574 633e 6347 41bd ac83 c8bb
00000140: ce03 033e 06f5 683e 8f74 cfbd ad7a 393e
00000150: 04dd 0cbd ccec 5f3e fd7e 0bbe 6126 84bd
00000160: 4d90 773e 0000 0000 e51e 523e 20d1 653e
00000170: bca6 683e 5de7 4d3e e03d 7e3d 7f53 4e3e
00000180: c7ed 8fbd 71a6 763e 587b c83d 8c7e 603e
00000190: cc7c 7d3e 9756 08bd 9a64 8c3e 8e9e 633e
000001a0: 41f7 e6bc cf20 4f3e f52f 6b3e a768 733e
000001b0: 8a98 20bd 2a1b 603e 7fe0 c0bd b1b4 07be
000001c0: cb73 00bd 53e9 813e 0292 713e 05bf ccbc
000001d0: 7315 a2bc be1f 473e 3386 723e 6909 2c3e
000001e0: 31a9 673e 1502 673e c008 b7bd eb1d 673e
000001f0: 5617 ddbd 0182 54bc 29f3 793e 3eb4 7b3e
0.14437295 -0.03683999 0.20110567 0.14393008 -0.02178842 0.20958614 0.23206005 -0.071072355
0.24663304 -0.04497297 0.08396068 -0.043600734 0.16372146 -0.08034104 -0.12202283 0.23094401
-0.017164623 -0.09900691 0.22052854 0.21567146 -0.0062065925 0.22567715 -0.056116316 0.24879758
-0.03113612 0.20442446 0.18750061 -0.03231413 -0.09219637 0.21658124 0.22911967 0.2227537
-0.034028437 0.17459121 0.1207521 0.20940682 -0.037411306 0.2282152 0.2181631 -0.014357254
-0.28453362 -0.02027565 0.03948622 0.23835354 0.21163176 -0.025980586 -0.032498628 0.15782171
-0.10521707 -0.0139002735 0.21319802 -0.038567103 0.21034071 0.15813565 -0.11494492 0.21780668
-0.028547589 0.23081222 -0.010579896 -0.047944136 -0.056752708 -0.028764574 -0.028145246 -0.08317943
0.21428508 -0.045632202 -0.01929415 0.19020556 0.21518448 0.21135077 -0.10130634 0.19430457
-0.04237698 -0.008004288 0.22393204 0.20056456 0.15891372 0.22212441 -0.04718722 -0.006119212
0.1279442 0.22749719 -0.10129654 0.18113203 -0.034390464 0.21867675 -0.13622661 -0.06452633
0.2417614 0.0 0.20519598 0.22443056 0.22719854 0.2010779 0.062070727 0.20149039
-0.07027774 0.2408693 0.09789151 0.21923274 0.24754637 -0.033285704 0.27420503 0.22228453
-0.028194072 0.20227359 0.22967513 0.2377039 -0.039207973 0.21885362 -0.09417819 -0.13252522
-0.03136043 0.25373325 0.23590854 -0.024993429 -0.019785618 0.19445702 0.23684005 0.16800465
0.22623135 0.22559388 -0.08937216 0.22570007 -0.107954666 -0.0129704485 0.24409164 0.24580476

value_stream.0.weight f4 [64, 128]
00000000: d48b 00be 76dd 5b3d 5b9b 6a3d 9077 cd3d
00000010: 4cce a03d 9fdb 723e 1927 923d 7f93 41be
00000020: 6755 903e a957 86bc 1e0e 813d 734d a33c
00000030: 71a7 bf3b 1476 54bf a75f 40bf e3ea 523e
00000040: c0cb d03d 2d72 31bf e421 0ebd 6acb 783e
00000050: bed6 2e3e 4ef6 ca3d a3e4 f0be 48ee fa3d
00000060: 94e5 883c f64f 59bd 2560 e23c 0167 95bd
00000070: 51d4 0cbf 9ed9 5e3e 48e4 293e ddcd 2c3d
00000080: bea1 333e 5409 893d dc39 bc3d a9ca a63d
00000090: bc31 f1bd 0ff1 483d ee9f 003e 3193 5fbd
000000a0: 4b8a 91be 696d 713b b538 763e 0164 8d3e
000000b0: cdf4 16bc 6162 f2bb 5d67 eebd d59e d0bd
000000c0: fbc5 8dbe f7a1 0a3e 1115 153e 7ddc 09be
000000d0: 5236 4f3e ded1 3abd 5b69 b4be 65de 643e
000000e0: 5ca6 e5bd 4530 b43c 31fe 77bd 9cd4 ccbd
000000f0: e706 dbbe 691d 96bd b461 10be 60c7 00be
00000100: 5112 173e 1f52 193d f731 413d b2be b6bd
00000110: 73da 243c 3570 1dbd 985b 5abe a497 f2bc
00000120: 7d28 b7bb e8f6 cdbc b685 3ebd 131c 3a3e
00000130: 0739 3a3e c7ee 0e3e b614 6a3d f9e4 33bb
00000140: 384f 193e 85bd eebd 386c 0fbf 4ed2 463e
00000150: 59c9 8abd 0432 5e3e 016b 7cbd f310 bc3d
00000160: bc5d 853d 8c8c cabd 58fb 183b fbee 743e
00000170: bff9 4e3d 6ed8 a0bd f969 a63d 50cf e5bc
00000180: b351 26bd 2d14 0b3d 161a c9bd dbdf ecbb
00000190: 3ff8 343e 9118 ffbc 1523 213e 0806 903e
000001a0: 2611 803d 7561 713e 82dd 7e3e 074e 1b3e
000001b0: ff4d 333d 6939 823e 3940 1bbf 83b0 a3be
000001c0: 3137 2d3e fe65 593e db54 203e 973b 023d
000001d0: 8894 b4bd 2b4c 193e b044 e63d 44a3 603d
000001e0: b217 9e3e f844 2b3e 652f 59bf 2751 aa3d
000001f0: 1267 84be 6326 703d 78e5 913e 983f c43c
00000200: a350 45bd 106e c93d a8d1 cdbd 9fb2 473e
00000210: 3d5b 233d 99d1 3d3e c99b c73d 025b 1c3e
00000220: 32b8 a0bd c16a a5bc f39e 143e 2a74 85bd
00000230: 7877 6b3e 3b54 01bf 49ad a5be 1d23 bbb9
00000240: 182a f8bd 1299 37bf f389 fcbc 2be8 313e
00000250: b48a 18bd 5491 1c3e 47d0 84bd bbca ccbc
00000260: c7bd b2bd a379 3f3e 9411 52bc 3bea 26be
00000270: 36c4 00be 4ee0 dabd ca1c b8bc 5dac ab3d
00000280: 4258 0f3e 5060 3a3d 698f 973d 7645 e83c
00000290: 69f5 b1bd b412 273e c6a0 3e3e aae9 8d3d
000002a0: 3012 4bbe 8871 2d3e eba7 f43d d8a0 9c3b
000002b0: 23ad 2e3e c37d 053d 7c1a 13bd 9448 abbb
000002c0: 44db 3c3d eeae 91bd 7b43 243e 5998 03be
000002d0: 995e 773d 7265 efbc e889 c43d 47b9 29bd
000002e0: dfd1 29bd 87be 543e 73f9 2f3d c982 8bbb
000002f0: d7a1 91be 24c7 023d 0a4a 053e 7712 1abd
00000300: dabf 603e c99c 103e b319 f53b 63f7 473e
00000310: ca02 7c3d a112 2d3e 1153 95be 3940 04be
00000320: 7df5 513d ad84 7e3d ab22 b83c d31a 843c
00000330: 583c 153e 2e1e 6e3e eb78 dc3c 4afb 1b3e
00000340: 2a49 723e 3f83 f43d e0e1 35bd 922c 3dbc
00000350: d6c4 fcbd f967 173e 086f 313c 2a3c 1cbd
00000360: 78e3 413d d51f d2bd 9437 5b3d 11ed 463e
00000370: 9fb1 643e 7c5e 84bd e40e ac3d b7c3 d3bc
00000380: 0944 b1bd e964 4d3e c0da 213e 7c4a 6b3e
00000390: 1843 6d3e ee52 cabc b1d5 103e f208 173e
000003a0: 8cd8 dabd d6fb 4e3e 754f 8cbd 785b ef3d
000003b0: de2a b2bd dfd9 1a3e 7fb5 d03b 6493 17be
000003c0: d7c4 85bd 4f6b 6c3e 5e35 c1bd 5e8d 13bc
000003d0: 0e3d 13be 852b 443d 28f9 653e a33b 063e
000003e0: cb39 1f3d f91f ffbc 47bc 2ebe 6f4e 1ebc
000003f0: 0cfd 91be b6b7 193e 4945 123e 1d21 29bd
-0.1255334 0.053678 0.057277065 0.1003257 0.07851848 0.23716591 0.071363635 -0.18903922
0.28190157 -0.016399221 0.06301521 0.019934392 0.005848818 -0.8299267 -0.75145954 0.20597415
0.10195112 -0.69314843 -0.03470029 0.24296346 0.17074105 0.0991026 -0.47049436 0.1225248
0.016711034 -0.053054772 0.027633736 -0.07295037 -0.5501147 0.21762702 0.16590989 0.042188514
0.17542168 0.06691232 0.09190723 0.08144123 -0.11777064 0.049058016 0.12561008 -0.054583732
-0.28425822 0.0036838895 0.2404507 0.2761536 -0.0092136385 -0.0073969816 -0.11640809 -0.10186545
-0.2769011 0.13538347 0.14558817 -0.13463016 0.20235565 -0.0456103 -0.3523663 0.22350462
-0.11213371 0.021995673 -0.06054515 -0.100014895 -0.42778704 -0.07329828 -0.14099771 -0.12576056
0.14753081 0.037431832 0.04716679 -0.08923091 0.010061848 -0.038437087 -0.21324003 -0.029613324
-0.0055895434 -0.025142148 -0.046514235 0.18174772 0.18185817 0.13958274 0.057148658 -0.002744971
0.14971626 -0.11657242 -0.56024504 0.19416162 -0.06776685 0.21698767 -0.061625484 0.0918292
0.06512019 -0.098900884 0.0023343172 0.23919289 0.050531145 -0.07853781 0.081256814 -0.028052956
-0.04060526 0.033954788 -0.098194286 -0.007228834 0.17672823 -0.031139644 0.15736039 0.281296
0.06253271 0.23572333 0.24889186 0.15166484 0.043775555 0.25434425 -0.6064487 -0.31970605
0.16915585 0.21230313 0.1565737 0.03179511 -0.088173926 0.14970462 0.1124357 0.054843202
0.30877453 0.16725528 -0.84837943 0.0831626 -0.25859886 0.05863036 0.28495383 0.023956105
-0.048172604 0.09835446 -0.100497544 0.19501732 0.039881933 0.18536986 0.097465105 0.15269092
-0.078476325 -0.020192506 0.1451376 -0.06516297 0.22994792 -0.5051915 -0.3235877 -0.0003569358
-0.12117404 -0.7171794 -0.030827498 0.17373721 -0.037241653 0.15289813 -0.06485038 -0.024999013
-0.087276034 0.18698744 -0.012821574 -0.1630029 -0.12574849 -0.10687314 -0.022474665 0.08382485
0.13998511 0.045502007 0.074004 0.028353434 -0.086893864 0.16315728 0.18616018 0.069293335
-0.19831157 0.1693784 0.1194609 0.0047799163 0.17058234 0.03259064 -0.03591393 -0.005227158
0.046107545 -0.07113443 0.16041367 -0.12851085 0.06039295 -0.029223178 0.09596616 -0.04143646
-0.041459914 0.20775805 0.042962503 -0.004257534 -0.28443787 0.031928197 0.13016525 -0.037615266
0.21948186 0.14122309 0.00747987 0.19527964 0.061526097 0.16901638 -0.29164937 -0.12915124
0.051259506 0.06213825 0.022477468 0.016126072 0.145738 0.232537 0.026913127 0.15232578
0.23660722 0.11939096 -0.044404864 -0.011546271 -0.12342231 0.14785756 0.010829695 -0.038143314
0.04733607 -0.10259978 0.0535198 0.19426371 0.22333382 -0.06463334 0.08401278 -0.02585016
-0.08655555 0.20058025 0.15806103 0.22977632 0.23170125 -0.024697747 0.14144017 0.14749506
-0.10685834 0.20213255 -0.06851093 0.11687368 -0.086995825 0.15122174 0.0063692923 -0.14802319
-0.06531685 0.2308781 -0.09434007 -0.0090058725 -0.1437876 0.047893066 0.22458327 0.13108687
0.038873475 -0.031143175 -0.1706401 -0.009662255 -0.28513372 0.15011486 0.14284243 -0.041291345

value_stream.0.bias f4 [64]
00000000: a4aa 963e 804b 843e be04 aabc 0000 0000
00000010: 511d 453d 5813 7b3e 20c6 893e 900d 833e
00000020: 5e41 a0bc ccf7 2abc 6090 863e 057b 0abc
00000030: bfc9 c4bb 4dfe b2bc 4122 983e 563f 893e
00000040: 8406 853e bcde 023b 0c3e d8bc 1e75 893e
00000050: eee1 39bc 441c 813e 4d29 913e cc71 0f3e
00000060: 7381 883e 68f5 873e 8f83 893e 437f 29bc
00000070: be12 6a3d e717 823e 89a6 36bc e7ad 883e
00000080: 2fd7 adbc 7768 babc 2832 b4bc 323b 813e
00000090: 4ce7 86bc 0339 62bc e18c 8d3e bb91 973e
000000a0: a305 dfbc 267d 7b3e 7176 953e 0b26 8cbc
000000b0: c769 2abc 5a39 b1bc 8aba 33bc fd7f 8b3e
000000c0: 9fef 933e bd86 9dbc f890 893e a4e4 46bc
000000d0: 6dbc 8f3d 4ab6 263d 2d31 813e 23be 39bc
000000e0: 9b7d 22bd 4c29 dfbc d96e d6bc a568 8a3e
000000f0: f409 0f3e 498c 53bc 297c 89bc 22bc c63d
0.29427063 0.25838852 -0.020754214 0.0 0.04812366 0.24519098 0.2690897 0.25596285
-0.01956242 -0.010435056 0.26282024 -0.008452182 -0.0060054953 -0.021849776 0.29713634 0.26806134
0.25981534 0.0019969186 -0.026396774 0.26847166 -0.01134537 0.25216877 0.28351822 0.14008254
0.26661262 0.26554418 0.26858184 -0.010345283 0.05714678 0.2540886 -0.0111481035 0.26695177
-0.021220772 -0.02275489 -0.021996573 0.25240475 -0.016467713 -0.013807538 0.27646545 0.2960337
-0.027224367 0.24559459 0.29191926 -0.017107984 -0.010401196 -0.021633793 -0.010969767 0.27246085
0.28893754 -0.019229287 0.26868415 -0.012139473 0.07018361 0.04070119 0.2523283 -0.011336836
-0.039670568 -0.027241372 -0.026175903 0.27032962 0.1396864 -0.012911865 -0.016782837 0.09703852

value_stream.2.weight f4 [1, 64]
00000000: 9ff3 953e 3413 0c3e 3d0b 82be 4032 343d
00000010: c949 4fbf 4f2a 7d3e 3ce5 c53e 2826 013e
00000020: 0693 81be c325 49bf 6dc8 363e fa86 dbbe
00000030: d9fc 0fbe 8498 57be 3a6a 123e ea4f b53e
00000040: 72d5 c93d 3612 59bf 5b24 26be 6bf5 ba3e
00000050: 4585 73be 9ed5 123e e016 7f3e e066 2fbf
00000060: f403 8c3e 2355 713e e14a a03e 8f64 8cbe
00000070: 44cf b3be 163b 863e ea32 15bd da6b 873e
00000080: 7c8d dfbc 5ab1 00bd db50 2cbe 05ed 063e
00000090: c2e9 d8bd d1cc 6cbd 7a3a ae3e 6b72 c03e
000000a0: ae6a 39bc 35bf 523e 1ceb 883e 8f06 24be
000000b0: 3559 6dbe 5f0f e7bc 26e0 8dbe 1d9f 983e
000000c0: 31ae 7b3e 3229 94be 32c6 b83e 62ee f1bd
000000d0: e3c0 4dbf 5232 3ebf d3d8 653e 61ac 0dbe
000000e0: e7b7 41bd 1abc 47be bb74 2cbe 0a0b df3e
000000f0: 2c67 09bf 9a67 47be 769f fabd dd97 20bf
0.2928743 0.136792 -0.253992 0.043993235 -0.8097196 0.2472317 0.38651454 0.12612212
-0.25307482 -0.78573245 0.17849894 -0.42876416 -0.14061297 -0.21054274 0.14298335 0.35412532
0.098551646 -0.8479341 -0.16224806 0.36515364 -0.23781307 0.14339301 0.2491107 -0.6851635
0.27346766 0.23567633 0.31307128 -0.2742047 -0.3511907 0.26216954 -0.03642551 0.26449472
-0.027289145 -0.031419136 -0.16827719 0.13176353 -0.10591461 -0.057812516 0.3402899 0.37587294
-0.011316938 0.20580752 0.26741874 -0.16018127 -0.23178561 -0.028205572 -0.27710074 0.29808894
0.24578167 -0.2893768 0.3608871 -0.11813046 -0.80372447 -0.7429553 0.22445993 -0.13835289
-0.047294524 -0.19505349 -0.16841404 0.4356311 -0.5367305 -0.19473115 -0.12237446 -0.62731725

advantage_stream.0.weight f4 [64, 128]
00000000: 4580 0a3e 1610 ba3c 9419 a2bd 767a f1bd
00000010: bd98 143e afff 883c 53df 82bd 159c 9a3b
00000020: 19be bb3c 6f99 04be f3d6 35be 963d 8d3d
00000030: 2bca 3b3c 8a3f 27bd 2e6f 283d 4bff ffbd
00000040: 6ff6 fcbd 9c0a b2bd 3151 39be 1a91 0c3e
00000050: 30ae 103e c428 fcbd df37 b23d 1907 00be
00000060: 722d 3b3e 6ad6 1dbe 3d46 0b3e 4aa5 c73d
00000070: 2249 9dbc 2218 9cbd b9e9 f83d fcdf 153d
00000080: 1b1b 153e fed8 1ebe c3ad 21be 1dce abbd
00000090: eb16 c6bc 90c8 20be 09b0 86bd f18f 873b
000000a0: 08cb 4e3e 8139 253e 2abd b83c 7152 103e
000000b0: cf71 34be 332b d5bd aaeb bfbd f09e a4bd
000000c0: 631b 28be 5441 293c 4808 f0bb 58be 8fbd
000000d0: 86cd a6bd 9e1c 143e 90b0 1abe 1357 443d
000000e0: 3536 19be b1ae 6b3d 9891 4c3d 2792 44bc
000000f0: a51d a1bc 13a7 863d 3c28 dd3d ed56 5d3e
00000100: e766 12be 0c79 133e 58c4 753d c261 8b3d
00000110: e9a3 51bc fbcb 593d 5d28 0fbd 800d 233d
00000120: 80f3 00be a850 c6bd bef9 c33c 418b 41be
00000130: ee5d 1b3e bdb1 64bb a340 8ebc d2b8 18be
00000140: 89be 903b f6dc 063e b65f 52be 94f3 89bd
00000150: f597 313e de99 0a3d e959 393e e8a3 0bbe
00000160: bfb9 a4bb e6f6 b33d 1251 9fbd fc7b 47be
00000170: ed8d 103e 8607 66be f18f b3bd 55f5 dcbc
00000180: 0003 7e3e a328 95bd f22b 48be 273f 12bd
00000190: 92a7 17be 83f8 c13d b7d2 07be d688 2e3d
000001a0: e2b5 2a3e 1619 953d f539 77bd 1e72 ca3d
000001b0: b9d1 09be 2550 2a3d 7532 3ebc 20e8 72bd
000001c0: 6376 0ebe c474 f9bd cfea febd 6fa9 283e
000001d0: dee6 0d3e 4857 543d 2ee7 c53d 9562 69bd
000001e0: fa94 64be 4cd3 a23c 9745 453d 870e 09be
000001f0: 3c7c 573e 0bf0 7dbd af4b 26bd 1dfc 0bbe
00000200: b5c5 28be 209e 753c a15b 223e c767 183e
00000210: a8b3 2abd dae0 353d 2b69 32be 4afd eebd
00000220: 300f 013e 519f c43c 2823 273d cad6 a43c
00000230: 1e83 8dbd bf66 0b3e 5380 203e e791 893d
00000240: 470f 213e 0767 473d 4baa 023e 7aa0 f7bd
00000250: 136d 743d a7b4 08be fe2a fabc 5f83 01be
00000260: 59c7 6b3d ff80 35be 2f74 6fbd 8ad8 8bbd
00000270: f3ca e03d 787d 18be 5009 bdbd 2f41 143e
00000280: cded 9b3d fb84 db3d a6c7 213e c10b d6bd
00000290: 936a 323d 60e5 0cbe 8a07 96bd 3afe fcbc
000002a0: 8ba1 b5bd 488f 163d 690f 013d 6907 e73c
000002b0: e1df b53d 899b 98bc 8ff1 0d3e 280b 92bc
000002c0: 4282 df3d 862a 083e f0fb 203e 539b aebd
000002d0: 783e 96bd 316f 13be 8201 a5bd 86e9 223e
000002e0: d647 8bbc e2b8 d0bd a2f9 11be 8abf 0abe
000002f0: 7a6f d9bd 802d 733d 28b6 c5bd b25f 88bd
00000300: 92ca 1bbe ca89 1bbe 8eca d2bd 3c61 2fbe
00000310: 819c 97bc cc75 95bd be12 aebd 2d0b e5bd
00000320: 9916 673d e096 8c3d c728 1dbd 6b3e 383d
00000330: 4795 1f3e f642 65bd 6dee d0bd 7c36 cd3d
00000340: 94a3 34bd 1c60 96bd 82d5 d93d e0a5 473d
00000350: 7806 f7bd 7934 1c3d 575f 9c3d f46d 293e
00000360: 4c08 dabd 3e00 b73d 6103 6abd 91b0 983c
00000370: 895d 2abe 5367 29be 438f c03d ab3b 56bb
00000380: a017 9d3d 2b19 e4bd 0f89 023e 6ee8 90bd
00000390: 4042 e7bd 77eb 193e 943c ddbd 5075 0bbe
000003a0: e1f0 14be af5b 953d dbf6 69bc b64a 1abc
000003b0: 3a63 3f3d 9e31 63bd 79ae d93c 6861 c8bd
000003c0: b3f1 39bd c8d5 be3d cce2 af3c 7b3d f93d
000003d0: c7df 283e 2785 f53d b32d 98bd 2fcf 19be
000003e0: 8c28 a3bd b225 acbc e522 203e f8c6 4d3c
000003f0: 1a5b e6bc cfdc 023e e48d 893d 20de 0b3e
0.13525493 0.022712748 -0.07915035 -0.11790936 0.1451139 0.016723482 -0.06390252 0.0047183135
0.022917794 -0.12949155 -0.17757778 0.06896512 0.011461775 -0.04083208 0.041121654 -0.12499865
-0.12351691 -0.0869343 -0.18097378 0.13727227 0.14128947 -0.12312463 0.08702063 -0.12502708
0.18279055 -0.15413824 0.13601013 0.09748323 -0.019199912 -0.076217905 0.12153954 0.03659056
0.14561121 -0.15512463 -0.15788941 -0.08388922 -0.02418085 -0.15701509 -0.06576545 0.004137032
0.20194638 0.16135217 0.022551138 0.14093949 -0.1762154 -0.1040863 -0.09371121 -0.080381274
-0.16416697 0.010330517 -0.007325206 -0.07018727 -0.08144669 0.14464042 -0.15106416 0.047934603
-0.14962085 0.057539646 0.049943537 -0.011997736 -0.019667456 0.06574836 0.1079869 0.21615191
-0.14297067 0.14401644 0.0600017 0.06805755 -0.012795427 0.053173047 -0.034950603 0.039807796
-0.12592888 -0.09683353 0.023922797 -0.18900777 0.1517255 -0.003489598 -0.017364806 -0.14914253
0.004417245 0.13170227 -0.20544323 -0.06735912 0.17343123 0.033838145 0.18100704 -0.13636744
-0.0050270255 0.087873265 -0.07779135 -0.1948089 0.1411664 -0.22463807 -0.08767689 -0.026972452
0.24805832 -0.072831415 -0.19548014 -0.035704758 -0.14810017 0.09471228 -0.13263975 0.042610966
0.16670945 0.072801754 -0.060358007 0.098850474 -0.13458909 0.041580338 -0.01160871 -0.059303403
-0.13912348 -0.121804744 -0.1244713 0.16470884 0.138576 0.05184105 0.09663235 -0.05697878
-0.22322455 0.019876145 0.04816207 -0.13384448 0.21043485 -0.0619965 -0.04059952 -0.13670392
-0.16481669 0.014991313 0.15855266 0.14883338 -0.04167524 0.04440389 -0.17422931 -0.11669405
0.1260345 0.02400175 0.040805012 0.02012195 -0.06909774 0.13613413 0.15673952 0.06717282
0.15728484 0.04868224 0.12760274 -0.12091155 0.059674334 -0.13350163 -0.030538078 -0.1264777
0.05756316 -0.1772499 -0.05846041 -0.06828411 0.109762095 -0.14891613 -0.09230292 0.1447799
0.07613716 0.107187234 0.15798816 -0.10451461 0.04355867 -0.13759375 -0.07325657 -0.030882943
-0.088687025 0.036757737 0.031508837 0.028201776 0.08880592 -0.018628852 0.13861679 -0.017827585
0.109135166 0.13297471 0.15721107 -0.085257195 -0.07336134 -0.14397885 -0.08056928 0.15909395
-0.017002027 -0.101915136 -0.14255384 -0.13549629 -0.106169656 0.059369564 -0.09653884 -0.066588774
-0.15213993 -0.15189281 -0.102925405 -0.17126936 -0.018507244 -0.072978586 -0.084996685 -0.11183772
0.056418035 0.068647146 -0.038368966 0.0449814 0.15584289 -0.055972062 -0.10201726 0.10020158
-0.044101313 -0.0734255 0.106364265 0.048742175 -0.12061781 0.03813598 0.07635372 0.1654585
-0.10646114 0.08935593 -0.05713213 0.01863888 -0.16637243 -0.16543321 0.09402325 -0.0032689373
0.07670522 -0.11137613 0.12747596 -0.070755824 -0.11291933 0.15031229 -0.1080257 -0.1361897
-0.14545013 0.07292878 -0.014280046 -0.009417227 0.04672549 -0.05546724 0.026572453 -0.09784204
-0.045396518 0.09318119 0.02147045 0.121699296 0.16491614 0.119882874 -0.074305914 -0.1502044
-0.07966718 -0.021014068 0.15638311 0.012559645 -0.028119612 0.12779544 0.067165166 0.13658953

advantage_stream.0.bias f4 [64]
00000000: 3626 61bd 11d4 65bb 910b e53c 9cf5 953d
00000010: b289 d93c a6d8 403c d6ae 35bb 6036 bcbc
00000020: 6ac9 c4bb 7811 353e cb3a 313e 5513 b73b
00000030: 79e6 503e 173c c6bc 4e4d d6bc d29e 5c3d
00000040: bba1 3d3d 1757 673d 41e2 9f3d e00d 02bd
00000050: 09db d0bc 1e90 3bbd e3d8 023e 512e f7bc
00000060: f962 72bd b459 07bd 4429 2fbd 11f0 39bc
00000070: b81c 1a3b e489 323e f52c 9d3d d4c3 b73d
00000080: 085a 8ebc ca1e bdbc ab8a 283d 0259 c53d
00000090: df6a 38bc 9677 11bd 7b47 aabc 90c6 d03d
000000a0: b117 293c db0e 2abd b230 3d3e df2f abbc
000000b0: 9835 b63d 23f1 8f3d 22ed 213e 9091 1fbc
000000c0: 8c59 8cba 00f9 d33c 2be2 0d3c e47e 7cbb
000000d0: b538 8d3c 07ff 00bd 693c 0ebd c641 2ebd
000000e0: 81d4 0c3c 9679 a2bb b76b 1a39 7f73 a23d
000000f0: 7e5d 913d 47e2 2cbd 0837 debb 58c4 44bd
-0.05496808 -0.0035069028 0.027959617 0.07322237 0.026554916 0.011770403 -0.0027722619 -0.022975147
-0.0060054557 0.17682445 0.17307584 0.0055870214 0.20400418 -0.024198575 -0.026159909 0.0538624
0.046296816 0.05647954 0.078068264 -0.031751513 -0.02549507 -0.045791738 0.12778048 -0.030173453
-0.05917642 -0.033044532 -0.042763963 -0.01134874 0.0023515653 0.17435414 0.076745905 0.08972898
-0.017376915 -0.02308597 0.04114787 0.096361175 -0.011255949 -0.035514437 -0.020786038 0.10194123
0.01032059 -0.041518074 0.18475607 -0.02089685 0.08896941 0.07028415 0.15813115 -0.009739295
-0.0010707839 0.025875568 0.00865988 -0.003852778 0.017238954 -0.031493213 -0.03472558 -0.042543195
0.008595587 -0.004958342 0.00014726711 0.079321854 0.0709791 -0.042207982 -0.0067814626 -0.04803881

advantage_stream.2.weight f4 [2, 64]
00000000: 5e92 8a3e 4769 843d 7896 9f3e e27f f33e
00000010: a314 b3be 7895 d0be eb19 6fbe 95f0 5a3e
00000020: df5c 953e 006c 4a3f fbed 343f 2299 053e
00000030: a85d dfbe 909f 3ebd 4073 8dbc d9e4 a43e
00000040: a766 9a3d 0f2c 6b3e 49e1 313e 0952 83be
00000050: 538e 2dbe 1db9 f9bd 6777 6b3f 636f a03d
00000060: 5e5f 49be f0d9 503d de41 2a3e 650e dd3d
00000070: f541 82be cde3 89bf eef4 843e 60ee f23e
00000080: d00e 723c 5f5d be3d 26d5 01bd d211 3ebf
00000090: ea5d be3e f396 523e 4665 433e 8cf9 3b3f
000000a0: bec5 71bd c8b3 003e f8ee 363f fec6 253f
000000b0: c359 ed3e 5577 d13e a8ba 67bf 1a21 8cbe
000000c0: a53d ef3d d2ac 983e cc94 e5be 2d15 8cbe
000000d0: 7d84 13bd d526 303e 7732 9fbe 8edf 90bd
000000e0: decf 413d 879a 903c 2b99 a03c 70d9 243e
000000f0: d5e6 aa3d ca18 403e ad08 433f 73cd eebc
00000100: 547a 7e3e b10f 82be ee41 92be 5f53 35bf
00000110: 7dc8 9c3e a4bc b23e af5d f5bd 7ac3 ca3d
00000120: 70ac bdbb 3698 3fbf 9b05 3abf 30f4 25be
00000130: 386f 383f 5b38 a43d 54c0 adbb d10e 97be
00000140: 64a1 32be f1dd 98be 2b54 b0be 4067 623e
00000150: e3bf 30be 6033 9d3d eb5f 38bf 690b 13be
00000160: 7bee 123e c240 0e3e db60 e43d 23d9 f53d
00000170: d745 993e 9a8d 953f 3e25 80be c60d a9be
00000180: 5d07 703e fe8d 243e 06f9 b4be a6c3 5a3f
00000190: 60b8 e2be 0db0 853e a4d5 11be d552 1abf
000001a0: b67a a03e 9693 983e 544a 23bf 4df6 9abe
000001b0: f3fc e1be 6227 5ebf 04e4 8e3f e270 de3c
000001c0: 8eb2 7abe 14b2 1abf ba0b 7bbd a912 3b3e
000001d0: 9ece da3e f915 773e 7e78 8fbe 96d0 5bbd
000001e0: 13ef ce3e e688 87be a568 af3c 1921 83be
000001f0: feaa 73be 687f 32be f1d3 e4be 763d d5bd
0.27064794 0.064653926 0.31169486 0.47558504 -0.34976682 -0.40739036 -0.2334973 0.21380837
0.29172418 0.79071045 0.7067563 0.13046697 -0.43626142 -0.04653889 -0.01726687 0.32205847
0.07539111 0.22966026 0.17371096 -0.25648525 -0.16948824 -0.12193511 0.9197907 0.07833745
-0.19665286 0.05098909 0.16626689 0.10793761 -0.25440946 -1.0772644 0.25968117 0.4744749
0.014774039 0.09295153 -0.031697415 -0.7424594 0.37181026 0.20565395 0.19081602 0.73427653
-0.059026472 0.12568581 0.7145839 0.64756763 0.46357545 0.40911356 -0.9051919 -0.27369004
0.1168168 0.2981935 -0.44840086 -0.27359906 -0.036015023 0.17202313 -0.3109319 -0.0707389
0.04731738 0.01765181 0.019604286 0.16098571 0.08344809 0.18759456 0.76185113 -0.0291507
0.24851352 -0.25402597 -0.28565925 -0.7083034 0.3062171 0.34909546 -0.11980759 0.099005654
-0.0057883784 -0.7484163 -0.72664803 -0.16206431 0.72044706 0.080185615 -0.0053024683 -0.29503492
-0.17444378 -0.29856828 -0.34439215 0.22109699 -0.17260699 0.07675815 -0.7202136 -0.14359821
0.14348786 0.1389189 0.11151286 0.12004306 0.29936096 1.1683838 -0.25028414 -0.3301832
0.23440309 0.1606979 -0.3534624 0.85454786 -0.44281292 0.2611088 -0.14241654 -0.6028264
0.3134362 0.298001 -0.6378529 -0.30266038 -0.44138297 -0.86778843 1.1163335 0.027153436
-0.24482176 -0.60427976 -0.06129048 0.18268837 0.4273576 0.24129476 -0.28021616 -0.05366572
0.40416774 -0.26471633 0.021412203 -0.2561119 -0.23795697 -0.17431414 -0.44692948 -0.10412113

advantage_stream.2.bias f4 [2]
00000000: 32ed 79bc 32ed 793c
-0.015254306 0.015254306

exp_avg f4 [128, 4]
00000000: b49d 2b3b e489 6a3b 0c49 d5ba 1c5d edbb
00000010: b49f 0d3a 70bd 27b8 b65d 8838 24f7 103a
00000020: 1e7a edba dd57 4bba 601b 8d3a 8e95 dd3a
00000030: 00dc 3fb7 1544 003d c9fe 4e3a 0ca6 83bc
00000040: a808 013b 4ad9 2a3b b1ac 8639 95c1 fa3a
00000050: abbc 2dbb 5ef5 993b 77ed 203a fef5 cdbb
00000060: 80ae 0aba e5d9 4e3c dc85 03b9 6a4d f4bb
00000070: 882a 5c3b b8bb d93c 803a 0fb8 1537 87bc
00000080: 91f5 12ba 4d35 fbb9 9ac9 7837 f569 07b9
00000090: 760f 9b39 ca29 003c 9092 b937 dfaa d9bb
000000a0: abe5 0d3b ebf0 69ba 4f66 94b9 cb7e 82b9
000000b0: 6576 8fbb e905 5b3b f140 9139 6a3d d0ba
000000c0: 3551 3fbb 16d9 c73b 4889 0aba 5afb 82bb
000000d0: ecd1 1839 55db d93b 0265 2039 e922 b7bb
000000e0: 7fd5 e2ba 5e05 0cba a2a6 0b39 1ea7 1b3a
000000f0: 28a7 923a 997c a939 602c f0b7 0031 36b7
00000100: c0ff 89b9 cd0d fc3c f431 003a 04e0 87bc
00000110: 4663 d337 a3d6 1a3a 5487 7939 9027 9239
00000120: 41e7 14bc 94b7 c1bb 6f3d b33a 6ae0 8a3c
00000130: 3169 e1bb eb63 4c3c af5a d23a 666d e9ba
00000140: 595e 313b eb87 f33b 182a 593b 5483 33bb
00000150: 731a f83a 9ad6 d43a 217a 50b9 9dd0 003a
00000160: 3c67 623b f37e 913b 2a5f 433a 9800 75ba
00000170: 1cbf d93a 8898 4d3c 8077 1a37 2adf d1bb
00000180: 5a23 653b 5660 983a 2ded 8639 a0d8 d53a
00000190: 2e33 aa39 f96a b53a 2167 31bb a298 0abc
000001a0: f4b4 1d3b 4533 813b 483b a438 b0ca 563a
000001b0: ce85 323a 9445 8e3b 61ec 18ba 7773 98bb
000001c0: ecb2 ee39 2872 6039 6081 0e36 1a06 1d39
000001d0: 6f2d aa38 012c a139 3c27 4138 3e13 1739
000001e0: 20c7 ffba a2c2 4b3a 99e6 1db9 b469 99b9
000001f0: 0fed 203b d8bd 373b ba97 3439 ece0 563b
00000200: 0400 0000 0400 0000 0400 0080 0400 0080
00000210: 866b d53a 2f20 ab3a 2853 8a39 3cac acb8
00000220: 52d6 5bbc 7686 9dbc 7a7b 5a3a b78d 203c
00000230: f735 43ba 2675 5bb9 1ac4 9a38 593e be39
00000240: 28bb 9037 a2bd 35ba 7eeb f7b6 67ba 2e3a
00000250: 2062 013a 8cc3 4e3c ee37 223a 4276 8fbb
00000260: 24de 933a 0cd9 6d3b 5e87 653a 25fe c73b
00000270: b7bb 35bb 997a 3dba d211 1739 e672 963a
00000280: 3601 1bbb ace1 d339 a022 4439 eb2d 9eba
00000290: e6ba 103a 4173 b9ba aafc 3338 f09f d03a
000002a0: 26b4 6abb 4138 9fbb c98a be39 8125 9b3a
000002b0: 30f2 84b6 9d65 7037 f87b b234 c259 2ab7
000002c0: 8fa1 8dba af14 803a 765d 61b9 c6ac 38ba
000002d0: 4ff5 5a3b 84de 0b3c f410 833a aa00 96bb
000002e0: 723a 3abb 0b04 00ba 7fbc 0c3a 2dca 4839
000002f0: 8c6e 1fb9 e042 1e3a 2a23 c939 7351 2f3b
00000300: fd2a 473c f6d0 d03a 8e6e 8f3b c7b5 423c
00000310: cc05 073b e511 073c 95f7 6a3b 5a26 cabb
00000320: b210 be3a 19e5 023b 2d1f 0eb9 a645 4e3a
00000330: a6b2 32b9 e09a 51b7 3f47 c738 61dd d439
00000340: 1ade bab8 60cc 27b8 0ec3 85b7 3ced ab38
00000350: d6fc df3a 5f15 6c3b 8073 e637 7fc2 9eba
00000360: f2cd fbba c492 5a3b 4c9b 4aba 7526 e6bb
00000370: c9c6 103a 6205 883a 0db3 0fb9 4035 7eb8
00000380: 98f3 6737 318e e13a 4574 0dba b996 28bb
00000390: 1cd4 f33a c58a bc3b b9bc 99ba 8d6d f6bb
000003a0: 0a88 053b 9c6b 653b 3852 323b a132 bf3a
000003b0: 72cf 88bb bddf c5ba 4a83 8538 51db 8a3a
000003c0: 6413 713b 9461 ae3b 0481 8c3b 0ae3 69bb
000003d0: fdc9 143b 7c85 4a3b 903c d137 3060 0539
000003e0: 82df 043b 8e40 023b d871 2939 34da e63b
000003f0: 1a6b 2dba a827 a4b9 4bab 45ba 1af6 daba
0.0026186528 0.0035787756 -0.001627238 -0.0072437655 0.0005402521 -3.999233e-05 6.5024404e-05 0.0005529991
-0.0018118059 -0.0007756928 0.0010765605 0.0016905533 -1.143571e-05 0.031314928 0.00078962423 -0.016070388
0.0019688997 0.0026069456 0.00025687137 0.0019131178 -0.002651016 0.0046984395 0.00061389006 -0.006285428
-0.0005290285 0.012625192 -0.00012543 -0.0074555175 0.0033594687 0.02657877 -3.414834e-05 -0.016505757
-0.000560605 -0.00047914163 1.4828891e-05 -0.00012914075 0.00029575423 0.007822463 2.2121967e-05 -0.006642684
0.0021651785 -0.0008924144 -0.00028304986 -0.0002489 -0.0043781274 0.003342027 0.0002770494 -0.0015887443
-0.002919269 0.0060988767 -0.0005284739 -0.0039972486 0.00014574052 0.006648461 0.00015296417 -0.0055888784
-0.0017306058 -0.0005341376 0.00013318149 0.0005937683 0.0011188732 0.00032327024 -2.8630893e-05 -1.0859454e-05
-0.00026321225 0.0307683 0.0004890256 -0.016586311 2.5199388e-05 0.0005906617 0.00023796904 0.00027876766
-0.009088338 -0.005911777 0.0013674925 0.016952712 -0.006878995 0.012474994 0.0016048754 -0.0017809093
0.0027064292 0.007431974 0.0033136662 -0.002739151 0.0018928781 0.0016238273 -0.00019881922 0.00049138983
0.0034546396 0.0044401824 0.000745284 -0.0009346097 0.0016612741 0.012548573 9.206939e-06 -0.006404777
0.0034963698 0.001162539 0.0002573518 0.001631517 0.0003246306 0.0013841084 -0.0027069526 -0.008459242
0.0024064155 0.0039428794 7.8311714e-05 0.0008193655 0.00068100996 0.0043417905 -0.0005833563 -0.0046524364
0.00045528205 0.00021404831 2.1234955e-06 0.0001497496 8.114694e-05 0.00030741098 4.6051326e-05 0.0001440765
-0.00195143 0.0007772838 -0.00015058591 -0.0002926119 0.002455536 0.002803674 0.0001722266 0.0032787872
6e-45 6e-45 -6e-45 -6e-45 0.0016282655 0.0013055856 0.00026383367 -8.23368e-05
-0.013417797 -0.019229155 0.00083344395 0.009799412 -0.0007446701 -0.00020929109 7.379819e-05 0.00036286077
1.725329e-05 -0.00069328595 -7.3885885e-06 0.00066653494 0.0004935581 0.012619864 0.0006188144 -0.004378111
0.0011281413 0.00362927 0.0008755828 0.0061032944 -0.0027730295 -0.00072280463 0.00014407121 0.0011478334
-0.0023651845 0.00040413195 0.00018704915 -0.0012068128 0.0005521014 -0.0014148728 4.2912237e-05 0.0015916806
-0.0035812943 -0.004859001 0.00036343027 0.0011836739 -3.962101e-06 1.4328773e-05 3.3245283e-07 -1.0153688e-05
-0.0010805595 0.0009771789 -0.00021492489 -0.0007044788 0.0033410375 0.008536939 0.0009999559 -0.004577716
-0.0028416184 -0.0004883415 0.0005368664 0.00019148803 -0.00015204604 0.0006037187 0.00038363907 0.0026751428
0.012156245 0.0015931416 0.004377193 0.011884159 0.002060282 0.0082440125 0.0035853137 -0.0061691226
0.0014500825 0.0019972979 -0.00013553789 0.0007868655 -0.00017041955 -1.249343e-05 9.50233e-05 0.0004060073
-8.910541e-05 -4.000624e-05 -1.5945665e-05 8.198104e-05 0.0017088901 0.003602348 2.747192e-05 -0.0012112408
-0.0019211157 0.003335164 -0.00077288295 -0.0070236274 0.00055227854 0.0010377581 -0.00013704244 -6.0607912e-05
1.3825389e-05 0.0017208514 -0.00053960487 -0.0025724603 0.0018602642 0.0057538473 -0.0011729217 -0.0075203837
0.0020375275 0.0035006767 0.002720965 0.0014587232 -0.00417512 -0.0015096586 6.366389e-05 0.0010593926
0.003678524 0.005321691 0.004287841 -0.0035688304 0.0022703402 0.0030902317 2.4942943e-05 0.00012719701
0.0020274823 0.0019874903 0.00016159506 0.007045055 -0.00066153856 -0.00031310064 -0.0007540478 -0.0016705424
