CartPoleHighRewardIn2026/checkpoints/checkpoint_ep450_reward345.00.pt (torch, 421217 bytes, 33 tensors)

feature_layer.0.weight f4 [128, 4]
0.07688229 -0.07986974 -0.47544196 0.10810123 0.15865609 0.11732897 0.11527431 0.057178568
-0.15644592 0.071786344 -0.72552156 -0.13348772 0.027003078 -0.076302886 0.30681387 -0.044354122
0.04187312 -0.13382174 0.7448436 -0.037518352 -0.093959935 0.08117617 -0.45824662 0.028629715
0.00043175835 0.029284 0.1966883 0.005609591 -0.12023883 0.11914835 -0.25204524 0.089037165
-0.22159384 0.017927678 0.35981125 0.050420474 0.19704019 -0.05908356 -0.31380206 -0.10838607
0.09776762 -0.10446455 0.05813072 -0.06686435 0.18481202 -0.061618708 0.30207294 0.064877376
-0.072926275 -0.010835761 0.5499661 0.05781648 -0.03250916 0.07921153 -0.6116343 0.101313695
-0.018764965 0.0241965 -0.093600295 0.005123681 0.021036478 -0.029897789 0.5863469 -0.17934686
0.018612782 -0.05115545 0.35513613 -0.0052899425 -0.30270135 0.022661667 0.16033526 0.1011786
-0.0065648095 0.0030538985 0.80465156 0.10352796 -0.04793278 -0.045617085 0.79572237 -0.09684432
0.00853957 0.0066051194 -0.8330325 -0.094061956 -0.0039686756 0.015956536 0.45812285 0.22444105
0.19529757 -0.09847683 -0.7115297 -0.16211934 -0.026962133 0.005829269 0.58028495 -0.06367274
0.04819533 0.008063208 0.8959468 0.1636959 -0.0021199423 0.06269192 0.71792144 0.0662435
-0.15963413 -0.025090674 0.72201145 -0.033388626 -0.07360023 0.06105842 -0.03432261 0.056096915
0.22660787 0.10545808 0.09414121 0.009856291 -0.09787995 0.10611983 0.4427659 0.018136488
0.35062593 -0.07349733 0.36763567 0.022181265 -0.013437916 0.017498989 0.724357 0.11754744
0.005306187 -0.04251842 0.102184124 -0.24361476 0.107654095 -0.061864305 -0.40042564 -0.0889641
-0.047128256 -0.14833336 -0.700036 -0.19151862 0.14433633 -0.16114047 0.23760423 -0.18172139
-0.18268639 0.0066628135 0.14902279 0.018630972 -0.08531596 0.090114884 0.52986115 0.060604572
0.09935062 -0.024174826 0.9340461 -0.0017167375 -0.009718665 -0.060865145 0.54634327 -0.23270798
0.024569565 -0.016358972 0.17669658 -0.24844319 0.031686604 0.10224772 0.7279493 0.17661035
0.007997115 0.01326662 -0.9859112 -0.12114996 0.09612577 0.036544204 0.18109591 0.010210233
-0.09549836 -0.13141356 0.060921635 0.1802816 -0.10676074 -0.13351443 -0.16166262 -0.1454456
0.19970897 -0.16194953 0.20708421 0.04370689 -0.057805933 -0.16762885 0.29403552 -0.11879681
-0.09779735 0.024119282 -0.9058908 -0.021000268 -0.0053865854 -0.006810049 -1.0249671 -0.123743035
0.05365255 -0.07129258 0.64292866 0.18607639 -0.058930073 0.022471158 -0.3242221 -0.1496296
0.13745995 -0.027962029 -0.30301732 -0.29955247 -0.15056899 0.19424824 0.33046997 -0.22580267
0.0614993 -0.098131806 -0.28691608 0.027064454 0.0038665566 0.024070973 0.27243638 0.3505092
-0.14061216 -0.13055174 0.086087584 0.13334323 0.16073729 0.1765144 -0.4186156 0.11252032
0.032003842 -0.06094055 -0.95245284 -0.17675081 0.034791484 -0.046677344 0.65231174 -0.19155379
0.21646796 0.04429057 -0.61069 -0.057411123 -0.015178373 0.06111702 0.7410283 0.055409305
0.0142079545 -0.0051699146 0.73982185 0.09119098 0.073719084 -0.059637837 0.5142161 0.026797151
00000000: 7674 9d3d bf92 a3bd 216d f3be 2d64 dd3d
00000010: be76 223e 2c4a f03d f014 ec3d 1334 6a3d
00000020: 5c33 20be b804 933d c8bb 39bf 01b1 08be
00000030: 8f35 dd3c b044 9cbd b516 9d3e abac 35bd
00000040: 2683 2b3d 9108 09be 12ae 3e3f d8ac 19bd
00000050: 116e c0bd b13f a63d 4d9f eabe dd88 ea3c
00000060: a05d e239 00e5 ef3c a868 493e a9d0 b73b
00000070: c73f f6bd 0d04 f43d 130c 81be 1e59 b63d
00000080: 7fe9 62be 11dd 923c 2e39 b83e b385 4e3d
00000090: e7c4 493e 9a01 72bd aaaa a0be 84f9 ddbd
000000a0: 643a c83d 83f1 d5bd 7a1a 6e3d 2df0 88bd
000000b0: 5d3f 3d3e e663 7cbd 4ea9 9a3e 6ede 843d
000000c0: 5f5a 95bd 7a88 31bc 94ca 0c3f f9d0 6c3d
000000d0: 5328 05bd a839 a23d 1194 1cbf 8e7d cf3d
000000e0: fcb8 99bc bd37 c63c 83b1 bfbd 8de4 a73b
000000f0: b154 ac3c 35ec f4bc d51a 163f b4a6 37be
00000100: d579 983c 6188 51bd 67d4 b53e 4157 adbb
00000110: acfb 9abe f6a4 b93c ed2e 243e ba36 cf3d
00000120: 9d1d d7bb ea23 483b a5fd 4d3f 7806 d43d
00000130: 2a55 44bd fbd8 3abd 76b4 4b3f 5156 c6bd
00000140: 8de9 0b3c c26f d83b 9e41 55bf 8ea3 c0bd
00000150: aa0b 82bb 48b7 823c 148f ea3e e0d3 653e
00000160: 16fc 473e 38ae c9bd cf26 36bf 9d02 26be
00000170: b1df dcbc 7403 bf3b 8e8d 143f da66 82bd
00000180: 7768 453d 8c1b 043c c55c 653f e69f 273e
00000190: bbee 0abb 9f64 803d b3c9 373f acaa 873d
000001a0: 2177 23be f58a cdbc bed5 383f 83c2 08bd
000001b0: b8bb 96bd 6518 7a3d dd95 0cbd e1c5 653d
000001c0: e50b 683e 68fa d73d 1bcd c03d 487c 213c
000001d0: 4975 c8bd 5a55 d93d 36b2 e23e f992 943c
000001e0: 3e85 b33e c585 96bd be3a bc3e 7cb5 b53c
000001f0: b42a 5cbc 0a5a 8f3c 766f 393f b6bc f03d
00000200: 86df ad3b cb27 2ebd e945 d13d 2676 79be
00000210: c079 dc3d 6d65 7dbd 9704 cdbe cf32 b6bd
00000220: 8f09 41bd b3e4 17be 8f35 33bf 751d 44be
00000230: e7cc 133e 0202 25be 864e 733e 2c15 3abe
00000240: 2412 3bbe bb53 da3b 6e99 183e fb9f 983c
00000250: 22ba aebd 278e b83d fba4 073f 803c 783d
00000260: 5678 cb3d 490a c6bc a51d 6f3f 2704 e1ba
00000270: 093b 1fbc bb4d 79bd 27dd 0b3f 004b 6ebe
00000280: 1d46 c93c 4003 86bc f3ef 343e e467 7ebe
00000290: d0c9 013d 4167 d13d e35a 3a3f 58d9 343e
000002a0: 5506 033c 3d5c 593c ad64 7cbf 781d f8bd
000002b0: 96dd c43d 60af 153d 3571 393e d248 273c
000002c0: a594 c3bd 4791 06be f788 793d bd9b 383e
000002d0: 60a5 dabd 02b8 08be e38a 25be b1ef 14be
000002e0: 8280 4c3e 19d6 25be e20d 543e ff05 333d
000002f0: eac5 6cbd e6a6 2bbe d38b 963e be4b f3bd
00000300: fa49 c8bd cd95 c53c 76e8 67bf c108 acbc
00000310: f481 b0bb d526 dfbb 1f32 83bf fd6c fdbd
00000320: c7c2 5b3d d801 92bd f996 243f cf8a 3e3e
00000330: a960 71bd 6f15 b83c 7000 a6be 8038 19be
00000340: 4dc2 0c3e a010 e5bc 1625 9bbe f15e 99be
00000350: c22e 1abe 03e9 463e 5c33 a93e d138 67be
00000360: b1e6 7b3d 54f9 c8bd aae6 92be 46b6 dd3c
00000370: 0e66 7d3b 7d30 c53c c87c 8b3e f175 b33e
00000380: a2fc 0fbe 5baf 05be b04e b03d 218b 083e
00000390: 5198 243e 31c0 343e c954 d6be 0e71 e63d
000003a0: 7616 033d cc9c 79bd f3d3 73bf 2afe 34be
000003b0: 8481 0e3d be30 3fbd e7fd 263f ad26 44be
000003c0: c7a9 5d3e 076a 353d 2e56 1cbf ed27 6bbd
000003d0: b6ae 78bc d755 7a3d 08b4 3d3f def4 623d
000003e0: 7bc8 683c 6368 a9bb f764 3d3f 56c2 ba3d
000003f0: 08fa 963d ce46 74bd aba3 033f b385 db3c

feature_layer.0.bias f4 [128]
0.11730708 -0.4114414 -0.18300343 0.16960521 0.062091008 0.058392838 0.05633411 -0.013276879
0.11281736 0.14533938 -0.13620722 0.053857557 0.14583302 0.11020895 -0.059387755 0.07767131
0.1849607 -0.06733671 -0.1631675 0.13674964 -0.17178203 -0.1915912 -0.120034486 0.11694475
-0.1499332 -0.1380823 -0.10844651 -0.19516467 -0.41975263 -0.17454416 -0.27883697 -0.16058576
-0.15428637 0.18116395 -0.21247797 -0.15348509 -0.37712157 0.22768779 -0.13090017 -0.005317571
-0.008912467 -0.16413362 -0.21868445 0.061631467 -0.3219062 0.07128922 -0.11389839 -0.07302289
-0.15225872 -0.21316639 -0.16399924 0.0757339 -0.18710463 -0.23940673 0.16649282 -0.2452587
-0.16325676 0.08823829 -0.20449394 0.08059749 -0.14742108 -0.12137771 -0.14394823 0.120410815
-0.17363471 0.1200913 -0.16075356 0.14239646 -0.15619408 0.13765486 -0.17276426 -0.024443181
0.0063727894 0.09812619 -0.118198656 -0.1645841 -0.16381963 0.080580726 -0.11284787 -0.015427681
-0.18321393 -0.21916679 0.061336316 0.20828827 -0.18607345 0.16747081 -0.028894497 0.032428447
-0.02275751 -0.0769811 -0.22376405 0.028765216 -0.071924955 0.11279493 -0.51157457 -0.18939464
-0.5897632 -0.05538923 -0.12596132 0.035832115 0.03234894 -0.07076256 -0.16058578 0.06783259
0.09926933 -0.07026158 -0.19609891 -0.17965682 -0.19058561 0.003248537 0.12733366 0.11959477
0.021295175 -0.17513311 0.21455589 0.15266244 0.037120767 -0.2723878 0.20772363 -0.04257657
0.042988874 -0.15113509 -0.057836786 -0.16296653 0.09623638 -0.14847821 -0.018405452 -0.36676288
00000000: b23e f03d 72a8 d2be 4065 3bbe fdac 2d3e
00000010: 2453 7e3d 542d 6f3d 99be 663d 4487 59bc
00000020: ca0c e73d d9d3 143e e879 0bbe be99 5c3d
00000030: 4055 153e 3bb5 e13d 9340 73bd 2312 9f3d
00000040: 5666 3d3e d4e7 89bd 6215 27be 1908 0c3e
00000050: a1e7 2fbe 7c30 44be a4d4 f5bd bb80 ef3d
00000060: 1788 19be 7265 0dbe 3419 debd 3fd9 47be
00000070: d1e9 d6be b4bb 32be b8c3 8ebe 9870 24be
00000080: 3ffd 1dbe 0b83 393e d393 59be 322b 1dbe
00000090: 1416 c1be fd26 693e b20a 06be 053f aebb
000000a0: 9905 12bc a512 28be d1ee 5fbe 4771 7c3d
000000b0: e4d0 a4be 1500 923d 8f43 e9bd 068d 95bd
000000c0: b6e9 1bbe 4a48 5abe 6bef 27be 601a 9b3d
000000d0: 5b98 3fbe 0a27 75be 187d 2a3e 1925 7bbe
000000e0: c82c 27be 47b6 b43d dc66 51be 4c10 a53d
000000f0: 8df5 16be e094 f8bd 2a67 13be f299 f63d
00000100: 4ccd 31be 6df2 f53d 959c 24be 61d0 113e
00000110: 57f1 1fbe 65f5 0c3e 1de9 30be 113d c8bc
00000120: d5d2 d03b 62f6 c83d 2312 f2bd bc88 28be
00000130: 55c0 27be 8207 a53d c91c e7bd 62c4 7cbc
00000140: 6f9c 3bbe 426d 60be ca3b 7b3d 8549 553e
00000150: 0a8a 3ebe 787d 2b3e 27b4 ecbc b1d3 043d
00000160: f56d babc 44a8 9dbd 6722 65be 08a5 eb3c
00000170: 644d 93bd 0701 e73d 8df6 02bf abf0 41be
00000180: b9fa 16bf d1df 62bd 01fc 00be b2c4 123d
00000190: 5280 043d f6eb 90bd 9970 24be d0eb 8a3d
000001a0: b84d cb3d 4ee5 8fbd 27ce 48be f5f7 37be
000001b0: e028 43be 68e5 543b c163 023e 1aee f43d
000001c0: 3873 ae3c 1856 33be 8ab4 5b3e 8b53 1c3e
000001d0: f20b 183d 6a76 8bbe 81b5 543e c564 2ebd
000001e0: 1a15 303d 28c3 1abe 44e6 6cbd b3e0 26be
000001f0: 9417 c53d ac0a 18be 08c7 96bc 58c8 bbbe

feature_layer.2.weight f4 [128, 128]
-0.12738746 -0.29521707 -0.049090046 0.35561556 0.32022798 -0.06289353 0.12146689 0.06189525
0.27548954 -0.0547084 0.11481619 0.10313539 0.19634174 -0.18901785 0.0900441 -0.08906653
0.33026353 0.087994084 1.2211645 0.49250966 -1.1505667 0.08141584 0.15046102 0.28835475
0.22626902 -0.057427045 0.3066887 -0.062213764 -0.300819 -0.06171823 -0.15683873 -0.042148106
0.0401467 -0.09348553 -0.40013295 0.14949602 -0.30040935 0.21930805 -0.07501538 -0.105421685
0.12278245 0.6380323 -0.55770373 0.18691216 0.13284168 0.028740529 -0.20801777 0.084475785
-1.2869698 -1.5022774 0.24631824 0.13747995 -0.05494735 -0.3942689 -0.011025727 0.21691085
0.034129094 0.11945846 -1.1848394 0.21603969 -0.43728852 0.23799977 0.7642364 0.17295595
0.21697327 -0.09018029 -0.22934994 0.2656534 -0.16583094 0.06769228 0.31145588 0.15670842
0.04579645 -0.019317854 0.41092262 0.9108729 1.3541462 -0.101410486 0.13107952 0.16437098
0.21121855 0.016758233 -0.07777348 -0.052961964 0.026523113 0.292451 -0.15329339 0.019136768
0.06495766 -0.27592546 -0.24389173 -0.11945561 0.013298275 0.019729158 0.38604146 0.13398907
-0.0049529863 0.03335611 -0.077580556 0.08065304 0.122372165 -0.08052469 0.28877956 -0.19007896
0.18970963 -0.07155736 1.3963048 -1.5354041 0.29708973 -0.30234128 0.02814099 0.15651739
-0.023672182 -0.63722736 0.13361181 0.06986905 -0.03729459 -0.39186826 0.2597461 -0.07013923
0.1326819 -0.11581537 0.12687828 -0.095776364 0.14794502 0.02388382 0.16965854 -0.32934117
0.057477407 -0.1733262 -0.0032191197 -0.034999557 0.074218646 -0.08328311 0.062377546 0.044571072
0.18442982 0.098761626 0.020578567 -0.051499765 0.08829449 0.15049922 0.09140008 -0.1386632
0.11678709 0.06695705 -0.6086211 0.019525493 -0.6564604 -0.044248927 -0.2895346 0.038801104
-0.11688714 -0.24927995 -0.10813676 -0.17998476 -0.14283325 -0.18204029 -0.027036252 -0.2173247
0.0588279 0.15358359 -0.10608951 -0.10578777 -0.39284486 0.13066782 -0.5793682 0.026529178
-0.12150484 -0.6407894 -0.44422927 -0.07988565 0.040201772 0.21123353 -0.069584645 0.17964076
-0.8082747 -0.8168544 -0.09379013 0.008940819 0.04047331 -0.011451257 0.06803548 -0.2599507
0.1992232 0.27883476 -0.54487056 -0.036368936 -0.13849658 -0.2090786 -0.4056158 -0.06592557
-0.21792138 0.026581695 -0.3167856 -0.050950307 -0.07245264 0.17228751 -0.07003118 -0.020030962
-0.06863038 0.076900214 -0.25054994 -0.60985625 -0.63603765 0.12631722 -0.16032158 -0.15017968
-0.06792183 -0.287559 0.0141514875 0.005932639 -0.033238083 0.002023568 0.077459246 -0.07462565
-0.08245475 -0.01053135 0.2866883 0.116833225 0.047331337 -0.14309633 -0.36087406 -0.06693879
-0.99950916 0.1811271 0.13385624 0.15450764 -0.058204927 0.14987491 -0.59030014 -0.0894487
0.13908036 0.12813903 -0.6619708 -1.2035242 -0.0310569 -0.008234529 0.034296833 -0.045331553
-0.10724609 -0.4802919 0.10255297 0.104700334 -0.013939771 0.08241907 0.13289534 -0.07171998
-0.14165153 0.014511158 -0.21440555 0.030326547 0.050870415 0.085142694 0.12373895 -0.117290504
00000000: dc71 02be b126 97be a512 49bd 3e13 b63e
00000010: ecf4 a33e 53ce 80bd a2c3 f83d e085 7d3d
00000020: f70c 8d3e ea15 60bd c024 eb3d a638 d33d
00000030: cf0d 493e e58d 41be 0b69 b83d 8368 b6bd
00000040: 4d18 a93e 3e36 b43d 1e4f 9c3f 3a2a fc3e
00000050: c545 93bf 59bd a63d 7412 1a3e 3ca3 933e
00000060: 11b3 673e 9f38 6bbd 4d06 9d3e dcd3 7ebd
00000070: f304 9abe 41cc 7cbd 559a 20be 7ea3 2cbd
00000080: de70 243d 5775 bfbd 3ade ccbe 7c15 193e
00000090: 41cf 99be 4a92 603e aaa1 99bd 53e7 d7bd
000000a0: 5d75 fb3d 1656 233f acc5 0ebf e765 3f3e
000000b0: a607 083e 4271 eb3c 9c02 55be a401 ad3d
000000c0: 6dbb a4bf a04a c0bf d93a 7c3e 8bc7 0c3e
000000d0: 7910 61bd 9ddd c9be 40a5 34bc e11d 5e3e
000000e0: f3ca 0b3d a3a6 f43d d1a8 97bf 8239 5d3e
000000f0: 48e4 dfbe 36b6 733e ffa4 433f 5d1b 313e
00000100: 3e2e 5e3e 72b0 b8bd b6da 6abe b903 883e
00000110: 96cf 29be 40a2 8a3d 2577 9f3e 2c78 203e
00000120: 0f95 3b3d 7a40 9ebc 7364 d23e f72e 693f
00000130: aa54 ad3f 4db0 cfbd b639 063e de50 283e
00000140: ad49 583e 9048 893c b447 9fbd a5ee 58bd
00000150: 0047 d93c 23bc 953e f1f8 1cbe b6c4 9c3c
00000160: 8608 853d 1a46 8dbe c1be 79be 25a5 f4bd
00000170: 02e1 593c 0b9f a13c 3aa7 c53e 6e34 093e
00000180: a94c a2bb 6ba0 083d 8ee2 9ebd 6c2d a53d
00000190: 429e fa3d 21ea a4bd eada 933e 0fa4 42be
000001a0: 3e43 423e aa8c 92bd 1eba b23f 1f88 c4bf
000001b0: 251c 983e 7acc 9abe ef87 e63c 1846 203e
000001c0: 2aec c1bc 5521 23bf 89d1 083e 8117 8f3d
000001d0: 36c2 18bd f5a2 c8be 71fd 843e 28a5 8fbd
000001e0: c4dd 073e 9c30 edbd 61ec 013e 6626 c4bd
000001f0: e67e 173e 00a8 c33c f8ba 2d3e 689f a8be
00000200: 6e6d 6b3d 6c7c 31be def7 52bb b25b 0fbd
00000210: f2ff 973d 5690 aabd 997f 7f3d 2890 363d
00000220: 2cdb 3c3e 8943 ca3d 6294 a83c 6bf1 52bd
00000230: bed3 b43d 781c 1a3e f72f bb3d bafd 0dbe
00000240: 122e ef3d c720 893d 98ce 1bbf edf3 9f3c
00000250: ca0d 28bf 5d3e 35bd e13d 94be e8ed 1e3d
00000260: 8662 efbd 3e43 7fbe ce76 ddbd ed4d 38be
00000270: e142 12be c568 3abe 217b ddbc 5e8a 5ebe
00000280: 86f5 703d 0445 1d3e 7545 d9bd 42a7 d8bd
00000290: f622 c9be c9cd 053e 7951 14bf b853 d93c
000002a0: 88d7 f8bd c60a 24bf 0572 e3be 169b a3bd
000002b0: 9daa 243d 9a4d 583e 6582 8ebd bff3 373e
000002c0: 17eb 4ebf 5f1d 51bf 0a15 c0bd 837c 123c
000002d0: 57c7 253d 0e9e 3bbc 3056 8b3d 4218 85be
000002e0: 2b01 4c3e 6ec3 8e3e a37c 0bbf 98f7 14bd
000002f0: 0cd2 0dbe b318 56be e0ac cfbe fc03 87bd
00000300: c826 5fbe dbc1 d93c b931 a2be 45b1 50bd
00000310: 0d62 94bd 236c 303e 826c 8fbd f917 a4bc
00000320: 168e 8cbd dc7d 9d3d 1548 80be 8a1f 1cbf
00000330: 5dd3 22bf 4d59 013e 572b 24be b4c8 19be
00000340: 9a1a 8bbd ef3a 93be a4db 673c 9566 c23b
00000350: a824 08bd d69d 043b f4a2 9e3d 55d5 98bd
00000360: 09de a8bd af8b 2cbc cfc8 923e 4246 ef3d
00000370: 81de 413d d887 12be 7cc4 b8be 3417 89bd
00000380: d5df 7fbf 6279 393e 9c11 093e 4037 1e3e
00000390: 4a68 6ebd cf78 193e e91d 17bf e130 b7bd
000003a0: 156b 0e3e e136 033e eb76 29bf 150d 9abf
000003b0: 0a6b febc 1eea 06bc d67a 0c3d 94ad 39bd
000003c0: d7a3 dbbd d2e8 f5be 4b07 d23d 216d d63d
000003d0: a363 64bc 54cb a83d b715 083e ede1 92bd
000003e0: 190d 11be 35c0 6d3c 218d 5bbe 616f f83c
000003f0: 7f5d 503d 4b5f ae3d d96a fd3d 0136 f0bd

feature_layer.2.bias f4 [128]
0.21955566 0.2479131 0.23928389 0.19833183 -0.048016693 0.25071925 0.22579968 -0.17599876
0.2705942 0.17936721 0.22646041 -0.010108553 0.23793383 -0.10839248 -0.02659646 0.27748406
-0.048221357 -0.101490304 0.21661077 0.26622018 -0.041927088 0.21827261 0.08610603 0.25139287
-0.04734911 0.26657978 0.26967868 -0.03505492 -0.13654429 0.29270002 0.2672641 0.24557309
-0.016210046 0.18371014 0.1839445 0.2968375 -0.024396503 0.21756078 0.236822 -0.03704124
-0.024484787 0.23001802 0.07496056 0.19748257 0.25175732 0.20703271 -0.01988885 0.123256914
-0.08298022 -0.053624902 0.22950862 -0.017290143 0.217838 0.15500869 -0.0501014 0.2612592
-0.2881403 0.24051516 -0.009132685 0.096918456 -0.092199944 -0.03174411 0.13067336 -0.12676027
0.13919659 -0.0063366457 -0.018118031 0.2293788 0.23758137 0.27238467 -0.095919065 0.25553575
-0.015792891 -0.010194236 0.21219829 0.2623473 0.20708294 0.23121037 -0.038155284 -0.035830017
0.273831 0.25383058 -0.1075111 0.26337266 -0.013221993 0.26181605 -0.19237104 -0.039494503
0.2787348 -0.024497602 0.25911534 0.24320926 0.24839413 0.28281128 -0.036593407 0.22301376
-0.041685287 0.26275367 0.13635728 0.26197138 0.25541064 0.11703473 -0.030570317 0.2568468
-0.0308733 0.22243893 0.2400333 0.2125514 -0.07993729 0.24519518 -0.09969978 -0.13783138
-0.025671842 0.2850892 0.25917724 -0.13348599 -0.018495385 0.25595498 0.2375869 0.13800518
0.20221452 0.24706638 -0.12832193 -0.03725056 -0.10370582 -0.013301435 0.27861276 0.24182282
00000000: 33d3 603e efdc 7d3e d606 753e 8017 4b3e
00000010: 27ad 44bd 465e 803e 0838 673e 0539 34be
00000020: 538b 8a3e 0aac 373e 3de5 673e 589e 25bc
00000030: eda4 733e e0fc ddbd d2e0 d9bc 6412 8e3e
00000040: c283 45bd 26da cfbd 37cf 5d3e 034e 883e
00000050: bdbb 2bbd db82 5f3e 5c58 b03d 91b6 803e
00000060: 24f1 41bd 257d 883e 5313 8a3e bf95 0fbd
00000070: 44d2 0bbe c7dc 953e d7d6 883e 8377 7b3e
00000080: eeca 84bc 831e 3c3e f25b 3c3e 16fb 973e
00000090: 2ddb c7bc 41c8 5e3e 7781 723e 8eb8 17bd
000000a0: 5294 c8bc d889 6b3e ec84 993d df38 4a3e
000000b0: 56e6 803e 6200 543e f1ed a2bc 1f6e fc3d
000000c0: 89f1 a9bd c9a5 5bbd 4f04 6b3e 0fa4 8dbc
000000d0: ed10 5f3e 99ba 1e3e 2037 4dbd c4c3 853e
000000e0: 2087 93be 9b49 763e 42a1 15bc 2f7d c63d
000000f0: 53d3 bcbd 1d06 02bd 3dcf 053e 72cd 01be
00000100: 8d89 0e3e a3a3 cfbb 446c 94bc 47e2 6a3e
00000110: 8848 733e 0176 8b3e 3771 c4bd 95d5 823e
00000120: 1860 81bc ba05 27bc 824a 593e 6352 863e
00000130: 8d0d 543e 69c2 6c3e b748 1cbd 7fc2 12bd
00000140: 9433 8c3e 15f6 813e c82e dcbd c8d8 863e
00000150: 0fa1 58bc c10c 863e eafc 44be fdc4 21bd
00000160: 54b6 8e3e 32af c8bc c4aa 843e d90b 793e
00000170: 085b 7e3e a4cc 903e f8e2 15bd b85d 643e
00000180: 31be 2abd a687 863e 3ea1 0b3e 1d21 863e
00000190: 2fc5 823e e8af ef3d 9a6e fabc 6c81 833e
000001a0: 01ea fcbc 08c7 633e 4acb 753e 13a7 593e
000001b0: 29b6 a3bd 7214 7b3e 662f ccbd ab23 0dbe
000001c0: c14d d2bc 36f7 913e e1b2 843e 8db0 08be
000001d0: a283 97bc 880c 833e fb49 733e 3b51 0d3e
000001e0: 5311 4f3e f8fe 7c3e d366 03be 0b94 18bd
000001f0: b863 d4bd 43ee 59bc 55a6 8e3e 67a0 773e

value_stream.0.weight f4 [64, 128]
-0.0418858 0.2053861 0.03995926 0.06453954 0.07211719 0.2558821 0.08175288 -0.1202591
0.3317748 0.13861084 0.15448578 0.016970428 0.035875384 0.100120775 -0.16463424 0.22723266
0.095933415 0.036956273 -0.06696392 0.26716697 0.14175034 0.08564179 -0.10265695 0.08928489
0.01888779 -0.048805397 0.077741794 -0.06271274 -0.84682226 0.26924422 0.12919217 -0.02313799
0.17250997 0.20665067 0.13017638 0.1821146 -0.11559085 -0.0018581381 0.11710671 -0.0892362
0.14273311 0.044336785 0.18302949 0.29478106 0.011885955 0.061559524 -0.10737996 -0.066803455
-0.2972899 0.1787992 0.14236677 -0.11049066 0.21248843 0.11926143 0.18343857 0.26433864
-0.60196626 0.022926135 -0.0647166 0.05388684 -0.58863294 -0.11176064 -0.0511111 -0.0038587903
0.17706351 0.020638442 0.01661775 -0.06874531 0.023862174 0.024525808 -0.46092114 -0.0065341275
0.024807433 -0.024054917 -0.08536604 0.20532759 0.15913771 0.10307296 0.061984807 3.157591e-05
0.17447679 -0.034649305 0.021981087 0.290654 -0.11280725 0.23807766 0.011139559 0.07720054
0.055506628 -0.07161357 0.048268348 0.21848153 0.0727831 0.009674121 0.040421084 -0.018285781
-0.10292285 0.060184244 -0.083936244 0.01229882 0.13830133 0.09252952 0.035189472 0.33161634
0.08654375 0.2431612 0.24710488 0.10668231 0.05671538 0.29694128 -0.14172293 -0.17762777
0.14692543 0.24832457 0.15864518 -0.09072955 -0.067835666 0.15848336 0.08027913 0.04040355
0.20059563 0.16146828 -0.09360583 -0.026210424 -0.42334154 0.05346052 0.33760148 -0.054973662
-0.009302585 0.21651076 -0.0987672 0.15462455 0.040647812 0.23055424 0.09058027 -0.025523538
-0.024577342 0.13125794 0.23343256 -0.060076237 0.25809145 -0.03196514 -0.09823873 0.028052818
-0.13460277 -0.007922196 -0.062171325 0.19538476 -0.05246404 0.1561034 0.16400988 -0.05844671
-0.086235516 0.20426722 0.01628351 -0.15567137 -0.75894266 -0.03396944 -0.053181186 0.026733138
0.14085485 0.21204191 0.115227915 0.1332086 -0.08577003 0.13211863 0.19284162 0.035739947
0.19111326 0.19957665 0.14587134 0.0032572336 0.18860991 0.08196013 -0.029608222 0.04779818
-0.2945522 -0.031705454 0.17415044 -0.10682625 0.090914935 0.081749596 0.36951616 -0.0018776325
-0.5372124 0.22885893 0.039557848 0.13589536 -0.5554799 -0.0023361577 0.21294971 0.07434011
0.2516345 0.12598523 8.538598e-05 0.23538788 0.08014451 0.23022027 -0.5424685 -0.10009437
0.07478838 0.06323255 -0.013430474 0.060638484 0.12101507 0.19141684 0.038300533 0.15351644
0.2741207 0.17087238 -0.06821959 0.081995904 -0.1324813 0.16606838 0.07436999 -0.052644297
0.06345521 -0.0787559 0.10418482 0.17585908 0.24694262 0.010385089 0.037452117 -0.003532738
-0.15634815 0.23457271 0.14319474 0.2503817 0.20590478 0.10306198 0.033324525 0.22322883
-0.0816178 0.2031663 -0.07386461 0.075979024 -0.07747427 0.18290956 0.1197722 -0.017119609
-0.06603422 0.2693113 -0.08474988 -0.11797367 -0.1222474 0.06209973 0.20143062 0.093596436
-0.0655668 -0.040717438 -0.019567491 -0.09578335 -0.4610085 0.1384546 0.199057 -0.119599864
00000000: 7290 2bbd bc50 523e 52ac 233d 4e2d 843d
00000010: 2db2 933d fb02 833e 0e6e a73d 674a f6bd
00000020: 63de a93e 00f0 0d3e 8531 1e3e 9105 8b3c
00000030: 11f2 123d 1f0c cd3d e195 28be aeaf 683e
00000040: bd78 c43d 765f 173d 6124 89bd 1cca 883e
00000050: 0027 113e f664 af3d cf3d d2bd ffda b63d
00000060: 91ba 9a3c 2be8 47bd 1737 9f3d 896f 80bd
00000070: 58c9 58bf 61da 893e f44a 043e e28b bdbc
00000080: 74a6 303e 3c9c 533e f54c 053e 407c 3a3e
00000090: e5ba ecbd c58c f3ba a5d5 ef3d 78c1 b6bd
000000a0: a128 123e 7d9a 353d 156c 3b3e 8bed 963e
000000b0: 4fbd 423c d725 7c3d 06ea dbbd 40d0 88bd
000000c0: 6236 98be 2317 373e 98c8 113e ed48 e2bd
000000d0: 9196 593e 563f f43d 52d7 3b3e 6557 873e
000000e0: 761a 1abf 97cf bb3c 238a 84bd 72b8 5c3d
000000f0: a6b0 16bf c3e2 e4bd df59 51bd c2e3 7cbb
00000100: 2350 353e f311 a93c f321 883c 57ca 8cbd
00000110: 9b7a c33c 59ea c83c dbfd ebbe 3c1c d6bb
00000120: f538 cb3c d10e c5bc 64d4 aebd 6541 523e
00000130: fff4 223e eb17 d33d c8e3 7d3d 6070 0438
00000140: 0baa 323e 6eec 0dbd ae11 b43c 9ad0 943e
00000150: 7d07 e7bd a1ca 733e b282 363c 511b 9e3d
00000160: eb5a 633d 23aa 92bd 08b5 453d 9fb9 5f3e
00000170: 4e0f 953d 3480 1e3c 9490 253d 10cc 95bc
00000180: 37c9 d2bd c183 763d c4e6 abbd fd80 493c
00000190: dd9e 0d3e 1e80 bd3d d622 103d 9ec9 a93e
000001a0: d93d b13d 40ff 783e 1009 7d3e 417c da3d
000001b0: 634e 683d b008 983e d11f 11be 0ee4 35be
000001c0: 9f73 163e cc48 7e3e e273 223e 6ad0 b9bd
000001d0: 6ded 8abd 7649 223e 6269 a43d 317e 253d
000001e0: f168 4d3e f157 253e 6ab4 bfbd 3eb7 d6bc
000001f0: 39c0 d8be 6bf9 5a3d 1ada ac3e 102c 61bd
00000200: df69 18bc ffb4 5d3e 7546 cabd e655 1e3e
00000210: 527e 263d 6916 6c3e 2682 b93d bd16 d1bc
00000220: 6c56 c9bc 7b68 063e f208 6f3e 8012 76bd
00000230: 9024 843e e1ed 02bd 6331 c9bd 06cf e53c
00000240: 4fd5 09be 19cc 01bc 5ca7 7ebd f112 483e
00000250: 89e4 56bd 92d9 1f3e 35f2 273e d165 6fbd
00000260: 3f9c b0bd 6d2b 513e ff64 853c 5168 1fbe
00000270: 114a 42bf 8a23 0bbd 84d4 59bd 74ff da3c
00000280: 413c 103e 8421 593e 9dfc eb3d d667 083e
00000290: 33a8 afbd 1b4a 073e 4678 453e 0d64 123d
000002a0: 32b3 433e d25d 4c3e 4c5f 153e 5077 553b
000002b0: f522 413e b6da a73d f18c f2bc 06c8 433d
000002c0: 8ccf 96be 94dd 01bd 7e54 323e b9c7 dabd
000002d0: 9c31 ba3d 556c a73d 3931 bd3e e41a f6ba
000002e0: c086 09bf ff59 6a3e 6907 223d 2728 0b3e
000002f0: ee33 0ebf 391a 19bb 7d0f 5a3e a13f 983d
00000300: 3dd6 803e 4602 013e 4011 b338 8509 713e
00000310: ce22 a43d ddbe 6b3e 37df 0abf 47fe ccbd
00000320: a62a 993d 1180 813d 7e0b 5cbc 0f60 783d
00000330: c0d6 f73d c702 443e 05e1 1c3d 6a33 1d3e
00000340: 8c59 8c3e 2bf9 2e3e b6b6 8bbd 78ed a73d
00000350: 2ea9 07be d40d 2a3e 4b4f 983d 8ca1 57bd
00000360: cef4 813d c64a a1bd da5e d53d 6714 343e
00000370: 87de 7c3e 3826 2a3c 6467 193d 8285 67bb
00000380: bb19 20be d433 703e a4a1 123e 0832 803e
00000390: b4d8 523e 2912 d33d 4c7f 083d 1996 643e
000003a0: 3c27 a7bd d40a 503e 5446 97bd e49a 9b3d
000003b0: d4aa 9ebd a54c 3b3e 214b f53d 6c3e 8cbc
000003c0: f33c 87bd 2ce3 893e 5891 adbd 2e9c f1bd
000003d0: d85c fabd 495c 7e3d d443 4e3e 7daf bf3d
000003e0: e347 86bd 54c7 26bd 014c a0bc 102a c4bd
000003f0: 4e09 ecbe 0bc7 0d3e 99d5 4b3e c6f0 f4bd

value_stream.0.bias f4 [64]
0.35858566 0.32936597 -0.028699104 -0.039175913 -0.017869847 0.314356 0.34845555 0.32159263
-0.04713031 -0.012794068 0.33581045 0.06229594 -0.006005485 0.12732467 0.37486562 0.34853864
0.30916223 0.060885582 -0.044519406 0.3457104 0.056070592 0.36713886 0.33819216 -0.038142957
0.34268335 0.3413077 0.3466984 -0.011195169 -0.008468502 0.33816895 -0.025106601 0.3438264
-0.03199484 -0.031687822 -0.05600573 0.31861928 -0.05131123 -0.007488614 0.3476021 0.36266565
-0.039226163 0.34092057 0.37008524 -0.05552101 -0.0132645285 0.084821604 -0.010810478 0.35219583
0.36900267 -0.03454911 0.34765 -0.012899606 -0.020974351 0.059954315 0.33447734 -0.05421304
-0.012194906 0.0 -0.028703393 0.317406 0.041308444 -0.010481575 -0.02761607 0.04609168
00000000: 8a98 b73e a8a2 a83e 621a ebbc ec76 20bd
00000010: c963 92bc 45f3 a03e c468 b23e caa7 a43e
00000020: b60b 41bd 369e 51bc 59ef ab3e 072a 7f3d
00000030: a9c9 c4bb 6661 023e 63ee bf3e a873 b23e
00000040: 834a 9e3e 2963 793d fb59 36bd f400 b13e
00000050: 47aa 653d a0f9 bb3e 8627 ad3e ca3b 1cbd
00000060: 3174 af3e e2bf ae3e 7482 b13e f16b 37bc
00000070: 79bf 0abc 7b24 ad3e 5cac cdbc 040a b03e
00000080: 050d 03bd 17cb 01bd 4466 65bd 1122 a33e
00000090: b92b 52bd 0c63 f5bb e7f8 b13e 50af b93e
000000a0: 9dab 20bd 248d ae3e d07b bd3e 006a 63bd
000000b0: 7753 59bc f3b6 ad3d 6e1e 31bc 0353 b43e
000000c0: ebed bc3e 5e83 0dbd 2eff b13e de58 53bc
000000d0: 67d2 abbc a892 753d 9d40 ab3e 7e0e 5ebd
000000e0: 25cd 47bc 0000 0000 6123 ebbc 0a83 a23e
000000f0: 0b33 293d e9ba 2bbc 193b e2bc a1ca 3c3d

value_stream.2.weight f4 [1, 64]
0.25492486 0.16044709 -0.24923652 0.0015710691 -0.17446975 0.23567586 0.3981243 0.14349356
-1.5223291 -0.118485756 0.20268431 -0.7946936 -0.14061312 -1.6635125 0.17724796 0.38773665
0.0889935 -0.7653615 -1.4592202 0.40718397 -0.7585527 0.2436449 0.20328495 -0.05179405
0.28644294 0.258185 0.32910815 -0.2740107 -0.18060018 0.36553168 -0.012935296 0.28415197
-0.024146521 -0.027965123 -0.13776383 0.16872004 -0.07433332 -0.14190528 0.38087964 0.33517504
-0.8351824 0.2041693 0.30880275 -0.12422462 -0.23108917 -0.6383317 -0.27662364 0.3315729
0.29628253 -1.3940108 0.3733674 -0.11788443 -1.1162232 -0.70905244 0.26195565 -0.07722443
-0.07711462 -0.22217159 -0.17014764 0.47602054 -0.6169685 -0.19452102 -0.10339584 -0.6454697
00000000: 8385 823e 3e4c 243e dc37 7fbe 55ec cd3a
00000010: 33a8 32be 0355 713e f3d6 cb3e faef 123e
00000020: aedb c2bf a9a8 f2bd 7a8c 4f3e 0a71 4bbf
00000030: e3fc 0fbe faed d4bf 7d80 353e 6b85 c63e
00000040: 3942 b63d bbee 43bf bac7 babf 6b7a d03e
00000050: 8230 42bf 0c7e 793e ee29 503e ff25 54bd
00000060: a6a8 923e d330 843e dd80 a83e 214b 8cbe
00000070: 41ef 38be f826 bb3e 90ee 53bc 5e7c 913e
00000080: edce c5bc 1d17 e5bc f611 0dbe f2c4 2c3e
00000090: 113c 98bd 9e4f 11be a802 c33e 109c ab3e
000000a0: 84ce 55bf c211 513e 651b 9e3e 7a69 febd
000000b0: a4a2 6cbe b569 23bf 9da1 8dbe ecc3 a93e
000000c0: 58b2 973e f26e b2bf 032a bf3e 646d f1bd
000000d0: 67e0 8ebf 7684 35bf 0d1f 863e d827 9ebd
000000e0: 45ee 9dbd f380 63be 2f3b 2ebe f7b8 f33e
000000f0: a6f1 1dbf 8530 47be 33c1 d3bd 813d 25bf

advantage_stream.0.weight f4 [64, 128]
0.22396578 -0.87486655 -0.30151322 -0.2409922 0.15269266 -0.30226183 -0.073164076 0.014795754
-0.55749285 0.12093394 -0.18427221 0.06823375 -0.09370799 0.15701774 0.11082562 -0.602167
-0.108468294 -0.08173646 -0.37922996 -0.15638316 0.15064064 -0.31657225 0.17867918 -1.0712647
0.1968317 -0.10352024 0.11855926 0.11206292 1.0569208 -0.19901267 -0.6976651 -0.9001683
0.13875632 -0.12444263 -0.32608697 -0.042846017 -0.013128988 -0.3970602 -0.23911509 0.0056495494
0.13254854 -0.113545455 0.09455488 0.2669497 -0.2054597 -0.3455654 -0.0857968 -0.5758672
1.6614047 0.036820263 0.048690118 -0.022100002 -0.36545223 -0.025509497 -0.13418856 0.056955278
-0.36531577 -0.4210314 0.03552564 0.29590344 0.9981726 0.06255223 -0.36247182 0.15016972
0.046044983 0.14934562 0.05131221 -0.20809317 -0.877826 0.022659983 -0.02713985 0.06300774
-0.12623113 -0.10955505 0.023868412 -0.8336029 -0.19201039 -0.014691691 -0.028665721 -0.1605305
-0.7566305 0.18542333 0.52113444 -0.30440888 0.16830103 -0.02341664 0.1595892 -0.09404411
-0.26876783 0.087873265 -0.66859525 -0.9146696 -0.744929 -0.3061638 -0.097083926 -0.44106025
0.17835233 -0.19893776 0.0050570895 -0.96329343 -0.36753616 0.1305979 -0.15972117 -0.13798244
0.17912535 0.0062613515 -0.93343604 -0.05173491 -0.11289979 0.043635387 0.17028436 -0.15316533
-0.13668363 -0.73533183 -0.17336129 0.38087344 0.13044007 0.058713235 -0.11027976 -0.1398341
-0.9196173 -0.38739538 1.0049939 -0.08797177 0.118323565 -0.073568724 -0.35302785 -0.57528967
-0.18518695 -0.013179665 0.14959206 0.15316598 -0.043350752 -0.0065778634 -0.16812634 -0.10689675
0.0823669 -0.029852476 0.04455369 0.024381865 -0.09505638 0.14856495 0.17222981 0.025290819
0.15903579 0.04937078 0.11525331 -0.17134133 0.060135316 -0.17466538 -0.053917322 -0.17505513
0.06442172 -0.19370686 -0.055782788 -0.07085748 0.11790137 -0.17057997 -0.099824734 0.1223581
0.08169123 0.090616174 0.11187763 -0.12563515 0.04051009 -0.17911741 -0.12276992 -0.031495146
-0.093794666 0.022528699 0.02203844 0.0006615675 0.088997275 -0.028014917 0.14142352 -0.05266963
0.12363328 0.1437956 0.14006063 -0.085257195 -0.09470785 -0.14291434 -0.07003234 0.16157603
-0.046706904 -0.15171467 -0.12826195 -0.165159 -0.089014195 0.059369564 -0.123975776 -0.09863134
-0.1787485 -0.16378975 -0.09331161 -0.18725097 -0.036667556 -0.068716094 -0.08194964 -0.13496962
0.0571723 0.08182308 -0.0799039 0.0010412153 0.115172535 -0.060023572 -0.10458022 0.11562709
-0.10008292 -0.1044096 0.122878425 0.0076833647 -0.13464223 0.035026446 0.05041805 0.16237877
-0.106697075 0.08935593 -0.08117415 -0.008165223 -0.1787589 -0.16826758 0.09072993 -0.04522825
0.074041374 -0.1556254 0.09803577 -0.12029448 -0.12310912 0.13143104 -0.11072384 -0.120377526
-0.1514779 0.06814251 -0.029529693 -0.043512724 0.05134722 -0.08661391 0.03447429 -0.12610053
-0.042647522 0.04293495 0.040439446 0.12288504 0.17171684 0.113165006 -0.12715937 -0.14394747
-0.08525786 -0.04555329 0.17353891 0.026691606 -0.027382018 0.12544772 0.018188242 0.12583335
00000000: 4957 653e 41f7 5fbf f15f 9abe a9c6 76be
00000010: 775b 1c3e 10c2 9abe 0cd7 95bd e469 723c
00000020: dab7 0ebf 37ac f73d dbb1 3cbe 23be 8b3d
00000030: fae9 bfbd 42c9 203e 8bf8 e23d 9e27 1abf
00000040: a024 debd 7265 a7bd 6e2a c2be e822 20be
00000050: 8a41 1a3e c215 a2be adf7 363e 341f 89bf
00000060: 408e 493e 6b02 d4bd 33cf f23d 3f81 e53d
00000070: 2e49 873f fac9 4bbe 2e9a 32bf 6e71 66bf
00000080: 2316 0e3e c7db febd dff4 a6be 4e7f 2fbd
00000090: f81a 57bc 794b cbbe 96da 74be db1f b93b
000000a0: ceba 073e 858a e8bd fda5 c13d a2ad 883e
000000b0: 0764 52be f3ed b0be 3cb6 afbd 086c 13bf
000000c0: e9a8 d43f d8d0 163d 4a6f 473d 100b b5bc
000000d0: 8e1c bbbe 4bf9 d0bc ba68 09be f049 693d
000000e0: ab0a bbbe 6d91 d7be 5583 113d a880 973e
000000f0: 3d88 7f3f 621b 803d e895 b9be 17c6 193e
00000100: aa99 3c3d 0fee 183e c02c 523d 6016 55be
00000110: 34b9 60bf 6ea1 b93c 6454 debc 340a 813d
00000120: bc42 01be 665e e0bd b087 c33c 0067 55bf
00000130: 5f9e 44be 6bb5 70bc 60d4 eabc 1b62 24be
00000140: 89b2 41bf 9ddf 3d3e 1169 053f 7bdb 9bbe
00000150: 1b57 2c3e 41d4 bfbc 5a6b 233e 339a c0bd
00000160: f09b 89be e6f6 b33d 0f29 2bbf c927 6abf
00000170: abb3 3ebf 80c1 9cbe f0d3 c6bd a6d2 e1be
00000180: fea1 363e 57b6 4bbe f1b5 a53b 669a 76bf
00000190: b32d bcbe 75bb 053e f28d 23be 454b 0dbe
000001a0: a36c 373e 062c cd3b aaf5 6ebf fce7 53bd
000001b0: 0138 e7bd 05bb 323d 065f 2e3e 5fd7 1cbe
000001c0: cbf6 0bbe b53e 3cbf 9f85 31be d801 c33e
000001d0: 1592 053e 4a7d 703d 5bda e1bd ac30 0fbe
000001e0: 0a6c 6bbf b058 c6be a4a3 803f 8b2a b4bd
000001f0: a053 f23d 33ab 96bd 11c0 b4be 2f46 13bf
00000200: a6a1 3dbe 86ef 57bc a92e 193e 8bd7 1c3e
00000210: 8f90 31bd 1e8b d7bb 5029 2cbe afec dabd
00000220: faaf a83d 2e8d f4bc ee7d 363d 7abc c73c
00000230: ebac c2bd 6921 183e 035d 303e b12e cf3c
00000240: 47da 223e 0439 4a3d ed09 ec3d 1a74 2fbe
00000250: 7350 763d 7bdb 32be 69d8 5cbd a741 33be
00000260: 89ef 833d 175b 46be 7e7c 64bd ba1d 91bd
00000270: 4676 f13d 84ac 2ebe e970 ccbd e296 fa3d
00000280: bb4d a73d f994 b93d 1920 e53d 80a6 00be
00000290: e8ed 253d 8e6a 37be cc6e fbbd 0e01 01bd
000002a0: 6b17 c0bd 1b8e b83c f589 b43c 0b6d 2d3a
000002b0: 3444 b63d 8a7f e5bc 54d1 103e 1cbc 57bd
000002c0: 7233 fd3d 273f 133e 0e6c 0f3e 539b aebd
000002d0: 30f6 c1bd 2358 12be 1e6d 8fbd 3074 253e
000002e0: bd4f 3fbd 175b 1bbe 1a57 03be 711f 29be
000002f0: 134d b6bd 802d 733d 03e7 fdbd 3aff c9bd
00000300: d909 37be 80b8 27be 281a bfbd b8be 3fbe
00000310: b830 16bd 06bb 8cbd 36d5 a7bd 7a35 0abe
00000320: 802d 6a3d dc92 a73d a8a4 a3bd 6379 883a
00000330: 94df eb3d 47db 75bd 282e d6bd e5cd ec3d
00000340: 46f8 ccbd b3d4 d5bd afa7 fb3d bcc4 fb3b
00000350: a7df 09be e477 0f3d 2883 4e3d 9f46 263e
00000360: ff83 dabd 3e00 b73d a23e a6bd 6dc7 05bc
00000370: 930c 37be 564e 2cbe 9dd0 b93d 4241 39bd
00000380: 01a3 973d 445c 1fbe fac6 c83d f45c f6bd
00000390: a220 fcbd dc95 063e 2ec3 e2bd 7e88 f6bd
000003a0: 061d 1bbe 4d8e 8b3d 41e8 f1bc 663a 32bd
000003b0: 7651 523d a262 b1bd ea34 0d3d 7f20 01be
000003c0: 2baf 2ebd 8fdc 2f3d d5a3 253d 27ab fb3d
000003d0: 8ad6 2f3e 0ec3 e73d 1136 02be f766 13be
000003e0: ac9b aebd 1696 3abd 2fb4 313e 5ba8 da3c
000003f0: 4150 e0bc 5e75 003e 82ff 943c 75da 003e

advantage_stream.0.bias f4 [64]
-0.1278902 -0.05035701 0.02530801 0.066568285 0.09978776 -0.01964705 0.033677436 0.05570535
-0.01044071 -0.09840776 0.076625906 0.059915368 0.037465464 0.02488284 -0.026338695 0.07109866
0.18220316 0.039000574 0.07635018 0.20199317 -0.024310065 -0.029101575 0.0011175746 -0.028479733
-0.043681137 0.026596243 -0.024578802 0.004874931 0.050461296 0.044997886 0.06828019 -0.021156562
0.01957239 -0.01913465 0.04448392 -0.0065639736 0.07229855 -0.030551607 0.0015308153 -0.015331176
0.029902458 0.0542285 0.012705603 0.03910272 0.0010374606 0.04547795 0.013700472 0.035229076
-0.00076749956 0.21251214 0.07228625 0.038274728 0.08289405 -0.03501442 0.12691067 0.061575804
-0.019082103 -0.024698768 0.063780874 -0.03422588 0.08297302 0.054753408 0.058986776 -0.02970735
00000000: a6f5 02be 2743 4ebd be52 cf3c f454 883d
00000010: 865d cc3d daf2 a0bc 5af1 093d 4b2b 643d
00000020: 830f 2bbc 028a c9bd 0bee 9c3d d169 753d
00000030: 6375 193d 19d7 cb3c 3fc4 d7bc 2d9c 913d
00000040: 7793 3a3e 11bf 1f3d 7c5d 9c3d 4cd7 4e3e
00000050: e725 c7bc 6d66 eebc 957b 923a 544e e9bc
00000060: feea 32bd 5de0 d93c 7c59 c9bc e3bd 9f3b
00000070: 81b0 4e3d b44f 383d 7cd6 8b3d 8750 adbc
00000080: 4756 a03c 45c0 9cbc c534 363d 9a16 d7bb
00000090: 4311 943d 5d47 fabc a3a5 c83a 9d2f 7bbc
000000a0: 00f6 f43c b41e 5e3d 292b 503c 2c2a 203d
000000b0: 67fb 873a 1647 3a3d f277 603c 5d4c 103d
000000c0: 0632 49ba c89c 593e d00a 943d f6c5 1c3d
000000d0: 5bc4 a93d 486b 0fbd dff4 013e e936 7c3d
000000e0: 1252 9cbc 1255 cabc 8c9f 823d 7030 0cbd
000000f0: c2ed a93d 1c45 603d 1e9c 713d d45c f3bc

advantage_stream.2.weight f4 [2, 64]
-0.31626913 0.05813019 0.19131005 0.23417564 -0.4768091 -0.7250746 -0.333823 0.7545881
0.26195338 0.15460995 0.7295558 0.30824137 -0.6308034 -0.08181176 -0.035795484 0.34352636
0.7187141 0.20503272 0.27205455 -0.9040066 -0.16371499 -0.06982085 0.20687643 0.013932788
-0.21396811 0.0145447 0.1423421 -0.60446477 -0.31200176 -0.87240434 0.35169977 0.18078873
-0.089209 0.09084699 -0.03194303 -0.8362351 0.3645609 -0.46976155 0.31092745 0.061903194
0.029034453 -0.03869954 0.53481245 1.029824 0.05055479 0.61467814 -0.75454694 -0.38333684
0.12193941 0.6227029 -0.55188036 -0.3308717 0.9772515 0.20185538 0.07296566 -0.7626284
0.19839579 0.0062545487 -0.7773738 0.13477851 0.7165622 1.0258887 0.93098617 -0.024053244
0.83542925 -0.24750187 -0.16527301 -0.46689305 0.43325916 0.6667785 -0.019482726 -0.4417736
0.023982434 -0.11231626 -0.74944764 -0.33983898 0.91499525 0.11545872 0.013226144 -0.31650227
-0.8177687 -0.2739412 -0.44273502 0.86862016 -0.17838024 0.02464356 -0.0072984975 -0.07919345
0.16080324 0.17536429 0.13543764 0.83244514 0.35695398 0.9635217 -0.34230262 -0.036496937
0.3383872 0.16280253 -0.35321915 0.94832474 -0.43556267 0.9365244 -0.262528 0.069546334
0.22537728 0.4623871 -0.45808476 -0.6849145 -0.0283627 -1.0733563 0.96568114 0.13680378
-0.24994433 -0.92878944 0.042182013 0.23996188 -0.5859047 0.21146251 -0.6641164 0.6382219
0.2530882 -0.25331905 0.8183912 -0.22990566 -0.8710701 -1.0126078 -0.6160624 -0.10921848
00000000: 07ee a1be ec19 6e3d c8e6 433e bdcb 6f3e
00000010: 5320 f4be 7d9e 39bf d9ea aabe b02c 413f
00000020: c11e 863e 1252 1e3e 2bc4 3a3f d0d1 9d3e
00000030: 557c 21bf ed8c a7bd 499e 12bd b0e2 af3e
00000040: a6fd 373f 19f4 513e bc4a 8b3e fa6c 67bf
00000050: e7a4 27be 3cfe 8ebd 6ad7 533e 5946 643c
00000060: 751a 5bbe e54c 6e3c 21c2 113e 34be 1abf
00000070: b2be 9fbe e455 5fbf fe11 b43e ae20 393e
00000080: 35b3 b6bd fd0d ba3d b2d6 02bd 8113 56bf
00000090: baa7 ba3e 9684 f0be e231 9f3e 348e 7d3d
000000a0: a9d9 ed3c 6983 1ebd 78e9 083f 46d1 833f
000000b0: 8a12 4f3d 8c5b 1d3f fd29 41bf ba44 c4be
000000c0: 5fbb f93d 7569 1f3f 0848 0dbf 0468 a9be
000000d0: 282d 7a3f 2db3 4e3e 056f 953d 9d3b 43bf
000000e0: 4428 4b3e f5f2 cc3b f801 47bf 6103 0a3e
000000f0: 9f70 373f 5250 833f 1c55 6e3f 4f0b c5bc
00000100: b1de 553f 2171 7dbe 543d 29be 9b0c efbe
00000110: 25d4 dd3e ffb1 2a3f 3d9a 9fbc 2630 e2be
00000120: cf76 c43c 1106 e6bd cddb 3fbf 60ff adbe
00000130: 213d 6a3f 9f75 ec3d 78b2 583c 960c a2be
00000140: 4a59 51bf 0542 8cbe 2aae e2be e45d 5e3f
00000150: 4fa9 36be 4be1 c93c 3c28 efbb 2d30 a2bd
00000160: 9ba9 243e b292 333e 2ab0 0a3e 201b 553f
00000170: acc2 b63e 5ca9 763f 4a42 afbe d07d 15bd
00000180: 1641 ad3e b5b5 263e 24d9 b4be 69c5 723f
00000190: 1202 dfbe 10c0 6f3f 126a 86be 4f6e 8e3d
000001a0: 4dc9 663e 01be ec3e 168a eabe 8f56 2fbf
000001b0: e558 e8bc bd63 89bf e136 773f 4a16 0c3e
000001c0: 68f1 7fbe 25c5 6dbf 0cc7 2c3d 91b8 753e
000001d0: dafd 15bf a189 583e 8803 2abf 8362 233f
000001e0: c794 813e 09b3 81be 1682 513f 646c 6bbe
000001f0: 73fe 5ebf 229d 81bf 44b6 1dbf f0ad dfbd

advantage_stream.2.bias f4 [2]
-0.032229293 0.032229293
00000000: dd02 04bd dd02 043d

exp_avg f4 [128, 4]
-0.0004596255 -0.0006034188 -0.00024629573 -6.505195e-05 0.003746916 0.0059228847 0.00069822546 -0.0030770723
-0.0030903094 -0.0010827777 3.5146164e-05 -0.0008593048 -0.00023472845 -0.0012139385 -0.00066913775 -0.0008926274
0.0010038012 0.004017131 0.0007378682 0.0010256561 -0.0018047885 -0.004071742 -0.00095379597 -0.002761935
-0.0008265197 -0.002077303 0.00027973016 0.002016104 0.00074847706 0.0006302182 -7.538481e-05 -0.0006999794
0.00094544847 0.0017553817 0.0002664086 0.00017511297 -0.000649131 -0.0035323417 -0.0020637258 -0.0068288883
6e-45 6e-45 6e-45 6e-45 0.00046109335 0.0012095695 0.0005332392 0.00078149
-0.00039027422 0.0011874379 0.0008587295 0.0009915852 -0.0023898645 -0.0058082407 -0.0014130118 -0.0029761002
6e-45 6e-45 -6e-45 -6e-45 0.0011885685 0.0035356965 -4.3262306e-05 -0.0019311409
1.8621795e-06 -0.0011390843 -0.0004927738 0.0007462492 0.00037494418 0.0011759115 0.00021166602 -0.0002509222
0.0044141277 -0.0001594047 0.0038908916 0.026321443 0.0015647338 0.0044283844 0.0007513838 0.00013591745
0.0004683152 -0.0028343583 -0.0007762243 0.004903986 0.0007268856 -0.0012691526 0.0003145179 0.0038475778
-0.0030600408 -0.004828381 -0.00060975755 -0.0015590655 0.0021993686 0.0049889144 0.0004099108 0.0001760769
0.0004526446 0.0011140582 0.0012244009 0.005723593 -0.0005556105 0.0025830418 0.00016265584 -0.0016387574
0.0013899455 0.0026723146 -0.00022233481 -0.002111157 -6e-45 6e-45 6e-45 6e-45
0.00023168523 0.0018262286 0.00045750232 -0.002420175 -1.1031721e-05 0.00052983215 1.7392269e-05 -0.00028485747
0.0013032495 0.0020669126 0.00033021433 -0.0008590741 0.0017513576 0.000860299 0.0010494059 0.0066430997
0.0002388672 0.00043143373 9.182408e-05 0.00064854557 -0.0014033059 -0.0048310915 -0.0019566112 -0.004877857
-0.0027502961 -0.0025505838 -0.0010622425 -0.0045510135 0.000221575 0.000113785616 2.424118e-06 -5.4569613e-05
0.008649264 0.010019628 0.00018628582 -0.0022809322 0.0023810286 0.003029322 -0.00014971488 0.0008562519
0.002126513 0.011340506 0.0013663638 -0.0067433827 0.00022611661 -0.00035765616 0.00015442747 0.0013007377
-0.00036787207 -0.00057668367 -0.00020189119 0.00029471677 -0.0003993783 0.0018525616 0.0015826398 0.00587826
-0.001151061 -0.0029138944 0.00048196467 0.005171147 0.0006227245 0.00047164297 -0.0001304092 -0.00027246587
0.0010502351 0.0007932967 3.229372e-05 -0.00024800372 -0.0003646391 -0.0011349277 -0.00081481965 -0.0020687315
0.0003236339 0.00024350776 0.00031666385 0.001513261 0.0008735262 0.0026091384 0.00041038706 -0.00032359277
-0.029671967 -0.04647325 -0.007349189 -0.014804285 0.0011470995 -0.00733036 0.0018799433 0.015101458
0.00053387746 -0.0019005064 9.116113e-05 0.0037795017 -0.0020278424 -0.0071303383 -0.001711789 -0.0013522839
0.0011926247 0.00024849884 0.00013801482 0.00056786323 0.00056659756 0.0006844241 -5.112963e-05 -0.00028600136
-0.0026061155 -0.0054529104 -0.0016308791 -0.0028153209 0.0006135623 -0.0023449636 0.0003551984 0.0054346086
-0.0001306796 0.00072131807 0.00041222226 0.0011125874 0.000985047 -0.00087076856 -0.0017465355 -0.005741643
-0.01288443 -0.036236577 -0.0047418163 0.0028467956 0.00139431 0.0030670397 -0.0001922883 -0.0017763138
-0.0012824418 -0.00086111086 0.00092565274 -9.474205e-05 0.00034646448 0.0024795076 0.0001579931 -0.001145275
0.003287188 0.0002467921 0.0026903613 0.017605629 0.0009665998 0.0043338994 0.0012572281 0.0018906863
00000000: e4f9 f0b9 c02e 1eba 4121 81b9 806c 88b8
00000010: d28e 753b c214 c23b 1e09 373a b5a8 49bb
00000020: ca86 4abb feeb 8dba e869 1338 f842 61ba
00000030: 7021 76b9 041d 9fba 1369 2fba 36ff 69ba
00000040: fb91 833a 23a2 833b 7f6d 413a 4f6f 863a
00000050: a78e ecba 3f6c 85bb 2a08 7aba 9401 35bb
00000060: ccaa 58ba 5c23 08bb bfa8 9239 9d20 043b
00000070: 7235 443a 3a35 253a e917 9eb8 d37e 37ba
00000080: f9d7 773a d614 e63a c2ac 8b39 889e 3739
00000090: 722a 2aba dc7e 67bb 933f 07bb dec4 dfbb
000000a0: 0400 0000 0400 0000 0400 0000 0400 0000
000000b0: e7be f139 6b8a 9e3a 14c9 0b3a e8dc 4c3a
000000c0: b89d ccb9 cea3 9b3a 5c1c 613a 14f8 813a
000000d0: 469f 1cbb 0e53 bebb cf34 b9ba ad0a 43bb
000000e0: 0400 0000 0400 0000 0400 0080 0400 0080
000000f0: bec9 9b3a 25b7 673b 8c74 35b8 561e fdba
00000100: 00f0 f935 544d 95ba 7d2d 01ba f09f 433a
00000110: 2894 c439 0b21 9a3a aaf2 5d39 358e 83b9
00000120: 63a4 903b e025 27b9 54fe 7e3b 11a0 d73c
00000130: c117 cd3a fb1b 913b 83f8 443a 1085 0e39
00000140: 3488 f539 a4c0 39bb 887b 4bba 9eb1 a03b
00000150: 788c 3e3a b259 a6ba e1e5 a439 a527 7c3b
00000160: f78a 48bb 6537 9ebb 23d8 1fba 8f59 ccba
00000170: 4823 103b 0c7a a33b 4ce9 d639 48a1 3839
00000180: ee50 ed39 9705 923a 147c a03a fa8c bb3b
00000190: 64a6 11ba 4048 293b 988e 2a39 93cb d6ba
000001a0: d52e b63a 0022 2f3b 8c22 69b9 565b 0abb
000001b0: 0400 0080 0400 0000 0400 0000 0400 0000
000001c0: 88f0 7239 105e ef3a ecdc ef39 cc9b 1ebb
000001d0: e214 39b7 6fe4 0a3a 9de5 9137 ec58 95b9
000001e0: ccd1 aa3a 0a75 073b 9e20 ad39 7d33 61ba
000001f0: cf8d e53a b085 613a 388c 893a 5cae d93b
00000200: 6d78 7a39 0e32 e239 ad91 c038 2803 2a3a
00000210: 22ef b7ba 224e 9ebb 7d3a 00bb 6ed6 9fbb
00000220: 503e 34bb b227 27bb f23a 8bba ab20 95bb
00000230: 9656 6839 30a0 ee38 08ae 2236 ade1 64b8
00000240: a5b5 0d3c 5e29 243c b855 4339 b17b 15bb
00000250: 080b 1c3b 9787 463b c8fc 1cb9 1876 603a
00000260: f85c 0b3b 88cd 393c 9017 b33a 98f7 dcbb
00000270: b719 6d39 cc83 bbb9 cfed 2139 847d aa3a
00000280: f4de c0b9 962c 17ba c1b2 53b9 3784 9a39
00000290: a663 d1b9 a7d1 f23a 9470 cf3a 6b9e c03b
000002a0: 33df 96ba 09f7 3ebb 34b0 fc39 ba72 a93b
000002b0: 553e 233a d946 f739 74be 08b9 c0d9 8eb9
000002c0: 0ba8 893a 3ef5 4f3a 1e73 0738 7f06 82b9
000002d0: 082d bfb9 dbc1 94ba 9f99 55ba 8e93 07bb
000002e0: 68ad a939 1e56 7f39 e705 a639 9d58 c63a
000002f0: 5afd 643a 14fe 2a3b 3829 d739 e3a7 a9b9
00000300: a012 f3bc bc5a 3ebd 77d1 f0bb ac8d 72bc
00000310: 465a 963a 8433 f0bb 6e68 f63a 1b6c 773c
00000320: e9f3 0b3a 6a1a f9ba c22d bf38 84b1 773b
00000330: 8de5 04bb 9da5 e9bb 1c5e e0ba 1e3f b1ba
00000340: d851 9c3a f348 8239 12b8 1039 a8dc 143a
00000350: b887 143a ed6a 333a 0674 56b8 74f2 95b9
00000360: 5dcb 2abb 54ae b2bb 39c3 d5ba 3f81 38bb
00000370: 78d7 203a f6ad 19bb ec39 ba39 cd14 b23b
00000380: 0a07 09b9 d616 3d3a 891f d839 3dd4 913a
00000390: b11c 813a 4a44 64ba 02ec e4ba 6424 bcbb
000003a0: 3719 53bc ce6c 14bd 3d61 9bbb 4e91 3a3b
000003b0: 48c1 b63a 6300 493b ffa0 49b9 33d3 e8ba
000003c0: 9b17 a8ba 2cbc 61ba 81a7 723a 40b0 c6b8
000003d0: ada5 b539 3c7f 223b f3aa 2539 0d1d 96ba
000003e0: dd6d 573b e063 8139 c650 303b ae39 903c
000003f0: 6a63 7d3a 6203 8e3b 93c9 a43a e8d0 f73a
