CartPoleHighRewardIn2026/checkpoints/checkpoint_ep150_reward79.00.pt (torch, 421167 bytes, 33 tensors)

feature_layer.0.weight f4 [128, 4]
0	0x3df1f8df	0.118150465
1	0xbdfbc6d9	-0.122937866
2	0xbeb9b985	-0.36274353
3	0x3d8123b6	0.063056394
4	0x3da5c744	0.080946475
5	0x3dd37af7	0.10326188
6	0x3e11bd96	0.14232478
7	0xbc0b37fb	-0.0084972335
8	0xbddc30b7	-0.10751479
9	0x3cebbdda	0.028777052
10	0xbef1b837	-0.47210857
11	0xbe0d3292	-0.13788822
12	0x3b0714a1	0.002061166
13	0xbdbdc57b	-0.09266182
14	0x3e1ed5c6	0.15511236
15	0xbdad7361	-0.084692724
16	0xbddda463	-0.1082237
17	0xbe128adb	-0.14310782
18	0x3f05948a	0.5217978
19	0x3e1ba21f	0.15198563
20	0xbdde807f	-0.108643524
21	0x3d7caf89	0.06169084
22	0xbe629c40	-0.22129917
23	0xbd9e41f0	-0.0772742
24	0x3c59e6c0	0.013299644
25	0xbb4887fd	-0.0030598633
26	0x3c88aefc	0.016685002
27	0x3d90ddb0	0.070735335
28	0xbd326790	-0.043555796
29	0x3e015385	0.12629516
30	0xbe1c1a57	-0.15244423
31	0x3da09459	0.07840795
32	0xbe4dc412	-0.20094326
33	0x3de075d1	0.10959972
34	0x3eaab67f	0.33342358
35	0x3d13ef9b	0.036117177
36	0x3e36c85d	0.1784987
37	0xbda0b677	-0.078473024
38	0xbe0993cc	-0.13435286
39	0xbdef73a8	-0.116919816
40	0x3e3d2b91	0.1847365
41	0xbd84c68b	-0.064831816
42	0xbe4c119d	-0.19928594
43	0xbdf92d8c	-0.121668905
44	0xbe9099c6	-0.2824232
45	0x3e2ff57b	0.17183487
46	0x3f110f50	0.5666399
47	0x3e14d429	0.14534058
48	0xbd00e4fa	-0.03146837
49	0x3ae8da57	0.0017765266
50	0x3e029a24	0.12754112
51	0x3c63e975	0.013910641
52	0x3c339cb8	0.010962658
53	0x3d9d7876	0.07688992
54	0xbeb588c6	-0.35455912
55	0x3dc5f9a5	0.096667565
56	0x3e156766	0.14590225
57	0x3dbfa718	0.093580425
58	0xbd867d67	-0.06566887
59	0xbc5c4ded	-0.013446313
60	0xbda1ca37	-0.078998975
61	0xbd7ed643	-0.062216055
62	0x3ed14c1b	0.40878376
63	0xbe0b6266	-0.13611755
64	0x3ce9ae82	0.028525595
65	0xbd0e03a1	-0.03467143
66	0x3e3e8b60	0.18607855
67	0xbcf90026	-0.030395579
68	0xbe80c279	-0.2514837
69	0x3de83345	0.11337904
70	0xbe220fea	-0.15826383
71	0x3ce13835	0.027492622
72	0x3d3e56a6	0.046469353
73	0x3d59f6b3	0.053213786
74	0xbeead519	-0.45865706
75	0x3bf8ec47	0.007596526
76	0xbe05fdf5	-0.13085158
77	0xbd92fddc	-0.07177326
78	0x3f0cbc7b	0.549751
79	0xbe0cf396	-0.13764796
80	0x3dc2daca	0.09514387
81	0xbd5c326b	-0.05375902
82	0xbecbbd23	-0.39792737
83	0xbdb77598	-0.08957976
84	0x3d8c9d39	0.06865925
85	0xbda7dd8b	-0.08196553
86	0x3e1dd6b9	0.15413941
87	0x3e2ef2e3	0.17084841
88	0x3eab5a81	0.33467487
89	0xbddfb3de	-0.10922979
90	0xbee3eb9e	-0.445157
91	0xbe059c09	-0.13047804
92	0xbd59fb9c	-0.05321847
93	0xbca4ae1d	-0.020102555
94	0x3eb9555d	0.3619794
95	0xbd327edf	-0.043578025
96	0xbdadab5e	-0.08479951
97	0x3ca327a6	0.019916367
98	0x3ece14ea	0.4025033
99	0x3e2a0df0	0.16606879
100	0x3d106e67	0.035261538
101	0x3dcb371a	0.09922619
102	0x3dacf5d7	0.08445328
103	0x3de33a28	0.11095077
104	0xbda43f3c	-0.080198735
105	0xbd280c08	-0.0410271
106	0x3d615a10	0.05501753
107	0x3d2a1055	0.04151948
108	0xbe1f055e	-0.15529391
109	0x3d11e485	0.035618324
110	0x3d18fd67	0.03735104
111	0x3e3cc7fa	0.1843566
112	0x3e13acee	0.14421436
113	0x3e1aec97	0.15129314
114	0xbd8f95c9	-0.07010991
115	0xbdf198f8	-0.117967546
116	0xbc8a0fad	-0.016853178
117	0x3e31bac2	0.17356399
118	0x3b512530	0.0031913035
119	0x3db4d4ef	0.08829676
120	0x3e26d7e2	0.1629329
121	0xbe5b6228	-0.21424162
122	0x3e6474b5	0.22310145
123	0x3d55effb	0.052230816
124	0xbdb2207b	-0.086976014
125	0x3c930127	0.017944885
126	0x3ec2bd35	0.38034979
127	0x3dcd6349	0.10028703
128	0x3d0372db	0.032091957
129	0xbd17e383	-0.037082206
130	0x3eaca0c7	0.33716413
131	0xbd95b1f3	-0.07309332
132	0x3d2c51ed	0.042070318
133	0xbe311ce0	-0.17296171
134	0xbe795af1	-0.24351098
135	0xbd66e0ab	-0.056366604
136	0x3d08f6e3	0.033438575
137	0xbe36d5af	-0.17854951
138	0xbebe5447	-0.37173674
139	0xbe4021a7	-0.18762837
140	0x3e4da8b7	0.20083891
141	0xbe10c6ff	-0.14138411
142	0x3dac7101	0.08419991
143	0xba2761a4	-0.0006385094
144	0xbe65b35b	-0.224317
145	0xbd843225	-0.06454877
146	0x3ee48668	0.44633794
147	0xbdfd3272	-0.12363137
148	0xbe164141	-0.1467333
149	0x3de9fb41	0.11424876
150	0x3ea77576	0.32706803
151	0x3d4bb20a	0.04973034
152	0x3e3522ff	0.17689131
153	0xbda53abf	-0.080678456
154	0x3efb4bd2	0.49081284
155	0xbccc85a1	-0.024966063
156	0xbdd183fd	-0.10230253
157	0x3d117394	0.035510615
158	0x3e96a9a5	0.29426304
159	0xbda7859e	-0.08179782
160	0x3dbab86d	0.09117208
161	0x3c0528fb	0.008127446
162	0x3e8a63d8	0.270293
163	0xbe24429d	-0.16041036
164	0x3e6d7539	0.23189248
165	0x3e66def9	0.22545995
166	0xbcc46392	-0.02397326
167	0x3dc5158e	0.09623252
168	0xbe1c4aba	-0.15262881
169	0x3d4dc6ec	0.050238535
170	0xbea481b6	-0.32130212
171	0xbe29b1de	-0.16571757
172	0x3db8a83c	0.09016463
173	0x3e251c40	0.16124058
174	0x3e4ed777	0.20199381
175	0x3de93a5a	0.11388083
176	0xbdd52370	-0.1040715
177	0xbe0cb6ff	-0.13741682
178	0x3ea37491	0.3192487
179	0x3e1cffd5	0.15331967
180	0xbdcd9db1	-0.10039843
181	0xbe5a0c21	-0.2129369
182	0xbe9840cc	-0.29736936
183	0xbdd74f23	-0.10513141
184	0x3e4a5578	0.19759166
185	0xbe115deb	-0.14195983
186	0x3d9b869d	0.07594035
187	0xbd0fd6d3	-0.03511698
188	0xbdc3763f	-0.09544038
189	0xbe1501e7	-0.14551507
190	0x3e61efe9	0.22064175
191	0xbe165884	-0.14682204
192	0xbe1843f9	-0.1486968
193	0x3d143434	0.036182597
194	0xbed97702	-0.42473608
195	0x3d169887	0.036766555
196	0x3db7cab0	0.089742064
197	0xbd88311e	-0.06649993
198	0xbf0f87f7	-0.5606684
199	0xbe104981	-0.1409054
200	0x3e35c1b7	0.17749678
201	0xbe1db986	-0.15402803
202	0x3e794921	0.24344303
203	0x3de76c13	0.112999104
204	0xbba74682	-0.0051048407
205	0x3d3a0160	0.045411468
206	0xbcdd11bf	-0.026986001
207	0xbd9f07cf	-0.07765161
208	0x3e5d39de	0.21604106
209	0x3d992c7f	0.0747919
210	0xbe3d19a9	-0.1846682
211	0xbdbde68c	-0.09272489
212	0xbe09dfeb	-0.13464324
213	0x3dd6b849	0.10484368
214	0x3ea24665	0.31694332
215	0xbdb6e7a8	-0.08930904
216	0x3e1d9f9c	0.15392917
217	0xbddb29bf	-0.10701322
218	0xbde23d49	-0.110468455
219	0xbc068513	-0.008210438
220	0xbe45d976	-0.19321236
221	0x3db57ba5	0.08861474
222	0x3e8c593c	0.2741183
223	0x3e2f4a8f	0.17118286
224	0xbde567cc	-0.11201438
225	0xbe46b722	-0.19405797
226	0x3ddbd034	0.10733071
227	0x3e3574f8	0.17720401
228	0x3def9702	0.11698724
229	0x3dcf0b8a	0.10109623
230	0xbec3efde	-0.38268942
231	0x3ddff6c7	0.10935741
232	0x3e1bb329	0.15205063
233	0xbdfb30a3	-0.12265136
234	0xbee1bc09	-0.44088772
235	0xbe60dfbf	-0.21960352
236	0xbe19fee8	-0.15038645
237	0x3c1fbfe8	0.009750344
238	0x3e987381	0.29775622
239	0xbdcb78eb	-0.09935173
240	0x3d1634b9	0.036671374
241	0xbc53cafc	-0.012926813
242	0xbf101446	-0.56280935
243	0xbd93c972	-0.07216157
244	0xbe0660f1	-0.13122918
245	0xbe1fbcb3	-0.15599327
246	0x3ec3cb4d	0.38241044
247	0x3e1952f1	0.14973046
248	0xbce3e910	-0.027821094
249	0xbd09612c	-0.033539936
250	0x3e836aaf	0.2566733
251	0x3d720d97	0.05909499
252	0xbde54c33	-0.111961745
253	0xbd16ddc1	-0.036832575
254	0x3e8d0dd6	0.27549618
255	0x3d998aea	0.07497199

feature_layer.0.bias f4 [128]
0	0x3d09ee6d	0.033674646
1	0xbd5734c9	-0.052540574
2	0xbda3b1d8	-0.079929054
3	0x3dcb5b0d	0.09929476
4	0x3cd6fb55	0.026242891
5	0x3d8cc36b	0.068732105
6	0x3d4a955e	0.049458854
7	0x3daf0ced	0.08547387
8	0x3d919a0f	0.071094625
9	0x3dd87126	0.10568456
10	0xbdbead2a	-0.09310372
11	0x3c85fc47	0.016355647
12	0x3daaeab9	0.08345551
13	0x3da9dbbd	0.08293865
14	0x3d852fec	0.06503281
15	0x3bf44d2e	0.0074554896
16	0x3dd6bac1	0.10484839
17	0x3ccc9289	0.024972217
18	0xbd8c1125	-0.068392076
19	0x3da2472e	0.07923733
20	0xbdd19be3	-0.10234811
21	0xbe0158b9	-0.12631501
22	0xbb758fe2	-0.0037469794
23	0x3d88aab6	0.066731855
24	0xbdc9f09c	-0.09860346
25	0xbceb016e	-0.028687205
26	0x3d906505	0.07050518
27	0x3d6bcf07	0.057570484
28	0xbd999c8b	-0.07500561
29	0xbbd2ff5d	-0.006439133
30	0xbd859d58	-0.065241516
31	0xbdbe1e59	-0.09283132
32	0x3d10e423	0.035373818
33	0x3d38d3f8	0.045124024
34	0xbe11a382	-0.1422253
35	0x3dcc64a3	0.099801324
36	0xbcf10c26	-0.029424738
37	0x3dd806f9	0.10548205
38	0xbd19f13c	-0.037583575
39	0xbd8f5a59	-0.06999654
40	0x3d36953e	0.044575922
41	0xbda95f38	-0.08270115
42	0xbe3ab05e	-0.18231341
43	0x3d8249fe	0.06361769
44	0xbe1366ad	-0.14394636
45	0x3d3b88ef	0.045784887
46	0x3d844a76	0.06459515
47	0x3deda84e	0.11604367
48	0x3db85d34	0.09002152
49	0xbe1505fd	-0.14553066
50	0xbdb2d4f0	-0.08732021
51	0x3d67e78f	0.056617316
52	0xbdd76e5c	-0.10519096
53	0x3cd9002f	0.026489345
54	0x3dba374f	0.090925805
55	0xbddc6afd	-0.10762594
56	0xbd32567b	-0.043539505
57	0x3ddad7c4	0.10685685
58	0xbe1df363	-0.15424876
59	0x3c908049	0.017639296
60	0xbdee5c8d	-0.116387464
61	0xbc04fb9f	-0.008116632
62	0xbdafb002	-0.08578493
63	0xbd125f42	-0.035735376
64	0xbdc6d638	-0.09708828
65	0x3dd7ed5b	0.10543319
66	0xbe0a0573	-0.13478641
67	0x3d98d732	0.0746292
68	0xbdaf4a89	-0.08559138
69	0x3db6bb0b	0.08922394
70	0xbdb65321	-0.08902574
71	0x3d270cba	0.04078362
72	0x3c9c8168	0.019104674
73	0x3db12631	0.086498626
74	0xbde8395e	-0.11339067
75	0xbdb15ab6	-0.0865988
76	0xbda43b3d	-0.08019111
77	0x3d9d274c	0.07673511
78	0xbdd96666	-0.10615234
79	0x3d2cd4d2	0.04219515
80	0x3d522248	0.051302224
81	0x3cc0becd	0.02352848
82	0x3da280bc	0.079347104
83	0x3d5b568c	0.053549334
84	0x3d412074	0.04715009
85	0x3db1c895	0.08680836
86	0xbe10f799	-0.14156951
87	0x3dc01cf7	0.093805246
88	0x3bd9e11f	0.006649151
89	0x3d53326b	0.051561754
90	0xbd7bea3b	-0.061502676
91	0x3c9bd4e4	0.019022413
92	0x3d0bb2b6	0.03410598
93	0x3dae38ed	0.085069515
94	0xbdbf4f3b	-0.09341284
95	0xbd81fa31	-0.06346548
96	0xbe0b27a3	-0.13589339
97	0x3d3f7b3c	0.046748385
98	0xbd6a921f	-0.05726826
99	0xbdf2d771	-0.118574984
100	0x3da8ae53	0.08236375
101	0x3d91ac49	0.07112939
102	0xbe002eb0	-0.1251781
103	0xbc8e56fc	-0.017375462
104	0x3dc72ccf	0.097253434
105	0x3cf774b3	0.030207014
106	0xbe057fb8	-0.13037002
107	0xbde59bef	-0.112113826
108	0xbde72551	-0.112864144
109	0x3da55cd3	0.080743454
110	0x3d7aba08	0.06121257
111	0x3da96793	0.08271708
112	0x3d9df21a	0.07712193
113	0xbdb4304f	-0.08798277
114	0x3dbfd83b	0.093674146
115	0x3dab958a	0.08378132
116	0x3d03aa8c	0.032145068
117	0xbdb5bc12	-0.08873762
118	0x3de178db	0.110093795
119	0x3d3dca68	0.046335608
120	0xbd4007dc	-0.046882495
121	0xbd61c862	-0.05512274
122	0xbdf35141	-0.11880732
123	0xbda43e94	-0.08019748
124	0x3da96aa7	0.082722954
125	0xbd4248a5	-0.04743256
126	0x3d8037f8	0.06260675
127	0xbda73597	-0.08164518

feature_layer.2.weight f4 [128, 128]
0	0xbca80cb1	-0.020513864
1	0x3d418015	0.04724129
2	0xbdf90c5f	-0.12160563
3	0x3e63d912	0.22250775
4	0x3ddbafac	0.10726866
5	0xbd91e786	-0.07124238
6	0x3d96ad2a	0.07357247
7	0x3c6b3787	0.0143565005
8	0x3dccc5f4	0.09998694
9	0xbd011a78	-0.031519383
10	0xbecd0e6e	-0.4005007
11	0x3da656c1	0.08122016
12	0x3d86abdb	0.065757476
13	0xbe208617	-0.15676151
14	0x3e2999f3	0.16562633
15	0xbd62a002	-0.055328377
16	0x3e2de37b	0.16981308
17	0xbe3394bb	-0.17537205
18	0xbeaec01b	-0.3413094
19	0x3e81f450	0.25381708
20	0xbef541e4	-0.47901833
21	0x3d683d8a	0.056699313
22	0x3e1ab98f	0.15109847
23	0x3dfeb8c0	0.12437582
24	0x3e0d883a	0.13821498
25	0xbdb7c028	-0.08972198
26	0x3dee15b4	0.11625233
27	0x3af7e599	0.001891303
28	0x3ccf921d	0.025338227
29	0xbe3c12f7	-0.1836661
30	0x3d9dd937	0.07707446
31	0x3d84608e	0.06463729
32	0x3dfa3c85	0.122185744
33	0xbe042719	-0.1290554
34	0xbeaa59b4	-0.33271563
35	0x3dedcbcb	0.11611136
36	0x3da1dcd3	0.07903447
37	0xbcf70982	-0.0301559
38	0xba0bc78d	-0.00053321646
39	0xbe297468	-0.16548312
40	0x3d83fc75	0.06444637
41	0x3e084ad1	0.1330979
42	0xbe8d29fe	-0.275711
43	0x3e184fd4	0.14874202
44	0x3e3f5715	0.18685563
45	0x3d30146f	0.042988237
46	0xbc7dde6f	-0.015494927
47	0x3ba58112	0.005050787
48	0xbdf0d324	-0.11759022
49	0xbf1bff9a	-0.6093689
50	0x3df1358a	0.1177779
51	0x3dd48f6f	0.1037892
52	0x3cae52c6	0.021279704
53	0xbdd3f2eb	-0.10349067
54	0xbb49f2ee	-0.0030814963
55	0x3dd6f8a6	0.10496645
56	0x3d0e5917	0.03475293
57	0x3d7ef11b	0.062241655
58	0xbf2860a3	-0.65772456
59	0x3dcbafd0	0.09945643
60	0xbee7ff59	-0.45312002
61	0x3e467785	0.1938153
62	0x3d281323	0.041033875
63	0x3de92291	0.11383546
64	0x3e1aeb6a	0.15128866
65	0xbdaccb49	-0.08437211
66	0xbec71f70	-0.38891172
67	0x3e0b37b4	0.13595468
68	0xbe0031fe	-0.1251907
69	0x3dde70c5	0.10861353
70	0x3e73bd7e	0.23802754
71	0x3e08a784	0.13345152
72	0x3d8f194a	0.069872454
73	0xbd290348	-0.041262895
74	0x3e071ccf	0.13194583
75	0x3e91e036	0.28491372
76	0x3ea5b205	0.3236238
77	0x3db9185e	0.09037851
78	0x3e1fffda	0.15624943
79	0x3e1098d1	0.14120795
80	0x3e36294b	0.1778919
81	0x3c9f82b4	0.019471504
82	0xbdd20a76	-0.102559015
83	0xbd9396d4	-0.072065026
84	0x3d38a6f5	0.045081098
85	0x3dd74610	0.1051141
86	0xbd937766	-0.07200508
87	0xbb97e004	-0.004634859
88	0x3dacd158	0.08438367
89	0xbdd10bbe	-0.10207318
90	0xbde93709	-0.1138745
91	0x3d4a2305	0.049349803
92	0x3da201b2	0.079104796
93	0x3cad4ac7	0.02115382
94	0x3e717e11	0.23583247
95	0x3e00203b	0.12512295
96	0x3e5ded42	0.21672538
97	0x3d19d543	0.037556898
98	0xbe43ef50	-0.19134259
99	0x3ebe335a	0.37148553
100	0x3cced766	0.025249194
101	0xbd26a98c	-0.040689036
102	0x3f0024bf	0.5005607
103	0x3bfe966a	0.0077693956
104	0x3dd0afe1	0.10189796
105	0x3e392d6e	0.18083736
106	0x3ea97c45	0.33102623
107	0xbf28f36d	-0.6599644
108	0x3e4d14ea	0.2002751
109	0xbd101a23	-0.035181176
110	0x3dc393ab	0.0954965
111	0xbc5251f7	-0.012836925
112	0x3dbfe7de	0.09370397
113	0xbf0a4900	-0.5401764
114	0x3de72ea6	0.11288194
115	0x3d8d5714	0.069013745
116	0xbc03ceb0	-0.008044884
117	0xbdfaf64a	-0.12254007
118	0x3d9fcae2	0.07802369
119	0xbd916b19	-0.071005054
120	0xbd6be544	-0.05759169
121	0x3e03ac8e	0.12858793
122	0x3caab73d	0.020839328
123	0xbc7fa913	-0.015604275
124	0x3e138e6e	0.14409801
125	0x3e135c88	0.14390767
126	0x3e320db7	0.17388044
127	0xbea2f40f	-0.31826827
128	0x3c6fd2ea	0.014637688
129	0xbd906da8	-0.07052165
130	0xbc4417f0	-0.011968598
131	0xbdeec178	-0.11657995
132	0x3d21a970	0.03946823
133	0xbd9290bb	-0.071565114
134	0x3d6e7d6a	0.058225073
135	0x3d315e4a	0.04330281
136	0x3d521660	0.05129087
137	0x3d97a4c8	0.074044764
138	0x3b9d71a7	0.004804808
139	0xbdddf13f	-0.1083703
140	0x3c37ac27	0.011210478
141	0x3de56618	0.112011135
142	0x3de6dd44	0.11272672
143	0xbdfafa5a	-0.12254782
144	0x3cc70c80	0.024297953
145	0xbd9daeaf	-0.07699334
146	0x3dd686c5	0.10474924
147	0xbddeb299	-0.108739085
148	0xbd9f6ab2	-0.077840224
149	0x3d7bc4a9	0.061466847
150	0xbe024aa4	-0.12723786
151	0x3bf77474	0.007551724
152	0x3d817807	0.063217215
153	0xbd3c9de6	-0.04604902
154	0xbe4ab4d6	-0.19795546
155	0xbe496c34	-0.19670182
156	0xbe0182c8	-0.12647545
157	0xbe222ac3	-0.15836625
158	0x3d72dce2	0.05929268
159	0xbd66fa8a	-0.056391276
160	0xbcfab8d2	-0.030605707
161	0x3dbff359	0.09372587
162	0xbc548f01	-0.012973548
163	0xbe0682c7	-0.13135825
164	0xbaef12ae	-0.001823982
165	0x3d060b1a	0.03272543
166	0xbdc6dbac	-0.09709868
167	0x3cab89de	0.020939764
168	0xbd61941d	-0.055072892
169	0xbe1c32f2	-0.15253809
170	0xbdd860d8	-0.105653465
171	0xbde8acb2	-0.11361064
172	0x3d8f277c	0.06989953
173	0x3dd41d6c	0.10357174
174	0xbe07963f	-0.13240908
175	0x3d632713	0.055457186
176	0xbda0d09f	-0.07852291
177	0xbd2b45cf	-0.04181462
178	0x3cbee251	0.023301275
179	0x3d5e543f	0.054279562
180	0x3c877e9a	0.01653986
181	0xbe24714b	-0.16058843
182	0x3c482de0	0.012217969
183	0xbe322723	-0.17397742
184	0x3dfbc825	0.12294034
185	0x3e0ffbb9	0.14060868
186	0xbe1edd97	-0.15514217
187	0x3d4ac389	0.049502883
188	0x3d5fcf98	0.054641336
189	0xbe05bc6a	-0.13060156
190	0x3ca7d71a	0.02048831
191	0xbe0038ad	-0.1252162
192	0xbdfccfd4	-0.123443276
193	0xbdd5d20a	-0.104404524
194	0xbda3056a	-0.07960017
195	0xbe0e620f	-0.13904594
196	0x3c8c6446	0.017137658
197	0x3e09b99d	0.13449712
198	0x3aff315b	0.0019469665
199	0xbc7b595d	-0.01534113
200	0xbe2ced80	-0.16887474
201	0x3d170d25	0.03687777
202	0x3da829fc	0.08211133
203	0xbd1b2250	-0.03787452
204	0x3df6d3ea	0.12052138
205	0x3dd91099	0.10598869
206	0x3d670af2	0.056406923
207	0xbe1e7c00	-0.1547699
208	0xbd920238	-0.071293294
209	0xbd8a5655	-0.06754748
210	0xb7c16945	-2.3056413e-05
211	0xbd87a5e3	-0.06623437
212	0xbd3a9ced	-0.045559812
213	0xbd9b5f17	-0.07586496
214	0xbcd9a103	-0.026566034
215	0xbe12f43d	-0.14350982
216	0xbdeadbaa	-0.11467679
217	0x3cee39c9	0.029080288
218	0x3ddeacab	0.108727776
219	0x3de0e196	0.10980527
220	0x3d7edcec	0.062222406
221	0xbe38b86d	-0.18039103
222	0xbd8da033	-0.06915321
223	0xbd2c2415	-0.042026598
224	0x3ce2073d	0.027591342
225	0x3df98410	0.12183392
226	0x3dd6f4d3	0.10495915
227	0x3d81dc80	0.06340885
228	0xbdee1665	-0.11625365
229	0x3debdba0	0.115164995
230	0xbe15520b	-0.14582078
231	0xbe156f9e	-0.1459336
232	0x3c167169	0.0091823125
233	0x3dc43a3b	0.09581419
234	0x3d66b75d	0.056327213
235	0xbe4bcdff	-0.199028
236	0x3d679ddb	0.056547027
237	0xbd9e19cc	-0.07719764
238	0x3cee40aa	0.029083569
239	0xbddbf838	-0.10740703
240	0xbdca6312	-0.098821774
241	0xbd5f1c00	-0.054470062
242	0x3b657379	0.0035011454
243	0x3d99eb3c	0.075155705
244	0xbddeacb4	-0.10872784
245	0xbd8ad743	-0.06779339
246	0x3d21f575	0.039540727
247	0xbdcd1d99	-0.10015411
248	0xbdda4a5e	-0.10658716
249	0xbc1e34ab	-0.009656112
250	0x3d1603be	0.036624663
251	0xbd324f66	-0.04353275
252	0xba9e8c6e	-0.0012096295
253	0x3e1a8263	0.15088801
254	0x3cd711c8	0.026253596
255	0xbbed79d3	-0.0072471886

feature_layer.2.bias f4 [128]
0	0x3d3f1827	0.046653893
1	0xbd0a4910	-0.033761084
2	0x3dc06d6f	0.09395873
3	0x3d7c760d	0.06163602
4	0xbc2d2c7a	-0.010569686
5	0x3dcc5154	0.099764496
6	0x3dc6d400	0.097084045
7	0xbd2976e1	-0.041373137
8	0x3dc07be8	0.09398633
9	0xbc8b9fd9	-0.017043995
10	0x3db1e13e	0.0868554
11	0xbcdb382e	-0.026760187
12	0x3dd36930	0.10322797
13	0xbd66e3fa	-0.05636976
14	0xbc850593	-0.01623801
15	0x3dd5a6d9	0.10432214
16	0xbcb48e68	-0.02204056
17	0xbc289c41	-0.01029116
18	0x3db5ea93	0.08882632
19	0x3dc7c4f6	0.09754364
20	0xbc306995	-0.01076736
21	0x3dcdee00	0.100551605
22	0xbd310c7f	-0.043224808
23	0x3dd69908	0.10478407
24	0xbd0f2a6c	-0.034952566
25	0x3d6cdf75	0.057830293
26	0x3dcd24d6	0.100167915
27	0xbd144982	-0.036202915
28	0xbd71aee8	-0.059004694
29	0x3d645500	0.055745125
30	0x3dde74d9	0.10862131
31	0x3dc7e853	0.09761109
32	0xbc438eed	-0.011935932
33	0x3dc5ac68	0.096520245
34	0x3d86f87f	0.065903656
35	0x3de2022a	0.11035569
36	0xbc2b0436	-0.010438016
37	0x3dc3477e	0.095351204
38	0x3dd8168b	0.10551175
39	0xbc6fc895	-0.014635225
40	0xbc53c80a	-0.012926111
41	0xbc65db97	-0.014029405
42	0xbd1df726	-0.038565777
43	0x3da2e832	0.07954444
44	0x3dbab50d	0.09116564
45	0x3cbb5e7a	0.022872198
46	0xbd5418ce	-0.051781468
47	0x3dae7f61	0.08520389
48	0xbd26e7a0	-0.04074824
49	0xbc452c69	-0.012034514
50	0x3db213d8	0.08695191
51	0x00000000	0.0
52	0x3de00e7c	0.10940263
53	0xbcf12416	-0.029436152
54	0xbca17ab4	-0.01971183
55	0x3dd48558	0.10376996
56	0xbc8c4175	-0.017121056
57	0x3dca5877	0.098801546
58	0xbc1e0b23	-0.00964621
59	0xbc0ae92f	-0.008478447
60	0xbd73c4c5	-0.059513826
61	0xbcb6353e	-0.022242185
62	0xbd156ebd	-0.03648256
63	0xbd81d53b	-0.063394986
64	0x3c3a1251	0.011356906
65	0x3bac3a79	0.005255994
66	0x3d2a2ee5	0.04154863
67	0x3da94e32	0.08266868
68	0x3db00689	0.085949965
69	0x3dc5e7bc	0.096633404
70	0xbd6e0980	-0.05811453
71	0x3ddb6884	0.10713294
72	0xbd0ea093	-0.034821104
73	0xbc0008f4	-0.007814635
74	0x3dd0e02f	0.101990096
75	0x3dd70e1f	0.1050074
76	0x3d8d8a25	0.069111146
77	0x3db66de3	0.08907678
78	0x3c6ea25d	0.014565078
79	0xbc4d0fd8	-0.0125159845
80	0x3d895d70	0.06707275
81	0x3dddff2e	0.10839687
82	0xbd8f76d1	-0.07005084
83	0x3dc209e0	0.0947454
84	0xbd3ecfd3	-0.046584915
85	0x3dda1e2d	0.10650287
86	0xbdb4b750	-0.088240266
87	0x3dcd5f8b	0.10027989
88	0x3ddb4c10	0.10707867
89	0x00000000	0.0
90	0x3dce65dc	0.10078022
91	0x3ddfc8d7	0.10926979
92	0x3dc90563	0.098154806
93	0x3dbf507c	0.09341523
94	0xbc83071f	-0.015994607
95	0x3dbd94d7	0.092569046
96	0xbc777372	-0.015103208
97	0x3dd7f4e3	0.10544755
98	0x3d99813e	0.07495354
99	0x3dc3d326	0.09561758
100	0x3dee9c95	0.116509594
101	0xbca96b87	-0.020681156
102	0xbcd2bc9a	-0.025724698
103	0x3de04465	0.10950545
104	0xbbc220cb	-0.0059243194
105	0x3dc11d1a	0.09429379
106	0x3de7f15d	0.11325333
107	0x3d930b26	0.07179861
108	0xbcf74104	-0.030182369
109	0x3daa99b6	0.08330099
110	0xbd954283	-0.07288077
111	0xbd987701	-0.07444573
112	0xbc843143	-0.016136771
113	0x3dcf238e	0.101142034
114	0xbc6709ca	-0.014101455
115	0xbd75bd05	-0.059994716
116	0xbc750c28	-0.014956512
117	0x3dda479d	0.106581904
118	0x3dc3a7ee	0.095535144
119	0x3ca698a7	0.020336462
120	0x3da633bc	0.08115336
121	0x3ddbd061	0.107331045
122	0xbd992900	-0.07478523
123	0x3dcaf051	0.09909118
124	0xbd9d94f7	-0.076944284
125	0xbbfb83fe	-0.007675647
126	0x3dd6575d	0.10465882
127	0x3dddf5a6	0.10837869

value_stream.0.weight f4 [64, 128]
0	0xbe254578	-0.16139781
1	0x3d423d77	0.0474219
2	0x3d00c5b6	0.03143855
3	0x3da14c8f	0.078759305
4	0x3d8d1cea	0.068902805
5	0x3e640734	0.22268373
6	0x3cdf41f2	0.027253125
7	0x3bae261c	0.0053146016
8	0x3e6f596b	0.23373954
9	0xbc2a7631	-0.010404156
10	0x3dd63d2e	0.10460888
11	0x3d4e7aba	0.05041001
12	0x3d029032	0.031875797
13	0xbe794866	-0.24344024
14	0xbe0b0d2f	-0.13579248
15	0x3e195b87	0.14976321
16	0x3e0584fa	0.13039008
17	0x3df74920	0.12074494
18	0xbd8d42ee	-0.068975314
19	0x3e65e154	0.22449237
20	0x3e2c42d1	0.16822363
21	0x3d8586c7	0.06519847
22	0xbe62799c	-0.22116703
23	0x3d80a4e8	0.06281453
24	0x3c02a364	0.007973526
25	0xbdead9d0	-0.11467326
26	0x3cb8146c	0.022470675
27	0xbd664c20	-0.056224942
28	0xbea64a62	-0.32478625
29	0x3d919d73	0.07110109
30	0x3e0935b4	0.13399392
31	0xbca48337	-0.0200821
32	0x3e2fd6d4	0.17171794
33	0x3d3892be	0.04506182
34	0x3d6aba13	0.05730636
35	0x3db88e3c	0.09011504
36	0xbe71438d	-0.23560925
37	0xbc402e86	-0.011729842
38	0x3ddd5d9e	0.10808872
39	0xbd5cc200	-0.05389595
40	0x3ddf9bfb	0.10918423
41	0x3c1e7949	0.009672471
42	0xbe5aaff3	-0.21356182
43	0x3e572392	0.21009663
44	0xbcd3dd85	-0.025862465
45	0xbd23aaa2	-0.03995765
46	0xbef6401d	-0.4809579
47	0xbe0adff5	-0.13561995
48	0x3d9193b0	0.07108247
49	0x3e09e4df	0.13466214
50	0x3e193a61	0.14963676
51	0xbe0e469a	-0.1389412
52	0x3e432851	0.19058348
53	0xbe47c923	-0.19510321
54	0xbe163af8	-0.14670932
55	0x3e56d01f	0.2097783
56	0xbdbff30e	-0.09372531
57	0xbb0398a2	-0.002007999
58	0xbd85af0e	-0.0652753
59	0xbd9d42cb	-0.076787554
60	0xbeaeefed	-0.34167424
61	0xbdbc8111	-0.09204305
62	0xbdbccd53	-0.0921885
63	0xbe5bc429	-0.21461548
64	0x3c9781b8	0.018494472
65	0x3c7d6b27	0.015467442
66	0xbbe494e1	-0.0069757556
67	0xbdd5b65a	-0.104351714
68	0x3afdaa49	0.0019353117
69	0xbd6086cf	-0.054816063
70	0xbee5669c	-0.44804847
71	0xbca54023	-0.020172184
72	0x3d1f1f19	0.038848016
73	0xbcb83417	-0.022485776
74	0xbd997cc1	-0.07494498
75	0x3e39ad95	0.18132623
76	0x3dc22c4f	0.094811074
77	0x3d9cb7ac	0.0765222
78	0x3db363a2	0.08759238
79	0xbbe18458	-0.0068822317
80	0x3d88b207	0.06674581
81	0xbe0afcaf	-0.13572954
82	0xbe8d0b99	-0.2754791
83	0x3e37e30e	0.17957708
84	0xbddccc57	-0.10781162
85	0x3e3fae47	0.18718825
86	0xbe9ec552	-0.31009918
87	0x3e2dc5be	0.16969964
88	0x3d2d414d	0.042298604
89	0xbdca8c8c	-0.098900884
90	0x3c8af322	0.016961638
91	0x3e5b1d6a	0.2139794
92	0x3cf6dfc1	0.030135991
93	0xbdd89ca1	-0.105767496
94	0x3d18eaa7	0.037333157
95	0xbd7901a1	-0.06079257
96	0xbddccc9a	-0.10781212
97	0xbc7ebdc5	-0.015548174
98	0xbd97043b	-0.07373854
99	0xbd1e13b0	-0.038592994
100	0x3e15ab7c	0.14616197
101	0xbcdc8ffb	-0.026924124
102	0x3d2075ef	0.03917497
103	0x3e7b0e2d	0.24517126
104	0x3d875f08	0.06609923
105	0x3e440002	0.19140628
106	0x3e815931	0.2526336
107	0x3c6b977e	0.01437938
108	0x3d89acec	0.06722435
109	0x3e4cbe14	0.19994384
110	0xbec46c7c	-0.38364017
111	0xbf0aacba	-0.5416981
112	0x3e1bd0e2	0.15216401
113	0x3e322d80	0.1740017
114	0x3d946e64	0.07247618
115	0xbecbe877	-0.39825794
116	0xbdbd401b	-0.09240743
117	0x3e0a835b	0.1352667
118	0x3d8c68da	0.06855936
119	0x3c6ff1cd	0.014645052
120	0x3e6d9192	0.23200062
121	0x3e1ee863	0.15518336
122	0xbef1af6d	-0.47204152
123	0x3d712a91	0.058878485
124	0xbeb16acd	-0.34651795
125	0x3d9549a7	0.07289439
126	0x3e8dbbd8	0.27682376
127	0x3c09efda	0.0084190015
128	0xbd98ddac	-0.074641556
129	0x3da283e6	0.07935314
130	0xbdb78e21	-0.08962656
131	0x3e449cdc	0.19200462
132	0x3d1a1384	0.037616268
133	0x3e5027e5	0.20327719
134	0x3d8c9397	0.06864088
135	0x3e156f9b	0.14593355
136	0xbdedefa4	-0.116179734
137	0xbc732f2e	-0.0148427915
138	0x3e33f2b8	0.17573059
139	0xbd361d24	-0.044461384
140	0x3e7e30ab	0.24823253
141	0xbe7ffc03	-0.24998479
142	0xbd9bb4e6	-0.07602863
143	0xbd50c2f0	-0.050967157
144	0xbdd1d124	-0.102449685
145	0x3d71be86	0.059019588
146	0xbd566b96	-0.052348696
147	0x3e250794	0.16116172
148	0xbd0fe8b8	-0.035134047
149	0x3e0ba90c	0.13638705
150	0x3e0b8db5	0.13628276
151	0xbd9964e5	-0.07489947
152	0xbdc3cb74	-0.0956029
153	0x3e0ebbb0	0.13938785
154	0xbc85c052	-0.016327057
155	0xbe03fbef	-0.12889074
156	0xbe2056ad	-0.15658064
157	0xbe4f05ef	-0.20217107
158	0xbd20c752	-0.039252587
159	0x3d359e01	0.044340137
160	0x3e0c5f3b	0.13708203
161	0x3d8ccfc7	0.06875568
162	0x3d718204	0.058961883
163	0x3d49cfc6	0.049270414
164	0xbe2b42cf	-0.16724704
165	0x3e07601f	0.13220261
166	0x3e4556e4	0.19271427
167	0x3d8e4371	0.06946457
168	0x3e255874	0.16147023
169	0x3e3401da	0.17578831
170	0xbe83807e	-0.2568397
171	0xbd97d0a6	-0.074128434
172	0x3e2f5fc9	0.17126383
173	0x3b3b72b3	0.0028602302
174	0xbea2d5c2	-0.3180371
175	0xbbf0b875	-0.0073462077
176	0x3d81700f	0.063202016
177	0xbd98b673	-0.074566744
178	0x3e38f58e	0.18062422
179	0xbe0987a2	-0.13430646
180	0x3d996b06	0.07491116
181	0xbe2b75bf	-0.16744135
182	0x3dbf089f	0.09327816
183	0xbce2d74e	-0.027690556
184	0xbcca51f8	-0.024697289
185	0x3e5147a0	0.20437479
186	0x3d1fbf27	0.039000656
187	0x3c8bd6ee	0.01707026
188	0xbe1b3708	-0.15157712
189	0x3c156bf7	0.009119979
190	0x3e65365c	0.22384018
191	0xbdece748	-0.11567551
192	0x3dd98fda	0.10623141
193	0x3df9faee	0.12206064
194	0xbd5169d2	-0.05112631
195	0x3e51adf4	0.20476514
196	0x3d932b46	0.07185988
197	0x3e3523be	0.17689416
198	0xbf0112ee	-0.5041951
199	0xbdc28b00	-0.094991684
200	0x3db87cc4	0.09008172
201	0x3d84b42d	0.06479678
202	0x396dddf5	0.00022684767
203	0x3d442304	0.047884956
204	0x3d9dd87c	0.07707307
205	0x3e45757a	0.19283095
206	0x3c04a6d7	0.008096418
207	0x3e170e2c	0.147515
208	0x3e4b1cdf	0.19835232
209	0x3dd7b1ee	0.10531984
210	0xbe434ad2	-0.1907151
211	0xbc635ef6	-0.013877621
212	0xbe21dd94	-0.15807182
213	0x3e0c8cca	0.13725582
214	0xbe5c4d7e	-0.21513936
215	0x3b459094	0.003014599
216	0x3d4ff13e	0.050767176
217	0xbdd21fd5	-0.10259978
218	0x3da648e9	0.08119375
219	0x3e3e5660	0.18587637
220	0x3e621404	0.22077948
221	0xbd9f28ce	-0.07771455
222	0x3d2b9b96	0.041896425
223	0xbd0646a0	-0.032782197
224	0xbe26d36d	-0.1629159
225	0x3e21c8e1	0.15799285
226	0x3e319527	0.17342053
227	0x3e55f6df	0.20894955
228	0x3e638679	0.22219266
229	0xbd40b26a	-0.04704515
230	0x3ce6e66d	0.028186047
231	0x3e141576	0.14461312
232	0xbdc9ea85	-0.09859184
233	0x3e39b173	0.18134098
234	0xbd3e19fd	-0.046411503
235	0x3b541e6b	0.0032366763
236	0xbd97b243	-0.074070476
237	0x3dede6bb	0.11616274
238	0x39d07f15	0.00039767535
239	0xbeac3abd	-0.33638564
240	0xbd8ba1ac	-0.06817946
241	0x3e54d12b	0.20782916
242	0xbe1d10f5	-0.153385
243	0xbec25054	-0.3795191
244	0xbe15213b	-0.14563458
245	0x3d581810	0.052757323
246	0x3e4d69f7	0.20059954
247	0x3ddda97c	0.10823342
248	0xbd15dace	-0.03658562
249	0xbd506bc4	-0.050884023
250	0xbe7df221	-0.24799396
251	0xbcba5e16	-0.022749942
252	0xbe6217aa	-0.2207934
253	0x3e15fc15	0.14646943
254	0x3e17dbab	0.1482989
255	0xbd1a42d5	-0.037661392

value_stream.0.bias f4 [64]
0	0x3de45209	0.111484595
1	0x3dc956f3	0.09831037
2	0xbc16d951	-0.009207086
3	0x3cccb4b1	0.024988504
4	0xbc896f64	-0.016776748
5	0x3dd5aeea	0.10433753
6	0x3dcaa7a7	0.098952584
7	0x3dcd73e6	0.100318715
8	0xbc5dd381	-0.013539196
9	0xbc652367	-0.013985491
10	0x3dd13716	0.10215585
11	0xbbda07ea	-0.0066537755
12	0xbc1978ad	-0.00936715
13	0xbc4a88ba	-0.0123617
14	0x3e0ffe3a	0.14061823
15	0x3dcaf7db	0.09910556
16	0x3ddeeadb	0.10884639
17	0x3c1759f8	0.009237759
18	0xbcfe8d95	-0.031073371
19	0x3dfd34ff	0.12363624
20	0xbc75f94c	-0.01501305
21	0x3de9c346	0.114141986
22	0x3dd4a22e	0.10382496
23	0xbc931104	-0.01795245
24	0x3dcb844a	0.099373415
25	0x3dcddd71	0.10052002
26	0x3dcf9f79	0.10137839
27	0x3ced63d6	0.02897827
28	0xbcb67bc0	-0.022275805
29	0x3df0f959	0.11766309
30	0xbc408f59	-0.011752927
31	0x3dcdbaa7	0.10045367
32	0xbc65af9b	-0.014018918
33	0xbc91838c	-0.017762922
34	0xbcc3ac96	-0.023886006
35	0x3dde9c96	0.1086971
36	0xbc907d1c	-0.017637782
37	0xbc1ef3cf	-0.009701683
38	0x3dee0977	0.11622899
39	0x3ddc4d96	0.10756986
40	0x3d439bd6	0.04775604
41	0x3dc8b754	0.09800592
42	0x3dd87756	0.105696365
43	0xbc6ac778	-0.014329784
44	0xbc0e2a64	-0.008677099
45	0xbc904778	-0.017612204
46	0xbc3ba413	-0.011452693
47	0x3dc6f196	0.097140476
48	0x3ddedd8d	0.10882101
49	0xbc67d912	-0.014150875
50	0x3dcb412c	0.0992454
51	0xbc781969	-0.015142777
52	0x3d2fe4ba	0.04294274
53	0xbbba9fb2	-0.0056953067
54	0x3ddc1e51	0.1074797
55	0xbc3562e0	-0.011070937
56	0xbccdff4e	-0.025146153
57	0x3d4344aa	0.047672905
58	0xbc9ce7b0	-0.019153446
59	0x3ddf662a	0.10908158
60	0x3b31c76d	0.0027126924
61	0xbc3a9e76	-0.011390319
62	0xbc8494a0	-0.016184151
63	0xbd116237	-0.035494056

value_stream.2.weight f4 [1, 64]
0	0x3e82563c	0.25456417
1	0x3e0e9628	0.13924468
2	0xbe8d0368	-0.2754166
3	0x3ef27e98	0.47362208
4	0xbe32a3ff	-0.17445372
5	0x3e683d11	0.22679545
6	0x3eb92bfb	0.36166367
7	0x3dcb1101	0.099153526
8	0xbe8ee4ed	-0.27909032
9	0xbdf29934	-0.118456274
10	0x3e333f93	0.1750472
11	0xbeae19b2	-0.3400398
12	0xbdfe1c4a	-0.124077395
13	0xbe67b7cc	-0.22628707
14	0x3dc79ab0	0.09746301
15	0x3ead378a	0.33831435
16	0x3dae4507	0.0850926
17	0xbf0e81b6	-0.55666673
18	0xbe083164	-0.13300091
19	0x3ea919e2	0.3302756
20	0xbe71fec2	-0.23632339
21	0x3e217216	0.15766177
22	0x3e5c61af	0.21521638
23	0xbd871541	-0.06595851
24	0x3e7f6a82	0.24942973
25	0x3e6235ae	0.2209079
26	0x3e99d1a1	0.30042747
27	0xbf2457a2	-0.6419622
28	0xbe26a46a	-0.16273656
29	0x3e8e2b91	0.27767614
30	0xbcd5ec37	-0.026113613
31	0x3e7860ea	0.2425572
32	0xbd341ace	-0.043970875
33	0xbd35a4a4	-0.044346467
34	0xbe031d29	-0.12804092
35	0x3deb8fd1	0.1150204
36	0xbdd6f4d8	-0.10495919
37	0xbd86730b	-0.065649115
38	0x3e91188a	0.28339034
39	0x3ea57867	0.32318422
40	0xbe90c689	-0.2827647
41	0x3e3ff92c	0.18747395
42	0x3e67a934	0.2262314
43	0xbe3b677b	-0.18301193
44	0xbe6ddbdc	-0.23228401
45	0xbcefd840	-0.02927792
46	0xbe8d492c	-0.27594888
47	0x3eab6b19	0.33480147
48	0x3e59a502	0.21254352
49	0xbe94fe2c	-0.29100168
50	0x3eacfb87	0.3378565
51	0xbde6972b	-0.11259302
52	0xbebe6af9	-0.3719099
53	0xbe6fd41e	-0.2342076
54	0x3e58bcc5	0.2116576
55	0xbe0e6d52	-0.1390889
56	0xbc3780bd	-0.011200127
57	0xbec2035c	-0.37893188
58	0xbe39709c	-0.18109363
59	0x3ebe7d54	0.37204993
60	0xbe7f09b3	-0.24906044
61	0xbe460a60	-0.19339895
62	0xbdfc875c	-0.12330505
63	0xbeb55a93	-0.35420665

advantage_stream.0.weight f4 [64, 128]
0	0x3e74f9dd	0.2392344
1	0x3cdb4735	0.026767353
2	0xbd8db9a8	-0.06920177
3	0xbc912405	-0.01771737
4	0x3e0ded96	0.13860163
5	0x3b59fe5d	0.0033263185
6	0x3ceb939a	0.028756905
7	0x3e2910f2	0.1651037
8	0x3c746165	0.014915799
9	0xbe0765e7	-0.13222466
10	0xbe0c3557	-0.13692223
11	0x3d9a43f6	0.07532494
12	0x3d83b07f	0.06430148
13	0xbda74393	-0.08167186
14	0x3dad842d	0.08472476
15	0xbd9b481e	-0.07582115
16	0xbdf0b8a2	-0.11753966
17	0xbdfa6114	-0.122255474
18	0xbe1f5146	-0.15558347
19	0x3e2cf7a3	0.16891341
20	0x3e1c7476	0.15278801
21	0xbda8e472	-0.082466975
22	0x3e548129	0.20752396
23	0xbdb4b360	-0.088232756
24	0x3e308900	0.17239761
25	0xbe43fe51	-0.19139983
26	0x3e6861cf	0.22693561
27	0x3dd06849	0.10176141
28	0x3e1dc1b5	0.15405925
29	0xbeb45f7c	-0.352291
30	0x3e23ddd2	0.16002586
31	0x3d650c9d	0.055920232
32	0x3e0c8a3b	0.13724606
33	0xbde3f473	-0.11130609
34	0xbed16f56	-0.40905255
35	0x3a822888	0.0009930292
36	0xbf1d4b8f	-0.6144342
37	0xbe50d8df	-0.2039523
38	0x3b10c534	0.0022090198
39	0x3a06bb50	0.0005139606
40	0x3e001f69	0.12511982
41	0x3e253981	0.16135217
42	0xbe32bcc8	-0.17454827
43	0x3e2236f9	0.15841283
44	0xbda022ab	-0.078191124
45	0xbebb0afc	-0.36531818
46	0xbdac2511	-0.08405507
47	0xbcd0e5ae	-0.025500145
48	0x3e81d641	0.25358775
49	0xbb8ed585	-0.0043589496
50	0xbd1de1a7	-0.038545277
51	0xbcb50b10	-0.022100002
52	0xbd31002f	-0.043213066
53	0x3e86c71c	0.26323783
54	0xbce4b73a	-0.0279194
55	0x3e1d0cff	0.15336989
56	0xbe1de9de	-0.15421245
57	0x3d419c9c	0.047268495
58	0x3d1253eb	0.03572456
59	0xbc58248a	-0.013192305
60	0x3ccfb6a8	0.025355652
61	0x3d87de09	0.06634147
62	0x3eb7e616	0.3591773
63	0x3e09bb5a	0.13450375
64	0xbe10c2df	-0.14136837
65	0x3e1817d7	0.14852844
66	0xbe6e7ce5	-0.23289831
67	0xbd731cba	-0.059353568
68	0xbcd1d4ed	-0.025614226
69	0x3e1ef62f	0.15523599
70	0xbcd15330	-0.025552362
71	0x3e06d21b	0.13166086
72	0xbda752a8	-0.08170062
73	0xbdde9672	-0.10868539
74	0x3d9417cc	0.072311014
75	0xbe2ea553	-0.17055254
76	0xbe0a9684	-0.1353398
77	0x3d9ffcb0	0.07811868
78	0xbee9c660	-0.4565916
79	0xbe246222	-0.1605306
80	0x3e12e1c1	0.14343931
81	0x3e7f4f75	0.24932654
82	0xbddf4f2c	-0.10903773
83	0xbc9c2ed8	-0.019065306
84	0x3e350e2b	0.17681186
85	0x3e02c567	0.12770616
86	0x3e29481b	0.16531412
87	0xbd718be3	-0.058971297
88	0x3cad579d	0.021159941
89	0x3db3f6e6	0.087873265
90	0xbcfdc34c	-0.030976914
91	0xbe573f03	-0.21020131
92	0x3e12345e	0.14277789
93	0xbe018d7d	-0.1265163
94	0xbdced189	-0.100985594
95	0x3c88aa3e	0.01668274
96	0x3e3bc090	0.18335176
97	0xbd9a5c3c	-0.075371236
98	0xbddc95d2	-0.107707635
99	0xbd0bd055	-0.034134228
100	0xbde356b7	-0.11100524
101	0x3dcdda7f	0.100514404
102	0xbe24cb30	-0.16093135
103	0x3dcb9608	0.099407256
104	0x3e1ed335	0.15510257
105	0x3e0a78bb	0.13522618
106	0xbc64c5a5	-0.013963138
107	0xbea9f20c	-0.3319248
108	0xbe1aefc8	-0.15130532
109	0x3e0d8e1f	0.13823746
110	0x3dbc0093	0.09179797
111	0xbe9cf92d	-0.30658856
112	0xbe0e34be	-0.13887307
113	0xbe1f9a1b	-0.1558613
114	0xbdeddbf6	-0.1161422
115	0x3c47aae7	0.012186742
116	0x3e0c225e	0.13684985
117	0x3e201ae0	0.15635252
118	0x3dbf90a5	0.09353761
119	0xbc465390	-0.012104884
120	0xbe762f9d	-0.240416
121	0x3d1df8d8	0.038567394
122	0xbc969e0b	-0.018385908
123	0xbe019582	-0.12654689
124	0x3e01847e	0.12648198
125	0xbd8e1f53	-0.06939568
126	0x3c833fab	0.01602157
127	0xbdd0c26b	-0.10193332
128	0xbe14dc28	-0.14537108
129	0x3c9a52d0	0.018838316
130	0x3e245c8e	0.16050932
131	0x3e253735	0.16134341
132	0xbd2f622b	-0.04281823
133	0x3d3c1320	0.045916677
134	0xbe279034	-0.16363603
135	0xbde548f3	-0.111955546
136	0x3e016797	0.12637173
137	0x3cdcefc4	0.026969798
138	0x3d27d836	0.04097768
139	0x3cdd0b13	0.02698282
140	0xbd9da3e7	-0.076972775
141	0x3e14883a	0.14505091
142	0x3e36edbb	0.17864124
143	0x3d8b38c3	0.06797936
144	0x3e2a09d0	0.16605306
145	0x3d4ffdee	0.050779276
146	0x3e043471	0.1291063
147	0xbdefdb74	-0.11711779
148	0x3d6d1fe8	0.057891756
149	0xbe060d56	-0.13091025
150	0xbce6d08b	-0.028175613
151	0xbdf9a17c	-0.12189004
152	0x3d84534c	0.064612
153	0xbe30db9d	-0.17271276
154	0xbd628377	-0.055301156
155	0xbd822d25	-0.06356267
156	0x3de588f7	0.112077646
157	0xbe0188fd	-0.12649913
158	0xbdbd4a0c	-0.09242639
159	0x3e13d456	0.14436468
160	0x3da87efe	0.08227347
161	0x3e0b3a09	0.13596357
162	0x3e21388b	0.15744226
163	0xbddd41bb	-0.10803553
164	0x3d2ee4e7	0.042698767
165	0xbe0d0739	-0.13772286
166	0xbd833f28	-0.064085305
167	0xbce0e0a1	-0.027450861
168	0xbdb51611	-0.088420995
169	0x3d168f48	0.036757737
170	0x3cea2d82	0.028586153
171	0x3d05a9ea	0.032632746
172	0x3dbe2767	0.09284859
173	0xbcae8c13	-0.021307027
174	0x3e0e8600	0.13918304
175	0xbc9233c1	-0.017846944
176	0x3e037d26	0.12840709
177	0x3e114db7	0.14189802
178	0x3e228cb8	0.15873992
179	0xbdae9b53	-0.085257195
180	0xbd8b71a4	-0.068087846
181	0xbe0f8ea5	-0.14019258
182	0xbd9f1ae3	-0.077688
183	0x3e295949	0.16537966
184	0xbc51be40	-0.012801707
185	0xbdd31712	-0.10307135
186	0xbe0371e5	-0.12836416
187	0xbe0ab986	-0.13547334
188	0xbdc7e32e	-0.09760128
189	0x3d732d80	0.059369564
190	0xbdb848d0	-0.08998263
191	0xbd885620	-0.06657052
192	0xbe1b7dbb	-0.15184681
193	0xbe2b86c6	-0.1675063
194	0xbdbf83f3	-0.09351339
195	0xbe28de4d	-0.16491051
196	0xbc923b7b	-0.017850628
197	0xbd80252c	-0.0625709
198	0xbdacca7a	-0.08437057
199	0xbdec111f	-0.11526703
200	0x3d805ce8	0.062677205
201	0x3da4c059	0.080445
202	0xbd1f88af	-0.03894871
203	0x3d848e3e	0.06472443
204	0x3e1ee54d	0.15517159
205	0xbd664287	-0.05621579
206	0xbdd33a82	-0.10313894
207	0x3decb891	0.11558641
208	0xbd397cf6	-0.045285188
209	0xbd8df9aa	-0.06932385
210	0x3de5fc95	0.11229817
211	0x3d55f9e7	0.05224028
212	0xbdf43be5	-0.119254865
213	0x3d2adf0d	0.041716624
214	0x3d9def2f	0.07711636
215	0x3e2cc167	0.16870652
216	0xbdb869ac	-0.0900453
217	0x3db7003e	0.08935593
218	0xbcf59ebb	-0.029982915
219	0x3c6ca720	0.014444143
220	0xbe2bab80	-0.16764641
221	0xbe24abcf	-0.16081165
222	0x3dc070c5	0.09396509
223	0xba9f6bbb	-0.0012162843
224	0x3dacca77	0.084370546
225	0xbde48dab	-0.111598335
226	0x3e06fd27	0.13182507
227	0xbd8e7915	-0.06956688
228	0xbdf4739c	-0.11936113
229	0x3e1a22aa	0.15052286
230	0xbdd4870b	-0.1037732
231	0xbdd92ed7	-0.10604637
232	0xbe16c616	-0.14724001
233	0x3d98b7f1	0.07456959
234	0xbc766b69	-0.015040257
235	0xbc1d85e3	-0.009614441
236	0x3d713000	0.058883667
237	0xbd4a9ac4	-0.049464002
238	0x3d02da0c	0.031946227
239	0xbdc738eb	-0.09727653
240	0xbd30eca0	-0.043194413
241	0x3dbf8b95	0.09352795
242	0x3d5a8ce4	0.05335702
243	0x3df81061	0.12112499
244	0x3e30b3c6	0.17256078
245	0x3df72e8b	0.12069424
246	0xbd969a3b	-0.07353636
247	0xbe154837	-0.14578329
248	0xbda2f3cd	-0.079566576
249	0xbca79bd7	-0.020460052
250	0x3e2f6cdf	0.17131375
251	0x3ca7426e	0.020417418
252	0xbce7782b	-0.028255543
253	0x3e064dff	0.1311569
254	0x3d892291	0.06696046
255	0x3e11c411	0.1423495

advantage_stream.0.bias f4 [64]
0	0x3cafcb03	0.021459108
1	0xbaa88a4e	-0.0012858601
2	0x3d312ff9	0.04325864
3	0x3d1cdfa6	0.038299225
4	0xbb154cd6	-0.0022781393
5	0xbbb465f6	-0.0055053188
6	0x3d02d7db	0.031944137
7	0x3d774107	0.06036475
8	0xbceef230	-0.029168218
9	0x3d1596bb	0.0365207
10	0x3c77b941	0.015119852
11	0xbbb11205	-0.0054037594
12	0xbc1af6d4	-0.0094582625
13	0xbc98d66e	-0.018656936
14	0x3cddb5b8	0.02706419
15	0x3cddf4ef	0.027094333
16	0x3cbdd883	0.02317453
17	0x3c8ad24f	0.016945986
18	0xbcb42dde	-0.021994527
19	0xbcaf9fa8	-0.021438435
20	0xbca77891	-0.020443233
21	0xbcbb8f1c	-0.022895388
22	0xbc8a91fe	-0.016915318
23	0xbb953690	-0.0045536235
24	0xbbbf73ae	-0.0058426475
25	0xbced1f03	-0.028945452
26	0xbc0ad3b8	-0.008473329
27	0xbc742423	-0.014901194
28	0xbbe23f2f	-0.0069045047
29	0xbc86b04e	-0.01644149
30	0x3d5796ff	0.052634235
31	0xbb85dea5	-0.004085379
32	0xbc51722b	-0.012783567
33	0x00000000	0.0
34	0x3cedde36	0.029036622
35	0x3d7e2df0	0.06205553
36	0x3d5b04a1	0.05347121
37	0xbc1a573e	-0.009420214
38	0x3cf2f647	0.02965845
39	0xbc6a4df4	-0.014300812
40	0xbc56efbc	-0.013118681
41	0x3befa7df	0.007313713
42	0xbc06eef8	-0.0082356855
43	0x3cc48d0f	0.023993043
44	0x3d5c5cfd	0.053799618
45	0x3da5a612	0.08088316
46	0x38476910	4.7543144e-05
47	0xbc68422c	-0.014175933
48	0xbd254109	-0.040345225
49	0x3d15847d	0.036503304
50	0x3cb27e56	0.021788757
51	0xbbb8a7cf	-0.0056352387
52	0x3c949068	0.018135265
53	0xbc3f3027	-0.011669195
54	0xbc05c033	-0.0081635
55	0x3db9c7b4	0.090712935
56	0x3b771e7a	0.0037707374
57	0x3d5e887f	0.05432939
58	0x3dd8648b	0.10566052
59	0x3cb864e6	0.02250905
60	0xbbe3202e	-0.0069313264
61	0xbcbf49c6	-0.023350608
62	0xbc33064d	-0.010926795
63	0xbc4bb4ae	-0.012433214

advantage_stream.2.weight f4 [2, 64]
0	0x3dff652c	0.12470469
1	0x3d867d17	0.06566828
2	0x3e946503	0.28983316
3	0x3e4d1d5f	0.20030735
4	0xbe929016	-0.28625554
5	0xbeb2a017	-0.34887764
6	0xbeba8f6b	-0.36437544
7	0x3ee0f874	0.43939555
8	0x3e8faa87	0.2805979
9	0x3eb462a7	0.35231516
10	0x3e61dccf	0.22056888
11	0x3e33e10a	0.17566314
12	0x3e3cae0f	0.18425773
13	0xbda50d5c	-0.08059189
14	0xbe08c7a9	-0.13357414
15	0x3e700a59	0.23441447
16	0x3ea41520	0.32047367
17	0x3ec9943d	0.3937091
18	0xbcce4dfe	-0.025183674
19	0xbe7c267c	-0.24624056
20	0xbe38d152	-0.180486
21	0xbdf64fdd	-0.120269515
22	0x3e4c8c8b	0.19975488
23	0x3d8f3579	0.06992621
24	0xbe7a71f8	-0.24457538
25	0x3d5295b1	0.051412288
26	0x3de9f91e	0.114244685
27	0x3da7c022	0.08190943
28	0xbe9206c3	-0.28520784
29	0xbd71b313	-0.05900867
30	0x3ea220d7	0.3166568
31	0x3e844d1b	0.25840077
32	0xbdaaff29	-0.08349449
33	0x3d92f720	0.071760416
34	0xbdc4bab8	-0.09605926
35	0xbe93c846	-0.28863734
36	0x3ea7c56b	0.32767805
37	0x3ddc4316	0.10754983
38	0x3e92b923	0.28656873
39	0x3d8cf429	0.06882507
40	0x3d4f2880	0.050575733
41	0x3d165ecc	0.0367115
42	0x3d7fd094	0.062454775
43	0x3f11b05f	0.56909746
44	0x3e1b440c	0.15162677
45	0x3d62196c	0.055200025
46	0xbcbf529c	-0.02335482
47	0xbeaf3ddb	-0.3422688
48	0x3d910d64	0.07082632
49	0x3d07eb2a	0.033183254
50	0xbecdf81c	-0.40228355
51	0xbea3824e	-0.31935352
52	0x3d95a1fb	0.07306286
53	0x3e2f8a3a	0.17142573
54	0xbe97310f	-0.29529616
55	0xbefb9dd7	-0.4914386
56	0x3df2b32e	0.11850582
57	0x3e157bce	0.14598009
58	0xbf046c3a	-0.5172764
59	0x3ee755fc	0.45182788
60	0x3d092e8d	0.03349166
61	0x3e4a248c	0.19740504
62	0x3edd14da	0.4317997
63	0xbcae12b9	-0.021249162
64	0x3ec9f631	0.39445642
65	0xbe8294a5	-0.25504032
66	0xbe871063	-0.2637969
67	0xbeddb592	-0.4330259
68	0x3e7887d4	0.24270564
69	0x3e94c75d	0.29058352
70	0x3c355f8d	0.011070144
71	0xbe019e93	-0.12658148
72	0x3baee77f	0.005337655
73	0xbe9ebb2b	-0.31002173
74	0xbe763b4f	-0.24046062
75	0xbe543c18	-0.20726049
76	0x3dcca819	0.099929996
77	0x3de9f5e6	0.114238545
78	0x3de35682	0.111004844
79	0xbe545e41	-0.2073908
80	0xbed6cc61	-0.41952804
81	0xbeecdbe7	-0.46261522
82	0xbe14fd44	-0.14549738
83	0x3e57e9d7	0.21085297
84	0xbe257ce4	-0.16160923
85	0x3d99ca11	0.07509244
86	0xb9398e11	-0.00017695899
87	0xbe0a6e69	-0.1351868
88	0x3e440124	0.1914106
89	0x3e0dd1e5	0.138496
90	0x3e2775c4	0.16353518
91	0x3e1593b0	0.1460712
92	0x3ea90ad5	0.33016077
93	0x3e19bb1d	0.15012784
94	0xbe9d512b	-0.3072599
95	0xbde9b226	-0.11410932
96	0x3eaa53fd	0.33267203
97	0x3e3a4120	0.18188906
98	0xbe940516	-0.2891013
99	0x3ecd2bc6	0.4007246
100	0xbecc1fed	-0.39868107
101	0x3eb7ea71	0.35921052
102	0xbe73e2ad	-0.23816939
103	0x3d804145	0.06262449
104	0x3e50ba2c	0.20383519
105	0x3ec621a2	0.38697535
106	0x3c69e5a8	0.014275946
107	0xbe6590a1	-0.22418453
108	0xbe048a7f	-0.12943457
109	0xbf038d8c	-0.5138786
110	0x3e701dfc	0.23448938
111	0x3dc4100e	0.09573375
112	0xbe4b9a6d	-0.19883128
113	0xbeadb496	-0.3392684
114	0xbddbf86c	-0.10740742
115	0x3e69ecb8	0.22844207
116	0x3ea2f5c5	0.31828132
117	0x3e77b294	0.24189216
118	0xbe9779e6	-0.2958519
119	0x3ebbebe1	0.367034
120	0x3eaa7c21	0.33297828
121	0xbec93d13	-0.39304408
122	0x3f0eec49	0.5582929
123	0xbf0c0536	-0.5469545
124	0xbe40834c	-0.18800086
125	0xbe3c8b29	-0.1841246
126	0xbdef5db5	-0.11687795
127	0xbde56c12	-0.112022534

advantage_stream.2.bias f4 [2]
0	0x3d25f2c0	0.040514708
1	0xbd25f2c0	-0.040514708

exp_avg f4 [128, 4]
0	0x393f166c	0.00018223532
1	0x3ab64a00	0.0013907552
2	0xba1c20c3	-0.00059558096
3	0xbb12786b	-0.0022349607
4	0x3912e814	0.00014010101
5	0xb9fe710a	-0.00048530876
6	0xb9dd063a	-0.00042157044
7	0xba4dd7e2	-0.00078522984
8	0x3a7299e5	0.00092544995
9	0x3b89fd0e	0.0042110747
10	0x3aa40966	0.0012515008
11	0x3b01e815	0.001982217
12	0xbb1a71f4	-0.0023566457
13	0x3b6a64d7	0.0035765672
14	0x39fb489a	0.00047928543
15	0xbb8ced78	-0.0043007694
16	0xba2133d3	-0.0006149385
17	0xbaa7fc2b	-0.0012816241
18	0xbab20db4	-0.0013584406
19	0xbb9958ea	-0.004679789
20	0x393571bf	0.00017303879
21	0x3b5f4db3	0.0034073412
22	0x3a887550	0.0010410938
23	0x3ade0096	0.001693743
24	0xba7b4517	-0.00095851853
25	0xba19c72c	-0.0005866166
26	0xb937d8be	-0.00017532983
27	0xba5ad3ee	-0.000834762
28	0xb8e9506c	-0.000111252855
29	0x3aa83cf8	0.0012835553
30	0x3a4e565a	0.0007871144
31	0x3a489b20	0.000765251
32	0xbacc197c	-0.001557156
33	0xbab044ff	-0.0013448297
34	0x374edf00	1.2330478e-05
35	0x3a63da7e	0.00086919207
36	0xba806faa	-0.0009798903
37	0x3bed6952	0.007245221
38	0x3b097830	0.0020976178
39	0xba8b1cb0	-0.0010613408
40	0x39a2b3e3	0.00031033074
41	0x3bbe2a67	0.0058033946
42	0x3b08c6f0	0.002087053
43	0x3b3d7ec9	0.0028914681
44	0x39a9ef05	0.00032412275
45	0xba7aaf1e	-0.00095628377
46	0xb96d96e6	-0.00022658295
47	0x3b29757b	0.0025857377
48	0xb9ac6a28	-0.0003288549
49	0x3a6fef66	0.00091527996
50	0xb9a73cdc	-0.00031898066
51	0xbb384a9d	-0.0028120645
52	0x3b121cdc	0.0022295034
53	0x3c1cb3fe	0.009564398
54	0x3b135168	0.0022478942
55	0x3afb78fc	0.0019185836
56	0x383739b4	4.368434e-05
57	0x3a4ff2a0	0.0007932577
58	0xb922cda0	-0.00015526125
59	0xbb08fa2a	-0.0020901063
60	0xb9d95567	-0.00041453095
61	0xbb2c2944	-0.0026269713
62	0xb988dbdc	-0.0002610375
63	0x3a1e9d0f	0.0006050625
64	0xbb42339d	-0.0029632815
65	0x3b2c629d	0.0026303895
66	0x3a0f6081	0.00054693973
67	0xbb660fa0	-0.0035104528
68	0x3a0af0f0	0.0005300185
69	0x3b1dddda	0.0024088533
70	0x398ffe98	0.00027464773
71	0xba9920e0	-0.0011682771
72	0x39f375cd	0.0004643634
73	0x3aae6903	0.0013306442
74	0x3a4fa582	0.0007921086
75	0x3b76ff52	0.0037688804
76	0xba9fb7ce	-0.0012185515
77	0xbb894d66	-0.004190135
78	0xba9187ce	-0.0011103095
79	0xbac30b19	-0.0014880627
80	0xbae5d84d	-0.0017535776
81	0xb9f93a80	-0.00047536567
82	0x3b7b55df	0.0038350744
83	0x3c82a9b7	0.015950067
84	0xb7f833da	-2.9588049e-05
85	0xbab5cea9	-0.0013870794
86	0xb9a508e8	-0.00031477888
87	0x399f9293	0.0003043605
88	0x39d11988	0.0003988261
89	0x3ba7e0f1	0.0051232507
90	0x3aae020a	0.0013275754
91	0xba5a7768	-0.0008333833
92	0xba984e16	-0.0011619951
93	0xbad58e77	-0.0016293068
94	0xb9be349e	-0.00036278827
95	0xba4fae98	-0.000792244
96	0xb7665978	-1.3729899e-05
97	0xba046811	-0.00050509075
98	0xba0105f0	-0.0004921844
99	0xbad3b22c	-0.0016151122
100	0x379c93e8	1.8665523e-05
101	0xb968dcb8	-0.00022207468
102	0xb6418560	-2.8836876e-06
103	0x3906316d	0.00012797648
104	0x3847acf0	4.7606358e-05
105	0x38e2bc58	0.000108116015
106	0xb9b96a28	-0.00035365042
107	0xbaae13e1	-0.0013281071
108	0xba469874	-0.0007575818
109	0x3ac37f5b	0.0014915274
110	0xb8e9df38	-0.000111518835
111	0xbb3b52a2	-0.0028583189
112	0x39848f38	0.00025283708
113	0x3a14df73	0.00056790485
114	0x39112fb1	0.00013846044
115	0x3a00efb8	0.00049185334
116	0x39d100a2	0.00039864058
117	0x394e1588	0.00019653712
118	0xb9a16d7f	-0.00030789894
119	0xb87df2c0	-6.054598e-05
120	0xba8f3d6b	-0.0010928338
121	0xbb8f9c9b	-0.0043826825
122	0xb9e55515	-0.00043741675
123	0x3ac473e6	0.0014988154
124	0xb6445d40	-2.9260555e-06
125	0xb9753bac	-0.0002338725
126	0xba39c00a	-0.0007085806
127	0xbb22efe0	-0.0024862215
128	0xb9c5026e	-0.00037576578
129	0xbabdcbe1	-0.0014480316
130	0xb98ff9bb	-0.0002746115
131	0xb9141781	-0.00014123136
132	0xba617c3f	-0.0008601583
133	0x3acd1215	0.0015645648
134	0x3a54d796	0.0008119283
135	0x3a8dba93	0.001081305
136	0x3a4f5a66	0.0007909894
137	0xbb9fdd71	-0.004878693
138	0x3b45a10d	0.0030155808
139	0x3c7044f0	0.0146648735
140	0xb90ffed7	-0.00013732478
141	0x3ab0beeb	0.0013484632
142	0xb99508b0	-0.00028425967
143	0xbb46c7a4	-0.0030331397
144	0xb9c74572	-0.0003800798
145	0xbb1d3e08	-0.0023993272
146	0x3945544a	0.00018818784
147	0x3ad82b2c	0.0016492358
148	0xbb13362d	-0.0022462711
149	0x3b44a889	0.0030007681
150	0x3a423cf9	0.00074095983
151	0xbb15de0e	-0.002286795
152	0xba59c3af	-0.0008307052
153	0xbb1e21d1	-0.0024129043
154	0xba0a1b6b	-0.0005268368
155	0xba934818	-0.0011236696
156	0xb97547bf	-0.00023391748
157	0x399532ee	0.0002845744
158	0x37ed1052	2.8260201e-05
159	0xba196781	-0.000585191
160	0x39d47380	0.00040521845
161	0xb9ad5c24	-0.00033065781
162	0x3906b166	0.00012845322
163	0x3ac5a8b6	0.0015080187
164	0x3954ff99	0.00020313113
165	0xba70930a	-0.0009177184
166	0xbadff5f1	-0.0017086846
167	0xbba82575	-0.0051314184
168	0x3b027a9e	0.0019909511
169	0x3b1aeba6	0.0023638993
170	0x3a270864	0.0006371795
171	0x3b0c6bf9	0.0021426661
172	0xba0a6860	-0.00052798353
173	0xbaf8c4fb	-0.0018979603
174	0x3965ddd6	0.00021921782
175	0x3abe49c4	0.0014517833
176	0x3b14aab4	0.0022684755
177	0x3aa975a8	0.0012928741
178	0x39807042	0.000244977
179	0x3abf088e	0.0014574693
180	0xbb0e16b6	-0.0021681017
181	0x3b95810c	0.0045625027
182	0x3adb798f	0.0016744601
183	0xb92b70f0	-0.00016349903
184	0x39965766	0.00028675346
185	0x3a1f2120	0.00060703047
186	0xb94ef0cc	-0.00019735395
187	0xbad53d5e	-0.0016268899
188	0xbaf893ce	-0.0018964948
189	0x3b80e808	0.0039339103
190	0x39c2fb1c	0.00037189655
191	0xbb86fd7e	-0.004119574
192	0xba289cce	-0.0006432057
193	0x3ba772c4	0.0051101167
194	0x3ae25246	0.0017266951
195	0x3b634db4	0.0034683766
196	0x3b83baf6	0.00402009
197	0x3c17ceef	0.009265645
198	0x3b9d522b	0.004801055
199	0x3c821470	0.015878886
200	0xb921f39b	-0.00015444907
201	0xbafb22f4	-0.0019160197
202	0xb980e3d1	-0.000245838
203	0x3a70cdd4	0.0009185944
204	0xba289b9a	-0.0006431878
205	0x39867ae0	0.0002565002
206	0x3a06dc87	0.00051445555
207	0x3aa72001	0.0012750627
208	0x3995d5d2	0.00028578803
209	0x390772c8	0.00012917363
210	0x394746fe	0.00019004566
211	0x3ae2b08e	0.0017295049
212	0xb93f9618	-0.00018271094
213	0xb8f60aca	-0.00011732204
214	0x38a9f3d6	8.103966e-05
215	0x3939eed4	0.00017731945
216	0xbaa2fd80	-0.0012435168
217	0x3ba92a7c	0.0051625352
218	0x3a528f37	0.0008032205
219	0xbb590347	-0.0033113526
220	0x38d24332	0.000100260964
221	0xb9673298	-0.00022048724
222	0xba3b8235	-0.0007152886
223	0xbb19340f	-0.0023376977
224	0x3a6be80a	0.0008999115
225	0xbb2b1dbe	-0.0026110257
226	0xba1a31c8	-0.0005882052
227	0x3a83063e	0.0009996367
228	0x39c26162	0.0003707512
229	0x3b9a1744	0.0047024805
230	0x3b0fc341	0.0021936449
231	0x3b3b7c9a	0.0028608204
232	0x3b2a9ed1	0.0026034603
233	0x3c22747c	0.009915467
234	0x3b3a699e	0.00284443
235	0x3b7a1d9a	0.0038164617
236	0xb9afcd05	-0.00033531353
237	0x39534fdd	0.0002015228
238	0x38c562e7	9.412114e-05
239	0xb9e4eea4	-0.0004366535
240	0x3bb78428	0.005600471
241	0x3c738412	0.014863031
242	0x3bb4c3f2	0.0055165226
243	0x3c704194	0.014664073
244	0xb98eccda	-0.00027236977
245	0xbb43604b	-0.0029812034
246	0xba995b08	-0.0011700103
247	0xbb088ff2	-0.0020837751
248	0xb932f86e	-0.0001706795
249	0xba752a5d	-0.0009352321
250	0xb9613cab	-0.00021480273
251	0x39b16f40	0.00033842959
252	0xb903f146	-0.00012583015
253	0x3a4b6034	0.0007758171
254	0xb8615724	-5.3725336e-05
255	0xba985b0b	-0.0011623813
